Python/save/localizer/trial_2/quake_localization_model_00240.pth (torch, 252994 bytes, 35 tensors)

encoder_blocks.0.weight f4 [12, 1, 13]
0.18633777 0.19649422 0.22186837 0.08354608 0.18448338 0.10213628 -0.10824143 -0.06273689
-0.2062636 -0.19959664 -0.19280404 0.08663889 -0.086808786 -0.2136768 -0.24448359 -0.25386482
-0.12814885 0.10736333 -0.16725817 0.27735022 -0.19462754 -0.019866945 0.07384503 0.17225489
0.15814649 -0.04242628 0.0699932 -0.08869026 0.029740464 0.070131734 -0.21813135 -0.1881446
0.1562823 -0.06791606 -0.106079 -0.10877515 -0.007816793 -0.11033208 -0.24586935 0.07807579
0.029400969 -0.20732 0.07501246 -0.15875593 -0.13674706 0.0849801 0.034943 0.03747157
-0.0914002 0.0028480066 0.26356104 -0.25047132 0.054286376 0.045846883 -0.08824834 -0.0056252605
-0.14523897 -0.112762086 -0.14523298 0.17894864 -0.034163292 0.12003027 -0.011439599 -0.1330495
-0.16780399 -0.08731391 0.23585023 0.09689212 -0.029526273 -0.056985836 0.076116756 0.22123618
-0.2350577 0.07762456 0.15227813 -0.1984973 0.2246065 0.16914491 -0.11428722 0.026898287
0.123661995 0.10622227 0.06634748 -0.033001088 -0.08111805 0.24251354 0.14308031 0.14393696
-0.2681457 0.12046213 -0.15124708 0.09419271 -0.096553914 -0.050115835 0.107106864 -0.2027052
0.2725815 0.1986451 -0.087537326 0.14098251 -0.16964856 0.011786063 0.21661213 0.01936902
-0.17328592 -0.016835205 -0.04220338 -0.074123524 0.16723515 0.19487834 0.18716472 0.25078195
0.1571054 0.18686727 0.2261795 -0.13524061 0.15703683 0.26240832 -0.08207609 -0.19626756
-0.21686386 0.0047063557 -0.17733544 -0.19703758 0.13108906 0.21117519 -0.19106911 0.26904547
0.051834077 0.1064656 0.28004196 -0.21971187 0.27283344 0.022817032 -0.033363592 0.20491032
0.11897654 0.024571087 -0.039276272 -0.051439874 -0.007466902 -0.105215125 -0.18446371 0.07314154
0.14792743 -0.2083068 -0.05458255 -0.22760192 -0.26965272 0.08858367 -0.23823446 -0.10406139
-0.17307916 0.23498143 -0.18976873 -0.12099158
00000000: 54cf 3e3e c835 493e 7631 633e 351a ab3d
00000010: 36e9 3c3e d32c d13d afad ddbd 337c 80bd
00000020: c436 53be 1063 4cbe 6c6e 45be bb6f b13d
00000030: cec8 b1bd 17ce 5abe e859 7abe 92fa 81be
00000040: 7439 03be 4ee1 db3d ba45 2bbe d900 8e3e
00000050: 714c 47be 01c0 a2bc 103c 973d 9663 303e
00000060: 27f1 213e 2ec7 2dbd 9858 8f3d 3da3 b5bd
00000070: 46a2 f33c 3aa1 8f3d d35d 5fbe faa8 40be
00000080: 7808 203e 9317 8bbd f23f d9bd 81c5 debd
00000090: 0212 00bc c9f5 e1bd 2dc5 7bbe 33e6 9f3d
000000a0: 4dda f03c b24b 54be 22a0 993d ea90 22be
000000b0: 6c07 0cbe 0c0a ae3d 6420 0f3d ca7b 193d
000000c0: 0730 bbbd 9fa5 3a3b 79f1 863e c73d 80be
000000d0: 645b 5e3d f1c9 3b3d 8cbb b4bd 1b54 b8bb
000000e0: 86b9 14be cfef e6bd f4b7 14be 503e 373e
000000f0: cfee 0bbd 6ed2 f53d 286d 3bbc 213e 08be
00000100: cfd4 2bbe a3d1 b2bd b982 713e 606f c63d
00000110: 15e1 f1bc fb69 69bd 1ae3 9b3d bd8b 623e
00000120: f7b2 70be a0f9 9e3d ccee 1b3e e042 4bbe
00000130: 3fff 653e 5334 2d3e 6b0f eabd cc59 dc3c
00000140: 8042 fd3d 108b d93d 30e1 873d 262c 07bd
00000150: 3821 a6bd 7855 783e a583 123e 3664 133e
00000160: 654a 89be d9b4 f63d 84e0 1abe 1ce8 c03d
00000170: 0fbe c5bd 4346 4dbd d85a db3d f491 4fbe
00000180: cd8f 8b3e 9f69 4b3e c546 b3bd b85d 103e
00000190: 5ab8 2dbe 551a 413c 92cf 5d3e c7ab 9e3c
000001a0: dd71 31be fce9 89bc 74dd 2cbd 13ce 97bd
000001b0: b13f 2b3e 308e 473e 1ca8 3f3e 7e66 803e
000001c0: 3de0 203e 225a 3f3e 999b 673e 847c 0abe
000001d0: 43ce 203e 625a 863e 8217 a8bd 5dfa 48be
000001e0: 8f11 5ebe c637 9a3b 6c97 35be 38c4 49be
000001f0: 363c 063e 4f3e 583e 9fa7 43be 54c0 893e
00000200: f84f 543d a30a da3d a961 8f3e 26fc 60be
00000210: d3b0 8b3e c9ea ba3c 43a8 08bd 03d4 513e
00000220: f9a9 f33d 4e49 c93c 28e0 20bd 9eb2 52bd
00000230: eaac f4bb 077b d7bd 0ee4 3cbe 3bcb 953d
00000240: 4a7a 173e 614e 55be f491 5fbd 7a10 69be
00000250: ec0f 8abe 5b6b b53d bcf3 73be 231e d5bd
00000260: aa3b 31be f99e 703e bc52 42be 6fca f7bd

encoder_blocks.0.bias f4 [12]
-0.16876587 0.042499214 0.25848827 -0.12081223 0.26497412 -0.24089596 0.053229075 0.10031494
0.06399119 -0.08099631 0.016582593 0.09885079
00000000: f6d0 2cbe a813 2e3d 9358 843e 676c f7bd
00000010: b0aa 873e 6ead 76be bb06 5a3d eb71 cd3d
00000020: d00d 833d 65e1 a5bd 38d8 873c 4872 ca3d

encoder_blocks.1.0.weight f4 [12, 12, 13]
-0.014482741 0.053812005 0.067917325 -0.026169352 -0.046640147 0.056992374 -0.04525956 0.019786676
-0.048975524 -0.025547547 -0.03607097 0.052570052 0.010934945 0.059237935 -0.047816306 -0.018819014
-0.04988388 0.015523552 0.0069062123 -0.0518774 -0.024490746 -0.07063919 -0.02178979 -0.02052341
-0.044836942 0.044099882 -0.0047698044 0.06697795 -0.0030599604 0.0065443707 -0.056765355 -0.06948926
0.07609708 -0.08179014 0.060710553 -0.01349541 0.051009003 0.08208859 0.071301766 -0.08081907
0.036969922 -0.06362193 0.031792074 0.03288464 0.066770606 0.058791634 0.019164564 -0.059211925
-9.2863454e-05 -0.080688074 -0.0667435 0.062202796 0.007495621 0.044912186 0.0019141318 -0.06953875
0.070972666 0.043127038 -0.022319714 0.010002734 0.006103473 -0.0102422815 -0.05637102 0.019557303
-0.020759635 0.040851805 -0.035542555 0.028036155 0.01115772 -0.046948466 -0.056949392 -0.051133636
0.060458053 -0.069906734 0.042953353 0.074001156 0.029037086 -0.045840304 0.03340149 -0.07973103
0.003943283 0.049880475 0.079766825 -0.0471202 -0.06522021 0.0151299 -0.048263542 0.013365949
0.056107707 0.066054344 0.021158038 -0.044788577 0.0006149928 -0.030983297 -0.047793794 -0.01834043
-0.03356549 -0.055524267 0.06503692 0.05128303 -0.067714944 -0.008429349 -0.019933471 0.0023533276
0.0682047 -0.025793476 0.003563642 -0.07565031 0.028918322 -0.047142807 0.022385197 -0.032489385
-0.009439099 0.04346027 0.037730332 0.05705222 0.06759394 -0.016370606 -0.03166839 -0.02029106
0.007839233 0.03423829 -0.04519311 -0.07613173 -0.06888496 -0.012893042 -0.019480314 -0.016313802
-0.030440075 -0.060995486 -0.030754836 0.009054093 -0.068202026 0.02085094 -0.035414856 0.0677157
-0.016676739 0.004078172 -0.04065175 -0.0085545555 -0.06274776 -0.03958596 -0.018509757 -0.022794183
0.043689974 -0.021497872 -0.016484851 0.06297316 -0.0694495 0.020384999 -0.038879905 0.02816243
0.036904816 -0.040083736 0.04442855 -0.073937885 -0.031236144 0.042050336 -0.06507469 0.044263545
0.030920958 -0.07324381 -0.0614357 0.04310969 0.076846056 0.06767984 -0.047616616 0.05341271
0.058181632 -0.0737339 -0.05982722 0.04281367 0.06842897 0.05847093 0.06446227 0.038442586
0.07677879 0.024634589 -0.009505053 0.029545404 -0.062906645 0.068307154 0.0007083795 0.008945104
0.07974404 0.071210004 0.0029106971 -0.035030138 -0.04986123 -0.047480628 0.045619186 -0.03133404
-0.066317394 0.031555742 0.08601995 0.009542346 0.0115099 0.016589878 0.025377598 0.017505694
-0.03515359 -0.06362721 -0.023567367 0.026941048 -0.03189081 0.08137795 -0.028136564 0.07535819
-0.040064044 -0.053566225 -0.03664621 -0.062235367 0.010896432 -0.0074128425 0.04856664 -0.06859736
0.0005532004 -0.021941235 0.05086446 -0.010671445 0.019661805 0.06744597 0.0017371522 0.004569742
0.049401954 0.0060794945 0.010604719 0.0062027853 0.026200298 0.045128845 -0.018733852 -0.044536054
-0.026873432 0.038084656 0.027250908 -0.027098658 0.07071241 -0.06559795 -0.055885553 0.07361392
0.027625794 0.050979674 0.0100513585 -0.0694853 -0.008203282 0.01694209 -0.046426665 -0.073321715
-0.030625077 -0.029227076 0.052039377 0.06878449 -0.058417264 0.006402157 -0.01426923 0.0012609039
00000000: 0549 6dbc fa69 5c3d 3d18 8b3d 1c61 d6bc
00000010: bd09 3fbd d670 693d 1762 39bd ab17 a23c
00000020: 8f9a 48bd 1749 d1bc 27bf 13bd b253 573d
00000030: 7c28 333c 7aa3 723d 08db 43bd 552a 9abc
00000040: 0a53 4cbd 7f56 7e3c 824d e23b 667d 54bd
00000050: d1a0 c8bc 48ab 90bd 8080 b2bc b620 a8bc
00000060: f1a6 37bd 14a2 343d 054c 9cbb bc2b 893d
00000070: 9e89 48bb 2972 d63b ca82 68bd 6350 8ebd
00000080: c9d8 9b3d 9781 a7bd a1ab 783d da1b 5dbc
00000090: d1ee 503d 101e a83d a906 923d 7884 a5bd
000000a0: c66d 173d 374c 82bd 6838 023d 0bb2 063d
000000b0: 07bf 883d 7fcf 703d 01ff 9c3c 3488 72bd
000000c0: b0bf c2b8 ca3f a5bd d1b0 88bd 5cc8 7e3d
000000d0: d49d f53b d7f5 373d 9be3 fa3a 556a 8ebd
000000e0: 1e5a 913d faa5 303d d5d7 b6bc 82e2 233c
000000f0: a4ff c73b 3ecf 27bc 4ce5 66bd a336 a03c
00000100: 1c10 aabc 3954 273d 1295 11bd 14ac e53c
00000110: dfce 363c 094d 40bd c443 69bd 8171 51bd
00000120: dda2 773d 432b 8fbd dbef 2f3d eb8d 973d
00000130: 2fdf ed3c 0bc3 3bbd 00d0 083d 064a a3bd
00000140: a836 813b 784f 4c3d ca5c a33d 1c01 41bd
00000150: 2c92 85bd 66e3 773c feaf 45bd dafc 5a3c
00000160: 32d1 653d 8047 873d 9f53 ad3c 3a74 37bd
00000170: 7837 213a afd0 fdbc 6dc3 43bd ab3e 96bc
00000180: f87b 09bd 6a6d 63bd 1432 853d 280e 523d
00000190: 22ae 8abd 411b 0abc 854b a3bc 493a 1a3b
000001a0: e8ae 8b3d d74c d3bc fe8b 693b 8dee 9abd
000001b0: 1ee6 ec3c d118 41bd 2961 b73c 9713 05bd
000001c0: 73a6 1abc 6503 323d 1f8b 1a3d 97af 693d
000001d0: b16e 8a3d a61b 86bc b7b6 01bd 7039 a6bc
000001e0: 2070 003c 733d 0c3d 691c 39bd f4ea 9bbd
000001f0: 8f13 8dbd 563d 53bc 2e95 9fbc 86a4 85bc
00000200: 775d f9bc 67d6 79bd 91f1 fbbc 9e57 143c
00000210: 81ad 8bbd 97cf aa3c 2b0f 11bd 87ae 8a3d
00000220: a89d 88bc 30a2 853b 7382 26bd 6828 0cbc
00000230: e681 80bd e324 22bd c6a1 97bc deba babc
00000240: 42f4 323d 4e1c b0bc 3d0b 87bc 12f8 803d
00000250: 8a3b 8ebd 71fe a63c 8940 1fbd e5b4 e63c
00000260: 8129 173d d82e 24bd b6fa 353d bf6c 97bd
00000270: f1e2 ffbc f93c 2c3d e145 85bd b14d 353d
00000280: f34d fd3c da00 96bd 00a4 7bbd c993 303d
00000290: 7761 9d3d ba9b 8a3d a409 43bd 49c7 5a3d
000002a0: dd4f 6e3d cd01 97bd 630d 75bd 635d 2f3d
000002b0: 7d24 8c3d 377f 6f3d cb04 843d f975 1d3d
000002c0: 333e 9d3d 7ace c93c 15bb 1bbc 3409 f23c
000002d0: 33d5 80bd 9fe4 8b3d 8bb2 393a 7c8e 123c
000002e0: d850 a33d 8dd6 913d 65c1 3e3b c37b 0fbd
000002f0: 4a3b 4cbd 0c7b 42bd 2fdb 3a3d 1f58 00bd
00000300: 6ad1 87bd 9840 013d 3a2b b03d 8057 1c3c
00000310: 0594 3c3c 7fe7 873c aee4 cf3c 1a68 8f3c
00000320: 36fd 0fbd fc4e 82bd 5a10 c1bc 79b3 dc3c
00000330: f09f 02bd 7ca9 a63d a77e e6bc 6555 9a3d
00000340: 321a 24bd 4268 5bbd 561a 16bd 83ea 7ebd
00000350: f386 323c 6ee7 f2bb d0ed 463d c67c 8cbd
00000360: a704 113a 1bbe b3bc 4157 503d 49d7 2ebc
00000370: cb11 a13c 1d21 8a3d 28b1 e33a c6bd 953b
00000380: b459 4a3d 7f36 c73b 6abf 2d3c bc40 cb3b
00000390: 02a2 d63c 06d9 383d bc77 99bc 706b 36bd
000003a0: ac25 dcbc a8fe 1b3d 4c3d df3c 01fe ddbc
000003b0: abd1 903d 3858 86bd 40e8 64bd e5c2 963d
000003c0: 7d4f e23c 10d0 503d 74ae 243c 4f4e 8ebd
000003d0: 0f67 06bc 23ca 8a3c e329 3ebd b229 96bd
000003e0: 71e1 fabc 9f6d efbc 3e27 553d e2de 8c3d
000003f0: f146 6fbd 2fc9 d13b 7dc9 69bc ea44 a53a

encoder_blocks.1.0.bias f4 [12]
0.017492034 -0.0010797437 -0.057479035 0.0661931 -0.08571819 0.02744496 -0.030096091 -0.024421854
0.0480818 0.08613658 0.07342378 0.030579127
00000000: 744b 8f3c 3086 8dba 236f 6bbd 3f90 873d
00000010: 058d afbd 41d4 e03c 148c f6bc 5710 c8bc
00000020: 6cf1 443d 6068 b03d 355f 963d 1481 fa3c

encoder_blocks.1.2.weight f4 [12, 12, 13]
0.058622435 -0.04926045 0.048056386 0.08017469 0.049127582 0.037583787 0.0097742025 -1.9955492e-05
-0.011758141 -0.030836182 -0.00573599 -0.008819517 0.06229509 -0.05686918 0.0164587 -0.01012835
0.0024627848 0.045855965 0.07566528 -0.066732384 0.080918536 -0.056880847 0.08261483 -0.011373178
0.056311663 0.05853605 -0.051678397 -0.07577194 0.04421249 0.013429741 -0.012557919 -0.033415765
-0.07642204 -0.05332066 0.07006669 0.02889172 0.05356334 -0.03709981 0.040721603 0.011570572
-0.030077426 -0.008539629 0.032624554 -0.018524852 0.053134795 0.007205097 -0.04660369 0.013413919
0.016709594 -0.062378246 -0.060581323 0.072053775 0.06320566 0.016022846 -0.054333646 -0.04434711
0.015606588 -0.008358344 0.0053294385 0.07107536 0.02907565 -0.01554151 -0.055704355 0.0049295863
0.026045868 0.06800632 -0.036850788 -0.06556125 0.014707401 -0.06060391 0.06000804 -0.024482226
-0.07176961 -0.07517298 -0.0083467495 0.041856986 -0.035306927 -0.005819972 -0.010526528 0.040499404
0.0354157 -0.030443214 0.010156857 0.031444486 -0.006367075 -0.014211313 0.021630649 0.014774228
-0.058833595 0.04697208 -0.029803295 0.07326696 0.00090216065 0.04126109 0.019694118 0.07435362
-0.0027465674 0.014453306 -0.07650786 0.024460806 0.011625618 -0.04665362 -0.070815615 0.08101927
-0.07122415 0.044957332 -0.010247755 -0.009769551 -0.06814606 0.02899977 0.033261605 0.026511656
-0.02594077 0.028713819 -0.031117186 0.031528562 0.0029082487 0.05754221 -0.025732355 -0.0042613703
-0.06452912 0.04659379 0.07418525 0.064048424 -0.07868368 0.059464764 -0.012363148 -0.0052390923
0.039879188 0.042246826 -0.040169086 -0.0229799 0.058866672 -0.05825958 0.042029373 -0.039189693
-0.052425284 0.078678474 -0.05261354 -0.033958573 0.076410554 -0.051336303 0.06952031 -0.07483367
-0.02147899 -0.02069104 0.081039235 0.029868951 -0.031865582 0.06749717 0.024760677 0.07088672
0.029040793 0.062477916 0.07722053 -0.034133036 -0.0009228605 -0.008049383 -0.06305222 -0.06573271
-0.015828207 -0.081621036 0.022618761 -0.0508073 -0.025077272 0.03748066 0.04858307 -0.020884765
-0.03165223 -0.07863536 -0.026422987 0.01796074 -0.009846334 0.061365936 0.086982735 0.010609201
0.041357107 0.07234158 0.005005029 -0.08068656 0.06106977 -0.067165084 -0.047354504 0.015676148
0.06446848 0.02929517 -0.011474625 0.05573764 -0.079967946 0.07939028 -0.012818347 0.029258817
-0.012497399 0.07655956 0.006122465 -0.03315739 0.0060114865 -0.0035655112 0.052010648 -0.032926187
-0.06258765 0.003409211 -0.06548012 -0.048160248 0.06890252 0.03693226 -0.057395197 0.013016646
0.050862808 -0.031837113 -0.0029205866 -0.056622446 -0.03813699 0.074935414 -0.064884044 0.080752365
-0.009915271 -0.025188323 0.02279675 0.034269165 -0.035833344 0.06781345 0.059212692 -0.0017183032
-0.027817184 -0.07395135 0.047233567 0.033821065 -0.06582596 0.074286796 0.052900918 0.04247619
-0.0709987 0.0675646 -0.012021018 0.0048191743 -0.043307908 -0.006524604 -0.026579626 0.009857376
0.06301998 -0.053569887 0.01571849 0.01585544 0.02869413 0.036555886 -0.07636114 0.020784397
-0.018871753 0.051312655 0.022757675 -0.057415485 0.035924565 0.06911575 -0.057215516 -0.059667725
00000000: 141e 703d 53c5 49bd c6d6 443d a132 a43d
00000010: 013a 493d 75f1 193d fa23 203c 1866 a7b7
00000020: 38a5 40bc 299c fcbc f9f4 bbbb bc7f 10bc
00000030: 2329 7f3d a8ef 68bd 65d4 863c 61f1 25bc
00000040: ac66 213b 77d3 3b3d 66f6 9a3d fdaa 88bd
00000050: 9eb8 a53d e4fb 68bd f731 a93d 9156 3abc
00000060: 0fa7 663d 7fc3 6f3d baac 53bd 522e 9bbd
00000070: 2818 353d 6b08 5c3c bbbf 4dbc f8de 08bd
00000080: 2983 9cbd c466 5abd 207f 8f3d 54ae ec3c
00000090: 3c65 5b3d f8f5 17bd b2cb 263d 7f92 3d3c
000000a0: ef64 f6bc cde9 0bbc 53a1 053d 6ec1 97bc
000000b0: dfa3 593d bc18 ec3b 83e3 3ebd 0ec6 5b3c
000000c0: 8fe2 883c 5580 7fbd 1f24 78bd ee90 933d
000000d0: f871 813d 5842 833c f58c 5ebd 51a5 35bd
000000e0: c6b2 7f3c 70f1 08bc 92a2 ae3b f58f 913d
000000f0: 0f30 ee3c d1a1 7ebc 402a 64bd 5e88 a13b
00000100: 255e d53c e646 8b3d daf0 16bd fa44 86bd
00000110: 50f7 703c ce3b 78bd feca 753d f38e c8bc
00000120: f2fb 92bd 4bf4 99bd cec0 08bc 3b72 2b3d
00000130: ff9d 10bd 77b5 bebb 7577 2cbc b4e2 253d
00000140: 0e10 113d 0c64 f9bc f268 263c efcb 003d
00000150: e5a2 d0bb 91d6 68bc c232 b13c 9b0f 723c
00000160: 7ffb 70bd cc65 403d 0a26 f4bc fd0c 963d
00000170: fa7e 6c3a 6401 293d 8f55 a13c b646 983d
00000180: c1ff 33bb 8fcd 6c3c 27b0 9cbd 0762 c83c
00000190: 6079 3e3c de17 3fbd c707 91bd 6eed a53d
000001a0: f8dd 91bd 2e25 383d 33e6 27bc 7810 20bc
000001b0: 2990 8bbd ed90 ed3c 523d 083d f92e d93c
000001c0: bd81 d4bc 3e39 eb3c 78e9 febc 1824 013d
000001d0: 5198 3e3b 61b1 6b3d a9cc d2bc f7a2 8bbb
000001e0: d827 84bd 21d9 3e3d 70ee 973d d22b 833d
000001f0: e924 a1bd 5391 733d cd8e 4abc b1ac abbb
00000200: 5c58 233d 020b 2d3d 5788 24bd 5840 bcbc
00000210: 2e1e 713d 99a1 6ebd fe26 2c3d 5f85 20bd
00000220: e5bb 56bd 2e22 a13d 4c81 57bd 2518 0bbd
00000230: 237d 9c3d 0446 52bd aa60 8e3d 6542 99bd
00000240: b5f4 afbc 4280 a9bc e6f7 a53d bbaf f43c
00000250: 7c85 02bd f53b 8a3d e7d6 ca3c 0f2d 913d
00000260: f5e6 ed3c d8e8 7f3d cc25 9e3d 15cf 0bbd
00000270: 1fec 71ba 8fe1 03bc 8621 81bd df9e 86bd
00000280: 28aa 81bc ee28 a7bd fb4a b93c 511b 50bd
00000290: da6e cdbc 5285 193d 0bff 463d 8716 abbc
000002a0: c5a5 01bd 930b a1bd 0575 d8bc 6722 933c
000002b0: 8552 21bc d95a 7b3d 0124 b23d 37d2 2d3c
000002c0: 1266 293d d327 943d 3a01 a43b ff3e a5bd
000002d0: 4c24 7a3d d98d 89bd ccf6 41bd 446b 803c
000002e0: 0d08 843d 6dfc ef3c 1100 3cbc 274d 643d
000002f0: 3cc6 a3bd 5f97 a23d 0b04 52bc 30b0 ef3c
00000300: e4c1 4cbc 42cb 9c3d f59e c83b 0bd0 07bd
00000310: 01fc c43b 5aab 69bb 1e09 553d 9cdd 06bd
00000320: f42d 80bd 126d 5f3b 711a 86bd ae43 45bd
00000330: c41c 8d3d 4846 173d 3a17 6bbd c543 553c
00000340: 8555 503d a267 02bd 5067 3fbb f0ec 67bd
00000350: 8835 1cbd bd77 993d ede1 84bd 7f61 a53d
00000360: a973 22bc be57 cebc 40c0 ba3c d35d 0c3d
00000370: fcc5 12bd c7e1 8a3d 0289 723d b038 e1ba
00000380: dde0 e3bc ce73 97bd fc77 413d f587 0a3d
00000390: c3cf 86bd ad23 983d a2ae 583d 83fb 2d3d
000003a0: c467 91bd 4f5f 8a3d cef3 44bc 2aea 9d3b
000003b0: a263 31bd 58cc d5bb 84bd d9bc d580 213c
000003c0: 9f10 813d 196c 5bbd 10c4 803c 45e3 813c
000003d0: f40f eb3c a0bb 153d 3b63 9cbd 0a44 aa3c
000003e0: ef98 9abc 382d 523d 4e6e ba3c 802c 6bbd
000003f0: a325 133d 8f8c 8d3d d15a 6abd 2566 74bd

encoder_blocks.1.2.bias f4 [12]
-0.0014291427 0.004475811 0.07596885 0.030274278 0.02233289 -0.040285867 -0.04810583 -0.07046664
0.040842187 0.053733595 0.062510684 -0.011125693
00000000: 1252 bbba d3a9 923b 8e95 9b3d c301 f83c
00000010: 77f3 b63c cb02 25bd 9e0a 45bd d050 90bd
00000020: 234a 273d c217 5c3d 9a05 803d 8a48 36bc

encoder_blocks.2.0.weight f4 [12, 12, 13]
0.075678214 -0.013944615 0.027332412 0.049412612 0.007315348 0.036062557 0.07734342 0.037165742
0.020971302 -0.0781581 0.045563925 -0.06858967 0.054530118 -0.07343629 0.06778928 -0.038499217
-0.004066784 0.014891666 -0.06533454 -0.020908983 0.045472894 -0.07448826 0.033765912 0.0003959416
0.042840067 -0.06203531 0.0448641 -0.0396631 -0.070475705 -0.048699778 0.034627892 0.0011629245
-0.061481725 -0.032051407 0.024011541 -0.050028987 0.010249921 0.0036109637 0.061835922 0.036310714
-0.082136154 -0.011289755 0.058501422 0.032522853 0.015725583 -0.0009481652 -0.03250213 -0.059507918
0.079950824 0.012914018 0.008594172 0.04707328 0.044069633 -0.023392895 0.038876303 0.012155186
0.02422357 0.062382147 0.05439902 -0.071905464 -0.0073256246 0.03065387 0.06518282 0.022957074
0.0037139675 -0.027155416 0.02103557 0.014584601 -0.066888615 -0.07116696 -0.073924415 -0.027935918
0.065352954 0.027224794 -0.07577498 -0.00032147937 -0.03804157 0.06171146 0.042336017 -1.4414874e-05
-0.010943006 0.0024211574 -0.0029052126 0.0016027194 0.018081 -0.040002435 -0.03477372 -0.06290097
-0.03148299 0.006408626 0.051731005 -0.043727692 -0.0746702 0.057538006 -0.009442826 -0.04906822
0.023966977 -0.012896774 -0.02347743 0.07928467 -0.054009337 0.020246096 0.04723048 -0.04147728
-0.02113413 -0.04575248 0.021014944 -0.057132844 0.06816354 0.07561782 -0.031111434 0.05282633
-0.07065367 -0.007830628 0.034211624 -0.06289223 -0.041020706 -0.036048803 0.007827853 -0.0070529855
-0.06229138 0.077567436 -0.072013155 0.042306334 -0.015611443 -0.05981068 0.015001195 -0.041122228
-0.03555962 -0.050600618 -0.07127773 -0.06272507 -0.07462447 -0.008268646 0.018694289 0.025961116
0.06949642 0.0013592842 -0.0009874513 0.06497459 0.04018779 0.030168202 -0.055020135 0.0061862036
-0.06724407 -0.055195272 0.06834748 -0.066829175 -0.052773118 0.0053401897 0.024104785 0.00070543145
0.018433545 0.07919757 -0.053513784 0.05729296 0.056033287 -0.039512105 0.007429016 0.05045071
-0.03602025 0.036114533 -0.015106231 -0.00918339 0.017598579 0.0013352848 0.04099231 0.06943235
-0.03420199 0.08339724 0.043069735 -0.020960266 -0.04601368 -0.038268346 0.012923903 0.038096387
-0.021263603 -0.001368974 0.059791304 0.041719563 -0.02993775 0.07790378 -0.003875084 0.02612956
-0.043350898 0.046697587 0.06816156 0.0014433974 -0.020615295 0.019165197 -0.059355337 -0.023193935
0.028481761 -0.0021710896 0.06463008 0.06918625 0.06299236 0.060357273 -0.05514067 0.017153386
0.018355843 0.044798292 -0.025028035 0.02996082 -0.003029173 0.064225644 -0.009566087 -0.013018434
0.019290155 0.008219716 0.03214324 0.073439695 -0.05721569 0.05445967 0.009357862 -0.01851274
-0.05085911 -0.071382575 -0.074054554 0.03288701 0.054701325 0.01502452 0.04432622 -0.0038374448
-0.06860388 0.052804243 0.07523862 -0.060724713 -0.024996737 0.06716929 -0.029320965 -0.05687585
0.030340128 0.057562035 -0.07035798 0.03465493 0.028581193 -0.0464129 0.05540495 -0.06683175
-0.006916172 0.0015135909 0.050889604 0.03675861 -0.0750905 0.069949895 -0.045406535 -0.040565915
0.0018453092 -0.046479877 0.04345077 0.0450113 -0.020987492 -0.010556216 0.013650334 -0.036474705
00000000: 2efd 9a3d f477 64bc 39e8 df3c e164 4a3d
00000010: 96b5 ef3b 55b6 133d 3a66 9e3d 1b3b 183d
00000020: 02cc ab3c 5b11 a0bd 3da1 3a3d be78 8cbd
00000030: f95a 5f3d c465 96bd 1bd5 8a3d 5bb1 1dbd
00000040: a842 85bb 2dfc 733c 1ece 85bd 5149 abbc
00000050: c941 3a3d 4d8d 98bd 204e 0a3d 6296 cf39
00000060: 1179 2f3d bd18 7ebd 6bc3 373d c675 22bd
00000070: 9155 90bd 6b79 47bd fad5 0d3d 456d 983a
00000080: 43d4 7bbd 5648 03bd dab3 c43c 32eb 4cbd
00000090: 49ef 273c eba5 6c3b aa47 7d3d 8bba 143d
000000a0: 0037 a8bd aaf8 38bc 309f 6f3d af36 053d
000000b0: f0d2 803c 4a8e 78ba f420 05bd 93be 73bd
000000c0: 42bd a33d 5195 533c 92ce 0c3c e9cf 403d
000000d0: 5c82 343d 75a2 bfbc c23c 1f3d 8c26 473c
000000e0: 8270 c63c 6c84 7f3d 82d1 5e3d 2c43 93bd
000000f0: cb0b f0bb d31d fb3c 927e 853d 7910 bc3c
00000100: 0966 733b 0975 debc ca52 ac3c 40f4 6e3c
00000110: e6fc 88bd fcbf 91bd af65 97bd ded9 e4bc
00000120: c5d7 853d 8806 df3c ea2f 9bbd 3b8c a8b9
00000130: 7ad1 1bbd 28c5 7c3d 8868 2d3d 6ad7 71b7
00000140: 4b4a 33bc 48ac 1e3b 6165 3ebb 5712 d23a
00000150: 9b1e 943c 98d9 23bd e36e 0ebd 39d2 80bd
00000160: 4ff4 00bd 74ff d13b e4e3 533d cf1b 33bd
00000170: b1ec 98bd f9ac 6b3d 15b6 1abc c2fb 48bd
00000180: 6556 c43c fe4c 53bc bd53 c0bc 0060 a23d
00000190: e538 5dbd 24db a53c bf74 413d 15e4 29bd
000001a0: 7c21 adbc f466 3bbd 8827 ac3c 2104 6abd
000001b0: 5399 8b3d 84dd 9a3d 68dd febc 6c60 583d
000001c0: dfb2 90bd 094c 00bc 7d21 0c3d a4cd 80bd
000001d0: 5405 28bd e9a7 13bd 6540 003c bb1c e7bb
000001e0: 3f25 7fbd addb 9e3d a27b 93bd 6849 2d3d
000001f0: 23c7 7fbc 0bfc 74bd 92c7 753c c86f 28bd
00000200: f7a6 11bd 9842 4fbd 0ffa 91bd 0076 80bd
00000210: b7d4 98bd 3779 07bc c424 993c 68ac d43c
00000220: 2454 8e3d 022a b23a 5e6d 81ba 6611 853d
00000230: f49b 243d 4e23 f73c cb5c 61bd a3b5 ca3b
00000240: 42b7 89bd 7014 62bd c3f9 8b3d bcdd 88bd
00000250: a028 58bd c2fc ae3b 6677 c53c b4ec 383a
00000260: f201 973c 5632 a23d 4531 5bbd 06ac 6a3d
00000270: 2983 653d 72d7 21bd 1a6f f33b 67a5 4e3d
00000280: f889 13bd d5ec 133d 2080 77bc ee75 16bc
00000290: e52a 903c b904 af3a 8de7 273d 8c32 8e3d
000002a0: 6317 0cbd 2ccc aa3d e469 303d ddb4 abbc
000002b0: d778 3cbd 45bf 1cbd c7be 533c f50a 1c3d
000002c0: 0231 aebc 256f b3ba bae7 743d 22e2 2a3d
000002d0: 0340 f5bc 048c 9f3d 1ff5 7dbb a90d d63c
000002e0: b690 31bd f845 3f3d 4a98 8b3d 6130 bd3a
000002f0: 68e1 a8bc 5500 9d3c 951e 73bd 3501 bebc
00000300: 9552 e93c d748 0ebb c65c 843d 85b1 8d3d
00000310: 2302 813d 3039 773d 2fdb 61bd 4285 8c3c
00000320: fe5e 963c 6a7e 373d 9807 cdbc 6570 f53c
00000330: 1785 46bb bc88 833d 14bb 1cbc 454b 55bc
00000340: 6306 9e3c fdab 063c a1a8 033d 8d67 963d
00000350: 005b 6abd 1a11 5f3d b851 193c 08a8 97bc
00000360: a451 50bd 0731 92bd eaa9 97bd 88b4 063d
00000370: 7f0e 603d 6829 763c 698f 353d a47d 7bbb
00000380: 3180 8cbd 4349 583d b516 9a3d 7aba 78bd
00000390: f5c5 ccbc 0d90 893d 8532 f0bc a7f6 68bd
000003a0: dc8b f83c 2bc6 6b3d d817 90bd 54f2 0d3d
000003b0: 1b23 ea3c 741b 3ebd 4df0 623d 16df 88bd
000003c0: 0ea1 e2bb af63 c63a 9e71 503d 3290 163d
000003d0: 0cc9 99bd e441 8f3d 34fc 39bd 7228 26bd
000003e0: 4dde f13a af61 3ebd 6ff9 313d c55d 383d
000003f0: f6ed abbc fbf3 2cbc a7a5 5f3c 8066 15bd

encoder_blocks.2.0.bias f4 [12]
-0.0017940723 0.048601046 0.0075865365 0.09347493 -0.012365125 0.033363987 -0.07709331 0.015673319
0.034369204 -0.06424766 0.05463587 0.06933349
00000000: 1427 ebba e411 473d 7b98 f83b c96f bf3d
00000010: 1897 4abc ada8 083d 19e3 9dbd 5565 803c
00000020: b9c6 0c3d 4794 83bd ddc9 5f3d b8fe 8d3d

encoder_blocks.2.2.weight f4 [12, 12, 13]
-0.017527869 0.070400536 0.044387516 0.0032382868 -0.06327055 0.0019270071 -0.02637864 -0.056632176
-0.01358857 -0.039746296 0.023817869 -0.041406788 0.060598344 -0.020056328 0.014109031 0.056728333
0.034798983 0.03446786 -0.06289859 0.07673149 -0.025650619 -0.022990702 -0.06755398 0.040908154
0.05812185 -0.036016326 -0.022293998 0.05956944 -0.06505968 -0.02286558 0.017356988 0.045449656
-0.036633503 -0.04512877 0.07508018 -0.07238916 -0.047942877 0.045486517 -0.0046829577 0.019678578
-0.06436933 -0.04700445 -0.04145891 0.05820955 0.034165047 -0.020737616 -0.007173589 -0.012058902
0.016643932 -0.053266957 -0.06523048 0.065686226 0.0024548844 -0.07114717 0.031117 -0.055335753
-0.017837618 -0.014909558 -0.05506017 -0.0014883429 0.009671569 -0.0076407716 -0.0038396344 -0.0069837123
0.015582092 0.050467175 -0.059325013 0.020895774 0.019508759 0.0073495815 0.0017756197 -0.054566927
0.043585565 0.047844272 0.048127964 -0.049011096 -0.047583293 -0.009879178 0.015020269 -0.051840626
-0.03909335 -0.0013842082 0.03970352 0.03069881 0.039660968 0.014442655 -0.07953961 0.059767358
-0.055702467 -0.05097783 0.008233437 -0.004350844 0.016130598 -0.013042239 0.049607884 -0.055084173
-0.0021975697 0.05581601 -0.05972929 0.055087972 -0.0386081 0.06033001 0.066481516 -0.023239132
-0.020396369 -0.07420149 0.062407803 0.072068274 0.005559771 -0.067365296 0.024571044 0.054230995
-0.02721851 -0.023335893 -0.06187038 -0.04742847 -0.016450718 -0.059454773 0.0729607 -0.04273728
0.02347276 0.0796989 0.03391107 -0.06439991 -0.016238289 -0.07638503 -0.0656868 -0.002504151
0.020667994 0.053032976 -0.042943064 0.030036004 -0.014782074 0.028961383 0.04089144 -0.06800799
-0.019175 0.014156734 0.04727 -0.00024335789 0.05366711 -0.038906954 0.031175999 -0.0529502
-0.03068105 0.021371014 0.0021932907 -0.07537939 -0.063789636 0.07515476 0.034239992 -0.027340863
-0.06583229 0.008158167 -0.0116308555 -0.046309233 0.059860975 -0.047942445 0.08067818 -0.053271316
0.033741828 0.07143856 -0.019387068 0.048170496 0.004379796 0.04424409 -0.011029504 0.03796156
-0.006283381 -0.032357644 0.063953236 -0.0086248405 0.06123005 0.0024993513 0.059861768 0.044422522
0.033288628 -0.02728379 -0.016958259 -0.05277525 0.050462715 0.012850074 0.00826822 -0.049579464
-0.010527372 0.008845626 -0.003412405 0.018820895 0.044357598 0.021975575 -0.027556686 0.009247805
0.074733086 -0.054772113 -0.02587109 -0.043019097 0.07509617 -0.06832041 0.071211256 -0.013822308
0.053550117 0.06663809 -0.018064989 0.04774083 0.024947641 0.032777432 -0.06902597 0.005968344
-0.04296679 0.07094157 -0.03713818 -0.0007751882 -0.03364171 0.06985533 0.05398093 -0.05032216
0.059387013 0.03469395 3.3445656e-05 -0.039979752 0.003404826 0.05703937 0.01586533 -0.0030907837
0.015447206 0.07196711 0.02241303 0.055316087 0.021231616 -0.028873637 -0.023623468 -0.075831614
-0.027797522 0.017105399 0.01622518 -0.04181875 0.026428083 -0.045462906 0.065916896 -0.013420947
-0.020481981 -0.05842872 0.033096716 0.08445435 0.005052877 0.049979217 0.012314163 -0.08747002
-0.09442996 -0.014198985 0.016033005 -0.05282842 -7.5942866e-05 0.042285234 -0.03158061 -0.08525789
00000000: 9b96 8fbc 282e 903d afcf 353d 7039 543b
00000010: fd93 81bd a193 fc3a 0518 d8bc 24f7 67bd
00000020: 98a2 5ebc 03cd 22bd b11d c33c 2a9a 29bd
00000030: f835 783d 2b4d a4bc 9129 673c f85b 683d
00000040: 6189 0e3d 2c2e 0d3d fad0 80bd 6625 9d3d
00000050: 3f21 d2bc ff56 bcbc be59 8abd 4f8f 273d
00000060: 2d11 6e3d db85 13bd e7a1 b6bc 16ff 733d
00000070: 023e 85bd 9950 bbbc 3e30 8e3c 6b29 3a3d
00000080: 030d 16bd f2d8 38bd a3c3 993d c540 94bd
00000090: c05f 44bd 1250 3a3d 7f73 99bb f834 a13c
000000a0: 11d4 83bd bd87 40bd d1d0 29bd 236d 6e3d
000000b0: a6f0 0b3d efe1 a9bc 6d10 ebbb b392 45bc
000000c0: db58 883c 742e 5abd 8f97 85bd 8086 863d
000000d0: 20e2 203b 9cb5 91bd 14e9 fe3c bea7 62bd
000000e0: 3220 92bc 3847 74bc c686 61bd 8014 c3ba
000000f0: 8075 1e3c 705f fabb 60a2 7bbb a0d7 e4bb
00000100: 084c 7f3c abb6 4e3d c9fe 72bd 9d2d ab3c
00000110: d5d0 9f3c c2d4 f03b e9bb e83a 9281 5fbd
00000120: c786 323d 5bf8 433d d421 453d dcbf 48bd
00000130: b3e6 42bd 47dc 21bc 9317 763c d656 54bd
00000140: 5920 20bd 526e b5ba 28a0 223d 127c fb3c
00000150: 8a73 223d e3a0 6c3c aae5 a2bd 9ece 743d
00000160: 4528 64bd 21ce 50bd 8ae5 063c 8691 8ebb
00000170: 5124 843c 1daf 55bc a331 4b3d f19f 61bd
00000180: 1a05 10bb 549f 643d b3a6 74bd eda3 613d
00000190: 8723 1ebd 9a1c 773d 7627 883d fe5f bebc
000001a0: 4916 a7bc f3f6 97bd 539f 7f3d 8898 933d
000001b0: bd2e b63b d1f6 89bd 3749 c93c 5221 5e3d
000001c0: 5af9 debc ea2a bfbc cc6b 7dbd 5b44 42bd
000001d0: a8c3 86bc d986 73bd 6b6c 953d 490d 2fbd
000001e0: f249 c03c 2d39 a33d 56e6 0a3d 1ae4 83bd
000001f0: 2906 85bc c16f 9cbd cd86 86bd af1c 24bb
00000200: ed4f a93c 1b39 593d 11e5 2fbd 110e f63c
00000210: 8330 72bc 6c40 ed3c c87d 273d c647 8bbd
00000220: e414 9dbc a5f1 673c 309e 413d e32d 7fb9
00000230: 0bd2 5b3d e65c 1fbd cf64 ff3c 4fe2 58bd
00000240: d356 fbbc 4412 af3c 50bd 0f3b 8260 9abd
00000250: 24a4 82bd bdea 993d 3c3f 0c3d f2f9 dfbc
00000260: 14d3 86bd d5a9 053c 588f 3ebc c0ae 3dbd
00000270: c830 753d 4c5f 44bd 9a3a a53d 0633 5abd
00000280: df34 0a3d 614e 923d a1d1 9ebc 6d4e 453d
00000290: 6484 8f3b 4a39 353d 18b5 34bc 957d 1b3d
000002a0: d2e4 cdbb 7389 04bd eaf9 823d 344f 0dbc
000002b0: 5ccc 7a3d 28cc 233b 9d31 753d 64f4 353d
000002c0: a859 083d 4182 dfbc 0cec 8abc dc2a 58bd
000002d0: feb1 4e3d 1e89 523c 6e77 073c d613 4bbd
000002e0: 007b 2cbc 3fed 103c a8a2 5fbb 472e 9a3c
000002f0: 50b0 353d 1f06 b43c 8fbe e1bc 1b84 173c
00000300: a90d 993d b958 60bd 9cef d3bc cb34 30bd
00000310: 05cc 993d 92eb 8bbd 35d7 913d f676 62bc
00000320: 5e57 5b3d 8d79 883d 07fd 93bc e38b 433d
00000330: ff5e cc3c a141 063d 7d5d 8dbd 1992 c33b
00000340: f2fd 2fbd d049 913d 341e 18bd 0036 4bba
00000350: e4cb 09bd 5010 8f3d 1c1b 5d3d 9c1e 4ebd
00000360: cc3f 733d 3e1b 0e3d 0048 0c38 cfc1 23bd
00000370: 8023 5f3b 1da2 693d 02f8 813c bf8e 4abb
00000380: 4716 7d3c 7e63 933d 889b b73c 1f93 623d
00000390: eded ad3c 6888 ecbc 0186 c1bc 9b4d 9bbd
000003a0: a1b7 e3bc 9f20 8c3c abea 843c 234a 2bbd
000003b0: b57f d83c 5037 3abd 70ff 863d 88e3 5bbc
000003c0: d4c9 a7bc f452 6fbd 6c90 073d 67f6 ac3d
000003d0: 9b92 a53b 02b7 4c3d 58c1 493c 7b23 b3bd
000003e0: 7f64 c1bd dca2 68bc a657 833c 9d62 58bd
000003f0: 8443 9fb8 4833 2d3d ab5a 01bd b09b aebd

encoder_blocks.2.2.bias f4 [12]
0.03836358 0.050046884 -0.010121488 -0.029540319 0.0026565033 0.03743305 0.089511804 -0.047633115
0.038747605 0.035901666 0.0919837 -0.05008067
00000000: 2123 1d3d f6fd 4c3d 99d4 25bc 8afe f1bc
00000010: bb18 2e3b 6653 193d f751 b73d f11a 43bd
00000020: cfb5 1e3d a00d 133d f361 bc3d 6321 4dbd

encoder_blocks.3.0.weight f4 [12, 12, 13]
0.0721763 0.02940658 -0.014528495 -0.049995705 -0.013422355 0.045280702 -0.067222275 -0.041520897
-0.04731425 0.06094284 0.07923138 -0.04633969 -0.0626869 -0.056523837 0.067983106 0.028387507
0.04405846 0.020588728 -0.0156748 0.051918782 -0.07263109 -0.030727204 0.001291116 -0.03675463
0.026621347 0.017520752 0.04807341 0.06527765 0.05869883 -0.012131806 0.011900716 -0.014494645
-0.042371303 0.008600444 -0.0558581 -0.01435047 0.0041734586 0.016381424 0.015872553 0.04524614
-0.04506092 0.02432307 -0.012558902 0.05779944 0.05900924 -0.03874169 -0.008866509 0.03197327
0.0739349 -0.040249247 0.025458127 -0.031188518 -0.06755063 0.041225366 -0.061342545 0.038554143
0.0651355 0.03680749 -0.056859218 -0.06786956 -0.002963961 0.014779392 -0.031391107 0.016272495
-0.021288406 -0.07191963 -0.043502588 -0.024440976 0.06188993 -0.06602933 3.358281e-05 0.08072425
0.0077302563 0.012910096 0.0046103452 -0.0509403 0.03805361 0.043548144 -0.045150004 0.004348497
0.035276342 -0.045506462 -0.028770756 -0.03951101 -0.008746617 0.07004891 -0.07564423 0.018851344
-0.0019998318 -0.023441583 0.07611825 0.07877568 0.05265804 -0.002901507 -0.061253242 -0.06597528
-0.00923411 0.049071807 0.03802322 0.020523543 0.05733818 0.01219844 0.059927724 -0.065244205
-0.027193934 0.031198848 -0.0102105895 -0.05401323 -0.029138867 -0.005574703 0.051076163 -0.07494065
0.014336976 -0.067231975 -0.04257454 0.06549618 -0.043572426 -0.07102177 -0.019255655 0.06673951
-0.005823914 -0.0045853937 -0.050140876 -0.077315204 0.024519136 0.0035299724 0.0076898187 -0.066032365
0.044359352 -0.054540765 -0.0032075369 -0.07439985 0.005826655 0.045448437 0.008837903 -0.017201046
-0.0641342 0.03764273 -0.030607615 0.008693744 -0.07889707 0.07365975 -0.02454014 0.06391758
0.0071761003 -0.030906295 0.03236985 0.08177466 -0.03234402 0.024987917 0.054032117 -0.016149122
0.012443803 0.029430231 0.060120173 -0.076991804 -0.0299645 -0.03501002 -0.053992417 0.08112762
0.08112154 -0.08061639 0.07912405 0.05806482 -0.07167547 0.08258288 0.014758815 0.05284206
0.039454926 -0.030675534 -0.077537075 -0.07796278 -0.008749882 0.030147783 -0.06854836 0.0024935105
0.05683749 0.064553045 -0.02582186 0.03253432 0.020639788 0.07708535 0.0061376262 0.021745263
-0.06664046 0.07509903 -0.028575093 0.059923273 -0.014048489 -0.04658768 -0.043604966 0.077335715
-0.03941216 -0.059939165 -0.006297682 -0.05911662 0.020209095 0.047625884 0.0050212275 0.014864213
0.021096919 0.060598783 -0.02728583 0.06362285 -0.029744243 -0.01981497 -0.014557035 0.06765454
-0.03227971 0.055636745 -0.07302529 0.010970783 -0.047551554 0.07448939 -0.07326801 0.03406746
0.04183788 0.030044813 -0.008223217 0.06069924 0.012324458 -0.017815953 -0.029856656 0.036751997
-0.059296392 -0.025913365 0.061025072 -0.05698804 0.05506652 -0.037612095 0.025630588 -0.014060358
-0.0090127615 -0.020683851 0.011646364 0.06689252 -0.035259612 0.055710588 0.06440399 0.043072406
-0.04685172 0.032339256 0.012316831 -0.019838618 -0.0036398072 0.03268968 0.056496087 0.010366476
0.001364715 0.002656319 0.011600783 -0.026678888 0.06613808 0.010069003 -0.0020939254 -0.07867729
00000000: 2bd1 933d 11e6 f03c ed08 6ebc 4cc8 4cbd
00000010: 70e9 5bbc 4278 393d d5ab 89bd d111 2abd
00000020: 96cc 41bd 339f 793d 1044 a23d b0ce 3dbd
00000030: fd61 80bd 8a85 67bd ba3a 8b3d eb8c e83c
00000040: a576 343d b1a9 a83c 7068 80bc caa8 543d
00000050: 9cbf 94bd 9eb7 fbbc aa3a a93a 068c 16bd
00000060: 0315 da3c ae87 8f3c a0e8 443d 4ab0 853d
00000070: 2f6e 703d 7cc4 46bc 39fb 423c f37a 6dbc
00000080: 888d 2dbd e0e8 0c3c 77cb 64bd 3c1e 6bbc
00000090: 82c1 883b 5632 863c 2807 823c 0454 393d
000000a0: cd91 38bd 2d41 c73c dac3 4dbc 1bbf 6c3d
000000b0: acb3 713d 9baf 1ebd d644 11bc 67f6 023d
000000c0: 2e6b 973d 65dc 24bd 908d d03c 107f ffbc
000000d0: fc57 8abd eedb 283d 5242 7bbd f3ea 1d3d
000000e0: c365 853d 73c3 163d 36e5 68bd 32ff 8abd
000000f0: 043f 42bb 4325 723c f693 00bd e54d 853c
00000100: 0665 aebc 994a 93bd c52f 32bd 7138 c8bc
00000110: 4c80 7d3d 633a 87bd 45db 0c38 c152 a53d
00000120: 174e fd3b de84 533c 6112 973b c7a6 50bd
00000130: 1ade 1b3d 8a5f 323d 36ef 38bd d67d 8e3b
00000140: ed7d 103d fc64 3abd a6b0 ebbc 4cd6 21bd
00000150: f84d 0fbc ce75 8f3d 5deb 9abd 226e 9a3c
00000160: 9c0f 03bb 9008 c0bc e3e3 9b3d 2555 a13d
00000170: f5af 573d 3627 3ebb aee4 7abd 0c1e 87bd
00000180: aa4a 17bc 85ff 483d 3cbe 1b3d fd20 a83c
00000190: 70db 6a3d f7db 473c c676 753d c19e 85bd
000001a0: d0c5 debc ba94 ff3c 514a 27bc fa3c 5dbd
000001b0: a2b4 eebc 00ac b6bb 3d35 513d 7c7a 99bd
000001c0: a3e5 6a3c ebb0 89bd a462 2ebd dc22 863d
000001d0: 0079 32bd dd73 91bd 09be 9dbc b9ae 883d
000001e0: 88d6 bebb 1241 96bb 8560 4dbd 6f57 9ebd
000001f0: 5bdc c83c 1c57 673b e0fa fb3b fa3b 87bd
00000200: 27b2 353d 2366 5fbd 8a35 52bb f35e 98bd
00000210: 86ed be3b 2428 3a3d dacc 103c 35e9 8cbc
00000220: cb58 83bd 432f 1a3d d2bc fabc 3570 0e3c
00000230: c994 a1bd ecda 963d 6708 c9bc 38e7 823d
00000240: 7e25 eb3b 332f fdbc 3f96 043d 7979 a73d
00000250: 2a7b 04bd 76b3 cc3c c850 5d3d 2a4b 84bc
00000260: 18e1 4b3c ab17 f13c 9240 763d e1ad 9dbd
00000270: 1c78 f5bc ab66 0fbd 2727 5dbd 3d26 a63d
00000280: 0d23 a63d 351a a5bd ca0b a23d 60d5 6d3d
00000290: 97ca 92bd 3721 a93d f5ce 713c ea70 583d
000002a0: 7d9b 213d 424b fbbc c2cb 9ebd f3aa 9fbd
000002b0: aa5b 0fbc 7cf8 f63c 1563 8cbd 2a6a 233b
000002c0: 6ece 683d 6334 843d 5e88 d3bc b542 053d
000002d0: c614 a93c edde 9d3d 241e c93b 1f23 b23c
000002e0: cb7a 88bd 85cd 993d 5016 eabc 1b72 753d
000002f0: a22b 66bc b9d2 3ebd 1f9b 32bd 3062 9e3d
00000300: a56e 21bd c582 75bd c95c cebb 4524 72bd
00000310: 8b8d a53c 5c13 433d 1c89 a43b 0789 733c
00000320: 72d3 ac3c 6e36 783d 8886 dfbc b24c 823d
00000330: 33aa f3bc 0153 a2bc a180 6ebc 778e 8a3d
00000340: bb37 04bd 5be3 633d 498e 95bd cdbe 333c
00000350: 6bc5 42bd e58d 983d 8a0d 96bd 528a 0b3d
00000360: 325e 2b3d 8a20 f63c acba 06bc c49f 783d
00000370: 86ec 493c c3f2 91bc f295 f4bc 4389 163d
00000380: c6e0 72bd 4448 d4bc 6df5 793d 4b6c 69bd
00000390: 6e8d 613d 240f 1abd 3df7 d13c 6a5d 66bc
000003a0: 43aa 13bc 2e71 a9bc 64d0 3e3c f2fe 883d
000003b0: 626c 10bd c930 643d 3de6 833d b16c 303d
000003c0: 97e7 3fbd 2b76 043d 89cc 493c 9984 a2bc
000003d0: d589 6ebb 9de5 053d 7168 673d 27d8 293c
000003e0: 3de0 b23a a315 2e3b 3611 3e3c af8d dabc
000003f0: 6773 873d 76f8 243c 3d3a 09bb 8f21 a1bd

encoder_blocks.3.0.bias f4 [12]
-0.04603795 0.032432746 0.07217441 -0.017428052 -0.044432193 0.07171173 -0.017083596 -0.050117727
-0.0112942215 -0.06339225 0.015344062 0.0044671986
00000000: 4a92 3cbd 33d8 043d 2dd0 933d 46c5 8ebc
00000010: 88fe 35bd 99dd 923d e6f2 8bbc 3f48 4dbd
00000020: 660b 39bc ccd3 81bd a965 7b3c 9461 923b

encoder_blocks.3.2.weight f4 [12, 12, 13]
0.006295778 -0.056553524 -0.012884304 0.053236008 -0.035887733 -0.064379215 0.03326072 -0.011534006
-0.051487956 -0.0025149088 -0.04716473 0.032842252 -0.007814252 0.02645022 -0.0031810694 -0.010630378
-0.03090016 -0.04316709 0.010047281 -0.06502495 0.058840837 -0.03251842 -0.008996689 0.06633453
0.03423002 0.047462266 -0.0009985103 -0.040605426 0.029905137 -0.064756006 0.026129588 -0.06713614
0.049912717 -0.05392402 -0.0038166242 0.07898524 0.003733176 -0.0009304561 -0.03822905 -0.05073953
0.060471512 -0.074238636 0.0036660512 0.019465504 0.039064135 0.0124564795 0.0310469 -0.031114269
-0.03237024 0.06821101 -0.06819367 0.0047369553 0.06445222 0.062496286 0.048761997 -0.00301849
-0.004539388 -0.046625946 0.006872415 0.044948667 0.066380665 -0.0123522915 0.023784555 -0.025665218
-0.050194208 -0.031733193 -0.032616965 -0.07856265 0.07166291 -0.041897733 -0.02620289 0.04893883
0.07071972 0.059524216 0.07275775 0.015375697 0.05928997 -0.063808754 -0.02084164 -0.07252254
0.0352242 -0.06399268 -0.040278055 -0.057433873 -0.07321865 -0.006256461 0.053622913 -0.07722488
-0.017096296 0.03293974 0.040331982 -0.0445342 0.014766343 -0.065600224 0.077941164 0.0361813
0.052737817 0.020392612 0.029262938 0.03883715 -0.019678261 -0.045712892 -0.03256037 0.008640803
0.044196583 -0.03026298 0.071167186 0.06560247 -0.026095606 0.07280418 0.0057183853 -0.02655805
0.019122966 0.06695043 -0.022853928 0.0505427 -0.0019455436 0.005976996 0.0011111541 0.039837554
0.07099326 0.01750061 0.03739111 -0.057659674 0.05772277 -0.009143099 -0.0023206964 -0.06069497
0.0702145 -0.03513655 0.075853765 -0.018138992 -0.041751437 -0.060421403 -0.04865237 0.05040868
-0.054669272 -0.030366285 -0.014322561 -0.004197564 -0.0017861712 0.010705423 -0.079547584 0.013861702
0.042773124 -0.022155926 -0.051024072 -0.00882282 -0.06303917 -0.03412987 -0.014827589 0.00045823958
-0.025158634 0.029529141 -0.017251823 -0.026498746 0.0059721707 -0.048968125 0.044913057 0.018479342
-0.020526765 0.07546266 0.07202979 -0.024094451 0.071523905 0.018698838 0.015703289 -0.03871765
0.054154653 -0.014744291 0.042129006 0.021158235 -0.03328251 0.043438643 -0.077369 -0.031094458
-0.07073978 0.07073528 -0.03587466 0.0065841237 -0.04140472 -0.028117761 0.023468003 0.06761999
-0.04896798 -0.03700687 -0.028464764 0.015353759 -0.056111567 -0.022136405 0.06968323 0.054425005
0.007396161 0.057458118 0.026606878 -0.014680493 0.0097511 -0.08052621 0.0022952845 -0.030153831
-0.049385376 0.03596637 0.07637785 -0.009911652 0.005192045 0.0066585294 0.0099174045 0.038594633
-0.04124857 -0.0059443787 -0.057261296 0.048931394 0.04980842 -0.05487604 -0.057401482 0.0061155874
0.063717365 -0.018863717 -0.052966382 0.0038351978 -0.03264081 0.022124967 0.03390784 0.01959238
0.038190726 -0.033420704 0.046634853 -0.003427787 -0.008391277 -0.046121765 -0.015761836 -0.048145913
0.02778314 -0.034527622 -0.051708773 -0.067811005 -0.070418544 -0.027543163 0.023076888 -0.043366738
0.02434227 -0.04601965 0.065878905 -0.0058027375 -0.05026643 0.061637647 -0.0575219 -0.04448008
0.011449084 -0.0043935925 0.07781303 -0.01137317 0.07152666 0.010295406 0.07300198 0.053188697
00000000: d04c ce3b aba4 67bd b018 53bc 000e 5a3d
00000010: 04ff 12bd 40d9 83bd 653c 083d 21f9 3cbc
00000020: 09e5 52bd 2bd1 24bb ce2f 41bd 9985 063d
00000030: 5907 00bc 22ae d83c 7d79 50bb 092b 2ebc
00000040: 5522 fdbc f9cf 30bd 5a9d 243c cd2b 85bd
00000050: 1703 713d 0932 05bd d966 13bc 66da 873d
00000060: c734 0c3d cb67 423d 72e0 82ba e051 26bd
00000070: 9efb f43c cc9e 84bd b80d d63c ac7e 89bd
00000080: 4771 4c3d 6fdf 5cbd 5420 7abb 03c3 a13d
00000090: 4da8 743b dae9 73ba 1096 1cbd 41d4 4fbd
000000a0: fab0 773d 6d0a 98bd 2242 703b 1f76 9f3c
000000b0: b701 203d 4316 4c3c 1256 fe3c 5ae3 febc
000000c0: a896 04bd 37b2 8b3d 1fa9 8bbd 7638 9b3b
000000d0: 87ff 833d 1bfc 7f3d a9ba 473d dcd1 45bb
000000e0: 26bf 94bb d9fa 3ebd ff31 e13b 181c 383d
000000f0: 96f2 873d 4461 4abc d4d7 c23c dd3f d2bc
00000100: 7198 4dbd aafa 01bd 5e99 05bd 74e5 a0bd
00000110: 01c4 923d f59c 2bbd 71a7 d6bc 1574 483d
00000120: 80d5 903d aacf 733d 0402 953d 59ea 7b3c
00000130: 0ada 723d 2aae 82bd 16bc aabc b386 94bd
00000140: 4047 103d 980e 83bd 9afa 24bd c83f 6bbd
00000150: a9f3 95bd 0003 cdbb b3a3 5b3d 1428 9ebd
00000160: 880d 8cbc d2eb 063d 2633 253d 7e69 36bd
00000170: 88ee 713c 6959 86bd 9e9f 9f3d d832 143d
00000180: 9c03 583d 680e a73c d4b8 ef3c b413 1f3d
00000190: 4e34 a1bc 713d 3bbd 065e 05bd 2892 0d3c
000001a0: 7a07 353d 12ea f7bc 1ac0 913d 965a 863d
000001b0: 74c6 d5bc 5c1a 953d 4b61 bb3b 4590 d9bc
000001c0: c4a7 9c3c 4f1d 893d 2938 bbbc dd05 4f3d
000001d0: 9c01 ffba adda c33b 25a4 913a b42c 233d
000001e0: ea64 913d 705d 8f3c 6c27 193d 8d2c 6cbd
000001f0: b66e 6c3d f0cc 15bc d316 18bb 4a9b 78bd
00000200: 9fcc 8f3d 58eb 0fbd 3859 9b3d 3998 94bc
00000210: 8e03 2bbd 6f7c 77bd b547 47bd 5579 4e3d
00000220: e3ec 5fbd b7c2 f8bc 2da9 6abc b88b 89bb
00000230: f61d eaba cc65 2f3c d8e9 a2bd 311c 633c
00000240: df32 2f3d 5880 b5bc 9efe 50bd 978d 10bc
00000250: ae1a 81bd c3cb 0bbd 6aef 72bc e03f f039
00000260: 7b19 cebc 19e7 f13c b253 8dbc e613 d9bc
00000270: 33b2 c33b cd92 48bd c1f6 373d fd61 973c
00000280: bf27 a8bc 2b8c 9a3d 5b84 933d ba61 c5bc
00000290: 207b 923d 4e2e 993c 2fa4 803c 6696 1ebd
000002a0: 45d1 5d3d 0a92 71bc 778f 2c3d 0954 ad3c
000002b0: 3e53 08bd b8ec 313d a373 9ebd ceb9 febc
000002c0: 05e0 90bd a9dd 903d 4ff1 12bd a2bf d73b
000002d0: ff97 29bd 3857 e6bc f83f c03c 597c 8a3d
000002e0: a692 48bd 8494 17bd f02e e9bc 558e 7b3c
000002f0: 3ed5 65bd 6857 b5bc 15b6 8e3d c1ec 5e3d
00000300: 7f5b f23b 3459 6b3d abf6 d93c 7386 70bc
00000310: 14c3 1f3c edea a4bd 7c6c 163b 2b05 f7bc
00000320: 5248 4abd 7951 133d fd6b 9c3d 7b64 22bc
00000330: 0822 aa3b cb2f da3b 9c7c 223c 6815 1e3d
00000340: 43f4 28bd 10c9 c2bb d28a 6abd 496c 483d
00000350: ea03 4c3d b3c5 60bd d11d 6bbd 4465 c83b
00000360: 407e 823d 1588 9abc 47f3 58bd f157 7b3b
00000370: 5fb2 05bd 6b3f b53c f2e2 0a3d 3380 a03c
00000380: e16d 1c3d 26e4 08bd 3004 3f3d b9a4 60bb
00000390: 917b 09bc 2dea 3cbd f71e 81bc a634 45bd
000003a0: 7899 e33c d66c 0dbd 94cc 53bd 7fe0 8abd
000003b0: 9937 90bd 33a2 e1bc be0b bd3c 52a1 31bd
000003c0: 7169 c73c 1a7f 3cbd 85eb 863d e424 bebb
000003d0: 2ce4 4dbd c277 7c3d 159c 6bbd bf30 36bd
000003e0: f094 3b3c 20f8 8fbb 705c 9f3d 8856 3abc
000003f0: 927c 923d 10ae 283c 1082 953d 64dc 593d

encoder_blocks.3.2.bias f4 [12]
-0.075738095 -0.05100302 -0.074543 -0.04332745 -0.03305129 0.026673729 0.0041587125 0.0054459646
-0.008695064 0.0616944 0.026680162 -0.010148536
00000000: 931c 9bbd 8be8 50bd 00aa 98bd 2078 31bd
00000010: ca60 07bd dd82 da3c cf45 883b 1074 b23b
00000020: be75 0ebc 44b3 7c3d 5b90 da3c 0c46 26bc
