Python/save/localizer/trial_2/quake_localization_model_00360.pth (torch, 252994 bytes, 35 tensors)

encoder_blocks.0.weight f4 [12, 1, 13]
0	0x3e411110	0.18854165
1	0x3e48c8b6	0.19607815
2	0x3e62ab06	0.22135553
3	0x3da93e01	0.082637794
4	0x3e3dd707	0.18539058
5	0x3dcfd4a7	0.10147982
6	0xbddcf6f9	-0.10789294
7	0xbd812b60	-0.06307101
8	0xbe51fe9e	-0.20507285
9	0xbe4d9210	-0.2007525
10	0xbe44c9fe	-0.19217679
11	0x3db121e4	0.08649042
12	0xbdb4731f	-0.0881102
13	0xbe5bdd1c	-0.21471065
14	0xbe7b791c	-0.24557918
15	0xbe81021e	-0.25196928
16	0xbe056675	-0.13027366
17	0x3de2561c	0.1105158
18	0xbe2e652f	-0.17030786
19	0x3e8f4a4d	0.27986374
20	0xbe4866e5	-0.19570501
21	0xbca3c41b	-0.019990971
22	0x3d9848ba	0.074357465
23	0x3e303dbd	0.17211051
24	0x3e20b616	0.1569446
25	0xbd231c56	-0.039821945
26	0x3d8e9ad1	0.06963123
27	0xbdb085f0	-0.086192966
28	0x3cc1c91e	0.02365547
29	0x3d98a492	0.07453264
30	0xbe600e0f	-0.21880363
31	0xbe40f44d	-0.18843193
32	0x3e208057	0.15673958
33	0xbd8aae21	-0.06771494
34	0xbddbc131	-0.10730208
35	0xbddb2050	-0.106995225
36	0xbc0a3156	-0.008434614
37	0xbde32df2	-0.11092748
38	0xbe7a6d8e	-0.24455854
39	0x3d9d0281	0.07666493
40	0x3cf6db4e	0.03013387
41	0xbe558153	-0.20850115
42	0x3d999b0c	0.07500276
43	0xbe20100d	-0.15631123
44	0xbe0f2046	-0.13977155
45	0x3db1a231	0.08673514
46	0x3d103a2d	0.03521173
47	0x3d1a40c0	0.037659407
48	0xbdbd5d1a	-0.09246273
49	0x3b428fbe	0.0029687728
50	0x3e879195	0.26478258
51	0xbe805f2e	-0.25072616
52	0x3d677ae3	0.05651368
53	0x3d30a14e	0.043122582
54	0xbdb2d8b7	-0.08732741
55	0xbbb8926b	-0.0056326888
56	0xbe154e92	-0.14580753
57	0xbde4e4ed	-0.11176477
58	0xbe15a939	-0.14615335
59	0x3e3731e7	0.1789013
60	0xbd09e2d4	-0.033663586
61	0x3df4b759	0.11949033
62	0xbc3774a0	-0.011197239
63	0xbe077b75	-0.13230689
64	0xbe2d413d	-0.16919418
65	0xbdb28ca7	-0.087182336
66	0x3e707d93	0.23485403
67	0x3dc84309	0.09778411
68	0xbcf4e66e	-0.029895034
69	0xbd6904c8	-0.056889325
70	0x3d9a6724	0.07539204
71	0x3e64f544	0.22359186
72	0xbe734e56	-0.23760352
73	0x3d9ffbd3	0.078117035
74	0x3e1c6aeb	0.15275161
75	0xbe4c9321	-0.19978
76	0x3e682f1c	0.22674221
77	0x3e2b8dce	0.16753313
78	0xbdeddc54	-0.1161429
79	0x3ced4943	0.028965598
80	0x3dfa0f99	0.12210006
81	0x3ddbe67e	0.10737322
82	0x3d878054	0.066162735
83	0xbd0b6778	-0.034034222
84	0xbda4371a	-0.08018322
85	0x3e792fdf	0.24334668
86	0x3e11066d	0.14162607
87	0x3e14cc7b	0.14531128
88	0xbe89f848	-0.26947236
89	0x3df8e441	0.12152911
90	0xbe1997b6	-0.1499928
91	0x3dbec512	0.09314932
92	0xbdc43c7d	-0.0958185
93	0xbd5275e4	-0.05138196
94	0x3dddd6ac	0.10831961
95	0xbe4f865e	-0.20266101
96	0x3e8b5c53	0.27218875
97	0x3e4b93d8	0.19880617
98	0xbdb42c7d	-0.08797548
99	0x3e117b42	0.14207175
100	0xbe2ec78c	-0.17068309
101	0x3c4d32dd	0.012524334
102	0x3e5d04fd	0.21583934
103	0x3cad093d	0.02112257
104	0xbe34905c	-0.17633194
105	0xbc812d3e	-0.015768643
106	0xbd333798	-0.04375419
107	0xbd91e70f	-0.07124149
108	0x3e295ab1	0.16538502
109	0x3e479651	0.19490935
110	0x3e4027fb	0.18765251
111	0x3e805848	0.25067353
112	0x3e20c22c	0.1569907
113	0x3e3f4da0	0.18681955
114	0x3e682b26	0.2267271
115	0xbe0c8f91	-0.13726641
116	0x3e25b6bc	0.16182989
117	0x3e860711	0.26177266
118	0xbda5967a	-0.08085342
119	0xbe49f76a	-0.19723287
120	0xbe5f8ad8	-0.21830308
121	0x3c06325b	0.008190717
122	0xbe38667b	-0.18007843
123	0xbe47ecf6	-0.19523987
124	0x3e0542b5	0.13013728
125	0x3e599a26	0.21250209
126	0xbe45dba0	-0.19322062
127	0x3e8b43f6	0.27200288
128	0x3d44cb18	0.048045248
129	0x3de50fbd	0.111846425
130	0x3e903ec3	0.28172883
131	0xbe6424ed	-0.22279711
132	0x3e8d6886	0.27618808
133	0x3cacfbf6	0.021116238
134	0xbd0bc6a5	-0.03412499
135	0x3e52cfef	0.20587133
136	0x3df1b133	0.11801376
137	0x3cd1e4c3	0.025621777
138	0xbd2475cf	-0.040151414
139	0xbd52874a	-0.051398553
140	0xbbfa68c6	-0.0076418845
141	0xbdd39c8a	-0.10332592
142	0xbe415cb2	-0.18883017
143	0x3d95f882	0.0732279
144	0x3e17ffab	0.14843623
145	0xbe568702	-0.20949939
146	0xbd5c9e42	-0.053861864
147	0xbe68b385	-0.22724731
148	0xbe8a7454	-0.27041876
149	0x3db76164	0.08954123
150	0xbe754c76	-0.23954949
151	0xbdd26b94	-0.10274425
152	0xbe32f2cc	-0.17475432
153	0x3e728563	0.23683695
154	0xbe43774f	-0.19088481
155	0xbdf6a2b7	-0.12042754

encoder_blocks.0.bias f4 [12]
0	0xbe34a366	-0.17640457
1	0x3d279b53	0.040919613
2	0x3e84ce16	0.2593848
3	0xbdee5dfc	-0.1163902
4	0x3e885460	0.26626873
5	0xbe809c32	-0.25119168
6	0x3d75ef54	0.060042694
7	0x3dd85ee4	0.10564974
8	0x3d9138f0	0.07090938
9	0xbda011f1	-0.07815922
10	0x3c3ce237	0.011528543
11	0x3dd3d6f1	0.10343731

encoder_blocks.1.0.weight f4 [12, 12, 13]
0	0xbc77bfe3	-0.015121433
1	0x3d59545f	0.05305898
2	0x3d8d1c2b	0.06890138
3	0xbcd160e9	-0.025558906
4	0xbd3d3e52	-0.04620201
5	0x3d766702	0.06015683
6	0xbd34fa4e	-0.04418402
7	0x3ca66c35	0.020315269
8	0xbd49642e	-0.049167804
9	0xbcda6412	-0.026659045
10	0xbd1b2f17	-0.037886705
11	0x3d560633	0.052252006
12	0x3c2d5382	0.010578992
13	0x3d77b907	0.06047919
14	0xbd41d6fe	-0.047324173
15	0xbc90188d	-0.017589832
16	0xbd49c65d	-0.04926144
17	0x3c86ae51	0.016440542
18	0x3bae4878	0.0053186975
19	0xbd557428	-0.05211273
20	0xbcd308a7	-0.025760962
21	0xbd94e0f5	-0.0726947
22	0xbccf22b8	-0.02528511
23	0xbca0f8c5	-0.019649873
24	0xbd2dc5ef	-0.042425092
25	0x3d3a7726	0.045523785
26	0xbbb854ae	-0.005625329
27	0x3d8a0857	0.06739872
28	0xbb20801b	-0.002449042
29	0x3bd1f8ce	0.0064078337
30	0xbd66a48c	-0.056309268
31	0xbd901480	-0.0703516
32	0x3d9dde4c	0.077084154
33	0xbdaa092b	-0.0830253
34	0x3d709d99	0.058744047
35	0xbc63745c	-0.013882723
36	0x3d55bd15	0.052182276
37	0x3da7246c	0.08161244
38	0x3d923e0a	0.07140739
39	0xbda6bff1	-0.08142079
40	0x3d12f1a5	0.03587498
41	0xbd7e17f1	-0.06203455
42	0x3d01e6c2	0.03171421
43	0x3d06b9b3	0.03289194
44	0x3d895bab	0.067069374
45	0x3d798817	0.0609208
46	0x3c9b40af	0.018951742
47	0xbd7681b9	-0.060182307
48	0xba24036c	-0.00062566134
49	0xbda0d8a0	-0.07853818
50	0xbd8623fa	-0.06549831
51	0x3d7d69e2	0.061868556
52	0x3bcdde4a	0.0062826024
53	0x3d338067	0.043823626
54	0x3a7c120f	0.0009615728
55	0xbd913bed	-0.07091508
56	0x3d930448	0.07178551
57	0x3d31e2ef	0.04342931
58	0xbcb55a73	-0.022137856
59	0x3c4f990b	0.012670766
60	0x3be32c70	0.0069327876
61	0xbc2b320b	-0.010448943
62	0xbd685185	-0.056718368
63	0x3c95d614	0.018290557
64	0xbcb5b366	-0.02218027
65	0x3d281197	0.0410324
66	0xbd1377f1	-0.036003057
67	0x3ce35898	0.027752206
68	0x3c528fb8	0.012851648
69	0xbd437cee	-0.047726564
70	0xbd6ab63f	-0.05730271
71	0xbd4eceeb	-0.0504903
72	0x3d7851ae	0.06062477
73	0xbd908f0c	-0.07058534
74	0x3d2df2b0	0.042467773
75	0x3d9774fb	0.07395359
76	0x3cf6f98d	0.030148292
77	0xbd35fe32	-0.044431873
78	0x3d0678e4	0.032830134
79	0xbda88346	-0.082281634
80	0x3b87af11	0.0041407426
81	0x3d4f0d63	0.050549876
82	0x3da37ed5	0.07983176
83	0xbd35d646	-0.0443938
84	0xbd810179	-0.06299109
85	0x3c85396a	0.016262729
86	0xbd45556a	-0.04817716
87	0x3c444a12	0.01198055
88	0x3d597525	0.053090233
89	0x3d885d1e	0.06658386
90	0x3cb09023	0.021553105
91	0xbd383477	-0.04497191
92	0x38ec2000	0.000112593174
93	0xbcf9c83c	-0.030490987
94	0xbd434f68	-0.04768315
95	0xbca5bdb8	-0.020232067
96	0xbd0947c8	-0.03351572
97	0xbd5ebe20	-0.054380536
98	0x3d831dbd	0.064021565
99	0x3d4f655e	0.05063378
100	0xbd895109	-0.06704909
101	0xbbebcbac	-0.0071959104
102	0xbca316ce	-0.019908335
103	0x3ac2a6b0	0.0014850702
104	0x3d8c88db	0.068620406
105	0xbcc9f620	-0.024653494
106	0x3b17bf85	0.0023154926
107	0xbd9ced1e	-0.07662414
108	0x3cefd41e	0.02927595
109	0xbd44c5d9	-0.048040245
110	0x3ca41924	0.02003152
111	0xbd034c4a	-0.032055177
112	0xbc079c46	-0.008277005
113	0x3d336752	0.043799706
114	0x3d1a1390	0.037616313
115	0x3d697011	0.05699164
116	0x3d8b5105	0.068025626
117	0xbc80401c	-0.01565557
118	0xbcfecbac	-0.031102978
119	0xbc9c92bc	-0.019112937
120	0x3bced96a	0.006312539
121	0x3d0d5e43	0.034513723
122	0xbd37a25d	-0.044832576
123	0xbd9dece1	-0.07711197
124	0xbd8e99be	-0.06962918
125	0xbc522947	-0.012827224
126	0xbc994510	-0.01870969
127	0xbc82eca6	-0.015981983
128	0xbcfb508b	-0.030678054
129	0xbd7e9c45	-0.06216075
130	0xbd00211e	-0.031281583
131	0x3c209156	0.009800276
132	0xbd892e14	-0.06698242
133	0x3cac9b9b	0.021070292
134	0xbd0e88cf	-0.03479844
135	0x3d8c6d64	0.06856802
136	0xbc7a827d	-0.0152899
137	0x3b3952a6	0.0028278022
138	0xbd29658f	-0.04135662
139	0xbc078b1c	-0.008272912
140	0xbd826238	-0.0636639
141	0xbd295691	-0.04134232
142	0xbc9ab73d	-0.018886203
143	0xbcbaefcc	-0.022819422
144	0x3d383b7b	0.0449786
145	0xbcad769c	-0.021174721
146	0xbc8b54b6	-0.017008167
147	0x3d811a84	0.063038856
148	0xbd92a298	-0.071599185
149	0x3c9bc658	0.019015476
150	0xbd2389ea	-0.039926447
151	0x3ce09d20	0.027418673
152	0x3d18952a	0.03725163
153	0xbd0f6e77	-0.035017457
154	0x3d3b455c	0.045720443
155	0xbd97b1fb	-0.07406994
156	0xbd042b18	-0.03226766
157	0x3d3a92e4	0.045550242
158	0xbd835430	-0.06412542
159	0x3d31f727	0.043448593
160	0x3cfc776b	0.030818662
161	0xbd93260c	-0.07184991
162	0xbd812470	-0.06305778
163	0x3d3399df	0.043847915
164	0x3da26739	0.079298444
165	0x3d880007	0.0664063
166	0xbd3302bc	-0.04370378
167	0x3d5a5923	0.053307664
168	0x3d69942a	0.057026066
169	0xbd939b55	-0.072073616
170	0xbd800903	-0.06251719
171	0x3d25178b	0.040305655
172	0x3d8a38ba	0.06749101
173	0x3d70b314	0.058764532
174	0x3d867282	0.065648094
175	0x3d21c0bf	0.039490458
176	0x3d9b2e60	0.07577205
177	0x3cc1635d	0.02360695
178	0xbbfb21dc	-0.0076639485
179	0x3cf47d74	0.029844977
180	0xbd87594c	-0.06608829
181	0x3d862b68	0.06551248
182	0x3a7eb2aa	0.0009715954
183	0x3c0dba90	0.008650437
184	0x3da1d234	0.07901421
185	0x3d922204	0.07135394
186	0x3b3eb9e5	0.00291025
187	0xbd10653e	-0.035252802
188	0xbd4db87e	-0.050224774
189	0xbd4325ec	-0.047643587
190	0x3d397108	0.04527381
191	0xbceb3bfc	-0.028715126
192	0xbd8bcb31	-0.06825865
193	0x3ceda60a	0.029009838
194	0x3db2a40e	0.08722697
195	0x3bbf28e3	0.0058337315
196	0x3c480cee	0.012210114
197	0x3c74be85	0.0149380015
198	0x3cd5d450	0.026102215
199	0x3c93156c	0.01795455
200	0xbd075fc4	-0.033050314
201	0xbd85289b	-0.065018855
202	0xbcc25742	-0.023723248
203	0x3ce726fb	0.02821683
204	0xbcfab5a1	-0.030604186
205	0x3da9a646	0.08283667
206	0xbcf5952a	-0.029978354
207	0x3d9b3349	0.07578141
208	0xbd348f93	-0.044082236
209	0xbd567661	-0.05235899
210	0xbd19f2c4	-0.037585035
211	0xbd7d46c1	-0.061835054
212	0x3c38851d	0.011262205
213	0xbc209620	-0.009801418
214	0x3d41ff31	0.04736251
215	0xbd877751	-0.06614555
216	0xbb439413	-0.0029842898
217	0xbca0d21f	-0.019631444
218	0x3d5c152d	0.053731132
219	0xbc474af6	-0.012163868
220	0x3cb89f55	0.022536913
221	0x3d8e896f	0.06959807
222	0xbacbb70f	-0.0015542227
223	0x3bb62cc8	0.0055595376
224	0x3d44b4c5	0.048023958
225	0x3bc613a3	0.0060448213
226	0x3c4842a0	0.012222916
227	0x3c082c2b	0.008311312
228	0x3cbe30ba	0.023216594
229	0x3d3f96b4	0.04677458
230	0xbc9104bc	-0.017702453
231	0xbd38f0f1	-0.045151655
232	0xbccdea2a	-0.025136072
233	0x3d14195b	0.036156993
234	0x3cecff55	0.028930346
235	0xbcd9991d	-0.026562268
236	0x3d8f6ab0	0.07002771
237	0xbd892a7d	-0.06697557
238	0xbd6a86ee	-0.057257585
239	0x3d9bfcba	0.07616563
240	0x3cd597af	0.026073305
241	0x3d4fa0cb	0.050690453
242	0x3c4583b7	0.012055329
243	0xbd8df26e	-0.069310054
244	0xbb9ecf85	-0.0048465156
245	0x3c91cfb8	0.017799243
246	0xbd496975	-0.049172837
247	0xbd9cdd18	-0.07659358
248	0xbcff2cef	-0.031149356
249	0xbce88f6f	-0.028388707
250	0x3d57c65a	0.052679397
251	0x3d8c165f	0.068402044
252	0xbd6877c3	-0.05675484
253	0x3b95a903	0.004567267
254	0xbc850620	-0.016238272
255	0x3b8b7fcd	0.0042571784

encoder_blocks.1.0.bias f4 [12]
0	0x3c7b85e9	0.015351751
1	0xbbc087ea	-0.005875577
2	0xbd37ee50	-0.044905007
3	0x3d90dd3b	0.07073446
4	0xbdb4a092	-0.08819689
5	0x3d30e26b	0.04318468
6	0xbcbd2ea1	-0.023093523
7	0xbcfb9fef	-0.03071591
8	0x3d161c3d	0.036648024
9	0x3daeea1d	0.08540747
10	0x3dbc67c1	0.09199477
11	0x3d0205ba	0.031743743

encoder_blocks.1.2.weight f4 [12, 12, 13]
0	0x3d7bf767	0.061515238
1	0xbd478591	-0.048711363
2	0x3d4e69e2	0.050393946
3	0x3d94ea10	0.072712064
4	0x3d4cf211	0.05003554
5	0x3d295881	0.04134417
6	0x3c3681ff	0.011139392
7	0x3ae467af	0.001742592
8	0xbc37e89c	-0.011224892
9	0xbcfc2dbd	-0.030783528
10	0xbb845d94	-0.0040394757
11	0xbc01c092	-0.0079194475
12	0x3d8199a7	0.06328135
13	0xbd5ebe8e	-0.054380946
14	0x3c980c32	0.018560503
15	0xbbbb1591	-0.005709358
16	0x3b24e3e4	0.0025160247
17	0x3d3fcde2	0.046827205
18	0x3da0e208	0.07855612
19	0xbd80b7cf	-0.06285059
20	0x3daba1c5	0.083804645
21	0xbd6adf46	-0.057341836
22	0x3dba2c76	0.090905115
23	0xbbd4e60b	-0.00649715
24	0x3d704348	0.058657914
25	0x3d78ae5f	0.06071317
26	0xbd47a118	-0.048737615
27	0xbd9a6997	-0.07539671
28	0x3d30625c	0.043062553
29	0x3c86b594	0.016444005
30	0xbc1d6539	-0.009606653
31	0xbcfeb97d	-0.031094307
32	0xbd990aff	-0.074728005
33	0xbd4df393	-0.05028112
34	0x3d96db5e	0.0736606
35	0x3cfc0d35	0.030768016
36	0x3d629617	0.055318918
37	0xbd16b87d	-0.036797035
38	0x3d2d930d	0.042376567
39	0x3c5cad0b	0.013468991
40	0xbcf12495	-0.029436389
41	0xbc098405	-0.008393292
42	0x3d03310c	0.032029197
43	0xbca5913f	-0.02021086
44	0x3d6bdf69	0.057586107
45	0x3bf84dc9	0.007577632
46	0xbd3e6492	-0.04648263
47	0x3c599b01	0.013281585
48	0x3c926760	0.017871559
49	0xbd81e0f9	-0.06341738
50	0xbd796ce3	-0.060894858
51	0x3d8eb63a	0.06968351
52	0x3d835d92	0.064143315
53	0x3ca38a17	0.019963307
54	0xbd57004a	-0.05249051
55	0xbd28479f	-0.04108393
56	0x3c8d641a	0.017259646
57	0xbc0b4611	-0.008500592
58	0x3b69d941	0.0035682472
59	0x3d9328cb	0.07185515
60	0x3cf74bbc	0.03018748
61	0xbc50c785	-0.012742882
62	0xbd63fd15	-0.05566128
63	0x3c2c0a38	0.010500483
64	0x3cd2cae6	0.025731515
65	0x3d8a8508	0.06763655
66	0xbd0ffa28	-0.035150677
67	0xbd838918	-0.06422633
68	0x3c90e0c4	0.017685302
69	0xbd68c012	-0.056823798
70	0x3d72db65	0.059291262
71	0xbcdddde3	-0.027083343
72	0xbd9090dc	-0.0705888
73	0xbd9a9998	-0.07548827
74	0xbc054e2b	-0.0081363125
75	0x3d2c556b	0.04207365
76	0xbd120d3e	-0.03565716
77	0xbb9fe767	-0.00487988
78	0xbc45b46e	-0.012066944
79	0x3d2b55fc	0.041830048
80	0x3d0bf66d	0.034170557
81	0xbce7477f	-0.028232334
82	0x3c434391	0.011917965
83	0x3d02239b	0.031772237
84	0xbbd2f171	-0.0064374735
85	0xbc5cc68b	-0.013475071
86	0x3ca61ac0	0.020276427
87	0x3c93e7b5	0.018054822
88	0xbd5eaa43	-0.054361593
89	0x3d3bc557	0.045842495
90	0xbcd697e4	-0.026195474
91	0x3d9c74ab	0.0763944
92	0x3b14e851	0.002272148
93	0x3d2ce87f	0.042213913
94	0x3ccf0836	0.02527247
95	0x3d9cf747	0.07664352
96	0x38b82d46	8.7822365e-05
97	0x3c73a806	0.014871603
98	0xbd9c08d5	-0.07618872
99	0x3ce8e04a	0.028427262
100	0x3c55552f	0.013020798
101	0xbd2feab6	-0.042948447
102	0xbd8f4b1a	-0.06996746
103	0x3dad1472	0.08451165
104	0xbd8dd9b0	-0.06926286
105	0x3d53187f	0.051537033
106	0xbc1428d7	-0.00904294
107	0xbc186983	-0.0093025
108	0xbd892788	-0.06696993
109	0x3d02e695	0.03195818
110	0x3d15bb1f	0.036555406
111	0x3cde1e2b	0.027113995
112	0xbcc6bfd1	-0.024261387
113	0x3d05033e	0.032473795
114	0xbcf8d7bc	-0.030376308
115	0x3d15a23c	0.036531672
116	0x3b0d303b	0.002154364
117	0x3d85531d	0.06509993
118	0xbce677ae	-0.02813324
119	0xbbab481c	-0.005227102
120	0xbd7fbe93	-0.062437605
121	0x3d3e5ef7	0.046477284
122	0x3d9ff029	0.07809479
123	0x3d83516f	0.064120166
124	0xbd9d9896	-0.07695119
125	0x3d80ca63	0.06288602
126	0xbc3315a6	-0.010930454
127	0xbb7663a0	-0.0037596002
128	0x3d1b57e8	0.03792563
129	0x3d2c6b41	0.042094473
130	0xbd1bf06f	-0.038071092
131	0xbcb6fd14	-0.022337474
132	0x3d6e98f2	0.05825133
133	0xbd7544da	-0.059880115
134	0x3d3bb096	0.045822702
135	0xbd1363d4	-0.035983875
136	0xbd519cf4	-0.051175073
137	0x3d9f035c	0.077643126
138	0xbd5840d2	-0.052796192
139	0xbd054621	-0.032537583
140	0x3da4d8a4	0.080491334
141	0xbd43ea5a	-0.047830917
142	0x3d87c8a1	0.06630064
143	0xbd9cacd9	-0.076501556
144	0xbca6ba1a	-0.020352412
145	0xbc9585fd	-0.018252367
146	0x3da90ce2	0.0825441
147	0x3d00db70	0.031459272
148	0xbcf3b0fa	-0.029747475
149	0x3d8cb458	0.06870335
150	0x3ce2c525	0.027681896
151	0x3d90d3b5	0.0707163
152	0x3cd94dac	0.026526295
153	0x3d858dd6	0.06521194
154	0x3da44ee1	0.080228575
155	0xbd01c702	-0.03168393
156	0x39c17307	0.0003689753
157	0xbbd6e058	-0.0065575056
158	0xbd8562fc	-0.065130204
159	0xbd65e6c4	-0.05612828
160	0xbc8943a4	-0.016755886
161	0xbdadd49e	-0.08487819
162	0x3cc1d9cf	0.02366343
163	0xbd5664f7	-0.05234238
164	0xbcd8fe76	-0.026488524
165	0x3d1b0d28	0.037854344
166	0x3d4c40e0	0.049866557
167	0xbcab3c55	-0.020902792
168	0xbcff9f49	-0.031203883
169	0xbd9fb090	-0.077973485
170	0xbce4e12e	-0.027939405
171	0x3c66909e	0.014072565
172	0xbc237a9f	-0.009977966
173	0x3d77e92a	0.060525097
174	0x3db4b82a	0.08824189
175	0x3c2ef419	0.010678315
176	0x3d1a55af	0.03767937
177	0x3d96d4c4	0.073648006
178	0x3b8e1a4a	0.00433663
179	0xbda96b00	-0.08272362
180	0x3d79ea07	0.0610142
181	0xbd8a47a7	-0.06751948
182	0xbd3f1518	-0.046650976
183	0x3c736527	0.01485566
184	0x3d879970	0.06621063
185	0x3ce47451	0.027887495
186	0xbc38995d	-0.011267033
187	0x3d5c5d5e	0.05379998
188	0xbda5225f	-0.080631964
189	0x3da491ac	0.08035597
190	0xbc6333db	-0.013867344
191	0x3ce7e6b5	0.028308252
192	0xbc5c6f16	-0.013454219
193	0x3da34fe4	0.07974222
194	0x3bc60f56	0.0060443087
195	0xbd01eac2	-0.031718023
196	0x3bbb5230	0.0057165846
197	0xbb58e611	-0.0033096115
198	0x3d54ad7b	0.051923256
199	0xbd0229e2	-0.031778224
200	0xbd86def9	-0.065854974
201	0x3ba4b2b7	0.0050261873
202	0xbd89d343	-0.06729748
203	0xbd4655b3	-0.048421573
204	0x3d8bb931	0.06822432
205	0x3d17454a	0.036931314
206	0xbd642336	-0.055697642
207	0x3c8c558c	0.017130636
208	0x3d4b438b	0.04962496
209	0xbd047377	-0.03233668
210	0xbb6b2921	-0.003588267
211	0xbd73c1b6	-0.05951091
212	0xbd1aebb5	-0.037822444
213	0x3d98ae09	0.074550696
214	0xbd8ace19	-0.06777591
215	0x3da28223	0.07934978
216	0xbc0185aa	-0.007905403
217	0xbcd197f6	-0.025585156
218	0x3cbc8ea1	0.02301723
219	0x3d07af08	0.033125907
220	0xbd128748	-0.035773546
221	0x3d887ad3	0.06664052
222	0x3d732083	0.059357177
223	0xbb5b4451	-0.0033457468
224	0xbcd804ea	-0.02636953
225	0xbd982acf	-0.0743004
226	0x3d43bd2a	0.047787823
227	0x3d14f61e	0.03636753
228	0xbd86ff02	-0.06591608
229	0x3d980f91	0.07424844
230	0x3d59ea9a	0.05320225
231	0x3d2fe9bc	0.042947516
232	0xbd94dd41	-0.07268763
233	0x3d8d485e	0.068985686
234	0xbb6e2667	-0.0036338808
235	0x3b8b6c8d	0.0042548836
236	0xbd3082f4	-0.043093637
237	0xbbdb58dd	-0.006693943
238	0xbcde44a0	-0.027132332
239	0x3c3011e3	0.010746452
240	0x3d81c7f7	0.063369684
241	0xbd2dd3e3	-0.0424384
242	0x3c77ee42	0.015132489
243	0x3c860298	0.016358659
244	0x3cf675b3	0.03008542
245	0x3d13866c	0.036016867
246	0xbda6cb54	-0.081442505
247	0x3c93fb4a	0.01806416
248	0xbc9c7806	-0.0191002
249	0x3d4de58c	0.05026774
250	0x3ca2d9cc	0.019879244
251	0xbd7361dd	-0.0594195
252	0x3d0609fa	0.03272436
253	0x3d8d3d5c	0.06896469
254	0xbd5dfc2e	-0.054195575
255	0xbd7c6476	-0.061619245

encoder_blocks.1.2.bias f4 [12]
0	0xbbb7e5a2	-0.005612091
1	0x3c980dda	0.018561292
2	0x3db0c928	0.086321175
3	0x3d099410	0.03358847
4	0x3cc66be2	0.024221364
5	0xbd2d52a5	-0.042315144
6	0xbd5ecdc3	-0.05439545
7	0xbd72056c	-0.059087202
8	0x3d2965f2	0.04135699
9	0x3d8ad6a9	0.067792244
10	0x3d886520	0.06659913
11	0xbbfae296	-0.0076564057

encoder_blocks.2.0.weight f4 [12, 12, 13]
0	0x3d985d48	0.07439667
1	0xbc323a9f	-0.010878234
2	0x3cdd184a	0.026989121
3	0x3d593cae	0.053036384
4	0x3c2b4740	0.010453999
5	0x3d2bb56a	0.041921057
6	0x3d9f0c8c	0.07766065
7	0x3d2a0e3b	0.041517477
8	0x3cacdc06	0.02110101
9	0xbd9b38d0	-0.075791955
10	0x3d38ba93	0.045099806
11	0xbd87542e	-0.06607853
12	0x3d7a711e	0.061143033
13	0xbda59db2	-0.080867186
14	0x3da0b0d1	0.07846225
15	0xbd296f8f	-0.041366156
16	0x3b29df35	0.0025920395
17	0x3caec3c5	0.021333585
18	0xbd793b91	-0.060847823
19	0xbc9b6597	-0.01896934
20	0x3d38af6f	0.04508918
21	0xbd958644	-0.07301
22	0x3d171033	0.036880683
23	0x3b9fd144	0.0048772413
24	0x3d33f47e	0.043934338
25	0xbd683ddc	-0.05669962
26	0x3d295173	0.04133744
27	0xbd0d6303	-0.034518253
28	0xbda42b37	-0.08016055
29	0xbd57f2b8	-0.05272171
30	0x3d0189f4	0.031625703
31	0x3b2f5a0a	0.0026756548
32	0xbd8c1ab4	-0.06841031
33	0xbd0cb7ce	-0.034354977
34	0x3cac58fa	0.021038521
35	0xbd675ea6	-0.05648675
36	0x3bb983b5	0.0056614527
37	0xba4eccfd	-0.0007888822
38	0x3d85f062	0.0653999
39	0x3d025b3c	0.03182529
40	0xbdabf0a1	-0.08395506
41	0xbc172461	-0.009224982
42	0x3d5d5d51	0.05404407
43	0x3cfb9a8d	0.030713344
44	0x3c716368	0.014733173
45	0xbaf11fe5	-0.0018396346
46	0xbd0a4f2e	-0.033766918
47	0xbd7e73f8	-0.062122315
48	0x3d9d822d	0.07690845
49	0x3c738331	0.014862821
50	0x3bd88d47	0.0066086384
51	0x3d4919a4	0.04909672
52	0x3d37e2c8	0.04489401
53	0xbca94f17	-0.020667596
54	0x3cf575ef	0.029963462
55	0x3c9cb2ce	0.01912823
56	0x3cc98763	0.02460069
57	0x3d87921a	0.066196635
58	0x3d80653e	0.062693104
59	0xbda7716f	-0.081759326
60	0xbab91cdf	-0.0014122984
61	0x3cdb7bac	0.02679237
62	0x3d89b34c	0.06723651
63	0x3cf8ca18	0.030369803
64	0x3c626d76	0.013820043
65	0xbcbb5009	-0.022865312
66	0x3cc4ed75	0.02403901
67	0x3c907426	0.017633509
68	0xbd880f01	-0.06643487
69	0xbd8fd9cc	-0.07023963
70	0xbd9326a9	-0.07185108
71	0xbcceedfc	-0.025259964
72	0x3d8c56c0	0.06852484
73	0x3cff9e28	0.031203344
74	0xbd9595a6	-0.07303934
75	0x3ad0cb7b	0.0015929783
76	0xbd0cfa21	-0.03441823
77	0x3d7d8d81	0.061902527
78	0x3d5062bb	0.050875407
79	0x3c2566fc	0.010095354
80	0xbc1033bf	-0.0088014
81	0x3bf7e4c5	0.0075651133
82	0x3b080ca7	0.0020759495
83	0x3bd4582f	0.006480239
84	0x3c98d534	0.01865635
85	0xbd03359f	-0.03203356
86	0xbce3a420	-0.027788222
87	0xbd78464f	-0.060613927
88	0xbccea204	-0.02522374
89	0x3bf00932	0.007325315
90	0x3d76daa8	0.06026712
91	0xbcfae60b	-0.030627271
92	0xbd9a9934	-0.075487524
93	0x3d70c37f	0.05878019
94	0xbbead590	-0.007166572
95	0xbd437607	-0.04771998
96	0x3d017ea3	0.03161491
97	0xbc32650b	-0.010888348
98	0xbc8a755b	-0.016901663
99	0x3db3d4de	0.087808356
100	0xbd5d3be4	-0.054012194
101	0x3cdec2a6	0.027192425
102	0x3d41a0b7	0.04727241
103	0xbd2edf43	-0.042693388
104	0xbca9a079	-0.020706402
105	0xbd3ce3c0	-0.046115637
106	0x3c98fbf4	0.018674828
107	0xbd62036c	-0.055179045
108	0x3d88ce34	0.06679955
109	0x3d9cfe3b	0.07665678
110	0xbcfa74dd	-0.030573303
111	0x3d4d314c	0.05009584
112	0xbd83a9f3	-0.064288996
113	0xbbc00db5	-0.005861009
114	0x3d0f30c8	0.03495863
115	0xbd887f28	-0.06664878
116	0xbd222c3d	-0.03959297
117	0xbd1683ef	-0.036746915
118	0x3c335788	0.010946162
119	0xbabf24e3	-0.0014583137
120	0xbd7c1695	-0.061544973
121	0x3d9762ab	0.07391866
122	0xbd96f72d	-0.07371364
123	0x3d2451f7	0.04011723
124	0xbc6eecd3	-0.0145828305
125	0xbd60f323	-0.054919373
126	0x3c85c73e	0.016330358
127	0xbd2f0b63	-0.04273547
128	0xbd156ec2	-0.03648258
129	0xbd7763de	-0.060397975
130	0xbd90dd9f	-0.07073521
131	0xbd7dcf4c	-0.06196527
132	0xbd9e6ec8	-0.077359736
133	0xbc4c327f	-0.012463211
134	0x3ca792a0	0.020455658
135	0x3cd6ffbf	0.026244996
136	0x3d91dbce	0.071220025
137	0x3af901f0	0.001899777
138	0xbb342676	-0.0027488745
139	0x3d8aa1c8	0.067691386
140	0x3d144842	0.036201723
141	0x3d037990	0.032098353
142	0xbd5f18dd	-0.05446707
143	0x3c34622b	0.011009733
144	0xbd897a9a	-0.067128375
145	0xbd6733e3	-0.056445967
146	0x3d8bee51	0.068325646
147	0xbd812bff	-0.0630722
148	0xbd519e24	-0.051176205
149	0x3b433b3e	0.002978995
150	0x3cd92274	0.026505686
151	0x3b186853	0.0023255541
152	0x3c6b7fcb	0.01437373
153	0x3daaa479	0.08332152
154	0xbd5839ab	-0.05278937
155	0x3d76d949	0.060265813
156	0x3d693d20	0.05694306
157	0xbd27fe89	-0.041014228
158	0x3bf98efb	0.0076159216
159	0x3d5087f3	0.0509109
160	0xbd0addf2	-0.03390307
161	0x3d10eab2	0.035380073
162	0xbc78f591	-0.015195266
163	0xbc0bac14	-0.008524913
164	0x3c8c01bc	0.01709067
165	0xb92c9c87	-0.00016461509
166	0x3d24ba33	0.040216636
167	0x3d8e66d0	0.06953204
168	0xbd08e915	-0.03342541
169	0x3db4e578	0.0883283
170	0x3d2a5d29	0.04159275
171	0xbc90401c	-0.017608695
172	0xbd4c871a	-0.04993353
173	0xbd1247cd	-0.035713006
174	0x3c2ae95d	0.010431615
175	0x3d207aa7	0.03917947
176	0xbcbd0a45	-0.023076186
177	0xbaf03bf4	-0.0018328414
178	0x3d66d357	0.056353893
179	0x3d294a01	0.04133034
180	0xbcf077bd	-0.02935397
181	0x3da2eb04	0.07954982
182	0xbad6ae93	-0.0016378931
183	0x3cd7e7a4	0.026355572
184	0xbd1a317f	-0.03764486
185	0x3d445052	0.047928162
186	0x3d8ddcb1	0.06926859
187	0x3b3dd33d	0.002896502
188	0xbc8beaa4	-0.017079659
189	0x3cb32056	0.021866005
190	0xbd69a1e3	-0.057039153
191	0xbccba642	-0.024859551
192	0x3cedad18	0.029013202
193	0x3a983ea9	0.0011615354
194	0x3d8864ec	0.06659874
195	0x3d9319c6	0.0718265
196	0x3d8354c3	0.064126514
197	0x3d7c3ee4	0.061583415
198	0xbd5aaac6	-0.05338552
199	0x3c85d3fd	0.016336435
200	0x3ca3a9f1	0.019978495
201	0x3d3b5128	0.045731694
202	0xbcc44eeb	-0.023963412
203	0x3d004c38	0.031322688
204	0xbb0e6752	-0.0021729064
205	0x3d837854	0.06419435
206	0xbc01553f	-0.007893859
207	0xbc33a6f2	-0.010965096
208	0x3cb5cdd0	0.022192866
209	0x3be164cd	0.0068784715
210	0x3d067b1c	0.03283225
211	0x3d966614	0.073436886
212	0xbd5ed91e	-0.054406278
213	0x3d598161	0.0531019
214	0x3c5dcb60	0.013537258
215	0xbcc05726	-0.023479056
216	0xbd46f887	-0.048576858
217	0xbd94482d	-0.07240329
218	0xbd97c6a9	-0.07410938
219	0x3d073a42	0.033014543
220	0x3d708a9d	0.058725942
221	0x3c69f9e2	0.014280768
222	0x3d316085	0.04330494
223	0xbb75aa8f	-0.0037485694
224	0xbd8ce96f	-0.068804614
225	0x3d582ceb	0.052777212
226	0x3d97f919	0.074205585
227	0xbd7743b9	-0.06036732
228	0xbcd508d9	-0.026005195
229	0x3d8959fa	0.06706615
230	0xbcf3bf46	-0.029754292
231	0xbd6a0fca	-0.057143964
232	0x3cf61e85	0.03004385
233	0x3d6d0a79	0.057871316
234	0xbd873533	-0.06601944
235	0x3d00a91a	0.031411268
236	0x3cea13d3	0.028573906
237	0xbd4a1774	-0.049338773
238	0x3d6b0ee2	0.05738724
239	0xbd89a2d2	-0.06720509
240	0xbbfb61c4	-0.0076715667
241	0x3a418130	0.0007381616
242	0x3d55309f	0.05204832
243	0x3d102e73	0.035200547
244	0xbd9ac6cd	-0.075574495
245	0x3d9029c2	0.07039215
246	0xbd45162c	-0.048116848
247	0xbd2d6a4e	-0.04233771
248	0xb878ca77	-5.9316368e-05
249	0xbd3363e1	-0.043796424
250	0x3d2f21c2	0.042756803
251	0x3d3ff116	0.046860777
252	0xbcbb2080	-0.022842646
253	0xbc19cd6c	-0.009387355
254	0x3c34f221	0.011044056
255	0xbd0edc38	-0.034877986

encoder_blocks.2.0.bias f4 [12]
0	0xbc678d58	-0.01413282
1	0x3d8316e3	0.0640085
2	0x3c603bdd	0.0136861475
3	0x3de66f5f	0.11251711
4	0xbc4a9718	-0.012365125
5	0x3d383825	0.04497542
6	0xbdc7cca3	-0.09755828
7	0x3d204c61	0.03913534
8	0x3cf2f34c	0.029657029
9	0xbd8c9644	-0.068645984
10	0x3d8c21ef	0.0684241
11	0x3daf6271	0.08563698

encoder_blocks.2.2.weight f4 [12, 12, 13]
0	0xbcaa295e	-0.020771679
1	0x3da52980	0.08064556
2	0x3d306ecb	0.04307441
3	0x3b6a5976	0.003575889
4	0xbd725d84	-0.059171215
5	0x3a585643	0.00082526
6	0xbcb621e1	-0.022232952
7	0xbd57695d	-0.052590717
8	0xbcc837f6	-0.024440747
9	0xbcfb2797	-0.030658526
10	0x3c5be77c	0.013421889
11	0xbd2d8076	-0.042358838
12	0x3d6ac526	0.05731692
13	0xbc9aa310	-0.018876582
14	0x3c83ba03	0.016079908
15	0x3d6bdffd	0.05758666
16	0x3d120114	0.03564556
17	0x3d11330a	0.035449065
18	0xbd7f42ec	-0.06231968
19	0x3d9ed4df	0.07755446
20	0xbcbb9f67	-0.022903157
21	0xbcac111b	-0.02100425
22	0xbd85c559	-0.06531782
23	0x3d2fd446	0.04292705
24	0x3d77e6a5	0.060522694
25	0xbd07345f	-0.03300893
26	0xbcaab902	-0.020840172
27	0x3d7c5f02	0.061614044
28	0xbd86ebf8	-0.06587976
29	0xbca109f4	-0.019658066
30	0x3c8b04a0	0.016969979
31	0x3d38d4ce	0.04512482
32	0xbd3ca939	-0.04605982
33	0xbd34201c	-0.043975934
34	0x3da7dc14	0.081962734
35	0xbd9a4684	-0.07532981
36	0xbd594ff2	-0.053054757
37	0x3d46253c	0.048375353
38	0xbb8de5db	-0.0043303794
39	0x3caec428	0.021333769
40	0xbd6f4464	-0.05841483
41	0xbd31b8f8	-0.04338929
42	0xbd1bd394	-0.038043573
43	0x3d764465	0.06012382
44	0x3d2d53fb	0.04231642
45	0xbca3f86f	-0.020015923
46	0xbada693c	-0.0016663442
47	0x394ff151	0.00019830956
48	0x3ca3973a	0.019969571
49	0xbd378885	-0.04480793
50	0xbd71cc05	-0.05903246
51	0x3d91198f	0.07084953
52	0x3b20e220	0.0024548844
53	0xbd91b59c	-0.07114717
54	0x3cfee914	0.031117
55	0xbd62a7be	-0.055335753
56	0xbc922032	-0.017837618
57	0xbc744738	-0.014909558
58	0xbd6186c6	-0.05506017
59	0xbac31480	-0.0014883429
60	0x3c1e7580	0.009671569
61	0xbbfa5f70	-0.0076407716
62	0xbb7ba260	-0.0038396344
63	0xbbe4d7a0	-0.0069837123
64	0x3c7f4c08	0.015582092
65	0x3d4c5877	0.049889054
66	0xbd6f37cf	-0.058402833
67	0x3cad3e4e	0.021147873
68	0x3ca7280f	0.020404844
69	0x3c076c2b	0.008265535
70	0x3b210349	0.0024568608
71	0xbd551f09	-0.05203155
72	0x3d35c02f	0.044372734
73	0x3d48eb0d	0.049052287
74	0x3d4fe578	0.050755948
75	0xbd4234f7	-0.047413792
76	0xbd3a9cae	-0.045559578
77	0xbbe8c1ce	-0.0071031814
78	0x3c61f7dd	0.013792005
79	0xbd581cd7	-0.05276188
80	0xbd22b668	-0.039724737
81	0xbbb2ae94	-0.0054529402
82	0x3d1c3533	0.038136672
83	0x3cf4d53f	0.02988684
84	0x3d1564df	0.03647315
85	0x3c56065e	0.0130630415
86	0xbdaabc4d	-0.08336697
87	0x3d69e18b	0.05709986
88	0xbd7155fb	-0.058919888
89	0xbd4dd2af	-0.05024975
90	0x3ba4a627	0.0050246897
91	0x3c1791a6	0.009251034
92	0x3d027bf1	0.03185648
93	0x3bce0c56	0.0062880917
94	0x3d83735d	0.06418488
95	0xbd1239d8	-0.035699695
96	0x3b176483	0.002310068
97	0x3da535e8	0.080669224
98	0xbd184539	-0.03717539
99	0x3d8d2a51	0.06892837
100	0xbc6b7053	-0.014370042
101	0x3da4181c	0.08012411
102	0x3db8a1ee	0.09015261
103	0xbc9d103d	-0.019172782
104	0xbc3d91c0	-0.011570394
105	0xbd9cdb5d	-0.07659028
106	0x3d7e61d2	0.062105007
107	0x3d9a1b2d	0.075247146
108	0x3bd95998	0.006632995
109	0xbd872464	-0.06598738
110	0x3ce08caf	0.027410833
111	0x3d5fb234	0.054613307
112	0xbccbc0e6	-0.024872255
113	0xbc357708	-0.011075743
114	0xbd5e69bc	-0.054300055
115	0xbd407ec0	-0.04699588
116	0xbc82e401	-0.015977861
117	0xbd77c76b	-0.060492914
118	0x3d93c7de	0.07215856
119	0xbd32a259	-0.043611858
120	0x3cbd764b	0.023127696
121	0x3da1b271	0.07895363
122	0x3d05c10b	0.032654803
123	0xbd83ccd9	-0.06435556
124	0xbc8e044f	-0.017336039
125	0xbd9b859b	-0.075938426
126	0xbd87f49b	-0.06638452
127	0xbb5b4e9d	-0.0033463605
128	0x3ca3a59d	0.019976432
129	0x3d5a48de	0.053292148
130	0xbd2a7e55	-0.041624386
131	0x3d0392d0	0.032122433
132	0xbc5ebd8d	-0.013594997
133	0x3cef86ea	0.029239137
134	0x3d240436	0.04004308
135	0xbd88fc7c	-0.066887826
136	0xbc99488a	-0.018711347
137	0x3c793dca	0.015212486
138	0x3d4fdbb3	0.05074663
139	0x3983c237	0.00025130968
140	0x3d66d216	0.056352697
141	0xbd10dbe1	-0.035365943
142	0x3d081413	0.03322227
143	0xbd504c4d	-0.050854016
144	0xbce30342	-0.027711514
145	0x3cce860b	0.025210401
146	0x3b6c963b	0.0036100287
147	0xbd9788f2	-0.07399167
148	0xbd802c5d	-0.062584616
149	0x3da0dce0	0.078546286
150	0x3d1ecb51	0.038768116
151	0xbcbd96a2	-0.023143116
152	0xbd81c28f	-0.06335937
153	0x3c50ed95	0.0127519565
154	0xbbe2a35a	-0.0069164457
155	0xbd3130f0	-0.04325956
156	0x3d7fcbcc	0.062450215
157	0xbd58741d	-0.05284511
158	0x3db085eb	0.08619293
159	0xbd58b932	-0.05291099
160	0x3d1ee143	0.038789045
161	0x3d9e50dc	0.077302665
162	0xbcb603d5	-0.022218624
163	0x3d35b8fa	0.04436586
164	0x3adbf72b	0.0016782036
165	0x3d3ecd7f	0.046582695
166	0xbc523ef9	-0.012832397
167	0x3d303cb8	0.043026656
168	0xbc7766f9	-0.015100234
169	0xbcf43d73	-0.029814458
170	0x3d827e97	0.06371801
171	0xbc081d09	-0.008307704
172	0x3d8426e5	0.06452731
173	0x3b8739be	0.0041267565
174	0x3d8222f2	0.063543215
175	0x3d4048ac	0.046944305
176	0x3d069295	0.032854635
177	0xbcc29c50	-0.023756176
178	0xbca0b116	-0.019615691
179	0xbd5985ff	-0.053106304
180	0x3d54fb9c	0.051997766
181	0x3c5079c6	0.012724346
182	0x3c05c67a	0.008164996
183	0xbd31df08	-0.04342559
184	0xbc21633c	-0.0098503195
185	0x3c10cda0	0.008838087
186	0xbb70bda4	-0.0036734128
187	0x3c9f8a97	0.019475264
188	0x3d35acf9	0.044354413
189	0x3cd31d97	0.025770945
190	0xbd020614	-0.031744078
191	0x3c27112b	0.010196964
192	0x3d9df9a0	0.07713628
193	0xbd698f04	-0.057021156
194	0xbcd92f1e	-0.026511725
195	0xbd334a84	-0.043772236
196	0x3d9e90df	0.07742476
197	0xbd983e77	-0.07433789
198	0x3d978589	0.07398517
199	0xbc44dad2	-0.012015061
200	0x3d5e6451	0.054294888
201	0x3d8c3f77	0.068480425
202	0xbc8b1c53	-0.01698128
203	0x3d5958e9	0.053063307
204	0x3d049c99	0.032375906
205	0x3d0b8af2	0.034068055
206	0xbd89146e	-0.0669335
207	0x3b98d8d3	0.0046645193
208	0xbd2ffdf2	-0.04296679
209	0x3d9149d0	0.07094157
210	0xbd181e34	-0.03713818
211	0xba4b3600	-0.0007751882
212	0xbd09cbe4	-0.03364171
213	0x3d8f1050	0.06985533
214	0x3d5d1b1c	0.05398093
215	0xbd4e1e9c	-0.05032216
216	0x3d733fcc	0.059387013
217	0x3d0e1b3e	0.03469395
218	0x380c4800	3.3445656e-05
219	0xbd23c1cf	-0.039979752
220	0x3b5f2380	0.003404826
221	0x3d6f309a	0.05839596
222	0x3c81a32a	0.015824873
223	0xbb1d0dea	-0.0023964592
224	0x3c89be4f	0.016814379
225	0x3d960a27	0.07326155
226	0x3ccaaa1c	0.024739318
227	0x3d690fa5	0.056899685
228	0x3cc5966f	0.024119584
229	0xbce31a8a	-0.027722616
230	0xbcb72952	-0.02235857
231	0xbd9a16ab	-0.07523855
232	0xbcda6753	-0.026660597
233	0x3c841999	0.016125487
234	0x3cb8489e	0.022495564
235	0xbd15e2f1	-0.03659338
236	0x3cda4699	0.026644992
237	0xbd400627	-0.046880867
238	0x3d89d0ae	0.067292556
239	0xbc8f9481	-0.017526867
240	0xbcb5fb99	-0.022214698
241	0xbd6392c3	-0.055559885
242	0x3d19f355	0.037585575
243	0x3dab7c59	0.08373327
244	0x3c704f1b	0.014667298
245	0x3d53a7a6	0.051673554
246	0x3c790af5	0.015200366
247	0xbdbbd6f7	-0.09171861
248	0xbdb7c08c	-0.08972272
249	0xbc4f9f69	-0.012672284
250	0x3cfd687d	0.030933613
251	0xbd5440a3	-0.051819455
252	0x3ac98622	0.0015375058
253	0x3cdca1ea	0.026932675
254	0xbd244e3f	-0.040113684
255	0xbda99855	-0.08281008

encoder_blocks.2.2.bias f4 [12]
0	0x3d4dbf56	0.0502313
1	0x3d5da7d3	0.054115128
2	0x3a8c7fd7	0.0010719252
3	0xbd28b0ef	-0.041184362
4	0xbb42b753	-0.002971132
5	0x3d2614c4	0.040547147
6	0x3ddca49b	0.107735835
7	0xbd45314d	-0.04814272
8	0x3d4c5bee	0.04989236
9	0x3d4d773c	0.05016254
10	0x3dcea459	0.100899406
11	0xbd33e85c	-0.043922767

encoder_blocks.3.0.weight f4 [12, 12, 13]
0	0x3d988e88	0.07449061
1	0x3ce4823d	0.027894134
2	0xbc3f9198	-0.011692427
3	0xbd47ea43	-0.048807394
4	0xbc842f5a	-0.01613586
5	0x3d409fc9	0.047027383
6	0xbd7fb197	-0.062425222
7	0xbd2d3dde	-0.04229533
8	0xbd4a1170	-0.049333036
9	0x3d7aea84	0.061258808
10	0x3da06a25	0.078327455
11	0xbd3b8ec8	-0.045790464
12	0xbd87a1f6	-0.066226885
13	0xbd65c989	-0.056100402
14	0x3d8c293e	0.06843804
15	0x3ce8ccb8	0.02841793
16	0x3d342a1a	0.043985464
17	0x3ca9f036	0.020744424
18	0xbc7d117e	-0.015446065
19	0x3d542ddb	0.051801544
20	0xbd959d29	-0.073053665
21	0xbcfee426	-0.031114649
22	0x3a228f04	0.00062011206
23	0xbd18dd35	-0.037320334
24	0x3cd4b05b	0.025963
25	0x3c8e2521	0.017351689
26	0x3d480ca3	0.048840176
27	0x3d87ae93	0.06625094
28	0x3d713702	0.05889035
29	0xbc4810f8	-0.012211077
30	0x3c40edba	0.011775428
31	0xbc60d1e9	-0.0137219215
32	0xbd2f630d	-0.04281907
33	0x3c09d95e	0.008413641
34	0xbd68b5a0	-0.056813836
35	0xbc7c38d3	-0.015394407
36	0x3b5d9eba	0.0033816532
37	0x3c82507d	0.01590752
38	0x3c84fc4b	0.016233584
39	0x3d388ae0	0.045054317
40	0xbd36e6cd	-0.044653703
41	0x3cd054d5	0.025431076
42	0xbc537b81	-0.012907864
43	0x3d5f4f0b	0.05451874
44	0x3d737c90	0.059444964
45	0xbd1e07ca	-0.038581647
46	0xbc221a14	-0.009893913
47	0x3cfb4015	0.030670205
48	0x3d981c7e	0.074273095
49	0xbd27e5c3	-0.040990602
50	0x3cc9b642	0.02462304
51	0xbcf9e562	-0.030504886
52	0xbd897c26	-0.067131326
53	0x3d2a0bec	0.041515276
54	0xbd79706b	-0.060898226
55	0x3d1f90b5	0.038956363
56	0x3d854f96	0.065093204
57	0x3d163e30	0.0366804
58	0xbd68ecf4	-0.0568666
59	0xbd8bf2a1	-0.06833387
60	0xbb58b7bc	-0.0033068499
61	0x3c6c72ef	0.014431699
62	0xbd01c2b2	-0.031679817
63	0x3c84f6e1	0.016231002
64	0xbcb1527e	-0.02164578
65	0xbd9247e5	-0.07142619
66	0xbd2fc91c	-0.042916402
67	0xbcc22b7b	-0.023702374
68	0x3d7db1df	0.06193721
69	0xbd86ba21	-0.0657847
70	0xb9312331	-0.00016893145
71	0x3da6b0c5	0.08139185
72	0x3be67b09	0.00703371
73	0x3c4930c1	0.01227969
74	0x3b978f83	0.004625262
75	0xbd52a0c4	-0.05142285
76	0x3d1899f6	0.037256204
77	0x3d30992a	0.04311482
78	0xbd3ca67b	-0.046057206
79	0x3b9c04eb	0.0047613285
80	0x3d0e2512	0.03470332
81	0xbd49e721	-0.049292687
82	0xbd02de50	-0.031950295
83	0xbd1c3938	-0.038140506
84	0xbba87bc1	-0.0051417057
85	0x3d8617ce	0.06547509
86	0xbdaf2c27	-0.08553343
87	0x3c807d7e	0.01568484
88	0xbba0d78f	-0.004908509
89	0xbcd62d49	-0.02614464
90	0x3d9976a2	0.074933305
91	0x3da34a50	0.07973158
92	0x3d5709f0	0.05249971
93	0xbb0dee53	-0.0021656945
94	0xbd79465a	-0.060858108
95	0xbd8301cc	-0.06396827
96	0xbbf5366d	-0.0074832947
97	0x3d488316	0.04895314
98	0x3d18d263	0.037310015
99	0x3ca6c1e0	0.020356119
100	0x3d6dc65c	0.0580505
101	0x3c2d25c2	0.010568084
102	0x3d7419f2	0.059595056
103	0xbd89634b	-0.06708392
104	0xbcdeea7d	-0.027211422
105	0x3d001f7c	0.031280026
106	0xbc2c5d5b	-0.010520305
107	0xbd5bcfb6	-0.053664885
108	0xbceaf6f9	-0.028682219
109	0xbbb6e22f	-0.0055811624
110	0x3d509f60	0.05093324
111	0xbd99776f	-0.07493483
112	0x3c67b9cf	0.014143421
113	0xbd89d962	-0.067309156
114	0xbd2f2d34	-0.04276772
115	0x3d865c23	0.065605424
116	0xbd32c7aa	-0.043647446
117	0xbd918da3	-0.07107093
118	0xbc96df2e	-0.018416967
119	0x3d8ac98d	0.06776724
120	0xbbc21271	-0.0059226085
121	0xbbacdfd5	-0.0052757063
122	0xbd4a641f	-0.04941189
123	0xbd9e2342	-0.07721569
124	0x3cc4c626	0.024020266
125	0x3b5dc0e4	0.0033836896
126	0x3bdae220	0.006679788
127	0xbd87b275	-0.06625835
128	0x3d32c662	0.043646224
129	0xbd631300	-0.05543804
130	0xbb514dbc	-0.0031937202
131	0xbd98faee	-0.07469736
132	0x3bbe77b0	0.0058126077
133	0x3d39f164	0.045396224
134	0x3c0f3ece	0.008743001
135	0xbc8ef676	-0.017451506
136	0xbd84247c	-0.06452271
137	0x3d17a5a1	0.03702319
138	0xbcffb9e3	-0.031216567
139	0x3c0a0db5	0.00842612
140	0xbda2a95f	-0.07942461
141	0x3d9715f7	0.07377236
142	0xbccbc1da	-0.024872709
143	0x3d82d1de	0.06387685
144	0x3bfcc5b7	0.007713999
145	0xbcfa8c17	-0.030584378
146	0x3d041701	0.0322485
147	0x3da79dbd	0.08184383
148	0xbd03a26c	-0.03213732
149	0x3ccd9677	0.025096161
150	0x3d5cd03a	0.053909518
151	0xbc851987	-0.016247524
152	0x3c46bf62	0.01213059
153	0x3ced6316	0.028977912
154	0x3d742895	0.059609015
155	0xbd9e7291	-0.077366956
156	0xbcea8dad	-0.02863201
157	0xbcdaa4c1	-0.026689889
158	0xbd36c565	-0.044621844
159	0x3db16794	0.08662334
160	0x3dafdeb5	0.085874
161	0xbda19c07	-0.07891088
162	0x3dcafdfc	0.09911725
163	0x3d7778fa	0.060418107
164	0xbd88ac13	-0.066734456
165	0x3dc0237b	0.09381767
166	0x3c976878	0.018482432
167	0x3d786d3c	0.06065105
168	0x3d3a25b2	0.045446105
169	0xbcf19e10	-0.029494315
170	0xbd9bc14c	-0.07605228
171	0xbd9df184	-0.07712081
172	0xbc01060e	-0.007874979
173	0x3d0067dd	0.03134905
174	0xbd8a430b	-0.06751069
175	0x3b419b79	0.0029542132
176	0x3d6c2a1e	0.057657354
177	0x3d8611bf	0.065463535
178	0xbccf8c64	-0.025335498
179	0x3d06e146	0.03292968
180	0x3caf241e	0.021379527
181	0x3d9fc21d	0.07800696
182	0x3c02825a	0.007965649
183	0x3cc24a81	0.023717167
184	0xbd870cb3	-0.06594219
185	0x3d9d1a8d	0.0767108
186	0xbcd6dc7b	-0.02622818
187	0x3d78b15c	0.060716018
188	0xbc63faf3	-0.013914811
189	0xbd3b782d	-0.045768905
190	0xbd2ed68a	-0.04268507
191	0x3d9fd380	0.07804012
192	0xbd1fafbc	-0.038985953
193	0xbd7178a6	-0.05895295
194	0xbba4114f	-0.005006946
195	0xbd71cb3c	-0.05903171
196	0x3c9b9b2a	0.018994886
197	0x3d42aacf	0.047526177
198	0x3ba3a0a6	0.004993516
199	0x3c4c1439	0.012455993
200	0x3cae93ca	0.021310706
201	0x3d74ee1a	0.059797384
202	0xbce99bb4	-0.028516628
203	0x3d81d87b	0.063401185
204	0xbcf48aa6	-0.029851269
205	0xbcc5ccdd	-0.024145538
206	0xbc8305ef	-0.01599404
207	0x3d8d9852	0.069138184
208	0xbd04925f	-0.032366153
209	0x3d650978	0.055917233
210	0xbd94beb8	-0.07262939
211	0x3c37cbb6	0.011218002
212	0xbd40e0a9	-0.047089253
213	0x3d98d15a	0.07461806
214	0xbd951fc7	-0.07281452
215	0x3d08862a	0.033331074
216	0x3d2a5631	0.041586105
217	0x3cf75ba4	0.030195065
218	0xbc0b9de4	-0.008521531
219	0x3d79502b	0.06086747
220	0x3c507588	0.012723334
221	0xbc8cfcb1	-0.017210336
222	0xbce2ce68	-0.027686313
223	0x3d183593	0.037160467
224	0xbd711455	-0.05885728
225	0xbccc3e8c	-0.024932168
226	0x3d7bc1f2	0.061464258
227	0xbd6445f8	-0.05573079
228	0x3d5ef5c1	0.054433588
229	0xbd1f4376	-0.038882695
230	0x3cddcafb	0.027074328
231	0xbc61a211	-0.01377155
232	0xbc1c6a9f	-0.009546905
233	0xbc918e88	-0.01776816
234	0x3d070066	0.032959364
235	0x3db7df0f	0.08978092
236	0xbc509b5c	-0.012732353
237	0x3d99c4c0	0.0750823
238	0x3daf9003	0.0857239
239	0x3d83629e	0.06415294
240	0xbcc0dfb5	-0.023544172
241	0x3d4b34de	0.049610965
242	0x3d066d2a	0.03281895
243	0x3b57aeb1	0.003291052
244	0x3c648e80	0.01394999
245	0x3d66d0f1	0.056351606
246	0x3da811d1	0.08206523
247	0x3c6533ae	0.013989372
248	0x3af96563	0.0019027408
249	0xbae30f42	-0.0017323273
250	0x3be17e54	0.0068815146
251	0xbd034113	-0.03204448
252	0x3d8496f8	0.064741075
253	0x3c2083eb	0.009797077
254	0xbb05dca6	-0.0020425706
255	0xbd9c81f1	-0.07641972

encoder_blocks.3.0.bias f4 [12]
0	0xbd4835de	-0.048879497
1	0x3d59d667	0.053182986
2	0x3dab0c69	0.083519764
3	0xbcaedc21	-0.0213452
4	0xbd3c6604	-0.045995727
5	0x3da7e370	0.08197677
6	0xbcbe4f69	-0.023231225
7	0xbd4d483f	-0.050117727
8	0x3aa88e9b	0.0012859883
9	0xbd9c3b70	-0.07628524
10	0x3cc821c5	0.024430165
11	0x3c9c6053	0.0190889

encoder_blocks.3.2.weight f4 [12, 12, 13]
0	0x3bce4cd0	0.006295778
1	0xbd67a4ab	-0.056553524
2	0xbc5318b7	-0.01288431
3	0x3d5a0e00	0.053236008
4	0xbd12ff04	-0.035887733
5	0xbd83d940	-0.064379215
6	0x3d083c65	0.03326072
7	0xbc3cf92e	-0.011534018
8	0xbd52e509	-0.051487956
9	0xbb24d151	-0.0025149176
10	0xbd412fce	-0.04716473
11	0x3d068599	0.032842252
12	0xbc000759	-0.007814252
13	0x3cd8ae22	0.02645022
14	0xbb50797f	-0.0031810699
15	0xbc2e2b09	-0.010630378
16	0xbcfd2255	-0.03090016
17	0xbd30cff9	-0.04316709
18	0x3c249d5a	0.010047281
19	0xbd852bcd	-0.06502495
20	0x3d710317	0.058840837
21	0xbd053209	-0.03251842
22	0xbc1366d9	-0.008996689
23	0x3d87da66	0.06633453
24	0x3d0c34c6	0.034230016
25	0x3d4267cb	0.047462266
26	0xba82e0ce	-0.000998521
27	0xbd2651e0	-0.040605426
28	0x3cf4fb9e	0.029905137
29	0xbd849ecc	-0.064756006
30	0x3cd60db8	0.026129588
31	0xbd897eac	-0.06713614
32	0x3d4c7147	0.049912717
33	0xbd5cdf6f	-0.05392402
34	0xbb7a2094	-0.003816639
35	0x3da1c303	0.07898524
36	0x3b74a802	0.0037331586
37	0xba73eb0a	-0.0009304738
38	0xbd1c9610	-0.03822905
39	0xbd4fd441	-0.05073953
40	0x3d77b0fa	0.060471512
41	0xbd980a6d	-0.074238636
42	0x3b7041d7	0.0036660337
43	0x3c9f761d	0.0194655
44	0x3d2001b7	0.039064135
45	0x3c4c163b	0.012456472
46	0x3cfe5612	0.0310469
47	0xbcfee35b	-0.03111427
48	0xbd0496a8	-0.03237024
49	0x3d8bb237	0.06821101
50	0xbd8ba91f	-0.06819367
51	0x3b9b386b	0.00473695
52	0x3d83ff87	0.06445222
53	0x3d7ffc1b	0.062496286
54	0x3d47baa9	0.048761997
55	0xbb45d27d	-0.0030185275
56	0xbb94bf3d	-0.004539399
57	0xbd3efada	-0.04662595
58	0x3be131ef	0.0068724076
59	0x3d381c18	0.044948667
60	0x3d87f296	0.066380665
61	0xbc4a6144	-0.0123522915
62	0x3cc2d7d0	0.023784548
63	0xbcd23fdd	-0.025665218
64	0xbd4d9871	-0.050194208
65	0xbd01faaa	-0.031733193
66	0xbd05995e	-0.032616965
67	0xbda0e574	-0.07856265
68	0x3d92c401	0.07166291
69	0xbd2b9cf5	-0.041897733
70	0xbcd6a772	-0.026202891
71	0x3d487415	0.04893883
72	0x3d90d580	0.07071972
73	0x3d73cfaa	0.059524216
74	0x3d950204	0.07275775
75	0x3c7bea58	0.015375696
76	0x3d72da0a	0.05928997
77	0xbd82ae2a	-0.063808754
78	0xbcaabc16	-0.02084164
79	0xbd9486b3	-0.07252254
80	0x3d104740	0.0352242
81	0xbd830e98	-0.06399268
82	0xbd24fa9a	-0.040278055
83	0xbd6b3fc8	-0.057433873
84	0xbd95f3a9	-0.07321865
85	0xbbcd030c	-0.0062564667
86	0x3d5ba3b3	0.053622913
87	0xbd9e2814	-0.07722488
88	0xbc8c0d88	-0.017096296
89	0x3d06ebd2	0.03293974
90	0x3d253326	0.040331982
91	0xbd36697e	-0.0445342
92	0x3c71ee88	0.014766343
93	0xbd865969	-0.065600224
94	0x3d9f9f9e	0.077941164
95	0x3d1432d8	0.0361813
96	0x3d58039c	0.052737817
97	0x3ca70e68	0.020392612
98	0x3cefb8d4	0.029262938
99	0x3d1f13b4	0.03883715
100	0xbca1344e	-0.019678261
101	0xbd3b3d71	-0.045712892
102	0xbd055e06	-0.03256037
103	0x3c0d9228	0.008640803
104	0x3d35077a	0.044196583
105	0xbcf7ea12	-0.03026298
106	0x3d91c01a	0.071167186
107	0x3d865a96	0.06560247
108	0xbcd5c674	-0.026095606
109	0x3d951a5c	0.07280418
110	0x3bbb613f	0.0057183797
111	0xbcd99045	-0.02655805
112	0x3c9ca7c4	0.019122966
113	0x3d891d4f	0.06695043
114	0xbcbb3829	-0.022853928
115	0x3d4f05dd	0.0505427
116	0xbaff01ba	-0.0019455471
117	0x3bc3da8f	0.005976982
118	0x3a91a399	0.0011111378
119	0x3d232cb3	0.03983755
120	0x3d9164ea	0.07099326
121	0x3c8f5d70	0.01750061
122	0x3d19276c	0.03739111
123	0xbd6c2c8d	-0.057659674
124	0x3d6c6eb6	0.05772277
125	0xbc15ccf0	-0.009143099
126	0xbb18171b	-0.0023207131
127	0xbd789b4a	-0.06069497
128	0x3d8fcc9f	0.0702145
129	0xbd0feb5c	-0.035136566
130	0x3d9b5938	0.075853765
131	0xbc94983a	-0.018138994
132	0xbd2b038e	-0.041751437
133	0xbd777c6f	-0.060421403
134	0xbd4747b5	-0.04865237
135	0x3d4e7955	0.05040868
136	0xbd5fece3	-0.054669272
137	0xbcf8c2b7	-0.030366285
138	0xbc6aa933	-0.014322567
139	0xbb898bc9	-0.004197572
140	0xbaea1e41	-0.00178618
141	0x3c2f65c6	0.010705417
142	0xbda2e9d8	-0.079547584
143	0x3c631c19	0.0138616795
144	0x3d2f32df	0.042773124
145	0xbcb58058	-0.022155926
146	0xbd50fe9e	-0.051024072
147	0xbc108db2	-0.008822845
148	0xbd811aae	-0.06303917
149	0xbd0bcbc3	-0.03412987
150	0xbc72ef82	-0.014827611
151	0x39f03e63	0.0004582285
152	0xbcce1982	-0.025158647
153	0x3cf1e713	0.02952913
154	0xbc8d53bb	-0.01725184
155	0xbcd913f6	-0.026498776
156	0x3bee41f6	0.0072710468
157	0xbd47ed63	-0.048810374
158	0x3d337884	0.043816105
159	0x3c9ef6a0	0.01940471
160	0xbca5069a	-0.02014475
161	0x3d9adbcb	0.075614534
162	0x3d943c52	0.07238068
163	0xbcb029d0	-0.021504313
164	0x3d95604e	0.07293759
165	0x3c983f0e	0.018584754
166	0x3c23740f	0.009976401
167	0xbd1483ad	-0.03625839
168	0x3d57b498	0.052662462
169	0xbc890fba	-0.016731132
170	0x3d2836a1	0.041067723
171	0x3ca1f0ef	0.019768206
172	0xbd0c094e	-0.03418856
173	0x3d2dd89a	0.042442895
174	0xbda219cf	-0.07915079
175	0xbd08c8e2	-0.0333947
176	0xbd9be0dd	-0.07611249
177	0x3d8d223b	0.068912946
178	0xbd15008d	-0.03637748
179	0x3b8fb551	0.0043856283
180	0xbd348d15	-0.04407986
181	0xbcf23efd	-0.02957105
182	0x3cbb2fc3	0.022849923
183	0x3d89c0df	0.0672624
184	0xbd4b0eed	-0.04957478
185	0xbd1b9389	-0.037982497
186	0xbcf4a330	-0.02986297
187	0x3c6b104d	0.014347148
188	0xbd68a8ff	-0.056801792
189	0xbcbc220b	-0.022965452
190	0x3d8b4898	0.068009555
191	0x3d593031	0.053024475
192	0x3bd3caeb	0.0064633987
193	0x3d6922e6	0.056918047
194	0x3cd81ccf	0.026380925
195	0xbc7ddf05	-0.0154950665
196	0x3c13e4e8	0.0090267435
197	0xbda66fb3	-0.08126774
198	0x3aad2730	0.0013210531
199	0xbcfb0a90	-0.030644685
200	0xbd4a3e32	-0.04937572
201	0x3d115c02	0.035488136
202	0x3d9b52e1	0.07584167
203	0xbc26913b	-0.010166462
204	0x3b9d631a	0.0048030736
205	0x3bc89803	0.006121637
206	0x3c19c737	0.009385875
207	0x3d1d0db0	0.03834313
208	0xbd26bf69	-0.040709887
209	0xbc22d26f	-0.009937867
210	0xbd6d91ca	-0.058000363
211	0x3d4784dd	0.048710693
212	0x3d4ba8d4	0.049721554
213	0xbd5c182f	-0.053734
214	0xbd6b371d	-0.057425607
215	0x3b9b953a	0.004748014
216	0x3d7d229d	0.061800588
217	0xbc8c6682	-0.017138723
218	0xbd57ae49	-0.052656446
219	0x3b3a3433	0.002841246
220	0xbd0bbf2e	-0.03411787
221	0x3ca60ed6	0.020270746
222	0x3d040d90	0.032239497
223	0x3c938b60	0.018010795
224	0x3d172118	0.036896795
225	0xbd0ea710	-0.034827292
226	0x3d3a7da5	0.04552998
227	0xbb9dedcd	-0.004819608
228	0xbc1c4a72	-0.0095392335
229	0xbd425ee6	-0.047453783
230	0xbc8c68fa	-0.0171399
231	0xbd4879d2	-0.048944302
232	0x3cdb04d5	0.026735703
233	0xbd134fb1	-0.03596467
234	0xbd5647ad	-0.05231445
235	0xbd8b25c5	-0.06794313
236	0xbd92abe8	-0.07161695
237	0xbcecff88	-0.02893044
238	0x3cb896a9	0.022532778
239	0xbd32410b	-0.04351906
240	0x3cc644ee	0.02420279
241	0xbd3e5495	-0.046467382
242	0x3d871875	0.06596462
243	0xbbc079fe	-0.0058739176
244	0xbd4dca10	-0.05024153
245	0x3d7cb945	0.061700124
246	0xbd6d28b2	-0.05790014
247	0xbd3630bf	-0.04448008
248	0x3c3b94f0	0.011449084
249	0xbb8ff820	-0.0043935925
250	0x3d9f5c70	0.07781303
251	0xbc3a5688	-0.01137317
252	0x3d927c92	0.07152666
253	0x3c28ae10	0.010295406
254	0x3d958210	0.07300198
255	0x3d59dc64	0.053188697

encoder_blocks.3.2.bias f4 [12]
0	0xbd9b1c93	-0.075738095
1	0xbd749a0d	-0.059717227
2	0xbd98c833	-0.0746006
3	0xbd317820	-0.04332745
4	0xbcc607fa	-0.024173725
5	0x3cead98c	0.028668188
6	0x3b8509c0	0.00406
7	0x3bb27410	0.0054459646
8	0xb903ae97	-0.00012558173
9	0x3d8905f1	0.06690586
10	0x3d176f81	0.036971573
11	0xbba5c84c	-0.0050592776
