Python/save/localizer/trial_2/quake_localization_model_00230.pth (torch, 252994 bytes, 35 tensors)

encoder_blocks.0.weight f4 [12, 1, 13]
000000 ec 95 3e 3e 2a 46 49 3e 06 37 63 3e 85 2b ab 3d
       0.18611878 0.19655672 0.22188959 0.0835791
000010 a6 e2 3c 3e 6a 28 d1 3d 70 9b dd bd 71 70 80 bd
       0.18445835 0.102127865 -0.10820663 -0.062714465
000020 bb 5d 53 be 84 44 4c be 13 77 45 be 11 62 b1 3d
       -0.20641224 -0.19948012 -0.19283704 0.08661283
000030 24 89 b1 bd c4 aa 5a be df 48 7a be 29 1c 82 be
       -0.086687356 -0.21354204 -0.2444186 -0.2541211
000040 ca d6 02 be 21 07 db 3d 47 04 2b be 0c ee 8d 3e
       -0.12777248 0.10694719 -0.1670085 0.27720678
000050 f9 3c 47 be 31 c7 a2 bc 2a 2f 97 3d 7e 64 30 3e
       -0.19456853 -0.019870372 0.07382043 0.17225835
000060 2e 0d 22 3e 32 bc 2e bd 06 3e 8f 3d fd e1 b5 bd
       0.1582534 -0.042659946 0.06994252 -0.088809945
000070 0b ba f7 3c 2e bd 8e 3d 67 46 5f be 39 a3 40 be
       0.03024008 0.06969677 -0.218042 -0.18812265
000080 18 f3 1f 3e 40 18 8b bd a6 d7 d8 bd df 8f df bd
       0.15620077 -0.06791735 -0.10588007 -0.10916113
000090 c5 39 fa bb c1 f8 e1 bd 47 db 7b be 06 5c a0 3d
       -0.007636281 -0.11033774 -0.24595366 0.07830052
0000a0 ec fe ef 3c 37 35 54 be 75 c4 99 3d 0e c7 22 be
       0.02929636 -0.20723425 0.07508174 -0.15896246
0000b0 5d c5 0b be e6 a2 ad 3d e8 8c 0f 3d 7d ed 18 3d
       -0.13649507 0.08478336 0.035046488 0.03733586
0000c0 f9 e1 ba bd a9 76 3a 3b fc dd 86 3e ea 32 80 be
       -0.09125132 0.0028452075 0.26341236 -0.25038844
0000d0 fc 93 5d 3d 9a 1d 3c 3d ca b0 b4 bd 19 ac ba bb
       0.054096207 0.045926668 -0.08822782 -0.005696785
0000e0 e7 93 14 be 27 6e e7 bd 20 74 14 be 9a 3a 37 3e
       -0.14509545 -0.11300307 -0.14497423 0.17893448
0000f0 02 68 0c bd 9e 1a f6 3d 6a ef 3c bc fa 4d 08 be
       -0.034278877 0.120167956 -0.01153169 -0.13310996
000100 3c ac 2b be ce cb b2 bd d1 89 71 3e 2e 61 c6 3d
       -0.16764921 -0.08730279 0.23587729 0.09686504
000110 b9 00 f2 bc bd 22 69 bd 7b cb 9b 3d 85 6d 62 3e
       -0.02954136 -0.056917895 0.0760717 0.22112091
000120 68 78 70 be 0a de 9e 3d 48 d9 1b 3e 09 0f 4b be
       -0.23483431 0.07757194 0.15219605 -0.19829954
000130 4c b8 65 3e ea 53 2d 3e 93 d5 e9 bd 0e 6d db 3c
       0.22433585 0.16926542 -0.11417689 0.0267854
000140 61 89 fd 3d 44 43 d9 3d f5 01 88 3d 27 c2 06 bd
       0.123797186 0.10608533 0.06640998 -0.0329
000150 13 80 a6 bd 03 62 78 3e b2 9e 12 3e e1 47 13 3e
       -0.08129897 0.24256139 0.1431835 0.14382888
000160 8f 3d 89 be 03 82 f6 3d fe db 1a be 6c 2f c1 3d
       -0.26804778 0.120365165 -0.15122983 0.09432873
000170 be f5 c5 bd ec be 4c bd 19 20 db 3d 86 89 4f be
       -0.09666012 -0.049986765 0.106994815 -0.20267305
000180 19 8c 8b 3e ee 76 4b 3e dd 23 b3 bd aa 21 10 3e
       0.27255324 0.19869587 -0.08747075 0.14075342
000190 33 79 2d be 68 e8 3d 3c 29 f2 5d 3e b3 27 9e 3c
       -0.16940765 0.0115910545 0.21674408 0.01930604
0001a0 0e 29 31 be 7e b7 8a bc f8 68 2c bd 6d 39 98 bd
       -0.17300817 -0.016933199 -0.042092294 -0.07432828
0001b0 be 66 2b 3e 47 8e 47 3e b6 97 3f 3e 45 6b 80 3e
       0.16738412 0.19487868 0.18710217 0.2508184
0001c0 48 e0 20 3e 70 5e 3f 3e 32 84 67 3e 9e 3d 0a be
       0.15710557 0.18688369 0.22609022 -0.13500068
0001d0 6e 6c 20 3e 47 62 86 3e 61 69 a8 bd c9 dd 48 be
       0.15666363 0.26246855 -0.082232244 -0.19615854
0001e0 e6 ee 5d be a9 27 91 3b 8d 6c 35 be 41 d3 49 be
       -0.21673164 0.0044297767 -0.1771719 -0.19709493
0001f0 51 4c 06 3e aa 0d 58 3e 1c 5a 43 be af 97 89 3e
       0.1311505 0.21098962 -0.19077343 0.26873538
000200 ac 69 55 3d 81 4f d9 3d 94 51 8f 3e 08 b0 60 be
       0.05210273 0.10610867 0.27991927 -0.2194215
000210 fe 84 8b 3e 97 76 bc 3c 06 41 08 bd e5 b1 51 3e
       0.27249902 0.023005767 -0.033265136 0.20478018
000220 b8 e0 f3 3d d5 d3 c8 3c ed 01 21 bd 12 82 52 bd
       0.11908096 0.024515072 -0.039308477 -0.051393576
000230 78 ad f3 bb 42 d8 d7 bd 17 9a 3c be 74 e4 95 3d
       -0.0074364506 -0.10539295 -0.18418156 0.073189646
000240 39 64 17 3e a4 2f 55 be 16 0e 60 bd 4b 02 69 be
       0.14784326 -0.20818955 -0.054700933 -0.22754781
000250 e2 10 8a be 84 58 b5 3d 61 d8 73 be 8e 70 d5 bd
       -0.26966006 0.08854774 -0.23813011 -0.10421859
000260 9a fc 30 be c4 5d 70 3e 8f 35 42 be d6 d6 f7 bd
       -0.1728386 0.23473269 -0.18965743 -0.121015236

encoder_blocks.0.bias f4 [12]
000000 d5 44 2c be ac b8 2e 3d 48 2a 84 3e 61 b9 f7 bd
       -0.16823132 0.042656586 0.25813508 -0.12095905
000010 ee a0 87 3e 5e f9 75 be 16 ee 57 3d cf f3 cc 3d
       0.26489967 -0.24020907 0.05271729 0.1000744
000020 74 43 82 3d 63 d2 a5 bd b3 2f 8a 3c 81 4a ca 3d
       0.06360522 -0.08096769 0.016868448 0.09877492

encoder_blocks.1.0.weight f4 [12, 12, 13]
000000 44 90 6a bc b9 2c 5c 3d c0 f0 8a 3d cb 47 d6 bc
       -0.014316622 0.05375359 0.06784201 -0.02615728
000010 1a b0 3f bd ba bd 68 3d c5 87 39 bd 3d e2 a0 3c
       -0.046798803 0.056821562 -0.045295496 0.019639129
000020 49 ee 47 bd a2 5e d0 bc 79 a5 12 bd 2c d7 57 3d
       -0.04881123 -0.02543575 -0.03580234 0.05269544
000030 6a 30 33 3c e8 b0 71 3d b8 ed 43 bd dc fb 99 bc
       0.010936836 0.0590066 -0.04783413 -0.018796854
000040 07 9f 4c bd 3f bd 7c 3c 8a 21 e6 3b cb 2c 54 bd
       -0.049956348 0.015425979 0.007023041 -0.05180053
000050 18 80 c6 bc ae 91 90 bd 29 39 b2 bc 58 21 a8 bc
       -0.024231002 -0.07059036 -0.021755772 -0.020523712
000060 69 0f 38 bd 75 10 34 3d 18 4b 9c bb 95 30 89 3d
       -0.04493657 0.043961007 -0.004769694 0.066987194
000070 f9 f6 49 bb 1e 2d d1 3b 25 63 68 bd 67 1f 8e bd
       -0.0030817373 0.006383552 -0.056735177 -0.06939583
000080 e0 b9 9b 3d 9c 3b a7 bd 89 9b 78 3d 5d 5f 5c bc
       0.07603812 -0.081656665 0.060695205 -0.013450471
000090 e5 4a 51 3d 1a e9 a7 3d b7 f7 91 3d a8 54 a5 bd
       0.051096816 0.081987575 0.07127326 -0.080727875
0000a0 a9 e6 17 3d 48 5e 82 bd 43 f6 01 3d 1c 2a 06 3d
       0.03708521 -0.06365639 0.031728994 0.032755002
0000b0 b0 df 88 3d ce a4 70 3d 42 c9 9c 3c 9b 81 72 bd
       0.0668329 0.05875092 0.019138936 -0.059205633
0000c0 da 98 c7 b8 03 ee a4 bd c8 cf 88 bd ed 8b 7e 3d
       -9.51753e-05 -0.0805321 -0.06680256 0.062145162
0000d0 df 44 f8 3b 5b fc 37 3d 9a d7 08 3b f4 67 8e bd
       0.0075765694 0.0449184 0.0020880462 -0.06953421
0000e0 0f 39 91 3d e1 bf 30 3d b5 32 b8 bc 6d e0 21 3c
       0.07090961 0.04315174 -0.022485116 0.009880167
0000f0 e5 28 c7 3b 5e b2 28 bc 55 6e 66 bd 94 0d a1 3c
       0.006077873 -0.010296432 -0.056257565 0.019659795
000100 51 dd a8 bc d6 29 27 3d 9c e2 10 bd 66 77 e5 3c
       -0.020613344 0.040811382 -0.03537236 0.028011035
000110 89 b6 35 3c 34 3d 40 bd 42 9f 69 bd df 22 51 bd
       0.011090883 -0.046933368 -0.057036646 -0.051058646
000120 57 b2 77 3d 28 46 8f bd 4e 0f 30 3d 47 86 97 3d
       0.060472813 -0.06995803 0.042983346 0.07398658
000130 3d 11 ee 3c 85 3f 3c bd b1 27 09 3d ba 01 a3 bd
       0.029060954 -0.045959014 0.03348512 -0.07959314
000140 7f 72 80 3b 45 71 4c 3d 78 25 a3 3d d1 12 42 bd
       0.003919899 0.04991271 0.07966131 -0.047381226
000150 fb 99 85 bd 2d 93 75 3c d0 6e 45 bd 85 c9 5c 3c
       -0.0652351 0.014988703 -0.048201382 0.01347578
000160 96 ca 66 3d 23 db 87 3d 62 a3 ad 3c c5 3a 37 bd
       0.056345545 0.06633594 0.021196071 -0.04473378
000170 30 a2 41 3a f9 94 fe bc d4 e5 43 bd 94 25 95 bc
       0.00073865335 -0.031076895 -0.047826603 -0.018206395
000180 ee 77 09 bd 91 58 63 bd e2 2a 85 3d c4 cd 51 3d
       -0.03356164 -0.055504385 0.0650232 0.051221624
000190 ed a2 8a bd 96 e4 09 bc bc a3 a3 bc 60 8d 19 3b
       -0.06769357 -0.008416316 -0.019975536 0.0023430213
0001a0 ba 91 8b 3d 71 70 d4 bc 09 d8 70 3b 1c 9b 9a bd
       0.068149045 -0.025932522 0.003674986 -0.07549116
0001b0 f6 8a ed 3c 8a e5 40 bd 71 ca b7 3c b4 10 05 bd
       0.028996926 -0.047093906 0.022435399 -0.032486632
0001c0 e6 e4 1a bc 37 ca 31 3d d9 e4 19 3d 2c b8 69 3d
       -0.009453988 0.043405738 0.03757176 0.057060406
0001d0 9d 80 8a 3d 46 f7 85 bc e4 53 02 bd 65 f5 a6 bc
       0.06762812 -0.01635326 -0.031818286 -0.020380685
0001e0 d5 e9 01 3c 7d 2f 0c 3d d9 6f 38 bd d2 ed 9b bd
       0.007929285 0.034224976 -0.04502854 -0.0761372
0001f0 64 20 8d bd 11 38 51 bc 63 0f a0 bc fd ac 85 bc
       -0.06890944 -0.012769715 -0.019538587 -0.016317839
000200 62 50 fa bc 1b d6 79 bd ab 7f fb bc b0 6e 13 3c
       -0.030555908 -0.060995203 -0.030700525 0.008998558
000210 3e 1a 8c bd d2 51 aa 3c 4c a3 10 bd 15 8a 8a 3d
       -0.06840943 0.020790968 -0.035311982 0.06764618
000220 3a 8e 89 bc 06 83 87 3b 27 66 26 bd e9 7b 0a bc
       -0.016791452 0.0041354923 -0.040624764 -0.008452394
000230 81 5b 80 bd 85 30 22 bd e3 46 97 bc e2 1c bb bc
       -0.06267453 -0.039597053 -0.018466419 -0.02284092
000240 57 b7 32 3d 75 5c af bc 06 6c 87 bc e4 0a 81 3d
       0.043631878 -0.021406392 -0.016531002 0.06300905
000250 11 aa 8d bd 4d 49 a7 3c 5b 94 1e bd 1b 79 e6 3c
       -0.06917203 0.020420695 -0.0387157 0.02813392
000260 69 ae 16 3d 71 d8 24 bd 67 48 35 3d b0 8c 97 bd
       0.036787424 -0.040245477 0.0442585 -0.07399881
000270 36 e8 ff bc b9 29 2b 3d f1 68 85 bd 4e 78 35 3d
       -0.031238656 0.041787837 -0.065141566 0.044304185
000280 d9 f9 fd 3c eb eb 95 bd f2 c3 7a bd fa 1c 30 3d
       0.031002926 -0.073203884 -0.061222024 0.042996384
000290 45 d5 9c 3d 0e 9a 8a 3d 87 c5 44 bd 2a 17 5b 3d
       0.076578654 0.06767665 -0.04803994 0.053488888
0002a0 90 c4 6e 3d 3a 40 97 bd 14 5b 74 bd 15 c4 2f 3d
       0.058292925 -0.07385297 -0.05965717 0.042911608
0002b0 e7 79 8c 3d fc 8d 6f 3d 49 fe 83 3d ea b0 1c 3d
       0.068591885 0.058485016 0.064449854 0.038254656
0002c0 ff 14 9d 3d da 03 c9 3c 75 87 1c bc 1c f5 f2 3c
       0.0767002 0.02453797 -0.00955378 0.029657893
0002d0 b1 ee 7f bd 3f 31 8c 3d fc c5 1b 3a dc 0c 13 3c
       -0.062483493 0.068453304 0.0005942283 0.008975234
0002e0 65 4a a3 3d b2 19 92 3d a1 05 3a 3b 16 15 0f bd
       0.07973174 0.07133807 0.0028384703 -0.03493222
0002f0 19 84 4c bd 12 6a 42 bd d7 a0 3a 3d 31 bd 00 bd
       -0.049930666 -0.047464438 0.045563545 -0.031430427
000300 71 b1 87 bd 6b 3d 02 3d ca d3 af 3d 07 5d 1e 3c
       -0.06625641 0.031796854 0.085853174 0.009665734
000310 bc 0f 3c 3c 28 44 88 3c 51 dc d0 3c d0 26 8f 3c
       0.011478361 0.016634062 0.02549568 0.017474562
000320 71 25 10 bd ef 42 82 bd 40 4b c1 bc d8 9d db 3c
       -0.035191957 -0.06360423 -0.023595452 0.026808664
000330 cf 85 02 bd ae 4e a6 3d c0 19 e4 bc 1f 1c 9a 3d
       -0.03186589 0.08120476 -0.02784431 0.07524895
000340 a5 29 23 bd 12 b4 5b bd dc 22 16 bd f7 19 7f bd
       -0.039834637 -0.053638525 -0.03665434 -0.06228062
000350 6f d4 31 3c a7 2b ed bb 6d 73 47 3d 0a 9d 8c bd
       0.010853871 -0.00723787 0.048694063 -0.0686589
000360 f8 2d 53 3a e8 a6 b6 bc 81 51 4f 3d 06 e7 2e bc
       0.0008055861 -0.022296384 0.050614838 -0.0106751975
000370 e5 27 9e 3c 06 fb 89 3d de 4c f5 3a 04 02 95 3b
       0.019306133 0.06737332 0.0018714925 0.0045473594
000380 fa a7 4a 3d 30 60 c9 3b 49 0e 2c 3c c9 89 c8 3b
       0.0494766 0.0061454996 0.010501453 0.006119941
000390 cb 72 d7 3c b6 44 38 3d c2 9c 99 bc 78 f5 35 bd
       0.026299855 0.044987403 -0.018751506 -0.04442355
0003a0 38 ae dd bc 97 44 1d 3d da e9 dd 3c 5e 63 de bc
       -0.027060613 0.03839549 0.027089048 -0.027146991
0003b0 dd c3 90 3d cb 22 86 bd 01 34 64 bd d8 c7 96 3d
       0.07068608 -0.06549605 -0.055713657 0.07362336
0003c0 2b dd e3 3c ff b3 50 3d 7f 83 1e 3c bf 6f 8e bd
       0.027815422 0.050952908 0.009674906 -0.069549076
0003d0 6f 7d 0e bc b4 9e 8a 3c ea 8c 3d bd 75 f8 95 bd
       -0.008696898 0.016921379 -0.046276964 -0.0732278
0003e0 21 b5 fa bc cc 86 ef bc a7 31 55 3d 64 ce 8c 3d
       -0.030603947 -0.02923908 0.052049305 0.068753034
0003f0 66 b2 6f bd 8e 4c d3 3b d3 12 68 bc cf 7e 8f 3a
       -0.058519743 0.006448335 -0.014164644 0.0010947826

encoder_blocks.1.0.bias f4 [12]
000000 fd d7 8f 3c 12 8f 70 ba 91 d3 6d bd 62 2f 86 3d
       0.017559046 -0.00091765926 -0.058063094 0.06552006
000010 e4 d9 af bd f7 0c d9 3c e8 10 fb bc 63 2c c4 bc
       -0.08586481 0.02649544 -0.03064771 -0.023946946
000020 45 99 48 3d af 43 af 3d c9 50 94 3d fa ac f9 3c
       0.048974294 0.085578315 0.07241971 0.03047799

encoder_blocks.1.2.weight f4 [12, 12, 13]
000000 49 01 6e 3d 33 d2 4a bd c9 6d 44 3d 92 c5 a4 3d
       0.058106694 -0.049516868 0.04795626 0.08045496
000010 79 f7 48 3d 13 1f 19 3d 0d 98 1b 3c 18 d5 f1 b8
       0.049064133 0.03738315 0.009496701 -0.00011531467
000020 42 93 43 bc a6 00 fd bc 31 21 bf bb b2 05 12 bc
       -0.0119369645 -0.030884098 -0.005832814 -0.008912491
000030 90 ea 7e 3d ed 9b 69 bd 7e a2 86 3c 5d 90 28 bc
       0.062235415 -0.057033468 0.016434904 -0.010288325
000040 07 4a 1e 3b 15 87 3b 3d 59 64 9a 3d 65 db 88 bd
       0.002415301 0.04578312 0.07538671 -0.06682471
000050 fc 5a a5 3d e5 0d 69 bd ae 69 a8 3d 6f bc 42 bc
       0.080739945 -0.056898016 0.08223282 -0.011885746
000060 35 2a 66 3d 87 2f 6f 3d 9d 15 53 bd 37 20 9b bd
       0.056192596 0.058394935 -0.051534284 -0.07574504
000070 61 70 35 3d bd c0 5a 3c df 53 51 bc 30 32 09 bd
       0.044296626 0.013351616 -0.012776344 -0.03349513
000080 b4 bf 9c bd bb 4c 5b bd 08 40 8f 3d 92 cf eb 3c
       -0.07653752 -0.053539973 0.06994635 0.0287855
000090 7a c2 5a 3d 2a 76 18 bd e1 ae 25 3d 3c 47 3c 3c
       0.053408124 -0.037222065 0.04044998 0.011491593
0000a0 f2 f3 f6 bc 0d 37 0b bc 4f 90 06 3d b1 5b 97 bc
       -0.030145619 -0.008497012 0.032852467 -0.018476339
0000b0 e8 6d 58 3d 99 d2 e7 3b 2c 0d 3f bd 0c d6 59 3c
       0.05283919 0.0070746657 -0.04664342 0.013295662
0000c0 38 8f 89 3c 1c b3 7f bd ec 5b 78 bd 10 48 93 3d
       0.016791925 -0.06242667 -0.06063454 0.07191479
0000d0 f5 4e 81 3d 03 4a 81 3c cc 16 5f bd be cc 36 bd
       0.06313888 0.015782362 -0.0544651 -0.04462885
0000e0 cb 9f 7d 3c c2 70 07 bc 2a ae b2 3b ea 86 91 3d
       0.015479992 -0.00826663 0.005452891 0.07105811
0000f0 4a af ed 3c e5 86 81 bc 83 6f 64 bd e0 ba a0 3b
       0.029014248 -0.015811393 -0.05577041 0.0049050897
000100 a3 da d4 3c 8c 7b 8b 3d 23 9a 17 bd d2 81 86 bd
       0.02598316 0.06810674 -0.03701223 -0.0656773
000110 4b 48 6e 3c 93 f2 78 bd 41 9b 75 3d bf e5 c7 bc
       0.014543603 -0.06077821 0.059962515 -0.024401544
000120 aa 77 93 bd af d9 99 bd d1 77 09 bc 9a 53 2b 3d
       -0.072005585 -0.07512223 -0.008390383 0.041827776
000130 1f a0 10 bd 06 fd c0 bb 3f 25 2c bc f6 bd 25 3d
       -0.035308953 -0.0058895377 -0.010506927 0.040464364
000140 6d 49 11 3d 3c 47 f9 bc 73 28 24 3c d0 4c 00 3d
       0.035470415 -0.030429475 0.0100194095 0.031323254
000150 cd 05 d3 bb 73 e6 66 bc 8b dc b1 3c 6e 58 6f 3c
       -0.0064399005 -0.014093029 0.021711608 0.014608486
000160 2f e0 71 bd c9 5b 3f 3d b3 b9 f5 bc cb bb 95 3d
       -0.05905169 0.046718393 -0.029995775 0.07311209
000170 d3 30 72 3a 73 57 28 3d cf 2b 9f 3c 4e f5 97 3d
       0.0009238843 0.041099023 0.01943007 0.07419835
000180 05 75 3d bb 92 d1 6a 3c 6a ab 9c bd b9 83 c6 3c
       -0.002890886 0.014332192 -0.07649882 0.024232732
000190 36 fa 3c 3c 99 a1 3f bd 23 29 91 bd 50 4e a5 3d
       0.011534264 -0.04678497 -0.07087924 0.080715775
0001a0 5a 2c 92 bd 7b 64 37 3d b0 f0 28 bc b9 ec 21 bc
       -0.07137366 0.04477356 -0.010311291 -0.009883099
0001b0 80 02 8c bd d7 d3 ec 3c e6 1f 08 3d a3 55 d8 3c
       -0.06836414 0.028909607 0.033233546 0.026408022
0001c0 c8 23 d5 bc 08 9a e9 3c 7d 4d ff bc 90 09 00 3d
       -0.026018038 0.02851583 -0.031164879 0.03125912
0001d0 7f 76 32 3b 9f 3c 6a 3d 54 d6 d0 bc e9 7f 87 bb
       0.0027231274 0.05718672 -0.025492825 -0.004135121
0001e0 65 96 83 bd 59 61 3e 3d 72 53 97 3d 8d d0 82 3d
       -0.0642517 0.046479557 0.07388963 0.06387434
0001f0 50 63 a1 bd e6 c9 73 3d d3 6c 4c bc d8 60 b2 bb
       -0.078802705 0.059518717 -0.012477118 -0.0054436736
000200 9e 04 23 3d 6d ce 2c 3d fc cf 24 bd d2 f6 bc bc
       0.039799325 0.04218905 -0.04023741 -0.023066912
000210 68 28 71 3d e7 5a 6e bd 38 c3 2b 3d 00 e4 20 bd
       0.058876425 -0.05819216 0.041934222 -0.039279938
000220 37 3f 57 bd c5 2a a1 3d 28 26 57 bd 5a 1a 0b bd
       -0.05255052 0.07869486 -0.052526623 -0.033960678
000230 2a 11 9c 3d 1b 60 53 bd c6 a0 8e 3d f3 11 99 bd
       0.07620461 -0.051605325 0.06964259 -0.07474127
000240 e5 7b b0 bc 00 72 ac bc 42 ae a5 3d d1 c8 f3 3c
       -0.021543453 -0.021050453 0.08089878 0.029758843
000250 3c e0 02 bd a6 32 8a 3d c3 d9 c8 3c 92 db 90 3d
       -0.031952128 0.06747942 0.0245179 0.0707313
000260 51 ef ec 3c 50 39 7f 3d 0a cf 9d 3d f8 5b 0c bd
       0.028922709 0.062310517 0.07705505 -0.034267396
000270 f7 34 51 ba fe c3 03 bc d0 b9 80 bd 5b 93 87 bd
       -0.00079806097 -0.008042334 -0.06285441 -0.06619903
000280 bc 8b 80 bc c6 fd a5 bd 4f 20 b9 3c 01 68 4f bd
       -0.01569163 -0.08105044 0.022598414 -0.050636295
000290 9a 16 c9 bc 3a 2a 19 3d 3e c5 47 3d 41 a3 ab bc
       -0.02454691 0.037393786 0.04877209 -0.020951869
0002a0 2d 95 01 bd 93 3f a1 bd 69 12 d7 bc 1a 88 97 3c
       -0.031636406 -0.07873454 -0.026253896 0.018497515
0002b0 f4 b4 21 bc 33 55 7b 3d 50 be b1 3d 04 10 2f 3c
       -0.009869803 0.06136055 0.08678877 0.010684971
0002c0 7e 04 2a 3d aa ed 93 3d 3c b3 aa 3b 7f 11 a5 bd
       0.04150819 0.07223065 0.0052093547 -0.08059978
0002d0 61 57 7a 3d 48 8b 89 bd 81 70 42 bd 05 2f 81 3c
       0.061118487 -0.06716019 -0.047470573 0.015769491
0002e0 88 ba 83 3d df 39 f1 3c 77 29 3a bc 5d 9c 65 3d
       0.064320624 0.02944654 -0.011362425 0.056057323
0002f0 90 d2 a3 bd 08 5c a2 3d 91 7f 4e bc b2 6f f2 3c
       -0.07999146 0.0792771 -0.012603656 0.029594276
000300 88 dd 4b bc 2d 76 9c 3d f1 c4 c9 3b 44 34 08 bd
       -0.012442954 0.07639728 0.0061575104 -0.03325297
000310 aa 26 c9 3b bf 8a 6d bb 9d 45 55 3d 92 e9 06 bd
       0.0061386423 -0.003624603 0.05206834 -0.032937594
000320 47 e3 7e bd 2d 89 5d 3b cf e2 85 bd 0a 10 45 bd
       -0.062228467 0.0033803687 -0.06537401 -0.048111
000330 ea 67 8d 3d ee 86 17 3d 68 74 6b bd 16 7d 50 3c
       0.06904586 0.036993913 -0.05748406 0.012725135
000340 7f b7 50 3d 2b b6 01 bd 79 39 34 bb 3c 54 66 bd
       0.050956246 -0.03166787 -0.0027500077 -0.056232676
000350 e0 44 1c bd c7 84 99 3d e2 7b 84 bd e8 96 a5 3d
       -0.03815162 0.074960284 -0.06468941 0.08085424
000360 f3 ce 21 bc 2e a9 ce bc 5a 6b ba 3c a9 67 0c 3d
       -0.009876001 -0.025227156 0.022756267 0.034278546
000370 ee e4 12 bd 1d 2f 8b 3d a5 c0 73 3d 07 6f d6 ba
       -0.035862856 0.067960955 0.059509892 -0.0016359993
000380 23 73 e2 bc 3a 77 97 bd 8c ac 41 3d da 44 0b 3d
       -0.027642792 -0.073957875 0.047283694 0.03400121
000390 ad b3 86 bd f8 20 98 3d 4a 5a 58 3d 24 fc 2d 3d
       -0.06577239 0.07428163 0.05282048 0.04247679
0003a0 0b 26 91 bd e1 3e 8a 3d 17 54 4f bc 4d b3 9e 3b
       -0.07087334 0.067502744 -0.012654326 0.0048431517
0003b0 b1 ae 31 bd a6 86 d5 bb eb 32 d7 bc d8 84 21 3c
       -0.04337949 -0.0065162955 -0.026269397 0.009858333
0003c0 62 f9 80 3d 96 e7 5d bd 62 7a 81 3c 19 54 82 3c
       0.06297566 -0.054175936 0.015805427 0.015909242
0003d0 8d ca ea 3c e4 2e 16 3d da 01 9c bd 3a e3 ab 3c
       0.028661037 0.036665812 -0.07617541 0.020982374
0003e0 30 08 9a bc ca aa 52 3d 12 b4 bc 3c 33 2b 6a bd
       -0.018802732 0.05143241 0.023035083 -0.057170104
0003f0 58 95 14 3d 14 69 8d 3d 73 c4 6a bd a7 60 73 bd
       0.036275238 0.06904808 -0.057316255 -0.059418347

encoder_blocks.1.2.bias f4 [12]
000000 10 65 ae ba a8 bb 70 3b c2 03 9a 3d 90 87 f6 3c
       -0.0013305265 0.0036732946 0.07520248 0.030093938
000010 cc 54 b7 3c 19 1b 25 bd 67 6c 43 bd a7 4f 91 bd
       0.022379301 -0.040309045 -0.047710802 -0.070952706
000020 33 32 27 3d c1 de 57 3d ae c8 7e 3d a5 57 3a bc
       0.040819358 0.05270267 0.0622031 -0.011373435

encoder_blocks.2.0.weight f4 [12, 12, 13]
000000 3c 09 9b 3d b0 22 66 bc df 32 e0 3c bd 1d 4a 3d
       0.07570121 -0.014046356 0.027368007 0.049344767
000010 f0 7c eb 3b d5 93 12 3d c2 34 9e 3d 8d c8 17 3d
       0.0071865246 0.035785515 0.077249065 0.037056495
000020 ef dd aa 3c 98 37 a0 bd f5 a9 3a 3d 82 cb 8c bd
       0.02085778 -0.07823104 0.04557224 -0.068747535
000030 88 d4 5d 3d 17 a2 95 bd 9c 0e 8a 3d 4d 20 1d bd
       0.054157764 -0.07306307 0.06741068 -0.038360883
000040 ce aa 91 bb 3b 2a 70 3c 10 a8 86 bd 48 0d ac bc
       -0.0044454103 0.014658506 -0.06575024 -0.021002427
000050 c4 bb 39 3d f0 4b 99 bd b1 0e 09 3d 29 03 27 39
       0.045345083 -0.07485187 0.033461276 0.00015927538
000060 0c 2a 2f 3d ad 7f 7f bd 6a 26 39 3d 1a 5e 23 bd
       0.04276471 -0.06237762 0.04520265 -0.039884664
000070 c1 78 8f bd a9 07 44 bd e2 4b 0e 3d d2 69 84 3a
       -0.07005454 -0.047858868 0.034740336 0.0010102338
000080 32 82 7b bd 91 f3 02 bd d0 a9 c2 3c 3f e4 4b bd
       -0.06140346 -0.031970564 0.023762614 -0.04977822
000090 f2 89 28 3c 54 21 7a 3b 2f 0d 7c 3d 12 da 15 3d
       0.010286795 0.0038166838 0.06153601 0.03658492
0000a0 00 21 a8 bd da 55 3b bc 29 25 70 3d 52 a6 05 3d
       -0.08209419 -0.011434043 0.05862919 0.03262932
0000b0 02 ef 80 3c d4 0f 86 ba e9 d9 04 bd bb ce 73 bd
       0.015738968 -0.0010228106 -0.032434378 -0.059523325
0000c0 1e b7 a3 3d a0 a7 4f 3c e5 d7 0d 3c e9 13 40 3d
       0.07993911 0.012674242 0.00865743 0.046893988
0000d0 b7 c3 33 3d 92 df c1 bc 7b 5e 21 3d 8b f2 41 3c
       0.04388782 -0.023666177 0.039396744 0.011837612
0000e0 5d dd c5 3c bf 42 7f 3d 4e bd 5c 3d 4f 26 92 bd
       0.024153406 0.062319513 0.053891473 -0.07136213
0000f0 49 1f 00 bc fd c7 fd 3c 88 7a 84 3d ba 13 ba 3c
       -0.007819959 0.03097915 0.064686835 0.022714484
000100 2a a1 5d 3b f4 e1 dd bc 92 5f ac 3c 99 77 6e 3c
       0.0033817985 -0.027085282 0.021041665 0.0145548815
000110 a0 ef 88 bd fc 8c 91 bd c7 98 97 bd 14 01 e6 bc
       -0.0668633 -0.07106969 -0.07402187 -0.028076686
000120 d5 8f 85 3d 27 78 dc 3c 27 6e 9b bd 85 a0 f5 b9
       0.065215744 0.026912762 -0.07589369 -0.00046849638
000130 99 a7 1d bd bd 6a 7c 3d 6b 99 2c 3d 37 89 56 ba
       -0.03848991 0.06162523 0.0421385 -0.0008183899
000140 27 9e 31 bc e2 e6 0e 3b 0f 62 3f bb 06 b1 99 3a
       -0.010840929 0.0021805097 -0.0029202735 0.0011725731
000150 b9 3a 96 3c 94 00 26 bd 1b 75 0f bd 06 f9 80 bd
       0.018338548 -0.040527895 -0.03502379 -0.062974975
000160 77 82 03 bd e7 f8 d2 3b 98 aa 51 3d 0e 17 35 bd
       -0.032106843 0.006438363 0.05118808 -0.04421144
000170 ec b1 98 bd 62 a6 6a 3d ab f9 1a bc d1 1b 49 bd
       -0.07455811 0.05728758 -0.00945894 -0.049098793
000180 4f ca c0 3c 17 ce 53 bc f4 20 c4 bc c9 2d a1 3d
       0.023533968 -0.012927554 -0.023941495 0.07870061
000190 14 22 5d bd 1f b4 a1 3c 80 41 41 3d 3e e1 2a bd
       -0.053987578 0.019739209 0.047181606 -0.041718714
0001a0 88 8b a9 bc e8 6e 3b bd cf 83 ad 3c 30 b0 6a bd
       -0.020696416 -0.045760065 0.021181015 -0.05729693
0001b0 f4 24 8c 3d 80 f7 9a 3d 99 53 fe bc 07 45 59 3d
       0.06842986 0.07566738 -0.031045722 0.053044345
0001c0 ca 2a 91 bd 5c a4 02 bc 3c 19 0b 3d 7f 32 80 bd
       -0.070882395 -0.007973757 0.033959612 -0.06259631
0001d0 75 43 28 bd 1e c3 13 bd 3d 0e 00 3c df e3 f3 bb
       -0.041079957 -0.03607475 0.007815895 -0.007442936
0001e0 d4 3d 80 bd 78 96 9e 3d 21 ce 93 bd fc a2 2d 3d
       -0.06261793 0.077435434 -0.0721705 0.042391762
0001f0 ed a7 80 bc 66 a3 76 bd 6f b5 74 3c 33 c8 26 bd
       -0.015705073 -0.060214423 0.014935835 -0.04071827
000200 69 91 12 bd c8 9f 4e bd 77 19 92 bd 29 7f 80 bd
       -0.035783205 -0.050445348 -0.07133763 -0.06274254
000210 5c 7f 98 bd 2a 55 06 bc 95 7e 98 3c 50 e1 d4 3c
       -0.07446167 -0.008199016 0.018615047 0.025986344
000220 31 e1 8d 3d d7 dc a8 3a 39 66 60 ba 67 47 84 3d
       0.069277175 0.0012883198 -0.0008560154 0.064589314
000230 95 50 25 3d 38 ba f3 3c ec 27 61 bd 29 d8 c8 3b
       0.040360052 0.029751882 -0.054969713 0.006129284
000240 97 65 89 bd 7a 1c 62 bd 10 3e 8c 3d aa 2d 89 bd
       -0.0670883 -0.05520294 0.06847775 -0.06698163
000250 f2 e6 58 bd 23 ce b1 3b 01 2a c3 3c e5 03 1a 3a
       -0.05295462 0.0054261847 0.02382374 0.0005875214
000260 1c b5 95 3c 46 a0 a1 3d 36 89 5b bd 3b cf 69 3d
       0.018274836 0.07891898 -0.05359765 0.057082396
000270 09 7f 65 3d dc 43 21 bd 85 dc f4 3b 58 fa 4e 3d
       0.056029353 -0.039371356 0.007472577 0.050531715
000280 e9 b5 13 bd 01 f0 13 3d 0d 81 76 bc 7a 41 17 bc
       -0.036062155 0.036117557 -0.015045417 -0.009231919
000290 12 64 91 3c 35 75 c9 3a 4e 6a 28 3d a9 3b 8e 3d
       0.017747913 0.0015370013 0.041117005 0.06944973
0002a0 e3 71 0c bd a3 5b aa 3d 30 fb 30 3d 26 b0 ab bc
       -0.0342883 0.083182596 0.0432083 -0.020958018
0002b0 0f 02 3b bd f4 01 1d bd 4f ef 57 3c ce 2f 1c 3d
       -0.04565626 -0.03833194 0.013179614 0.038131528
0002c0 4e dd ad bc f2 a6 a9 ba ba a5 75 3d 91 cb 2b 3d
       -0.02122369 -0.001294343 0.059972502 0.041942183
0002d0 1a c9 f5 bc da 48 9f 3d a2 7f 7d bb 5d 05 d6 3c
       -0.03000312 0.07777567 -0.0038680811 0.026125604
0002e0 ee 97 32 bd b3 17 3f 3d f0 ea 8b 3d 9a 30 b1 3a
       -0.043601923 0.04665346 0.0683192 0.0013518513
0002f0 60 ea a9 bc 4e a5 98 3c eb 8c 73 bd 01 51 bc bc
       -0.020741642 0.01863351 -0.05946056 -0.022987844
000300 d4 00 eb 3c 21 00 11 bb 9f d1 83 3d 4c 61 8d 3d
       0.028686918 -0.002212532 0.064364664 0.069033235
000310 73 ee 80 3d 91 22 77 3d 9c 81 62 bd ad 73 8c 3c
       0.062954806 0.0603357 -0.055299386 0.017145002
000320 a9 11 95 3c 71 95 37 3d 96 f4 cd bc a0 f3 f3 3c
       0.018196898 0.044820253 -0.025141042 0.029779255
000330 a9 bd 51 bb 23 88 83 3d 12 0d 1d bc 39 04 57 bc
       -0.0032003915 0.064224504 -0.009585636 -0.013123565
000340 d2 89 9c 3c aa 13 07 3c b3 e4 03 3d e1 09 96 3d
       0.019108687 0.008244434 0.032200526 0.07326103
000350 62 e1 6a bd 43 de 5e 3d c5 44 13 3c 47 99 93 bc
       -0.057343848 0.054411184 0.008988564 -0.018017424
000360 d5 78 50 bd f6 f7 91 bd f5 8d 97 bd 32 c7 04 3d
       -0.050896484 -0.07127373 -0.07400123 0.03241653
000370 56 a7 5f 3d 68 88 78 3c d4 eb 35 3d d0 f7 74 bb
       0.054602943 0.0151692405 0.044414356 -0.0037379153
000380 92 43 8c bd cd 7e 58 3d fa 64 9a 3d 19 ad 78 bd
       -0.068488255 0.0528553 0.07538791 -0.060711954
000390 20 91 cb bc e7 7e 89 3d d8 c2 ef bc 2a 8e 68 bd
       -0.024849474 0.06713658 -0.029267713 -0.056776203
0003a0 9d 14 f9 3c 31 c3 6b 3d 83 ad 90 bd 66 2d 0f 3d
       0.030405337 0.057559196 -0.07064345 0.034955405
0003b0 29 25 ec 3c 88 86 3d bd b0 23 63 3d a5 a5 88 bd
       0.028826313 -0.046270877 0.055453956 -0.06672219
0003c0 4b 8c df bb b6 0c e4 3a 62 60 50 3d 38 2f 17 3d
       -0.006822144 0.0017398808 0.050873168 0.036910266
0003d0 71 15 9a bd 1e 00 8f 3d 03 b3 38 bd 12 0c 25 bd
       -0.07523621 0.06982444 -0.045092594 -0.040294714
0003e0 91 16 d8 3a 62 d0 3c bd 67 6e 31 3d 65 43 39 3d
       0.0016486218 -0.046097167 0.04331818 0.045230288
0003f0 6f 87 ab bc 94 47 28 bc 70 f8 62 3c 20 0a 15 bd
       -0.020938603 -0.010270972 0.013853177 -0.03638661

encoder_blocks.2.0.bias f4 [12]
000000 e0 47 ae ba 39 ea 43 3d c0 4a de 3b ae 0e bd 3d
       -0.0013296567 0.047830794 0.0067838132 0.092313156
000010 18 97 4a bc c9 13 06 3d 97 e6 9b bd f9 0d 80 3c
       -0.012365125 0.032733712 -0.07612341 0.015631663
000020 b2 03 10 3d 21 73 84 bd a8 12 5e 3d 6e 7b 8c 3d
       0.035159774 -0.064672716 0.05421701 0.0685948

encoder_blocks.2.2.weight f4 [12, 12, 13]
000000 e9 2a 89 bc 54 5d 8e 3d 61 be 37 3d 5d 1a 49 3b
       -0.016744094 0.06951395 0.044859294 0.003068588
000010 97 51 80 bd 2d e6 0c 3b 17 2e df bc 79 3c 6b bd
       -0.06265562 0.00214995 -0.027243657 -0.057430718
000020 20 af 65 bc 33 50 25 bd ac cd c8 3c 5c 4f 28 bd
       -0.014018804 -0.040359687 0.024512134 -0.041091308
000030 ef bb 79 3d a8 eb a2 bc 98 c8 63 3c 94 4c 68 3d
       0.060970243 -0.01988776 0.013902806 0.056713656
000040 27 83 0e 3d ee 28 0d 3d b6 46 80 bd ab 96 9d 3d
       0.034793045 0.03446286 -0.06263487 0.07694753
000050 31 46 d3 bc ad 83 bc bc 61 68 8a bd a0 d9 25 3d
       -0.025790306 -0.023012007 -0.0675819 0.040490746
000060 c0 c0 6c 3d 7a 87 14 bd c4 8b bf bc 71 f9 72 3d
       0.05780101 -0.036262013 -0.023382075 0.059319917
000070 e3 a8 85 bd 67 cd bd bc d0 0a 8c 3c 97 40 3b 3d
       -0.06526353 -0.023169233 0.017095 0.045715895
000080 7e 46 18 bd 26 23 38 bd 4d c1 98 3d eb 83 94 bd
       -0.0371766 -0.044955395 0.07458744 -0.07251724
000090 c5 00 41 bd 20 6f 37 3d 87 a2 88 bb d6 db a5 3c
       -0.047119875 0.04478371 -0.0041697654 0.020246428
0000a0 48 b1 83 bd 95 26 40 bd 86 bd 28 bd 21 37 6f 3d
       -0.06430298 -0.046911795 -0.04119637 0.058402184
0000b0 64 a8 09 3d 4b da aa bc ea 57 00 bc 72 c8 51 bc
       0.033607855 -0.020856043 -0.00783346 -0.012804138
0000c0 22 e6 85 3c 6c 46 5b bd 2d 92 86 bd b7 9e 85 3d
       0.016345087 -0.053533956 -0.065708496 0.06524413
0000d0 20 e2 20 3b 9c b5 91 bd 14 e9 fe 3c be a7 62 bd
       0.0024548844 -0.07114717 0.031117 -0.055335753
0000e0 32 20 92 bc 38 47 74 bc c6 86 61 bd 80 14 c3 ba
       -0.017837618 -0.014909558 -0.05506017 -0.0014883429
0000f0 80 75 1e 3c 70 5f fa bb 60 a2 7b bb a0 d7 e4 bb
       0.009671569 -0.0076407716 -0.0038396344 -0.0069837123
000100 08 4c 7f 3c 4c fa 4f 3d c0 ab 72 bd 6d 40 ac 3c
       0.015582092 0.05077581 -0.059245825 0.021026814
000110 66 ec 9f 3c ac e2 f6 3b 79 78 f0 3a df 27 60 bd
       0.019521903 0.0075343456 0.001834645 -0.054725524
000120 db 86 32 3d d5 92 44 3d b9 da 43 3d 91 8e 49 bd
       0.04358564 0.047991592 0.047816012 -0.049208228
000130 80 1e 43 bd ac 6f 28 bc 43 ca 81 3c e6 f8 55 bd
       -0.04763651 -0.010280531 0.015843516 -0.05223932
000140 a8 e9 1d bd ea dd b4 b9 38 98 24 3d 54 d8 00 3d
       -0.03855291 -0.00034497614 0.04018423 0.031456307
000150 82 c0 24 3d 13 76 72 3c 76 be a0 bd 60 0b 78 3d
       0.040222652 0.014798659 -0.078488275 0.060557723
000160 4f 42 5f bd bb ad 51 bd c3 3b 10 3c 67 38 c6 bb
       -0.054506596 -0.051191073 0.008803311 -0.006049204
000170 14 be 6c 3c 07 e6 71 bc 96 2b 45 3d 46 db 63 bd
       0.014449615 -0.014764315 0.04813727 -0.055629037
000180 9d 50 b4 ba d7 29 5b 3d 04 fc 7a bd 7c ab 5b 3d
       -0.0013756935 0.0535067 -0.061275497 0.053630337
000190 7b 7a 25 bd c6 84 70 3d 81 de 86 3d 8e 91 c5 bc
       -0.04040001 0.058720373 0.06585408 -0.024117257
0001a0 24 08 a8 bc 3a c3 96 bd 52 03 81 3d 14 4d 93 3d
       -0.020511694 -0.07361455 0.062994614 0.07192436
0001b0 7f c6 ab 3b cf fb 89 bd 2d 1c c7 3c 7b 69 61 3d
       0.0052421684 -0.06737482 0.024305427 0.055032235
0001c0 97 49 e1 bc 16 e9 be bc de 23 7e bd 71 d6 41 bd
       -0.02750091 -0.023304503 -0.062045924 -0.047323648
0001d0 43 dd 84 bc 43 4e 73 bd 94 c8 95 3d 11 7e 2e bd
       -0.016218787 -0.059400808 0.07313648 -0.042600695
0001e0 1b c4 c1 3c 88 8d a3 3d 38 d3 0b 3d 63 ab 83 bd
       0.02365308 0.07985979 0.03413698 -0.06429174
0001f0 f7 60 83 bc ae 27 9c bd fd 34 86 bd 27 d3 0d bb
       -0.016037447 -0.07624756 -0.065530755 -0.002164075
000200 57 a6 ab 3c c6 5f 59 3d c0 a5 2f bd f4 54 f5 3c
       0.02095334 0.053069852 -0.04288268 0.029947735
000210 68 d0 72 bc d4 b4 f0 3c 6f 18 28 3d cf 10 8b bd
       -0.014820196 0.0293831 0.041038927 -0.06790315
000220 fa 5d 9c bc bf a1 68 3c d3 b0 41 3d 1d d3 68 b9
       -0.01908778 0.0141987195 0.047287773 -0.0002220389
000230 4b 55 5b 3d 9b 67 20 bd 05 a5 fc 3c b0 07 58 bd
       0.05354814 -0.039161306 0.030840406 -0.052741706
000240 0b 3f fa bc 87 b0 aa 3c 6d c2 22 3b e2 49 9a bd
       -0.03054764 0.020836128 0.0024835125 -0.07533623
000250 fc f5 81 bd ea cb 99 3d 36 cd 0b 3d 34 ec e2 bc
       -0.06345746 0.07509597 0.03413125 -0.027700521
000260 97 fa 86 bd 73 40 fc 3b b9 a0 3c bc 67 af 3d bd
       -0.06590765 0.0076981126 -0.011512929 -0.046309855
000270 ac ea 74 3d b0 d9 42 bd df 58 a4 3d e8 40 5a bd
       0.059794113 -0.047570884 0.08024763 -0.053284556
000280 32 92 08 3d ad 15 91 3d dd 2f 9c bc f0 b2 46 3d
       0.033342548 0.070842125 -0.019065792 0.04851049
000290 c7 46 a7 3b 11 4d 34 3d 52 de 37 bc 37 37 19 3d
       0.005104873 0.04401881 -0.011222439 0.037406173
0002a0 c4 40 c5 bb 82 21 05 bd 3c 05 83 3d 66 10 0c bc
       -0.0060196836 -0.03250266 0.06397483 -0.008548832
0002b0 a1 32 7a 3d 14 65 24 3b 6e 1b 74 3d 0f 19 35 3d
       0.06108344 0.0025084661 0.05959647 0.04421335
0002c0 69 d7 08 3d b1 90 e0 bc 56 99 89 bc 74 f1 57 bd
       0.033408556 -0.027412744 -0.01679675 -0.052720502
0002d0 3e c0 4e 3d 47 c4 52 3c 02 b7 0a 3c 3c e6 4b bd
       0.050476305 0.012864179 0.008466484 -0.049780115
0002e0 71 28 2e bc f4 ed 11 3c 96 b8 63 bb e1 63 98 3c
       -0.010629759 0.00890683 -0.0034747473 0.018602313
0002f0 bb 0c 37 3d 47 2f b4 3c 73 b7 e1 bc 39 22 16 3c
       0.044689875 0.0219952 -0.027553296 0.009163433
000300 7a c6 98 3d 13 7c 5f bd 25 a6 d3 bc 1a d1 31 bd
       0.074597314 -0.054561686 -0.02583606 -0.043412305
000310 32 55 99 3d 42 4e 8b bd e2 8b 91 3d bd 58 66 bc
       0.07486953 -0.06802036 0.07106759 -0.014059243
000320 01 e7 5b 3d 9a 73 88 3d 69 fd 94 bc 79 cd 42 3d
       0.0536871 0.06662674 -0.018187242 0.047559235
000330 48 22 ca 3c f5 53 07 3d 96 22 8d bd 03 ad cd 3b
       0.02467455 0.033039052 -0.06891362 0.006276728
000340 f2 fd 2f bd d0 49 91 3d 34 1e 18 bd 00 36 4b ba
       -0.04296679 0.07094157 -0.03713818 -0.0007751882
000350 e4 cb 09 bd 50 10 8f 3d 1c 1b 5d 3d 9c 1e 4e bd
       -0.03364171 0.06985533 0.05398093 -0.05032216
000360 cc 3f 73 3d 3e 1b 0e 3d 00 48 0c 38 cf c1 23 bd
       0.059387013 0.03469395 3.3445656e-05 -0.039979752
000370 80 23 5f 3b 3d aa 69 3d bd a6 81 3c 08 8d 4c bb
       0.003404826 0.057047118 0.015826577 -0.003121199
000380 cd b9 7b 3c 82 53 93 3d d6 89 b6 3c 17 98 62 3d
       0.015364123 0.07193662 0.022282522 0.055320825
000390 74 63 ac 3c 34 51 ed bc 15 3e c2 bc 70 50 9b bd
       0.021043517 -0.028969385 -0.023711244 -0.075837016
0003a0 e1 43 e4 bc 8f 05 8d 3c 66 47 85 3c 44 22 2b bd
       -0.027864398 0.017214565 0.016269397 -0.041780725
0003b0 67 7d d8 3c 53 28 39 bd 52 d0 86 3d d4 21 56 bc
       0.026426984 -0.04520447 0.06582703 -0.013069589
0003c0 2d 8d a6 bc d0 9c 70 bd 58 cc 05 3d 93 9e ab 3d
       -0.02033099 -0.058743298 0.03266558 0.08379855
0003d0 4a 0d 93 3b 04 01 4b 3d 1e cd 45 3c 89 d2 af bd
       0.004487668 0.049561515 0.0120728295 -0.08585078
0003e0 ed 33 c0 bd fb 78 68 bc d6 d8 74 3c 48 9d 58 bd
       -0.09384904 -0.014189 0.014944276 -0.05288437
0003f0 6c 40 2e ba 7d 3d 33 3d e5 90 fa bc 30 48 ae bd
       -0.0006647173 0.04375981 -0.03058667 -0.085098624

encoder_blocks.2.2.bias f4 [12]
000000 1d 9f 1c 3d 7f 32 4c 3d 34 5d 33 bc b3 e5 ef bc
       0.03823768 0.049852844 -0.010947514 -0.029284334
000010 33 90 44 3b ff 70 19 3d ee bb b5 3d 1f a1 42 bd
       0.0029993176 0.037461277 0.08873735 -0.04751694
000020 a3 80 1c 3d 2f 42 10 3d c3 72 bb 3d e6 ab 4e bd
       0.038208615 0.035219368 0.091527484 -0.050456904

encoder_blocks.3.0.weight f4 [12, 12, 13]
000000 09 be 93 3d ca a0 f1 3c ce f2 6c bc f0 f1 4e bd
       0.07213981 0.029495616 -0.014462186 -0.0505237
000010 5f 47 5c bc 6b cf 38 3d ca 79 89 bd c0 1c 2b bd
       -0.013444751 0.045119684 -0.067126825 -0.041775465
000020 40 d5 41 bd 6d 63 79 3d 79 1c a2 3d 55 05 3f bd
       -0.04732251 0.060885835 0.07915587 -0.046635944
000030 f3 86 80 bd 87 b4 67 bd e3 1a 8b 3d 63 40 e8 3c
       -0.062757395 -0.05656865 0.067922376 0.028351014
000040 9f 5b 34 3d 86 73 a8 3c 0f cd 80 bc 94 95 54 3d
       0.04403269 0.020562898 -0.01572278 0.05190046
000050 a0 c8 94 bd 49 c6 fb bc 0c 31 a7 3a 68 73 16 bd
       -0.07264829 -0.030734198 0.0012755706 -0.036731154
000060 f5 56 da 3c a5 a6 8f 3c ec 5b 44 3d b7 74 85 3d
       0.026652792 0.017535517 0.047939226 0.06516402
000070 d8 0c 70 3d eb ee 47 bc cc cb 42 3c 7b a1 6e bc
       0.058606 -0.012202959 0.011889409 -0.014564867
000080 78 d2 2d bd b8 e2 0b 3c 94 b1 64 bd 10 1e 6b bc
       -0.042437047 0.008537941 -0.055833414 -0.014350429
000090 41 3a 8b 3b 8e 71 86 3c 04 01 82 3c ee 3d 39 3d
       0.0042488878 0.016411569 0.015869625 0.045225076
0000a0 38 ae 38 bd 04 03 c7 3c 73 aa 4b bc be ef 6c 3d
       -0.045088023 0.02429343 -0.012430775 0.057845823
0000b0 e1 20 71 3d ce 11 1f bd e6 d3 0e bc 7c 0e 03 3d
       0.058869246 -0.03883534 -0.008717513 0.031996235
0000c0 83 82 97 3d 04 00 25 bd 93 e6 d1 3c 32 20 00 bd
       0.0739794 -0.040283218 0.025622642 -0.031280704
0000d0 fa 6b 8a bd 37 b4 28 3d 33 70 7b bd ad c9 1d 3d
       -0.06758876 0.04118749 -0.0613863 0.03852241
0000e0 57 4c 85 3d 34 e4 16 3d 76 38 69 bd 78 ff 8a bd
       0.06508701 0.036838725 -0.05693861 -0.06787008
0000f0 0a a6 43 bb 99 09 72 3c 80 81 00 bd 9c 40 85 3c
       -0.0029853606 0.014772796 -0.0313735 0.01626616
000100 ba 2d ae bc 7c 6f 93 bd ff 4a 32 bd 39 7d c8 bc
       -0.021262038 -0.07198998 -0.043528553 -0.024473773
000110 6e 75 7d 3d 94 3b 87 bd f6 87 e6 37 a5 3f a5 3d
       0.061879568 -0.066031605 2.7481448e-05 0.0806878
000120 25 b9 fc 3b 70 54 53 3c 11 01 94 3b 17 8a 50 bd
       0.0077125006 0.012898549 0.0045167287 -0.050912943
000130 a3 2f 1c 3d 7e 5b 32 3d cd 92 39 bd ce a5 92 3b
       0.038131367 0.043544285 -0.045306016 0.004475332
000140 e5 3e 10 3d 7a 79 39 bd 46 84 ec bc 00 96 20 bd
       0.03521623 -0.045281865 -0.028871667 -0.03920555
000150 3b 3d 13 bc 91 46 8f 3d bf a1 9a bd e9 b9 9a 3c
       -0.008986766 0.06995881 -0.07550382 0.018887477
000160 cc fd 00 bb 13 b2 bd bc fd e5 9b 3d d7 51 a1 3d
       -0.0019682525 -0.023156201 0.07612226 0.07876938
000170 58 b1 57 3d 01 7b 43 bb 46 ad 7a bd c8 19 87 bd
       0.052659363 -0.0029827955 -0.061200403 -0.06596714
000180 a3 a0 1a bc fc 07 49 3d 37 f0 1b 3d 09 36 a8 3c
       -0.009437713 0.04907988 0.038070884 0.020533578
000190 59 c4 6a 3d be 8e 47 3c c3 72 75 3d 3d 9d 85 bd
       0.057316158 0.0121800285 0.0599239 -0.065241314
0001a0 48 1e df bc c3 4a ff 3c 10 ea 27 bc 25 4d 5d bd
       -0.027236119 0.031163579 -0.010248676 -0.05402865
0001b0 be 47 ef bc 68 d8 b7 bb de 2d 51 3d aa 78 99 bd
       -0.029209014 -0.0056105144 0.051069133 -0.07493718
0001c0 f6 6b 6b 3c 6f c0 89 bd a1 68 2e bd 74 26 86 3d
       0.014369002 -0.06726157 -0.04258025 0.06550303
0001d0 87 88 32 bd 80 67 91 bd 8d 6a 9e bc c1 51 88 3d
       -0.043587234 -0.07099819 -0.019337917 0.06656218
0001e0 10 e6 c4 bb ff 0b 94 bb bb d9 4d bd 09 86 9e bd
       -0.006008871 -0.0045180316 -0.050256472 -0.07740409
0001f0 68 17 c8 3c 8d ec 63 3b 76 af fb 3b 01 48 87 bd
       0.024425223 0.0034778446 0.0076808287 -0.066055305
000200 57 cf 35 3d 58 c0 5e bd 13 3a 55 bb cd 64 98 bd
       0.044387188 -0.054382652 -0.0032535836 -0.07441101
000210 7e a6 bd 3b 0a 0c 3a 3d 83 40 10 3c bc 3c 8d bc
       0.0057876697 0.045421638 0.008804443 -0.017240874
000220 be 63 83 bd a6 3b 1a 3d ed a8 fa bc e1 5a 0e 3c
       -0.06415509 0.03765454 -0.030598128 0.008688659
000230 4d 8b a1 bd 04 e3 96 3d d6 09 c9 bc 33 d8 82 3d
       -0.07887898 0.073675185 -0.024540823 0.06388893
000240 9a 05 ea 3b 97 a9 fd bc cd 92 04 3d 16 62 a7 3d
       0.007141781 -0.030964656 0.032366563 0.08173005
000250 c2 95 04 bd 31 5b cc 3c 03 3c 5d 3d 81 6e 84 bc
       -0.032369383 0.024945827 0.05401231 -0.016165974
000260 25 55 4b 3c 76 26 f1 3c 79 3f 76 3d ae b5 9d bd
       0.012410437 0.029437285 0.060119126 -0.07700668
000270 a4 af f4 bc a5 f9 0f bd 24 46 5d bd dc fb a5 3d
       -0.029868908 -0.03515019 -0.05402197 0.08104679
000280 1a 4b a5 3d 5d c1 a5 bd aa a1 a0 3d 1b a6 6d 3d
       0.08070965 -0.08093522 0.07843335 0.05801974
000290 cd 49 91 bd 4b 9c a9 3d b4 a9 69 3c ca e3 55 3d
       -0.070941545 0.08281764 0.014261652 0.05221919
0002a0 1c 16 23 3d 81 2b fb bc d5 f9 9e bd 3d c4 9f bd
       0.039816007 -0.030660393 -0.077624954 -0.07801101
0002b0 d7 4f 0f bc 77 84 f7 3c e6 3f 8c bd b1 17 2a 3b
       -0.008747063 0.030214531 -0.06848125 0.0025954063
0002c0 84 2d 69 3d 3e 5b 84 3d 1e 9b d2 bc 52 e2 05 3d
       0.056928173 0.064627156 -0.025708731 0.03268654
0002d0 c6 39 aa 3c 5a dc 9d 3d f9 e4 cd 3b 43 4d b2 3c
       0.020779502 0.07708044 0.006283399 0.021765357
0002e0 91 ae 88 bd bb 71 99 3d 4b e0 e9 bc c9 06 76 3d
       -0.06673921 0.074923955 -0.028549334 0.060065065
0002f0 d4 b6 5f bc e6 28 3d bd 34 45 32 bd 2d 84 9e 3d
       -0.013654429 -0.046181582 -0.04352303 0.07740054
000300 e8 62 20 bd 1f 03 74 bd 97 f0 c9 bb fb 91 71 bd
       -0.039156824 -0.05957329 -0.0061627137 -0.05897711
000310 d6 35 a8 3c 3d d5 42 3d 0e 8a a8 3b 6b 4a 7a 3c
       0.020533483 0.04756664 0.0051434105 0.015276532
000320 0d d8 ad 3c da 9e 79 3d b4 6f de bc f2 2e 82 3d
       0.021221185 0.06094251 -0.027152874 0.0635661
000330 74 35 f2 bc 27 77 9f bc 4d 40 69 bc 67 af 8a 3d
       -0.029566504 -0.019465996 -0.014236522 0.067717366
000340 cb f2 03 bd 73 60 64 3d 9a 6b 95 bd 82 f2 34 3c
       -0.032213967 0.055756044 -0.07295914 0.0110441465
000350 0f 61 42 bd 73 ca 98 3d 00 cc 95 bd f4 b6 0c 3d
       -0.047455844 0.07460489 -0.073143005 0.034354165
000360 f2 3e 2c 3d 55 bb f7 3c 82 9d 03 bc 2d 18 79 3d
       0.042052217 0.030240694 -0.008033158 0.06081407
000370 63 e4 4c 3c 60 ba 91 bc 04 0c f6 bc 4b 38 16 3d
       0.0125056235 -0.017789066 -0.030035026 0.03667478
000380 62 8d 72 bd b3 b4 d3 bc eb 30 7a 3d 7f 02 6a bd
       -0.059216864 -0.025843 0.061081808 -0.057131287
000390 b1 cf 62 3d a2 de 18 bd 32 60 d1 3c 92 a4 64 bc
       0.05537385 -0.037321694 0.025558565 -0.013955252
0003a0 51 51 11 bc 1a 96 ac bc 98 d8 30 3c a0 41 86 3d
       -0.008869485 -0.021067668 0.0107938275 0.06555486
0003b0 6e d1 15 bd f9 3c 5f 3d ba a7 81 3d df 38 2c 3d
       -0.03657668 0.054501507 0.063308194 0.042046424
0003c0 4e ee 45 bd 65 e0 ff 3c 90 72 35 3c 67 81 ae bc
       -0.04832297 0.03123493 0.011074677 -0.021301938
0003d0 29 7b 99 bb 34 ae 00 3d f9 16 62 3d 65 fc 28 3c
       -0.0046838713 0.031416133 0.05519769 0.010314082
0003e0 d8 60 ae 3a f4 ec 29 3b ba 4a 40 3c 2b de d9 bc
       0.0013304008 0.0025928589 0.011736566 -0.026595196
0003f0 21 67 87 3d e4 4b 26 3c a6 98 03 bb 17 3c a1 bd
       0.06611467 0.01014993 -0.002008 -0.07872789

encoder_blocks.3.0.bias f4 [12]
000000 66 6b 3c bd c0 61 00 3d 6f ea 92 3d 8b c9 8d bc
       -0.04600086 0.03134322 0.07173621 -0.017308017
000010 b7 5c 35 bd 32 19 92 3d ee 81 8a bc 3f 48 4d bd
       -0.044277873 0.07133712 -0.016907658 -0.050117727
000020 2c 7f 41 bc 41 21 82 bd 26 09 76 3c c0 46 80 3b
       -0.011810105 -0.06353999 0.01501683 0.003914684

encoder_blocks.3.2.weight f4 [12, 12, 13]
000000 d4 4c ce 3b ab a4 67 bd 9d 18 53 bc 07 0e 5a 3d
       0.0062957797 -0.056553524 -0.012884286 0.053236034
000010 fb fe 12 bd 3b d9 83 bd 6e 3c 08 3d 03 f9 3c bc
       -0.0358877 -0.06437918 0.033260755 -0.011533978
000020 09 e5 52 bd df d0 24 bb ce 2f 41 bd 99 85 06 3d
       -0.051487956 -0.002514891 -0.04716473 0.032842252
000030 58 07 00 bc 2a ae d8 3c 72 79 50 bb ff 2a 2e bc
       -0.007814251 0.026450235 -0.0031810668 -0.010630368
000040 55 22 fd bc f9 cf 30 bd 5a 9d 24 3c cd 2b 85 bd
       -0.03090016 -0.04316709 0.010047281 -0.06502495
000050 17 03 71 3d 09 32 05 bd cf 66 13 bc 66 da 87 3d
       0.058840837 -0.03251842 -0.008996679 0.06633453
000060 d1 34 0c 3d d4 67 42 3d c6 df 82 ba de 51 26 bd
       0.034230057 0.0474623 -0.0009984903 -0.04060542
000070 a0 fb f4 3c cc 9e 84 bd bc 0d d6 3c ac 7e 89 bd
       0.02990514 -0.064756006 0.026129596 -0.06713614
000080 47 71 4c 3d 6b df 5c bd dc 1f 7a bb 04 c3 a1 3d
       0.049912717 -0.053924005 -0.0038165962 0.078985244
000090 d8 a8 74 3b b1 e7 73 ba 08 96 1c bd 37 d4 4f bd
       0.0037332084 -0.0009304239 -0.03822902 -0.050739493
0000a0 01 b1 77 3d 6b 0a 98 bd ac 42 70 3b 2a 76 9f 3c
       0.06047154 -0.07423862 0.0036660833 0.019465525
0000b0 bc 01 20 3d 56 16 4c 3c 19 56 fe 3c 50 e3 fe bc
       0.039064154 0.012456497 0.031046914 -0.03111425
0000c0 a8 96 04 bd 37 b2 8b 3d 1f a9 8b bd 91 38 9b 3b
       -0.03237024 0.06821101 -0.06819367 0.004736968
0000d0 8c ff 83 3d 22 fc 7f 3d b0 ba 47 3d b3 d0 45 bb
       0.06445226 0.062496312 0.048762023 -0.003018421
0000e0 f8 be 94 bb cf fa 3e bd 21 32 e1 3b 18 1c 38 3d
       -0.004539367 -0.04662591 0.006872431 0.044948667
0000f0 96 f2 87 3d 44 61 4a bc e1 d7 c2 3c dd 3f d2 bc
       0.066380665 -0.0123522915 0.02378458 -0.025665218
000100 67 98 4d bd aa fa 01 bd 5a 99 05 bd 74 e5 a0 bd
       -0.05019417 -0.031733193 -0.03261695 -0.07856265
000110 01 c4 92 3d f5 9c 2b bd 67 a7 d6 bc 19 74 48 3d
       0.07166291 -0.041897733 -0.02620287 0.048938844
000120 80 d5 90 3d ae cf 73 3d 04 02 95 3d 64 ea 7b 3c
       0.07071972 0.05952423 0.07275775 0.015375707
000130 0b da 72 3d 2a ae 82 bd 10 bc aa bc b3 86 94 bd
       0.059289973 -0.063808754 -0.020841628 -0.07252254
000140 41 47 10 3d 98 0e 83 bd 94 fa 24 bd c7 3f 6b bd
       0.035224203 -0.06399268 -0.040278032 -0.05743387
000150 a9 f3 95 bd e4 02 cd bb b5 a3 5b 3d 14 28 9e bd
       -0.07321865 -0.006256448 0.05362292 -0.07722488
000160 84 0d 8c bc d4 eb 06 3d 26 33 25 3d 7e 69 36 bd
       -0.017096289 0.032939747 0.040331982 -0.0445342
000170 88 ee 71 3c 69 59 86 bd 9e 9f 9f 3d d8 32 14 3d
       0.014766343 -0.065600224 0.077941164 0.0361813
000180 9c 03 58 3d 68 0e a7 3c d4 b8 ef 3c b4 13 1f 3d
       0.052737817 0.020392612 0.029262938 0.03883715
000190 4e 34 a1 bc 71 3d 3b bd 06 5e 05 bd 28 92 0d 3c
       -0.019678261 -0.045712892 -0.03256037 0.008640803
0001a0 7c 07 35 3d 0a ea f7 bc 1a c0 91 3d 96 5a 86 3d
       0.04419659 -0.030262966 0.071167186 0.06560247
0001b0 6c c6 d5 bc 5c 1a 95 3d 67 61 bb 3b 3f 90 d9 bc
       -0.026095591 0.07280418 0.0057183984 -0.02655804
0001c0 c9 a7 9c 3c 4f 1d 89 3d 24 38 bb bc dd 05 4f 3d
       0.019122975 0.06695043 -0.022853918 0.0505427
0001d0 5e 01 ff ba eb da c3 3b 29 a5 91 3a be 2c 23 3d
       -0.0019455364 0.005977025 0.0011111844 0.03983759
0001e0 ed 64 91 3d 74 5d 8f 3c 6c 27 19 3d 8d 2c 6c bd
       0.07099328 0.017500617 0.03739111 -0.057659674
0001f0 b6 6e 6c 3d f0 cc 15 bc 4b 16 18 bb 4a 9b 78 bd
       0.05772277 -0.009143099 -0.0023206647 -0.06069497
000200 a0 cc 8f 3d 4b eb 0f bd 38 59 9b 3d 2f 98 94 bc
       0.07021451 -0.035136502 0.075853765 -0.018138973
000210 89 03 2b bd 6a 7c 77 bd b2 47 47 bd 57 79 4e 3d
       -0.04175142 -0.060421385 -0.04865236 0.050408687
000220 dd ec 5f bd af c2 f8 bc 1e a9 6a bc 95 8b 89 bb
       -0.05466925 -0.03036627 -0.014322547 -0.0041975477
000230 68 1d ea ba db 65 2f 3c d8 e9 a2 bd 64 1c 63 3c
       -0.0017861547 0.010705437 -0.079547584 0.013861749
000240 e8 32 2f 3d 4e 80 b5 bc 95 fe 50 bd 5f 8d 10 bc
       0.042773157 -0.022155907 -0.05102404 -0.008822768
000250 ad 1a 81 bd bb cb 0b bd 3a ef 72 bc 94 42 f0 39
       -0.06303916 -0.03412984 -0.014827544 0.00045825972
000260 6a 19 ce bc 28 e7 f1 3c 9d 53 8d bc c4 13 d9 bc
       -0.025158603 0.02952917 -0.017251784 -0.026498683
000270 e2 b8 c3 3b 82 8d 48 bd 43 79 38 3d 0f 39 97 3c
       0.0059729675 -0.048963077 0.04503752 0.018459825
000280 aa 4e a8 bc c3 bb 9a 3d 62 d3 93 3d 37 05 c4 bc
       -0.020545322 0.07555344 0.072180524 -0.023928268
000290 86 66 92 3d 11 1f 98 3c 65 09 81 3c 9f 22 1f bd
       0.07148461 0.018569501 0.01575155 -0.038851377
0002a0 c5 3e 5f 3d 70 86 70 bc fd 91 2c 3d 23 f8 ad 3c
       0.05450322 -0.01468049 0.042131413 0.021236485
0002b0 f9 d8 08 bd 9b 1d 32 3d 8a 8d 9e bd 7d 78 fd bc
       -0.033410046 0.043485265 -0.0774184 -0.030941242
0002c0 f1 97 90 bd f0 ed 90 3d 91 42 13 bd 93 5d dc 3b
       -0.070602305 0.07076633 -0.035952155 0.006725022
0002d0 66 99 28 bd 9c b0 e5 bc 85 05 c0 3c 16 51 8a 3d
       -0.041161917 -0.028038315 0.023440132 0.06753747
0002e0 70 94 48 bd c5 93 17 bd cc c5 e8 bc 5f 58 7b 3c
       -0.048969686 -0.03700616 -0.02841463 0.0153408935
0002f0 08 fa 65 bd 99 5c b5 bc de ef 8e 3d 57 4b 5f 3d
       -0.05614665 -0.02213888 0.06979345 0.05451521
000300 da b8 f2 3b ed f0 6a 3d ef 4f d9 3c b2 2f 71 bc
       0.00740729 0.05735867 0.026527373 -0.014720844
000310 23 85 1f 3c 30 e5 a4 bd 3f d1 18 3b 96 6b f7 bc
       0.009736332 -0.080515265 0.002331808 -0.030202668
000320 d3 79 4a bd c6 2c 13 3d 74 6f 9c 3d be 1e 22 bc
       -0.049432587 0.03593137 0.076384455 -0.009895025
000330 60 ff a9 3b 7f f5 d8 3b 90 85 22 3c 85 31 1e 3d
       0.005187914 0.0066210623 0.009919539 0.038621444
000340 88 54 29 bd e1 f3 c2 bb 66 78 69 bd 16 69 48 3d
       -0.04134038 -0.005949483 -0.056999587 0.048928343
000350 1e 0e 4b 3d 0f 2d 61 bd b7 58 6a bd 75 35 c7 3b
       0.04957401 -0.05497461 -0.05721351 0.0060793706
000360 ae 13 83 3d 51 4c a4 bc 78 fb 59 bd df 47 85 3b
       0.06400238 -0.020055922 -0.053218335 0.0040674056
000370 81 4c 03 bd aa 0d b5 3c 1f 08 0b 3d 7d c1 a0 3c
       -0.03205538 0.022101242 0.03394329 0.019623512
000380 20 8a 1c 3d e1 de 08 bd 61 f8 3e 3d 46 36 60 bb
       0.038217664 -0.03341568 0.04662359 -0.0034212037
000390 c3 7e 09 bc 7f d8 3c bd 79 e3 80 bc 0b 89 45 bd
       -0.008392039 -0.046104904 -0.015733467 -0.048226397
0003a0 27 72 e3 3c 1c 57 0d bd 2c 01 54 bd ae 05 8b bd
       0.027764393 -0.034506902 -0.05175893 -0.06788193
0003b0 8c 2f 90 bd e9 65 e1 bc 10 4f bd 3c 7c c1 31 bd
       -0.07040319 -0.027514415 0.023108989 -0.04339741
0003c0 99 53 c7 3c fd 84 3c bd 15 dd 86 3d 30 90 be bb
       0.024331855 -0.046025265 0.06585137 -0.0058155283
0003d0 a5 39 4e bd 63 39 7c 3d 1c 8e 6b bd bf 30 36 bd
       -0.050347943 0.061578166 -0.057508573 -0.04448008
0003e0 f0 94 3b 3c 20 f8 8f bb 70 5c 9f 3d 88 56 3a bc
       0.011449084 -0.0043935925 0.07781303 -0.01137317
0003f0 92 7c 92 3d 10 ae 28 3c 10 82 95 3d 64 dc 59 3d
       0.07152666 0.010295406 0.07300198 0.053188697

encoder_blocks.3.2.bias f4 [12]
000000 93 1c 9b bd 70 15 50 bd 00 aa 98 bd 20 78 31 bd
       -0.075738095 -0.050801694 -0.074543 -0.04332745
000010 5f fa 07 bd 85 ef d8 3c c3 d9 88 3b 10 74 b2 3b
       -0.033197757 0.0264814 0.00417635 0.0054459646
000020 71 c5 14 bc 21 3d 7c 3d 51 2f d9 3c 05 97 2a bc
       -0.009080277 0.061581735 0.02651182 -0.010411982
