Python/save/localizer/trial_2/quake_localization_model_00400.pth (torch, 252994 bytes, 35 tensors)

encoder_blocks.0.weight f4 [12, 1, 13]
000000 05 96 41 3e 3e 8d 48 3e 7f f2 62 3e b2 62 a8 3d
       0.18904884 0.1958513 0.22162817 0.0822195
000010 e4 0d 3e 3e af a1 cf 3d c2 00 dd bd 59 d5 80 bd
       0.18559986 0.101382606 -0.1079116 -0.06290693
000020 57 69 52 be 5b 5a 4d be 61 cb 44 be 89 d6 b0 3d
       -0.20547996 -0.20053999 -0.19218208 0.08634669
000030 ac fc b3 bd ec d4 5b be 88 fc 7b be 0f ce 80 be
       -0.08788428 -0.21467942 -0.24608052 -0.2515721
000040 5f bd 05 be d4 a4 e3 3d bb 3e 2f be 00 c0 8f 3e
       -0.1306052 0.11115423 -0.17113774 0.28076172
000050 33 14 49 be 85 11 a1 bc f7 e1 97 3d 4d 64 30 3e
       -0.19636612 -0.019661674 0.07416146 0.17225762
000060 51 9d 20 3e 89 4e 22 bd 59 2b 8e 3d e1 b2 af bd
       0.15685011 -0.03962568 0.06941862 -0.0857904
000070 f6 fa bd 3c 4b c6 98 3d 24 ed 5f be 8c 1a 41 be
       0.023190957 0.074596964 -0.21867806 -0.18857783
000080 f3 af 20 3e c7 35 8b bd 17 28 db bd 80 26 db bd
       0.1569212 -0.067973666 -0.10701006 -0.10700703
000090 52 01 0c bc ae c7 e2 bd 9e b2 7a be 80 94 9d 3d
       -0.008545237 -0.11073242 -0.244822 0.0769434
0000a0 c3 74 f5 3c 51 70 55 be 68 f8 98 3d 7d 72 1f be
       0.029962903 -0.20843627 0.07469255 -0.15571018
0000b0 d5 ba 0f be fd 31 b2 3d 9b 34 11 3d d7 99 19 3d
       -0.14036115 0.08700941 0.03545056 0.03750023
0000c0 c8 80 bd bd 49 4e 3c 3b ee d0 87 3e 62 ad 80 be
       -0.09253079 0.0028733185 0.26526588 -0.2513228
0000d0 1b 1d 6b 3d 18 52 2e 3d 64 fc b2 bd 87 e0 b2 bb
       0.057400804 0.04255876 -0.08739546 -0.0054588947
0000e0 9e 78 15 be 29 a8 e4 bd fb bd 15 be 3f 41 37 3e
       -0.14596793 -0.111648865 -0.14623253 0.17895983
0000f0 90 ed 09 bd 6e ad f4 3d 7a f6 37 bc 67 52 07 be
       -0.033673823 0.119471416 -0.011228198 -0.13215028
000100 f3 47 2d be 77 c3 b1 bd fa 1d 70 3e 9f ca c8 3d
       -0.16921978 -0.0867986 0.23448935 0.09804272
000110 b8 12 f6 bc a7 8b 68 bd 0e c5 99 3d b8 c6 65 3e
       -0.030038223 -0.056773808 0.07508288 0.22439086
000120 4f 36 74 be 5b 27 a0 3d fc a0 1c 3e b3 ec 4c be
       -0.23848842 0.078200065 0.15295786 -0.20012169
000130 42 b1 68 3e 4e c5 2a 3e 01 73 ef bd 3b 89 f2 3c
       0.22723868 0.16676828 -0.11691857 0.029606452
000140 0c 5e f9 3d 1a 7a dc 3d ad 37 87 3d f7 f1 0b bd
       0.12176141 0.107654765 0.06602416 -0.034166303
000150 c5 d7 a3 bd 66 2f 79 3e 29 f1 10 3e 42 db 14 3e
       -0.08000139 0.24334487 0.14154495 0.14536765
000160 cc fd 89 be 51 24 f9 3d 97 a7 19 be 1e 81 be 3d
       -0.26951444 0.1216513 -0.15005337 0.09301971
000170 a5 ce c3 bd 90 a9 54 bd d9 47 df 3d 96 c1 4f be
       -0.09560899 -0.05191952 0.10902376 -0.20288691
000180 6c 63 8b 3e 55 8b 4b 3e 0f 87 b4 bd b6 e0 11 3e
       0.2722429 0.1987737 -0.08814823 0.14245877
000190 f2 21 2f be eb 22 51 3c c2 c0 5c 3e b8 df b3 3c
       -0.17102793 0.012764673 0.21557906 0.021957263
0001a0 78 31 35 be be 57 7f bc 7b 24 34 bd 8f f1 90 bd
       -0.17694652 -0.015584884 -0.043980103 -0.07077324
0001b0 f0 10 29 3e ec 8d 47 3e 7a 68 40 3e e7 2e 80 3e
       0.16510367 0.19487733 0.18789855 0.25035784
0001c0 bd f1 20 3e 1a 27 3f 3e 6f 71 68 3e 5a 3a 0d be
       0.15717216 0.1866726 0.22699521 -0.1379179
0001d0 6f 33 27 3e 41 14 86 3e 1d bf a5 bd 9e bb 49 be
       0.16328214 0.26187328 -0.080930926 -0.19700477
0001e0 d4 ab 60 be 35 48 1a 3c d5 2e 39 be 7e 6e 47 be
       -0.21940547 0.00941663 -0.18084271 -0.19475743
0001f0 fc f7 04 3e 98 e8 59 3e 19 2d 46 be 7a 5b 8b 3e
       0.12985224 0.21280134 -0.19353141 0.2721823
000200 09 04 44 3d 08 3d e6 3d e8 7a 90 3e 0d ac 64 be
       0.04785541 0.112421095 0.2821877 -0.22331257
000210 8f 7e 8d 3e 86 3f b3 3c a8 12 0f bd 7a 3b 53 3e
       0.2763562 0.021880876 -0.0349299 0.20628157
000220 11 11 f1 3d 06 74 d5 3c 0a 67 27 bd b5 d4 50 bd
       0.11770833 0.0260563 -0.04086975 -0.050984103
000230 6c 58 fd bb b3 46 d3 bd d1 df 41 be 1f 02 96 3d
       -0.007731488 -0.10316219 -0.18933035 0.07324623
000240 09 18 18 3e 57 b3 56 be 90 91 5c bd 0f 93 68 be
       0.14852919 -0.2096685 -0.053849757 -0.22712348
000250 c2 83 8a be 5f 8d b7 3d 1d 59 75 be 16 6f d2 bd
       -0.27053648 0.08962511 -0.23959775 -0.10275094
000260 ed 00 33 be e0 08 73 3e a1 44 44 be e4 25 f5 bd
       -0.17480822 0.23733854 -0.19166805 -0.11970118

encoder_blocks.0.bias f4 [12]
000000 3b b3 36 be 2c 75 27 3d 2b e5 84 3e 5a 27 ec bd
       -0.17841808 0.04088323 0.2595609 -0.11530943
000010 f0 7c 88 3e 06 2a 82 be 91 9a 7c 3d 81 87 db 3d
       0.2665782 -0.25422686 0.061670844 0.10719205
000020 c0 61 95 3d df 8e 9d bd ce f4 25 3c cb 8f d6 3d
       0.07294035 -0.07693266 0.010129167 0.10476645

encoder_blocks.1.0.weight f4 [12, 12, 13]
000000 22 af 6f bc 97 ca 57 3d a4 aa 8d 3d 51 be d4 bc
       -0.014629157 0.05268344 0.06917313 -0.025969656
000010 df 3d 3d bd b2 51 78 3d c6 d7 33 bd 56 5f a7 3c
       -0.046201583 0.060624786 -0.04390695 0.020431202
000020 9f 14 48 bd 64 81 de bc 65 dd 1a bd 9c 4f 55 3d
       -0.04884779 -0.027161308 -0.037808795 0.052077875
000030 ed d6 33 3c e7 15 77 3d 67 7b 42 bd 1f 09 95 bc
       0.010976535 0.060323622 -0.047480967 -0.018192826
000040 51 24 49 bd 42 c0 8b 3c e9 3c bd 3b bd f5 55 bd
       -0.0491069 0.01705945 0.0057750833 -0.052236307
000050 bf 10 d8 bc 8a 35 96 bd 87 78 ce bc 22 08 9f bc
       -0.026375173 -0.073344305 -0.025203956 -0.019413058
000060 c1 a8 2c bd 5c 8f 3b 3d 96 4b db bb 48 27 8b 3d
       -0.042153124 0.045791015 -0.00669236 0.06794602
000070 b4 f6 3a bb 35 ce dc 3b 1b a8 65 bd 91 79 90 bd
       -0.0028528394 0.006738449 -0.05606852 -0.07054437
000080 b5 73 9d 3d 1c f1 a9 bd 22 04 6f 3d 7d 53 5f bc
       0.07688085 -0.08297941 0.05835355 -0.013630745
000090 39 3e 55 3d 9a e1 a6 3d fd f2 92 3d fc e9 a7 bd
       0.052061293 0.08148499 0.071752526 -0.08198926
0000a0 b6 e6 11 3d 70 f3 7d bd 6b 26 02 3d 8e da 09 3d
       0.035620414 -0.06199974 0.03177492 0.033655696
0000b0 c4 92 89 3d 46 e0 77 3d 17 0b 99 3c f1 62 76 bd
       0.067174464 0.06051662 0.018682046 -0.06015295
0000c0 06 95 30 ba 7b 91 9f bd f6 19 87 bd 68 8a 7f 3d
       -0.00067360734 -0.0779142 -0.065967485 0.062387854
0000d0 e9 3e bb 3b f2 ab 34 3d 70 5f 82 3a 72 15 92 bd
       0.0057142866 0.044109292 0.0009946655 -0.071329966
0000e0 f0 fe 92 3d 56 1d 31 3d 6c 50 b6 bc e7 2f 5a 3c
       0.07177532 0.043240868 -0.022255145 0.013317085
0000f0 26 32 df 3b 7d 80 2b bc f8 8e 68 bd 55 32 93 3c
       0.006811398 -0.010467646 -0.05677697 0.017968336
000100 ea bf b5 bc a1 ae 29 3d 52 15 16 bd 11 7c e1 3c
       -0.022186238 0.041426305 -0.036641426 0.02752498
000110 39 74 57 3c 0c 45 43 bd fd dd 69 bd 29 61 4e bd
       0.013150268 -0.04767327 -0.05709647 -0.050385628
000120 9b 08 76 3d f8 a7 90 bd ca aa 2e 3d 9f 4b 97 3d
       0.0600668 -0.070632875 0.042643346 0.073874705
000130 f2 a8 f9 3c 96 f3 36 bd 0a 43 08 3d 24 75 aa bd
       0.030476067 -0.044665895 0.03326706 -0.08323124
000140 89 e4 78 3b d8 fb 4d 3d 56 6e a3 3d 5e ad 32 bd
       0.0037978014 0.050289005 0.07980029 -0.043622367
000150 5d 36 80 bd c7 31 83 3c f2 93 44 bd ff b6 3d 3c
       -0.06260369 0.016014947 -0.047992654 0.011579274
000160 e7 c6 59 3d 67 41 88 3d ff c0 b4 3c 79 db 38 bd
       0.053168204 0.066530995 0.022064684 -0.04513118
000170 4b ab 83 38 17 bc f9 bc b3 24 42 bd e9 b3 a6 bc
       6.2784726e-05 -0.030485196 -0.04739828 -0.02034946
000180 3a 2b 0a bd 2e e6 5e bd 13 a2 82 3d dd 3a 50 3d
       -0.03373263 -0.054418735 0.063785695 0.050837386
000190 1e 1c 89 bd 95 73 ef bb ab 5d a3 bc f6 cd cd 3a
       -0.06694816 -0.0073074796 -0.019942125 0.001570164
0001a0 2e e4 8c 3d 05 15 c9 bc d4 13 20 3b e1 1d 9d bd
       0.06879459 -0.024546156 0.002442588 -0.076717146
0001b0 5e 30 ed 3c 4c 15 45 bd ae d4 a2 3c 07 63 02 bd
       0.028953727 -0.048116013 0.019876804 -0.03183272
0001c0 dd ab 08 bc 43 b2 33 3d 80 fb 19 3d e7 1c 6a 3d
       -0.008341757 0.043871175 0.037593365 0.05715647
0001d0 a4 b6 89 3d 7f e7 82 bc a4 70 fd bc 22 bd 97 bc
       0.06724289 -0.015979527 -0.0309375 -0.018522803
0001e0 a3 a3 c0 3b c2 d6 0d 3d 81 87 38 bd 28 2c 9e bd
       0.005878882 0.034628637 -0.0450511 -0.07723266
0001f0 c6 19 8e bd de 06 4d bc a1 20 9c bc 92 ac 80 bc
       -0.0693851 -0.012513844 -0.019058527 -0.015707288
000200 53 77 fe bc 05 89 7d bd 19 a2 00 bd cd 98 2c 3c
       -0.031062758 -0.06189825 -0.03140459 0.010534477
000210 11 63 89 bd de c2 ad 3c d3 19 10 bd c8 2b 8c 3d
       -0.067083485 0.021211084 -0.035180878 0.06844288
000220 b7 17 76 bc 41 ca 4f 3b fe 74 29 bd ce 64 07 bc
       -0.0150203025 0.0031706246 -0.041371338 -0.00826378
000230 e8 a2 83 bd fa 7e 29 bd 3e 74 99 bc cf 5e c4 bc
       -0.06427556 -0.04138086 -0.018732186 -0.02397099
000240 98 03 39 3d a9 e2 ab bc 3d 4b 8a bc 16 aa 81 3d
       0.045169443 -0.020982103 -0.01688158 0.063312694
000250 f2 8e 93 bd 32 9d 97 3c b4 45 23 bd ee 0e de 3c
       -0.07204999 0.018507574 -0.039861396 0.027106728
000260 72 f8 19 3d 90 13 0e bd f1 11 3b 3d 52 c1 97 bd
       0.03759045 -0.034686625 0.045671407 -0.0740992
000270 7f 07 03 bd 46 22 3b 3d 15 ad 82 bd 80 f1 31 3d
       -0.03198957 0.045686983 -0.06380669 0.043443203
000280 b8 a2 f6 3c e2 eb 91 bd cb 76 82 bd 04 4b 34 3d
       0.030106887 -0.07125069 -0.06370314 0.044016853
000290 66 c3 a2 3d 62 94 87 3d ae 4c 30 bd 7c 7f 59 3d
       0.079474255 0.06620099 -0.043041877 0.053100094
0002a0 a3 70 6a 3d 7c 65 93 bd ab b3 81 bd 1a 0d 22 3d
       0.057236325 -0.07197091 -0.06333097 0.039563276
0002b0 36 7e 89 3d 33 5b 72 3d fd 2d 86 3d 55 b6 21 3d
       0.06713526 0.059169006 0.0655174 0.039480526
0002c0 0a 18 9c 3d fc 4e c1 3c c1 20 ef bb 62 e3 f0 3c
       0.076217726 0.023597233 -0.0072976057 0.0294053
0002d0 db 7c 87 bd c5 6a 85 3d f4 3d 5a 3a e5 be 0c 3c
       -0.06615611 0.06514505 0.0008325272 0.008590435
0002e0 07 98 a1 3d 97 8b 91 3d 1f 04 57 3b 7d e2 11 bd
       0.07890325 0.07106703 0.0032808853 -0.035616387
0002f0 3a 92 4d bd 47 2c 42 bd 06 e3 36 3d 80 5a e5 bc
       -0.05018828 -0.047405507 0.0446501 -0.027997255
000300 ad d0 8c bd 99 87 ee 3c ed 7f b2 3d 83 e3 ad 3b
       -0.06875739 0.029117392 0.08715806 0.0053066625
000310 84 a9 44 3c 34 ca 75 3c 01 b2 d8 3c 62 db 92 3c
       0.012003306 0.015001822 0.026452066 0.017926876
000320 4c e8 06 bd 75 ff 85 bd 2c 72 bc bc 6f 28 e6 3c
       -0.03293638 -0.06542865 -0.02300366 0.028095452
000330 cc 0a fa bc 0c 2c aa 3d e7 a1 f6 bc 2a 4b 9b 3d
       -0.030522726 0.083091825 -0.030106498 0.07582696
000340 17 69 38 bd 85 4e 54 bd c2 8e 17 bd da 33 7f bd
       -0.045022096 -0.051832695 -0.03700138 -0.06230531
000350 8b 66 3d 3c 77 35 24 bc f1 4f 3f 3d 5e 9b 86 bd
       0.011560093 -0.010022513 0.046707097 -0.06572603
000360 db 44 7e bb 58 70 9a bc fd ef 5b 3d f7 55 49 bc
       -0.0038798365 -0.018852398 0.053695668 -0.012288562
000370 7e af bb 3c 96 c2 8f 3d b8 e9 07 bb 52 b3 a7 3b
       0.02291083 0.07019536 -0.0020738672 0.005117812
000380 95 1d 46 3d b4 e0 c5 3b bb 1c 45 3c 9c ff 11 3c
       0.048368055 0.0060387496 0.012030776 0.00891104
000390 e3 c9 b9 3c b2 31 43 3d b3 f0 92 bc d6 e6 38 bd
       0.022679275 0.047654815 -0.01793704 -0.045142017
0003a0 4c a6 cb bc 48 3f 13 3d 21 10 f8 3c 11 3a db bc
       -0.02485957 0.03594902 0.030281128 -0.026761087
0003b0 08 6a 8f 3d 69 7e 88 bd 6f c5 6c bd 6f 12 9d 3d
       0.07002646 -0.06664736 -0.057805475 0.076695316
0003c0 54 4c d1 3c 3e 52 4f 3d ea b6 48 3c ee 52 8e bd
       0.025549091 0.05061554 0.012250641 -0.06949411
0003d0 24 21 90 bb 76 66 92 3c b2 fc 49 bd f7 ff 9c bd
       -0.004398482 0.017871123 -0.049313255 -0.07666009
0003e0 c4 8e 00 bd 06 c9 e8 bc ca 9b 5a 3d b1 73 8b 3d
       -0.031386152 -0.028416168 0.05337123 0.06809176
0003f0 ca 53 69 bd 11 d0 9b 3b e0 eb 85 bc d5 d8 8e 3b
       -0.056964673 0.004755028 -0.016347826 0.0043593445

encoder_blocks.1.0.bias f4 [12]
000000 51 e9 6e 3c 8f 12 e0 bb 09 d9 29 bd 60 72 91 3d
       0.014581994 -0.00683815 -0.041466746 0.071018934
000010 ef cb b3 bd 11 ab 3e 3d 88 ab aa bc cf 22 06 bd
       -0.087791316 0.04654986 -0.020833746 -0.03274804
000020 9b 32 0a 3d d4 fc ac 3d d8 b6 c4 3d 69 1d 04 3d
       0.033739667 0.08446661 0.09605187 0.03225461

encoder_blocks.1.2.weight f4 [12, 12, 13]
000000 bd 41 7f 3d 38 c8 45 bd e0 28 52 3d 6c 22 96 3d
       0.062318552 -0.048286647 0.051308513 0.07330784
000010 47 bd 4e 3d f1 72 2b 3d 76 b2 3e 3c dc b9 1f 3b
       0.050473478 0.041857664 0.011639228 0.0024372255
000020 84 34 2a bc 88 e7 fa bc b1 9f 65 bb 14 9a 01 bc
       -0.010388497 -0.03062798 -0.003503781 -0.00791027
000030 72 2c 83 3d e9 e7 5b bd 58 a7 9c 3c 52 b0 90 bb
       0.06404962 -0.053687964 0.019122764 -0.0044155503
000040 bf c7 20 3b 9f 00 42 3d 74 71 a2 3d ac de 7c bd
       0.002453312 0.047363874 0.07931796 -0.061735794
000050 9b 39 ad 3d 3e 16 68 bd ae b6 bc 3d a5 e7 bc bb
       0.08458253 -0.056661837 0.09214531 -0.005764919
000060 6a 15 73 3d 19 19 7c 3d 26 3d 43 bd fc 95 99 bd
       0.059346594 0.061547372 -0.047665738 -0.074993104
000070 65 74 30 3d be 61 89 3c 77 95 12 bc 5c 06 f8 bc
       0.043079752 0.01677024 -0.008946768 -0.03027647
000080 23 b9 97 bd 6c aa 49 bd 2c 92 98 3d 02 40 01 3d
       -0.07408359 -0.049234793 0.07449755 0.031555183
000090 87 2b 64 3d 33 36 11 bd f2 2f 2c 3d e8 67 70 3c
       0.055705573 -0.03545208 0.04203791 0.014673211
0000a0 c6 09 ef bc 97 06 fd bb bf 64 02 3d a8 92 a5 bc
       -0.029179465 -0.007721733 0.03183436 -0.020211533
0000b0 73 46 70 3d fb 59 07 3c 28 f8 3d bd a2 56 63 3c
       0.058660936 0.008261199 -0.04637924 0.013875635
0000c0 a2 b4 94 3c 09 e4 81 bd 0f ff 77 bd e6 d1 90 3d
       0.018152539 -0.063423224 -0.060545977 0.07071285
0000d0 a1 93 84 3d 20 15 a9 3c 7b 31 55 bd 42 75 25 bd
       0.064734705 0.020639956 -0.05204914 -0.04039503
0000e0 9c 63 96 3c 4d d6 05 bc 1d 9d 81 3b fd 4b 93 3d
       0.018358044 -0.008168769 0.003955497 0.07192228
0000f0 dc cf fc 3c 21 83 51 bc b5 71 62 bd 65 b2 39 3c
       0.030860834 -0.012787611 -0.05528422 0.0113340365
000100 d7 27 d1 3c ce 54 8b 3d 8f e2 0d bd 76 87 82 bd
       0.025531692 0.068032846 -0.03463989 -0.063734934
000110 6d 13 96 3c 7f 60 66 bd 75 c2 72 3d 71 c9 dd bc
       0.01831981 -0.05624437 0.05926748 -0.027073594
000120 e6 63 90 bd 3e 89 99 bd 1e 4b 03 bc 0f 30 2e 3d
       -0.07050304 -0.0749688 -0.008013515 0.0425263
000130 57 a5 15 bd 9d ff 75 bb d1 59 33 bc 21 df 2d 3d
       -0.036534633 -0.003753639 -0.010946707 0.04244912
000140 ca 1e 0c 3d 54 83 e5 bc 2d fe 4b 3c be af 03 3d
       0.03420905 -0.028016724 0.012450737 0.032150023
000150 4e ad c3 bb 74 9a 50 bc ba d8 9e 3c 84 e0 9b 3c
       -0.0059715873 -0.012732137 0.019390453 0.019027956
000160 98 0f 5a bd 2d f7 3b 3d e4 89 cd bc 60 a3 9e 3d
       -0.053237528 0.045890022 -0.025090165 0.07746005
000170 a7 29 2b 3b bf 9c 30 3d 65 b0 d4 3c 7f ce 9e 3d
       0.0026117356 0.043118235 0.025963018 0.0775423
000180 b4 40 88 3a 7b 8e 7c 3c 38 ce 9a bd a4 6c ea 3c
       0.001039526 0.015414829 -0.07558864 0.028616257
000190 28 fb 5b 3c c4 b9 2a bd 67 57 8e bd 6e ca ad 3d
       0.01342658 -0.041681066 -0.069502644 0.08485876
0001a0 62 19 8d bd 67 e7 56 3d 8c 6b 11 bc 9f 53 12 bc
       -0.06889607 0.052466776 -0.008875739 -0.00893107
0001b0 0c d7 88 bd d6 28 08 3d 02 63 19 3d 42 80 e0 3c
       -0.06681642 0.03324207 0.037447937 0.027404908
0001c0 bc 5a bc bc ce ce 06 3d 31 4f f5 bc ca c9 1a 3d
       -0.022992484 0.032912068 -0.029944988 0.037790097
0001d0 e9 24 23 3b ba 93 88 3d db 3b de bc 07 23 ae bb
       0.0024893826 0.066688016 -0.02712815 -0.005314234
0001e0 5c 7b 7d bd 39 00 3f 3d 12 7a a3 3d 08 fb 84 3d
       -0.061885223 0.04663107 0.079822674 0.06493193
0001f0 21 97 9a bd e1 c9 81 3d 50 24 2b bc 2c 39 5b bb
       -0.07548357 0.063373335 -0.010445669 -0.0033450825
000200 17 c8 1e 3d db 9a 2f 3d 9b 5a 19 bd 7d e3 b0 bc
       0.03876504 0.04287229 -0.037439924 -0.02159285
000210 35 03 70 3d 0e 3f 75 bd 83 78 3d 3d 25 05 10 bd
       0.05859681 -0.059874587 0.046257507 -0.035161156
000220 00 a4 4d bd 35 57 9f 3d 6c cd 53 bd cc a6 04 bd
       -0.05020523 0.07780305 -0.051709577 -0.032385632
000230 55 08 a8 3d 8c 70 41 bd 2d 89 88 3d 34 83 9d bd
       0.08204714 -0.047226474 0.06666789 -0.07691041
000240 c4 59 a2 bc f1 f3 8a bc f6 42 aa 3d b0 e1 06 3d
       -0.019818194 -0.016962023 0.08313553 0.032930076
000250 77 ae f0 bc c6 db 8d 3d 6a dd e2 3c 80 cf 92 3d
       -0.029380066 0.06926684 0.02769347 0.07168484
000260 43 e1 d4 3c 8f 71 86 3d e8 e7 a5 3d 04 57 fd bc
       0.02598632 0.06564628 0.08100873 -0.030925281
000270 e4 5d fd 39 14 25 d8 bb 4a fc 85 bd 40 38 66 bd
       0.00048325874 -0.006596217 -0.06542261 -0.056205988
000280 3e dc 88 bc 7e 3f ae bd a9 f5 c1 3c fb a5 57 bd
       -0.016706582 -0.08508204 0.02367671 -0.052648526
000290 87 ee e1 bc b4 8a 1b 3d ce 80 4c 3d ed d0 aa bc
       -0.027579559 0.037974074 0.049927525 -0.020851577
0002a0 bb c3 fe bc 08 bf 9f bd 96 cb e8 bc b2 10 61 3c
       -0.031099191 -0.07800108 -0.02841739 0.013736891
0002b0 a7 e6 21 bc d4 6b 78 3d c3 d5 b4 3d 69 f2 2c 3c
       -0.009881652 0.060649708 0.08829834 0.010555842
0002c0 5a 47 17 3d aa 26 97 3d 72 26 8f 3b 73 52 aa bd
       0.03693328 0.073804215 0.0043685967 -0.08316507
0002d0 8e af 79 3d 93 d3 89 bd 94 c2 3f bd f4 3c 72 3c
       0.060958438 -0.06729808 -0.046816424 0.01478504
0002e0 da 5b 88 3d ca 03 e5 3c 22 37 3a bc a6 1c 5c 3d
       0.06658144 0.027955908 -0.011365684 0.05373826
0002f0 51 0a a5 bd 01 21 a5 3d 9e 65 63 bc cd 31 e7 3c
       -0.08058608 0.080629356 -0.013879208 0.028221989
000300 4c 59 5e bc 76 33 a4 3d 85 42 c9 3b e6 2d 03 bd
       -0.013571095 0.08017628 0.006141963 -0.032026194
000310 66 99 b4 3b c6 e7 5d bb 77 f3 54 3d 3c db 01 bd
       0.0055114506 -0.0033860072 0.05199 -0.03170322
000320 99 a3 87 bd 31 5d ab 3b 0d 89 89 bd 30 c9 47 bd
       -0.06623001 0.005229615 -0.067155935 -0.04877585
000330 6a ad 8b 3d c0 1c 18 3d 4a 5a 63 bd 73 00 8f 3c
       0.068201855 0.037136793 -0.05550603 0.017456269
000340 39 5c 4b 3d 0c b5 06 bd 41 35 6a bb dc 6f 76 bd
       0.049648497 -0.032887504 -0.0035737308 -0.06016527
000350 66 1d 1c bd d3 95 98 3d 51 82 8d bd d2 0f a2 3d
       -0.038113974 0.07450452 -0.069096215 0.07913174
000360 05 b2 fe bb e8 97 d0 bc 1e d4 bb 3c e2 9a 07 3d
       -0.0077726864 -0.02546306 0.022928294 0.033106692
000370 7e 04 12 bd 38 1e 88 3d 86 fa 73 3d d6 47 64 bb
       -0.035648815 0.06646389 0.05956509 -0.0034832857
000380 1b b6 d6 bc 55 e4 97 bd a6 39 44 3d 94 aa 15 3d
       -0.026209882 -0.07416598 0.04790654 0.03653963
000390 95 0c 87 bd 1e f7 97 3d 7b 03 5a 3d b3 06 30 3d
       -0.06594197 0.07420181 0.053225975 0.04297514
0003a0 fc 33 95 bd 35 7d 8d 3d 48 1c 72 bb 86 17 8b 3b
       -0.07285306 0.06908647 -0.0036943126 0.0042447476
0003b0 1c 59 2f bd de 4a dc bb 59 fb de bc 53 d3 34 3c
       -0.04280959 -0.006722792 -0.027219461 0.011036712
0003c0 6e 1b 82 3d 64 9a 24 bd 7e 31 77 3c 27 41 86 3c
       0.06352888 -0.0401863 0.015087483 0.016388489
0003d0 c3 f0 f8 3c 89 45 14 3d 3a a8 a9 bd 19 54 8d 3c
       0.030388242 0.036199126 -0.0828404 0.017252015
0003e0 91 10 9d bc 7c 81 4d 3d ea ec a0 3c 65 bf 74 bd
       -0.019172939 0.050172314 0.01964422 -0.05975284
0003f0 af d6 04 3d 59 85 8d 3d ff 82 5b bd f1 ae 7c bd
       0.0324313 0.069102 -0.053591724 -0.061690275

encoder_blocks.1.2.bias f4 [12]
000000 a3 d5 d6 bb 7f cf b2 3c 8b fa b6 3d ab 15 10 3d
       -0.006556229 0.021827457 0.08934506 0.035176914
000010 37 77 c7 3c cf bd 31 bd 0c 02 63 bd 3b c3 64 bd
       0.024348838 -0.043393906 -0.055421874 -0.05585025
000020 05 80 2b 3d db 7d 94 3d f1 4f 8b 3d 3d ce ea bb
       0.041870136 0.072505675 0.06802357 -0.007165699

encoder_blocks.2.0.weight f4 [12, 12, 13]
000000 e6 47 97 3d 8c 85 2f bc 9a c9 d2 3c 20 2b 5a 3d
       0.073867604 -0.010712992 0.025730897 0.053263783
000010 f3 5a 23 3c 46 b3 2e 3d ba c0 9f 3d 91 0d 2b 3d
       0.009970414 0.042651437 0.078004315 0.041760985
000020 51 c6 a8 3c c6 ba 9a bd 45 bb 3b 3d 13 90 84 bd
       0.020602377 -0.075551555 0.04583289 -0.064727925
000030 26 6e 80 3d 6e e3 a7 bd 84 ba a2 3d b6 70 2c bd
       0.06271009 -0.08197676 0.07945731 -0.042099677
000040 ff 26 80 3b 1a 5a b1 3c 0e 53 73 bd 3c ee 9f bc
       0.0039108987 0.02164941 -0.05940538 -0.019522779
000050 f2 00 3c 3d 5c 9e 96 bd 77 30 1a 3d 65 71 91 3b
       0.04589934 -0.073544234 0.037643876 0.0044385665
000060 af 17 34 3d 84 72 64 bd d0 2b 25 3d b5 73 0e bd
       0.0439679 -0.055773273 0.040324986 -0.034778316
000070 f6 86 a9 bd c1 e2 55 bd d7 c5 f9 3c 29 06 5c 3b
       -0.08277695 -0.052218203 0.030489845 0.0033573008
000080 6e 51 8e bd e8 34 14 bd 1b 04 9a 3c fe 4a 70 bd
       -0.06949125 -0.036183268 0.018800786 -0.058665268
000090 0e 54 88 3b ef 58 ec ba 07 19 85 3d 54 45 fe 3c
       0.0041604107 -0.0018031875 0.06498914 0.031038918
0000a0 69 a1 ac bd 6a 2d 1d bc 85 d7 5a 3d 51 51 f0 3c
       -0.08429224 -0.009593347 0.05342819 0.02933565
0000b0 c7 9e 66 3c ce d8 01 bb 23 2e 0b bd fc d2 7f bd
       0.014075941 -0.0019813064 -0.033979546 -0.06245707
0000c0 50 68 9b 3d 56 2d 78 3c 88 25 bc 3b 43 6a 48 3d
       0.075882554 0.015147528 0.0057417788 0.048929464
0000d0 9f 41 34 3d 4f 36 ae bc 94 30 ee 3c 96 2c 9f 3c
       0.044007894 -0.02126613 0.029075898 0.01943044
0000e0 bb 12 c0 3c b4 bf 88 3d 42 ac 83 3d 80 ec a8 bd
       0.023446431 0.066771895 0.0642934 -0.08248234
0000f0 e3 22 99 ba 74 bd e3 3c d0 dd 88 3d cb 4d fc 3c
       -0.0011683371 0.0278003 0.066829324 0.030798813
000100 8b b8 7d 3c 74 45 bc bc c3 06 c4 3c d6 a7 8c 3c
       0.015485893 -0.022982337 0.023929005 0.017169874
000110 41 ed 87 bd ae b8 8f bd 10 d5 92 bd 71 e4 d2 bc
       -0.066370495 -0.07017647 -0.07169545 -0.025743695
000120 af 38 8d 3d 8a 4f 04 3d 4b 9c 94 bd a9 67 11 3b
       0.06895577 0.032302417 -0.07256373 0.002218703
000130 e1 b0 0a bd c6 69 80 3d b9 02 52 3d e1 51 29 3c
       -0.03386009 0.06270175 0.051272128 0.010334463
000140 76 53 1c bc 2f da 05 3c f8 86 2e 3b b9 cd ee 3b
       -0.009541383 0.008169695 0.002663074 0.0072877076
000150 07 db 91 3c 19 9d fd bc 09 9c e2 bc f5 72 73 bd
       0.017804636 -0.030958699 -0.027662294 -0.059435803
000160 38 68 c8 bc 48 bc ea 3b 62 e3 78 3d aa 00 f6 bc
       -0.024463758 0.007163558 0.060763724 -0.030029614
000170 b8 d0 9c bd cb 15 72 3d ce de 06 bc 5e 9f 3f bd
       -0.076569974 0.059102815 -0.008231832 -0.046782844
000180 7b 07 01 3d 5a c9 36 bc cb d5 87 bc ac 64 b4 3d
       0.031501275 -0.011156404 -0.016581437 0.08808264
000190 bb 69 5a bd 4f 03 e0 3c 18 2e 47 3d 58 7b 32 bd
       -0.05332349 0.027345328 0.048627943 -0.04357466
0001a0 2f 66 ab bc ce 20 43 bd fe 7c 90 3c b3 af 60 bd
       -0.020922748 -0.047638707 0.017637726 -0.05485506
0001b0 fd 76 85 3d b4 4e 9e 3d 07 d5 fa bc 22 43 4d 3d
       0.06516836 0.07729855 -0.030619157 0.05011285
0001c0 04 42 84 bd f3 7c b5 bb 3e 5f 0f 3d c8 cf 88 bd
       -0.06457904 -0.0055385767 0.03500294 -0.06680256
0001d0 bb e6 22 bd bf 5d 1c bd 00 ca 22 3c 3b 3c 9e ba
       -0.039770823 -0.03817534 0.009935856 -0.0012072393
0001e0 b5 bb 81 bd f4 ed 92 3d 64 01 9b bd ee 01 1b 3d
       -0.063346304 0.07174292 -0.075686246 0.037843637
0001f0 bb 4a 87 bc 45 33 65 bd 71 2f 7b 3c 4b d7 32 bd
       -0.016515126 -0.055957098 0.015331135 -0.04366235
000200 b6 17 21 bd 43 33 81 bd 92 6c 91 bd 75 92 81 bd
       -0.039329253 -0.063086055 -0.07100786 -0.063267626
000210 3f e2 a0 bd 96 d0 5d bc c3 d6 a7 3c 66 ae d2 3c
       -0.07855653 -0.0135385 0.020488149 0.025717925
000220 7c bb 90 3d d4 0c b1 3a 73 75 76 bb 4e 95 8a 3d
       0.0706701 0.0013507851 -0.0037606626 0.06766759
000230 4a 3a 14 3d 1c 5a 03 3d fa 58 5b bd 96 b0 3e 3c
       0.0361884 0.032068357 -0.05355165 0.011638781
000240 17 4b 8b bd dc 29 6a bd fb ca 89 3d 39 7e 80 bd
       -0.068014316 -0.057168826 0.067281686 -0.06274075
000250 74 a5 50 bd 49 3e 23 3b 67 0a d4 3c 83 7f d3 3a
       -0.05093904 0.002490895 0.025883866 0.0016136024
000260 c6 a5 6f 3c c7 7d ab 3d d2 26 58 bd 6b 0f 75 3d
       0.014626926 0.083735995 -0.052771397 0.059829157
000270 df 4e 69 3d 2e 24 28 bd 7f 3c f6 3b 3a 54 51 3d
       0.056959983 -0.04105013 0.007514536 0.051105715
000280 e1 d9 0a bd 00 0b 11 3d 6d 22 7a bc c9 ca 09 bc
       -0.03389919 0.03541088 -0.015266997 -0.008410164
000290 ee 7f 8b 3c 06 7f ac b8 3c 87 24 3d ef 0e 8f 3d
       0.017028775 -8.225259e-05 0.040168032 0.0698527
0002a0 ff 9f 08 bd 31 a3 b5 3d f8 57 29 3d c9 f7 8c bc
       -0.03335571 0.08869017 0.04134366 -0.017207997
0002b0 99 8c 4c bd 76 0e 11 bd 12 ca 25 3c e1 37 21 3d
       -0.049938772 -0.03541418 0.010118978 0.03935993
0002c0 cf db bb bc ca 3f ef ba 90 10 66 3d e3 69 29 3d
       -0.022931961 -0.0018253264 0.05616814 0.041360747
0002d0 83 fc ee bc 0a 3e a3 3d 6f 60 a9 ba 0e af da 3c
       -0.029173141 0.079708174 -0.0012922416 0.0266948
0002e0 79 bf 16 bd f3 a5 48 3d 19 28 8e 3d 65 e6 59 3b
       -0.036803696 0.048986387 0.06941242 0.0033248898
0002f0 0f 6e 87 bc de a7 b7 3c 90 3f 67 bd 88 82 c9 bc
       -0.016531972 0.022418913 -0.056457102 -0.024598375
000300 7d 5a ed 3c 37 27 e1 3a f1 11 89 3d df 21 94 3d
       0.028973812 0.0017177825 0.06692875 0.07233023
000310 69 44 84 3d 52 8f 7d 3d 46 34 59 bd 9d db 87 3c
       0.06458361 0.06190426 -0.053028367 0.016584212
000320 a5 3a a7 3c 51 81 3c 3d b2 47 c2 bc 0f 80 01 3d
       0.020413706 0.046021763 -0.023715828 0.031616267
000330 1e a2 ed ba bd a7 83 3d c0 40 fa bb be d1 2c bc
       -0.001812998 0.06428478 -0.0076371133 -0.010548053
000340 20 f1 b5 3c 56 bd d9 3b 5f 6f 06 3d 35 90 96 3d
       0.022209704 0.006644885 0.032821056 0.07351724
000350 0e 0f 5e bd d4 e4 58 3d d2 da 62 3c c3 69 bf bc
       -0.054213576 0.052952603 0.013846116 -0.02336586
000360 57 41 46 bd 18 79 94 bd 92 43 97 bd 5c 56 05 3d
       -0.048402157 -0.07249659 -0.07385935 0.03255306
000370 06 a8 72 3d 99 0b 66 3c 83 9a 30 3d b8 5c 73 bb
       0.05924227 0.014040851 0.043116104 -0.0037134122
000380 41 fb 8c bd 05 ca 57 3d e3 f1 97 3d 05 c7 77 bd
       -0.068838604 0.052682895 0.07419183 -0.060492534
000390 be 14 d6 bc 83 35 89 3d f1 39 f3 bc aa 64 6a bd
       -0.026132938 0.0669966 -0.029690715 -0.057224907
0003a0 1b 26 f6 3c bf 85 6c 3d 42 86 87 bd ef fc ff 3c
       0.030047467 0.057744738 -0.066174045 0.031248538
0003b0 d9 92 ea 3c 4d 94 4c bd c1 8e 6b 3d ad 2b 8a bd
       0.028634476 -0.04994612 0.057509188 -0.06746612
0003c0 8b ba fa bb 54 0b 2c 3a 01 a0 54 3d f8 84 0f 3d
       -0.007651632 0.00065629673 0.051910404 0.03503892
0003d0 a9 af 9a bd 9c 33 90 3d 72 7d 46 bd 19 57 2e bd
       -0.07553036 0.07041094 -0.048459478 -0.04256353
0003e0 9e df 5d b9 21 93 32 bd ba 86 2e 3d fb 7f 40 3d
       -0.00021159506 -0.043597344 0.042608954 0.04699705
0003f0 62 5a bd bc 5b 76 17 bc ce 05 31 3c 1b f4 0d bd
       -0.023114387 -0.009244527 0.010804607 -0.034656625

encoder_blocks.2.0.bias f4 [12]
000000 03 f1 89 bc d3 d4 8b 3d 91 ae 84 3c 68 9d ef 3d
       -0.016838556 0.068277024 0.016196521 0.11699945
000010 18 97 4a bc a7 a5 4a 3d 6d ec cf bd 59 27 3e 3d
       -0.012365125 0.049474385 -0.101525165 0.046424244
000020 49 4c e4 3c 4c 32 96 bd 15 bc 96 3d dd a1 b8 3d
       0.027868407 -0.07333812 0.073600926 0.09015248

encoder_blocks.2.2.weight f4 [12, 12, 13]
000000 d0 91 ab bc a9 6a a7 3d a8 52 30 3d 1b 1b 6e 3b
       -0.020943552 0.08174641 0.043047577 0.0036332074
000010 b2 7a 6d bd 5b 36 12 3a aa b2 b7 bc 7c ae 57 bd
       -0.05797834 0.00055775576 -0.02242406 -0.052656636
000020 c7 fd cb bc 28 a7 f9 bc 50 80 4b 3c ac c8 2e bd
       -0.024901284 -0.030475214 0.012420729 -0.042671844
000030 16 d6 69 3d a9 82 95 bc e7 4e 87 3c f6 84 6d 3d
       0.057088934 -0.01825078 0.016517116 0.05798813
000040 14 7e 13 3d f4 de 12 3d c1 77 7d bd ec af 9f 3d
       0.03600891 0.035857156 -0.061881784 0.07797226
000050 c3 5a b5 bc b9 63 a7 bc 79 73 84 bd 15 ae 31 3d
       -0.022138005 -0.020433294 -0.06467337 0.04337891
000060 5f 39 7a 3d 30 2c 04 bd 62 9d be bc bb a5 7e 3d
       0.06108987 -0.032268703 -0.023268405 0.06216977
000070 63 8d 88 bd 27 1b a3 bc 0c 35 8a 3c 27 83 3b 3d
       -0.066675924 -0.019910408 0.016870998 0.045779373
000080 68 11 4a bd 3d 78 32 bd 0f 51 a9 3d 2c 8e 9b bd
       -0.049333006 -0.0435717 0.08267414 -0.075954765
000090 aa 1e 5a bd fb 5a 48 3d b6 fe 8a bb d9 eb b4 3c
       -0.0532519 0.04891489 -0.0042417897 0.022085117
0000a0 1d 82 66 bd 02 05 2a bd 55 a3 15 bd 9a 95 79 3d
       -0.05627643 -0.041508682 -0.03653272 0.060933687
0000b0 f7 86 34 3d 62 99 9c bc 56 45 b3 b8 23 ab 2d 3b
       0.044074025 -0.019116107 -8.5483e-05 0.002649971
0000c0 84 55 ae 3c 20 38 2e bd d8 84 6c bd 0b a8 93 3d
       0.021281011 -0.042533994 -0.057743877 0.07209786
0000d0 20 e2 20 3b 9c b5 91 bd 14 e9 fe 3c be a7 62 bd
       0.0024548844 -0.07114717 0.031117 -0.055335753
0000e0 32 20 92 bc 38 47 74 bc c6 86 61 bd 80 14 c3 ba
       -0.017837618 -0.014909558 -0.05506017 -0.0014883429
0000f0 80 75 1e 3c 70 5f fa bb 60 a2 7b bb a0 d7 e4 bb
       0.009671569 -0.0076407716 -0.0038396344 -0.0069837123
000100 08 4c 7f 3c 35 c3 4d 3d 5d a3 6d bd 54 10 b0 3c
       0.015582092 0.050234992 -0.058017123 0.02149216
000110 2f 6c a8 3c dd c7 0f 3c e8 cd 32 3b c7 ff 52 bd
       0.020559398 0.008775678 0.0027283374 -0.05151346
000120 f8 45 37 3d 3b c8 4a 3d c0 57 51 3d bb dd 3f bd
       0.04474446 0.04950736 0.051109076 -0.046842318
000130 f6 b2 38 bd c6 30 d7 bb 9a 60 5f 3c 5b 02 58 bd
       -0.045092545 -0.0065670935 0.013633871 -0.05273662
000140 c1 27 23 bd 36 6b b6 bb 2a 6c 1b 3d 3c be f5 3c
       -0.039832834 -0.0055669798 0.03794495 0.029997937
000150 2e a3 13 3d d3 39 53 3c dc c1 ab bd de 13 69 3d
       0.036044292 0.012892204 -0.08386585 0.056903712
000160 e4 e3 73 bd da 71 4f bd 92 8e 9c 3b 6e 93 43 3c
       -0.059543505 -0.050645687 0.004777738 0.011937005
000170 d0 d2 03 3d f8 4c 24 3c 0b dc 82 3d b6 a1 e9 bc
       0.03218347 0.010028116 0.06389626 -0.028519493
000180 5e e1 bc 3b 26 53 af 3d 29 be 10 bd d7 04 94 3d
       0.0057641705 0.08560781 -0.0353376 0.072274856
000190 6e 9e be bb e1 41 ae 3d 31 c1 bc 3d 68 bd 82 bc
       -0.005817226 0.08508659 0.09216536 -0.015959457
0001a0 0a d7 1c bc dd ee 9b bd 32 39 80 3d 02 dc 96 3d
       -0.009572754 -0.07613919 0.06260909 0.07366182
0001b0 17 10 fc 3b 15 4a 87 bd 26 06 e3 3c a5 a6 5f 3d
       0.0076923477 -0.06605927 0.027712893 0.054602284
0001c0 48 74 b5 bc c0 ec 34 bc a3 e8 58 bd 1a d8 3e bd
       -0.022150174 -0.011042774 -0.052956235 -0.04659281
0001d0 3a fd 7a bc be b3 77 bd 4b ac 93 3d 93 c2 32 bd
       -0.015319163 -0.06047415 0.07210597 -0.04364259
0001e0 81 29 bd 3c 9c c4 a1 3d a8 7b 04 3d d0 60 83 bd
       0.02309108 0.078988284 0.03234449 -0.0641495
0001f0 f8 13 8e bc 52 39 9b bd b7 2d 88 bd a0 3d 56 bb
       -0.017343506 -0.07579292 -0.066493444 -0.003269054
000200 13 be a3 3c 1f 9f 5a 3d 4a 44 28 bd 43 a6 05 3d
       0.019988095 0.053374406 -0.04108075 0.032629263
000210 d7 90 53 bc 0b ab f3 3c 03 f0 24 3d 6b 42 88 bd
       -0.0129129505 0.029744646 0.040267956 -0.06653293
000220 bf b7 94 bc e2 4f 7f 3c 0c 3e 53 3d 77 eb 83 3a
       -0.018154023 0.01558301 0.051572844 0.0010064681
000230 e5 9f 6a 3d 7b 24 0f bd 89 ad 0a 3d a4 49 4c bd
       0.057281394 -0.0349469 0.033856902 -0.049874917
000240 7c f2 db bc ea ae d7 3c 75 4b 81 3b 8f 1d 95 bd
       -0.026849024 0.026328523 0.0039457628 -0.072810285
000250 28 41 7e bd 26 c8 a3 3d a6 62 22 3d 4c d5 b1 bc
       -0.062073857 0.0799716 0.03964486 -0.021708153
000260 7c 82 80 bd 60 a7 66 3c 24 a8 d2 bb e9 b8 2b bd
       -0.06274888 0.014077991 -0.0064287353 -0.04192439
000270 12 4e 81 3d f6 cc 65 bd b8 2d b3 3d 65 fb 56 bd
       0.06313719 -0.05610367 0.087489545 -0.052485842
000280 bb 35 20 3d e9 d3 9f 3d b4 b5 b2 bc 26 b4 34 3d
       0.03911374 0.078040905 -0.021815158 0.044117115
000290 78 a7 3c 3b 2a 17 41 3d 20 92 61 bc 1f 70 33 3d
       0.0028786343 0.04714123 -0.013767749 0.0438081
0002a0 3c 05 83 bc e6 58 f5 bc 1e 63 82 3d de 31 09 bc
       -0.015993707 -0.029949617 0.06366561 -0.008373706
0002b0 21 51 84 3d df 15 89 3b 32 cb 82 3d 5c 86 40 3d
       0.064607866 0.0041835154 0.06386413 0.047003135
0002c0 53 18 03 3d e5 af c4 bc 50 39 a4 bc 8c 9a 59 bd
       0.03200562 -0.024009654 -0.02004686 -0.053125903
0002d0 94 62 54 3d 8e 0b 46 3c 15 9e 05 3c f3 bf 35 bd
       0.051851824 0.012087716 0.0081553655 -0.04437251
0002e0 9c b0 18 bc e1 83 11 3c 53 dd 31 bb 6f 90 97 3c
       -0.009319451 0.00888154 -0.0027139976 0.018501488
0002f0 16 2c 3a 3d 1c 91 d5 3c f0 1c 06 bd b7 a2 30 3c
       0.0454522 0.02607017 -0.03274244 0.010780982
000300 97 dc 9d 3d 4f 27 6e bd 35 14 e4 bc a8 c9 31 bd
       0.0770809 -0.058142956 -0.027841667 -0.043405205
000310 e3 f4 9e 3d 80 d9 98 bd 3a 48 97 3d cb 75 35 bc
       0.07761552 -0.0746336 0.07386823 -0.011075447
000320 03 03 5f 3d 26 d0 8c 3d 60 98 96 bc 2f 95 5b 3d
       0.05444623 0.06875639 -0.018383205 0.05360907
000330 c4 3a 02 3d e7 27 0f 3d 0d 82 85 bd cb 67 7e 3b
       0.031794325 0.034950163 -0.06518946 0.003881919
000340 f2 fd 2f bd d0 49 91 3d 34 1e 18 bd 00 36 4b ba
       -0.04296679 0.07094157 -0.03713818 -0.0007751882
000350 e4 cb 09 bd 50 10 8f 3d 1c 1b 5d 3d 9c 1e 4e bd
       -0.03364171 0.06985533 0.05398093 -0.05032216
000360 cc 3f 73 3d 3e 1b 0e 3d 00 48 0c 38 cf c1 23 bd
       0.059387013 0.03469395 3.3445656e-05 -0.039979752
000370 80 23 5f 3b 9f c1 6f 3d b1 5f 7f 3c 37 b9 2a bb
       0.003404826 0.05853426 0.015586779 -0.0026050338
000380 5c b9 8c 3c 27 dc 95 3d ef a9 cb 3c 37 58 67 3d
       0.01717823 0.07317381 0.024861304 0.056480613
000390 80 8d c5 3c b9 1d e5 bc cc 56 b8 bc 27 8e 9b bd
       0.024115324 -0.027968274 -0.022502325 -0.07595473
0003a0 d9 a4 da bc 04 4c 81 3c ef 7f b5 3c 22 42 1b bd
       -0.026689934 0.015783317 0.02215573 -0.037904866
0003b0 05 f1 d2 3c b1 4c 43 bd aa 47 8a 3d 47 3b 95 bc
       0.025749693 -0.04768056 0.0675195 -0.018216742
0003c0 64 b4 b4 bc f8 3e 63 bd 7e 32 1d 3d 96 f2 a8 3d
       -0.022058673 -0.055479974 0.03837823 0.082493946
0003d0 5e 23 70 3c bf 3a 52 3d 28 5a 62 3c 54 98 b7 bd
       0.01465687 0.051325556 0.01381544 -0.08964601
0003e0 73 81 b2 bd cb f7 5c bc f2 38 18 3d 30 fa 53 bd
       -0.08716097 -0.013486813 0.037163682 -0.05175227
0003f0 7c cd ff 3a 0a d1 b0 3c cc f3 1a bd d3 51 ab bd
       0.0019516195 0.021584053 -0.03783016 -0.08365216

encoder_blocks.2.2.bias f4 [12]
000000 e5 b6 65 3d 19 9a 63 3d 96 c0 58 3b 56 40 2f bd
       0.056082625 0.05556688 0.0033073775 -0.042785965
000010 55 0a 88 bb 3a fa 3a 3d 19 8f e7 3d b4 a6 46 bd
       -0.0041516223 0.04564879 0.113065906 -0.048498824
000020 0d 07 58 3d 66 a9 5d 3d 92 1b d4 3d 7d e2 2e bd
       0.0527411 0.05411663 0.10356821 -0.042696465

encoder_blocks.3.0.weight f4 [12, 12, 13]
000000 5e 81 99 3d cc bd e5 3c 4a 93 33 bc c3 fd 46 bd
       0.07495378 0.028044604 -0.010960409 -0.04858185
000010 c9 15 82 bc 1a 48 41 3d a7 24 7f bd 59 cb 2b bd
       -0.015879529 0.047187902 -0.062290814 -0.041941974
000020 48 26 4a bd 86 ec 7c 3d 73 17 a1 3d 69 9c 3a bd
       -0.049352914 0.061749004 0.07865801 -0.04555932
000030 a4 4d 87 bd dd d2 64 bd 41 a9 8c 3d f1 8d ea 3c
       -0.06606606 -0.055865157 0.0686822 0.028632136
000040 60 e0 34 3d f5 6e ab 3c 06 e7 79 bc 0e e7 54 3d
       0.044159293 0.020926932 -0.015252834 0.051978163
000050 c1 49 95 bd 35 61 fd bc c1 2d 54 3a e7 16 18 bd
       -0.07289458 -0.030930141 0.0008093976 -0.037131216
000060 d0 5c d6 3c c0 06 90 3c 5d 08 49 3d d7 46 88 3d
       0.026167303 0.017581344 0.04908024 0.06654137
000070 08 42 72 3d ef 42 45 bc a6 0b 44 3c d8 1b 5e bc
       0.059145004 -0.012039884 0.011965668 -0.013556443
000080 c8 b5 2e bd 91 73 0c 3c 92 28 68 bd 79 e4 78 bc
       -0.04265383 0.008572475 -0.056679316 -0.015191191
000090 2c 8d 69 3b 4c 5c 84 3c 05 dc 86 3c e3 66 39 3d
       0.0035637124 0.016157292 0.016462335 0.045264136
0000a0 81 ab 35 bd f3 85 d2 3c 4c 8e 50 bc b2 ac 5f 3d
       -0.044353012 0.025698638 -0.012729239 0.054608054
0000b0 64 3e 74 3d 89 31 1d bd 6c ff 1e bc 0f ba fc 3c
       0.059629813 -0.03837732 -0.009704452 0.030850438
0000c0 f1 af 98 3d 9b f8 26 bd fa 89 cb 3c 6f 68 f7 bc
       0.07455433 -0.040764432 0.024846066 -0.030201165
0000d0 7c 03 89 bd 87 f0 2a 3d 79 89 78 bd af 68 20 3d
       -0.06690118 0.04173329 -0.06067798 0.039162334
0000e0 a9 9e 85 3d fc cf 16 3d 1e 5f 68 bd 88 9c 8b bd
       0.06524403 0.036819443 -0.056731336 -0.06816965
0000f0 b2 8c 4e bb e1 e1 6f 3c 83 ec 00 bd 10 c7 86 3c
       -0.0031516966 0.014641256 -0.031475555 0.016452342
000100 05 89 af bc 05 e9 91 bd 40 7f 2e bd 36 b9 bf bc
       -0.02142764 -0.07124523 -0.042601824 -0.023403745
000110 89 68 7e 3d 67 76 86 bd 2d 02 0a b8 f5 04 a7 3d
       0.06211141 -0.06565552 -3.290379e-05 0.08155242
000120 b3 77 ea 3b a8 56 4b 3c 2a 51 9e 3b ff b8 51 bd
       0.0071553825 0.012410797 0.004831453 -0.051201817
000130 61 77 19 3d 04 7f 31 3d 73 66 3b bd 93 0e ac 3b
       0.037467364 0.043334022 -0.045752 0.005250761
000140 fd 82 0f 3d 5e 9d 49 bd 34 c8 02 bd d3 17 1c bd
       0.03503703 -0.049222343 -0.03192921 -0.038108658
000150 d5 ef b9 bb 89 44 86 3d ed 2c af bd 25 90 81 3c
       -0.005674342 0.06556041 -0.08553491 0.015815804
000160 00 ea 95 bb 6b 1b d4 bc 2d 68 9a 3d d8 cb a3 3d
       -0.004575014 -0.02589198 0.07539401 0.079978645
000170 5f 7c 57 3d ed 9f f6 ba f4 d7 79 bd e7 92 82 bd
       0.052608844 -0.0018815972 -0.060996965 -0.06375676
000180 22 6f ea bb 45 6f 4a 3d 86 d4 16 3d 7e ab a4 3c
       -0.0071543613 0.04942252 0.036823772 0.020101305
000190 d8 b9 6e 3d f0 5b 2f 3c 76 60 74 3d 2e 9e 89 bd
       0.058282703 0.010703072 0.059662305 -0.067196235
0001a0 42 46 dd bc 8a df 00 3d 30 50 29 bc 79 0a 5b bd
       -0.02701104 0.031463183 -0.01033406 -0.053476784
0001b0 05 f5 e8 bc 32 0a b0 bb 90 69 51 3d f1 23 99 bd
       -0.028437147 -0.005372309 0.051126063 -0.074775584
0001c0 3c 85 6a 3c 4a 6d 89 bd 87 67 2e bd da cb 86 3d
       0.014313992 -0.06710298 -0.0425792 0.0658185
0001d0 e9 ef 31 bd 87 2f 91 bd 20 d7 94 bc e3 6a 8b 3d
       -0.043441687 -0.07089143 -0.018168986 0.068074964
0001e0 d6 18 ba bb 9e 91 a7 bb 40 91 49 bd 4b b6 9d bd
       -0.00567923 -0.0051137945 -0.049210787 -0.07700785
0001f0 9b 52 c6 3c 49 82 69 3b 31 fa e1 3b 62 44 87 bd
       0.024209311 0.0035630635 0.00689628 -0.0660484
000200 bc 8b 33 3d 74 65 62 bd 68 9c 44 bb b5 9a 98 bd
       0.043834433 -0.055272534 -0.0030000452 -0.07451383
000210 9d a4 c2 3b 8e ad 3a 3d e0 e2 11 3c 44 c7 8d bc
       0.0059400336 0.04557567 0.008904189 -0.017306931
000220 4c c5 83 bd 6d 42 18 3d ff 2c fe bc 7e b4 0c 3c
       -0.06434116 0.037172724 -0.031027315 0.008587955
000230 00 33 a2 bd bf 81 97 3d 94 2a ca bc bd 35 83 3d
       -0.07919884 0.07397794 -0.024678506 0.06406734
000240 77 00 02 3c c1 9a f8 bc 39 da 04 3d ef f2 a7 3d
       0.007934681 -0.03034723 0.032434676 0.08200633
000250 22 cf 02 bd 1e ef ce 3c e6 76 5d 3d 17 f3 83 bc
       -0.03193582 0.025260504 0.05406847 -0.016107125
000260 e7 19 49 3c 8d 8c ee 3c 78 c2 74 3d f5 0e 9e bd
       0.012274242 0.029119754 0.059755772 -0.077176966
000270 44 b8 b4 bc 21 f2 9f bc 72 76 2a bd d9 b9 b7 3d
       -0.022060521 -0.019524636 -0.041616865 0.089709945
000280 c8 ed b5 3d 0e f5 92 bd 59 5e dc 3d 2b ec 7f 3d
       0.08883244 -0.07175647 0.10760183 0.062481087
000290 c4 9b 7f bd fe 0d c9 3d a5 a0 ab 3c 6b 53 85 3d
       -0.06240441 0.09817122 0.020950625 0.06510051
0002a0 46 b8 4a 3d 31 ff ef bc bc 73 9b bd 72 8c 9d bd
       0.049492143 -0.02929649 -0.07590434 -0.076928034
0002b0 8f cf fa bb 33 59 01 3d a4 c7 89 bd 5d 10 4e 3b
       -0.0076541374 0.031579208 -0.067275316 0.0031442859
0002c0 4f f7 6c 3d 27 60 86 3d b2 dc cd bc 07 bb 07 3d
       0.05785304 0.06561308 -0.02512965 0.033137348
0002d0 ea 62 b0 3c 2a 1d a0 3d f5 22 07 3c 3e 33 c5 3c
       0.02153154 0.078180626 0.0082480805 0.024072286
0002e0 9a 7f 86 bd 80 c1 9d 3d 61 fb d2 bc 48 c8 79 3d
       -0.06567307 0.07702923 -0.025754632 0.06098202
0002f0 80 a7 5f bc aa 29 3a bd 5c de 2d bd 86 97 a0 3d
       -0.013650775 -0.04544989 -0.042448387 0.07841401
000300 d4 3a 1e bd 17 83 70 bd 7c 47 98 bb 9c b7 72 bd
       -0.03863032 -0.058718767 -0.0046471935 -0.059257135
000310 e8 9a 99 3c 43 f0 41 3d cc 29 9d 3b fd fd 49 3c
       0.018750623 0.047348272 0.0047962423 0.012328622
000320 66 53 ad 3c a5 59 74 3d 81 42 e9 bc 50 24 81 3d
       0.021157932 0.059655804 -0.028474094 0.06305754
000330 ed 52 f5 bc 74 e7 c6 bc 3e 08 85 bc 3c bd 8d 3d
       -0.029946769 -0.024280287 -0.016239282 0.06920859
000340 f4 ce 04 bd 06 21 65 3d 23 c4 94 bd 70 a7 38 3c
       -0.03242393 0.055939697 -0.072639726 0.011270389
000350 94 d0 40 bd 5e d9 98 3d b7 16 95 bd d1 6d 08 3d
       -0.047073916 0.074633345 -0.07279723 0.033307854
000360 d2 7e 2a 3d 65 64 f7 3c ce e5 0b bc fd 79 79 3d
       0.04162485 0.030199239 -0.008538676 0.060907353
000370 48 ca 50 3c 97 9c 8c bc 7d 79 e1 bc 92 5d 18 3d
       0.01274354 -0.017164512 -0.02752375 0.03719861
000380 f9 c3 70 bd 39 4f cc bc fc f4 7b 3d ca 66 63 bd
       -0.058780644 -0.02494012 0.061512932 -0.05551795
000390 ad 79 5f 3d bf b4 1f bd df f6 de 3c 87 38 60 bc
       0.0545594 -0.038990732 0.027217327 -0.013685352
0003a0 e6 9c 1a bc 8d 60 8f bc 5f 57 1f 3d dc 48 c3 3d
       -0.009436822 -0.017502094 0.038901683 0.09535381
0003b0 9b c6 01 bc 36 f7 a2 3d 77 b8 b9 3d 85 ac 8e 3d
       -0.007920886 0.07957308 0.09068387 0.06966499
0003c0 d6 0e 98 bc 2f aa 59 3d 65 8e 18 3d e8 d9 09 3c
       -0.018561762 0.053140815 0.037245173 0.008413769
0003d0 a0 03 91 3c 23 81 7d 3d e0 3f b3 3d c0 da 67 3c
       0.017701924 0.061890732 0.087524176 0.014151275
0003e0 74 f6 f2 3a 74 38 24 bb be ad c1 3b 9f f0 08 bd
       0.0018536584 -0.0025058063 0.0059106043 -0.0334326
0003f0 6f e4 82 3d 5c dd 1a 3c 4e 74 17 bb 9b 0b 9d bd
       0.063912265 0.00945219 -0.0023110094 -0.07668229

encoder_blocks.3.0.bias f4 [12]
000000 0a 35 46 bd 9a 46 6f 3d d0 ed b1 3d eb 8e b6 bc
       -0.048390426 0.05841694 0.08687937 -0.022284945
000010 bf b3 3b bd 56 ec ae 3d 3f ac d5 bc 3f 48 4d bd
       -0.045825716 0.08541171 -0.02608311 -0.050117727
000020 ac 92 b7 3b 24 84 a3 bd 7f 91 e2 3c 45 8d bd 3c
       0.0056022014 -0.07984188 0.027657269 0.023138652

encoder_blocks.3.2.weight f4 [12, 12, 13]
000000 d0 4c ce 3b ab a4 67 bd b7 18 53 bc 00 0e 5a 3d
       0.006295778 -0.056553524 -0.01288431 0.053236008
000010 04 ff 12 bd 40 d9 83 bd 65 3c 08 3d 2e f9 3c bc
       -0.035887733 -0.064379215 0.03326072 -0.011534018
000020 09 e5 52 bd 51 d1 24 bb ce 2f 41 bd 99 85 06 3d
       -0.051487956 -0.0025149176 -0.04716473 0.032842252
000030 59 07 00 bc 22 ae d8 3c 7f 79 50 bb 09 2b 2e bc
       -0.007814252 0.02645022 -0.0031810699 -0.010630378
000040 55 22 fd bc f9 cf 30 bd 5a 9d 24 3c cd 2b 85 bd
       -0.03090016 -0.04316709 0.010047281 -0.06502495
000050 17 03 71 3d 09 32 05 bd d9 66 13 bc 66 da 87 3d
       0.058840837 -0.03251842 -0.008996689 0.06633453
000060 c6 34 0c 3d cb 67 42 3d ce e0 82 ba e0 51 26 bd
       0.034230016 0.047462266 -0.000998521 -0.040605426
000070 9e fb f4 3c cc 9e 84 bd b8 0d d6 3c ac 7e 89 bd
       0.029905137 -0.064756006 0.026129588 -0.06713614
000080 47 71 4c 3d 6f df 5c bd 94 20 7a bb 03 c3 a1 3d
       0.049912717 -0.05392402 -0.003816639 0.07898524
000090 02 a8 74 3b 0a eb 73 ba 10 96 1c bd 41 d4 4f bd
       0.0037331586 -0.0009304738 -0.03822905 -0.05073953
0000a0 fa b0 77 3d 6d 0a 98 bd d7 41 70 3b 1d 76 9f 3c
       0.060471512 -0.074238636 0.0036660337 0.0194655
0000b0 b7 01 20 3d 3b 16 4c 3c 12 56 fe 3c 5b e3 fe bc
       0.039064135 0.012456472 0.0310469 -0.03111427
0000c0 a8 96 04 bd 37 b2 8b 3d 1f a9 8b bd 6b 38 9b 3b
       -0.03237024 0.06821101 -0.06819367 0.00473695
0000d0 87 ff 83 3d 1b fc 7f 3d a9 ba 47 3d 7d d2 45 bb
       0.06445222 0.062496286 0.048761997 -0.0030185275
0000e0 3d bf 94 bb da fa 3e bd ef 31 e1 3b 18 1c 38 3d
       -0.004539399 -0.04662595 0.0068724076 0.044948667
0000f0 96 f2 87 3d 44 61 4a bc d0 d7 c2 3c dd 3f d2 bc
       0.066380665 -0.0123522915 0.023784548 -0.025665218
000100 71 98 4d bd aa fa 01 bd 5e 99 05 bd 74 e5 a0 bd
       -0.050194208 -0.031733193 -0.032616965 -0.07856265
000110 01 c4 92 3d f5 9c 2b bd 72 a7 d6 bc 15 74 48 3d
       0.07166291 -0.041897733 -0.026202891 0.04893883
000120 80 d5 90 3d aa cf 73 3d 04 02 95 3d 58 ea 7b 3c
       0.07071972 0.059524216 0.07275775 0.015375696
000130 0a da 72 3d 2a ae 82 bd 16 bc aa bc b3 86 94 bd
       0.05928997 -0.063808754 -0.02084164 -0.07252254
000140 40 47 10 3d 98 0e 83 bd 9a fa 24 bd c8 3f 6b bd
       0.0352242 -0.06399268 -0.040278055 -0.057433873
000150 a9 f3 95 bd 0c 03 cd bb b3 a3 5b 3d 14 28 9e bd
       -0.07321865 -0.0062564667 0.053622913 -0.07722488
000160 88 0d 8c bc d2 eb 06 3d 26 33 25 3d 7e 69 36 bd
       -0.017096296 0.03293974 0.040331982 -0.0445342
000170 88 ee 71 3c 69 59 86 bd 9e 9f 9f 3d d8 32 14 3d
       0.014766343 -0.065600224 0.077941164 0.0361813
000180 9c 03 58 3d 68 0e a7 3c d4 b8 ef 3c b4 13 1f 3d
       0.052737817 0.020392612 0.029262938 0.03883715
000190 4e 34 a1 bc 71 3d 3b bd 06 5e 05 bd 28 92 0d 3c
       -0.019678261 -0.045712892 -0.03256037 0.008640803
0001a0 7a 07 35 3d 12 ea f7 bc 1a c0 91 3d 96 5a 86 3d
       0.044196583 -0.03026298 0.071167186 0.06560247
0001b0 74 c6 d5 bc 5c 1a 95 3d 3f 61 bb 3b 45 90 d9 bc
       -0.026095606 0.07280418 0.0057183797 -0.02655805
0001c0 c4 a7 9c 3c 4f 1d 89 3d 29 38 bb bc dd 05 4f 3d
       0.019122966 0.06695043 -0.022853928 0.0505427
0001d0 ba 01 ff ba 8f da c3 3b 99 a3 91 3a b3 2c 23 3d
       -0.0019455471 0.005976982 0.0011111378 0.03983755
0001e0 ea 64 91 3d 70 5d 8f 3c 6c 27 19 3d 8d 2c 6c bd
       0.07099326 0.01750061 0.03739111 -0.057659674
0001f0 b6 6e 6c 3d f0 cc 15 bc 1b 17 18 bb 4a 9b 78 bd
       0.05772277 -0.009143099 -0.0023207131 -0.06069497
000200 9f cc 8f 3d 5c eb 0f bd 38 59 9b 3d 3a 98 94 bc
       0.0702145 -0.035136566 0.075853765 -0.018138994
000210 8e 03 2b bd 6f 7c 77 bd b5 47 47 bd 55 79 4e 3d
       -0.041751437 -0.060421403 -0.04865237 0.05040868
000220 e3 ec 5f bd b7 c2 f8 bc 33 a9 6a bc c9 8b 89 bb
       -0.054669272 -0.030366285 -0.014322567 -0.004197572
000230 41 1e ea ba c6 65 2f 3c d8 e9 a2 bd 19 1c 63 3c
       -0.00178618 0.010705417 -0.079547584 0.0138616795
000240 df 32 2f 3d 58 80 b5 bc 9e fe 50 bd b2 8d 10 bc
       0.042773124 -0.022155926 -0.051024072 -0.008822845
000250 ae 1a 81 bd c3 cb 0b bd 82 ef 72 bc 63 3e f0 39
       -0.06303917 -0.03412987 -0.014827611 0.0004582285
000260 82 19 ce bc 13 e7 f1 3c bb 53 8d bc f6 13 d9 bc
       -0.025158647 0.02952913 -0.01725184 -0.026498776
000270 4f 02 ed 3b a9 dd 47 bd ae f3 33 3d da e1 9f 3c
       0.007232941 -0.048795376 0.043933563 0.019516874
000280 78 e0 a3 bc bd 1b 9b 3d 28 7e 94 3d 00 07 af bc
       -0.020004496 0.0757365 0.07250625 -0.021365643
000290 eb b7 95 3d 41 d5 98 3c 98 85 22 3c 13 c0 13 bd
       0.0731047 0.018656375 0.009919547 -0.036071848
0002a0 df 3b 58 3d c4 58 89 bc c8 22 28 3d 3d 05 a2 3c
       0.052791473 -0.01676596 0.041048795 0.019777888
0002b0 aa 3c 0c bd 41 c4 2d 3d f4 2f a2 bd 1a 1f 09 bd
       -0.03423754 0.04242349 -0.079193026 -0.033476926
0002c0 18 2f 9c bd be fb 8c 3d 41 18 15 bd c8 f4 8c 3b
       -0.0762617 0.068839535 -0.036400083 0.004301641
0002d0 b2 e0 34 bd f5 5f f2 bc 1d 79 bb 3c 20 d4 89 3d
       -0.0441596 -0.029586772 0.0228849 0.06729913
0002e0 06 0b 4b bd 83 a4 1b bd 8d e1 f4 bc bc d3 6a 3c
       -0.04957106 -0.037998687 -0.029892707 0.014332708
0002f0 5e af 68 bd 3b 5a bc bc 8c 2c 8b 3d e1 fe 58 3d
       -0.05680787 -0.022992244 0.06795606 0.052977446
000300 e2 32 d3 3b 45 2b 69 3d e9 53 d8 3c c2 2b 7e bc
       0.0064452747 0.05692603 0.026407199 -0.015513362
000310 e8 5f 14 3c 72 5d a6 bd 7d fa b3 3a 2c 78 fa bc
       0.009056069 -0.08123292 0.0013731268 -0.03057488
000320 bf e1 49 bd 5b 8e 11 3d 9a 68 9b 3d ea 61 25 bc
       -0.049287554 0.03553615 0.075883105 -0.010094145
000330 c3 d6 9e 3b 83 fd c9 3b 29 50 1a 3c 03 32 1d 3d
       0.004847379 0.006164254 0.009418526 0.038377773
000340 38 12 26 bd a0 85 23 bc 43 47 6d bd 37 dc 47 3d
       -0.04054472 -0.009980589 -0.05792929 0.048793998
000350 db fb 4b 3d 1d b1 5b bd d7 f2 6a bd 90 7d 9b 3b
       0.049800735 -0.053635705 -0.057360496 0.004745193
000360 ed 0f 7d 3d 98 5b 8c bc a0 64 57 bd 02 f9 3c 3b
       0.061782766 -0.017133519 -0.052586198 0.0028834944
000370 0e 99 0b bd c0 79 a5 3c 29 cf 03 3d 58 34 93 3c
       -0.03408151 0.020199656 0.032179985 0.017969295
000380 ad fa 16 3d f4 cf 0e bd 6c 6b 3a 3d cf 66 a0 bb
       0.036860157 -0.03486629 0.0455126 -0.0048950682
000390 ee c0 1c bc 55 92 42 bd a4 e0 8c bc ef a1 48 bd
       -0.009567482 -0.047502834 -0.01719696 -0.048982557
0003a0 92 ba da 3c 38 80 13 bd d7 56 56 bd 07 0f 8b bd
       0.026700292 -0.03601095 -0.05232891 -0.067899756
0003b0 e7 b2 92 bd 55 e0 ec bc 18 32 b9 3c 3a f8 31 bd
       -0.07163029 -0.028915564 0.022606894 -0.043449618
0003c0 e7 d1 c6 3c 76 0f 3e bd 4b 39 87 3d 9a 0a be bb
       0.024270011 -0.046401463 0.06602725 -0.0057996036
0003d0 fd 7d 4d bd 28 f6 7c 3d d1 05 6d bd bf 30 36 bd
       -0.05016898 0.06175819 -0.057866875 -0.04448008
0003e0 f0 94 3b 3c 20 f8 8f bb 70 5c 9f 3d 88 56 3a bc
       0.011449084 -0.0043935925 0.07781303 -0.01137317
0003f0 92 7c 92 3d 10 ae 28 3c 10 82 95 3d 64 dc 59 3d
       0.07152666 0.010295406 0.07300198 0.053188697

encoder_blocks.3.2.bias f4 [12]
000000 93 1c 9b bd 64 86 76 bd 52 be 98 bd 20 78 31 bd
       -0.075738095 -0.06018676 -0.07458176 -0.04332745
000010 d4 d2 b4 bc 26 72 f0 3c c2 94 85 3b 10 74 b2 3b
       -0.022073187 0.029351305 0.004076571 0.0054459646
000020 02 f1 17 3b 17 d6 8f 3d 77 2b 25 3d 4e e7 56 bb
       0.0023184423 0.07023256 0.040324654 -0.0032791677
