Python/save/localizer/trial_2/quake_localization_model_00060.pth (torch, 252994 bytes, 35 tensors)

encoder_blocks.0.weight f4 [12, 1, 13]
0	0x3e3ae801	0.18252565
1	0x3e4bb805	0.19894417
2	0x3e615d8d	0.22008343
3	0x3dae1d15	0.08501641
4	0x3e3c7317	0.18403278
5	0x3dd0ea3c	0.10200927
6	0xbddd2abf	-0.10799169
7	0xbd7dd30f	-0.06196886
8	0xbe55d8ec	-0.2088353
9	0xbe4a26a7	-0.19741307
10	0xbe46d747	-0.1941806
11	0x3db37c91	0.087639935
12	0xbdb13051	-0.08651794
13	0xbe590da1	-0.21196605
14	0xbe797272	-0.24360064
15	0xbe83ca21	-0.2574015
16	0xbdf9f1aa	-0.12204297
17	0x3dcaa5a4	0.09894875
18	0xbe2587e2	-0.16165116
19	0x3e8c2ce5	0.27378002
20	0xbe453bf8	-0.19261158
21	0xbcab0b22	-0.020879332
22	0x3d977fa4	0.073973924
23	0x3e312136	0.17297825
24	0x3e222cc4	0.15837389
25	0xbd360782	-0.044440754
26	0x3d8e47be	0.069472775
27	0xbdb80c69	-0.08986742
28	0x3d10aae6	0.03531923
29	0x3d866eb1	0.065640815
30	0xbe5f2348	-0.21790802
31	0xbe3f1f30	-0.18664241
32	0x3e1dd9ef	0.15415166
33	0xbd8d8ac0	-0.0691123
34	0xbdcc8830	-0.09986913
35	0xbdf2849f	-0.11841702
36	0xbb8c8d5b	-0.004289312
37	0xbde3698f	-0.11104118
38	0xbe7b57c4	-0.24545199
39	0x3da77a3a	0.0817761
40	0x3ce61d50	0.02809015
41	0xbe542e28	-0.20720732
42	0x3d9fc048	0.078003466
43	0xbe260618	-0.16213262
44	0xbe0805ee	-0.13283512
45	0x3da611bf	0.081088535
46	0x3d1c98b5	0.03823157
47	0x3d0b313f	0.03398251
48	0xbdb63376	-0.08896534
49	0x3b644ef1	0.0034837092
50	0x3e858c33	0.26083526
51	0xbe7f284b	-0.24917714
52	0x3d43a64b	0.04776601
53	0x3d3d3607	0.046194103
54	0xbdaef830	-0.08543432
55	0xbc07d8bc	-0.00829142
56	0xbe1120e8	-0.14172709
57	0xbdf3f478	-0.11911863
58	0xbe0c2c06	-0.13688669
59	0x3e361b6d	0.177839
60	0xbd18109c	-0.037125215
61	0x3dfbe1f6	0.12298958
62	0xbc43f682	-0.0119606275
63	0xbe0b29da	-0.13590184
64	0xbe2bdee1	-0.1678424
65	0xbdb4eefb	-0.088346444
66	0x3e71dde6	0.23619804
67	0x3dc6aaca	0.09700544
68	0xbcf4b4ee	-0.02987143
69	0xbd67bdaa	-0.056577362
70	0x3d9b6f91	0.07589639
71	0x3e61fb69	0.22068562
72	0xbe6fc7e0	-0.2341609
73	0x3d9ffc35	0.078117765
74	0x3e1977e0	0.14987135
75	0xbe4638e7	-0.19357644
76	0x3e5f0ca5	0.21782167
77	0x3e308619	0.17238654
78	0xbde35c1c	-0.11101553
79	0x3cbb67a2	0.022876564
80	0x3e01781b	0.12643473
81	0x3dd5a26b	0.104313694
82	0x3d88932f	0.06668698
83	0xbcfb45cf	-0.030672936
84	0xbdad4be3	-0.0846174
85	0x3e78c960	0.24295568
86	0x3e15409e	0.14575431
87	0x3e107fa5	0.14111193
88	0xbe87edca	-0.26548606
89	0x3df18cce	0.117944345
90	0xbe1a7505	-0.15083702
91	0x3dc3c5ce	0.095592126
92	0xbdca7786	-0.098860785
93	0xbd4050c0	-0.04695201
94	0x3dd49159	0.10379285
95	0xbe4d0ae5	-0.20023687
96	0x3e89dc8b	0.26926073
97	0x3e4e5a35	0.20151599
98	0xbdac4c1a	-0.08412953
99	0x3e088246	0.13330945
100	0xbe283a1c	-0.16428417
101	0x3c0dff31	0.008666799
102	0x3e608676	0.21926293
103	0x3c74bc23	0.014937433
104	0xbe2aa22c	-0.16663426
105	0xbc9bef6b	-0.019035062
106	0xbd28be13	-0.041196894
107	0xbd9ae73c	-0.07563636
108	0x3e2d16d9	0.16903247
109	0x3e46e203	0.19422154
110	0x3e3f0f3c	0.18658155
111	0x3e8101b1	0.25196603
112	0x3e2099d5	0.15683682
113	0x3e3f498d	0.18680401
114	0x3e664152	0.22485855
115	0xbe058473	-0.13038807
116	0x3e19069f	0.14943932
117	0x3e866df7	0.26255772
118	0xbdabf630	-0.08396566
119	0xbe47a113	-0.19495039
120	0xbe5c1742	-0.21493247
121	0x3ab39e4b	0.0013703791
122	0xbe33eaf9	-0.17570104
123	0xbe4b3efa	-0.19848242
124	0x3e0a58e7	0.13510476
125	0x3e514152	0.20435074
126	0xbe3b74cf	-0.18306278
127	0x3e86bfc6	0.26318187
128	0x3d5e5d7b	0.05428837
129	0x3dd4e245	0.1039472
130	0x3e8dc38c	0.27688253
131	0xbe5b02ac	-0.21387738
132	0x3e88cb7a	0.2671774
133	0x3cd89661	0.026438894
134	0xbd0457bb	-0.03231023
135	0x3e4f28da	0.20230427
136	0x3df9fa19	0.122059055
137	0x3cb30056	0.021850746
138	0xbd1b8969	-0.03797284
139	0xbd533ce7	-0.051571753
140	0xbbd7cc96	-0.006585668
141	0xbddb55f3	-0.10709753
142	0xbe3c5268	-0.1839081
143	0x3d9ac543	0.07557156
144	0x3e152832	0.14566115
145	0xbe5399ee	-0.20664188
146	0xbd66fd60	-0.05639398
147	0xbe6703e1	-0.22560073
148	0xbe8ad509	-0.27115658
149	0x3db300bd	0.08740375
150	0xbe6fc6f0	-0.23415732
151	0xbddd5588	-0.108073294
152	0xbe2c48f6	-0.16824707
153	0x3e6ac29b	0.22925799
154	0xbe3e6d84	-0.18596464
155	0xbdfc1030	-0.12307775

encoder_blocks.0.bias f4 [12]
0	0xbe1ddd87	-0.15416537
1	0x3d2f2123	0.04275621
2	0x3e7fa309	0.24964537
3	0xbdfa5cc6	-0.122247264
4	0x3e887a0f	0.26655623
5	0xbe6ec8ac	-0.23318738
6	0x3d2b3afe	0.041804306
7	0x3dc915ff	0.098186485
8	0x3d6d4841	0.057930235
9	0xbda247fb	-0.079238854
10	0x3cc09040	0.023506284
11	0x3dd0fc9c	0.102044314

encoder_blocks.1.0.weight f4 [12, 12, 13]
0	0xbc7ce04a	-0.015434334
1	0x3d54a59a	0.051915742
2	0x3d863f2c	0.06555018
3	0xbccfdc3e	-0.025373574
4	0xbd473acd	-0.04864006
5	0x3d607318	0.054797262
6	0xbd303029	-0.04301468
7	0x3c8ad3c5	0.016946683
8	0xbd3a34a9	-0.045460377
9	0xbcc4fe9b	-0.024047187
10	0xbd0322a7	-0.03201547
11	0x3d57446d	0.05255549
12	0x3c1f6a81	0.009729982
13	0x3d6b1a13	0.057397913
14	0xbd44660f	-0.047948893
15	0xbc9a6a3f	-0.01884949
16	0xbd4c7200	-0.049913406
17	0x3c90cae7	0.017674876
18	0x3c2934e1	0.010327549
19	0xbd568e9d	-0.0523821
20	0xbcb3bc20	-0.02194029
21	0xbd90b934	-0.07066575
22	0xbcb7b040	-0.02242291
23	0xbcae2c4e	-0.02126136
24	0xbd3f7470	-0.046741903
25	0x3d293b79	0.041316483
26	0xbb31c3b6	-0.002712471
27	0x3d85bc03	0.06530001
28	0xbb65f1e6	-0.003508681
29	0x3bedab13	0.0072530597
30	0xbd68b9a8	-0.05681768
31	0xbd89097c	-0.06691262
32	0x3d9724ad	0.07380042
33	0xbd9ef587	-0.077616744
34	0x3d74b49b	0.05974255
35	0xbc58acc2	-0.013224782
36	0x3d56b0b3	0.052414607
37	0x3da371d9	0.07980699
38	0x3d8f519a	0.06997986
39	0xbda26376	-0.07929127
40	0x3d185482	0.037189968
41	0xbd8814c2	-0.06644584
42	0x3d06fa1a	0.03295336
43	0x3cfecabd	0.031102533
44	0x3d8974fc	0.06711766
45	0x3d6ac7be	0.057319395
46	0x3c9e9eb8	0.019362792
47	0xbd6efe38	-0.05834791
48	0xba2181a8	-0.0006160983
49	0xbd9de82e	-0.077103004
50	0xbd8d0582	-0.06885816
51	0x3d753fda	0.059875347
52	0x3c0d3d14	0.008620519
53	0x3d3b31df	0.045701858
54	0x3b515238	0.0031939875
55	0xbd8fb492	-0.07016863
56	0x3d8d1610	0.06888974
57	0x3d39eec8	0.045393735
58	0xbcc7c61e	-0.024386462
59	0x3c23aae9	0.009989479
60	0x3c0fcfa0	0.008777529
61	0xbc229cb1	-0.009925053
62	0xbd5ccc8e	-0.053906016
63	0x3cb53386	0.022119295
64	0xbc9c3830	-0.019069761
65	0x3d26a1c3	0.04068161
66	0xbd0b04aa	-0.033939995
67	0x3cde17cc	0.027110957
68	0x3c1ae8bc	0.009454902
69	0xbd3728fb	-0.044716816
70	0xbd7499a2	-0.05971683
71	0xbd4f24d2	-0.050572224
72	0x3d790bb0	0.06080216
73	0xbd921514	-0.071329266
74	0x3d33ee3f	0.04392838
75	0x3d96c8a7	0.0736249
76	0x3cf2a7a2	0.02962095
77	0xbd478875	-0.04871412
78	0x3d08e9cd	0.033426095
79	0xbda2d360	-0.07950473
80	0x3b0f797b	0.0021892476
81	0x3d4cff25	0.050048012
82	0x3da1ba1f	0.07896828
83	0xbd4bdd74	-0.04977174
84	0xbd7ed3a2	-0.062213548
85	0x3c5789ea	0.01315544
86	0xbd3bb3c3	-0.04582573
87	0x3c89bfa1	0.016815009
88	0x3d79c60e	0.060979895
89	0x3d8a9abd	0.06767795
90	0x3ca81865	0.020519445
91	0xbd3191ae	-0.04335182
92	0x39f71474	0.0004712675
93	0xbd0428c9	-0.03226546
94	0xbd3c7aea	-0.046015657
95	0xbc88d059	-0.01670091
96	0xbd13193d	-0.03591274
97	0xbd60ec14	-0.05491264
98	0x3d86d773	0.065840624
99	0x3d4c5696	0.049887262
100	0xbd8a56bd	-0.06754825
101	0xbbef6fbe	-0.007307022
102	0xbcab91eb	-0.020943603
103	0x3b0c82fc	0.0021440377
104	0x3d897efa	0.06713672
105	0xbcc98ee2	-0.024604265
106	0x3be15925	0.006877082
107	0xbd9df7dc	-0.07713291
108	0x3cedc02d	0.0290223
109	0xbd39e3bb	-0.045383196
110	0x3cb4ab3c	0.022054307
111	0xbd0ab282	-0.033861645
112	0xbc228c64	-0.009921167
113	0x3d3124b2	0.043247886
114	0x3d0d8b79	0.03455684
115	0x3d6eeece	0.05833321
116	0x3d8f19f0	0.06987369
117	0xbc8ce651	-0.017199667
118	0xbd04b906	-0.032403015
119	0xbcae3498	-0.021265313
120	0x3c33d338	0.010975651
121	0x3d03ffce	0.032226376
122	0xbd31db57	-0.04342207
123	0xbd9aab47	-0.075522
124	0xbd9165a2	-0.07099463
125	0xbc2a5828	-0.010396995
126	0xbcb5f6bf	-0.022212384
127	0xbc854952	-0.016270313
128	0xbd08faae	-0.03344219
129	0xbd73f1d6	-0.059556805
130	0xbcf14ba9	-0.029455023
131	0x3bb00941	0.005372197
132	0xbd9048e0	-0.0704515
133	0x3cad82d0	0.02118054
134	0xbd155971	-0.03646225
135	0x3d8978ad	0.0671247
136	0xbc86c4b7	-0.016451223
137	0x3bea89fc	0.0071575623
138	0xbd2b6af6	-0.041850053
139	0xbbf6f75e	-0.0075368127
140	0xbd7d6d82	-0.061872013
141	0xbd27e27a	-0.04098747
142	0xbc9d1ea6	-0.019179653
143	0xbcb53f8d	-0.02212503
144	0x3d35c9c4	0.04438187
145	0xbca21ef8	-0.019790158
146	0xbc83e3af	-0.016099779
147	0x3d815cc5	0.063165225
148	0xbd8681ae	-0.06567703
149	0x3c886e33	0.01665411
150	0xbd18ddad	-0.03732078
151	0x3ce5c1d4	0.028046526
152	0x3d0c4f17	0.034255113
153	0xbd320ed0	-0.043471158
154	0x3d311d8f	0.04324108
155	0xbd98edda	-0.074672416
156	0xbd00b5ef	-0.031423505
157	0x3d281f1f	0.041045304
158	0xbd861af2	-0.06548108
159	0x3d30a34c	0.043124482
160	0x3cf9601f	0.030441342
161	0xbd95539b	-0.07291337
162	0xbd7c8b7f	-0.06165647
163	0x3d338ab7	0.04383346
164	0x3d91db0e	0.071218595
165	0x3d8f88d6	0.07008521
166	0xbd5c6ac3	-0.053812753
167	0x3d628b44	0.055308595
168	0x3d736023	0.059417855
169	0xbd982fd7	-0.07431
170	0xbd765af6	-0.06014534
171	0x3d27ec39	0.040996764
172	0x3d8e72d2	0.06955494
173	0x3d6f9146	0.058488153
174	0x3d86dd76	0.06585209
175	0x3d1d4c68	0.038402945
176	0x3d9c6a93	0.07637515
177	0x3cb6cc43	0.022314196
178	0xbc17df7f	-0.009269594
179	0x3cfbf4f8	0.030756459
180	0xbd615a0d	-0.05501752
181	0x3d856365	0.065130986
182	0xb9fd9e46	-0.00048373843
183	0x3c14deae	0.009086294
184	0x3da2484f	0.07923948
185	0x3d95e42f	0.07318913
186	0x3b01c262	0.00197997
187	0xbd0a7141	-0.033799414
188	0xbd4ab50c	-0.049489066
189	0xbd45ea7e	-0.048319332
190	0x3d38b2df	0.04509246
191	0xbcefd512	-0.029276405
192	0xbd89b9b4	-0.06724873
193	0x3d1646ee	0.036688738
194	0x3da40b09	0.08009917
195	0x3c1c0699	0.009523057
196	0x3c340053	0.010986405
197	0x3c838545	0.016054759
198	0x3cdbe60b	0.026843091
199	0x3c88d9ba	0.016705383
200	0xbd0c2c96	-0.034222208
201	0xbd82c729	-0.06385643
202	0xbcbf5695	-0.023356715
203	0x3cb09a04	0.021557815
204	0xbcd87ea5	-0.026427576
205	0x3d9dc708	0.07703978
206	0xbcb1d70a	-0.021708984
207	0x3d8f0cfc	0.069848984
208	0xbd16063d	-0.036627043
209	0xbd553720	-0.052054524
210	0xbd14c872	-0.036323972
211	0xbd7b6349	-0.061373983
212	0x3c4c7f97	0.012481592
213	0xbc049e46	-0.008094376
214	0x3d4fe457	0.05075487
215	0xbd902b10	-0.070394635
216	0x3b75a46a	0.0037482032
217	0xbcd11101	-0.025520803
218	0x3d3f97af	0.046775516
219	0xbc05419e	-0.00813332
220	0x3c80349a	0.015650082
221	0x3d8a81ea	0.067630604
222	0x3a5075fb	0.0007952151
223	0x3b953112	0.004552969
224	0x3d4a4945	0.04938628
225	0x3bc74bbe	0.006082027
226	0x3c2d6cb1	0.010584996
227	0x3bc8fd3f	0.006133705
228	0x3cd9f6eb	0.026606997
229	0x3d320328	0.04346004
230	0xbcb60bba	-0.022222389
231	0xbd1e61a5	-0.03866734
232	0xbd055a30	-0.032556713
233	0x3d30ca8a	0.043161906
234	0x3cde5514	0.027140178
235	0xbcd5d956	-0.02610461
236	0x3d908058	0.0705573
237	0xbd875c4d	-0.06609402
238	0xbd64bfc2	-0.055846937
239	0x3d99d85d	0.07511971
240	0x3ce4edd9	0.027945446
241	0x3d575c42	0.05257822
242	0xb7a9f80a	-2.0261872e-05
243	0xbd89a5a8	-0.067210495
244	0xbc74bec7	-0.014938063
245	0x3ca14a5d	0.01968878
246	0xbd3fb1a1	-0.04680026
247	0xbd9a8ac0	-0.07545996
248	0xbd009edb	-0.031401496
249	0xbce49fdd	-0.02790826
250	0x3d587318	0.052844137
251	0x3d8a3df7	0.067501
252	0xbd6b1881	-0.057396416
253	0x3bbe0a34	0.005799556
254	0xbc6333c7	-0.013867325
255	0xbaa9f9d4	-0.0012968131

encoder_blocks.1.0.bias f4 [12]
0	0x3ca60e0f	0.020270376
1	0x3b76de55	0.0037669141
2	0xbd805dae	-0.06267868
3	0x3d7222e2	0.059115298
4	0xbda5dc72	-0.08098687
5	0x3c8b1437	0.016977413
6	0xbd1bdd8d	-0.038053084
7	0xbc83b78c	-0.016078733
8	0x3d6e46be	0.058172934
9	0x3d9fceac	0.078030914
10	0x3d854779	0.06507773
11	0x3cdb1ab0	0.026746124

encoder_blocks.1.2.weight f4 [12, 12, 13]
0	0x3d4edcae	0.050503425
1	0xbd50ca42	-0.050974138
2	0x3d40512a	0.046952404
3	0x3d9e1374	0.07718554
4	0x3d482f78	0.048873395
5	0x3d0587fd	0.03260039
6	0x3bc96282	0.0061457762
7	0xbab7cf08	-0.0014023492
8	0xbc86f8f3	-0.01647613
9	0xbcffc7c0	-0.031223178
10	0xbb698aa8	-0.0035635624
11	0xbc3d4b63	-0.011553618
12	0x3d7ac4e5	0.06122293
13	0xbd6d319f	-0.05790865
14	0x3c848380	0.016175985
15	0xbc33e253	-0.010979253
16	0x3a0d5eb4	0.0005392835
17	0x3d3da6ec	0.046301767
18	0x3d963a94	0.07335392
19	0xbd8caa64	-0.06868437
20	0x3d99ade5	0.07503871
21	0xbd672bf7	-0.056438413
22	0x3d9e49dc	0.07728931
23	0xbca093f9	-0.019601809
24	0x3d607974	0.054803327
25	0x3d6cb158	0.057786316
26	0xbd53ee1b	-0.051740747
27	0xbd9c3726	-0.07627706
28	0x3d33d260	0.0439018
29	0x3c3a162a	0.011357823
30	0xbc4c6f26	-0.012477672
31	0xbd0c6287	-0.03427365
32	0xbda2f659	-0.07957143
33	0xbd597ed6	-0.053099476
34	0x3d93a8f4	0.072099596
35	0x3cdceb60	0.026967704
36	0x3d50d94e	0.050988488
37	0xbd121bda	-0.035671093
38	0x3d12ad75	0.035809953
39	0x3c010f06	0.007877117
40	0xbcfd55ef	-0.030924765
41	0xbbe1c76b	-0.0068902276
42	0x3d044fc8	0.032302648
43	0xbc8e8914	-0.017399348
44	0x3d4dc210	0.0502339
45	0x3b91ed24	0.004453318
46	0xbd48b205	-0.048997898
47	0x3c8a299d	0.016865546
48	0x3c91349a	0.017725278
49	0xbd823106	-0.06357007
50	0xbd795b54	-0.060878113
51	0x3d92c814	0.07167068
52	0x3d7f830f	0.062380847
53	0x3c8135ad	0.015772665
54	0xbd607b49	-0.054805074
55	0xbd43d329	-0.0478088
56	0x3c7470c0	0.01491946
57	0xbc0e0322	-0.008667739
58	0x3aee0d1b	0.0018161865
59	0x3d900527	0.07032233
60	0x3ceb233a	0.02870332
61	0xbcae9ba9	-0.021314459
62	0xbd665cf6	-0.056241
63	0x39cc1c91	0.00038931196
64	0x3cbfb884	0.023403414
65	0x3d8bb3db	0.06821414
66	0xbd21b9dd	-0.039483894
67	0xbd87af21	-0.066252
68	0x3c5e37bb	0.013563092
69	0xbd7c657c	-0.06162022
70	0x3d74524a	0.05964879
71	0xbcb19625	-0.02167804
72	0xbd987e2a	-0.07445939
73	0xbd934409	-0.07190711
74	0xbc2ba1eb	-0.010475616
75	0x3d2962a6	0.041353844
76	0xbd2d0614	-0.042242125
77	0xbbdd5827	-0.0067548933
78	0xbc4143c8	-0.011795945
79	0x3d1f12c5	0.03883626
80	0x3d110684	0.035406604
81	0xbce9e0cb	-0.028549572
82	0x3c166c10	0.009181038
83	0x3cff58af	0.031170217
84	0xbbe438d7	-0.0069647836
85	0xbcabac5c	-0.02095621
86	0x3caed742	0.021342877
87	0x3c6a4179	0.014297836
88	0xbd7744d7	-0.060368385
89	0x3d4649b7	0.048410144
90	0xbcee8b54	-0.029119171
91	0x3d98df08	0.07464415
92	0xb9d859bc	-0.00041265588
93	0x3d194676	0.037420712
94	0x3c90870d	0.017642522
95	0x3d98493e	0.07435845
96	0xbb8b7db4	-0.0042569283
97	0x3c6853e0	0.014180154
98	0xbd9a9e9e	-0.07549785
99	0x3cb10fe8	0.02161403
100	0x3c2642e5	0.010147785
101	0xbd453682	-0.048147686
102	0xbd958de9	-0.07302458
103	0x3d9521ed	0.072818615
104	0xbd97bcb8	-0.07409042
105	0x3d3de319	0.046359155
106	0xbc3111f0	-0.010807499
107	0xbc3774c3	-0.011197272
108	0xbd8fe0ec	-0.07025322
109	0x3d00bd5c	0.031430587
110	0x3d025ff2	0.03182978
111	0x3cc8ebf0	0.024526566
112	0xbccdac63	-0.025106614
113	0x3cc35188	0.023842588
114	0xbcfd5d76	-0.030928355
115	0x3cee1295	0.029061595
116	0x3ab40b17	0.0013736215
117	0x3d4c6db7	0.04990932
118	0xbcc96e12	-0.024588618
119	0xbb53d8fc	-0.0032325378
120	0xbd832e2e	-0.064052925
121	0x3d3ee879	0.046608422
122	0x3d967a09	0.07347495
123	0x3d77a7eb	0.060462873
124	0xbda13088	-0.07870585
125	0x3d69f66a	0.057119764
126	0xbc79ff9d	-0.015258697
127	0xbbe6187b	-0.0070219613
128	0x3d221ad9	0.039576385
129	0x3d2c1946	0.04201629
130	0xbd26ffd1	-0.04077131
131	0xbccfe95e	-0.025379833
132	0x3d6c39a0	0.057672143
133	0xbd6e178e	-0.058127932
134	0x3d322651	0.043493573
135	0xbd276803	-0.040870678
136	0xbd589f2b	-0.05288617
137	0x3d9fa0d6	0.07794349
138	0xbd538ad3	-0.051646065
139	0xbd149005	-0.03627016
140	0x3d9a9ccd	0.075494386
141	0xbd691499	-0.05690441
142	0x3d94f01b	0.07272359
143	0xbd96c065	-0.07360915
144	0xbca9cb29	-0.020726757
145	0xbcbf3ace	-0.02334347
146	0x3da04521	0.07825685
147	0x3ceddfc5	0.029037366
148	0xbd03ad67	-0.03214779
149	0x3d8ab671	0.06773079
150	0x3c9f017f	0.019409893
151	0x3d9091d1	0.07059062
152	0x3cc3aaab	0.023885092
153	0x3d74ed10	0.059796393
154	0x3d99b70f	0.07505619
155	0xbd0d707d	-0.034531105
156	0x3b7f1834	0.0038924338
157	0xbc11d069	-0.0088997865
158	0xbd7a2bae	-0.061076812
159	0xbd8684ef	-0.06568324
160	0xbc6b3f19	-0.014358305
161	0xbda234f6	-0.07920258
162	0x3cabcf6c	0.02097293
163	0xbd4b29ae	-0.049600296
164	0xbc808cf0	-0.015692204
165	0x3d14656e	0.036229543
166	0x3d4471e3	0.047960173
167	0xbcc1d49b	-0.023660949
168	0xbd039970	-0.03212875
169	0xbd9e0edf	-0.0771768
170	0xbcd6bcb9	-0.026213037
171	0x3cb955c2	0.0226239
172	0xbc3ec41d	-0.011643437
173	0x3d77269a	0.060339548
174	0x3da68266	0.0813034
175	0x3c60cf75	0.013721337
176	0x3d1fce07	0.039014842
177	0x3d91ee09	0.0712548
178	0x3b445108	0.0029955525
179	0xbda10a89	-0.078633375
180	0x3d7960c7	0.06088331
181	0xbd881572	-0.06644715
182	0xbd4b3643	-0.049612295
183	0x3c710fc5	0.014713232
184	0x3d862826	0.065506265
185	0x3cfcc1b9	0.030854093
186	0xbc29c981	-0.010362984
187	0x3d7459ab	0.059655827
188	0xbda575f1	-0.08079136
189	0x3d9e81fd	0.07739637
190	0xbc247888	-0.0100385025
191	0x3d035b16	0.03206929
192	0xbc5317e9	-0.012884119
193	0x3d97fc9d	0.07421229
194	0x3b3cc086	0.0028801276
195	0xbd06dfb7	-0.032928195
196	0x3b9a5a44	0.0047104675
197	0xbb7e323a	-0.0038787262
198	0x3d50a9c4	0.05094315
199	0xbd07d616	-0.033163153
200	0xbd6b5b8a	-0.057460345
201	0x3b9a2fe9	0.0047054184
202	0xbd88305b	-0.06649848
203	0xbd3dd66f	-0.046347078
204	0x3d912ffb	0.0708923
205	0x3d1163d1	0.035495583
206	0xbd754fbc	-0.059890494
207	0x3c2b16dd	0.010442463
208	0x3d535872	0.05159802
209	0xbceebf8d	-0.029144073
210	0x3a520329	0.0008011335
211	0xbd60a127	-0.054841187
212	0xbd1f6292	-0.038912363
213	0x3d97c8d9	0.074113555
214	0xbd83355e	-0.06406663
215	0x3da40036	0.08007853
216	0xbc1bef35	-0.009517481
217	0xbce7443a	-0.028230775
218	0x3cb57711	0.022151502
219	0x3ce8db2d	0.028424824
220	0xbd12150f	-0.035664614
221	0x3d8fbbd0	0.07018244
222	0x3d760d21	0.060071114
223	0xba9e3aa5	-0.0012071921
224	0xbca2a87a	-0.019855727
225	0xbd95d6cb	-0.07316359
226	0x3d40c3c9	0.047061715
227	0x3d1327b4	0.035926536
228	0xbd89beac	-0.06725821
229	0x3d942ae0	0.0723474
230	0x3d4b2350	0.049594223
231	0x3d2df466	0.042469405
232	0xbd9572e0	-0.07297301
233	0x3d89c62f	0.06727254
234	0xbc41ebc8	-0.011836
235	0x3b8d18dd	0.0043059424
236	0xbd3c7de4	-0.046018496
237	0xbc123a93	-0.008925098
238	0xbcad2ff3	-0.021141028
239	0x3c0cac74	0.008586038
240	0x3d824621	0.06361032
241	0xbd6505ac	-0.055913612
242	0x3c8f0dc0	0.017462611
243	0x3c7f2adb	0.015574182
244	0x3cdd5a67	0.027020646
245	0x3d14ce3d	0.036329497
246	0xbd99d3c8	-0.07511097
247	0x3caf8d46	0.02142967
248	0xbca0c601	-0.019625666
249	0x3d52ac27	0.05143371
250	0x3c9d15d1	0.019175442
251	0xbd5f82db	-0.054568153
252	0x3d1c5d29	0.038174782
253	0x3d8f5751	0.06999076
254	0xbd6a97b7	-0.057273593
255	0xbd6633c2	-0.056201704

encoder_blocks.1.2.bias f4 [12]
0	0xba3ac8c7	-0.0007125255
1	0xbb819f8b	-0.0039557866
2	0x3d8fe683	0.070263885
3	0x3cd5a517	0.026079698
4	0x3ca20a0c	0.019780181
5	0xbd0dbd51	-0.034604374
6	0xbd3594f6	-0.044331513
7	0xbd9b4eb0	-0.07583368
8	0x3d2b98af	0.041893657
9	0x3d402e11	0.046918932
10	0x3d744818	0.059639066
11	0xbc8ef844	-0.017452367

encoder_blocks.2.0.weight f4 [12, 12, 13]
0	0x3d9ba77b	0.07600304
1	0xbc5d0e8c	-0.013492238
2	0x3ce755fe	0.028239246
3	0x3d4834de	0.048878543
4	0x3c0a61d6	0.0084461775
5	0x3d081aaa	0.033228554
6	0x3d9cab0d	0.07649813
7	0x3d0db180	0.034593105
8	0x3c957090	0.01824215
9	0xbda39cb6	-0.079888746
10	0x3d31d568	0.04341641
11	0xbd9478bb	-0.0724959
12	0x3d50a3af	0.05093735
13	0xbd949c97	-0.0725643
14	0x3d88b430	0.06674993
15	0xbd152091	-0.03640801
16	0xbbfb36e1	-0.007666454
17	0x3c6570ad	0.014003915
18	0xbd912564	-0.0708721
19	0xbc929149	-0.017891543
20	0x3d22f7aa	0.039786972
21	0xbda0e228	-0.07855636
22	0x3ce58f49	0.028022425
23	0xbae30ce3	-0.0017322566
24	0x3d2dbe21	0.04241765
25	0xbd840f56	-0.064482376
26	0x3d4791fa	0.0487232
27	0xbd20719b	-0.039170843
28	0xbd8719b3	-0.065966986
29	0xbd299adb	-0.041407447
30	0x3d1285ac	0.03577201
31	0x38e2d314	0.00010815836
32	0xbd724087	-0.05914357
33	0xbd0ae51b	-0.0339099
34	0x3caec009	0.021331804
35	0xbd551b55	-0.05202802
36	0x3c1bd7ce	0.009511901
37	0x3b4ab404	0.0030930052
38	0x3d73eb99	0.059550855
39	0x3d1a112e	0.03761404
40	0xbda6e9b9	-0.08150048
41	0xbc3b642c	-0.011437457
42	0x3d714873	0.058906984
43	0x3d0eb3fb	0.03483961
44	0x3c71ecfc	0.014765974
45	0xbadb7068	-0.0016741874
46	0xbd07dde6	-0.033170603
47	0xbd7291aa	-0.059220947
48	0x3da01731	0.078169234
49	0x3c13bc57	0.009017072
50	0x3b931728	0.0044888444
51	0x3d3c4dad	0.045972515
52	0x3d2ce9ef	0.042215284
53	0xbce6bd12	-0.028166328
54	0x3d29f5a2	0.04149402
55	0x3c55f12f	0.013057991
56	0x3ccd9394	0.025094785
57	0x3d7d92a5	0.06190743
58	0x3d502c8c	0.050823733
59	0xbd94bedb	-0.07262965
60	0xbc24e131	-0.010063455
61	0x3ce23054	0.027610935
62	0x3d6e981a	0.058250524
63	0x3ca01f09	0.019546049
64	0xba74cf82	-0.00093387824
65	0xbcd0ddac	-0.025496326
66	0x3cb687f5	0.022281626
67	0x3c6d50bc	0.014484581
68	0xbd887296	-0.066624805
69	0xbd8d64bd	-0.0690398
70	0xbd99a007	-0.07501226
71	0xbceaf2c0	-0.028680205
72	0x3d82589e	0.06364559
73	0x3cc65900	0.02421236
74	0xbd9fe796	-0.078078434
75	0xbb34d2cf	-0.0027591472
76	0xbd2f7d75	-0.042844255
77	0x3d6ff00b	0.058578532
78	0x3d2f7e99	0.042845342
79	0xbbb6ba40	-0.005576402
80	0xbc199a10	-0.00937511
81	0x39b831f4	0.00035132433
82	0xbab3981c	-0.0013701948
83	0xbb86fc70	-0.0041194484
84	0x3ca3e6de	0.020007547
85	0xbd3111c9	-0.043229852
86	0xbd109bb9	-0.03530476
87	0xbd7eb040	-0.062179804
88	0xbd147f4c	-0.036254212
89	0x3bb95c9f	0.0056567932
90	0x3d3fba6b	0.04680864
91	0xbd348d97	-0.044080343
92	0xbd90fca7	-0.070794396
93	0x3d5f8f53	0.054580044
94	0xbc0603c6	-0.008179611
95	0xbd4b5dde	-0.049650066
96	0x3cb5dc3b	0.02219974
97	0xbc4f3b0d	-0.012648356
98	0xbce158ef	-0.027508227
99	0x3d981a93	0.07426944
100	0xbd6f002e	-0.05834978
101	0x3c82fbaf	0.015989153
102	0x3d3e8ae8	0.04651919
103	0xbd2ec5d2	-0.042669125
104	0xbc8226bb	-0.015887609
105	0xbd3559c2	-0.044275053
106	0x3cc23656	0.02370755
107	0xbd6aaf65	-0.057296176
108	0x3d90cbdf	0.07070135
109	0x3d9dcac7	0.07704692
110	0xbcf8364e	-0.030299332
111	0x3d5f9f50	0.05459529
112	0xbd8d0d42	-0.06887294
113	0xbc392889	-0.011301168
114	0x3cf0d94e	0.029400494
115	0xbd7ac802	-0.0612259
116	0xbd31afbe	-0.04338049
117	0xbd0e4e62	-0.03474272
118	0x3c24682d	0.010034603
119	0xbc2beb0d	-0.010493052
120	0xbd7e2210	-0.062044203
121	0x3d9440d3	0.07238927
122	0xbd96fcc3	-0.07372429
123	0x3d3b8ceb	0.045788687
124	0xbc8f183c	-0.01746761
125	0xbd815bf5	-0.063163675
126	0x3c8e5d0c	0.017378353
127	0xbd1e7b29	-0.038691673
128	0xbd0c1490	-0.034199297
129	0xbd486f06	-0.048934005
130	0xbd929e79	-0.071591325
131	0xbd7e125b	-0.062029224
132	0xbd972ca5	-0.07381562
133	0xbbf9b6bf	-0.007620662
134	0x3c9082e6	0.017640542
135	0x3cd7800c	0.026306175
136	0x3d8b1589	0.06791217
137	0x3b391a34	0.0028244378
138	0xba3efe92	-0.0007285859
139	0x3d78e80d	0.060768176
140	0x3d1b4521	0.037907723
141	0x3cd6e8a7	0.026233984
142	0xbd6c9f15	-0.0577689
143	0x3b95c7b0	0.0045709237
144	0xbd850469	-0.06494982
145	0xbd659d5a	-0.056058265
146	0x3d900f5e	0.07034181
147	0xbd88cca4	-0.06679657
148	0xbd5c15a7	-0.053731587
149	0x3b92142a	0.00445797
150	0x3cb4aae9	0.022054153
151	0xbb2e826d	-0.0026628033
152	0x3c6f3503	0.014600041
153	0x3d981b03	0.07427027
154	0xbd618f09	-0.05506805
155	0x3d6fcbb1	0.058543865
156	0x3d5ca9c0	0.053872824
157	0xbd26630f	-0.040621813
158	0x3b99197f	0.004672229
159	0x3d4ebe14	0.05047424
160	0xbd1681f1	-0.036745016
161	0x3d095133	0.033524703
162	0xbc885ac1	-0.016644837
163	0xbc4ba56f	-0.012429579
164	0x3c7da2d4	0.015480716
165	0xba1d12ad	-0.00059918576
166	0x3d1f0868	0.038826376
167	0x3d8ab2d7	0.06772392
168	0xbd13cbf8	-0.03608319
169	0x3da0f17e	0.07858561
170	0x3d32d7b4	0.04366274
171	0xbcc24d89	-0.023718612
172	0xbd3151d9	-0.043290947
173	0xbd2abab6	-0.041681968
174	0x3c7757c2	0.015096607
175	0x3d177ac5	0.036982317
176	0xbcbcd768	-0.023051932
177	0xbbcfdc86	-0.006343427
178	0x3d72898a	0.0592132
179	0x3d2ce876	0.04221388
180	0xbcfaa860	-0.030597866
181	0x3d968bad	0.0735086
182	0xbb6fc8c2	-0.0036588167
183	0x3cd46b85	0.025930176
184	0xbd458441	-0.04822183
185	0x3d2d9a42	0.04238344
186	0x3d84fd4c	0.06493625
187	0xba4e7be1	-0.0007876736
188	0xbcad4b50	-0.021154076
189	0x3c66a435	0.014077236
190	0xbd800156	-0.06250255
191	0xbcd1ea30	-0.025624365
192	0x3cf7f929	0.030270176
193	0xbba051a8	-0.0048925467
194	0x3d7b42fe	0.061343186
195	0x3d848ebb	0.06472536
196	0x3d779160	0.060441375
197	0x3d6d4652	0.05792839
198	0xbd6fae21	-0.05851567
199	0x3c5c23a7	0.013436235
200	0x3c4b4dbe	0.012408672
201	0x3d2c32db	0.042040687
202	0xbcdf4c6b	-0.027258119
203	0x3cd81090	0.026375085
204	0xbbf20df4	-0.0073869172
205	0x3d7ad034	0.061233714
206	0xbc4d149f	-0.0125171235
207	0xbc80f245	-0.015740523
208	0x3c971594	0.018442906
209	0x3b8804c9	0.004150961
210	0x3d006506	0.031346343
211	0x3d9cb574	0.07651797
212	0xbd7ba34b	-0.061435025
213	0x3d50ae03	0.0509472
214	0x3b49eeec	0.0030812575
215	0xbc6d37bc	-0.01447862
216	0xbd5722f0	-0.052523553
217	0xbd96f3b6	-0.07370703
218	0xbd9a988c	-0.07548627
219	0x3ce68e3a	0.02814399
220	0x3d5aeece	0.0534504
221	0x3c71d350	0.0147598535
222	0x3d2cfe6e	0.04223483
223	0xbb857925	-0.0040732794
224	0xbd8dff67	-0.0693348
225	0x3d542a5a	0.051798202
226	0x3d9ac683	0.07557394
227	0xbd7dbed8	-0.06194958
228	0xbcde47df	-0.02713388
229	0x3d83ec3f	0.06441545
230	0xbd062140	-0.032746553
231	0xbd6d19c4	-0.0578859
232	0x3ce63b42	0.028104428
233	0x3d609ae3	0.05483521
234	0xbd94d8c9	-0.07267911
235	0x3d0c9817	0.03432473
236	0x3cf9afa2	0.030479256
237	0xbd3c2c7a	-0.045940854
238	0x3d620264	0.05517806
239	0xbd8a5a07	-0.067554526
240	0xbbfbdd9d	-0.0076863305
241	0x3b7a3b6f	0.0038182398
242	0x3d43c281	0.047792915
243	0x3d16f00b	0.036850017
244	0xbd9db1fc	-0.076999635
245	0x3d85e559	0.06537885
246	0xbd35a199	-0.044343565
247	0xbd1f2db0	-0.03886193
248	0xbb4605fa	-0.0030215965
249	0xbd3a5215	-0.045488436
250	0x3d282954	0.04105504
251	0x3d36449d	0.04449903
252	0xbc9deb80	-0.019277334
253	0xbc0571d8	-0.008144818
254	0x3c80a7cb	0.01570501
255	0xbd1ce375	-0.038302857

encoder_blocks.2.0.bias f4 [12]
0	0x3acf133f	0.0015798582
1	0x3d125600	0.035726547
2	0x3abd1d86	0.0014428354
3	0x3d9c3c2c	0.076286644
4	0xbc4a9718	-0.012365125
5	0x3cd6b8b3	0.026211118
6	0xbd846073	-0.06463709
7	0x3cdea132	0.027176473
8	0x3d2551cd	0.040361214
9	0xbd909604	-0.07059863
10	0x3d40bd57	0.04705557
11	0x3d66fcd5	0.056393463

encoder_blocks.2.2.weight f4 [12, 12, 13]
0	0xbcaadba6	-0.02085669
1	0x3d8725ff	0.06599044
2	0x3d5dc61b	0.054144006
3	0x3ba83122	0.00513281
4	0xbd440c9e	-0.047863595
5	0x3c4bfc94	0.012450356
6	0xbcf47493	-0.029840743
7	0xbd59e066	-0.05319252
8	0xbcec46db	-0.02884238
9	0xbd59dad5	-0.05318721
10	0x3ce2b79f	0.027675448
11	0xbd32ad60	-0.043622375
12	0x3d80db77	0.062918596
13	0xbc97968b	-0.018504402
14	0x3bfa740d	0.007643229
15	0x3d59a8a3	0.05313934
16	0x3d03232b	0.03201596
17	0x3d149af8	0.036280602
18	0xbd7f7b65	-0.062373538
19	0x3d9cc321	0.076544054
20	0xbcdb4a31	-0.026768776
21	0xbce98eaf	-0.02851042
22	0xbd8a420e	-0.0675088
23	0x3d17bfe3	0.03704823
24	0x3d5a97d8	0.053367466
25	0xbd168c59	-0.03675494
26	0xbcf38465	-0.029726217
27	0x3d53950d	0.051655818
28	0xbd89fa18	-0.06737155
29	0xbce66dd7	-0.028128548
30	0x3c5f86d9	0.01364299
31	0x3d5f18cf	0.05446702
32	0xbd24a9ad	-0.040200878
33	0xbd49f78c	-0.049308345
34	0x3d9489e5	0.07252864
35	0xbd797376	-0.060901128
36	0xbd269a78	-0.040674657
37	0x3ce9fc19	0.028562592
38	0xba623b28	-0.0008630031
39	0x3cc44664	0.023959346
40	0xbd7537ad	-0.05986755
41	0xbd353945	-0.04424407
42	0xbd1b3b65	-0.03789844
43	0x3d7db3e8	0.06193915
44	0x3d15ade3	0.036542784
45	0xbcb3bd8c	-0.021940969
46	0xbc1e845c	-0.009675112
47	0xbbe6946b	-0.007036736
48	0x3c5f33e0	0.013623208
49	0xbd420a85	-0.047373313
50	0xbd8a02fb	-0.0673885
51	0x3d82fb5c	0.06395599
52	0x3b20e220	0.0024548844
53	0xbd91b59c	-0.07114717
54	0x3cfee914	0.031117
55	0xbd62a7be	-0.055335753
56	0xbc922032	-0.017837618
57	0xbc744738	-0.014909558
58	0xbd6186c6	-0.05506017
59	0xbac31480	-0.0014883429
60	0x3c1e7580	0.009671569
61	0xbbfa5f70	-0.0076407716
62	0xbb7ba260	-0.0038396344
63	0xbbe4d7a0	-0.0069837123
64	0x3c7f4c08	0.015582092
65	0x3d4dc8f4	0.050240472
66	0xbd6ed189	-0.058305297
67	0x3c9bccc3	0.019018536
68	0x3c9104fa	0.017702568
69	0x3c047adc	0.008085933
70	0x3ae92c0a	0.0017789614
71	0xbd614c11	-0.055004183
72	0x3d2cf859	0.04222903
73	0x3d4ca37d	0.049960602
74	0x3d438237	0.047731604
75	0xbd51cf9b	-0.05122338
76	0xbd4d3c4a	-0.050106324
77	0xbc719951	-0.014746026
78	0x3c728556	0.014802298
79	0xbd593fc2	-0.05303932
80	0xbd4b512f	-0.04963797
81	0x3c5aaf1f	0.013347416
82	0x3d424023	0.047424447
83	0x3cfb4e5d	0.030677015
84	0x3d410366	0.04712238
85	0x3c3c39ad	0.01148836
86	0xbd872e06	-0.06600575
87	0x3d8ba07a	0.06817718
88	0xbd56f497	-0.052479353
89	0xbd514f4a	-0.051101007
90	0x3bdddfaa	0.0067710476
91	0xbc823862	-0.015896026
92	0x3b54a8d0	0.0032449253
93	0xbd125676	-0.035726987
94	0x3d3812b4	0.04493971
95	0xbd8315ed	-0.064006664
96	0x3c1ff296	0.009762427
97	0x3d314414	0.043277815
98	0xbd84ac5a	-0.06478186
99	0x3d2f42d1	0.04278833
100	0xbd366d0b	-0.044537585
101	0x3d306747	0.043067243
102	0x3d5f3c5c	0.054500923
103	0xbd00cb4b	-0.031443875
104	0xbc81c4a7	-0.015840841
105	0xbd818e35	-0.06325952
106	0x3d906e51	0.07052291
107	0x3d858dec	0.0652121
108	0xbbc76d60	-0.0060860366
109	0xbd743d7e	-0.059628956
110	0x3ca2ff94	0.01989726
111	0x3d8ac953	0.06776681
112	0xbd06e6b0	-0.032934844
113	0xbcb958bf	-0.022625325
114	0xbd7f14e8	-0.062275797
115	0xbd3db76b	-0.0463175
116	0xbc84c404	-0.016206749
117	0xbd839ace	-0.06426011
118	0x3d88fc0d	0.066887
119	0xbd3cbb6f	-0.046077188
120	0x3ca5ba84	0.02023054
121	0x3d99b950	0.07506049
122	0x3d06f18e	0.03294521
123	0xbd8d7b1e	-0.06908248
124	0xbc94ffe6	-0.018188428
125	0xbd9ef518	-0.07761592
126	0xbd878abb	-0.066182576
127	0xbb10e3ef	-0.0022108515
128	0x3ca75581	0.020426514
129	0x3d4fb683	0.050711166
130	0xbd40a167	-0.047028925
131	0x3ccf30cc	0.025291823
132	0xbc951bfe	-0.018201824
133	0x3ce6f36b	0.028192243
134	0x3d24006c	0.040039465
135	0xbd8ff157	-0.07028454
136	0xbcc517ed	-0.02405926
137	0x3c4433c6	0.011975234
138	0x3d419695	0.047262747
139	0x37a117c6	1.9203766e-05
140	0x3d5b657e	0.053563587
141	0xbd1b5627	-0.03792396
142	0x3ce65524	0.02811677
143	0xbd54c65a	-0.051946975
144	0xbce326e7	-0.027728511
145	0x3c83c3d8	0.016084597
146	0x3be9dab6	0.007136668
147	0xbd93b4f5	-0.07212249
148	0xbd67d48a	-0.056599177
149	0x3d9fb59e	0.077983126
150	0x3d0fda7e	0.03512048
151	0xbce319f5	-0.027722338
152	0xbd81c6b3	-0.06336727
153	0x3bec57c9	0.0072126132
154	0xbbd114e4	-0.006380664
155	0xbd3bd004	-0.045852676
156	0x3d627297	0.055285063
157	0xbd430ff1	-0.047622625
158	0x3d9234d3	0.07138982
159	0xbd578f0e	-0.052626662
160	0x3d02df2f	0.031951126
161	0x3d82a8af	0.0637983
162	0xbcaa0cb1	-0.020758005
163	0x3d4ae716	0.049536787
164	0x3c06f52f	0.008237167
165	0x3d28425c	0.04107891
166	0xbc2da0a8	-0.0105973855
167	0x3d0d4d41	0.034497503
168	0xbba1cca3	-0.0049377247
169	0xbd13caac	-0.036081955
170	0x3d797435	0.06090184
171	0xbc2cef7e	-0.010555146
172	0x3d6a145e	0.05714833
173	0x374fcd17	1.2385913e-05
174	0x3d642bba	0.055705763
175	0x3d24d7c8	0.040244848
176	0x3d0192ad	0.03163402
177	0xbd02e1e8	-0.031953722
178	0xbc919381	-0.01777053
179	0xbd582f1e	-0.05277931
180	0x3d446f56	0.04795774
181	0x3c4c0bc9	0.012453982
182	0x3c28c3c9	0.010300585
183	0xbd44d364	-0.04805316
184	0xbc367998	-0.011137389
185	0x3c17a5e9	0.009255865
186	0xbbcfa362	-0.0063366154
187	0x3c4976a3	0.012296352
188	0x3d540e28	0.051771313
189	0x3c909146	0.017647397
190	0xbce4c8dd	-0.02792781
191	0x3be956f5	0.007120962
192	0x3d91b35f	0.071142904
193	0xbd604b6c	-0.054759428
194	0xbce0c28f	-0.027436523
195	0xbd464788	-0.04840806
196	0x3d92a321	0.071600206
197	0xbd8971ac	-0.06711134
198	0x3d9244b2	0.07142009
199	0xbc9ac86a	-0.018894393
200	0x3d5e89d2	0.054330654
201	0x3d847c97	0.06469076
202	0xbcbd3c8f	-0.023100166
203	0x3d3d648e	0.046238475
204	0x3cbdfc25	0.023191521
205	0x3d104c18	0.03522882
206	0xbd8dafc3	-0.069182895
207	0x3b2c3368	0.0026275758
208	0xbd2ffdf2	-0.04296679
209	0x3d9149d0	0.07094157
210	0xbd181e34	-0.03713818
211	0xba4b3600	-0.0007751882
212	0xbd09cbe4	-0.03364171
213	0x3d8f1050	0.06985533
214	0x3d5d1b1c	0.05398093
215	0xbd4e1e9c	-0.05032216
216	0x3d733fcc	0.059387013
217	0x3d0e1b3e	0.03469395
218	0x380c4800	3.3445656e-05
219	0xbd23c1cf	-0.039979752
220	0x3b5f2380	0.003404826
221	0x3d6132ba	0.054980017
222	0x3c5af57e	0.013364194
223	0xbbcf3c33	-0.006324315
224	0x3c4fd1ff	0.012684344
225	0x3d8ed76b	0.069746815
226	0x3c9970c6	0.018730532
227	0x3d598f19	0.053114984
228	0x3c945e13	0.018111264
229	0xbd0493ec	-0.03236763
230	0xbcd3e596	-0.025866311
231	0xbd9e9535	-0.07743303
232	0xbcf3db8e	-0.029767778
233	0x3c8a06ce	0.016848948
234	0x3c5403c2	0.012940349
235	0xbd2f7d7e	-0.042844288
236	0x3cc20743	0.023685103
237	0xbd474c08	-0.048656493
238	0x3d753c91	0.059872214
239	0xbca04c4e	-0.019567635
240	0xbcc91aa1	-0.02454883
241	0xbd8af5be	-0.06785153
242	0x3cd59ab0	0.026074737
243	0x3d98cdc8	0.07461125
244	0xbad6da0a	-0.0016391885
245	0x3d3163df	0.043308135
246	0x3c6157ca	0.013753841
247	0xbd98b4f1	-0.07456387
248	0xbdaa3388	-0.0831061
249	0xbc214b08	-0.009844549
250	0x3c4d3818	0.012525581
251	0xbd5e2d45	-0.05424239
252	0xbc933739	-0.017970668
253	0x3d66e9f5	0.056375463
254	0xbc8d6f43	-0.017264968
255	0xbda71460	-0.08158183

encoder_blocks.2.2.bias f4 [12]
0	0x3d28a262	0.041170485
1	0x3d44fd74	0.048093274
2	0xbcdd3a6f	-0.027005402
3	0xbcf06bd1	-0.029348286
4	0x3c1539b2	0.009107994
5	0x3d186764	0.037207976
6	0x3d9c6b1a	0.076376155
7	0xbd401bca	-0.0469015
8	0x3cede39c	0.029039197
9	0x3ccd3bd9	0.025052952
10	0x3daad189	0.08340747
11	0xbd69c2e3	-0.057070624

encoder_blocks.3.0.weight f4 [12, 12, 13]
0	0x3d9380a7	0.07202273
1	0x3cf23ab8	0.029569015
2	0xbc6eff5d	-0.014587251
3	0xbd5b9b5e	-0.053614967
4	0xbc1aefa2	-0.009456547
5	0x3d31ba6d	0.04339068
6	0xbd872584	-0.065989524
7	0xbd3267c8	-0.043556005
8	0xbd3760b9	-0.044769976
9	0x3d6f8618	0.05847749
10	0x3d9d2df8	0.076747835
11	0xbd48dc29	-0.049038086
12	0xbd81aa62	-0.06331326
13	0xbd6a5369	-0.057208452
14	0x3d8a7f35	0.06762544
15	0x3ce7b4ac	0.028284393
16	0x3d347783	0.044059288
17	0x3cab811e	0.020935591
18	0xbc809dec	-0.015700303
19	0x3d554a66	0.052072905
20	0xbd942141	-0.07232905
21	0xbcfb2a31	-0.030659767
22	0x3ab71564	0.0013968167
23	0xbd168690	-0.036749423
24	0x3cdbb877	0.026821358
25	0x3c95d6e4	0.018290944
26	0x3d387408	0.04503253
27	0x3d831d6a	0.06402095
28	0x3d6f3088	0.058395892
29	0xbc5037a3	-0.012708577
30	0x3c4912bc	0.012272533
31	0xbc6569b5	-0.014002253
32	0xbd2ba0a3	-0.041901242
33	0x3c0e6f51	0.008693532
34	0xbd6096fe	-0.054831497
35	0xbc5f90fc	-0.013645407
36	0x3b8bc324	0.004265206
37	0x3c807b2e	0.015683737
38	0x3c80f6bd	0.015742654
39	0x3d3d8921	0.046273354
40	0xbd3d5e2c	-0.046232387
41	0x3ccab77a	0.024745692
42	0xbc3a0d39	-0.011355692
43	0x3d727e18	0.059202284
44	0x3d6f8977	0.058480706
45	0xbd1e763c	-0.038686976
46	0xbc09a7a9	-0.00840179
47	0x3d0564cf	0.03256684
48	0x3d9836d2	0.07432331
49	0xbd270087	-0.040771987
50	0x3cdd7986	0.027035486
51	0xbcfd8ca8	-0.03095086
52	0xbd8b6b42	-0.06807567
53	0x3d262dbb	0.040570956
54	0xbd7af669	-0.06127015
55	0x3d1e88c8	0.038704664
56	0x3d84fa12	0.064930096
57	0x3d1b04cb	0.037846368
58	0xbd683035	-0.0566866
59	0xbd8a2ad9	-0.06746454
60	0xbb489b46	-0.0030610128
61	0x3c76edcf	0.015071346
62	0xbcff8df2	-0.031195614
63	0x3c823f42	0.015899304
64	0xbcaca0bf	-0.021072743
65	0xbd94efce	-0.072723016
66	0xbd37523e	-0.044756167
67	0xbccabb74	-0.024747588
68	0x3d7f27e9	0.06229392
69	0xbd861773	-0.06547441
70	0x39ef1d20	0.00045607332
71	0x3da61fe7	0.08111554
72	0x3bf1dcbc	0.00738105
73	0x3c589377	0.013218752
74	0x3b9aa124	0.0047189165
75	0xbd5243df	-0.05133426
76	0x3d1cbc59	0.03826556
77	0x3d31b496	0.04338511
78	0xbd4e2dcb	-0.05033664
79	0xbbadffd8	-0.00531004
80	0x3d25859a	0.040410616
81	0xbd2ba977	-0.04190966
82	0xbce2eedf	-0.027701793
83	0xbd162f4e	-0.036666207
84	0xbc11a146	-0.008888548
85	0x3d8c7901	0.06859017
86	0xbd99c7ff	-0.07508849
87	0x3c9b1b88	0.018934026
88	0xbb1c57b4	-0.0023855986
89	0xbcd1e4ae	-0.025621738
90	0x3d9ab61d	0.075542666
91	0x3da0f3d7	0.07859009
92	0x3d58a04b	0.052887242
93	0xbb65ae91	-0.0035046677
94	0xbd7ab94b	-0.061211865
95	0xbd87510d	-0.06607256
96	0xbc26db96	-0.010184189
97	0x3d49241b	0.0491067
98	0x3d1cbd8a	0.038266696
99	0x3caa0f81	0.020759346
100	0x3d6b8b3d	0.057505835
101	0x3c42c7dd	0.011888471
102	0x3d725df8	0.059171647
103	0xbd844244	-0.06457952
104	0xbcdf3207	-0.027245535
105	0x3cff7312	0.0311828
106	0xbc299b91	-0.010352031
107	0xbd5d8545	-0.054082174
108	0xbceef78e	-0.029170778
109	0xbbb3afe8	-0.005483616
110	0x3d525549	0.051350866
111	0xbd99a2a5	-0.07501725
112	0x3c722e7e	0.014781592
113	0xbd8917db	-0.06694003
114	0xbd2f2209	-0.042757068
115	0x3d873a23	0.066028856
116	0xbd32543e	-0.04353737
117	0xbd9297f3	-0.07157888
118	0xbca909c2	-0.020634536
119	0x3d8a0055	0.067383446
120	0xbbcde13a	-0.0062829526
121	0xbb8501a1	-0.004059032
122	0xbd4a208d	-0.04934745
123	0xbd9e4e6a	-0.077298
124	0x3cc0cc15	0.023534814
125	0x3b87bd48	0.004142437
126	0x3c12abf1	0.008952127
127	0xbd891993	-0.06694331
128	0x3d359340	0.04432988
129	0xbd5bdc39	-0.053676818
130	0xbb5d1e3d	-0.0033739947
131	0xbd9823c1	-0.074286945
132	0x3bbf6dbf	0.00584194
133	0x3d3ba0a7	0.045807507
134	0x3c0f56a9	0.008748689
135	0xbc8c36dd	-0.017116005
136	0xbd8383cf	-0.06421625
137	0x3d1a8498	0.037724108
138	0xbcf7b2f9	-0.030236708
139	0x3c0f45d3	0.008744675
140	0xbda0ae16	-0.07845704
141	0x3d97c413	0.07410445
142	0xbcc6bf55	-0.024261156
143	0x3d81da5d	0.063404776
144	0x3bd76a2c	0.006573936
145	0xbd00cba8	-0.03144422
146	0x3d03893b	0.032113295
147	0x3da719a1	0.08159185
148	0xbd04601c	-0.03231822
149	0x3ccaaf3d	0.024741763
150	0x3d5d597a	0.05404041
151	0xbc81f137	-0.01586209
152	0x3c4d364b	0.0125251515
153	0x3cf36584	0.029711492
154	0x3d764fe4	0.060134783
155	0xbd9d53ef	-0.07682025
156	0xbc9c82e3	-0.01910538
157	0xbd116ae5	-0.035502333
158	0xbd4ec3ad	-0.05047958
159	0x3d9c8e7e	0.07644366
160	0x3d9aebae	0.075644836
161	0xbda29029	-0.079376526
162	0x3d9471bc	0.072482556
163	0x3d769e6d	0.06020968
164	0xbd7bd03f	-0.061477896
165	0x3da62b2d	0.08113704
166	0x3be1986e	0.006884626
167	0x3d2a870b	0.041632693
168	0x3d16f750	0.03685695
169	0xbcf72b82	-0.030172113
170	0xbd9fb455	-0.077980675
171	0xbda11d67	-0.07866936
172	0xbbff5ad4	-0.00779281
173	0x3d020a19	0.03174791
174	0xbd8b8a47	-0.06813484
175	0x3b77bf18	0.003780311
176	0x3d6e3460	0.058155417
177	0x3d869054	0.06570497
178	0xbcc25854	-0.023723759
179	0x3d0bfd66	0.034177206
180	0x3cb3f949	0.021969454
181	0x3d9dcc15	0.07704941
182	0x3bf5c965	0.0075008147
183	0x3cb4f095	0.022087375
184	0xbd88b0ae	-0.06674324
185	0x3d990d3a	0.07473226
186	0xbcc617de	-0.024181303
187	0x3d7c40aa	0.061585106
188	0xbc11d70e	-0.008901371
189	0xbd29ab28	-0.041422993
190	0xbd244c6f	-0.040111955
191	0x3da22898	0.07917899
192	0xbd15cbef	-0.03657144
193	0xbd6d014c	-0.057862565
194	0xbbb46240	-0.0055048764
195	0xbd6bf20a	-0.057603873
196	0x3cb7ac2b	0.022420963
197	0x3d43deca	0.04781989
198	0x3be4d6ab	0.006983598
199	0x3c9f7689	0.019465702
200	0x3cbdd82e	0.023174372
201	0x3d867eb9	0.06567139
202	0xbcda0b01	-0.026616575
203	0x3d8094c4	0.06278375
204	0xbcde9e3f	-0.027175067
205	0xbc86f40e	-0.016473796
206	0xbc372190	-0.0111774355
207	0x3d8b9ac6	0.0681663
208	0xbd00cb55	-0.031443913
209	0x3d66d0c7	0.05635145
210	0xbd903a18	-0.070423305
211	0x3c473645	0.012158935
212	0xbd3ea1d4	-0.04654105
213	0x3d9d9315	0.07694069
214	0xbd919b2c	-0.07109675
215	0x3d1901df	0.0373553
216	0x3d382c61	0.044964198
217	0x3d0476ac	0.032339737
218	0xbbb9cf96	-0.005670498
219	0x3d8126ea	0.063062504
220	0x3c656ff0	0.014003739
221	0xbc8a14e6	-0.016855668
222	0xbcfd7dae	-0.030943718
223	0x3d0da75f	0.034583446
224	0xbd6cbbc9	-0.057796273
225	0xbccc9cd0	-0.024977118
226	0x3d8257cf	0.063644044
227	0xbd6ac46f	-0.05731624
228	0x3d6bc96e	0.057565145
229	0xbd15b1fb	-0.03654669
230	0x3cd4cdf6	0.025977116
231	0xbc5a5389	-0.01332558
232	0xbbc78f03	-0.0060900464
233	0xbcbdd833	-0.02317438
234	0x3c0e3f79	0.008682125
235	0x3d5df2c5	0.0541866
236	0xbd4ef9b4	-0.050531104
237	0x3d234a96	0.039866053
238	0x3d4e7b32	0.050410457
239	0x3d0b4207	0.033998515
240	0xbd7800a0	-0.06054747
241	0x3c913f3b	0.017730346
242	0xbacf149f	-0.0015798992
243	0xbd1dcbcc	-0.038524434
244	0xbc9a9496	-0.01886968
245	0x3c7e43ae	0.015519066
246	0x3d20037d	0.039065827
247	0x3c3aef21	0.011409552
248	0x3a897ae5	0.0010488896
249	0xb9923c49	-0.00027892206
250	0x3c8324df	0.016008792
251	0xbcce08a8	-0.025150612
252	0x3d888314	0.06665626
253	0x3c3d41aa	0.0115513
254	0xba59fee2	-0.00083158736
255	0xbd9da58d	-0.07697592

encoder_blocks.3.0.bias f4 [12]
0	0xbd37d23c	-0.04487823
1	0x3ca6d5e4	0.020365663
2	0x3d82774e	0.06370412
3	0xbca1b19e	-0.019738015
4	0xbd2c3e26	-0.042051457
5	0x3d8299fc	0.063770264
6	0xbc3b26bb	-0.011422808
7	0xbd4d483f	-0.050117727
8	0xbcc519a2	-0.024060074
9	0xbd769b65	-0.06020679
10	0x3bfa1a67	0.007632542
11	0xbc04c9ca	-0.008104751

encoder_blocks.3.2.weight f4 [12, 12, 13]
0	0x3bd3953a	0.006456998
1	0xbd668b35	-0.056285102
2	0xbc4962d0	-0.012291625
3	0x3d5d8ad1	0.054087464
4	0xbd114edb	-0.035475593
5	0xbd82b94f	-0.06383001
6	0x3d09e80c	0.033668563
7	0xbc3961f7	-0.011314861
8	0xbd530281	-0.05151606
9	0xbb22c414	-0.002483611
10	0xbd41a34d	-0.047274876
11	0x3d064ae8	0.03278628
12	0xbbfec1fb	-0.007774589
13	0x3cd9bc02	0.026578907
14	0xbb50c75a	-0.0031857104
15	0xbc2ce60f	-0.010552897
16	0xbcfd342c	-0.030908667
17	0xbd30bc2a	-0.043148197
18	0x3c24d82b	0.010061304
19	0xbd853e58	-0.06506032
20	0x3d710e17	0.058851328
21	0xbd04b701	-0.03240109
22	0xbc12f0fb	-0.008968587
23	0x3d883b4e	0.066519365
24	0x3d0e3ad7	0.034724083
25	0x3d43cc38	0.04780218
26	0xba5778cf	-0.0008219601
27	0xbd25d7b7	-0.040488925
28	0x3cf570b4	0.029960968
29	0xbd846c7c	-0.06466004
30	0x3cd6d3a5	0.026223967
31	0xbd89362b	-0.06699785
32	0x3d4cd525	0.050007958
33	0xbd5c13a1	-0.053729657
34	0xbb63abe3	-0.0034739904
35	0x3da27dbd	0.07934139
36	0x3b8659ce	0.004100061
37	0xba12512e	-0.0005581555
38	0xbd1b5e2d	-0.03793161
39	0xbd4e4bed	-0.050365377
40	0x3d78cf98	0.06074485
41	0xbd976310	-0.073919415
42	0x3b83f871	0.0040274193
43	0x3ca14ecb	0.019690892
44	0x3d20c7e1	0.03925312
45	0x3c4eef24	0.012630258
46	0x3cff6c3b	0.031179538
47	0xbcfd78c5	-0.030941376
48	0xbd04629e	-0.03232061
49	0x3d8beed6	0.06832664
50	0xbd8b6650	-0.06806624
51	0x3b9e8bd9	0.0048384485
52	0x3d84e984	0.06489852
53	0x3d80aa63	0.06282499
54	0x3d48eb78	0.049052685
55	0xbb0aa1ab	-0.002115349
56	0xbb8e089e	-0.0043345233
57	0xbd3ccf8c	-0.04609637
58	0x3be75c21	0.007060543
59	0x3d383990	0.04497677
60	0x3d888202	0.06665422
61	0xbc4b0b3f	-0.012392818
62	0x3cc4b8ae	0.024013843
63	0xbcd1bfaa	-0.025604088
64	0xbd4cd8a9	-0.05001131
65	0xbd019095	-0.031632025
66	0xbd04e61f	-0.032446023
67	0xbda0a69f	-0.078442805
68	0x3d9329a8	0.0718568
69	0xbd2b2196	-0.041780077
70	0xbcd504ae	-0.026003208
71	0x3d492b27	0.04911342
72	0x3d91102d	0.070831634
73	0x3d749cf9	0.059720013
74	0x3d9538bc	0.07286212
75	0x3c7d6090	0.015464917
76	0x3d7365a8	0.05942312
77	0xbd827d70	-0.063715816
78	0xbca9d654	-0.020732082
79	0xbd945b0c	-0.07243928
80	0x3d10bf0f	0.035338458
81	0xbd82d4db	-0.06388255
82	0xbd240c6e	-0.040050916
83	0xbd6abb40	-0.05730748
84	0xbd95a94c	-0.073076814
85	0xbbc8a6f3	-0.0061234175
86	0x3d5c2aa1	0.05375159
87	0xbd9df9b0	-0.0771364
88	0xbc8b5c9c	-0.017011933
89	0x3d075c7d	0.033047188
90	0x3d254f02	0.04035855
91	0xbd36697e	-0.0445342
92	0x3c71ee88	0.014766343
93	0xbd865969	-0.065600224
94	0x3d9f9f9e	0.077941164
95	0x3d1432d8	0.0361813
96	0x3d58039c	0.052737817
97	0x3ca70e68	0.020392612
98	0x3cefb8d4	0.029262938
99	0x3d1f13b4	0.03883715
100	0xbca1344e	-0.019678261
101	0xbd3b3d71	-0.045712892
102	0xbd055e06	-0.03256037
103	0x3c0d9228	0.008640803
104	0x3d35a614	0.044347838
105	0xbcf6d17c	-0.030129187
106	0x3d920cc0	0.07131338
107	0x3d8699df	0.06572317
108	0xbcd4b7d5	-0.025966564
109	0x3d955478	0.07291502
110	0x3bbf62b9	0.005840626
111	0xbcd8adf9	-0.026450144
112	0x3c9d72ef	0.019219844
113	0x3d8953e6	0.067054555
114	0xbcba7f8d	-0.0227659
115	0x3d4f61ad	0.05063026
116	0xbaf60c53	-0.0018771983
117	0x3bcded02	0.006284357
118	0x3ab10753	0.0013506211
119	0x3d2418c1	0.04006267
120	0x3d92194e	0.07133733
121	0x3c8f6a0c	0.017506622
122	0x3d19245f	0.0373882
123	0xbd6bf58a	-0.05760721
124	0x3d6ca8d1	0.057778183
125	0xbc15180a	-0.00909997
126	0xbb05ba9b	-0.0020405415
127	0xbd78516e	-0.060624532
128	0x3d906a4f	0.07051527
129	0xbd0e237e	-0.034701817
130	0x3d9bc157	0.07605236
131	0xbc931878	-0.017956004
132	0xbd2a2c28	-0.041546017
133	0xbd76a9f8	-0.06022069
134	0xbd469f3b	-0.048491698
135	0x3d4f14f0	0.050557077
136	0xbd5eff81	-0.054442886
137	0xbcf7b43d	-0.030237311
138	0xbc681a8b	-0.014166485
139	0xbb8409b2	-0.004029476
140	0xbad3415f	-0.0016117505
141	0x3c31fc1f	0.010863333
142	0xbda2b068	-0.07943803
143	0x3c6a0a79	0.014284723
144	0x3d306e7f	0.043074127
145	0xbcb48688	-0.022036806
146	0xbd4f9c14	-0.050685957
147	0xbc07cc51	-0.008288459
148	0xbd80a36d	-0.06281171
149	0xbd0ac718	-0.033881277
150	0xbc6b1eab	-0.0143505735
151	0x3a338d52	0.00068493665
152	0xbccb5165	-0.024819085
153	0x3cf45bdd	0.02982896
154	0xbc893b60	-0.016751945
155	0xbcd1fa6e	-0.02563211
156	0x3bbe7735	0.0058125504
157	0xbd48afdd	-0.04899584
158	0x3d31a4d7	0.043370094
159	0x3c8b7101	0.017021658
160	0xbca876b6	-0.020564418
161	0x3d9c4fa2	0.07632376
162	0x3d977c5f	0.07396769
163	0xbcb2d124	-0.021828242
164	0x3d970e98	0.073758304
165	0x3cb918a0	0.02259475
166	0x3c7a45bb	0.015275414
167	0xbd26fc11	-0.040767733
168	0x3d651934	0.05593224
169	0xbc591be1	-0.013251276
170	0x3d35a874	0.044350103
171	0x3cb505ec	0.02209755
172	0xbd06363e	-0.032766573
173	0x3d2e7f66	0.042601965
174	0xbda0a629	-0.078441925
175	0xbd022d31	-0.03178138
176	0xbd94413e	-0.072390065
177	0x3d8b63c1	0.06806136
178	0xbd26b05f	-0.040695544
179	0x3bc96f24	0.006147282
180	0xbd2aa025	-0.041656632
181	0xbce8a1c4	-0.028397448
182	0x3cc6b734	0.02425728
183	0x3d8a38ba	0.06749101
184	0xbd47fa1c	-0.048822507
185	0xbd1a52bc	-0.037676558
186	0xbcee39c7	-0.029080285
187	0x3c5d73c8	0.013516374
188	0xbd6d798f	-0.057977255
189	0xbcc37e35	-0.023863891
190	0x3d8e302e	0.06942783
191	0x3d5c9d02	0.05386067
192	0x3bd3baea	0.006461491
193	0x3d66aced	0.05631726
194	0x3cd4bdf1	0.025969477
195	0xbc7467a1	-0.014917285
196	0x3c1ddfb7	0.009635857
197	0xbda3efda	-0.080047324
198	0x3b3720ea	0.0027943202
199	0xbcf37297	-0.029717727
200	0xbd474ed8	-0.048659176
201	0x3d152821	0.036415223
202	0x3d9dd0c5	0.07705835
203	0xbc1fb9f8	-0.009748928
204	0x3baba1b7	0.005237784
205	0x3bcedcf8	0.0063129626
206	0x3c1a12ec	0.009403925
207	0x3d1ab419	0.03776941
208	0xbd277d86	-0.040891193
209	0xbba0c4c0	-0.004906267
210	0xbd67551c	-0.05647765
211	0x3d4cfe18	0.05004701
212	0x3d4836b5	0.048880298
213	0xbd598304	-0.05310346
214	0xbd64e8d6	-0.055886112
215	0x3bfbd6ef	0.007685534
216	0x3d8489ee	0.064716205
217	0xbd0139ab	-0.031549137
218	0xbd6b48f7	-0.05744263
219	0x3b67aed7	0.0035352015
220	0xbcff76e2	-0.031184617
221	0x3cb89cc0	0.022535682
222	0x3d0b1764	0.033957854
223	0x3ca374f4	0.019953229
224	0x3d1d7e88	0.038450748
225	0xbd08431e	-0.033267133
226	0x3d3f7bf8	0.046749085
227	0xbb68dbeb	-0.0035531472
228	0xbc09ff42	-0.008422675
229	0xbd3bb465	-0.045826335
230	0xbc846f72	-0.016166423
231	0xbd492c7c	-0.04911469
232	0x3cdc263f	0.026873706
233	0xbd0fcd84	-0.035108104
234	0xbd56afdc	-0.052413806
235	0xbd8ca583	-0.06867506
236	0xbd918fff	-0.07107543
237	0xbce26cfc	-0.027639858
238	0x3cbbcedb	0.022925785
239	0xbd31fe1b	-0.043455224
240	0x3cc89ba8	0.024488285
241	0xbd3bcd9a	-0.045850374
242	0x3d87e57b	0.06635567
243	0xbbbc49e5	-0.0057461136
244	0xbd4e0c51	-0.050304715
245	0x3d7c8e3d	0.061659086
246	0xbd6bbfa2	-0.057555802
247	0xbd3630bf	-0.04448008
248	0x3c3b94f0	0.011449084
249	0xbb8ff820	-0.0043935925
250	0x3d9f5c70	0.07781303
251	0xbc3a5688	-0.01137317
252	0x3d927c92	0.07152666
253	0x3c28ae10	0.010295406
254	0x3d958210	0.07300198
255	0x3d59dc64	0.053188697

encoder_blocks.3.2.bias f4 [12]
0	0xbd9ad812	-0.075607434
1	0xbd428df4	-0.04749866
2	0xbd96143e	-0.0732808
3	0xbd31739a	-0.043323137
4	0xbd174eb5	-0.036940295
5	0x3cb0e665	0.021594236
6	0x3ba39d0d	0.004993087
7	0x3bb27410	0.0054459646
8	0xbc8e2fe4	-0.01735682
9	0x3d6848af	0.05670994
10	0x3c97da05	0.018536577
11	0xbc80b46f	-0.015711037
