Python/save/localizer/trial_2/quake_localization_model_00430.pth (torch, 252994 bytes, 35 tensors)

encoder_blocks.0.weight f4 [12, 1, 13]
0.18938038 0.1956686 0.22191754 0.081891365 0.18574758 0.101323925 -0.10795624 -0.06276016
-0.20574333 -0.20040642 -0.19220777 0.08629156 -0.08774669 -0.21462917 -0.24639785 -0.2513215
-0.13084877 0.11161375 -0.17165042 0.2812762 -0.19675381 -0.019441413 0.073993444 0.17241447
0.156794 -0.039556026 0.06928568 -0.08556719 0.02294451 0.07466131 -0.21866223 -0.18858784
0.15696955 -0.06811253 -0.1068312 -0.10700721 -0.008604184 -0.1106593 -0.24493438 0.07712781
0.029816782 -0.208303 0.07440321 -0.15533394 -0.14070031 0.08717914 0.035549875 0.0374268
-0.09256604 0.002808692 0.26557028 -0.25172666 0.057942826 0.042189702 -0.08743953 -0.0053236084
-0.14610736 -0.11154196 -0.14629328 0.17900115 -0.033698224 0.11946782 -0.011228073 -0.13207728
-0.16927683 -0.08656645 0.23427312 0.09818952 -0.030100096 -0.056748874 0.074950576 0.22482368
-0.2390147 0.0782689 0.15305378 -0.20029141 0.22750324 0.16630138 -0.11742055 0.029988052
0.121556625 0.10784071 0.06591853 -0.03424648 -0.07986341 0.24329944 0.14152941 0.14537086
-0.26949018 0.12157181 -0.15000999 0.092929356 -0.09548392 -0.052220773 0.10941957 -0.20301591
0.2722556 0.19881955 -0.088319585 0.14268266 -0.17121668 0.012906668 0.21540806 0.022469442
-0.17732772 -0.015446452 -0.044127613 -0.07051254 0.16498616 0.1948036 0.1881141 0.25012258
0.15728106 0.18658671 0.22717302 -0.1383479 0.16419013 0.26193845 -0.080983974 -0.19681083
-0.22017422 0.010176657 -0.18128273 -0.19448833 0.1296968 0.21294327 -0.19364932 0.27218005
0.047886275 0.11256564 0.28249344 -0.22366343 0.27648625 0.022334902 -0.035388328 0.20649467
0.11755139 0.026299633 -0.041269932 -0.050767172 -0.0077720303 -0.10307852 -0.1895604 0.07324022
0.14859605 -0.2097271 -0.053915292 -0.22699201 -0.27064115 0.08969403 -0.23962548 -0.102763094
-0.17483029 0.23761636 -0.19211888 -0.119271874
00000000: eeec 413e 595d 483e 5a3e 633e a9b6 a73d
00000010: 9d34 3e3e eb82 cf3d 2918 ddbd 6688 80bd
00000020: 61ae 52be 5737 4dbe 1dd2 44be a1b9 b03d
00000030: 89b4 b3bd c0c7 5bbe b84f 7cbe 36ad 80be
00000040: 38fd 05be c095 e43d 21c5 2fbe 6f03 903e
00000050: d579 49be 9943 9fbc e089 973d 6b8d 303e
00000060: 9b8e 203e 8005 22bd a7e5 8d3d da3d afbd
00000070: 20f6 bb3c 07e8 983d fee8 5fbe 2c1d 41be
00000080: a0bc 203e 957e 8bbd 51ca dabd 9926 dbbd
00000090: 90f8 0cbc 58a1 e2bd 14d0 7abe 2ff5 9d3d
000000a0: 5342 f43c 624d 55be b660 983d dc0f 1fbe
000000b0: be13 10be fa8a b23d bf9c 113d d84c 193d
000000c0: 4493 bdbd 0812 383b d4f8 873e 51e2 80be
000000d0: 7555 6d3d 1ccf 2c3d 7f13 b3bd aa71 aebb
000000e0: 2b9d 15be 1c70 e4bd e8cd 15be 144c 373e
000000f0: 2607 0abd 8bab f43d f4f5 37bc 443f 07be
00000100: e856 2dbe c049 b1bd 4be5 6f3e 9617 c93d
00000110: 7a94 f6bc 8271 68bd b07f 993d 2e38 663e
00000120: 45c0 74be 724b a03d 21ba 1c3e 3119 4dbe
00000130: 9cf6 683e e94a 2a3e 2f7a f0bd 81a9 f53c
00000140: aef2 f83d 97db dc3d 4b00 873d 0946 0cbd
00000150: 6d8f a3bd 7d23 793e 16ed 103e 19dc 143e
00000160: 9efa 89be a4fa f83d 389c 19be bf51 be3d
00000170: 138d c3bd 73e5 55bd 5e17 e03d 67e3 4fbe
00000180: 1665 8b3e 5a97 4b3e e6e0 b4bd 671b 123e
00000190: 6d53 2fbe 7d76 533c ee93 5c3e d611 b83c
000001a0: 6695 35be 1e13 7dbc 28bf 34bd e168 90bd
000001b0: 22f2 283e 987a 473e fca0 403e 1110 803e
000001c0: 490e 213e 9610 3f3e 0ba0 683e 12ab 0dbe
000001d0: 7521 283e cc1c 863e edda a5bd c788 49be
000001e0: 5a75 61be febb 263c 2ea2 39be f327 47be
000001f0: 3dcf 043e cd0d 5a3e 024c 46be 2f5b 8b3e
00000200: 6624 443d d088 e63d fba2 903e 0708 65be
00000210: 9b8f 8d3e aff7 b63c 5af3 10bd 5773 533e
00000220: c8be f03d 5472 d73c a90a 29bd 3df1 4fbd
00000230: 84ac febb d51a d3bd 1f1c 42be f8fe 953d
00000240: 9029 183e b3c2 56be 48d6 5cbd 9870 68be
00000250: 7a91 8abe 81b1 b73d 6260 75be 7575 d2bd
00000260: b606 33be b451 733e d0ba 44be d044 f4bd

encoder_blocks.0.bias f4 [12]
-0.17944227 0.040883303 0.2600622 -0.11505368 0.26678666 -0.2559517 0.062508635 0.10796915
0.074136026 -0.07625776 0.009332135 0.10554956
00000000: b7bf 37be 4075 273d df26 853e 44a1 ebbd
00000010: 4398 883e 1a0c 83be 8704 803d ee1e dd3d
00000020: a1d4 973d 072d 9cbd d0e5 183c 5e2a d83d

encoder_blocks.1.0.weight f4 [12, 12, 13]
-0.014517484 0.052488547 0.06944704 -0.026355188 -0.046193488 0.060857084 -0.043703135 0.020481177
-0.048662845 -0.027369414 -0.03789 0.0519969 0.011214084 0.060371112 -0.04753217 -0.018679168
-0.04897979 0.017377563 0.0059964354 -0.052228283 -0.026614362 -0.073749274 -0.025401982 -0.019245718
-0.04192632 0.04594901 -0.007378602 0.068285786 -0.0031767562 0.0071102725 -0.056036882 -0.07064437
0.07692013 -0.083039306 0.058122806 -0.013522438 0.052077882 0.08139598 0.071902595 -0.08239016
0.035452776 -0.06198942 0.03181108 0.03403249 0.067173444 0.060596917 0.018407457 -0.06020736
-0.0007014255 -0.07754575 -0.066160664 0.06264473 0.005317213 0.044450313 0.000913068 -0.07155462
0.07183593 0.04305873 -0.022339353 0.01364729 0.0068121823 -0.010514974 -0.056815576 0.017826037
-0.022293318 0.041775886 -0.037246168 0.02741999 0.013352851 -0.04772852 -0.056975733 -0.05030747
0.059896197 -0.07076988 0.042734176 0.07385717 0.030622197 -0.044688527 0.033527892 -0.08380892
0.0037132448 0.050027747 0.07975584 -0.043226276 -0.062341474 0.015903562 -0.04789829 0.011354262
0.05308973 0.06648257 0.022456102 -0.04528194 -8.108397e-05 -0.030383144 -0.04720687 -0.020564381
-0.033809707 -0.05436167 0.06355327 0.05087597 -0.06683449 -0.0072996547 -0.020003678 0.0016517806
0.068955034 -0.024407135 0.0024122715 -0.076794475 0.02894694 -0.048125427 0.01962112 -0.031606153
-0.008316451 0.04387458 0.037560888 0.05729086 0.06678983 -0.016327346 -0.030752962 -0.018157776
0.0055014207 0.034824595 -0.04520062 -0.07728569 -0.069389 -0.012274341 -0.019184556 -0.015586618
-0.031219088 -0.061817177 -0.031647906 0.0109608965 -0.06703545 0.021353653 -0.03561348 0.068440564
-0.0148253245 0.0032151039 -0.041338757 -0.008181994 -0.064613335 -0.041493792 -0.01863475 -0.024629798
0.045352552 -0.021085015 -0.016760679 0.06350519 -0.07232749 0.018250626 -0.039845493 0.026900882
0.037723627 -0.03441052 0.04580967 -0.07417536 -0.0319535 0.045817662 -0.06353884 0.0434771
0.029675605 -0.070931196 -0.064293265 0.04419628 0.07958056 0.066093825 -0.042603973 0.05298332
0.057275373 -0.07178779 -0.0636552 0.039085466 0.066847436 0.059334006 0.0653688 0.039481726
0.07664543 0.023765003 -0.007010613 0.028862797 -0.06625565 0.064923674 0.00079788297 0.008534009
0.07881193 0.07090547 0.0034823355 -0.035878982 -0.05014164 -0.04723414 0.04428116 -0.027555829
-0.06918755 0.029311532 0.08709838 0.0050254064 0.011917446 0.015001076 0.026679736 0.0178362
-0.032899495 -0.06573493 -0.022345364 0.028015682 -0.030468319 0.08309227 -0.030144034 0.07585399
-0.045685317 -0.051510986 -0.036674432 -0.06256104 0.011807368 -0.01021675 0.046332907 -0.06551303
-0.0045648804 -0.018261531 0.053726286 -0.012360807 0.023116734 0.07066046 -0.0024090484 0.0048888023
0.048555966 0.005995431 0.01189995 0.009248193 0.02231771 0.048430335 -0.018129488 -0.04517444
-0.024764184 0.0358773 0.030988177 -0.026779646 0.07010265 -0.06638261 -0.058196396 0.07701423
0.0250291 0.05062543 0.012411114 -0.06954205 -0.004159541 0.017898738 -0.049530953 -0.07670843
-0.031606033 -0.028445533 0.05381082 0.067862 -0.05701678 0.004862199 -0.016322166 0.004438084
00000000: beda 6dbc 3bfe 563d 403a 8e3d d6e6 d7bc
00000010: 6235 3dbd 4745 793d 0f02 33bd 24c8 a73c
00000020: b152 47bd d235 e0bc 8b32 1bbd b4fa 543d
00000030: 47bb 373c b347 773d 18b1 42bd 0e05 99bc
00000040: 089f 48bd 645b 8e3c bf7d c43b 53ed 55bd
00000050: 5d06 dabc dc09 97bd d117 d0bc 32a9 9dbc
00000060: efba 2bbd 0735 3c3d 33c8 f1bb 6bd9 8b3d
00000070: 2031 50bb 4afd e83b ee86 65bd ffad 90bd
00000080: 4d88 9d3d 8310 aabd 2e12 6e3d 378d 5dbc
00000090: 9e4f 553d f0b2 a63d ab41 933d 2cbc a8bd
000000a0: ee36 113d 9ee8 7dbd 564c 023d a765 0b3d
000000b0: 3b92 893d 7934 783d 3ccb 963c fe9b 76bd
000000c0: dedf 37ba 4ed0 9ebd 3e7f 87bd e14b 803d
000000d0: 043c ae3b 8811 363d f55a 6f3a 3b8b 92bd
000000e0: b71e 933d 5a5e 303d 0501 b7bc e298 5f3c
000000f0: ba38 df3b ff46 2cbc 73b7 68bd e907 923c
00000100: 7aa0 b6bc 311d 2b3d 708f 18bd e39f e03c
00000110: ebc5 5a3c fb7e 43bd 635f 69bd 350f 4ebd
00000120: b755 753d cdef 90bd 080a 2f3d 6e42 973d
00000130: 67db fa3c 510b 37bd 8b54 093d 03a4 abbd
00000140: e959 733b e5e9 4c3d 0857 a33d 090e 31bd
00000150: c659 7fbd 3048 823c ff30 44bd 3a07 3a3c
00000160: 9e74 593d 0328 883d dcf5 b73c 8e79 39bd
00000170: a00b aab8 12e6 f8bc fe5b 41bd a276 a8bc
00000180: 0c7c 0abd 58aa 5ebd 3828 823d 5263 503d
00000190: 85e0 88bd f131 efbb c1de a3bc 8f80 d83a
000001a0: 4c38 8d3d 79f1 c7bc 3317 1e3b 6c46 9dbd
000001b0: 2222 ed3c 2b1f 45bd 79bc a03c 7475 01bd
000001c0: b941 08bc d5b5 333d 72d9 193d d2a9 6a3d
000001d0: 1bc9 883d edc0 85bc a3ed fbbc 9ebf 94bc
000001e0: 4345 b43b 3ca4 0e3d 4924 39bd f647 9ebd
000001f0: d21b 8ebd 511a 49bc ee28 9dbc 045f 7fbc
00000200: 2cbf ffbc 0234 7dbd 3ca1 01bd 5595 333c
00000210: e249 89bd dbed ae3c 71df 11bd 912a 8c3d
00000220: ebe5 72bc 7eb4 523b d452 29bd c50d 06bc
00000230: ff53 84bd 65f5 29bd e7a7 98bc 6ec4 c9bc
00000240: 99c3 393d 7bba acbc b14d 89bc 020f 823d
00000250: 6f20 94bd 5682 953c 0735 23bd 3d5f dc3c
00000260: 1784 1a3d 0cf2 0cbd eca2 3b3d 40e9 97bd
00000270: ace1 02bd 4dab 3b3d a720 82bd 0b15 323d
00000280: 411a f33c 6044 91bd 30ac 83bd 2907 353d
00000290: 22fb a23d 335c 873d 8181 2ebd 0a05 593d
000002a0: 9599 6a3d 7a05 93bd a85d 82bd 1518 203d
000002b0: 4fe7 883d 3708 733d 14e0 853d 97b7 213d
000002c0: 47f8 9c3d d3ae c23c 49b9 e5bb ac71 ec3c
000002d0: 0bb1 87bd b4f6 843d 0529 513a 3ad2 0b3c
000002e0: 2668 a13d e336 913d e537 643b d7f5 12bd
000002f0: 5261 4dbd 9678 41bd 2960 353d c3bc e1bc
00000300: 34b2 8dbd bd1e f03c a360 b23d 2aac a43b
00000310: 6441 433c 13c7 753c 768f da3c 391d 923c
00000320: 9fc1 06bd 09a0 86bd a00d b7bc 2581 e53c
00000330: b298 f9bc 482c aa3d 9ff0 f6bc 5659 9b3d
00000340: 8720 3bbd 2ffd 52bd ee37 16bd 0120 80bd
00000350: b173 413c 2864 27bc 93c7 3d3d b22b 86bd
00000360: fe94 95bb 3599 95bc 1810 5c3d fb84 4abc
00000370: 4e5f bd3c 6eb6 903d 20e1 1dbb 3f32 a03b
00000380: 9fe2 463d 5275 c43b 02f8 423c bc85 173c
00000390: a1d3 b63c e35e 463d 4b84 94bc d508 39bd
000003a0: 42de cabc 13f4 123d ebda fd3c fd60 dbbc
000003b0: fa91 8f3d 9bf3 87bd 585f 6ebd a3b9 9d3d
000003c0: d409 cd3c 9c5c 4f3d fc57 4b3c 106c 8ebd
000003d0: c24c 88bb 60a0 923c f8e0 4abd 4f19 9dbd
000003e0: 5475 01bd 9b06 e9bc bc68 5c3d 3bfb 8a3d
000003f0: 6d8a 69bd 1553 9f3b 10b6 85bc 596d 913b

encoder_blocks.1.0.bias f4 [12]
0.014147708 -0.0074669826 -0.039549984 0.07154342 -0.087269485 0.048615303 -0.019353667 -0.033338282
0.032343995 0.08435603 0.0985617 0.03248654
00000000: cacb 673c 97ad f4bb 2aff 21bd 5b85 923d
00000010: 58ba b2bd d720 473d 958b 9ebc b98d 08bd
00000020: 237b 043d dbc2 ac3d b7da c93d 9b10 053d

encoder_blocks.1.2.weight f4 [12, 12, 13]
0.06281017 -0.048126232 0.05184615 0.07360259 0.050586227 0.042146333 0.011605276 0.0029100995
-0.0100151105 -0.030584298 -0.0030263413 -0.008047143 0.06449024 -0.053475585 0.019398926 -0.0038047486
0.0023307607 0.047542367 0.07952375 -0.061061133 0.08503586 -0.056453377 0.09275004 -0.0053713564
0.0597631 0.06190701 -0.047298357 -0.07481276 0.0430026 0.01656897 -0.008596583 -0.029890409
-0.07384219 -0.049029008 0.074817084 0.031996936 0.055920266 -0.034890793 0.041738335 0.015333841
-0.029013438 -0.007290763 0.031637065 -0.020583924 0.0593352 0.008604523 -0.046652857 0.014189337
0.018282032 -0.06354882 -0.0603958 0.07119072 0.06502366 0.021074815 -0.05180446 -0.039950736
0.01885605 -0.007973678 0.004380958 0.07198156 0.03131002 -0.013135803 -0.055099774 0.01152013
0.025190905 0.068321384 -0.03491728 -0.06345851 0.018576635 -0.055972997 0.05921508 -0.027285628
-0.07051665 -0.07452869 -0.008056658 0.042762958 -0.037179243 -0.0030797627 -0.010264199 0.042713426
0.034442805 -0.028150532 0.012815944 0.0322732 -0.0057700756 -0.0122637 0.01873022 0.019736975
-0.052897822 0.045233507 -0.024369905 0.0782011 0.0027266839 0.043583356 0.026229512 0.07803528
0.0015300007 0.01571557 -0.07500021 0.028588321 0.013702094 -0.041206762 -0.06944167 0.0847844
-0.0690324 0.05302461 -0.008795732 -0.00878857 -0.0673326 0.034061212 0.03788205 0.027596373
-0.022317939 0.032675974 -0.029707847 0.038572583 0.0022825669 0.06744847 -0.02655298 -0.0054506813
-0.06181064 0.04665373 0.0809376 0.065158226 -0.07496061 0.06350691 -0.010123114 -0.0030509324
0.038691565 0.043537505 -0.03697753 -0.021165658 0.05873375 -0.060001016 0.04614598 -0.034729857
-0.049565397 0.07774718 -0.051213227 -0.032435834 0.08301067 -0.04711933 0.06666565 -0.07752741
-0.019474512 -0.01608536 0.083272 0.03378368 -0.029350417 0.06961639 0.027594842 0.07203128
0.02566437 0.06571659 0.081504546 -0.03069023 0.00056272006 -0.006691888 -0.06560118 -0.056309935
-0.016670728 -0.085230544 0.02363876 -0.052826818 -0.028183687 0.03805067 0.04997846 -0.020814959
-0.0310842 -0.078010865 -0.028735386 0.013557569 -0.009814152 0.06069104 0.088351905 0.010435198
0.036501538 0.07392883 0.0042764703 -0.08337487 0.06095713 -0.06699788 -0.04706577 0.014750871
0.06691302 0.028000861 -0.011457944 0.053740148 -0.08056852 0.08077578 -0.013859853 0.028182756
-0.013608682 0.08047717 0.006202775 -0.03222745 0.005317416 -0.0032979841 0.05201994 -0.031805363
-0.066366784 0.0053709066 -0.067100175 -0.048966397 0.06815928 0.03723816 -0.055347655 0.017633354
0.049667545 -0.03326796 -0.0035499404 -0.06058761 -0.038209684 0.074487336 -0.06989009 0.079025
-0.0076985145 -0.025371369 0.022822544 0.03306361 -0.035554044 0.066458784 0.05958612 -0.003457049
-0.026062211 -0.07407774 0.04792625 0.036745246 -0.06599152 0.07423055 0.053277694 0.042898763
-0.07294465 0.069114 -0.0037726657 0.0042456724 -0.042736802 -0.0067388113 -0.027272295 0.011219057
0.06374907 -0.039027672 0.015030286 0.016411232 0.030627662 0.03631837 -0.08389512 0.016782949
-0.01925716 0.049999785 0.019500807 -0.05995547 0.032285307 0.06924272 -0.053255584 -0.061726194
00000000: 9ea2 803d 0320 45bd a15c 543d f4bc 963d
00000010: 8133 4f3d a2a1 2c3d 0e24 3e3c 5eb7 3e3b
00000020: 6b16 24bc ec8b fabc 9555 46bb 2ad8 03bc
00000030: 7513 843d 3709 5bbd 7fea 9e3c 1759 79bb
00000040: adbf 183b c9bb 423d 59dd a23d 3d1b 7abd
00000050: 4827 ae3d a83b 67bd bcf3 bd3d 3402 b0bb
00000060: 27ca 743d 3492 7d3d ecbb 41bd 6f37 99bd
00000070: 7f23 303d a6bb 873c afd8 0cbc bbdc f4bc
00000080: 933a 97bd a4d2 48bd b339 993d 380f 033d
00000090: a60c 653d a6e9 0ebd d1f5 2a3d ca3a 7b3c
000000a0: 97ad edbc 5ae7 eebb de95 013d 9e9f a8bc
000000b0: 7709 733d fcf9 0c3c 1117 3fbd 657a 683c
000000c0: 33c4 953c e225 82bd 9661 77bd 71cc 913d
000000d0: 202b 853d 17a5 ac3c ea30 54bd 62a3 23bd
000000e0: 0178 9a3c 08a4 02bc 248e 8f3b 116b 933d
000000f0: ef3e 003d 8d37 57bc 4db0 61bd edbe 3c3c
00000100: 285d ce3c 15ec 8b3d 6c05 0fbd 89f6 81bd
00000110: 072e 983c f143 65bd 838b 723d 1c86 dfbc
00000120: 096b 90bd 7fa2 98bd 1300 04bc 3628 2f3d
00000130: 4349 18bd d8d5 49bb 2c2b 28bc 46f4 2e3d
00000140: e613 0d3d f29b e6bc f7f9 513c e730 043d
00000150: e712 bdbb b0ed 48bc 1e70 993c 70af a13c
00000160: 63ab 58bd c546 393d 65a3 c7bc e627 a03d
00000170: 2ab2 323b 7684 323d 46df d63c f6d0 9f3d
00000180: 4e8a c83a f0bd 803c b699 99bd 0e32 ea3c
00000190: bf7e 603c 6cc8 28bd 6f37 8ebd 72a3 ad3d
000001a0: dc60 8dbd 5530 593d f91b 10bc effd 0fbc
000001b0: ade5 89bd c583 0b3d 352a 1b3d ca11 e23c
000001c0: 1cd4 b6bc 3ed7 053d df5d f3bc 49fe 1d3d
000001d0: 1e97 153b 6c22 8a3d a385 d9bc a19b b2bb
000001e0: 272d 7dbd fb17 3f3d 9dc2 a53d ad71 853d
000001f0: f384 99bd e90f 823d 6bdb 25bc 27f2 47bb
00000200: 0c7b 1e3d 6254 323d c075 17bd 9a63 adbc
00000210: cd92 703d a0c3 75bd 9103 3d3d e540 0ebd
00000220: 1605 4bbd ea39 9f3d f6c4 51bd 70db 04bd
00000230: 8001 aa3d 3300 41bd 0088 883d b1c6 9ebd
00000240: 0389 9fbc 72c5 83bc 838a aa3d c260 0a3d
00000250: 4970 f0bc 0a93 8e3d 940e e23c 2385 933d
00000260: 163e d23c 6b96 863d dbeb a63d 146a fbbc
00000270: 8183 133a a047 dbbb e959 86bd 3fa5 66bd
00000280: 0d91 88bc 5a8d aebd 13a6 c13c ef60 58bd
00000290: 7ae1 e6bc 05db 1b3d 37b6 4c3d 2284 aabc
000002a0: 4ba4 febc 29c4 9fbd 7966 ebbc 9120 5e3c
000002b0: 89cb 20bc 2b97 783d d8f1 b43d 65f8 2a3c
000002c0: a382 153d 0068 973d a221 8c3b 72c0 aabd
000002d0: 2fae 793d 2f36 89bd 09c8 40bd a3ad 713c
000002e0: b209 893d 1062 e53c 1aba 3bbc a11e 5c3d
000002f0: 1c01 a5bd c66d a53d 7014 63bc 86df e63c
00000300: f3f6 5ebc 37d1 a43d a640 cb3b ee00 04bd
00000310: b83d ae3b fe22 58bb dc12 553d 5746 02bd
00000320: 4feb 87bd 6efe af3b d16b 89bd fd90 48bd
00000330: 1897 8b3d 0a87 183d 39b4 62bd d373 903c
00000340: 3270 4b3d fc43 08bd 1ea6 68bb b72a 78bd
00000350: c281 1cbd d18c 983d 8922 8fbd dcd7 a13d
00000360: d243 fcbb 9ed7 cfbc 58f6 ba3c b56d 073d
00000370: 1ea1 11bd 8b1b 883d 9310 743d a88f 62bb
00000380: 6b80 d5bc 12b6 97bd 514e 443d 2f82 163d
00000390: 9026 87bd 3006 983d b639 5a3d 9db6 2f3d
000003a0: 0164 95bd a48b 8d3d d43e 77bb 481f 8b3b
000003b0: c90c 2fbd 3fd1 dcbb 266a dfbc 23d0 373c
000003c0: df8e 823d 7bdb 1fbd 9741 763c d970 863c
000003d0: dde6 fa3c 92c2 143d 34d1 abbd 657c 893c
000003e0: 31c1 9dbc 93cc 4c3d 28c0 9f3c de93 75bd
000003f0: 993d 043d 21cf 8d3d 8722 5abd 9bd4 7cbd

encoder_blocks.1.2.bias f4 [12]
-0.007259186 0.02363134 0.09140502 0.036206048 0.024177121 -0.04404556 -0.05590223 -0.053791422
0.04223138 0.07487904 0.0690426 -0.0069972607
00000000: 77de edbb 8396 c13c 8e32 bb3d cb4c 143d
00000010: 190f c63c 1e69 34bd bdf9 64bd 6554 5cbd
00000020: d0fa 2c3d 2f5a 993d 3566 8d3d 4749 e5bb

encoder_blocks.2.0.weight f4 [12, 12, 13]
0.07359522 -0.010682869 0.02488287 0.05344712 0.009749027 0.04310602 0.078057826 0.04192755
0.020404374 -0.07528087 0.046438396 -0.063810624 0.063562065 -0.08248439 0.080029845 -0.042314544
0.004628419 0.021774355 -0.058427982 -0.020015784 0.046151083 -0.07388049 0.037806872 0.004159673
0.043851644 -0.055338304 0.039696734 -0.035296917 -0.08457774 -0.05177506 0.029393656 0.0036135078
-0.07009539 -0.03767425 0.017890213 -0.060011275 0.002889291 -0.0027253465 0.064674094 0.030965503
-0.08437413 -0.01000896 0.053257965 0.028582167 0.01348114 -0.0019995212 -0.03411341 -0.062641785
0.075264536 0.015310994 0.005281977 0.04877871 0.04332319 -0.021479735 0.028903307 0.01935826
0.022764755 0.06705925 0.06480592 -0.0827598 -0.0005813966 0.028078495 0.06727596 0.030900886
0.016239885 -0.02299149 0.023778379 0.016671045 -0.06662462 -0.07032223 -0.07154138 -0.026072236
0.06907674 0.03301012 -0.07250256 0.0022400345 -0.033873934 0.06308045 0.051507156 0.010258737
-0.009854207 0.008518984 0.0028052921 0.007902542 0.01733465 -0.030203653 -0.027407803 -0.058731686
-0.02432195 0.0069826846 0.060906682 -0.029475942 -0.077203415 0.059410386 -0.008693728 -0.046394527
0.031628516 -0.011413705 -0.017042106 0.08825274 -0.05284368 0.027401173 0.04892062 -0.043075226
-0.021271452 -0.04842746 0.016454348 -0.05456949 0.064662114 0.07765726 -0.030521613 0.05012798
-0.065019615 -0.005736097 0.03530487 -0.06720843 -0.039684698 -0.03879383 0.009240201 -0.0011338957
-0.064316064 0.07051528 -0.077527225 0.036860313 -0.017693836 -0.056712437 0.014392172 -0.04338593
-0.04124551 -0.06418785 -0.07109277 -0.06407883 -0.07907435 -0.014280649 0.020581814 0.025422635
0.070276186 0.001161798 -0.0041377502 0.067400515 0.036106884 0.032065246 -0.05333418 0.012354034
-0.068693526 -0.057296574 0.066717915 -0.06259216 -0.050829478 0.0020962988 0.02533789 0.0011667237
0.014827791 0.08386427 -0.052941855 0.059539404 0.056997962 -0.041035835 0.0074382154 0.05120044
-0.03388762 0.035450008 -0.015365939 -0.008354938 0.01693768 -1.6270218e-05 0.040093876 0.07002599
-0.033337105 0.08878858 0.041214198 -0.016942965 -0.049962565 -0.035194054 0.009893683 0.03946545
-0.02284461 -0.001856827 0.056034174 0.04130248 -0.029125726 0.079719834 -0.0008351068 0.026926365
-0.036382962 0.04966141 0.06960948 0.0036592106 -0.016095696 0.022903098 -0.056017317 -0.024306608
0.028807776 0.0019508366 0.06715004 0.07263498 0.06492204 0.06211831 -0.052867208 0.016762039
0.020748679 0.04622126 -0.023533488 0.031732414 -0.0016044184 0.0643877 -0.007511102 -0.010365818
0.02219565 0.0065587107 0.032782923 0.07361847 -0.054154433 0.05294678 0.014041627 -0.023345694
-0.04832022 -0.07245706 -0.07369463 0.03235258 0.05941832 0.013941541 0.04300873 -0.003684899
-0.06881709 0.052634057 0.07421035 -0.06050687 -0.026137913 0.066959634 -0.029676357 -0.05728451
0.030013151 0.057632886 -0.06625597 0.031161092 0.028669354 -0.05036214 0.057588767 -0.06757275
-0.007618376 0.0006255797 0.051797926 0.03497184 -0.07550377 0.070446275 -0.04872149 -0.04263463
-0.00038765307 -0.043543153 0.042599805 0.04710484 -0.023507968 -0.009128827 0.010606675 -0.03452717
00000000: 17b9 963d 3307 2fbc 29d7 cb3c 5eeb 5a3d
00000010: 62ba 1f3c f08f 303d c8dc 9f3d 39bc 2b3d
00000020: 1327 a73c db2c 9abd 3036 3e3d 25af 82bd
00000030: d42c 823d 93ed a8bd b0e6 a33d 0452 2dbd
00000040: fea9 973b 2260 b23c 2e52 6fbd 24f8 a3bc
00000050: eb08 3d3d a84e 97bd 61db 1a3d de4d 883b
00000060: c89d 333d 6baa 62bd 0b99 223d 8093 10bd
00000070: 1837 adbd 1612 54bd f7ca f03c 9ad0 6c3b
00000080: 2c8e 8fbd 5050 1abd 7f8e 923c 62ce 75bd
00000090: 425a 3d3b ba9b 32bb da73 843d 5eab fd3c
000000a0: 58cc acbd 9ffc 23bc 0625 5a3d 2625 ea3c
000000b0: 00e0 5c3c 660a 03bb 81ba 0bbd 564a 80bd
000000c0: 4b24 9a3d f7da 7a3c 6f14 ad3b 2fcc 473d
000000d0: a873 313d 45f6 afbc a1c6 ec3c 3795 9e3c
000000e0: 277d ba3c 5c56 893d f7b8 843d f87d a9bd
000000f0: de68 18ba df04 e63c fbc7 893d db23 fd3c
00000100: 8209 853c a658 bcbc e0ca c23c b791 883c
00000110: 7d72 88bd 1a05 90bd 4984 92bd 7195 d5bc
00000120: 1b78 8d3d 9f35 073d 397c 94bd 8bcd 123b
00000130: 65bf 0abd 5330 813d 2bf9 523d 4314 283c
00000140: 8a73 21bc 3593 0b3c fed8 373b aa79 013c
00000150: 6501 8e3c a76d f7bc 5486 e0bc a390 70bd
00000160: d33e c7bc 01cf e43b 4979 793d 8877 f1bc
00000170: d31c 9ebd 4e58 733d 2370 0ebc 3008 3ebd
00000180: e78c 013d 8c00 3bbc e39b 8bbc dabd b43d
00000190: 9d72 58bd 6d78 e03c fd60 483d a66f 30bd
000001a0: 7841 aebc df5b 46bd 45cb 863c 4284 5fbd
000001b0: 926d 843d c50a 9f3d 7608 fabc ff52 4d3d
000001c0: 0129 85bd dff5 bbbb d79b 103d 93a4 89bd
000001d0: 6c8c 22bd 47e6 1ebd 3664 173c 3a9f 94ba
000001e0: 24b8 83bd 516a 903d 98c6 9ebd d7fa 163d
000001f0: aaf2 90bc 4d4b 68bd 25cd 6b3c 72b5 31bd
00000200: 0df1 28bd eb74 83bd 1699 91bd c33b 83bd
00000210: bcf1 a1bd 62f9 69bc 319b a83c 2143 d03c
00000220: f6ec 8f3d 7947 983a f795 87bb 4809 8a3d
00000230: d0e4 133d d956 033d f174 5abd 9368 4a3c
00000240: 31af 8cbd d0af 6abd 67a3 883d 5230 80bd
00000250: 9232 50bd 0f62 093b 6891 cf3c c0ec 983a
00000260: 43f0 723c 08c1 ab3d 8fd9 58bd 97df 733d
00000270: b276 693d 3115 28bd 46bc f33b 8db7 513d
00000280: bfcd 0abd 0734 113d 6bc1 7bbc 26e3 08bc
00000290: e4c0 8a3c 077c 88b7 7a39 243d c969 8f3d
000002a0: 7d8c 08bd c9d6 b53d 38d0 283d f9cb 8abc
000002b0: 8ca5 4cbd a427 10bd 1d19 223c 86a6 213d
000002c0: 9f24 bbbc c660 f3ba 1784 653d ca2c 293d
000002d0: 1399 eebc 2744 a33d 12eb 5aba ae94 dc3c
000002e0: 4d06 15bd c369 4b3d 6a8f 8e3d 5ecf 6f3b
000002f0: 1fdb 83bc 479f bb3c 6a72 65bd a71e c7bc
00000300: 49fe eb3c 37b3 ff3a f685 893d a6c1 943d
00000310: d9f5 843d c56f 7e3d 498b 58bd 8b50 893c
00000320: 22f9 a93c 8152 3d3d 4dc9 c0bc d9f9 013d
00000330: 594b d2ba b3dd 833d b11f f6bb 64d5 29bc
00000340: a7d3 b53c 74ea d63b 6347 063d 48c5 963d
00000350: 0ad1 5dbd b9de 583d da0e 663c 783f bfbc
00000360: 6ceb 45bd 5e64 94bd 36ed 96bd 2484 043d
00000370: a060 733d 106b 643c ec29 303d 597e 71bb
00000380: f9ef 8cbd cf96 573d 99fb 973d 0dd6 77bd
00000390: 2d1f d6bc 2222 893d d51b f3bc 2aa3 6abd
000003a0: 24de f53c 7610 6c3d 36b1 87bd 8c45 ff3c
000003b0: fedb ea3c 8848 4ebd 33e2 6b3d 9563 8abd
000003c0: 92a3 f9bb f1fd 233a 102a 543d a23e 0f3d
000003d0: b8a1 9abd 2346 903d 2f90 47bd a6a1 2ebd
000003e0: ea3d cbb9 4e5a 32bd 227d 2e3d 01f1 403d
000003f0: c893 c0bc 1391 15bc 9fc7 2d3c 5d6c 0dbd

encoder_blocks.2.0.bias f4 [12]
-0.018162876 0.070676856 0.015006389 0.119545914 -0.012365125 0.052079502 -0.10363594 0.051108263
0.027454553 -0.075835735 0.07652535 0.092626534
00000000: 50ca 94bc 07bf 903d 5bdd 753c 7dd4 f43d
00000010: 1897 4abc 5151 553d 143f d4bd e656 513d
00000020: 5fe8 e03c c44f 9bbd 53b9 9c3d fbb2 bd3d

encoder_blocks.2.2.weight f4 [12, 12, 13]
-0.02113704 0.08242836 0.04303055 0.0037013995 -0.05799639 0.00045758867 -0.022555964 -0.052610267
-0.025143502 -0.030479524 0.011848082 -0.0429087 0.056831248 -0.01787023 0.016827488 0.058255963
0.03623405 0.03610434 -0.061609603 0.07822728 -0.02173972 -0.020071808 -0.06426545 0.043605722
0.061412092 -0.03187806 -0.02458997 0.062413212 -0.06720335 -0.020212494 0.016668582 0.046129413
-0.050655145 -0.043517966 0.08294752 -0.0760231 -0.053400334 0.049235925 -0.0038694155 0.022554934
-0.055068288 -0.0405704 -0.035728633 0.061581638 0.045047477 -0.018468842 0.00096175383 0.003958848
0.022142569 -0.04125864 -0.05698032 0.07281402 0.0024548844 -0.07114717 0.031117 -0.055335753
-0.017837618 -0.014909558 -0.05506017 -0.0014883429 0.009671569 -0.0076407716 -0.0038396344 -0.0069837123
0.015582092 0.050482552 -0.057721596 0.021742582 0.020643577 0.009077329 0.0028770154 -0.051176712
0.044934817 0.04978335 0.051316824 -0.046533857 -0.04483443 -0.006246211 0.013641071 -0.052695014
-0.039865535 -0.005577695 0.037807956 0.030153576 0.035737243 0.012771038 -0.08422763 0.056756508
-0.059956726 -0.0509407 0.004614167 0.013301364 0.03241145 0.012699791 0.0645022 -0.024199963
0.0076655094 0.089057826 -0.03437311 0.07422081 -0.001045743 0.08813819 0.09335139 -0.013925376
-0.007937531 -0.07564341 0.06324529 0.07286241 0.008466099 -0.066139475 0.02779502 0.054378044
-0.021151792 -0.0110730715 -0.051739413 -0.046267293 -0.014776947 -0.06040227 0.07209708 -0.043618683
0.02308583 0.0790514 0.032234453 -0.06403127 -0.017343981 -0.07565903 -0.06658542 -0.0032199959
0.019983316 0.053427745 -0.040609825 0.033016488 -0.012409284 0.030163549 0.04048658 -0.06627998
-0.017744206 0.015851412 0.052098747 0.0014694317 0.057849783 -0.034642067 0.034298286 -0.049246397
-0.026430804 0.027040709 0.004187962 -0.072025575 -0.0617717 0.08084762 0.04003703 -0.020858536
-0.06240758 0.014876581 -0.0062026316 -0.04117682 0.06349318 -0.057915628 0.08821696 -0.05216626
0.03928437 0.07775099 -0.021633232 0.04383136 0.0037216449 0.047391295 -0.0143086435 0.044390675
-0.016894054 -0.030137364 0.06354378 -0.008543256 0.06459733 0.004191003 0.063947216 0.04690823
0.031549346 -0.024321072 -0.020442864 -0.05315997 0.05161071 0.011599348 0.008090396 -0.044843797
-0.009030272 0.008702007 -0.001653778 0.017979236 0.045547113 0.0263058 -0.033457574 0.011008464
0.077288665 -0.059053335 -0.028791536 -0.042422403 0.077447034 -0.074377395 0.0736695 -0.010918166
0.0545689 0.06884078 -0.019155748 0.054149467 0.0315449 0.035147734 -0.06458655 0.003685226
-0.04296679 0.07094157 -0.03713818 -0.0007751882 -0.03364171 0.06985533 0.05398093 -0.05032216
0.059387013 0.03469395 3.3445656e-05 -0.039979752 0.003404826 0.058591224 0.015418671 -0.0028350446
0.01732624 0.07299349 0.024900137 0.05603251 0.024075447 -0.028203327 -0.022685723 -0.076482676
-0.026929922 0.015475548 0.022105219 -0.038543966 0.025145164 -0.04821566 0.067613386 -0.018983109
-0.02214158 -0.05570062 0.03871354 0.08165135 0.014466293 0.05084826 0.012307939 -0.088346325
-0.08404514 -0.014208289 0.040249374 -0.051548723 0.0030480758 0.017124483 -0.034676433 -0.084007874
00000000: 9627 adbc 33d0 a83d cd40 303d 2e93 723b
00000010: 9f8d 6dbd 83e8 ef39 49c7 b8bc dd7d 57bd
00000020: bff9 cdbc 32b0 f9bc 751e 423c 08c1 2fbd
00000030: e2c7 683d 9764 92bc cdd9 893c ce9d 6e3d
00000040: 286a 143d 25e2 133d 5a5a 7cbd a035 a03d
00000050: 7f17 b2bc a26d a4bc 9b9d 83bd ea9b 323d
00000060: 3f8b 7b3d 9292 02bd e870 c9bc ffa4 7f3d
00000070: e9a1 89bd ac94 a5bc 8d8c 883c 32f2 3c3d
00000080: c57b 4fbd e53f 32bd 64e0 a93d 00b2 9bbd
00000090: 4fba 5abd 9cab 493d 0596 7dbb 20c5 b83c
000000a0: 498f 61bd 262d 26bd 3058 12bd 073d 7c3d
000000b0: b483 383d f84b 97bc 351e 7c3a 39b9 813b
000000c0: 5564 b53c d2fe 28bd 3264 69bd 841f 953d
000000d0: 20e2 203b 9cb5 91bd 14e9 fe3c bea7 62bd
000000e0: 3220 92bc 3847 74bc c686 61bd 8014 c3ba
000000f0: 8075 1e3c 705f fabb 60a2 7bbb a0d7 e4bb
00000100: 084c 7f3c cbc6 4e3d 7b6d 6cbd 801d b23c
00000110: b81c a93c 14b9 143c 4f8c 3c3b ac9e 51bd
00000120: 920d 383d a0e9 4b3d 9731 523d 499a 3ebd
00000130: 4fa4 37bd 04ad ccbb cc7e 5f3c bad6 57bd
00000140: 0b4a 23bd 19c5 b6bb 84dc 1a3d a204 f73c
00000150: 3761 123d 9e3d 513c 897f acbd 8379 683d
00000160: 2f95 75bd 32a7 50bd 7032 973b f7ed 593c
00000170: dec1 043d c912 503c bb19 843d 003f c6bc
00000180: f42e fb3b f363 b63d d1ca 0cbd 1401 983d
00000190: 5011 89ba cc81 b43d 032f bf3d 4327 64bc
000001a0: 6b0c 02bc efea 9abd bf86 813d e338 953d
000001b0: 65b5 0a3c 2274 87bd 62b2 e33c 83bb 5e3d
000001c0: 8646 adbc d46b 35bc b5ec 53bd c682 3dbd
000001d0: 021b 72bc 5f68 77bd a2a7 933d 81a9 32bd
000001e0: 7f1e bd3c b3e5 a13d 4608 043d d422 83bd
000001f0: f714 8ebc 1ff3 9abd f05d 88bd 9106 53bb
00000200: 0db4 a33c 0dd7 5a3d 7d56 26bd 4c3c 073d
00000210: 4f50 4bbc 8c19 f73c 42d5 253d ccbd 87bd
00000220: 4c5c 91bc d2da 813c 7f65 553d f299 c03a
00000230: e5f3 6c3d d7e4 0dbd 5c7c 0c3d 97b6 49bd
00000240: 6a85 d8bc 7a84 dd3c 2c3b 893b 2582 93bd
00000250: 5204 7dbd 7093 a53d defd 233d 85df aabc
00000260: 179f 7fbd e7bc 733c 723f cbbb 06a9 28bd
00000270: b608 823d f038 6dbd 18ab b43d 4aac 55bd
00000280: a6e8 203d e93b 9f3d 2d38 b1bc 8388 333d
00000290: d7e6 733b 601d 423d cd6e 6abc ffd2 353d
000002a0: 6665 8abc a2e2 f6bc 3e23 823d 03f9 0bbc
000002b0: 9b4b 843d ae54 893b c2f6 823d d822 403d
000002c0: e339 013d fc3c c7bc cb77 a7bc 45be 59bd
000002d0: c065 533d 310b 3e3c 958d 043c 21ae 37bd
000002e0: b5f3 13bc dd92 0e3c 95c3 d8ba 3149 933c
000002f0: 9c8f 3a3d 437f d73c cf0a 09bd d85c 343c
00000300: 8549 9e3d e9e1 71bd 3adc ebbc 1dc3 2dbd
00000310: 8d9c 9e3d 2d53 98bd 09e0 963d 1be2 32bc
00000320: a483 5f3d 65fc 8c3d 84ec 9cbc d5cb 5d3d
00000330: 3a35 013d 12f7 0f3d f445 84bd d583 713b
00000340: f2fd 2fbd d049 913d 341e 18bd 0036 4bba
00000350: e4cb 09bd 5010 8f3d 1c1b 5d3d 9c1e 4ebd
00000360: cc3f 733d 3e1b 0e3d 0048 0c38 cfc1 23bd
00000370: 8023 5f3b 5afd 6f3d 989e 7c3c 28cc 39bb
00000380: c2ef 8d3c 9c7d 953d 5ffb cb3c 5882 653d
00000390: df39 c53c aa0a e7bc 69d7 b9bc f3a2 9cbd
000003a0: 249c dcbc 278d 7d3c 0116 b53c 47e0 1dbd
000003b0: 3bfd cd3c c97d 45bd e378 8a3d 7782 9bbc
000003c0: 4262 b5bc 5526 64bd 1792 1e3d d338 a73d
000003d0: 0804 6d3c 4446 503d 3da7 493c ebee b4bd
000003e0: dc1f acbd e2c9 68bc 87dc 243d c124 53bd
000003f0: 3ac2 473b a548 8c3c e008 0ebd 520c acbd

encoder_blocks.2.2.bias f4 [12]
0.059433416 0.056507736 0.004522672 -0.043657705 -0.004791451 0.048540264 0.11598813 -0.048208185
0.054203227 0.056213666 0.105125956 -0.04206894
00000000: 7470 733d a874 673d ec32 943b 6cd2 32bd
00000010: 9b01 9dbb 28d2 463d 2f8b ed3d f275 45bd
00000020: 3404 5e3d 4d40 663d 474c d73d 7b50 2cbd

encoder_blocks.3.0.weight f4 [12, 12, 13]
0.07494552 0.027969392 -0.010986411 -0.048833095 -0.015848598 0.046910536 -0.062239774 -0.041910317
-0.049262032 0.06163324 0.078545846 -0.04560525 -0.06608117 -0.055883534 0.06865994 0.028630475
0.044160523 0.020929022 -0.015262115 0.051983546 -0.07289641 -0.030950239 0.0007864063 -0.03715363
0.02614367 0.017547477 0.049052075 0.06651992 0.05914268 -0.012037844 0.01194307 -0.013564206
-0.042643413 0.008572937 -0.056712866 -0.015235442 0.003557156 0.016136246 0.016410926 0.04524426
-0.044355314 0.025678342 -0.01272059 0.054560103 0.05963626 -0.03841143 -0.009700959 0.03084031
0.0744977 -0.04076006 0.02482271 -0.030302685 -0.06690479 0.041729055 -0.06069499 0.039167356
0.06523189 0.036814112 -0.056737967 -0.06818096 -0.0031655382 0.014619798 -0.031501547 0.016428797
-0.021455118 -0.07124822 -0.042629883 -0.023414051 0.062121246 -0.06564633 -5.3768395e-05 0.08152841
0.007176722 0.012393265 0.004803855 -0.051223673 0.037429743 0.043301426 -0.0457818 0.0052012703
0.035089284 -0.049246624 -0.03192277 -0.038084555 -0.005711728 0.0656099 -0.08563043 0.015717175
-0.0044224267 -0.025848713 0.07546644 0.079836406 0.05244086 -0.0020070758 -0.06104534 -0.06373508
-0.00728299 0.04950977 0.036785062 0.020244462 0.05828831 0.010741912 0.05964124 -0.06759201
-0.027021227 0.03146116 -0.01035055 -0.053489074 -0.028446246 -0.005373215 0.051110823 -0.074782126
0.014320658 -0.06709661 -0.042578425 0.065823466 -0.043455936 -0.07091783 -0.018226547 0.06804965
-0.0056787943 -0.005116764 -0.049217157 -0.07703891 0.024220865 0.0035855535 0.0068568713 -0.0660467
0.043847643 -0.055278778 -0.0029978002 -0.0745132 0.0059331963 0.045565646 0.008899003 -0.017304828
-0.06435547 0.037160117 -0.03103402 0.008573866 -0.07920294 0.073966324 -0.024689415 0.06403941
0.007917495 -0.030361056 0.03243251 0.08200816 -0.03194609 0.025264492 0.05407958 -0.016108086
0.012269426 0.029117651 0.059758123 -0.07718799 -0.01798481 -0.01516186 -0.039169166 0.09245556
0.091471076 -0.06739411 0.11279835 0.064263545 -0.05954253 0.1018474 0.023101492 0.067775495
0.051980145 -0.029145822 -0.075751506 -0.076749384 -0.007466216 0.031768598 -0.06708415 0.0032939354
0.05800168 0.06575123 -0.02498682 0.03326308 0.021619402 0.07829511 0.008470114 0.024330806
-0.06541414 0.07727659 -0.025403596 0.061234348 -0.01343162 -0.045202017 -0.042262454 0.07867588
-0.038409825 -0.058560494 -0.004420255 -0.059318494 0.018658567 0.04732649 0.0047899666 0.012342175
0.02116815 0.059568476 -0.028468423 0.0629765 -0.02991946 -0.024317238 -0.016387252 0.06918147
-0.032400824 0.0559673 -0.07259927 0.01134475 -0.04704245 0.074666545 -0.0727476 0.033328287
0.041634142 0.030204527 -0.008525502 0.060901035 0.012720239 -0.017130835 -0.027404066 0.03728679
-0.058647458 -0.02483162 0.06159833 -0.055345293 0.054662462 -0.03897191 0.027347017 -0.0135921985
-0.009422141 -0.017473768 0.042300124 0.098644 -0.004909986 0.08247466 0.093724035 0.07299245
-0.015541667 0.055445332 0.039887276 0.011521978 0.020034688 0.06501265 0.090724826 0.014179849
0.0016455452 -0.0027816573 0.005521868 -0.03372302 0.06360026 0.009388369 -0.0024110302 -0.07668581
00000000: 097d 993d 1120 e53c 5900 34bc 3605 48bd
00000010: ebd4 81bc 4325 403d 22ef 7ebd 27aa 2bbd
00000020: fcc6 49bd 2373 7c3d a5dc a03d 92cc 3abd
00000030: 9155 87bd 22e6 64bd 959d 8c3d 758a ea3c
00000040: aae1 343d 5773 ab3c f30d 7abc b3ec 543d
00000050: b74a 95bd 5b8b fdbc d526 4e3a 682e 18bd
00000060: 402b d63c babf 8f3c d4ea 483d 993b 883d
00000070: 983f 723d 613a 45bc deac 433c 673c 5ebc
00000080: dcaa 2ebd 8175 0c3c c04b 68bd 139e 79bc
00000090: 2d1f 693b 2930 843c 3570 863c 0c52 393d
000000a0: ebad 35bd 635b d23c 066a 50bc 6a7a 5f3d
000000b0: 2745 743d 4e55 1dbd c5f0 1ebc d1a4 fc3c
000000c0: 4092 983d 05f4 26bd ff58 cb3c 563d f8bc
000000d0: 6105 89bd 16ec 2a3d 4f9b 78bd f36d 203d
000000e0: 4c98 853d 65ca 163d 1266 68bd 76a2 8bbd
000000f0: eb74 4fbb e187 6f3c c407 01bd af95 863c
00000100: a5c2 afbc 96ea 91bd ac9c 2ebd d3ce bfbc
00000110: d972 7e3d 9571 86bd 6085 61b8 5ef8 a63d
00000120: b52a eb3b 1f0d 4b3c a869 9d3b eacf 51bd
00000130: ee4f 193d d65c 313d b285 3bbd 6b6f aa3b
00000140: c8b9 0f3d d4b6 49bd 73c1 02bd 8dfe 1bbd
00000150: 7229 bbbb 7c5e 863d 025f afbd 4ec1 803c
00000160: 01ea 90bb aec0 d3bc 268e 9a3d 4581 a33d
00000170: 3acc 563d 2589 03bb ae0a 7abd 8a87 82bd
00000180: 26a6 eebb c2ca 4a3d efab 163d b7d7 a53c
00000190: b9bf 6e3d d8fe 2f3c 5f4a 743d ae6d 8abd
000001a0: 9f5b ddbc 6bdd 003d 5a95 29bc 5c17 5bbd
000001b0: 1a08 e9bc cb11 b0bb 9559 513d 5f27 99bd
000001c0: 31a1 6a3c f369 89bd b766 2ebd 74ce 863d
000001d0: dafe 31bd 5e3d 91bd d74f 95bc 9d5d 8b3d
000001e0: 2e15 babb 87aa a7bb ee97 49bd 93c6 9dbd
000001f0: d66a c63c 9bfb 6a3b 9baf e03b 7e43 87bd
00000200: 9699 333d 006c 62bd be76 44bb 609a 98bd
00000210: 426b c23b 0ba3 3a3d 20cd 113c dbc2 8dbc
00000220: cdcc 83bd 3535 183d 0f3b febc 6779 0c3c
00000230: 2735 a2bd a87b 973d 7541 cabc 1827 833d
00000240: 62b8 013c c0b7 f8bc f4d7 043d e5f3 a73d
00000250: e7d9 02bd 7bf7 ce3c 8d82 5d3d 1bf5 83bc
00000260: b405 493c 2488 ee3c efc4 743d bd14 9ebd
00000270: e154 93bc 7369 78bc d96f 20bd 5759 bd3d
00000280: 3055 bb3d ec05 8abd d202 e73d 9b9c 833d
00000290: dee2 73bd 5f95 d03d 573f bd3c e1cd 8a3d
000002a0: 22e9 543d 38c3 eebc 9b23 9bbd c82e 9dbd
000002b0: 29a7 f4bb ca1f 023d 6a63 89bd 11df 573b
000002c0: 2b93 6d3d 95a8 863d 29b1 ccbc de3e 083d
000002d0: 2c1b b13c 3059 a03d 3cc6 0a3c 6651 c73c
000002e0: d9f7 85bd 3043 9e3d 341b d0bc ded0 7a3d
000002f0: 4c10 5cbc c025 39bd 651b 2dbd d220 a13d
00000300: 9f53 1dbd 21dd 6fbd c9d7 90bb f3f7 72bd
00000310: dad9 983c 6cd9 413d 27f5 9c3b d536 4a3c
00000320: d468 ad3c 13fe 733d 9c36 e9bc d3f9 803d
00000330: a819 f5bc f234 c7bc 8f3e 86bc 04af 8d3d
00000340: bab6 04bd f83d 653d edae 94bd 55df 393c
00000350: 96af 40bd c6ea 983d b2fc 94bd 3e83 083d
00000360: 9088 2a3d 7c6f f73c 8cae 0bbc 5d73 793d
00000370: 8d68 503c f755 8cbc 7e7e e0bc 08ba 183d
00000380: 5138 70bd ae6b cbbc 884e 7c3d bfb1 62bd
00000390: bfe5 5f3d 02a1 1fbd da06 e03c d0b1 5ebc
000003a0: 535f 1abc 2625 8fbc e542 2d3d de05 ca3d
000003b0: f3e3 a0bb 79e8 a83d 63f2 bf3d 117d 953d
000003c0: 7aa2 7ebc a51a 633d d760 233d aec6 3c3c
000003d0: c91f a43c 5a25 853d f0cd b93d 9952 683c
000003e0: 56af d73a 774c 36bb c9f0 b43b 2621 0abd
000003f0: da40 823d acd1 193c 6002 1ebb 730d 9dbd

encoder_blocks.3.0.bias f4 [12]
-0.048331577 0.061470848 0.0886999 -0.021968411 -0.044881098 0.087293185 -0.027307557 -0.050117727
0.008057603 -0.080648735 0.029411998 0.025244396
00000000: 55f7 45bd dbc8 7b3d 4ba8 b53d 19f7 b3bc
00000010: 3ed5 37bd c5c6 b23d 19b4 dfbc 3f48 4dbd
00000020: 0904 043c 2a2b a5bd 6ef1 f03c 56cd ce3c

encoder_blocks.3.2.weight f4 [12, 12, 13]
0.006295778 -0.056555558 -0.01288431 0.053244125 -0.035887733 -0.06438095 0.033307504 -0.011534018
-0.051485304 -0.0025149176 -0.0471586 0.032855917 -0.007796355 0.026461575 -0.0031634439 -0.010618205
-0.03087954 -0.043144993 0.01006057 -0.065014035 0.058859587 -0.03247534 -0.008976847 0.06634653
0.034236506 0.04749019 -0.0009826988 -0.040590476 0.029915221 -0.06474958 0.026137171 -0.06711503
0.049928777 -0.053908106 -0.00380743 0.07899712 0.0037560777 -0.000919845 -0.03822416 -0.050728623
0.060481496 -0.07423091 0.003673434 0.019478615 0.03907409 0.012458083 0.031053284 -0.031104803
-0.032364033 0.068223804 -0.068188086 0.0047420594 0.06448838 0.06251307 0.048770566 -0.0030216537
-0.004498829 -0.046537533 0.006891898 0.04496313 0.066429146 -0.01228712 0.023826314 -0.025660893
-0.050193027 -0.03172674 -0.032601316 -0.07855615 0.07166956 -0.04188786 -0.026192069 0.048950635
0.070725866 0.059531216 0.0727681 0.015384741 0.059293203 -0.063808724 -0.020835215 -0.072514944
0.035227973 -0.063988805 -0.040268343 -0.057427462 -0.0732164 -0.0062529924 0.05362868 -0.0772169
-0.017090997 0.032939956 0.04033705 -0.0445342 0.014766343 -0.065600224 0.077941164 0.0361813
0.052737817 0.020392612 0.029262938 0.03883715 -0.019678261 -0.045712892 -0.03256037 0.008640803
0.044204053 -0.030255806 0.07117354 0.065608606 -0.02608936 0.07281059 0.0057257 -0.026551975
0.019128865 0.066955656 -0.022848818 0.050547518 -0.0019409469 0.0060200514 0.001191075 0.03996419
0.07103134 0.017618617 0.037410695 -0.057638317 0.057814337 -0.0090993475 -0.0022179838 -0.06066679
0.070244946 -0.035029545 0.07586542 -0.018129528 -0.041739196 -0.060407713 -0.048641343 0.05041633
-0.054654513 -0.03035456 -0.014314656 -0.004190846 -0.0017758115 0.010714664 -0.07954084 0.013919759
0.042812098 -0.02213777 -0.051010307 -0.008779513 -0.0630014 -0.03410733 -0.014788416 0.0004748761
-0.025138445 0.029566478 -0.017203439 -0.026456539 0.007200346 -0.04879631 0.04382613 0.019473987
-0.019983992 0.07584418 0.07270402 -0.021236533 0.073147684 0.018678771 0.009877964 -0.035959262
0.05287852 -0.016798278 0.041034084 0.019759422 -0.034258533 0.042401724 -0.07924149 -0.033551246
-0.07635472 0.06876853 -0.036449254 0.004228346 -0.04424378 -0.029636774 0.02288523 0.067306206
-0.04958335 -0.0380231 -0.029929537 0.014309304 -0.056830503 -0.023038376 0.06788834 0.052933015
0.0064073144 0.05689275 0.026388621 -0.015538116 0.00903192 -0.08123753 0.001376089 -0.0305756
-0.049277287 0.035546534 0.075880386 -0.010070737 0.00485302 0.006163925 0.009410696 0.038376298
-0.040494554 -0.010010429 -0.057924643 0.0488218 0.049827807 -0.053609207 -0.05734971 0.004687932
0.06172308 -0.017149746 -0.052579854 0.0028693583 -0.034080956 0.020163063 0.032134376 0.01793208
0.036831856 -0.034910165 0.045488458 -0.00494552 -0.009607805 -0.047552373 -0.017260449 -0.049024943
0.026648834 -0.036065955 -0.05237748 -0.067928724 -0.071676254 -0.028956894 0.022610659 -0.043446083
0.02428735 -0.04639767 0.066050105 -0.0057808 -0.050155755 0.061756805 -0.057874832 -0.04448008
0.011449084 -0.0043935925 0.07781303 -0.01137317 0.07152666 0.010295406 0.07300198 0.053188697
00000000: d04c ce3b cda6 67bd b718 53bc 8316 5a3d
00000010: 04ff 12bd 29da 83bd 736d 083d 2ef9 3cbc
00000020: 41e2 52bd 51d1 24bb 6029 41bd ed93 063d
00000030: 9178 ffbb f2c5 d83c c851 4fbb fbf7 2dbc
00000040: 17f7 fcbc ceb8 30bd 17d5 243c 1426 85bd
00000050: c016 713d dd04 05bd a013 13bc b1e0 873d
00000060: 943b 0c3d 1385 423d e6cd 80ba 3342 26bd
00000070: c410 f53c 6e9b 84bd 9f1d d63c 9b73 89bd
00000080: 1e82 4c3d bfce 5cbd 1386 79bb 3ec9 a13d
00000090: 8728 763b c121 71ba f090 1cbd d1c8 4fbd
000000a0: 72bb 773d 6006 98bd ffbd 703b 9e91 9f3c
000000b0: 270c 203d fd1c 4c3c 7563 fe3c 80cf febc
000000c0: 2690 04bd ecb8 8b3d 32a6 8bbd 4763 9b3b
000000d0: 7c12 843d da06 803d a5c3 473d f006 46bb
000000e0: ea6a 93bb 249e 3ebd 6ed5 e13b 422b 383d
000000f0: 010c 883d eb4f 49bc 672f c33c cb36 d2bc
00000100: 3497 4dbd e6f3 01bd f588 05bd 0ce2 a0bd
00000110: 7ec7 923d 9b92 2bbd c090 d6bc 7680 483d
00000120: b9d8 903d 01d7 733d 7107 953d 4810 7c3c
00000130: 6edd 723d 26ae 82bd 9dae aabc b782 94bd
00000140: 354b 103d 900c 83bd 6bf0 24bd 0f39 6bbd
00000150: 7bf2 95bd e7e5 ccbb bfa9 5b3d e523 9ebd
00000160: 6b02 8cbc 0cec 063d 7638 253d 7e69 36bd
00000170: 88ee 713c 6959 86bd 9e9f 9f3d d832 143d
00000180: 9c03 583d 680e a73c d4b8 ef3c b413 1f3d
00000190: 4e34 a1bc 713d 3bbd 065e 05bd 2892 0d3c
000001a0: 4f0f 353d 06db f7bc 6fc3 913d ce5d 863d
000001b0: 5ab9 d5bc b81d 953d a79e bb3b 8783 d9bc
000001c0: 23b4 9c3c 0c20 893d 722d bbbc ea0a 4f3d
000001d0: 5f67 feba da43 c53b d81d 9c3a 7eb1 233d
000001e0: e178 913d eb54 903c f53b 193d 2816 6cbd
000001f0: bace 6c3d 6e15 15bc 985b 11bb bd7d 78bd
00000200: 95dc 8f3d 247b 0fbd 545f 9b3d 6084 94bc
00000210: b8f6 2abd 146e 77bd 253c 47bd 5b81 4e3d
00000220: 69dd 5fbd 20aa f8bc 0588 6abc 5d53 89bb
00000230: 59c2 e8ba 8f8c 2f3c 4fe6 a2bd b30f 643c
00000240: bd5b 2f3d 455a b5bc 2ff0 50bd f2d7 0fbc
00000250: e106 81bd 21b4 0bbd 1d4b 72bc cbf8 f839
00000260: 24ef cdbc 6635 f23c 3aee 8cbc 62bb d8bc
00000270: e1f0 eb3b a4de 47bd 0783 333d e987 9f3c
00000280: 78b5 a3bc 3254 9b3d d8e5 943d 3df8 adbc
00000290: 74ce 953d 3904 993c 2fd7 213c 054a 13bd
000002a0: 2697 583d 8b9c 89bc 5b13 283d 83de a13c
000002b0: ad52 0cbd 6ead 2d3d 5d49 a2bd 086d 09bd
000002c0: dd5f 9cbd 84d6 8c3d d04b 15bd f08d 8a3b
000002d0: f738 35bd d2c8 f2bc ce79 bb3c d6d7 893d
000002e0: e917 4bbd 1cbe 1bbd ca2e f5bc 9271 6a3c
000002f0: 1ac7 68bd faba bcbc 0b09 8b3d 4ad0 583d
00000300: 73f4 d13b 5f08 693d f32c d83c 9593 7ebc
00000310: 9efa 133c dd5f a6bd e35d b43a ae79 fabc
00000320: fbd6 49bd 3e99 113d 2d67 9b3d bcff 24bc
00000330: 1506 9f3b c0fa c93b 522f 1a3c 7730 1d3d
00000340: 9edd 25bd c802 24bc 6442 6dbd 5ef9 473d
00000350: 3e18 4c3d 5495 5bbd 88e7 6abd 399d 993b
00000360: 57d1 7c3d a07d 8cbc f95d 57bd d80b 3c3b
00000370: 7998 0bbd 022d a53c 569f 033d 4ce6 923c
00000380: 00dd 163d f6fd 0ebd 1b52 3a3d 070e a2bb
00000390: 0e6a 1dbc 47c6 42bd c965 8dbc 61ce 48bd
000003a0: a84e da3c e5b9 13bd c589 56bd 371e 8bbd
000003b0: 00cb 92bd 0237 edbc fd39 b93c 85f4 31bd
000003c0: 44f6 c63c 7c0b 3ebd 4745 873d dd6c bdbb
000003d0: 1f70 4dbd b4f4 7c3d 290e 6dbd bf30 36bd
000003e0: f094 3b3c 20f8 8fbb 705c 9f3d 8856 3abc
000003f0: 927c 923d 10ae 283c 1082 953d 64dc 593d

encoder_blocks.3.2.bias f4 [12]
-0.07573478 -0.060367525 -0.07455263 -0.04332745 -0.021231206 0.02974893 0.004112461 0.0054459646
0.0036716885 0.07203392 0.04179502 -0.002177036
00000000: d61a 9bbd f043 77bd 0daf 98bd 2078 31bd
00000010: 11ed adbc 07b4 f33c d3c1 863b 1074 b23b
00000020: b6a0 703b 8586 933d 4131 2b3d 9aac 0ebb
