Python/save/localizer/trial_2/quake_localization_model_00170.pth (torch, 252994 bytes, 35 tensors)

encoder_blocks.0.weight f4 [12, 1, 13]
0.1853242 0.1967491 0.22190446 0.083812766 0.18443017 0.10191006 -0.10787683 -0.06259203
-0.20731665 -0.19869043 -0.19323267 0.08676207 -0.08632886 -0.21284658 -0.24402036 -0.2556054
-0.12540716 0.104023114 -0.16517404 0.27624807 -0.19429544 -0.019780986 0.07348114 0.17279798
0.15830305 -0.043555 0.06959367 -0.08916123 0.03266723 0.06717561 -0.21747509 -0.18789329
0.15542178 -0.06780605 -0.10451382 -0.11167892 -0.006577135 -0.110407405 -0.24621716 0.0797468
0.028678287 -0.20693812 0.07603195 -0.16038887 -0.1349388 0.08359674 0.035731018 0.036439013
-0.090370096 0.002928695 0.26248002 -0.2500286 0.052739404 0.04606819 -0.087857336 -0.0062422953
-0.14403921 -0.114991985 -0.14257964 0.17872217 -0.035262078 0.1212272 -0.011994778 -0.13384789
-0.16693953 -0.08728751 0.23597808 0.096760996 -0.029639035 -0.0565476 0.075787544 0.2206151
-0.23372594 0.077381864 0.15153602 -0.19681622 0.22236437 0.17005934 -0.11352503 0.026168475
0.124616385 0.10520769 0.06680237 -0.032146126 -0.082679026 0.24309728 0.14382377 0.14309886
-0.26733863 0.11947013 -0.1507349 0.09500603 -0.09734555 -0.04917791 0.10638564 -0.20240791
0.272073 0.19941437 -0.08695981 0.13889322 -0.16769722 0.010441353 0.21739295 0.018843604
-0.1715684 -0.017390992 -0.04153978 -0.075414054 0.16814129 0.19498815 0.18661243 0.25111917
0.15712115 0.186905 0.22565196 -0.13362542 0.15450668 0.26264378 -0.0829698 -0.19566073
-0.2157654 0.0026437389 -0.17612654 -0.19753432 0.1317862 0.20947324 -0.18861112 0.26682097
0.053385675 0.10425205 0.27950105 -0.21814299 0.2706601 0.024284504 -0.0325737 0.2036483
0.12013928 0.023782687 -0.039171606 -0.051257025 -0.0072220205 -0.10630331 -0.18295865 0.07373033
0.14716373 -0.2074629 -0.055417772 -0.22710973 -0.26985443 0.08829892 -0.2372404 -0.10536127
-0.17119719 0.23293419 -0.18871309 -0.121381134
00000000: a1c5 3d3e 9978 493e ec3a 633e 07a6 ab3d
00000010: 43db 3c3e 39b6 d03d 87ee dcbd 4030 80bd
00000020: d14a 54be 8175 4bbe c9de 45be 50b0 b13d
00000030: 2fcd b0bd 74f4 59be 79e0 79be b6de 82be
00000040: bc6a 00be 120a d53d 6223 29be 6370 8d3e
00000050: 62f5 46be bc0b a2bc 487d 963d f4f1 303e
00000060: 321a 223e ba66 32bd 2087 8e3d 2a9a b6bd
00000070: 13ce 053d 5e93 893d cab1 5ebe 1967 40be
00000080: e326 1f3e e6dd 8abd 570b d6bd ebb7 e4bd
00000090: 0285 d7bb 471d e2bd 5a20 7cbe 4a52 a33d
000000a0: baee ea3c 96e7 53be a4b6 9b3d fb3c 24be
000000b0: 662d 0abe c534 ab3d b05a 123d 1341 153d
000000c0: f513 b9bd 59ef 3f3b c863 863e c003 80be
000000d0: 4605 583d 00b2 3c3d 8cee b3bd 2b8c ccbb
000000e0: 047f 13be eb80 ebbd 6600 12be f202 373e
000000f0: f86e 10bd f745 f83d bf85 44bc 6c0f 09be
00000100: 32f2 2abe cbc3 b2bd 3da4 713e a12a c63d
00000110: 90cd f2bc 759e 67bd 8036 9b3d ede8 613e
00000120: da55 6fbe 627a 9e3d 422c 1b3e 318a 49be
00000130: 7cb3 633e 0924 2e3e d07f e8bd 455f d63c
00000140: e036 ff3d 2177 d73d aecf 883d a8ab 03bd
00000150: 9f53 a9bd 7eee 783e 8a46 133e 8288 123e
00000160: 9ce0 88be c1ac f43d 405a 1abe 8592 c23d
00000170: 1b5d c7bd c76e 49bd b7e0 d93d 0544 4fbe
00000180: 274d 8b3e 4833 4c3e fc17 b2bd 063a 0e3e
00000190: d2b8 2bbe 3512 2b3c 429c 5e3e e75d 9a3c
000001a0: a0af 2fbe 8e77 8ebc 9e25 2abd af72 9abd
000001b0: 3b2d 2c3e f9aa 473e 5417 3f3e b192 803e
000001c0: 5ee4 203e 0664 3f3e 4f11 673e 1ad5 08be
000001d0: 0037 1e3e 3f79 863e 12ec a9bd 495b 48be
000001e0: 9bf1 5cbe 9442 2d3b 845a 34be 7046 4abe
000001f0: f6f2 063e 2780 563e 4623 41be c29c 883e
00000200: f0aa 5a3d 1982 d53d c31a 8f3e e060 5fbe
00000210: f693 8a3e 4cf0 c63c 006c 05bd 2e89 503e
00000220: 950b f63d e9d3 c23c 6872 20bd e3f2 51bd
00000230: b3a6 ecbb 8db5 d9bd 8359 3bbe edff 963d
00000240: 17b2 163e 2871 54be bffd 62bd 748f 68be
00000250: 5c2a 8abe 10d6 b43d 26ef 72be a6c7 d7bd
00000260: 514e 2fbe 4d86 6e3e 013e 41be ac96 f8bd

encoder_blocks.0.bias f4 [12]
-0.16445024 0.04332908 0.2554334 -0.12192694 0.26491496 -0.23656519 0.049311697 0.09902633
0.061410684 -0.08052715 0.01879086 0.09898652
00000000: a565 28be d579 313d 2bc8 823e d5b4 f9bd
00000010: efa2 873e 253e 72be 10fb 493d 51ce ca3d
00000020: c589 7b3d 6beb a4bd 4aef 993c 72b9 ca3d

encoder_blocks.1.0.weight f4 [12, 12, 13]
-0.013835159 0.05334644 0.067349814 -0.025929343 -0.04766808 0.055817235 -0.045053236 0.019113423
-0.04799563 -0.025268339 -0.034030262 0.052467275 0.010581007 0.05809837 -0.047848202 -0.018823093
-0.05022631 0.015175147 0.007800225 -0.05163071 -0.022687018 -0.07056399 -0.022454405 -0.021106914
-0.04495638 0.0435536 -0.0045438525 0.06712594 -0.0032286728 0.00603889 -0.056648817 -0.06865197
0.07565028 -0.080407016 0.06003494 -0.013257664 0.051682476 0.08191687 0.07082988 -0.080433376
0.037653428 -0.0642084 0.0317185 0.03193818 0.06710553 0.058645967 0.01966485 -0.059372257
-0.0004883806 -0.07904581 -0.06679887 0.06140856 0.00788049 0.04514853 0.0030544552 -0.06947648
0.07053664 0.043781515 -0.023184817 0.009625111 0.006506847 -0.009669411 -0.055619054 0.020041797
-0.01945963 0.040737808 -0.034780312 0.027764143 0.010563979 -0.04656403 -0.05787317 -0.05074092
0.060761146 -0.07005062 0.042435106 0.07376893 0.029948488 -0.046848338 0.033871796 -0.07906665
0.0036324484 0.05031909 0.079185106 -0.04862049 -0.06464765 0.015143884 -0.04751045 0.013735155
0.057782438 0.06748127 0.021164356 -0.04438029 0.0012531502 -0.031624153 -0.047618903 -0.0175367
-0.0338883 -0.055255655 0.06522465 0.050524022 -0.067795835 -0.0075533264 -0.019949533 0.0014072708
0.067887686 -0.026583822 0.004512272 -0.07527142 0.029331235 -0.046624597 0.022432746 -0.033107713
-0.00933229 0.043555267 0.036261417 0.056939762 0.06872561 -0.016553529 -0.032310404 -0.020822179
0.008587598 0.033808507 -0.044180747 -0.07611776 -0.06956599 -0.01238855 -0.019787585 -0.015956504
-0.032126363 -0.060849734 -0.030227188 0.008667914 -0.069379486 0.020715212 -0.035083484 0.067297325
-0.017112127 0.004716162 -0.04098892 -0.007898923 -0.062087018 -0.040038407 -0.019235507 -0.023116155
0.043466084 -0.020871291 -0.016724458 0.063142434 -0.06763435 0.020116627 -0.038266953 0.027672274
0.036275078 -0.041135438 0.043930996 -0.07402902 -0.03115683 0.040715452 -0.06499659 0.04434906
0.031338252 -0.073127314 -0.060130224 0.042176384 0.075270705 0.06763815 -0.05004003 0.05388567
0.058926407 -0.07419243 -0.058594376 0.042614684 0.069361135 0.05827689 0.064779 0.037304875
0.07659843 0.023654127 -0.009640404 0.030527452 -0.05996156 0.06861469 -0.0003315911 0.00935297
0.07921298 0.07248461 0.0020847525 -0.034101374 -0.050508816 -0.04722708 0.044877607 -0.03125126
-0.06605244 0.033047296 0.08462275 0.009877234 0.011347778 0.016494535 0.026375176 0.01715943
-0.035067 -0.06355074 -0.023786275 0.025776522 -0.03134378 0.080483 -0.02639324 0.07429551
-0.039219003 -0.05371523 -0.03668132 -0.062291477 0.010841197 -0.006425075 0.049111266 -0.06889209
0.0020869803 -0.024450233 0.049265437 -0.010697359 0.01766738 0.06758623 0.0020540056 0.004420092
0.049632642 0.0065074107 0.0099493265 0.0060107983 0.026717756 0.04413081 -0.018927809 -0.043470073
-0.027909147 0.039768286 0.026807357 -0.027175717 0.07064767 -0.06515077 -0.05505332 0.073796615
0.028848024 0.050672803 0.0073436922 -0.06988013 -0.011065494 0.017202476 -0.045791216 -0.07352296
-0.03074556 -0.029265167 0.0524131 0.06841768 -0.058855105 0.006685312 -0.013811234 9.898314e-05
00000000: ddac 62bc cc81 5a3d b3ee 893d c669 d4bc
00000010: 9b3f 43bd 9da0 643d be89 38bd c193 9c3c
00000020: 1197 44bd 8cff cebc 5163 0bbd ede7 563d
00000030: f65b 2d3c 8ef8 6d3d 7afc 43bd e332 9abc
00000040: 1aba 4dbd 2ea1 783c 0899 ff3b b97a 53bd
00000050: 20da b9bc da83 90bd 4df2 b7bc 68e8 acbc
00000060: 2e24 38bd 4265 323d 99e4 94bb 5379 893d
00000070: 2498 53bb e2e1 c53b 9708 68bd 6799 8cbd
00000080: 89ee 9a3d 6fac a4bd 32e7 753d ac36 59bc
00000090: 01b1 533d 08c4 a73d 420f 913d 41ba a4bd
000000a0: 7b3a 1a3d b27f 83bd 42eb 013d 9cd1 023d
000000b0: a06e 893d c136 703d 2e18 a13c 5330 73bd
000000c0: ab06 00ba c5e2 a1bd d9cd 88bd 8b87 7b3d
000000d0: 2c1d 013c aaed 383d 412d 483b af49 8ebd
000000e0: 8475 903d 3f54 333d 16ee bdbc a4b2 1d3c
000000f0: 6437 d53b 736c 1ebc ced0 63bd b22e a43c
00000100: cd69 9fbc b0dc 263d cd75 0ebd a171 e33c
00000110: 8a14 2d3c edb9 3ebd 6b0c 6dbd b6d5 4fbd
00000120: aee0 783d b376 8fbd 6fd0 2d3d 2a14 973d
00000130: 8856 f53c 0be4 3fbd 27bd 0a3d b2ed a1bd
00000140: 5f0e 6e3b 641b 4e3d cd2b a23d 4726 47bd
00000150: fd65 84bd 0e1e 783c 519a 42bd 6a09 613c
00000160: 47ad 6c3d 9f33 8a3d df60 ad3c 1bc8 35bd
00000170: be40 a43a 5488 01bd 0a0c 43bd 20a9 8fbc
00000180: 75ce 0abd c153 62bd 8094 853d 47f2 4e3d
00000190: 8bd8 8abd e581 f7bb 346d a3bc 2c74 b83a
000001a0: b308 8b3d 51c6 d9bc aedb 933b e727 9abd
000001b0: 0f48 f03c 6ff9 3ebd e1c4 b73c f49b 07bd
000001c0: 76e6 18bc 0267 323d da86 143d ab39 693d
000001d0: 03c0 8c3d 449b 87bc ea57 04bd 4693 aabc
000001e0: ffb2 0c3c ca7a 0a3d dff6 34bd a1e3 9bbd
000001f0: 9d78 8ebd 58f9 4abc 9319 a2bc 37b7 82bc
00000200: ef96 03bd 923d 79bd 029f f7bc de03 0e3c
00000210: d516 8ebd f3b2 a93c b3b3 0fbd 2ed3 893d
00000220: bb2e 8cbc 098a 9a3b ffe3 27bd 7c6a 01bc
00000230: f54e 7ebd 50ff 23bd c893 9dbc 175e bdbc
00000240: 7e09 323d 45fa aabc bb01 89bc d250 813d
00000250: e183 8abd a0cb a43c cfbd 1cbd f7b0 e23c
00000260: 2d95 143d a27d 28bd fdf0 333d 879c 97bd
00000270: 9c3c ffbc 3fc5 263d ef1c 85bd 5ca7 353d
00000280: 8a5c 003d c6c3 95bd 1c4b 76bd 25c1 2c3d
00000290: 8727 9a3d df85 8a3d c6f6 4cbd 38b7 5c3d
000002a0: d15c 713d 33f2 97bd a800 70bd bc8c 2e3d
000002b0: 360d 8e3d c0b3 6e3d daaa 843d ffcc 183d
000002c0: a3df 9c3d 4dc6 c13c c9f2 1dbc b514 fa3c
000002d0: 419a 75bd dc85 8c3d 67d9 adb9 333d 193c
000002e0: 6a3a a23d d072 943d 58a0 083b e2ad 0bbd
000002f0: 55e2 4ebd 2f71 41bd 95d1 373d 5201 00bd
00000300: 8046 87bd 9a5c 073d b14e ad3d 1fd4 213c
00000310: 08ec 393c 8c1f 873c c110 d83c ef91 8c3c
00000320: 6aa2 0fbd e426 82bd 6fdb c2bc 4929 d33c
00000330: 5662 00bd 45d4 a43d a336 d8bc 3f28 983d
00000340: 1ba4 20bd 8004 5cbd 273f 16bd 5925 7fbd
00000350: 479f 313c 6f89 d2bb e528 493d 4c17 8dbd
00000360: b8c5 083b db4b c8bc 8eca 493d fa43 2fbc
00000370: 2ebb 903c a66a 8a3d 7f9c 063b 6bd6 903b
00000380: 994b 4b3d 1e3c d53b 8002 233c 3bf6 c43b
00000390: 32df da3c 82c2 343d 7e0e 9bbc ad0d 32bd
000003a0: b9a1 e4bc 12e4 223d 1a9b db3c 9c9f debc
000003b0: baaf 903d c46d 85bd 977f 61bd ae22 973d
000003c0: b152 ec3c 498e 4f3d 5ba3 f03b 501d 8fbd
000003d0: 0c4c 35bc 35ec 8c3c 928f 3bbd 3593 96bd
000003e0: 1dde fbbc 81bd efbc 1eaf 563d 921e 8c3d
000003f0: 0d12 71bd 7610 db3b 8448 62bc 2b95 cf38

encoder_blocks.1.0.bias f4 [12]
0.018840723 -0.00010322968 -0.06067136 0.061646152 -0.08587363 0.020660402 -0.03373862 -0.02202977
0.05355442 0.080993325 0.067340486 0.029132918
00000000: dc57 9a3c 037d d8b8 8882 78bd ad80 7c3d
00000010: 84de afbd 0140 a93c 8231 0abd c777 b4bc
00000020: e15b 5b3d d4df a53d cfe9 893d 28a8 ee3c

encoder_blocks.1.2.weight f4 [12, 12, 13]
0.055336695 -0.050566375 0.047413785 0.08059356 0.048534874 0.0362442 0.00799959 -0.00071424805
-0.012782324 -0.031228548 -0.0054558134 -0.009499842 0.061726887 -0.057732187 0.01612808 -0.011062727
0.0019615707 0.045566782 0.0747013 -0.067952126 0.079510264 -0.057020385 0.08039557 -0.014807467
0.055493426 0.057828657 -0.051229473 -0.075788856 0.044541355 0.012933197 -0.0136996955 -0.034169633
-0.07751214 -0.054371085 0.069705 0.028302079 0.05237813 -0.03724379 0.038613558 0.0106037585
-0.030665012 -0.008117853 0.033954337 -0.018348055 0.05124113 0.005984076 -0.046789784 0.013635054
0.017288893 -0.06301306 -0.060908105 0.07111004 0.06285341 0.014981308 -0.05521894 -0.04587581
0.014779227 -0.007934672 0.0060116625 0.07085813 0.028837882 -0.017056584 -0.056019634 0.004554007
0.024874425 0.06850535 -0.037627153 -0.06624408 0.013970912 -0.06115048 0.059737433 -0.023485186
-0.07320057 -0.074339606 -0.008807922 0.041481063 -0.036146257 -0.0063970145 -0.011024573 0.039959215
0.035489496 -0.030065168 0.009184939 0.030776385 -0.006896812 -0.014731459 0.021818655 0.014017551
-0.05990151 0.045630466 -0.030344652 0.072332524 0.00046639942 0.03942996 0.017610658 0.07355064
-0.0034321141 0.013991847 -0.07614763 0.02313701 0.011192354 -0.04784185 -0.0715175 0.07828931
-0.072520316 0.0444278 -0.010708696 -0.010440749 -0.06884134 0.028807877 0.033316366 0.025505768
-0.026078304 0.027317757 -0.03153268 0.029906416 0.0016558403 0.055114612 -0.024811445 -0.0034946946
-0.06276292 0.045605246 0.07255458 0.06270261 -0.07938858 0.059667498 -0.0133944405 -0.0066011953
0.03952676 0.041730262 -0.0403922 -0.023811499 0.058732256 -0.05812622 0.04193591 -0.040256552
-0.05324697 0.078596026 -0.051939707 -0.0341692 0.075261325 -0.053174127 0.07053772 -0.0741444
-0.021987576 -0.02303094 0.079796344 0.029250517 -0.032242473 0.0674363 0.023022644 0.07003019
0.028100321 0.06147924 0.07615489 -0.03537612 0.00049293 -0.007981596 -0.06180081 -0.06721676
-0.014950189 -0.07890041 0.022339381 -0.049739495 -0.022015205 0.03718186 0.04942923 -0.021331009
-0.03158702 -0.078658134 -0.025332179 0.020792171 -0.010334597 0.061370865 0.08586347 0.011794611
0.041673668 0.07176531 0.0054028705 -0.08019351 0.061217256 -0.067018434 -0.047963675 0.01588736
0.06385257 0.030374613 -0.010756924 0.05775813 -0.080280535 0.07869582 -0.01112669 0.030616611
-0.012284429 0.07546314 0.0061140805 -0.033303134 0.006496277 -0.0039253547 0.052141953 -0.03283237
-0.060476992 0.0034579332 -0.06523032 -0.047416598 0.06984939 0.037232786 -0.05814662 0.0112801455
0.05134947 -0.031091245 -0.001488561 -0.054406047 -0.03822546 0.07511604 -0.0639646 0.08126352
-0.009569846 -0.025491847 0.022610439 0.033349257 -0.035740666 0.06895123 0.06014645 -0.0011148896
-0.02632358 -0.074112326 0.047378097 0.034595583 -0.06540811 0.07409273 0.052351143 0.042628415
-0.07056798 0.06728878 -0.0141112935 0.004924396 -0.043899175 -0.006922396 -0.024583723 0.009629329
0.06307219 -0.05541716 0.016341176 0.015926495 0.028007135 0.03707154 -0.07635203 0.021882301
-0.018756699 0.051861305 0.02321578 -0.055784333 0.03761513 0.06916127 -0.057610564 -0.058055233
00000000: bba8 623d b01e 4fbd f534 423d 3d0e a53d
00000010: 81cc 463d cc74 143d b610 033c 603c 3bba
00000020: f46c 51bc 03d3 ffbc aec6 b2bb 3aa5 1bbc
00000030: 55d5 7c3d 9678 6cbd 091f 843c 7140 35bc
00000040: b28d 003b 3ca4 3a3d fffc 983d 7c2a 8bbd
00000050: 47d6 a23d 358e 69bd 6fa6 a43d 059b 72bc
00000060: 134d 633d bedd 6c3d ffd5 51bd 3037 9bbd
00000070: ff70 363d c3e5 533c b074 60bc 75f5 0bbd
00000080: afbe 9ebd 37b4 5ebd 7fc1 8e3d c3d9 e73c
00000090: 738a 563d f28c 18bd 4029 1e3d 63bb 2d3c
000000a0: 3135 fbbc be00 05bc b413 0b3d a94e 96bc
000000b0: 38e2 513d 1116 c43b a5a6 3fbd 9065 5f3c
000000c0: 70a1 8d3c fe0c 81bd c77a 79bd 24a2 913d
000000d0: 4ab9 803d 2974 753c 412d 62bd 46e8 3bbd
000000e0: 9224 723c 6d00 02bc 7bfd c43b 111e 913d
000000f0: 6c3d ec3c 40ba 8bbc d874 65bd c839 953b
00000100: 73c5 cb3c 884c 8c3d ee1e 1abd faaa 87bd
00000110: 41e6 643c ed78 7abd 3daf 743d 0164 c0bc
00000120: 2eea 95bd 5d3f 98bd 1a4f 10bc 0ce8 293d
00000130: 190e 14bd 0c9e d1bb 69a0 34bc 46ac 233d
00000140: 6f5d 113d 3a4b f6bc 6d7c 163c c21e fc3c
00000150: a7fe e1bb 385c 71bc 09bd b23c dfa9 653c
00000160: 495b 75bd 03e7 3a3d 5995 f8bc 1323 943d
00000170: 1287 f439 4f81 213d 3a44 903c b8a1 963d
00000180: 52ed 60bb 0f3e 653c 4af3 9bbd d489 bd3c
00000190: 2360 373c d1f5 43bd c477 92bd 2556 a03d
000001a0: 8885 94bd edf9 353d 8773 2fbc ad0f 2bbc
000001b0: b0fc 8cbd 7ffe eb3c be76 083d 79f1 d03c
000001c0: 2ba2 d5bc 7dc9 df3c 6928 01bd 4dfe f43c
000001d0: c808 d93a dcbf 613d 5f41 cbbc 3f07 65bb
000001e0: d989 80bd 91cc 3a3d 7f97 943d 3a6a 803d
000001f0: 7b96 a2bd e865 743d 5b74 5bbc d74e d8bb
00000200: d0e6 213d 5aed 2a3d 4b72 25bd 5510 c3bc
00000210: 3c91 703d c215 6ebd fdc4 2b3d 0ee4 24bd
00000220: 7f19 5abd f4f6 a03d bbbe 54bd 01f5 0bbd
00000230: 9c22 9a3d 1dcd 59bd 1576 903d 05d9 97bd
00000240: 4a1f b4bc 62ab bcbc 446c a33d c89e ef3c
00000250: af10 04bd 0b1c 8a3d fc99 bc3c fd6b 8f3d
00000260: a532 e63c a8d1 7b3d 18f7 9b3d 8de6 10bd
00000270: f937 013a 3dc5 02bc d922 7dbd f1a8 89bd
00000280: a3f1 74bc 8a96 a1bd 1401 b73c a4bb 4bbd
00000290: 3b59 b4bc 024c 183d 4e76 4a3d 5ebe aebc
000002a0: 6461 01bd 8417 a1bd 6e85 cfbc 5854 aa3c
000002b0: 7152 29bc 0460 7b3d 30d9 af3d 2f3e 413c
000002c0: 02b2 2a3d b1f9 923d 900a b13b 7f3c a4bd
000002d0: f2be 7a3d f640 89bd 8f75 44bd 3526 823c
000002e0: 23c5 823d 2ed4 f83c cf3d 30bc ca93 6c3d
000002f0: 1f6a a4bd 462b a13d b84c 36bc b0cf fa3c
00000300: a144 49bc 6b8c 9a3d a058 c83b de68 08bd
00000310: b9de d43b 43a0 80bb cd92 553d 3c7b 06bd
00000320: b9b6 77bd 7e9e 623b 7997 85bd e837 42bd
00000330: 320d 8f3d 6881 183d 262b 6ebd 5cd0 383c
00000340: d253 523d 11b3 febc d21b c3ba e0d8 5ebd
00000350: 4d92 1cbd 70d6 993d dfff 82bd 7d6d a63d
00000360: d8ca 1cbc 47d4 d0bc 8739 b93c 3b99 083d
00000370: ce64 12bd 4d36 8d3d 205c 763d 7d21 92ba
00000380: 8ca4 d7bc 34c8 97bd 890f 423d 19b4 0d3d
00000390: b0f4 85bd eebd 973d 276e 563d 229b 2e3d
000003a0: f285 90bd b3ce 893d 0e33 67bc d45c a13b
000003b0: 9fcf 33bd 44d5 e2bb ce63 c9bc 55c4 1d3c
000003c0: fe2b 813d 1bfd 62bd eedd 853c 4878 823c
000003d0: 386f e53c 54d8 173d 745e 9cbd 8342 b33c
000003e0: a6a7 99bc 856c 543d 052f be3c 1d7e 64bd
000003f0: 5312 1a3d 6da4 8d3d 0ef9 6bbd 53cb 6dbd

encoder_blocks.1.2.bias f4 [12]
-0.0011333273 -0.0007277373 0.07121962 0.028762491 0.021884589 -0.03971859 -0.045836747 -0.0731498
0.040804565 0.04636819 0.060839914 -0.0132369315
00000000: 278c 94ba a0c5 3eba 98db 913d 519f eb3c
00000010: 4f47 b33c f6af 22bd 50bf 3bbd 90cf 95bd
00000020: b022 273d 92ec 3d3d 4633 793d b7df 58bc

encoder_blocks.2.0.weight f4 [12, 12, 13]
0.07531964 -0.0144232465 0.027273778 0.04889945 0.0072275256 0.034001194 0.07673482 0.03613731
0.019565005 -0.07898887 0.04487094 -0.07007408 0.05261541 -0.07249926 0.066767156 -0.03781829
-0.006438736 0.0140651865 -0.06778066 -0.020829478 0.04317809 -0.07742065 0.031094033 -0.00070141064
0.042012125 -0.06383104 0.047027208 -0.039611556 -0.068176545 -0.043790024 0.035544753 0.00057711994
-0.06071323 -0.03241603 0.022335282 -0.049364466 0.010395441 0.003961653 0.06065081 0.037398346
-0.08168937 -0.011915544 0.05861042 0.033207167 0.015268694 -0.0011681718 -0.032665502 -0.0596227
0.079305895 0.010997606 0.007850384 0.04587066 0.043699168 -0.026030423 0.041229293 0.010964799
0.02437632 0.061736114 0.05126589 -0.07044123 -0.009854675 0.030570349 0.062042724 0.020966653
0.002179519 -0.026398016 0.021490557 0.014474378 -0.06672726 -0.07029677 -0.074878745 -0.028868685
0.064461745 0.025186876 -0.076963864 -0.0014196788 -0.040834673 0.06050461 0.04239696 -0.004461892
-0.010063213 0.0007702277 -0.0023096378 -0.0010743641 0.018945998 -0.04268935 -0.03528157 -0.063448966
-0.035113193 0.006228381 0.048455287 -0.04520941 -0.07337018 0.055747617 -0.008821279 -0.049155854
0.022356886 -0.013310443 -0.02600193 0.07606785 -0.05543165 0.01683959 0.046314154 -0.042929422
-0.018707672 -0.045879867 0.022761075 -0.057766516 0.06958011 0.07653748 -0.030108472 0.054209072
-0.07074994 -0.009090718 0.032177486 -0.06224062 -0.04249433 -0.03590131 0.008272342 -0.009388582
-0.06404071 0.07495757 -0.07276106 0.042369135 -0.01616056 -0.0627444 0.01524163 -0.03930115
-0.036398157 -0.050128557 -0.071503505 -0.06302396 -0.07389246 -0.008016863 0.018085746 0.026066754
0.06819995 0.0013671187 -0.0008010155 0.06216249 0.04014091 0.027683744 -0.05614789 0.005642756
-0.06619678 -0.055342562 0.06919852 -0.06752876 -0.05377616 0.005132728 0.022301646 -0.00034263605
0.016812984 0.07677473 -0.05407909 0.057336926 0.05581537 -0.03884846 0.0071851327 0.050515525
-0.036245536 0.035429288 -0.015297163 -0.009959195 0.017842565 0.0016113489 0.040872008 0.06900745
-0.035012588 0.08159156 0.04406372 -0.021590268 -0.044538107 -0.03899229 0.01477622 0.038176347
-0.021847254 -0.002134656 0.060291342 0.04287304 -0.030632213 0.07624108 -0.0033989185 0.026204426
-0.044882115 0.045446966 0.06833458 0.00044923005 -0.021694122 0.01591698 -0.060112245 -0.022692248
0.02982486 -0.0032386957 0.06286235 0.06737872 0.062310383 0.05997078 -0.05633425 0.016381891
0.016632868 0.044063766 -0.026073195 0.028357986 -0.004656544 0.06347702 -0.010256836 -0.0142476205
0.018802175 0.007684883 0.0319339 0.07347311 -0.05899444 0.05309711 0.0061134407 -0.015741298
-0.051390644 -0.07193407 -0.074539356 0.029932061 0.05404145 0.015597609 0.044395026 -0.0034152044
-0.06800903 0.052734964 0.07573373 -0.06059156 -0.024721254 0.06639784 -0.029806795 -0.056382716
0.030545581 0.05704095 -0.07223075 0.035939418 0.030021183 -0.046176028 0.055937927 -0.06622851
-0.006752386 0.0027631617 0.05071341 0.037322488 -0.076142184 0.06821932 -0.04373526 -0.039125543
-7.8079334e-05 -0.044995997 0.04282246 0.045902226 -0.020725219 -0.008894794 0.015015181 -0.036760975
00000000: 2f41 9a3d 7b4f 6cbc 426d df3c ca4a 483d
00000010: e1d4 ec3b d644 0b3d 2527 9d3d b704 143d
00000020: ca46 a03c ebc4 a1bd 97ca 373d 0083 8fbd
00000030: 4283 573d 7e7a 94bd 38bd 883d 5ae7 1abd
00000040: 08fc d2bb ab71 663c 96d0 8abd 95a2 aabc
00000050: 82db 303d b88e 9ebd eab8 fe3c dfde 37ba
00000060: e814 2c3d d9b9 82bd 9a9f 403d ba3f 22bd
00000070: 25a0 8bbd 2b5d 33bd 6097 113d dd49 173a
00000080: 70ae 78bd acc6 04bd 7bf8 b63c 6532 4abd
00000090: a451 2a3c c1d0 813b fc6c 783d 022f 193d
000000a0: c24c a7bd 6a39 43bc 7b11 703d 3d04 083d
000000b0: 8b29 7a3c 571d 99ba 43cc 05bd ef36 74bd
000000c0: 216b a23d 4e2f 343c e69e 003c e0e2 3b3d
000000d0: e6fd 323d c13d d5bc 0ce0 283d b3a5 333c
000000e0: d9b0 c73c 02df 7c3d 2ffc 513d 7e43 90bd
000000f0: 8175 21bc ab6e fa3c 8320 7e3d 42c2 ab3c
00000100: 43d6 0e3b a740 d8bc f70c b03c f125 6d3c
00000110: 4da8 88bd c1f7 8fbd 075a 99bd 057e ecbc
00000120: 8504 843d b554 ce3c 3b9f 9dbd 8414 baba
00000130: 4242 27bd afd3 773d 6fa8 2d3d 1035 92bb
00000140: 2de0 24bc 1be9 493a 4b5d 17bb add1 8cba
00000150: a334 9b3c 07db 2ebd 6883 10bd 88f1 81bd
00000160: dad2 0fbd 7217 cc3b 0d79 463d 812d 39bd
00000170: 1b43 96bd 9d57 643d 2087 10bc a657 49bd
00000180: ca25 b73c 0b14 5abc 0002 d5bc 76c9 9b3d
00000190: 4c0c 63bd 2ef3 893c e9b3 3d3d c3d6 2fbd
000001a0: d540 99bc 87ec 3bbd 6f75 ba3c 959c 6cbd
000001b0: 0480 8e3d afbf 9c3d 0ba6 f6bc 550a 5e3d
000001c0: 58e5 90bd 3cf1 14bc 8acc 033d 05f0 7ebd
000001d0: 890e 2ebd 410d 13bd b888 073c 91d2 19bc
000001e0: c727 83bd 5b83 993d c003 95bd 428b 2d3d
000001f0: 2763 84bc 2380 80bd 08b8 793c 3efa 20bd
00000200: 3c16 15bd 9a53 4dbd 6e70 92bd b512 81bd
00000210: ee54 97bd 2959 03bc 8f28 943c f289 d53c
00000220: 6aac 8b3d e430 b33a 3efb 51ba 189e 7e3d
00000230: cb6a 243d 05c9 e23c 54fb 65bd dee6 b83b
00000240: 2d92 87bd e2ae 62bd f4b7 8d3d 854c 8abd
00000250: 6444 5cbd 7130 a83b f1b1 b63c d5a3 b3b9
00000260: 62bb 893c 123c 9d3d 0982 5dbd 20da 6a3d
00000270: a89e 643d 901f 1fbd 4371 eb3b 5ee9 4e3d
00000280: 3376 14bd 4d1e 113d f4a0 7abc e42b 23bc
00000290: 922a 923c e633 d33a 6869 273d c753 8d3d
000002a0: 5c69 0fbd 7a19 a73d 297c 343d 13de b0bc
000002b0: 976d 36bd 61b6 1fbd f517 723c cd5e 1c3d
000002c0: 03f9 b2bc 96e5 0bbb 0ef4 763d a49b 2f3d
000002d0: 68f0 fabc 4924 9c3d 64c0 5ebb aaaa d63c
000002e0: 4fd6 37bd 9926 3a3d 00f3 8b3d a386 eb39
000002f0: dfb7 b1bc 5464 823c 4238 76bd 18e5 b9bc
00000300: 4453 f43c 4c40 54bb fabd 803d dbfd 893d
00000310: 2c39 7f3d eca3 753d bebe 66bd 5133 863c
00000320: a741 883c 357c 343d 7497 d5bc 024f e83c
00000330: ec95 98bb 3d00 823d 4a0c 28bc da6e 69bc
00000340: 0507 9a3c 79d1 fb3b 1fcd 023d 1279 963d
00000350: 27a4 71bd 5b7c 593d 4253 c83b e5f3 80bc
00000360: ff7e 52bd 2b52 93bd 17a8 98bd 1534 f53c
00000370: 915a 5d3d 1d8d 7f3c 8fd7 353d 9fd1 5fbb
00000380: 5148 8bbd 9e00 583d 491a 9b3d db2e 78bd
00000390: 3a84 cabc 97fb 873d 612d f4bc 90f1 66bd
000003a0: ba3a fa3c c5a3 693d b7ed 93bd 3635 133d
000003b0: fcee f53c 1323 3dbd 2b1f 653d d0a2 87bd
000003c0: 1f43 ddbb 2916 353b ddb8 4f3d 77df 183d
000003d0: 6ff0 9bbd 92b6 8b3d be23 33bd 1b42 20bd
000003e0: 86be a3b8 b94d 38bd 9b66 2f3d f903 3c3d
000003f0: efc7 a9bc 78bb 11bc 3c02 763c ad92 16bd

encoder_blocks.2.0.bias f4 [12]
0.0005973826 0.04312231 0.0053709853 0.085423715 -0.012365125 0.028934827 -0.07290573 0.020444753
0.03854307 -0.06677666 0.051565614 0.06410933
00000000: ab99 1c3a 05a1 303d 17ff af3b a1f2 ae3d
00000010: 1897 4abc bb08 ed3c 994f 95bd c17b a73c
00000020: 57df 1d3d 34c2 88bd 7736 533d c14b 833d

encoder_blocks.2.2.weight f4 [12, 12, 13]
-0.014273802 0.06595639 0.045293186 0.0024403126 -0.057374317 0.0028554758 -0.030427631 -0.059627466
-0.020431262 -0.043768723 0.023172317 -0.04171364 0.06215052 -0.018900268 0.012052206 0.055987027
0.033893216 0.03434423 -0.06225082 0.07719892 -0.02618846 -0.023547519 -0.068371154 0.038330015
0.05534808 -0.036576547 -0.027871007 0.057989065 -0.065232135 -0.025543131 0.015546792 0.04571132
-0.036176763 -0.045453154 0.074317396 -0.071541674 -0.04440312 0.040881883 -0.00024791472 0.024193864
-0.063526474 -0.045382824 -0.03997981 0.060599007 0.033439048 -0.020605693 -0.010319736 -0.01259493
0.014574468 -0.0526476 -0.06623041 0.06328162 0.0024548844 -0.07114717 0.031117 -0.055335753
-0.017837618 -0.014909558 -0.05506017 -0.0014883429 0.009671569 -0.0076407716 -0.0038396344 -0.0069837123
0.015582092 0.0514303 -0.05846007 0.020590529 0.019074857 0.007845633 0.0020531511 -0.055677228
0.043064862 0.048338953 0.04694319 -0.050760817 -0.04804722 -0.012583621 0.020262213 -0.05208047
-0.03597049 0.0033093982 0.043164637 0.032742206 0.04153322 0.014274742 -0.07527829 0.06251276
-0.05050821 -0.05128419 0.008544683 -0.015860368 0.005215694 -0.026288863 0.04207578 -0.064447425
0.006909911 0.041370954 -0.067321956 0.04597214 -0.04773887 0.04926125 0.059200816 -0.025267068
-0.022943847 -0.07051319 0.0654862 0.069761276 0.0018759688 -0.06578301 0.022243958 0.060461253
-0.030424649 -0.02188976 -0.062372856 -0.04679972 -0.015957152 -0.060377125 0.07303964 -0.04289775
0.02369812 0.07947824 0.034841057 -0.06492071 -0.015857793 -0.07631215 -0.06517874 -0.0016260366
0.021227412 0.052215848 -0.042638157 0.029317252 -0.015289845 0.0310247 0.04162752 -0.067651585
-0.019622045 0.013872819 0.048355848 -0.00064918713 0.053344727 -0.038134392 0.028832873 -0.051470738
-0.029374933 0.019383088 0.0043491055 -0.07498496 -0.060647286 0.07526273 0.033872247 -0.02933062
-0.06570436 0.0051099057 -0.010857854 -0.046933502 0.058791094 -0.045979545 0.07712095 -0.05326954
0.03154845 0.06832607 -0.018346364 0.049450368 0.008264104 0.04257629 -0.010352545 0.03516679
-0.0047948146 -0.033692807 0.06359196 -0.008521028 0.059935752 0.0021916442 0.058148567 0.04277141
0.0334321 -0.028651183 -0.01660742 -0.052315395 0.050073452 0.012938631 0.009484211 -0.048554607
-0.011180694 0.009054146 -0.0046861 0.017107671 0.047515642 0.021740593 -0.027786022 0.008548669
0.07357403 -0.05383102 -0.025380751 -0.045691416 0.073059954 -0.06648092 0.070876166 -0.015488384
0.054173656 0.066098355 -0.02019092 0.045958746 0.024537016 0.03425323 -0.06862878 0.0054958495
-0.04296679 0.07094157 -0.03713818 -0.0007751882 -0.03364171 0.06985533 0.05398093 -0.05032216
0.059387013 0.03469395 3.3445656e-05 -0.039979752 0.003404826 0.05670314 0.015356477 -0.0036186236
0.014648414 0.07154478 0.021534592 0.055085704 0.020311005 -0.029846948 -0.02411173 -0.07578228
-0.028404374 0.017615227 0.016221622 -0.041343853 0.026238054 -0.045369532 0.06455692 -0.013011672
-0.020376423 -0.061396617 0.029793387 0.08071818 0.0026761636 0.047822993 0.013281813 -0.08011906
-0.08858995 -0.0134756565 0.013209421 -0.052613493 -0.009637897 0.048458934 -0.025452314 -0.082696155
00000000: aadc 69bc 2514 873d 5985 393d a7ed 1f3b
00000010: 5501 6bbd ef22 3b3b 5e43 f9bc ee3b 74bd
00000020: 765f a7bc d546 33bd dfd3 bd3c ecdb 2abd
00000030: 8b91 7e3d bcd4 9abc 9e76 453c a752 653d
00000040: 9dd3 0a3d 89ac 0c3d b7fa 7ebd 781a 9e3d
00000050: 2e89 d6bc bae6 c0bc 2d06 8cbd efff 1c3d
00000060: abb4 623d 4ad1 15bd bd51 e4bc f185 6d3d
00000070: 6d98 85bd d43f d1bc f9b7 7e3c cb3b 3b3d
00000080: 162e 14bd 162d 3abd b833 983d 7184 92bd
00000090: 0ce0 35bd c373 273d 8dfa 81b9 3632 c63c
000000a0: 2b1a 82bd 57e3 39bd dfc1 23bd aa36 783d
000000b0: 62f7 083d 45cd a8bc 1c14 29bc f75a 4ebc
000000c0: c0c9 6e3c 03a5 57bd cfa3 87bd cb99 813d
000000d0: 20e2 203b 9cb5 91bd 14e9 fe3c bea7 62bd
000000e0: 3220 92bc 3847 74bc c686 61bd 8014 c3ba
000000f0: 8075 1e3c 705f fabb 60a2 7bbb a0d7 e4bb
00000100: 084c 7f3c 94a8 523d d473 6fbd 78ad a83c
00000110: e042 9c3c f88a 003c 298e 063b ce0d 64bd
00000120: c864 303d 11ff 453d 8147 403d 93ea 4fbd
00000130: 29cd 44bd 882b 4ebc f1fc a53c 5552 55bd
00000140: cb55 13bd 7de2 583b 67cd 303d b11c 063d
00000150: bd1e 2a3d 9ce0 693c 812b 9abd b106 803d
00000160: b2e1 4ebd 5f0f 52bd 00ff 0b3c 9aed 81bc
00000170: 6ae8 aa3b be5b d7bc a757 2c3d 03fd 83bd
00000180: 896c e23b 9774 293d 18e0 89bd 484d 3c3d
00000190: d589 43bd 2ac6 493d 8e7c 723d e2fc cebc
000001a0: bcf4 bbbc 3869 90bd a11d 863d 00df 8e3d
000001b0: 11e3 f53a 3eb9 86bd f638 b63c 38a6 773d
000001c0: 1d3d f9bc 2752 b3bc ae7a 7fbd 10b1 3fbd
000001d0: 93b8 82bc 014e 77bd cf95 953d 8db5 2fbd
000001e0: 8f22 c23c 7dc5 a23d 7fb5 0e3d 26f5 84bd
000001f0: 34e8 81bc 8b49 9cbd 6e7c 85bd bc20 d5ba
00000200: 1ce5 ad3c 49e0 553d 59a5 2ebd bc2a f03c
00000210: 4282 7abc 8327 fe3c 9e81 2a3d ea8c 8abd
00000220: 69be a0bc d24a 633c c810 463d 362e 2aba
00000230: 0080 5a3d cf32 1cbd eb32 ec3c fbd2 52bd
00000240: b3a3 f0bc 48c9 9e3c f182 8e3b b791 99bd
00000250: 4a69 78bd 5923 9a3d a0bd 0a3d c546 f0bc
00000260: 0290 86bd ff70 a73b 24e5 31bc 583d 40bd
00000270: eece 703d 0c55 3cbd 97f1 9d3d 2931 5abd
00000280: f338 013d 8aee 8b3d 1d4b 96bc 788c 4a3d
00000290: 2a66 073c 7a64 2e3d b99d 29bc 0d0b 103d
000002a0: d21d 9dbb 7801 0abd 803c 823d c89b 0bbc
000002b0: 317f 753d b0a1 0f3b 312d 6e3d 1331 2f3d
000002c0: 19f0 083d e3b5 eabc 490c 88bc ab48 56bd
000002d0: d219 4d3d 8dfc 533c aa63 1b3c 32e1 46bd
000002e0: 3b2f 37bc d757 143c db8d 99bb 6325 8c3c
000002f0: c39f 423d 5419 b23c 839f e3bc b70f 0c3c
00000300: fbad 963d ea7d 5cbd 4beb cfbc ec26 3bbd
00000310: 75a0 953d 2627 88bd 8627 913d fec2 7dbc
00000320: 32e5 5d3d 935e 873d 6e67 a5bc 3d3f 3c3d
00000330: da01 c93c 1d4d 0c3d 3f8d 8cbd 8716 b43b
00000340: f2fd 2fbd d049 913d 341e 18bd 0036 4bba
00000350: e4cb 09bd 5010 8f3d 1c1b 5d3d 9c1e 4ebd
00000360: cc3f 733d 3e1b 0e3d 0048 0c38 cfc1 23bd
00000370: 8023 5f3b 8d41 683d bc99 7b3c 6e26 6dbb
00000380: e7ff 6f3c 1286 923d 5069 b03c 8ca1 613d
00000390: 4463 a63c 9681 f4bc f685 c5bc bd33 9bbd
000003a0: 4ab0 e8bc cf4d 903c 35e3 843c 2c58 29bd
000003b0: 30f1 d63c 67d5 39bd 6b36 843d e82e 55bc
000003c0: 75ec a6bc 057b 7bbd 4311 f43c 934f a53d
000003d0: 9362 2f3b 0be2 433d f69b 593c 7615 a4bd
000003e0: a66e b5bd 00c9 5cbc 546c 583c 3f81 57bd
000003f0: 45e8 1dbc e07c 463d 5f81 d0bc 9a5c a9bd

encoder_blocks.2.2.bias f4 [12]
0.03879631 0.048787355 -0.01630587 -0.02967922 0.0050749336 0.036692224 0.08404089 -0.0471606
0.034998626 0.031011926 0.088694595 -0.052734766
00000000: e1e8 1e3d 40d5 473d e393 85bc d621 f3bc
00000010: a14b a63b 964a 163d a11d ac3d 792b 41bd
00000020: b85a 0f3d b90c fe3c 83a5 b53d 6900 58bd

encoder_blocks.3.0.weight f4 [12, 12, 13]
0.07203843 0.029549517 -0.01438352 -0.052437097 -0.013221702 0.044458706 -0.066511974 -0.04282716
-0.046938553 0.060620822 0.078725375 -0.0478159 -0.06351588 -0.05674543 0.06778811 0.02836643
0.044126607 0.020737994 -0.015631014 0.052010886 -0.07244204 -0.030572545 0.0013808521 -0.036536366
0.026899617 0.017886342 0.047295034 0.06469995 0.058599737 -0.01223553 0.012329318 -0.014284442
-0.042143296 0.00895384 -0.05530572 -0.014034452 0.0046266797 0.01670303 0.016341077 0.0457402
-0.045086503 0.024158975 -0.011949692 0.05855254 0.058750022 -0.03887392 -0.008238544 0.03208077
0.07461022 -0.04034302 0.026138928 -0.03125451 -0.06777598 0.041055396 -0.061316308 0.038579017
0.06515382 0.037226666 -0.056803375 -0.06762285 -0.002892662 0.014957729 -0.031169012 0.016312104
-0.021047875 -0.07231391 -0.043970965 -0.024586445 0.062095847 -0.06569811 0.0002957407 0.08084506
0.0076833856 0.013169016 0.0045203166 -0.050890878 0.038298797 0.04372033 -0.04637057 0.0032380912
0.03582039 -0.04371349 -0.028647223 -0.0370764 -0.008781064 0.0698741 -0.07492188 0.01885536
-0.0017634718 -0.022868332 0.07618199 0.07872684 0.05267002 -0.003208916 -0.061101448 -0.06569108
-0.009584036 0.049155142 0.038054377 0.02070635 0.057205275 0.012003742 0.059834063 -0.06501035
-0.027264994 0.031135319 -0.010252742 -0.05403654 -0.02914511 -0.005536156 0.051260177 -0.07480235
0.014618178 -0.067115836 -0.042467754 0.06570093 -0.043431237 -0.07115288 -0.019429373 0.06652167
-0.006053956 -0.004139713 -0.050025452 -0.07738889 0.024341144 0.0038195648 0.008578493 -0.06631826
0.04461217 -0.05375499 -0.0032678691 -0.074316554 0.0058258823 0.045566354 0.008863597 -0.017179105
-0.064038485 0.037773475 -0.030356942 0.008838435 -0.07862737 0.07388236 -0.024340913 0.063786894
0.006968018 -0.031145746 0.032327536 0.08168849 -0.032307554 0.024895648 0.05411818 -0.015974317
0.012508749 0.02962931 0.06022772 -0.07685065 -0.02720519 -0.037498295 -0.052569497 0.07973883
0.0790613 -0.08160447 0.07576062 0.057317838 -0.06713898 0.08400515 0.009880565 0.04871823
0.0433213 -0.030511383 -0.07788112 -0.07822136 -0.008738353 0.030689163 -0.0685771 0.0027638357
0.057233445 0.06487615 -0.025336815 0.033222802 0.021303264 0.07699444 0.006776403 0.022508126
-0.0669267 0.0743795 -0.027672067 0.06020714 -0.012224927 -0.044401884 -0.043270722 0.07720082
-0.037994713 -0.057628665 -0.005784857 -0.05839203 0.022110218 0.04730921 0.005592356 0.01723789
0.021649716 0.06201105 -0.026701747 0.063740015 -0.028808933 -0.01765619 -0.012476561 0.06769591
-0.031805642 0.056338634 -0.07222448 0.011511644 -0.047178 0.0751314 -0.07250117 0.035626378
0.042642385 0.031227335 -0.007212293 0.061420485 0.013588921 -0.017765986 -0.030410266 0.036259666
-0.05905396 -0.0254148 0.061656665 -0.058175985 0.056506086 -0.036922053 0.025031975 -0.013760987
-0.0080039585 -0.022742042 0.008036512 0.058299825 -0.044097055 0.04718546 0.056695666 0.037216354
-0.05694085 0.02407529 0.0042972662 -0.030412275 -0.011198949 0.024521373 0.04773514 0.010698993
0.0013069573 0.0019220297 0.012740759 -0.026261091 0.06635896 0.0109805195 -0.0019830442 -0.07782864
00000000: e288 933d d411 f23c dba8 6bbc 48c8 56bd
00000010: d69f 58bc 551a 363d 6e37 88bd 886b 2fbd
00000020: a442 40bd 8a4d 783d c53a a13d 9bda 43bd
00000030: 9d14 82bd e56d 68bd 7ed4 8a3d b760 e83c
00000040: 1abe 343d bae2 a93c 9d0c 80bc 5e09 553d
00000050: 7e5c 94bd 4673 fabc b5fd b43a 28a7 15bd
00000060: 965c dc3c 6186 923c 70b8 413d 6881 843d
00000070: 4706 703d 8877 48bc e800 4a3c 4b09 6abc
00000080: 739e 2cbd 20b3 123c 4088 62bd c2f0 65bc
00000090: 679b 973b cbd4 883c b9dd 853c 135a 3b3d
000000a0: a0ac 38bd 0be9 c53c a4c8 43bc cad4 6f3d
000000b0: dda3 703d 423a 1fbd f5fa 06bc 2067 033d
000000c0: 3ecd 983d b93e 25bd 4e21 d63c bb04 00bd
000000d0: 22ce 8abd b429 283d cf26 7bbd 0805 1e3d
000000e0: 5e6f 853d fd7a 183d a8aa 68bd d97d 8abd
000000f0: d192 3dbb 4311 753c 2856 ffbc f6a0 853c
00000100: 986c acbc 5119 94bd e61a 34bd 8369 c9bc
00000110: 3758 7e3d bb8c 86bd a50d 9b39 1892 a53d
00000120: e9c4 fb3b dbc2 573c 2a1f 943b f472 50bd
00000130: 33df 1c3d 1714 333d 11ef 3dbd 2836 543b
00000140: 67b8 123d eb0c 33bd 95ad eabc 6cdd 17bd
00000150: 74de 0fbc 271a 8f3d a570 99bd 8e76 9a3c
00000160: 4b24 e7ba 5e56 bbbc 4e05 9c3d 8a3b a13d
00000170: 85bc 573d ad4c 52bb 8345 7abd 0c89 86bd
00000180: 5c06 1dbc e756 493d e8de 1b3d 5da0 a93c
00000190: 1450 6a3d 58ab 443c 9014 753d 2524 85bd
000001a0: d65a dfbc 7f0f ff3c 1efb 27bc 6b55 5dbd
000001b0: bac1 eebc a468 b5bb 31f6 513d f931 99bd
000001c0: 1581 6f3c 0774 89bd abf2 2dbd 368e 863d
000001d0: f4e4 31bd 9ab8 91bd 592a 9fbc 833c 883d
000001e0: 4460 c6bb 6ea6 87bb 7de7 4cbd 117e 9ebd
000001f0: 1467 c73c aa51 7a3b cf8c 0c3c ded1 87bd
00000200: 40bb 363d 312e 5cbd bf29 56bb 4733 98bd
00000210: 0be7 be3b c9a3 3a3d 9f38 113c 32bb 8cbc
00000220: 9c26 83bd 5cb8 1a3d 1faf f8bc 15cf 103c
00000230: 6307 a1bd a24f 973d 9866 c7bc b4a2 823d
00000240: f953 e43b 5d25 ffbc e169 043d 4c4c a73d
00000250: ed54 04bd f5f1 cb3c 06ab 5d3d 92dc 82bc
00000260: 7ff1 4c3c 2bb9 f23c 57b1 763d e063 9dbd
00000270: 6bdd debc d097 19bd 1d53 57bd 1d4e a33d
00000280: e4ea a13d 3f20 a7bd 6228 9b3d 1cc6 6a3d
00000290: 2980 89bd e40a ac3d 18e2 213c c48c 473d
000002a0: ad71 313d 02f3 f9bc 2380 9fbd 8532 a0bd
000002b0: 4f2b 0fbc d767 fb3c 2772 8cbd 7821 353b
000002c0: 9e6d 6a3d c9dd 843d 278f cfbc a214 083d
000002d0: 2f84 ae3c 43af 9d3d 970c de3b f662 b83c
000002e0: de10 89bd 4754 983d 88b0 e2bc c39b 763d
000002f0: 0f4b 48bc c0de 35bd a43c 31bd 771b 9e3d
00000300: 58a0 1bbd 090c 6cbd e68e bdbb 7b2c 6fbd
00000310: 7d20 b53c 4dc7 413d 1540 b73b 7a36 8d3c
00000320: bf5a b13c 4cff 7d3d 9fbd dabc 208a 823d
00000330: b600 ecbc b7a3 90bc 7d6a 4cbc 27a4 8a3d
00000340: a246 02bd 57c3 663d 6eea 93bd 569b 3c3c
00000350: b83d 41bd 7ede 993d 7e7b 94bd f7ec 113d
00000360: c8a9 2e3d 78d0 ff3c 1955 ecbb 0c94 7b3d
00000370: 11a4 5e3c f989 91bc f31e f9bc 0485 143d
00000380: 91e2 71bd b332 d0bc b38b 7c3d f149 6ebd
00000390: ed72 673d 943b 17bd db0f cd3c c375 61bc
000003a0: 0923 03bc 854d babc 93ab 033c cccb 6e3d
000003b0: 1d9f 34bd 8a45 413d b739 683d 2d70 183d
000003c0: cf3a 69bd 8b39 c53c 15d0 8c3b 2a23 f9bc
000003d0: cc7b 37bc 0ce1 c83c ec85 433d d44a 2f3c
000003e0: 364e ab3a 9dec fb3a 9ebe 503c 8021 d7bc
000003f0: 35e7 873d a3e7 333c f6f5 01bb 9f64 9fbd

encoder_blocks.3.0.bias f4 [12]
-0.045605224 0.025066556 0.06924724 -0.01654567 -0.043333407 0.06893881 -0.015583538 -0.050117727
-0.015419643 -0.05820509 0.012720779 0.0004056697
00000000: 8bcc 3abd 6158 cd3c 7fd1 8d3d c98a 87bc
00000010: 5f7e 31bd ca2f 8d3d 1952 7fbc 3f48 4dbd
00000020: aca2 7cbc 7668 6ebd d06a 503c 11b0 d439

encoder_blocks.3.2.weight f4 [12, 12, 13]
0.0062973844 -0.056559056 -0.012871542 0.053254418 -0.035865076 -0.06435135 0.03328299 -0.011513499
-0.051486306 -0.0025017636 -0.04716424 0.032842766 -0.007811953 0.026460316 -0.0031792347 -0.010624136
-0.030898029 -0.04316351 0.010047691 -0.06502479 0.058840886 -0.03250979 -0.008990818 0.06634609
0.034256626 0.047484558 -0.0009836663 -0.04059511 0.029910656 -0.06474842 0.026135946 -0.06712581
0.04992053 -0.05391046 -0.0037959479 0.07900487 0.0037573664 -0.000906675 -0.038209643 -0.05071654
0.06048918 -0.07421789 0.0036901021 0.019480396 0.039078265 0.012469656 0.031055855 -0.031101253
-0.032363407 0.06822075 -0.06818503 0.0047459896 0.06448144 0.06251424 0.048779786 -0.0029671667
-0.004523126 -0.046599645 0.006884138 0.044950906 0.06639658 -0.012352056 0.023802433 -0.02566215
-0.050170373 -0.031724676 -0.032603797 -0.078554496 0.07167717 -0.04188943 -0.026189698 0.048951574
0.07072751 0.059536923 0.07276763 0.015382503 0.059299406 -0.063800886 -0.020834029 -0.07251553
0.03523374 -0.06398417 -0.04026191 -0.057424624 -0.07320704 -0.0062469514 0.05363333 -0.07721703
-0.017089637 0.032949835 0.040335156 -0.0445342 0.014766343 -0.065600224 0.077941164 0.0361813
0.052737817 0.020392612 0.029262938 0.03883715 -0.019678261 -0.045712892 -0.03256037 0.008640803
0.04420717 -0.030253612 0.07117735 0.0656113 -0.02608614 0.07281242 0.0057280594 -0.026550034
0.019130493 0.06695836 -0.022846919 0.050549723 -0.0019402354 0.0059979777 0.001133603 0.03986462
0.07101765 0.017506838 0.037391484 -0.057657674 0.057729196 -0.009141447 -0.0022970468 -0.060690574
0.0702344 -0.035099965 0.07586701 -0.018125672 -0.041737307 -0.060407143 -0.04864089 0.050419625
-0.05465312 -0.03035664 -0.0143114505 -0.0041852905 -0.0017740177 0.010716349 -0.07953929 0.013896745
0.04279512 -0.022144062 -0.05100169 -0.008784982 -0.0630199 -0.034110583 -0.014794207 0.00047311568
-0.025134044 0.029551556 -0.017221048 -0.02645106 0.0059713465 -0.048957 0.045166615 0.01838063
-0.020665472 0.07599473 0.07314292 -0.022814816 0.071610555 0.01858787 0.015715951 -0.03934742
0.05658221 -0.014097472 0.0426561 0.021556692 -0.033318024 0.043532427 -0.07724125 -0.030867249
-0.07065161 0.070210464 -0.037002873 0.0068088863 -0.041068655 -0.028009739 0.023573654 0.06749414
-0.048797544 -0.037012707 -0.028359404 0.0151098715 -0.05643231 -0.02242739 0.069806926 0.054538526
0.0072047953 0.057095516 0.026231525 -0.014782435 0.009611759 -0.080487855 0.0024218755 -0.030312084
-0.04950045 0.03593059 0.07643906 -0.009859676 0.0051596845 0.0064313873 0.009838026 0.038555965
-0.04085916 -0.0056594065 -0.056733754 0.048515417 0.048986167 -0.055080965 -0.05647972 0.0061571314
0.06407355 -0.02333424 -0.05471838 0.0044715847 -0.031227654 0.022211617 0.034013283 0.019819688
0.038306464 -0.03337845 0.04668365 -0.0033910766 -0.008408052 -0.04604643 -0.01572802 -0.048545025
0.027567673 -0.034511566 -0.052042965 -0.06830812 -0.07066856 -0.02754277 0.023031209 -0.043529432
0.0243116 -0.045993112 0.06589845 -0.0058539677 -0.050460584 0.061455972 -0.05752057 -0.04448008
0.011449084 -0.0043935925 0.07781303 -0.01137317 0.07152666 0.010295406 0.07300198 0.053188697
00000000: 4a5a ce3b 78aa 67bd 29e3 52bc 4e21 5a3d
00000010: 42e7 12bd a4ca 83bd bf53 083d 1da3 3cbc
00000020: 4ee3 52bd a1f4 23bb 4a2f 41bd 2386 063d
00000030: 69fb ffbb 4ec3 d83c b55a 50bb db10 2ebc
00000040: dd1d fdbc 38cc 30bd 129f 243c b82b 85bd
00000050: 2403 713d fc28 05bd 394e 13bc 75e0 873d
00000060: ad50 0c3d 2b7f 423d 5dee 80ba 0f47 26bd
00000070: 3107 f53c d29a 84bd 0d1b d63c 4279 89bd
00000080: 7879 4c3d 37d1 5cbd 70c5 78bb 4ecd a13d
00000090: 263e 763b eead 6dba b781 1cbd 26bc 4fbd
000000a0: 81c3 773d 8dff 97bd a4d5 713b 5a95 9f3c
000000b0: 8810 203d 874d 4c3c d968 fe3c 0ec8 febc
000000c0: 7e8f 04bd 52b7 8b3d 98a4 8bbd 3f84 9b3b
000000d0: d80e 843d 7707 803d 50cd 473d cc74 42bb
000000e0: bb36 94bb 45df 3ebd 5694 e13b 711e 383d
000000f0: eefa 873d 4760 4abc 52fd c23c 6e39 d2bc
00000100: 737f 4dbd bcf1 01bd 8f8b 05bd 2ee1 a0bd
00000110: 7bcb 923d 4094 2bbd c78b d6bc 7281 483d
00000120: 96d9 903d fddc 733d 3207 953d e506 7c3c
00000130: efe3 723d 0aaa 82bd 20ac aabc 0683 94bd
00000140: 4151 103d 220a 83bd ace9 24bd 1536 6bbd
00000150: 93ed 95bd 3ab3 ccbb 9fae 5b3d f623 9ebd
00000160: 91ff 8bbc 68f6 063d 7a36 253d 7e69 36bd
00000170: 88ee 713c 6959 86bd 9e9f 9f3d d832 143d
00000180: 9c03 583d 680e a73c d4b8 ef3c b413 1f3d
00000190: 4e34 a1bc 713d 3bbd 065e 05bd 2892 0d3c
000001a0: 9412 353d 6cd6 f7bc 6ec5 913d 385f 863d
000001b0: 9ab2 d5bc ae1e 953d 72b2 bb3b 757f d9bc
000001c0: 8db7 9c3c 7721 893d 7629 bbbc 3a0d 4f3d
000001d0: 7f4f feba af8a c43b 6895 943a 1549 233d
000001e0: b471 913d 806a 8f3c d027 193d 742a 6cbd
000001f0: 7375 6c3d 02c6 15bc 0d8a 16bb ae96 78bd
00000200: 0ed7 8f3d fbc4 0fbd 2a60 9b3d 4a7c 94bc
00000210: bdf4 2abd 7b6d 77bd ab3b 47bd cf84 4e3d
00000220: f3db 5fbd 7dae f8bc 937a 6abc c324 89bb
00000230: 2886 e8ba a093 2f3c 7fe5 a2bd 2caf 633c
00000240: f049 2f3d 7767 b5bc 26e7 50bd e3ee 0fbc
00000250: 9410 81bd 8ab7 0bbd 6763 72bc 830c f839
00000260: e9e5 cdbc 1b16 f23c 2813 8dbc e5af d8bc
00000270: 49ab c33b 2387 48bd a100 393d fa92 963c
00000280: a34a a9bc 20a3 9b3d f5cb 953d 23e6 babc
00000290: 8ea8 923d 9745 983c bdbe 803c c32a 21bd
000002a0: bfc2 673d 15f9 66bc 2ab8 2e3d a997 b03c
000002b0: 7b78 08bd 0f4f 323d a930 9ebd 50dd fcbc
000002c0: cbb1 90bd 81ca 8f3d 5390 17bd 141d df3b
000002d0: 9b37 28bd ae74 e5bc 891d c13c 5e3a 8a3d
000002e0: efdf 47bd a39a 17bd fb51 e8bc 658f 773c
000002f0: 9125 67bd a5b9 b7bc eff6 8e3d ca63 5f3d
00000300: 3416 ec3b fddc 693d 7fe3 d63c 0732 72bc
00000310: a47a 1d3c d1d6 a4bd 54b8 1e3b 0c51 f8bc
00000320: fcc0 4abd f42b 133d 158c 9c3d 7a8a 21bc
00000330: 9212 a93b 63be d23b ac2f 213c dcec 1d3d
00000340: ef5b 27bd 8b72 b9bb a761 68bd 1ab8 463d
00000350: b8a5 483d 949c 61bd 4757 67bd c3c1 c93b
00000360: fe38 833d 7327 bfbc 6120 60bd 5f86 923b
00000370: 23d1 ffbc 23f5 b53c 8351 0b3d e65c a23c
00000380: 3de7 1c3d d7b7 08bd 5b37 3f3d d33c 5ebb
00000390: edc1 09bc 2e9b 3cbd 0cd8 80bc 26d7 46bd
000003a0: 9ad5 e13c 005c 0dbd 012b 55bd 21e5 8bbd
000003b0: aeba 90bd 60a1 e1bc f2ab bc3c eb4b 32bd
000003c0: 1f29 c73c 4663 3cbd c4f5 863d a4d2 bfbb
000003d0: c2af 4ebd 42b9 7b3d b09a 6bbd bf30 36bd
000003e0: f094 3b3c 20f8 8fbb 705c 9f3d 8856 3abc
000003f0: 927c 923d 10ae 283c 1082 953d 64dc 593d

encoder_blocks.3.2.bias f4 [12]
-0.075730406 -0.04917772 -0.074539475 -0.04332745 -0.03329434 0.025127443 0.004252223 0.0054459646
-0.011536534 0.05981806 0.025286952 -0.012287933
00000000: 8b18 9bbd 946e 49bd 27a8 98bd 2078 31bd
00000010: a55f 08bd 11d8 cd3c 3b56 8b3b 1074 b23b
00000020: bb03 3dbc c803 753d 9526 cf3c 5453 49bc
