Python/save/localizer/trial_2/quake_localization_model_00560.pth (torch, 252994 bytes, 35 tensors)

encoder_blocks.0.weight f4 [12, 1, 13]
000000 a9 21 43 3e c4 9b 47 3e 49 4e 64 3e 51 eb a5 3d
       0.19055809 0.19493014 0.22295488 0.08101524
000010 2a 94 3e 3e 12 6b cf 3d 00 09 de bd 77 7e 7d bd
       0.18611208 0.10127844 -0.1084156 -0.061888184
000020 2b 9a 53 be ac ee 4c be 4f e0 44 be a4 80 b0 3d
       -0.20664279 -0.20012921 -0.19226192 0.08618286
000030 50 eb b2 bd 0b 9d 5b be 73 4e 7d be df 47 80 be
       -0.087362885 -0.21446626 -0.24736957 -0.25054833
000040 96 da 06 be 7a fd e7 3d 24 8d 31 be 4f da 90 3e
       -0.13169321 0.11327644 -0.17338997 0.28291556
000050 73 ad 4a be e5 69 9a bc 2f 8e 96 3d 39 3c 31 3e
       -0.19792728 -0.018849323 0.07351338 0.1730813
000060 50 41 20 3e 19 f1 20 bd fb 5d 8d 3d c1 25 ae bd
       0.15649915 -0.03929243 0.06902691 -0.08503295
000070 b1 25 b7 3c b4 e7 98 3d 9b cc 5f be a5 ed 40 be
       0.02235684 0.07466069 -0.21855395 -0.18840654
000080 e3 5e 20 3e ce 5f 8b bd 09 4b da bd 20 06 db bd
       0.15661196 -0.06805383 -0.10658843 -0.106945276
000090 1b ef 0f bc 21 5a e2 bd d3 01 7b be 31 54 9e 3d
       -0.0087850345 -0.11052347 -0.24512415 0.07730902
0000a0 6a 89 f1 3c fe ca 54 be fd 3b 96 3d 62 d9 1d be
       0.02948447 -0.2078056 0.073356606 -0.15414956
0000b0 41 1c 11 be c1 98 b3 3d d8 fd 12 3d c6 c2 17 3d
       -0.14170934 0.0876937 0.035886616 0.037050985
0000c0 d8 a1 bd bd c4 64 31 3b 88 50 88 3e 4b 61 81 be
       -0.09259385 0.0027068118 0.2662394 -0.2526954
0000d0 e9 6f 72 3d 1d 30 28 3d db eb b2 bd 40 99 a3 bb
       0.059188757 0.04106151 -0.08736392 -0.004992634
0000e0 eb 11 16 be 17 a5 e3 bd 9d 06 16 be 8e 75 37 3e
       -0.14655273 -0.11115473 -0.1465096 0.17915937
0000f0 9f ab 0a bd 7a b1 f4 3d 97 a1 35 bc 9c 39 07 be
       -0.033855077 0.119479135 -0.011085889 -0.1320557
000100 08 ab 2d be 19 2c b0 bd 11 49 6f 3e 44 fe c9 3d
       -0.16959774 -0.08602161 0.23367716 0.098629504
000110 1c 88 f7 bc ec 0b 69 bd 8b 85 99 3d b4 de 66 3e
       -0.03021627 -0.056896135 0.074961744 0.22545892
000120 2a af 75 be 49 6e a0 3d f1 e5 1c 3e 46 54 4d be
       -0.23992601 0.07833535 0.1532209 -0.20051679
000130 bb 69 69 3e de 12 29 3e 84 84 f3 bd 97 79 fc 3c
       0.22794239 0.16511104 -0.1189051 0.030819697
000140 50 0d f8 3d 34 e2 dd 3d 0f 53 86 3d 4c 8c 0d bd
       0.12111914 0.108341604 0.06558811 -0.034557626
000150 89 53 a2 bd cf c2 78 3e 1a 03 11 3e e3 d3 14 3e
       -0.07926089 0.24293064 0.1416134 0.14533953
000160 37 f1 89 be 18 5d f8 3d 35 69 19 be f4 95 bd 3d
       -0.26941845 0.12127131 -0.1498154 0.09257117
000170 3a ee c2 bd 56 36 58 bd 53 a1 e1 3d 47 16 50 be
       -0.09518094 -0.052786194 0.11017098 -0.20320998
000180 fe 43 8b 3e 90 77 4c 3e df af b7 bd ca df 12 3e
       0.2720031 0.19967484 -0.089690916 0.14343181
000190 bb ba 2f be 02 02 58 3c f1 1c 5c 3e 3e 6d c5 3c
       -0.17161076 0.013184072 0.21495415 0.024099942
0001a0 4e cb 36 be 9c 9f 75 bc af 6b 36 bd a3 07 8f bd
       -0.17850992 -0.014991667 -0.04453629 -0.069838785
0001b0 c8 b8 28 3e 50 13 47 3e 05 a7 41 3e fe fc 7e 3e
       0.16476738 0.19440961 0.18911369 0.24901196
0001c0 bf 81 21 3e e4 d1 3e 3e 4e 24 69 3e f2 01 0f be
       0.1577215 0.18634754 0.22767755 -0.13965586
0001d0 0a 37 2b 3e cb 25 86 3e 3f a5 a5 bd 2c ef 48 be
       0.16720214 0.2620071 -0.08088159 -0.19622487
0001e0 71 5f 64 be 67 72 52 3c df 0d 3b be 31 74 46 be
       -0.22302033 0.012844658 -0.1826701 -0.19380261
0001f0 9d a5 04 3e c5 12 5a 3e 97 39 46 be e0 3f 8b 3e
       0.12953801 0.21296223 -0.19357906 0.2719717
000200 24 c3 43 3d f5 7b e7 3d 4b 1e 91 3e 55 44 66 be
       0.047793522 0.1130294 0.28343424 -0.22487004
000210 20 d7 8d 3e a9 82 c4 3c e9 73 17 bd 17 1b 54 3e
       0.2770319 0.023988085 -0.036975775 0.20713459
000220 cc f1 ef 3d 7e 86 dc 3c 80 dd 2c bd cc c1 4e bd
       0.11716041 0.0269196 -0.042203426 -0.050477788
000230 2f d7 fa bb db d8 d2 bd 29 bc 42 be eb 51 96 3d
       -0.0076550464 -0.10295268 -0.1901709 0.07339843
000240 cd 36 18 3e ec d3 56 be 3d 96 5d bd de 23 68 be
       0.14864655 -0.2097928 -0.054098357 -0.22669932
000250 c7 b0 8a be 03 2e b8 3d 7b c3 75 be b0 35 d2 bd
       -0.27087995 0.08993151 -0.24000351 -0.10264146
000260 e7 25 33 be 01 14 74 3e 12 00 46 be 11 ce f1 bd
       -0.17494927 0.23835756 -0.19335964 -0.11806882

encoder_blocks.0.bias f4 [12]
000000 7f 2b 3a be 38 b2 29 3d 83 12 86 3e 81 3d eb bd
       -0.18180655 0.04142973 0.26185998 -0.1148634
000010 a8 f7 88 3e ab 75 85 be 41 0f 84 3d 3c d8 e0 3d
       0.26751447 -0.26066336 0.06448222 0.109787434
000020 6d 22 9e 3d 64 7e 98 bd e0 ac f6 3b e1 fe db 3d
       0.0772141 -0.07445982 0.0075279325 0.10741974

encoder_blocks.1.0.weight f4 [12, 12, 13]
000000 14 bd 6b bc 25 33 56 3d 79 25 90 3d 8c 23 df bc
       -0.014388341 0.05229487 0.07038397 -0.02723863
000010 f5 42 3c bd 3f 4e 7b 3d fc b4 30 bd 12 68 aa 3c
       -0.045962293 0.06135392 -0.04314135 0.020801578
000020 7b cc 46 bd 05 cc e3 bc db fc 1c bd b1 98 54 3d
       -0.04853485 -0.027807245 -0.03832708 0.05190343
000030 60 88 43 3c 63 d1 78 3d 60 09 42 bd f8 7d a1 bc
       0.01193437 0.06074656 -0.047372222 -0.019713387
000040 09 ed 47 bd 2f 3c 91 3c 4f 5d cb 3b 02 aa 54 bd
       -0.04881004 0.017728893 0.0062061916 -0.051919945
000050 2b 30 df bc e0 35 99 bd c2 78 db bc 99 4e 99 bc
       -0.027244648 -0.07480979 -0.02679098 -0.018714236
000060 22 aa 26 bd 08 c5 3e 3d 17 07 0f bc fd 95 8d 3d
       -0.040689595 0.046574622 -0.008729718 0.069133736
000070 65 50 86 bb 6b 16 01 3c e1 bd 65 bd e6 3e 91 bd
       -0.0040989392 0.00787888 -0.056089286 -0.07092075
000080 fa 90 9e 3d 88 a4 ab bd 1d dd 6b 3d 85 65 5d bc
       0.07742496 -0.08380991 0.057583917 -0.013512974
000090 6f 6b 56 3d 1e 9b a6 3d 75 62 93 3d f9 29 aa bd
       0.05234855 0.08135055 0.071965136 -0.08308787
0000a0 6d 01 10 3d d7 1a 7d bd b1 5a 01 3d 93 34 10 3d
       0.03515761 -0.061793175 0.03158063 0.03520639
0000b0 52 89 89 3d a5 78 7d 3d 75 dc 8d 3c 64 32 78 bd
       0.06715645 0.061882634 0.017317036 -0.06059493
0000c0 f1 a9 68 ba 65 69 9c bd c0 dd 86 bd f2 48 81 3d
       -0.0008875421 -0.0763729 -0.06585264 0.06312741
0000d0 28 c2 88 3b 80 d0 38 3d 3d 07 de 39 93 65 93 bd
       0.004173536 0.045120716 0.00042348533 -0.07197108
0000e0 32 ac 93 3d 45 b3 2d 3d de bc b7 bc b1 ee 67 3c
       0.07210578 0.042407293 -0.022428926 0.01415603
0000f0 b1 8d e0 3b d2 36 2e bc 1c f0 6a bd eb be 8d 3c
       0.0068528284 -0.010633187 -0.057357892 0.01730295
000100 79 7a bb bc 50 90 2e 3d bc 77 1d bd d9 ad df 3c
       -0.022885548 0.042618096 -0.038444266 0.027304577
000110 8c b2 62 3c ce a7 45 bd d8 32 67 bd 26 61 4d bd
       0.013836514 -0.048255734 -0.056444973 -0.050141476
000120 b3 df 75 3d 34 01 92 bd d1 e0 2e 3d c7 53 97 3d
       0.06002779 -0.07129136 0.04269487 0.07389026
000130 45 48 ff 3c 2e 2a 35 bd 53 a1 0b 3d 10 61 ae bd
       0.03116239 -0.04422968 0.034089398 -0.08514607
000140 29 85 84 3b 08 69 49 3d 8d 3e a3 3d 64 2b 2e bd
       0.0040441942 0.04917243 0.07970915 -0.04252185
000150 81 d2 7b bd ce 7b 82 3c 0a 90 44 bd bf 35 2c 3c
       -0.06148005 0.015928175 -0.04798893 0.010510861
000160 38 8a 57 3d 7a 12 88 3d fe 1a c4 3c 30 bd 3a bd
       0.05262205 0.06644149 0.023938652 -0.04559058
000170 47 a4 03 ba 50 ca f6 bc c4 43 40 bd 48 c4 ac bc
       -0.00050217326 -0.030125767 -0.046939626 -0.021089688
000180 1b 38 0a bd 2d f8 5d bd fa 8f 80 3d 5c 42 50 3d
       -0.033744913 -0.054191757 0.06277461 0.050844535
000190 32 4c 88 bd 27 b3 de bb 88 d6 a4 bc aa 48 c8 3a
       -0.06655158 -0.006796259 -0.020121828 0.0015280445
0001a0 7d cf 8d 3d b8 b7 c5 bc cf 60 00 3b 69 55 9d bd
       0.06924341 -0.024135455 0.0019588952 -0.07682306
0001b0 40 2f ec 3c a3 c0 45 bd 6f 11 99 3c e5 11 fc bc
       0.028831124 -0.048279416 0.01868507 -0.030770252
0001c0 27 75 04 bc 54 2c 34 3d ab d4 18 3d 74 13 6b 3d
       -0.008084572 0.043987587 0.03731219 0.0573916
0001d0 a8 b7 86 3d d1 9a 8b bc 90 e2 f8 bc 00 f3 8d bc
       0.065779984 -0.017041596 -0.03038147 -0.017327785
0001e0 51 bc 8d 3b 1f 63 12 3d 48 5e 3b bd 5b 8b 9e bd
       0.0043254276 0.03573906 -0.04574421 -0.07741424
0001f0 85 f6 8e bd 70 2e 3f bc 59 22 9b bc 6b b6 7a bc
       -0.069806136 -0.011668786 -0.018937277 -0.015302281
000200 e7 7a 01 bd 98 99 7d bd 0c 79 04 bd 4c 20 42 3c
       -0.03161135 -0.061914057 -0.032342 0.0118485205
000210 83 dc 88 bd de bd b2 3c 7f 62 15 bd 7f 6d 8c 3d
       -0.06682684 0.021819051 -0.036470886 0.06856822
000220 9e 88 6d bc aa 3a 3a 3b ae 53 28 bd 88 4f 02 bc
       -0.014497904 0.0028416314 -0.04109543 -0.007953532
000230 5a c6 85 bd 34 dd 2b bd 20 b2 98 bc e0 03 d5 bc
       -0.06531973 -0.041959003 -0.018639624 -0.026002824
000240 c1 36 3c 3d 6b 8f b3 bc 8b 8c 87 bc a0 c4 82 3d
       0.045950655 -0.021918973 -0.016546508 0.063851595
000250 38 9e 95 bd 77 fe 91 3c f3 97 24 bd fb 73 d7 3c
       -0.073055685 0.017821534 -0.040183973 0.026300421
000260 ea 39 1c 3d 5c 19 09 bd 9c 55 3f 3d 53 c3 98 bd
       0.03814117 -0.03347145 0.046712503 -0.0745913
000270 09 33 02 bd b4 22 3e 3d 00 81 80 bd 21 d4 32 3d
       -0.031786952 0.046419814 -0.06274605 0.043659333
000280 72 c6 e9 3c 88 fa 90 bd b3 40 88 bd c2 f4 37 3d
       0.028537009 -0.07079035 -0.066529654 0.044911154
000290 e6 42 a3 3d 91 7b 87 3d fc 94 2a bd 57 4d 58 3d
       0.07971744 0.06615365 -0.04164599 0.052808132
0002a0 2e 55 69 3d 76 62 91 bd 16 6e 83 bd 8b 55 1b 3d
       0.056966 -0.07098858 -0.064174816 0.037923377
0002b0 d6 73 86 3d 0e 20 72 3d ce 76 84 3d 39 0d 23 3d
       0.06565063 0.0591126 0.06467973 0.039807532
0002c0 d1 88 a1 3d 79 bd cc 3c 5b 3a d3 bb 25 87 de 3c
       0.07887424 0.024992691 -0.0064461655 0.027164051
0002d0 65 94 88 bd 3a 7d 83 3d 21 87 39 3a 84 18 08 3c
       -0.06668929 0.064203694 0.0007077326 0.008306626
0002e0 47 60 a1 3d 30 bd 8f 3d ca 8c 71 3b d8 c4 15 bd
       0.078796916 0.070185065 0.0036857598 -0.036564678
0002f0 69 2d 4c bd b3 18 40 bd 65 30 33 3d 6f b6 dc bc
       -0.049847994 -0.046898555 0.043747324 -0.02694246
000300 27 61 8f bd 6a 5d f6 3c df b1 b1 3d 71 a5 96 3b
       -0.07000952 0.03007384 0.08676504 0.004597359
000310 3f 9d 42 3c 24 41 77 3c a4 49 dd 3c 8e 31 8b 3c
       0.011878311 0.015091214 0.027012654 0.016991403
000320 12 f2 06 bd 2f c2 87 bd d1 95 a5 bc 8c 88 e2 3c
       -0.0329457 -0.066288345 -0.02021304 0.027653001
000330 a4 42 f8 bc a4 d8 a8 3d 13 db f5 bc 23 2e 9b 3d
       -0.030305214 0.08244446 -0.03001169 0.07577159
000340 e2 2b 3f bd c8 a7 50 bd 06 56 12 bd 46 93 80 bd
       -0.04667271 -0.05094126 -0.03572657 -0.0627809
000350 e4 da 4e 3c 38 ea 32 bc 3f 70 3a 3d ee 59 86 bd
       0.01262543 -0.0109201 0.045517202 -0.065601215
000360 6f 35 c8 bb 71 81 8b bc ea 98 5c 3d 56 7b 49 bc
       -0.0061098854 -0.017029496 0.053856768 -0.012297472
000370 10 92 c0 3c 6a f0 92 3d e6 2d 4b bb 94 57 97 3b
       0.023507148 0.071747616 -0.00310027 0.0046185944
000380 fb 16 48 3d aa 88 b9 3b d1 57 3a 3c 19 19 22 3c
       0.04885004 0.0056620436 0.011373476 0.009893679
000390 80 7e b2 3c 69 7e 4e 3d a2 b5 9b bc 18 74 39 bd
       0.021788836 0.050413523 -0.019007508 -0.04527673
0003a0 93 36 cc bc 56 2b 13 3d 63 af 03 3d cf 7a d5 bc
       -0.024928367 0.03593 0.032149684 -0.026059536
0003b0 96 89 90 3d 53 e0 85 bd 29 e8 73 bd 13 54 9e 3d
       0.070574924 -0.06536927 -0.059547577 0.0773088
0003c0 07 82 bb 3c 1d 35 51 3d 6c d2 51 3c 71 c8 8d bd
       0.02288915 0.051076043 0.012806516 -0.06922997
0003d0 01 87 7b bb 44 cb 92 3c 27 9f 4f bd 19 e5 9e bd
       -0.003838003 0.01791919 -0.05068889 -0.07758541
0003e0 ef c1 03 bd c9 74 e8 bc f5 52 5f 3d ac ad 89 3d
       -0.03216737 -0.028376 0.054522473 0.067225784
0003f0 35 aa 67 bd fb 07 a9 3b f3 5f 82 bc e9 71 91 3b
       -0.056558806 0.005158422 -0.015914893 0.004438628

encoder_blocks.1.0.bias f4 [12]
000000 70 95 45 3c 04 17 13 bc 91 0d 0c bd 81 9c 98 3d
       0.012059554 -0.008977655 -0.034192625 0.07451726
000010 67 cf ab bd 2c 38 5e 3d ed c8 6d bc 8b 91 0e bd
       -0.08389168 0.05425279 -0.0145132365 -0.03480677
000020 fd 21 e0 3c 67 62 aa 3d 8b 17 da 3d ad 72 05 3d
       0.027359957 0.0831955 0.10649022 0.032580066

encoder_blocks.1.2.weight f4 [12, 12, 13]
000000 38 38 82 3d 0c 28 42 bd 48 03 58 3d ce b2 97 3d
       0.06358379 -0.047401473 0.052737504 0.07407151
000010 1a 57 51 3d 38 6d 2c 3d 49 7b 3e 3c d7 a6 82 3b
       0.051108457 0.042096347 0.011626073 0.003987174
000020 df 9c 1a bc cb 06 f7 bc 65 41 46 bb 8d 8a 0a bc
       -0.009436815 -0.030154606 -0.003025138 -0.008455885
000030 d5 e4 85 3d 7c 1a 56 bd 31 e0 9a 3c 7e 48 2c bb
       0.06537787 -0.05227135 0.01890573 -0.0026288326
000040 d9 6c 0a 3b 5d 7b 43 3d 81 78 a3 3d 4a a2 74 bd
       0.0021122007 0.04772507 0.07981969 -0.059725083
000050 b9 7c b0 3d 33 af 64 bd ef 95 bf 3d 61 7a 92 bb
       0.08617539 -0.055831145 0.093547694 -0.004470155
000060 d2 d9 79 3d 28 52 7f 3d 29 28 44 bd 0c 4a 98 bd
       0.060998745 0.06233421 -0.047889862 -0.07435998
000070 34 1f 2f 3d 7e 18 87 3c f4 8e 08 bc 6a 6b ef bc
       0.042754367 0.016491171 -0.008334864 -0.029226024
000080 13 80 96 bd f8 76 45 bd 66 e5 99 3d 4f e9 05 3d
       -0.07348647 -0.04820916 0.075144574 0.032693204
000090 ee ed 67 3d 43 70 0c bd aa 64 28 3d 5b 05 87 3c
       0.05662339 -0.03428675 0.041111626 0.016482046
0000a0 0a e7 f1 bc 4c ac d5 bb 75 79 ff 3c 19 92 b1 bc
       -0.029529113 -0.0065207835 0.031185845 -0.02167611
0000b0 f8 94 79 3d 9a 37 12 3c 6b 10 41 bd 7d 2f 6e 3c
       0.060933083 0.008924389 -0.047134798 0.014537689
0000c0 26 27 97 3c 09 42 83 bd 95 5c 75 bd 28 fe 92 3d
       0.018451285 -0.064090796 -0.059902746 0.07177383
0000d0 02 00 87 3d b8 27 b4 3c d8 a3 52 bd 66 da 20 bd
       0.06591798 0.021991596 -0.051425785 -0.03927078
0000e0 d1 a4 a2 3c 5f 94 f5 bb fa b1 90 3b 19 a5 93 3d
       0.019853981 -0.007494494 0.0044157477 0.07209224
0000f0 bb 45 02 3d f9 b4 61 bc 06 9e 5f bd 7b fe 3f 3c
       0.03180478 -0.013776057 -0.054594062 0.011718388
000100 4c 7e c6 3c c1 de 8c 3d 11 cb 11 bd 7c 01 80 bd
       0.024230145 0.068784244 -0.03559405 -0.06250283
000110 4b 47 97 3c fb 95 62 bd df e6 70 3d 7f 0c e5 bc
       0.018466612 -0.055318814 0.058813926 -0.02796006
000120 31 92 90 bd 80 23 98 bd 12 bd 09 bc 57 ed 2e 3d
       -0.07059134 -0.07428646 -0.008406894 0.042706814
000130 ad 9b 1d bd 81 67 31 ba 4a d6 0f bc 32 b2 30 3d
       -0.038478542 -0.00067674374 -0.008779118 0.04313869
000140 06 f4 0c 3d 86 16 ed bc b0 f6 61 3c ac 87 05 3d
       0.034412406 -0.028941404 0.013791725 0.03260009
000150 58 99 a9 bb 01 03 46 bc 9d 87 89 3c 1b c8 b0 3c
       -0.0051757507 -0.012085677 0.016788298 0.021579793
000160 2d 37 58 bd e9 67 33 3d bf 2c ba bc 32 5f a2 3d
       -0.052786995 0.04380027 -0.022726415 0.07928313
000170 c8 2f 43 3b 1a ea 35 3d ed 7d dd 3c c7 29 a3 3d
       0.0029783119 0.04441271 0.027037585 0.07966953
000180 f8 ad 4a 3b b8 4e 88 3c ee c3 96 bd 9b 0c eb 3c
       0.0030926447 0.016639099 -0.07361589 0.028692534
000190 36 1a 6d 3c 42 35 25 bd 45 58 8e bd 64 14 ae 3d
       0.014471581 -0.040333994 -0.0695043 0.08499983
0001a0 ff 43 8d bd 15 74 5b 3d b4 32 0f bc f2 ae 0a bc
       -0.06897735 0.0535775 -0.008740116 -0.008464562
0001b0 c6 f8 89 bd 0e 58 14 3d f9 a9 1d 3d a9 ec e6 3c
       -0.06736903 0.036216788 0.038492177 0.02818902
0001c0 3f 57 ae bc 7f 4c 02 3d a8 7b eb bc 3a 30 25 3d
       -0.021281837 0.031811234 -0.028745487 0.040329196
0001d0 a0 eb e3 3a 62 2c 8c 3d a9 39 d0 bc e3 67 c1 bb
       0.0017388947 0.06844403 -0.02541812 -0.005902277
0001e0 8d 49 7e bd ac cb 3f 3d a1 5f aa 3d 42 76 86 3d
       -0.062081862 0.046825096 0.08319021 0.06565525
0001f0 5c 53 96 bd c2 c2 81 3d da b5 1a bc 7b 7b 1e bb
       -0.07340118 0.06335975 -0.009442771 -0.0024182487
000200 56 6e 1d 3d 2e 5f 3d 3d 5e a6 13 bd 7d 29 ad bc
       0.038435303 0.04623335 -0.036047332 -0.021137947
000210 cf 50 71 3d d1 d9 77 bd 2f 9f 3b 3d ca ca 0b bd
       0.058914956 -0.06051046 0.045806106 -0.03412894
000220 41 ac 45 bd fe 37 9f 3d a5 5e 4c bd 26 d6 06 bd
       -0.048259977 0.077743515 -0.049894948 -0.03291907
000230 a2 55 ad 3d 51 bc 3f bd 66 24 88 3d 9f 77 9f bd
       0.08463599 -0.046810452 0.066475675 -0.07786488
000240 6e bb 9c bc ab 41 6f bc 22 87 ab 3d d8 fd 11 3d
       -0.019132342 -0.014603059 0.08375384 0.035642475
000250 8a 39 f2 bc 0c 05 90 3d e1 19 e4 3c 04 d0 94 3d
       -0.029568452 0.070322126 0.027844371 0.07266238
000260 89 ea cd 3c da 9f 86 3d 2c 1d a9 3d 62 b2 fd bc
       0.02513625 0.06573458 0.08257517 -0.030968849
000270 33 2a 49 3a a8 2b de bb 9d b8 87 bd a5 25 6a bd
       0.00076738297 -0.0067801066 -0.06627009 -0.057164807
000280 14 c7 87 bc e6 3d b0 bd 10 1d bf 3c 50 bc 5b bd
       -0.01657442 -0.08605556 0.023329288 -0.053646386
000290 6f e9 f6 bc 60 a9 1c 3d 9a 55 4d 3d 85 c4 aa bc
       -0.030140607 0.038247466 0.050130464 -0.020845661
0002a0 5d a4 ff bc 2d ee 9f bd a9 92 f0 bc cb 1c 54 3c
       -0.031206304 -0.078091 -0.029366808 0.012946318
0002b0 fe 9e 1e bc 95 49 78 3d 90 17 b5 3d 58 8d 21 3c
       -0.009681461 0.06061705 0.08842385 0.009860359
0002c0 47 db 10 3d 67 05 98 3d 93 2f 71 3b b6 ed ab bd
       0.03536537 0.074229054 0.0036802038 -0.08394949
0002d0 8f 9b 79 3d f4 00 86 bd d5 f3 43 bd 7c 47 6e 3c
       0.060939368 -0.065431505 -0.04783996 0.01454341
0002e0 ab 67 8b 3d f8 74 e5 3c ef 82 3e bc 95 2e 5c 3d
       0.068068825 0.028009877 -0.011627897 0.05375536
0002f0 d5 ed a4 bd 6a f4 a5 3d e3 62 61 bc a0 60 e6 3c
       -0.08053175 0.08103259 -0.013756487 0.028122246
000300 d0 07 61 bc 04 83 a6 3d 59 8b d0 3b 34 88 07 bd
       -0.013734773 0.08130458 0.006364268 -0.033088878
000310 a3 72 98 3b 38 db 30 bb fa 09 55 3d 18 8d 03 bd
       0.0046523376 -0.0026986133 0.052011468 -0.03211698
000320 10 a8 88 bd f9 32 c1 3b 14 82 89 bd 19 99 4a bd
       -0.066726804 0.005895969 -0.067142636 -0.04946241
000330 c4 2d 8b 3d 2a af 19 3d 98 bb 61 bd fe ce 95 3c
       0.067958385 0.037520565 -0.055110544 0.018287178
000340 2f cc 4a 3d e9 f6 0c bd 58 5e 70 bb 3d 5f 7e bd
       0.04951113 -0.03441516 -0.0036677327 -0.062102545
000350 15 1d 1c bd 4f 75 98 3d df 7f 92 bd 52 19 a1 3d
       -0.038113672 0.0744425 -0.07153296 0.078661576
000360 30 f7 f6 bb 3c 2b ce bc 48 66 b7 3c 03 3f 06 3d
       -0.0075367913 -0.0251671 0.022387639 0.032774936
000370 4d bf 10 bd b9 36 88 3d fb 7b 73 3d 3a f5 58 bb
       -0.03533869 0.066510625 0.05944441 -0.003310515
000380 4b 13 d2 bc 40 65 97 bd 98 65 44 3d 5e fe 17 3d
       -0.025643965 -0.07392359 0.04794845 0.037107818
000390 1f a0 87 bd c5 23 98 3d 8b a7 5a 3d 4a b3 2e 3d
       -0.066223375 0.074286975 0.053382438 0.042651452
0003a0 49 27 96 bd 7e 67 8d 3d b3 bb 8d bb 58 5b 8f 3b
       -0.07331712 0.06904505 -0.004325354 0.0043749027
0003b0 d1 33 30 bd 2a 41 e2 bb 0e d0 e1 bc 06 fb 40 3c
       -0.043018166 -0.006904741 -0.027565029 0.011778599
0003c0 56 45 84 3d 57 d7 0d bd 5c 35 71 3c 63 cf 86 3c
       0.06458537 -0.034629192 0.0147221945 0.016456312
0003d0 b8 b9 ff 3c f4 d2 15 3d 8f f4 b3 bd 5f 18 78 3c
       0.031216487 0.036578134 -0.0878688 0.015142529
0003e0 50 3c a1 bc 46 19 49 3d 34 e3 9a 3c 9e 7a 77 bd
       -0.01968208 0.04909637 0.018907167 -0.06041967
0003f0 7e 68 03 3d 7a b8 8e 3d cc 72 55 bd 39 17 7d bd
       0.032082073 0.0696878 -0.052111432 -0.061789725

encoder_blocks.1.2.bias f4 [12]
000000 48 33 21 bc f1 95 e7 3c 0e 1a cb 3d 92 a1 23 3d
       -0.009838887 0.02826974 0.09917079 0.039949007
000010 9f 5b c7 3c d0 2e 3e bd 2c 20 63 bd 53 d3 43 bd
       0.02433568 -0.046431363 -0.055450603 -0.047808956
000020 93 40 34 3d b6 22 a5 3d 0d e4 95 3d 49 b9 d9 bb
       0.044006895 0.08063261 0.07318888 -0.006644402

encoder_blocks.2.0.weight f4 [12, 12, 13]
000000 58 5b 96 3d 49 25 31 bc 6f d0 c5 3c ca a9 5c 3d
       0.07341641 -0.010812112 0.02414724 0.05387286
000010 02 09 18 3c 51 8a 36 3d e0 fa 9f 3d a5 63 2c 3d
       0.009279491 0.044565503 0.078115225 0.042087216
000020 22 20 ae 3c 31 12 9a bd d4 c8 44 3d 16 03 78 bd
       0.021255556 -0.07523001 0.048043087 -0.060549818
000030 9f 52 88 3d 96 ce aa bd 77 28 a6 3d 69 d5 2c bd
       0.06656384 -0.083401844 0.08113187 -0.04219571
000040 98 97 ca 3b ad c3 ac 3c 30 3f 5d bd 97 8a ae bc
       0.006182622 0.0210894 -0.05401534 -0.02130632
000050 73 28 37 3d b2 e2 98 bd f7 31 1c 3d fa 3a 3e 3b
       0.04471631 -0.07465114 0.038133588 0.0029026852
000060 8b ce 2e 3d 72 87 5b bd af e4 1d 3d 14 45 18 bd
       0.042677443 -0.053595968 0.038548168 -0.037175253
000070 dd 83 b5 bd c6 99 55 bd 20 f7 db 3c a0 01 a0 3b
       -0.088630415 -0.052148603 0.026851237 0.004883006
000080 a6 8d 90 bd 68 8d 30 bd c8 52 83 3c ed b3 86 bd
       -0.07058267 -0.043103606 0.016030684 -0.06577287
000090 ca fa b6 b9 36 89 b3 bb 45 5f 7a 3d 9b df fe 3c
       -0.00034900598 -0.0054790033 0.061126012 0.031112483
0000a0 48 df ad bd 17 68 3c bc bf d0 5a 3d 4d 07 da 3c
       -0.08489853 -0.011499426 0.053421732 0.02661481
0000b0 a7 9e 4d 3c 27 bf d7 ba 79 d3 0f bd 4b 16 81 bd
       0.012550033 -0.0016460166 -0.035113785 -0.0630308
0000c0 58 8b 97 3d 2f 49 7a 3c d9 1d 91 3b 45 29 48 3d
       0.073996246 0.015276237 0.004428607 0.048867483
0000d0 ed a0 2f 3d 67 02 b1 bc a9 4f ef 3c 6d d5 a4 3c
       0.04287808 -0.02160759 0.02921279 0.0201213
0000e0 ad 73 ae 3c b2 03 8c 3d 94 32 86 3d 8a a8 a8 bd
       0.021295393 0.06836642 0.06552616 -0.08235271
0000f0 cf 47 65 3a 52 4f ee 3c cd 7d 8c 3d 8c 23 f5 3c
       0.0008746357 0.029090557 0.06859932 0.029924177
000100 9b a1 9b 3c e2 4f be bc b7 a8 bf 3c df 33 7f 3c
       0.018997958 -0.02323145 0.02339588 0.015576332
000110 6d 68 8c bd a2 4b 90 bd c0 30 91 bd b0 fc dd bc
       -0.06855855 -0.07045676 -0.070893764 -0.02709803
000120 30 59 8e 3d 1f 93 10 3d 25 ad 96 bd a6 84 f7 3a
       0.06950605 0.035296556 -0.073572434 0.0018884137
000130 84 69 0d bd e6 3d 82 3d 28 9f 52 3d 74 0b 20 3c
       -0.034524456 0.063594624 0.051421314 0.009768356
000140 de 6d 46 bc 51 83 23 3c 5e 6a 5b 3b 02 ef 11 3c
       -0.012111155 0.009980039 0.0033480148 0.008907082
000150 94 6d 8b 3c 57 5a eb bc bd b3 da bc f2 db 62 bd
       0.017020024 -0.0287296 -0.026697034 -0.055385537
000160 c8 51 cc bc 33 c9 b2 3b 2f 85 7e 3d bb 9e eb bc
       -0.02494134 0.0054561137 0.062138733 -0.028762212
000170 77 8a 9f bd 24 83 76 3d fc ea 03 bc 98 60 3d bd
       -0.07790082 0.06018366 -0.00805163 -0.046234697
000180 bd 6d 05 3d 32 24 5e bc b4 61 7c bc 6d 7a b4 3d
       0.032575358 -0.013558434 -0.015404154 0.08812413
000190 8a e5 52 bd 2d ae df 3c 21 19 4c 3d 54 30 2a bd
       -0.051488437 0.027304733 0.049828652 -0.041549996
0001a0 53 51 c9 bc 24 1c 4f bd b5 06 6a 3c 25 4f 58 bd
       -0.024574911 -0.050563946 0.014283826 -0.052809853
0001b0 0d 63 85 3d 24 c3 9f 3d 49 29 f1 bc af 95 4b 3d
       0.06513033 0.07800892 -0.029438632 0.049703296
0001c0 4d 09 87 bd 2e 92 d2 bb d8 af 14 3d 23 8d 8d bd
       -0.06593571 -0.0064261174 0.03630051 -0.06911685
0001d0 de ce 21 bd c8 e4 23 bd 73 66 02 3c e1 43 63 39
       -0.039503925 -0.040013105 0.007958996 0.00021673694
0001e0 f8 4e 88 bd 55 3d 89 3d 6e 20 a4 bd 2b c7 10 3d
       -0.06655687 0.06701151 -0.08013998 0.03534619
0001f0 7d 74 ac bc 00 f4 6e bd c5 1f 2f 3c 3c d8 23 bd
       -0.02105164 -0.058338165 0.010688727 -0.04000114
000200 69 b2 30 bd b3 95 84 bd 8c b9 8e bd 57 2c 87 bd
       -0.043138895 -0.06473865 -0.06968984 -0.06600254
000210 03 96 a4 bd 2b bc 7e bc b0 fc a5 3c b9 d5 d1 3c
       -0.08036425 -0.015547792 0.020262092 0.025614606
000220 3c 2e 8f 3d de b6 23 3a d4 8a 94 bb 92 e9 88 3d
       0.069912404 0.0006245206 -0.004533151 0.06685175
000230 ab b1 11 3d d4 6b 01 3d e8 14 59 bd 0d e2 70 3c
       0.035569828 0.031596974 -0.052998453 0.014702332
000240 22 38 8f bd 1c 01 6a bd 87 a7 87 3d d2 d9 81 bd
       -0.06993128 -0.057129964 0.0662375 -0.06340374
000250 dc 43 4d bd 9d c2 7c 3a f5 26 cd 3c a3 9e b4 b9
       -0.050113544 0.0009642037 0.02504299 -0.0003445047
000260 32 34 83 3c 7f 22 ac 3d 3f df 60 bd 89 75 72 3d
       0.0160161 0.08405017 -0.054900404 0.05919412
000270 97 92 6a 3d 83 92 27 bd 11 e8 ef 3b 8f 5e 52 3d
       0.057268705 -0.04091121 0.0073213656 0.05135971
000280 a6 a8 0a bd 40 a5 11 3d ab b4 80 bc d2 76 07 bc
       -0.033852242 0.035557985 -0.01571115 -0.008268075
000290 0d 97 88 3c 82 0a 04 39 33 56 23 3d 06 fb 8f 3d
       0.01667359 0.00012592415 0.039877128 0.07030301
0002a0 e2 d2 08 bd f8 d4 b6 3d e7 bf 28 3d 1f 14 82 bc
       -0.03340424 0.08927339 0.041198637 -0.015878735
0002b0 ec 22 4c bd 9a 05 0e bd 93 ef 19 3c fc d3 22 3d
       -0.04983799 -0.03467331 0.009395498 0.039752945
0002c0 97 77 b3 bc 2a a1 03 bb b6 84 63 3d bb 1c 28 3d
       -0.02190761 -0.0020085075 0.055546485 0.041043025
0002d0 7f b1 ec bc 9e c2 a2 3d 84 e4 5a 3a 69 0d e3 3c
       -0.02889323 0.079472765 0.00083500915 0.027716355
0002e0 87 36 11 bd a8 e1 52 3d d4 1a 90 3d 64 6a 94 3b
       -0.035452392 0.051484734 0.07036367 0.0045292843
0002f0 70 9a 6d bc 94 24 ca 3c 4f c0 60 bd 1f 5c bc bc
       -0.014502153 0.024675645 -0.0548709 -0.022993146
000300 0c 3a e7 3c 3b d1 23 3b 86 45 8b 3d 31 a3 96 3d
       0.028225921 0.0024996537 0.0680037 0.07355345
000310 f7 fc 86 3d a3 81 80 3d 94 c4 56 bd 18 3e 8d 3c
       0.06591218 0.06274726 -0.052433565 0.017241523
000320 40 8b b2 3c bf bf 3e 3d 67 cf bb bc b3 1a 03 3d
       0.021794915 0.046569582 -0.022926046 0.032007884
000330 a3 bc 6e ba b0 86 84 3d 04 14 ee bb f4 7b 26 bc
       -0.00091070886 0.06471002 -0.0072655696 -0.010161389
000340 6b bb b5 3c ab b9 c5 3b 0a de 04 3d af 01 97 3d
       0.022184094 0.0060340962 0.032438315 0.07373368
000350 1b fc 5d bd 05 c7 58 3d 52 e8 61 3c 9c 27 bf bc
       -0.054195505 0.052924175 0.0137883 -0.023334317
000360 f0 70 45 bd 81 45 94 bd 5a 44 96 bd 7d 1c 04 3d
       -0.04820341 -0.07239819 -0.07337256 0.03225373
000370 e8 4a 71 3d 03 0d 63 3c 99 50 2f 3d 8c 2c 64 bb
       0.058909327 0.013858083 0.042801473 -0.003481659
000380 b4 78 8c bd 5d 1b 57 3d 7a 53 98 3d f9 13 77 bd
       -0.0685896 0.05251633 0.07437797 -0.06032178
000390 14 89 d5 bc b4 d1 88 3d 51 50 f3 bc b0 1f 6b bd
       -0.02606634 0.06680623 -0.029701384 -0.057403266
0003a0 ac e3 f4 3c 53 b3 6a 3d 98 f7 87 bd 11 1c fe 3c
       0.029893719 0.057299923 -0.06639022 0.031019242
0003b0 da d7 eb 3c 5f b9 52 bd b4 ee 6c 3d 3e 5c 8a bd
       0.02878945 -0.051446315 0.057844833 -0.06755875
0003c0 c4 56 f6 bb 48 39 3f 3a 1b 3d 53 3d 06 f0 0e 3d
       -0.0075176675 0.00072946073 0.051571947 0.034896873
0003d0 48 e4 9a bd a0 94 90 3d e9 55 4b bd d0 38 2e bd
       -0.075630724 0.07059598 -0.049642477 -0.04253465
0003e0 ea 68 9b ba 44 91 30 bd 92 a8 2f 3d 54 c8 42 3d
       -0.0011856828 -0.043107286 0.04288537 0.04755433
0003f0 bb 8a ca bc 1d 2a 0d bc d9 1f 27 3c b9 2b 0d bd
       -0.024724355 -0.008615998 0.010200464 -0.034465525

encoder_blocks.2.0.bias f4 [12]
000000 b1 52 a6 bc bb 21 a0 3d 9b 41 28 3c 2d b2 02 3e
       -0.020303102 0.078189336 0.010269548 0.12763281
000010 18 97 4a bc 67 d0 77 3d ce d3 d9 bd 1d 38 8a 3d
       -0.012365125 0.060501482 -0.10636102 0.06748984
000020 d2 af ce 3c 0e 45 ac bd c5 9a af 3d 4e 37 cc 3d
       0.025230322 -0.08411609 0.08574442 0.09971486

encoder_blocks.2.2.weight f4 [12, 12, 13]
000000 5c 1c ae bc 59 b2 a9 3d 10 c8 2f 3d 41 d4 67 3b
       -0.021253757 0.0828597 0.042915404 0.0035374316
000010 bd 60 72 bd c2 0a 78 3a 46 aa ba bc a7 ce 59 bd
       -0.059174288 0.0009462052 -0.02278627 -0.053175595
000020 79 2b d4 bc 45 4c f9 bc 02 c5 31 3c c2 d8 32 bd
       -0.025899636 -0.030431876 0.010850193 -0.043663748
000030 63 c9 65 3d d0 9e 8b bc 77 a5 90 3c d0 b4 71 3d
       0.05610026 -0.017043501 0.017657025 0.059010327
000040 e6 e6 16 3d 46 8f 16 3d d8 70 79 bd 61 5a a1 3d
       0.036841296 0.03675773 -0.06089863 0.078785665
000050 4c 89 ac bc 9f 31 9d bc f7 9e 81 bd f2 d4 34 3d
       -0.021061562 -0.0191887 -0.06329148 0.044148393
000060 7d 7f 7e 3d e2 3b ff bc 93 5e d8 bc 05 32 80 3d
       0.0621333 -0.031156484 -0.026412284 0.062595405
000070 45 97 8c bd 28 b7 ab bc b6 8b 83 3c b6 b8 3b 3d
       -0.0686479 -0.02096136 0.01605783 0.04583045
000080 c5 a9 4e bd a4 2a 32 bd 25 98 ab 3d 73 5c 9b bd
       -0.050454874 -0.043497697 0.08378629 -0.07585993
000090 81 8e 5c bd 6a 43 4a 3d 06 c9 53 bb 7f 8a c3 3c
       -0.05384684 0.049380697 -0.0032315864 0.023869751
0000a0 4b 33 57 bd 69 c3 1e bd a7 4b 0a bd 7e 9a 81 3d
       -0.05253915 -0.038760576 -0.033763554 0.06328295
0000b0 d7 7a 40 3d 22 5e 88 bc 40 2e 45 3b ed 8e e4 3b
       0.04699215 -0.016646449 0.0030087382 0.006975046
0000c0 06 59 c4 3c 55 89 1e bd 3e db 60 bd c5 3e 98 3d
       0.023968231 -0.03870519 -0.054896586 0.07433847
0000d0 20 e2 20 3b 9c b5 91 bd 14 e9 fe 3c be a7 62 bd
       0.0024548844 -0.07114717 0.031117 -0.055335753
0000e0 32 20 92 bc 38 47 74 bc c6 86 61 bd 80 14 c3 ba
       -0.017837618 -0.014909558 -0.05506017 -0.0014883429
0000f0 80 75 1e 3c 70 5f fa bb 60 a2 7b bb a0 d7 e4 bb
       0.009671569 -0.0076407716 -0.0038396344 -0.0069837123
000100 08 4c 7f 3c 89 16 51 3d 18 3a 69 bd 80 b8 b7 3c
       0.015582092 0.05104688 -0.05694017 0.022426844
000110 93 45 ac 3c 3a 87 21 3c b9 44 5c 3b b0 17 4e bd
       0.02102927 0.009858901 0.0033610298 -0.05031556
000120 76 f8 39 3d da cf 4e 3d 06 eb 54 3d a8 58 3b bd
       0.045402966 0.05049119 0.05198195 -0.045738846
000130 d0 a3 34 bd 75 ee b5 bb 22 1b 5d 3c c6 85 57 bd
       -0.044101536 -0.005552108 0.0134952385 -0.05261781
000140 be 70 23 bd e8 79 b2 bb 10 0f 1a 3d 57 db f9 3c
       -0.03990244 -0.0054466613 0.03761202 0.030500097
000150 20 82 10 3d ef 3d 4f 3c f2 88 ad bd e5 c6 67 3d
       0.035280347 0.012649043 -0.08473386 0.056586165
000160 b2 d7 78 bd 47 c4 52 bd 4b 5e 8a 3b f8 dc 86 3c
       -0.060752578 -0.051456716 0.0042226664 0.016462788
000170 de 2e 0a 3d 48 09 cd 3c 20 55 89 3d d6 d9 a2 bc
       0.033736102 0.02502884 0.067056894 -0.019879263
000180 9f e7 41 3c 65 82 c4 3d be 12 ec bc 62 fe 9f 3d
       0.011835008 0.09595183 -0.02881753 0.078121915
000190 e9 08 35 3c db e2 c1 3d 2d 4b c6 3d b1 8e 30 bc
       0.011049488 0.09467097 0.096823074 -0.010776208
0001a0 6e 6c ce bb d7 e1 98 bd 2d 57 84 3d d0 9f 94 3d
       -0.006299547 -0.074649505 0.0646194 0.07257044
0001b0 90 65 1f 3c a1 8a 87 bd 1a c1 e5 3c 29 48 59 3d
       0.009728804 -0.06618238 0.02804618 0.053047333
0001c0 74 8f a9 bc f9 b7 3a bc fb 41 4d bd af 73 3c bd
       -0.020698287 -0.011396402 -0.050111752 -0.046008762
0001d0 3b 54 5b bc 97 e3 76 bd 9d a4 93 3d c2 1e 32 bd
       -0.013386781 -0.06027564 0.07209132 -0.043486364
0001e0 43 70 bd 3c 65 4f a2 3d 36 74 03 3d 77 cb 82 bd
       0.02312482 0.079252996 0.03209325 -0.06386464
0001f0 57 61 8e bc d3 5c 9a bd ee 83 88 bd f8 03 51 bb
       -0.0173804 -0.07537236 -0.066657886 -0.0031893235
000200 1f 3a a4 3c 26 66 5b 3d d8 3f 22 bd ba 7e 0c 3d
       0.020047246 0.053564213 -0.039611667 0.034300543
000210 b3 0a 39 bc 49 22 00 3d 47 38 29 3d 3d 30 86 bd
       -0.011294055 0.031282697 0.041313436 -0.065521695
000220 81 b1 88 bc 9a 80 87 3c 54 e6 59 3d a3 77 1f 3b
       -0.016686203 0.016540814 0.053198174 0.0024332784
000230 1a 19 72 3d fe 9b 09 bd 38 6e 10 3d fc f3 43 bd
       0.05910597 -0.03359603 0.035261363 -0.047840104
000240 08 75 cf bc e0 86 ec 3c bd b5 ab 3b 44 50 8f bd
       -0.02532436 0.028872907 0.0052401708 -0.06997731
000250 c1 86 78 bd 4b b5 a9 3d 09 2a 28 3d ea cd 9a bc
       -0.060675386 0.08286532 0.041055713 -0.018897016
000260 5d 02 7b bd e9 39 8b 3c 00 86 98 bb da 89 22 bd
       -0.06128155 0.016995387 -0.004654646 -0.039682247
000270 91 ff 82 3d 71 42 77 bd 46 68 b9 3d 74 9d 56 bd
       0.06396402 -0.060366098 0.09053092 -0.052396253
000280 52 94 24 3d 52 80 9a 3d 53 c6 ae bc 78 6d 32 3d
       0.04018051 0.075440064 -0.021334803 0.04356143
000290 81 45 af 3b 9e 44 44 3d eb 69 6e bc 35 93 41 3d
       0.0053488617 0.047917 -0.01455162 0.04725953
0002a0 87 f5 9f bc 22 d8 fb bc 09 d9 80 3d 83 29 16 bc
       -0.019526256 -0.030742709 0.06291396 -0.009165171
0002b0 d6 2b 84 3d 8b 8c 84 3b b7 68 82 3d 95 e4 3e 3d
       0.064536735 0.0040450743 0.06367629 0.04660471
0002c0 5b 11 fd 3c 8f 6f d0 bc 6b 48 b1 bc 73 1f 5c bd
       0.030892065 -0.02544382 -0.021640977 -0.05374093
0002d0 93 63 4f 3d 1a b3 31 3c 94 70 09 3c 52 da 38 bd
       0.05063207 0.010845924 0.008388657 -0.04513008
0002e0 32 d8 0d bc 2b 7d 05 3c ec c9 66 b9 5c 00 89 3c
       -0.008657502 0.008147518 -0.00022009731 0.016723804
0002f0 d3 83 39 3d 9f b0 d1 3c b3 79 17 bd 6e 0c 33 3c
       0.045291733 0.025596915 -0.036981296 0.010928256
000300 d2 88 9f 3d 41 d3 72 bd 93 f7 ff bc 2d f0 1b bd
       0.07789768 -0.0592835 -0.031245982 -0.038070846
000310 94 32 9a 3d 80 5b 97 bd 55 0f 96 3d 81 70 3f bc
       0.07529178 -0.07390499 0.07327143 -0.011684538
000320 b4 59 61 3d 24 93 8c 3d a5 23 a5 bc 07 e9 5e 3d
       0.05501719 0.06864002 -0.020158598 0.05442145
000330 a8 89 fd 3c 24 7d 16 3d 5f ba 84 bd bf 15 77 3b
       0.030949429 0.036740437 -0.0648086 0.003770217
000340 f2 fd 2f bd d0 49 91 3d 34 1e 18 bd 00 36 4b ba
       -0.04296679 0.07094157 -0.03713818 -0.0007751882
000350 e4 cb 09 bd 50 10 8f 3d 1c 1b 5d 3d 9c 1e 4e bd
       -0.03364171 0.06985533 0.05398093 -0.05032216
000360 cc 3f 73 3d 3e 1b 0e 3d 00 48 0c 38 cf c1 23 bd
       0.059387013 0.03469395 3.3445656e-05 -0.039979752
000370 80 23 5f 3b f8 ab 71 3d 43 6d 73 3c 29 10 6c bb
       0.003404826 0.059001893 0.014857593 -0.0036020374
000380 1e 96 8e 3c f7 08 94 3d 11 1e cb 3c 50 af 5f 3d
       0.017405566 0.072282724 0.02479461 0.05461055
000390 60 b1 bf 3c 10 6d f0 bc 6e de bf bc 91 37 a0 bd
       0.023400009 -0.02934888 -0.023421492 -0.078230985
0003a0 87 ce e3 bc cf 1a 64 3c 73 73 b5 3c b2 65 23 bd
       -0.02780844 0.013922407 0.022149777 -0.039891906
0003b0 48 1a be 3c fd c0 4a bd 9c ff 88 3d 55 07 ad bc
       0.023205891 -0.049500454 0.066893786 -0.02112166
0003c0 f5 76 b6 bc e0 6d 68 bd 0f 91 1f 3d f8 d3 a3 3d
       -0.02227352 -0.05674541 0.038956698 0.07999414
0003d0 af 88 65 3c bc ab 4a 3d f2 ee 06 3c 2e 25 a9 bd
       0.014009639 0.049480185 0.00823568 -0.082590446
0003e0 c9 e2 97 bd b7 b4 83 bc 5d 31 41 3d 0a 94 54 bd
       -0.07416303 -0.016077382 0.047166217 -0.051898994
0003f0 00 77 58 3b 1a 87 95 3b 79 74 db bc f4 5e b0 bd
       0.0033029914 0.0045632245 -0.026788937 -0.08611861

encoder_blocks.2.2.bias f4 [12]
000000 0f b4 91 3d f3 5c 73 3d 3c e5 04 3c 40 35 34 bd
       0.071144216 0.059414815 0.008111294 -0.043996096
000010 ba 81 c1 bb 9f 74 65 3d ac da fe 3d b2 cb 3f bd
       -0.005905357 0.05601942 0.12444052 -0.04682512
000020 71 60 6e 3d 74 6c 7f 3d b1 04 e1 3d 02 19 25 bd
       0.058197442 0.06235929 0.10987223 -0.040307052

encoder_blocks.3.0.weight f4 [12, 12, 13]
000000 f0 06 9c 3d 02 f1 e6 3c 03 18 1f bc c3 0b 48 bd
       0.07618511 0.028191093 -0.009710315 -0.04883934
000010 a6 c5 80 bc a0 d3 3e 3d 7a bb 79 bd 2e 0c 28 bd
       -0.015719246 0.04658854 -0.060969807 -0.04102724
000020 e1 21 49 bd 19 06 7c 3d ab d8 a0 3d e6 c3 37 bd
       -0.049104575 0.061529253 0.07853826 -0.044864558
000030 cb 96 86 bd e3 f2 63 bd 4b 20 8d 3d 43 df ec 3c
       -0.0657173 -0.055651557 0.06890925 0.028915053
000040 af cd 35 3d 42 13 ae 3c 4b d8 75 bc 47 04 56 3d
       0.04438561 0.021249417 -0.015005182 0.052250173
000050 c6 d8 94 bd 97 9f fb bc 49 29 8b 3a 9b e6 16 bd
       -0.07267909 -0.030715747 0.0010617162 -0.036841016
000060 ca 55 d8 3c cf 35 92 3c f0 fe 49 3d 09 11 89 3d
       0.026408095 0.017847924 0.049315393 0.06692702
000070 46 78 73 3d ca 3f 42 bc 7b e1 48 3c ce 90 58 bc
       0.059440874 -0.011856029 0.01226079 -0.013218118
000080 d3 ab 2d bd a6 c6 10 3c 6e 5d 67 bd 51 43 73 bc
       -0.042400192 0.008836424 -0.056485586 -0.014847592
000090 97 bf 7f 3b 6a 59 86 3c 50 82 89 3c 81 24 3a 3d
       0.0039024109 0.016400058 0.01678577 0.04544497
0000a0 11 2f 34 bd 4f 7a d5 3c 3c 12 4d bc 6b b8 62 3d
       -0.0439902 0.026059298 -0.012516554 0.055351656
0000b0 ea 5a 75 3d 2c 37 1c bd 40 10 19 bc 25 47 fe 3c
       0.059901156 -0.038138554 -0.009342253 0.031039784
0000c0 84 bb 99 3d 23 7d 25 bd 47 0a ce 3c b4 02 f6 bc
       0.07506469 -0.040402543 0.025151385 -0.030030586
0000d0 53 4e 88 bd ea d6 2b 3d 0f 88 77 bd 65 b5 21 3d
       -0.06655564 0.041953005 -0.06043249 0.039479632
0000e0 6f 01 86 3d 06 11 18 3d 53 99 67 bd 88 d8 8a bd
       0.06543242 0.03712561 -0.056542706 -0.06779581
0000f0 51 d0 42 bb d1 d6 76 3c f5 0b 00 bd f0 54 88 3c
       -0.0029726217 0.015065865 -0.031261403 0.016642064
000100 fe 8a ac bc 5c 78 91 bd 50 56 2d bd c3 f3 bc bc
       -0.02106237 -0.07103035 -0.042318642 -0.023065453
000110 15 62 7f 3d a5 cc 85 bd 6c 30 cb 38 0b e9 a7 3d
       0.062349398 -0.065331735 9.6888136e-05 0.08198746
000120 f7 d7 f0 3b 14 61 4e 3c 65 35 a9 3b e9 a4 50 bd
       0.0073499638 0.012596387 0.005163836 -0.05093852
000130 01 02 1a 3d 98 59 32 3d 3e 69 3a bd 36 1b be 3b
       0.037599567 0.043542475 -0.045510523 0.0058015836
000140 19 e0 10 3d 04 57 48 bd e8 56 03 bd cb 2f 1a bd
       0.035369966 -0.04891111 -0.032065302 -0.037643235
000150 0e d0 b9 bb 3c d2 86 3d 93 66 b0 bd 4f a9 88 3c
       -0.005670554 0.06583068 -0.086133145 0.016682295
000160 0c 17 5c bb 95 07 d2 bc b0 39 9c 3d a9 98 a3 3d
       -0.0033583073 -0.025638381 0.076281905 0.07988102
000170 9d b5 58 3d b7 4e 14 bb f2 ba 7a bd a1 3a 7d bd
       0.052907575 -0.0022629926 -0.06121344 -0.06182349
000180 3b e3 f3 bb 73 11 4a 3d aa 82 17 3d 97 0f a7 3c
       -0.0074428595 0.049333047 0.036989845 0.020393176
000190 d0 6a 6f 3d 2e e6 33 3c e0 f2 75 3d e0 b2 8a bd
       0.058451474 0.010980172 0.060046077 -0.06772399
0001a0 81 08 db bc f1 23 02 3d 8b 12 25 bc f7 e7 59 bd
       -0.026737453 0.031772558 -0.010075222 -0.053199735
0001b0 fe 35 e6 bc 2d 22 a8 bb 57 8b 52 3d 27 4b 98 bd
       -0.028101917 -0.005131027 0.051402416 -0.07436209
0001c0 a5 e3 6f 3c 8b c5 88 bd b8 80 2d bd 6b 59 87 3d
       0.014641677 -0.06678303 -0.042359084 0.06608852
0001d0 72 23 31 bd 0b 9d 90 bd 78 4a 93 bc 59 1b 8c 3d
       -0.043246694 -0.070612036 -0.017979845 0.06841154
0001e0 0c 09 b2 bb 9f 41 9e bb c4 14 48 bd 6e d3 9c bd
       -0.0054332074 -0.0048296 -0.04884793 -0.076575145
0001f0 d8 60 c9 3c c6 0b 78 3b dc ae ed 3b d1 78 86 bd
       0.024582312 0.0037848814 0.007253511 -0.06566013
000200 df 3f 35 3d 52 e5 60 bd 80 e1 33 bb 10 18 98 bd
       0.044250365 -0.054906197 -0.002744764 -0.074264646
000210 70 69 c9 3b 39 bc 3b 3d 9c c7 14 3c ea 03 8c bc
       0.0061466023 0.0458338 0.009080794 -0.01709171
000220 18 50 83 bd ae 3f 19 3d 70 8a fb bc 56 e0 10 3c
       -0.06411761 0.037414245 -0.03070566 0.008842548
000230 7d bc a1 bd 28 fe 97 3d 9d b3 c8 bc 71 92 83 3d
       -0.078972794 0.07421523 -0.024499709 0.06424416
000240 f0 bb 05 3c d0 85 f6 bc 64 e2 05 3d 76 57 a8 3d
       0.008162484 -0.030093104 0.032686606 0.08219807
000250 80 88 01 bd b5 cb d0 3c 63 92 5e 3d 56 22 82 bc
       -0.031624317 0.02548776 0.054338824 -0.015885513
000260 cb a5 4c 3c ef 85 f1 3c db 85 75 3d 11 7d 9d bd
       0.0124907 0.02948281 0.059942108 -0.0768987
000270 3b 9c 35 bc 9c c6 d4 bb 54 a0 06 bd 8e 6b cc 3d
       -0.0110846115 -0.0064934026 -0.032867745 0.09981452
000280 0a ba c8 3d 54 ba 76 bd 92 b5 f6 3d ae 87 8a 3d
       0.09801109 -0.06023629 0.120463505 0.0676416
000290 3d a3 52 bd 27 ea de 3d d5 a1 de 3c 83 ac 92 3d
       -0.051425207 0.10884505 0.027176777 0.0716181
0002a0 cf 86 68 3d f1 55 ea bc ab 16 9a bd bc 0f 9c bd
       0.05676919 -0.028605433 -0.07523855 -0.076201886
0002b0 67 9a e2 bb 61 2f 04 3d e9 7c 88 bd f8 71 74 3b
       -0.006915379 0.032271747 -0.0666445 0.0037299376
0002c0 e8 10 6f 3d f3 4b 87 3d 4b fb ca bc d3 ef 08 3d
       0.058365732 0.06606283 -0.024778029 0.03343184
0002d0 28 bf b2 3c b9 df a0 3d c4 42 16 3c e5 fb cd 3c
       0.021819666 0.07855172 0.009171192 0.025144527
0002e0 d6 32 84 bd 8d 32 a0 3d 6f c3 c9 bc 1e 6f 7d 3d
       -0.06455009 0.07822142 -0.024629323 0.061873548
0002f0 72 c2 51 bc f3 41 36 bd db 96 2a bd 14 17 a2 3d
       -0.012802707 -0.044496488 -0.041647773 0.07914558
000300 74 6c 1b bd 8e 3a 6e bd ac 59 7d bb 06 be 72 bd
       -0.037945226 -0.05816131 -0.0038658185 -0.05926325
000310 67 bd 98 3c 2a 6f 42 3d 8a 20 a9 3b c8 b7 49 3c
       0.018645002 0.047469296 0.0051613497 0.012311883
000320 0b 4e ae 3c 30 99 73 3d 97 30 e9 bc 9c 80 81 3d
       0.021277448 0.059472263 -0.028465552 0.063233584
000330 a1 1c f7 bc 07 85 c9 bc f6 0b 88 bc 24 1e 8d 3d
       -0.030165019 -0.024599565 -0.016607266 0.068905145
000340 7b 0d 04 bd a5 0b 66 3d e7 20 94 bd f6 36 3d 3c
       -0.03223942 0.05616345 -0.07232838 0.011548748
000350 ea 5b 40 bd b6 2f 99 3d 42 cb 94 bd ba 76 08 3d
       -0.046962656 0.07479803 -0.07265331 0.03331635
000360 d4 5e 2a 3d 66 bf f6 3c a5 d1 0e bc b2 bb 78 3d
       0.04159434 0.030120563 -0.008716975 0.060725875
000370 e8 99 4b 3c 14 db 89 bc 6c 55 dd bc aa 27 1a 3d
       0.012426831 -0.016828097 -0.027018271 0.037635483
000380 d7 27 6e bd 9a a1 c7 bc 52 ec 7d 3d ae cb 61 bd
       -0.058143463 -0.02436905 0.06199295 -0.055125885
000390 9b 01 61 3d a9 12 1e bd 8d 09 e2 3c 2e 7e 62 bc
       0.05493317 -0.038592014 0.027592445 -0.013824029
0003a0 6a 45 1d bc bd f8 8e bc 88 3e 53 3d b8 d9 dc 3d
       -0.009599069 -0.017452592 0.051573306 0.10783714
0003b0 f2 44 6e 3b c4 bf b9 3d 10 26 cf 3d 11 fd a5 3d
       0.0036357013 0.090697795 0.10114682 0.08104909
0003c0 b7 52 0a bc 9f f5 7d 3d d3 a7 40 3d dd c2 a1 3c
       -0.008442572 0.06200182 0.04703505 0.019746238
0003d0 1f e6 d1 3c f2 df 95 3d d6 74 cb 3d cf 87 65 3c
       0.025622426 0.07318105 0.09934394 0.01400943
0003e0 a4 61 d7 3a 75 df 55 bb 1c 93 b8 3b fd d5 0c bd
       0.0016432297 -0.0032634411 0.005632771 -0.034383763
0003f0 7c 3b 80 3d 33 85 16 3c cf b2 21 bb 92 89 9d bd
       0.06261346 0.009187031 -0.0024673229 -0.07692255

encoder_blocks.3.0.bias f4 [12]
000000 a8 68 45 bd 2c 6a 90 3d 06 9b c0 3d 00 66 ab bc
       -0.04819551 0.07051501 0.094045684 -0.02092266
000010 39 e0 1f bd b1 28 be 3d bf 83 f5 bc 3f 48 4d bd
       -0.039032195 0.09285105 -0.029970048 -0.050117727
000020 46 88 7d 3c 8e 88 a8 bd 00 77 0d 3d bb c0 ff 3c
       0.015474385 -0.08229171 0.034537315 0.03121983

encoder_blocks.3.2.weight f4 [12, 12, 13]
000000 d0 4c ce 3b 6e a8 67 bd 2e 73 54 bc 63 21 5a 3d
       0.006295778 -0.05655711 -0.012966914 0.053254496
000010 8e 18 13 bd 6f f9 83 bd a4 12 08 3d 4c ee 3e bc
       -0.03591209 -0.0644406 0.033220902 -0.011653494
000020 e5 56 53 bd 51 d1 24 bb 4a fb 41 bd cf 74 06 3d
       -0.05159654 -0.0025149176 -0.04735879 0.03282624
000030 f9 5e 01 bc 73 e3 d6 3c 15 5d 64 bb 89 6a 31 bc
       -0.007896178 0.026231503 -0.003484552 -0.010828623
000040 b8 27 00 bd 75 f9 31 bd aa 29 21 3c 2a fd 85 bd
       -0.03128788 -0.04345079 0.009836594 -0.06542428
000050 02 c2 6f 3d 75 ef 07 bd bb ae 1a bc d5 22 87 3d
       0.05853463 -0.03318735 -0.009441073 0.065984406
000060 f4 74 0a 3d 48 bd 40 3d b3 ad 9d ba 96 fa 26 bd
       0.03380294 0.047055513 -0.0012029916 -0.04076632
000070 2c dc f3 3c 91 eb 84 bd 4d b0 d4 3c 34 f5 89 bd
       0.029768072 -0.06490243 0.025962973 -0.06736222
000080 af 9b 4b 3d 57 e8 5d bd 93 58 85 bb 35 45 a1 3d
       0.04970902 -0.054176655 -0.0040693968 0.07874528
000090 76 b6 63 3b 81 6b 98 ba 1e 82 1d bd 1d 55 50 bd
       0.0034746206 -0.0011628718 -0.038454168 -0.05086242
0000a0 d4 46 77 3d d9 45 98 bd 5f 56 67 3b 0a 91 9e 3c
       0.06037028 -0.074351974 0.0035299284 0.01935627
0000b0 09 92 1f 3d 7d 66 4a 3c 24 ad fd 3c 02 93 ff bc
       0.03895763 0.012353537 0.030966349 -0.031198028
0000c0 bd 01 05 bd 33 7b 8b 3d be d3 8b bd ad df 97 3b
       -0.03247236 0.06810608 -0.06827496 0.0046348185
0000d0 a3 05 83 3d fe 53 7e 3d a8 c6 46 3d 35 78 6c bb
       0.063975595 0.06209182 0.048529297 -0.003608239
0000e0 6d da a2 bb 18 56 41 bd 66 0c d4 3b 77 e2 36 3d
       -0.004969886 -0.047201246 0.0064712046 0.044649567
0000f0 68 fa 86 3d 07 db 55 bc a5 5d be 3c c0 01 d4 bc
       0.0659073 -0.0130527085 0.023238013 -0.02587974
000100 9d e4 4f bd 86 8d 02 bd 0a 43 06 bd c3 1d a1 bd
       -0.050755132 -0.03187325 -0.032778777 -0.07867005
000110 60 63 92 3d c7 27 2c bd 32 cc d7 bc 1b bf 47 3d
       0.071478605 -0.042030122 -0.026342485 0.048766237
000120 96 98 90 3d 84 1f 73 3d 74 aa 94 3d 41 c8 79 3c
       0.070603535 0.059356228 0.07259074 0.015245498
000130 8c 5b 72 3d 52 f0 82 bd b2 22 ab bc 5a 9d 94 bd
       0.059169337 -0.06393494 -0.020890567 -0.07256575
000140 bf 04 10 3d ca 31 83 bd 14 4a 25 bd e4 82 6b bd
       0.035160776 -0.06405981 -0.04035385 -0.057497874
000150 3a 13 96 bd 24 df ce bb 04 67 5b 3d 61 49 9e bd
       -0.07327886 -0.0063132215 0.05356504 -0.0772884
000160 dd 70 8c bc 41 96 06 3d 14 f6 24 3d 7e 69 36 bd
       -0.017143661 0.032858137 0.04027374 -0.0445342
000170 88 ee 71 3c 69 59 86 bd 9e 9f 9f 3d d8 32 14 3d
       0.014766343 -0.065600224 0.077941164 0.0361813
000180 9c 03 58 3d 68 0e a7 3c d4 b8 ef 3c b4 13 1f 3d
       0.052737817 0.020392612 0.029262938 0.03883715
000190 4e 34 a1 bc 71 3d 3b bd 06 5e 05 bd 28 92 0d 3c
       -0.019678261 -0.045712892 -0.03256037 0.008640803
0001a0 3d a5 34 3d c9 9a f8 bc 35 8e 91 3d 00 2c 86 3d
       0.044102896 -0.030347245 0.07107202 0.06551361
0001b0 5b 7f d6 bc 99 ec 94 3d a9 44 b8 3b 57 48 da bc
       -0.026183775 0.0727169 0.0056234193 -0.026645822
0001c0 b1 ec 9b 3c 71 f1 88 3d 0c e8 bb bc 8c aa 4e 3d
       0.019033762 0.06686676 -0.022937797 0.050455615
0001d0 45 a8 04 bb f8 6b b4 3b ff b8 60 39 e5 ed 1e 3d
       -0.0020241898 0.005506035 0.00021431221 0.038801093
0001e0 f8 2a 90 3d 80 cc 86 3c c3 3d 18 3d 29 21 6e bd
       0.07039446 0.016454935 0.037168276 -0.058137093
0001f0 a7 ae 68 3d e7 15 1d bc 4b a7 52 bb cb 69 7b bd
       0.056807186 -0.009587741 -0.0032143171 -0.06138019
000200 37 3d 8e 3d bc 7f 14 bd cb 0c 9b 3d 49 e6 95 bc
       0.069452696 -0.03625463 0.075707994 -0.018298285
000210 9f a4 2b bd 8b 27 78 bd 05 ed 47 bd c4 e3 4d 3d
       -0.04190504 -0.060584586 -0.048810024 0.050266042
000220 88 bc 60 bd ed e4 f9 bc 11 22 6d bc 82 e4 8e bb
       -0.054867297 -0.030504668 -0.014473454 -0.0043607363
000230 7a ba fe ba ea 4b 2d 3c 1e 29 a3 bd 87 7b 59 3c
       -0.0019434236 0.010577181 -0.07966827 0.01327408
000240 58 66 2d 3d ba f8 b7 bc 38 69 52 bd 4a 09 1b bc
       0.04233393 -0.02245747 -0.051369876 -0.009462664
000250 4a f6 81 bd 5c 5b 0d bd 35 77 7d bc 20 1a 22 39
       -0.06345804 -0.034510955 -0.015470316 0.00015459256
000260 ae c2 d1 bc 39 60 ed 3c c0 fa 91 bc eb fc de bc
       -0.025605526 0.028976547 -0.017819762 -0.02722021
000270 8c 71 04 3c 93 3b 48 bd ec e2 33 3d 0d 39 9f 3c
       0.008083712 -0.04888494 0.04391758 0.019436384
000280 f7 3a 9f bc ac 4b 9c 3d 1e 8b 96 3d da 02 a9 bc
       -0.019437296 0.07631621 0.07350753 -0.020631243
000290 94 fc 95 3d 2a 12 9f 3c af 75 22 3c 69 ac 13 bd
       0.07323566 0.019417841 0.009915753 -0.036053095
0002a0 9e 5b 58 3d c2 03 88 bc 57 da 28 3d 7e 6c a3 3c
       0.052821748 -0.016603354 0.04122385 0.019949194
0002b0 47 75 0b bd 9b 8e 2e 3d 9d ea a1 bd 38 a0 08 bd
       -0.03404739 0.042616468 -0.07906077 -0.03335592
0002c0 47 15 9c bd f0 13 8d 3d ef 05 15 bd bc 76 91 3b
       -0.07621246 0.068885684 -0.03638261 0.004439203
0002d0 b7 bd 34 bd 28 14 f1 bc eb db bc 3c fa 2c 8a 3d
       -0.04412624 -0.029428557 0.023054084 0.0674686
0002e0 c8 06 4a bd 1f 14 1b bd ff ef f3 bc e0 a3 6c 3c
       -0.049322873 -0.037860986 -0.029777525 0.014443368
0002f0 7a 39 68 bd 21 c4 bb bc 8a 5d 8b 3d a8 82 59 3d
       -0.05669544 -0.02292067 0.068049505 0.05310312
000300 eb d7 d5 3b 61 7c 69 3d 81 aa d9 3c a3 4b 7c bc
       0.0065259836 0.057003383 0.02657056 -0.015398893
000310 52 57 16 3c 70 0b a6 bd 48 dd ca 3a 5e 9b f9 bc
       0.009176092 -0.0810765 0.0015477324 -0.030469593
000320 d3 07 49 bd 37 90 12 3d 93 e8 9b 3d b7 3c 22 bc
       -0.049079727 0.035782065 0.076127194 -0.009902171
000330 84 54 a4 3b 34 42 ce 3b 1a 85 1c 3c ea 02 1e 3d
       0.005014958 0.006294513 0.009553218 0.038576998
000340 a7 dd 24 bd 2c b1 21 bc eb 58 6c bd 03 91 48 3d
       -0.040250447 -0.009868901 -0.057701986 0.04896642
000350 41 4b 4d 3d e9 0c 5a bd 52 e8 68 bd 0b b6 a3 3b
       0.050120596 -0.05323497 -0.056862183 0.0049960664
000360 21 56 7d 3d 7c 98 8b bc a0 22 57 bd bf b0 47 3b
       0.061849717 -0.017040484 -0.052523255 0.003047034
000370 8d 0d 0a bd c0 cc a5 3c 84 23 04 3d 9b c3 93 3c
       -0.03370433 0.020239234 0.032260433 0.018037608
000380 74 43 17 3d a6 89 0e bd 79 c3 3a 3d 8f 93 9c bb
       0.036929563 -0.03479924 0.045596574 -0.0047783325
000390 a3 44 1c bc a4 65 42 bd e4 6e 8c bc d5 a5 48 bd
       -0.009537849 -0.047460213 -0.01714272 -0.048986275
0003a0 3c 40 db 3c 49 4f 13 bd 2d 69 56 bd 0b 00 8b bd
       0.026764028 -0.035964284 -0.052346397 -0.067871176
0003b0 93 bb 92 bd 1c c0 eb bc be 51 ba 3c 6a b0 31 bd
       -0.07164683 -0.028778128 0.022744056 -0.043381132
0003c0 e2 f9 c7 3c 8f 39 3d bd 38 bb 87 3d d8 53 ba bb
       0.024411146 -0.04619747 0.06627506 -0.0056862645
0003d0 8c d5 4c bd d4 a5 7d 3d 77 91 6c bd bf 30 36 bd
       -0.05000834 0.061925724 -0.057755914 -0.04448008
0003e0 f0 94 3b 3c 20 f8 8f bb 70 5c 9f 3d 88 56 3a bc
       0.011449084 -0.0043935925 0.07781303 -0.01137317
0003f0 92 7c 92 3d 10 ae 28 3c 10 82 95 3d 64 dc 59 3d
       0.07152666 0.010295406 0.07300198 0.053188697

encoder_blocks.3.2.bias f4 [12]
000000 47 44 9b bd 91 04 77 bd de 5b 97 bd 20 78 31 bd
       -0.07581382 -0.06030709 -0.07390569 -0.04332745
000010 e2 2a 9a bc 26 74 fc 3c d8 74 8d 3b 10 74 b2 3b
       -0.018819276 0.030817103 0.0043169074 0.0054459646
000020 aa 89 f7 3b 61 ec 9d 3d f6 50 3a 3d 91 61 9d 3a
       0.0075542526 0.07711101 0.045487367 0.0012007226
