Python/save/localizer/trial_2/quake_localization_model_00080.pth (torch, 252994 bytes, 35 tensors)

encoder_blocks.0.weight f4 [12, 1, 13]
0.18312298 0.19825904 0.22089586 0.08452101 0.18415263 0.10200969 -0.10807672 -0.061897177
-0.20896111 -0.19732754 -0.19415382 0.08753377 -0.08650309 -0.21214454 -0.24354921 -0.25727308
-0.12242684 0.09970035 -0.16224928 0.27435067 -0.19319692 -0.020350708 0.07355591 0.17324416
0.15828843 -0.04436714 0.06936647 -0.08967285 0.034952756 0.065480046 -0.21754293 -0.18705294
0.15430665 -0.068601005 -0.10080954 -0.1175523 -0.004379595 -0.11100476 -0.24566884 0.08157579
0.02806242 -0.20698546 0.0776703 -0.16208851 -0.13297783 0.08161088 0.037486974 0.034594152
-0.08914261 0.0032817437 0.26113525 -0.24937741 0.048898622 0.046032257 -0.08579438 -0.008014416
-0.14203846 -0.11843248 -0.13807948 0.1782147 -0.036986917 0.122838184 -0.012099709 -0.13547024
-0.16766831 -0.08818666 0.2361129 0.0970552 -0.030007256 -0.05631766 0.07571733 0.220487
-0.2335574 0.077815644 0.15008317 -0.1939315 0.21845931 0.17190328 -0.111450695 0.023767572
0.12588613 0.104533054 0.066759266 -0.030952124 -0.08437784 0.24308193 0.14545462 0.1414148
-0.2657886 0.11817849 -0.15069966 0.09570062 -0.09852732 -0.047587812 0.104690306 -0.2009943
0.27007127 0.20110907 -0.085000664 0.13455124 -0.16477908 0.008787785 0.21901363 0.015723625
-0.16764516 -0.018542416 -0.04138116 -0.07547009 0.16862862 0.19456637 0.18657936 0.25151095
0.15715621 0.18669198 0.22508314 -0.13107274 0.15048586 0.26248 -0.08380218 -0.19491737
-0.21511441 0.0012711086 -0.17553364 -0.19824994 0.1341724 0.20555805 -0.1842137 0.26392785
0.05409702 0.1037602 0.2776587 -0.21491322 0.2678349 0.026012233 -0.032160774 0.20248684
0.12167281 0.022341523 -0.038529985 -0.051198874 -0.006920259 -0.106878385 -0.18363172 0.075300395
0.14589714 -0.20674422 -0.05614468 -0.2261429 -0.27061352 0.087416604 -0.23479798 -0.10763355
-0.16849312 0.22960036 -0.1864023 -0.12272139
00000000: 9784 3b3e 6b04 4b3e 8632 623e 5a19 ad3d
00000010: 8292 3c3e 75ea d03d 5457 ddbd e587 7dbd
00000020: e7f9 55be 3b10 4abe 42d0 46be e844 b33d
00000030: 8828 b1bd 6b3c 59be f764 79be 4cb9 83be
00000040: ecba fabd b22f cc3d ad24 26be b177 8c3e
00000050: 6ad5 45be 87b6 a6bc 7ba4 963d eb66 313e
00000060: 5d16 223e 51ba 35bd 0210 8e3d 66a6 b7bd
00000070: 9f2a 0f3d 671a 863d 93c3 5ebe ce8a 3fbe
00000080: 9002 1e3e af7e 8cbd 3b75 cebd 43bf f0bd
00000090: b582 8fbb 7756 e3bd 9d90 7bbe 3511 a73d
000000a0: 29e3 e53c fff3 53be 9b11 9f3d 88fa 25be
000000b0: 572b 08be 9b23 a73d f18b 193d 99b2 0d3d
000000c0: 6790 b6bd 8612 573b 85b3 853e cb5c 7fbe
000000d0: ec49 483d 528c 3c3d f7b4 afbd e64e 03bc
000000e0: 8872 11be ba8c f2bd b564 0dbe ea7d 363e
000000f0: 987f 17bd 9692 fb3d dc3d 46bc b6b8 0abe
00000100: 3eb1 2bbe 359b b4bd 94c7 713e e0c4 c63d
00000110: c7d1 f5bc 59ad 66bd b011 9b3d 58c7 613e
00000120: ac29 6fbe cf5d 9f3d 67af 193e fb95 46be
00000130: ccb3 5f3e 6a07 303e 4340 e4bd 36b4 c23c
00000140: 4be8 003e 6d15 d63d 15b9 883d 4f8f fdbc
00000150: 4ace acbd 78ea 783e 0ef2 143e 0bcf 103e
00000160: 7215 88be 9007 f23d 0351 1abe b0fe c33d
00000170: b1c8 c9bd 70eb 42bd df67 d63d 73d1 4dbe
00000180: c846 8a3e 89ef 4d3e d414 aebd cdc7 093e
00000190: d9bb 28be a4fa 0f3c 1c45 603e d5ce 803c
000001a0: 2cab 2bbe 44e6 97bc 4b7f 29bd 1090 9abd
000001b0: fbac 2c3e 683c 473e a90e 3f3e 0bc6 803e
000001c0: 8fed 203e 2f2c 3f3e 327c 663e ef37 06be
000001d0: f718 1a3e c763 863e 7aa0 abbd 6b98 47be
000001e0: f446 5cbe 549b a63a 17bf 33be 0802 4bbe
000001f0: 7d64 093e cf7d 523e 84a2 3cbe 8d21 873e
00000200: d694 5d3d 3a80 d43d 4829 8e3e 3612 5cbe
00000210: a821 893e 9b17 d53c 04bb 03bd b658 4f3e
00000220: 982f f93d 9205 b73c 9ed1 1dbd e9b5 51bd
00000230: 57c3 e2bb 0ee3 dabd f409 3cbe 1837 9a3d
00000240: 0f66 153e c2b4 53be f7f7 65bd 0192 67be
00000250: db8d 8abe 7a07 b33d e26e 70be fb6e dcbd
00000260: 7689 2cbe 5b1c 6b3e 3fe0 3ebe 5a55 fbbd

encoder_blocks.0.bias f4 [12]
-0.15584682 0.042827245 0.25049704 -0.12242542 0.2664062 -0.23318726 0.042963024 0.09831422
0.058279265 -0.07920858 0.022697372 0.10160582
00000000: 4f96 1fbe 9f6b 2f3d 2641 803e 2eba fabd
00000010: 6566 883e a4c8 6ebe fff9 2f3d f758 c93d
00000020: 3db6 6e3d 1c38 a2bd d7ef b93c b616 d03d

encoder_blocks.1.0.weight f4 [12, 12, 13]
-0.01540254 0.052041005 0.06579828 -0.025632087 -0.04835843 0.054995604 -0.043298487 0.017747106
-0.045888852 -0.024465958 -0.03201859 0.05205263 0.009756123 0.0574217 -0.047840696 -0.018773785
-0.049909532 0.01733193 0.010044101 -0.05225997 -0.022209482 -0.070770994 -0.02265957 -0.021537837
-0.046414122 0.041862812 -0.002896346 0.0657699 -0.0035833765 0.0072088134 -0.056744926 -0.0671311
0.07415032 -0.07807307 0.05970824 -0.013207619 0.05206999 0.08028964 0.070202135 -0.07959852
0.03755136 -0.06624065 0.032720555 0.031417765 0.06713038 0.057522785 0.019586569 -0.058543876
-0.0006495837 -0.07732528 -0.06860166 0.06031393 0.00840151 0.0457315 0.003012552 -0.070049666
0.069138825 0.045064688 -0.024022268 0.010107931 0.008419068 -0.009326986 -0.054168183 0.02162138
-0.01883228 0.04075275 -0.034227386 0.027382972 0.009495653 -0.045032274 -0.05925133 -0.050659925
0.06072432 -0.07093575 0.04344236 0.07359596 0.029983085 -0.048709583 0.033401467 -0.07965375
0.002420659 0.049921613 0.07904311 -0.049424987 -0.06250086 0.013977698 -0.045856286 0.016064946
0.06074284 0.06719067 0.020409733 -0.043408282 0.0006418878 -0.032217175 -0.04628171 -0.016760614
-0.035541736 -0.05514435 0.065776855 0.05009572 -0.06770724 -0.0072206287 -0.020649176 0.0017820252
0.067266695 -0.025065009 0.0066372296 -0.07675514 0.028885826 -0.0457044 0.022149194 -0.033890624
-0.009915445 0.043428916 0.03481581 0.058096252 0.0699059 -0.017231155 -0.032191884 -0.021300536
0.010652174 0.0325746 -0.043752484 -0.07561909 -0.07077279 -0.010940541 -0.021795189 -0.01606721
-0.03363802 -0.059582338 -0.029345663 0.0059030177 -0.07050857 0.021206541 -0.036131967 0.067190066
-0.01652412 0.0068617086 -0.041681565 -0.007649954 -0.061962467 -0.040835246 -0.019483807 -0.0223173
0.04450889 -0.019969566 -0.01614993 0.06316415 -0.06609424 0.017218387 -0.037858743 0.027731782
0.03483345 -0.043333262 0.043457374 -0.07426528 -0.031102488 0.040521637 -0.06482729 0.043015707
0.030951755 -0.07321886 -0.06112729 0.043054897 0.07193526 0.06969663 -0.053575955 0.055630714
0.05914204 -0.07448938 -0.059002843 0.04110888 0.069528945 0.058156416 0.06584851 0.038384702
0.07606742 0.022415442 -0.009421715 0.031833936 -0.05618738 0.06568703 -0.0009043386 0.009716118
0.07853113 0.07339032 0.0019521767 -0.033614933 -0.04967922 -0.048472323 0.045465738 -0.02984749
-0.06641392 0.03530959 0.081331566 0.009397077 0.011409516 0.016067293 0.026211815 0.01714902
-0.034409694 -0.06358778 -0.02427161 0.02264416 -0.027328169 0.07797483 -0.023022726 0.07057062
-0.037742984 -0.05210972 -0.03639157 -0.061408397 0.012421689 -0.007740166 0.050582465 -0.07008927
0.0038209064 -0.026335098 0.047581024 -0.008583781 0.01604101 0.06801091 0.00094694 0.0046300944
0.04933407 0.0058425246 0.010839902 0.0060575674 0.02677602 0.042969637 -0.020795131 -0.03955096
-0.031597916 0.042291336 0.027436256 -0.026445528 0.07094763 -0.066113524 -0.05561019 0.07485765
0.028559104 0.051816367 0.0010682795 -0.06770584 -0.014252378 0.019578211 -0.046617415 -0.0745733
-0.031158723 -0.028492147 0.052701306 0.06789066 -0.057525888 0.005968959 -0.014223471 -0.0009211787
00000000: ef5a 7cbc f328 553d 40c1 863d 62fa d1bc
00000010: 7d13 46bd 1243 613d c159 31bd 6162 913c
00000020: f3f5 3bbd d56c c8bc ed25 03bd 2335 553d
00000030: 25d8 1f3c 0433 6b3d 9bf4 43bd 7bcb 99bc
00000040: f06d 4cbd b1fb 8d3c 0390 243c 8d0e 56bd
00000050: a9f0 b5bc 62f0 90bd 90a0 b9bc 1e70 b0bc
00000060: bc1c 3ebd 5778 2b3d 9fd0 3dbb 5fb2 863d
00000070: 15d7 6abb e937 ec3b 5e6d 68bd 087c 89bd
00000080: 1fdc 973d c6e4 9fbd a190 743d c564 58bc
00000090: 5847 553d e56e a43d 23c6 8f3d 8d04 a3bd
000000a0: 74cf 193d 2ea9 87bd fd05 063d eaaf 003d
000000b0: a77b 893d 039d 6b3d 0374 a03c b4cb 6fbd
000000c0: d348 2aba b75c 9ebd 077f 8cbd bd0b 773d
000000d0: 7da6 093c f450 3b3d 3c6e 453b 3376 8fbd
000000e0: a898 8d3d c095 383d 59ca c4bc bc9b 253c
000000f0: 21f0 093c 37d0 18bc 75df 5dbd 521f b13c
00000100: 2746 9abc 5bec 263d 0432 0cbd 4152 e03c
00000110: a893 1b3c c373 38bd 86b1 72bd c880 4fbd
00000120: 11ba 783d c346 91bd 9ef0 313d 7bb9 963d
00000130: 169f f53c b383 47bd facf 083d 8121 a3bd
00000140: eba3 1e3b 9b7a 4c3d 5be1 a13d db71 4abd
00000150: 7300 80bd b702 653c cdd3 3bbd a29a 833c
00000160: 7ccd 783d 439b 893d 5032 a73c e2cc 31bd
00000170: 5c44 283a 28f6 03bd e491 3dbd 8e4d 89bc
00000180: 3694 11bd 0bdf 61bd 04b6 863d 2b31 4d3d
00000190: 18aa 8abd 069b ecbb 7628 a9bc d892 e93a
000001a0: 1fc3 893d 2255 cdbc 1e7d d93b cd31 9dbd
000001b0: f8a1 ec3c 8934 3bbd 3a72 b53c e5d0 0abd
000001c0: 6474 22bc 85e2 313d 069b 0e3d 56f6 6d3d
000001d0: d32a 8f3d 5a28 8dbc a3db 03bd 767e aebc
000001e0: 7586 2e3c f26c 053d ce35 33bd 2ede 9abd
000001f0: 53f1 90bd f43f 33bc d38b b2bc 629f 83bc
00000200: 05c8 09bd 9c0c 74bd 5166 f0bc 1a6e c13b
00000210: cc66 90bd 57b9 ad3c 1dff 13bd f29a 893d
00000220: 975d 87bc 2fd8 e03b 4aba 2abd 77ac fabb
00000230: 5bcc 7dbd dc42 27bd 819c 9fbc c5d2 b6bc
00000240: f44e 363d 3797 a3bc dc4c 84bc 355c 813d
00000250: 6b5c 87bd 930d 8d3c c511 1bbd c32d e33c
00000260: 85ad 0e3d 387e 31bd 5c00 323d 6518 98bd
00000270: a5ca febc 04fa 253d 2cc4 84bd 3d31 303d
00000280: 898e fd3c c5f3 95bd 9c60 7abd 555a 303d
00000290: cb52 933d 1bbd 8e3d 7672 5bbd 08dd 633d
000002a0: ec3e 723d e38d 98bd f7ac 71bd c961 283d
000002b0: 3165 8e3d 6c35 6e3d 95db 863d 4739 1d3d
000002c0: 3cc9 9b3d 97a0 b73c 895d 1abc 4d64 023d
000002d0: bd24 66bd ec86 863d 2311 6dba 5a30 1f3c
000002e0: eed4 a03d aa4d 963d 2ee0 ff3a d0af 09bd
000002f0: 707c 4bbd ea8a 46bd 483a 3a3d b982 f4bc
00000300: 0504 88bd caa0 103d 2a91 a63d 33f6 193c
00000310: fbee 3a3c 8e9f 833c 29ba d63c 1a7c 8c3c
00000320: 2ef1 0cbd 4f3a 82bd 41d5 c6bc 3f80 b93c
00000330: 53df dfbc 45b1 9f3d 289a bcbc 5487 903d
00000340: 6398 1abd 0071 55bd 540f 15bd 5f87 7bbd
00000350: 5784 4b3c 38a1 fdbb 8f2f 4f3d f78a 8fbd
00000360: 2c68 7a3b b4bc d7bc 52e4 423d fda2 0cbc
00000370: 7068 833c 4e49 8b3d 113c 783a 0cb8 973b
00000380: 8612 4a3d a672 bf3b d899 313c 8f7e c63b
00000390: 6259 db3c ee00 303d 8d5a aabc 3000 22bd
000003a0: d16c 01bd ae39 2d3d 00c2 e03c 4ba4 d8bc
000003b0: fe4c 913d 8766 87bd 83c7 63bd f84e 993d
000003c0: c8f4 e93c 663d 543d 8305 8c3a 5ca9 8abd
000003d0: ce82 69bc 7c62 a03c e7f1 3ebd e3b9 98bd
000003e0: 9440 ffbc 5d68 e9bc 53dd 573d 420a 8b3d
000003f0: 44a0 6bbd 4297 c33b 9009 69bc 427b 71ba

encoder_blocks.1.0.bias f4 [12]
0.02024385 0.0035592834 -0.062467173 0.058519453 -0.08266823 0.016864536 -0.03767792 -0.01790934
0.05783131 0.07755811 0.06453558 0.027028902
00000000: 6ed6 a53c de42 693b 94dd 7fbd 18b2 6f3d
00000010: f64d a9bd 7f27 8a3c 2a54 1abd 9cb6 92bc
00000020: 86e0 6c3d c9d6 9e3d 3b2b 843d b76b dd3c

encoder_blocks.1.2.weight f4 [12, 12, 13]
0.052410435 -0.051128037 0.047372516 0.078206114 0.048639867 0.033964537 0.0061718547 -0.0008992203
-0.015779078 -0.031146081 -0.003826841 -0.010930255 0.061292432 -0.05769839 0.016339006 -0.01086396
0.00061618816 0.04615254 0.07455305 -0.06871878 0.075769186 -0.056466386 0.07819506 -0.019274032
0.054841246 0.05789042 -0.05176306 -0.07589293 0.04377092 0.011926863 -0.012984866 -0.034128997
-0.07922052 -0.05336155 0.07282886 0.026352596 0.051232353 -0.03573195 0.036319844 0.008664319
-0.030962128 -0.0069687758 0.033002157 -0.017722001 0.05077418 0.0045895786 -0.048171937 0.01676009
0.017487168 -0.063660935 -0.060810015 0.07200163 0.0626848 0.015372696 -0.054796293 -0.047124542
0.014673002 -0.0079479385 0.002324679 0.070598036 0.028689988 -0.020123037 -0.05606167 0.0014493979
0.02391772 0.06869493 -0.03931806 -0.06621158 0.014282085 -0.06198401 0.059772573 -0.02164541
-0.07399252 -0.0724363 -0.009695396 0.041256852 -0.040542793 -0.0068432586 -0.011766396 0.039076984
0.03557906 -0.02882339 0.00909191 0.030666942 -0.0067734267 -0.019886874 0.02107952 0.014227551
-0.060432017 0.048046082 -0.029579142 0.07422659 -0.00029208715 0.0375689 0.017636599 0.07432806
-0.004455891 0.014347434 -0.07545275 0.02134143 0.010573558 -0.048146382 -0.07241501 0.073263526
-0.07369809 0.046124727 -0.0108122965 -0.011118363 -0.06926173 0.03102205 0.031931236 0.024647834
-0.025082326 0.025046479 -0.031395704 0.029284226 0.001313306 0.051642284 -0.024749454 -0.0031424179
-0.06368933 0.04588996 0.073669314 0.06074407 -0.07880212 0.058437314 -0.015380558 -0.0070788814
0.039763194 0.041965004 -0.04033468 -0.02518369 0.05803075 -0.058093052 0.043263994 -0.04070523
-0.053522144 0.07839607 -0.05168457 -0.035302132 0.075395204 -0.056235034 0.072510354 -0.073675215
-0.020652939 -0.023498721 0.07848512 0.029296147 -0.031812124 0.067626014 0.019962741 0.07046332
0.024858437 0.059820976 0.07531504 -0.034572564 0.003919465 -0.008679842 -0.061053637 -0.06634239
-0.01439474 -0.07882042 0.021321716 -0.049462546 -0.01653493 0.036532972 0.04868344 -0.023088055
-0.032021515 -0.07732842 -0.02625285 0.022518246 -0.01119671 0.060622297 0.081887476 0.0136288125
0.03964753 0.071249135 0.0035151823 -0.07894103 0.060901172 -0.06651516 -0.049330898 0.015069097
0.06509654 0.03124873 -0.010284406 0.05938885 -0.08073189 0.07763815 -0.0101162605 0.031765487
-0.012763205 0.0742326 0.00370583 -0.03315244 0.005177158 -0.004058642 0.051490955 -0.0331192
-0.05790161 0.0045617395 -0.06605119 -0.04663772 0.070907325 0.035863478 -0.059595637 0.010414727
0.05164882 -0.029426612 0.00060112803 -0.05422177 -0.03883555 0.0743681 -0.063901685 0.080492266
-0.008927559 -0.027176723 0.022337368 0.029369392 -0.03570339 0.07010708 0.06044913 -0.0011585265
-0.021128314 -0.07303631 0.04712851 0.035435192 -0.06644203 0.0727997 0.050080825 0.042502925
-0.071981095 0.067314155 -0.012908875 0.004531688 -0.045711573 -0.00864612 -0.02129957 0.008957432
0.063460335 -0.056361392 0.017518263 0.015524587 0.027200077 0.036523066 -0.07551126 0.021398412
-0.01953233 0.051448062 0.019864354 -0.05464239 0.03853215 0.069936804 -0.057247717 -0.05548505
00000000: 53ac 563d a26b 51bd af09 423d 872a a03d
00000010: 993a 473d 661e 0b3d 453d ca3b a7b9 6bba
00000020: 2043 81bc 1126 ffbc bdcb 7abb d014 33bc
00000030: c60d 7b3d 2655 6cbd 61d9 853c c0fe 31bc
00000040: b087 213a 720a 3d3d 45af 983d 6fbc 8cbd
00000050: e02c 9b3d 4c49 67bd bb24 a03d 93e4 9dbc
00000060: 37a1 603d 811e 6d3d 8105 54bd c16d 9bbd
00000070: 2349 333d e468 433c 7abe 54bc d9ca 0bbd
00000080: 5e3e a2bd a491 5abd 4c27 953d 66e1 d73c
00000090: 04d9 513d aa5b 12bd 1ec4 143d caf4 0d3c
000000a0: 4aa4 fdbc 545a e4bb 452d 073d bb2d 91bc
000000b0: 96f8 4f3d 2d64 963b f04f 45bd 754c 893c
000000c0: 4041 8f3c aa60 82bd ec13 79bd 9775 933d
000000d0: e360 803d c3dd 7b3c 1472 60bd aa05 41bd
000000e0: 0867 703c 1238 02bc a459 183b b495 903d
000000f0: 4407 eb3c 11d9 a4bc eca0 65bd b9f9 bd3a
00000100: 18ef c33c edaf 8c3d f90b 21bd f099 87bd
00000110: 68ff 693c f2e2 7dbd 16d4 743d b751 b1bc
00000120: 6489 97bd 7c59 94bd 70d9 1ebc f2fc 283d
00000130: 3310 26bd 6a3d e0bb d8c7 40bc 300f 203d
00000140: 59bb 113d 081f ecbc 3cf6 143c 3d39 fb3c
00000150: 9ff3 ddbb cce9 a2bc f5ae ac3c ad1a 693c
00000160: 9087 77bd f8cb 443d f54f f2bc 1c04 983d
00000170: 4623 99b9 d9e1 193d a17a 903c 4f39 983d
00000180: b902 92bb 8011 6b3c f986 9abd 39d4 ae3c
00000190: b73c 2d3c 2435 45bd 524e 94bd 300b 963d
000001a0: 06ef 96bd 48ed 3c3d 0f26 31bc cb29 36bc
000001b0: 18d9 8dbd f421 fe3c 54ca 023d 41ea c93c
000001c0: 7379 cdbc 462e cd3c c898 00bd 79e5 ef3c
000001d0: 3d23 ac3a dc86 533d 5ebf cabc 06f1 4dbb
000001e0: 8d6f 82bd 1cf7 3b3d f0df 963d c6ce 783d
000001f0: 0263 a1bd f75b 6f3d bcfe 7bbc f6f5 e7bb
00000200: bbde 223d 7fe3 2b3d fa35 25bd 074e cebc
00000210: a7b1 6d3d fbf2 6dbd 9635 313d 87ba 26bd
00000220: 093a 5bbd 1e8e a03d 33b3 53bd f898 10bd
00000230: cd68 9a3d b556 66bd 4f80 943d 08e3 96bd
00000240: 5a30 a9bc 6480 c0bc cebc a03d 79fe ef3c
00000250: 6e4d 02bd 827f 8a3d e788 a33c 134f 903d
00000260: eca3 cb3c d706 753d c63e 9a3d f69b 0dbd
00000270: db6e 803b e535 0ebc 6113 7abd 85de 87bd
00000280: ead7 6bbc 9a6c a1bd e1aa ae3c 3d99 4abd
00000290: 4374 87bc 99a3 153d 4968 473d 2923 bdbc
000002a0: fe28 03bd 5d5e 9ebd 3810 d7bc 2f78 b83c
000002b0: 6872 37bc 164f 783d 9fb4 a73d 624b 5f3c
000002c0: 7365 223d 11eb 913d f95e 663b d6ab a1bd
000002d0: 8273 793d 1a39 88bd 320f 4abd 60e4 763c
000002e0: 5651 853d 56fd ff3c ed7f 28bc b941 733d
000002f0: c356 a5bd c000 9f3d acbe 25bc 871c 023d
00000300: c31c 51bc 4307 983d 83dd 723b daca 07bd
00000310: 26a5 a93b 5bfe 84bb 2ee8 523d 00a8 07bd
00000320: 3d2a 6dbd a57a 953b d945 87bd 3207 3fbd
00000330: dc37 913d 95e5 123d 8e1a 74bd 88a2 2a3c
00000340: b78d 533d 1410 f1bc 0595 1d3a a617 5ebd
00000350: 0712 1fbd 4d4e 983d e3de 82bd 21d9 a43d
00000360: e544 12bc b8a1 debc dbfc b63c 1498 f03c
00000370: b83d 12bd 4d94 8f3d 8299 773d b3d9 97ba
00000380: 4915 adbc 1094 95bd d309 413d 7e24 113d
00000390: c212 88bd 0218 953d 8d21 4d3d 8c17 2e3d
000003a0: d36a 93bd 01dc 893d bf7f 53bc 8e7e 943b
000003b0: 0f3c 3bbd 75a8 0dbc 707c aebc 31c2 123c
000003c0: 7ef7 813d 34db 66bd 7682 8f3c d65a 7e3c
000003d0: b2d2 de3c 3699 153d a6a5 9abd b94b af3c
000003e0: 4402 a0bc 34bb 523d 92ba a23c b3d0 5fbd
000003f0: e3d3 1d3d 073b 8f3d 957c 6abd 4b44 63bd

encoder_blocks.1.2.bias f4 [12]
-0.0011019377 -0.004075581 0.069917314 0.026258541 0.0200884 -0.035983015 -0.044048995 -0.07522118
0.04178027 0.048316095 0.05956413 -0.01695796
00000000: e56e 90ba 748c 85bb cf30 8f3d 271c d73c
00000010: 6e90 a43c ed62 13bd b86c 34bd 900d 9abd
00000020: ca21 2b3d 19e7 453d 84f9 733d 6beb 8abc

encoder_blocks.2.0.weight f4 [12, 12, 13]
0.07606638 -0.013490844 0.028192645 0.04895593 0.008454722 0.03325749 0.07674284 0.03469732
0.01839094 -0.0797962 0.04350314 -0.07242308 0.05114645 -0.07237968 0.06682833 -0.03646044
-0.0075592264 0.014232116 -0.070410945 -0.017853476 0.040096812 -0.07851295 0.028384216 -0.0011493074
0.04241693 -0.06446506 0.048693333 -0.039272476 -0.066078044 -0.041483305 0.03580261 0.0001482725
-0.059190154 -0.034002375 0.021429734 -0.051660348 0.0096902745 0.003305486 0.060001884 0.037626006
-0.08144119 -0.011504333 0.058849778 0.034769833 0.014818598 -0.0015803834 -0.03304909 -0.059119534
0.07833742 0.009289953 0.004725765 0.046037883 0.042724103 -0.028159907 0.041590862 0.012971463
0.025045207 0.061895903 0.05087713 -0.072276264 -0.0097769955 0.027958855 0.05837697 0.019617533
-0.00027930192 -0.025318323 0.022348056 0.014699529 -0.066488445 -0.069033906 -0.07498072 -0.028664626
0.06380341 0.024371801 -0.07779218 -0.0023589754 -0.04255727 0.059024047 0.04309974 -0.0054773157
-0.009062419 0.000531933 -0.0011562327 -0.003806385 0.01996511 -0.04313775 -0.035180874 -0.062219124
-0.03608176 0.0059896368 0.046984594 -0.043926932 -0.07087718 0.05477481 -0.008284619 -0.04927084
0.022394916 -0.012638553 -0.027698044 0.07460208 -0.057761542 0.016286848 0.046542585 -0.042536292
-0.016058981 -0.044449523 0.02369993 -0.057222195 0.07059468 0.07721321 -0.030212183 0.05450707
-0.06936068 -0.01085926 0.029718848 -0.061303187 -0.043078873 -0.03491995 0.010493991 -0.010541806
-0.06181049 0.07274489 -0.07339709 0.045612846 -0.017520351 -0.06330969 0.017370163 -0.03901855
-0.03439156 -0.04877727 -0.07150836 -0.06200616 -0.07379988 -0.007628218 0.017827535 0.026384866
0.06799396 0.0028098472 -0.00082612236 0.06096144 0.03839219 0.026497742 -0.057678875 0.0049093817
-0.06493353 -0.055876028 0.07025906 -0.06675398 -0.05364352 0.004529178 0.022335555 -0.0021785903
0.014909267 0.074587114 -0.054779135 0.05858674 0.053824313 -0.04034223 0.004758328 0.05014898
-0.03697454 0.033345062 -0.016902998 -0.012330637 0.015656829 -0.000589013 0.0387861 0.06762371
-0.03606334 0.07843355 0.04363387 -0.02370626 -0.043308172 -0.041600857 0.014813013 0.0370264
-0.022741621 -0.0060692984 0.059206083 0.04225321 -0.03096778 0.073722936 -0.0042448957 0.025911795
-0.047997337 0.042617023 0.06521202 -0.00080402085 -0.02189391 0.013866543 -0.06218327 -0.025057219
0.030215323 -0.0048467224 0.061520763 0.06485577 0.06050366 0.057838563 -0.058406446 0.013620724
0.012735902 0.04202489 -0.027399141 0.026306704 -0.007140056 0.061549947 -0.0122640515 -0.015833076
0.018341906 0.0044011027 0.03099543 0.0756665 -0.061327875 0.050789025 0.0031329491 -0.015038925
-0.052499544 -0.07363586 -0.075466566 0.028354397 0.053239815 0.014633122 0.042136513 -0.0044646896
-0.06962125 0.05160303 0.07536103 -0.062124304 -0.027204923 0.064376585 -0.0326271 -0.05789286
0.028625034 0.055079103 -0.07296921 0.03436825 0.030191973 -0.046727825 0.055173025 -0.06756288
-0.007988337 0.0039876653 0.04770302 0.03645614 -0.077033155 0.06527725 -0.04425244 -0.039266333
-0.0030827574 -0.045559663 0.041056413 0.044269357 -0.019408267 -0.008644019 0.015604298 -0.038425688
00000000: b1c8 9b3d b308 5dbc 43f4 e63c 0386 483d
00000010: ad85 0a3c 0139 083d 5a2b 9d3d c71e 0e3d
00000020: 99a8 963c 316c a3bd 5930 323d 8d52 94bd
00000030: f17e 513d cc3b 94bd 4bdd 883d 8b57 15bd
00000040: 63b3 f7bb d22d 693c 9d33 90bd 7441 92bc
00000050: 8e3c 243d 66cb a0bd 0486 e83c 5ba4 96ba
00000060: 60bd 2d3d 4206 84bd a972 473d 2ddc 20bd
00000070: ed53 87bd 66ea 29bd c2a5 123d 9979 1b39
00000080: 6071 72bd 1346 0bbd 698d af3c cd99 53bd
00000090: f5c3 1e3c daa0 583b 89c4 753d ba1d 1a3d
000000a0: a3ca a6bd ab7c 3cbc 770c 713d d06a 0e3d
000000b0: b4c9 723c de24 cfba 7c5e 07bd 5327 72bd
000000c0: 5f6f a03d e334 183c 97da 9a3b 3892 3c3d
000000d0: 78ff 2e3d 9baf e6bc 2e5b 2a3d 4286 543c
000000e0: 9b2b cd3c 8f86 7d3d 8a64 503d 9405 94bd
000000f0: b12f 20bc f809 e53c b11c 6f3d f3b4 a03c
00000100: 456f 92b9 5f68 cfbc 4513 b73c 4bd6 703c
00000110: 182b 88bd a661 8dbd 7e8f 99bd 14d2 eabc
00000120: 5dab 823d 5fa7 c73c 8251 9fbd 0a99 1abb
00000130: 8850 2ebd 33c3 713d 5a89 303d 0e7b b3bb
00000140: 8a7a 14bc 6b71 0b3a bb8c 97ba 8b74 79bb
00000150: df8d a33c 36b1 30bd d219 10bd 7bd9 7ebd
00000160: 78ca 13bd b744 c43b eb72 403d baec 33bd
00000170: 0e28 91bd 8d5b 603d 36bc 07bc 38d0 49bd
00000180: 8b75 b73c ef11 4fbc 02e7 e2bc fac8 983d
00000190: 5e97 6cbd ff6b 853c 70a3 3e3d 893a 2ebd
000001a0: 208e 83bc b410 36bd 5b26 c23c d261 6abd
000001b0: f293 903d f621 9e3d 8a7f f7bc ce42 5f3d
000001c0: f90c 8ebd 0aeb 31bc f174 f33c 0d19 7bbd
000001d0: 7973 30bd 3908 0fbd fdee 2b3c 8ab7 2cbc
000001e0: ff2c 7dbd 46fb 943d 3751 96bd 89d4 3a3d
000001f0: d786 8fbc 83a8 81bd df4b 8e3c ead1 1fbd
00000200: 2ade 0cbd adca 47bd fa72 92bd 2cfa 7dbd
00000210: 6424 97bd 21f6 f9bb 0d0b 923c 1325 d83c
00000220: 6b40 8b3d 6a25 383b 2290 58ba b4b2 793d
00000230: 2141 1d3d cb11 d93c af40 6cbd e1de a03b
00000240: dffb 84bd 43de 64bd fbe3 8f3d 50b6 88bd
00000250: 4fb9 5bbd 8069 943b 0ef9 b63c aec6 0ebb
00000260: 0046 743c 21c1 983d 1660 60bd a6f8 6f3d
00000270: e276 5c3d e53d 25bd c0eb 9b3b 0469 4d3d
00000280: 9e72 17bd d594 083d 2878 8abc 7106 4abc
00000290: c042 803c fe67 1aba 2cde 1e3d 4d7e 8a3d
000002a0: 27b7 13bd c5a1 a03d 6eb9 323d a133 c2bc
000002b0: e963 31bd a965 2abd 48b2 723c ffa8 173d
000002c0: a34c babc f7e0 c6bb 1482 723d b411 2d3d
000002d0: 24b0 fdbc 0dfc 963d c418 8bbb f944 d43c
000002e0: db98 44bd 308f 2e3d e18d 853d edc4 52ba
000002f0: db5a b3bc 7f30 633c e2b3 7ebd cc44 cdbc
00000300: 2086 f73c 41d1 9ebb 32fd 7b3d 1ad3 843d
00000310: b0d2 773d 21e8 6c3d 993b 6fbd 7529 5f3c
00000320: 3faa 503c 4b22 2c3d 2a74 e0bc 2881 d73c
00000330: 22f7 e9bb cc1b 7c3d 29ef 48bc 5eb4 81bc
00000340: c441 963c 2037 903b 21ea fd3c 0af7 9a3d
00000350: f032 7bbd 2708 503d 2a52 4d3b d365 76bc
00000360: c309 57bd 66ce 96bd 378e 9abd 7b47 e83c
00000370: fe11 5a3d c3bf 6f3c 5697 2c3d 884c 92bb
00000380: 9695 8ebd b35d 533d e256 9a3d 0e76 7ebd
00000390: dcdc debc dfd7 833d fea3 05bd 1021 6dbd
000003a0: 0c7f ea3c a09a 613d e270 95bd b9c5 0c3d
000003b0: 2855 f73c ad65 3fbd 1cfd 613d 685e 8abd
000003c0: 84e1 02bc f6aa 823b 3e64 433d 0953 153d
000003d0: 8fc3 9dbd 14b0 853d 0c42 35bd bcd5 20bd
000003e0: 1608 4abb c59c 3abd c52a 283d c953 353d
000003f0: 16fe 9ebc a59f 0dbc 2ba9 7f3c 4164 1dbd

encoder_blocks.2.0.bias f4 [12]
0.0012969149 0.0368105 0.0019882526 0.07708019 -0.012365125 0.026576422 -0.06457597 0.026414687
0.039957497 -0.07038352 0.048108317 0.057706553
00000000: 3efd a93a 9bc6 163d 584d 023b 38dc 9d3d
00000010: 1897 4abc ccb6 d93c 6840 84bd 9d63 d83c
00000020: 79aa 233d 3c25 90bd 3a0d 453d b55d 6c3d

encoder_blocks.2.2.weight f4 [12, 12, 13]
-0.020392543 0.065125085 0.053390115 0.004885147 -0.049983602 0.009876696 -0.030448385 -0.05489352
-0.028033117 -0.051737994 0.02710527 -0.04182823 0.06277997 -0.018036138 0.009001662 0.054528765
0.033054825 0.036699384 -0.06142584 0.076992966 -0.026068443 -0.026603878 -0.06698505 0.037324026
0.054450467 -0.036013406 -0.028868964 0.053557128 -0.065410174 -0.027917271 0.013829515 0.05420497
-0.039150994 -0.048696954 0.072959416 -0.06294091 -0.04083949 0.030326847 0.0006931172 0.0247584
-0.05959914 -0.043560024 -0.03682804 0.06317318 0.03675459 -0.020598242 -0.009254448 -0.006987444
0.014200924 -0.046704944 -0.066979416 0.064368695 0.0024548844 -0.07114717 0.031117 -0.055335753
-0.017837618 -0.014909558 -0.05506017 -0.0014883429 0.009671569 -0.0076407716 -0.0038396344 -0.0069837123
0.015582092 0.05134229 -0.057306636 0.020197282 0.01852225 0.009136038 0.0025005692 -0.05444461
0.04260793 0.050557043 0.047932297 -0.050818328 -0.04907375 -0.013856322 0.0142116565 -0.05320022
-0.0482073 0.011427685 0.04697982 0.03177797 0.04702026 0.011858735 -0.06704686 0.067066774
-0.05149812 -0.05169696 0.007025258 -0.016654547 0.0019030136 -0.035199687 0.044504695 -0.06514981
0.008279636 0.041804988 -0.066510186 0.04145044 -0.045430593 0.042669304 0.054149456 -0.031152692
-0.017115498 -0.06393265 0.07080155 0.066744946 -0.0043313717 -0.05880369 0.020582 0.067104965
-0.03208482 -0.021265624 -0.06184105 -0.046225645 -0.015049825 -0.063347995 0.06836555 -0.045224875
0.021263586 0.07616729 0.033474334 -0.068054974 -0.017427593 -0.07664826 -0.06584714 -0.0017951503
0.021005679 0.05113851 -0.04574314 0.026520016 -0.017335331 0.029687252 0.04121274 -0.06892045
-0.02241117 0.012848879 0.048230108 0.0004853165 0.05452777 -0.03698687 0.028739981 -0.05071709
-0.026919764 0.017315738 0.0076953755 -0.071985185 -0.05640931 0.078666754 0.035625845 -0.027057368
-0.062240407 0.007143303 -0.0062912134 -0.04579148 0.056249987 -0.047093667 0.07215298 -0.05281263
0.032358643 0.06483826 -0.020372353 0.04953725 0.007979565 0.04099408 -0.010497934 0.03435406
-0.005048117 -0.035791323 0.061245784 -0.010325445 0.057542946 0.00029840626 0.056007925 0.04065068
0.031971905 -0.03171663 -0.017561229 -0.05249289 0.048204925 0.012684062 0.009970052 -0.048446998
-0.01111134 0.009366958 -0.006404321 0.012879138 0.05192691 0.018078813 -0.027948398 0.0072893496
0.07125838 -0.05443813 -0.027125385 -0.04844489 0.07165246 -0.06710147 0.07137596 -0.018762443
0.0544224 0.064480186 -0.022986168 0.046400536 0.02310782 0.034864977 -0.06923203 0.0023314026
-0.04296679 0.07094157 -0.03713818 -0.0007751882 -0.03364171 0.06985533 0.05398093 -0.05032216
0.059387013 0.03469395 3.3445656e-05 -0.039979752 0.003404826 0.055183675 0.013628851 -0.005902248
0.013059167 0.07010636 0.019183258 0.053501558 0.018550461 -0.031943936 -0.02534913 -0.077131815
-0.029457351 0.017024586 0.013437791 -0.042637367 0.024084684 -0.048179224 0.060715023 -0.018783273
-0.024145251 -0.067071095 0.0264206 0.07580257 -0.0011250541 0.04428349 0.013558714 -0.07530978
-0.0843797 -0.009256691 0.01365128 -0.05323955 -0.018121157 0.055119142 -0.018755155 -0.08276739
00000000: 430e a7bc 4d60 853d 98af 5a3d 9513 a03b
00000010: 9bbb 4cbd ded1 213c e46e f9bc 07d8 60bd
00000020: b5a5 e5bc 38eb 53bd df0b de3c 1454 2bbd
00000030: c992 803d 86c0 93bc b57b 133c 8e59 5f3d
00000040: 7f64 073d 1852 163d a999 7bbd 7dae 9d3d
00000050: 7d8d d5bc 60f0 d9bc 752f 89bd 14e1 183d
00000060: 7407 5f3d cb82 13bd 9b7e ecbc b85e 5b3d
00000070: c5f5 85bd c3b2 e4bc 3195 623c 0806 5e3d
00000080: cb5c 20bd 7576 47bd bf6b 953d 2ae7 80bd
00000090: 4f47 27bd 0270 f83c 4fb2 353a 21d2 ca3c
000000a0: 3a1e 74bd ff6b 32bd 00d9 16bd f160 813d
000000b0: fb8b 163d a5bd a8bc f89f 17bc eef6 e4bb
000000c0: feaa 683c af4d 3fbd 812c 89bd bcd3 833d
000000d0: 20e2 203b 9cb5 91bd 14e9 fe3c bea7 62bd
000000e0: 3220 92bc 3847 74bc c686 61bd 8014 c3ba
000000f0: 8075 1e3c 705f fabb 60a2 7bbb a0d7 e4bb
00000100: 084c 7f3c 4b4c 523d 5dba 6abd c574 a53c
00000110: f9bb 973c 52af 153c 97e0 233b 5001 5fbd
00000120: a785 2e3d e714 4f3d a854 443d e126 50bd
00000130: 8e01 49bd a005 63bc 02d8 683c 79e8 59bd
00000140: 0575 45bd 2f3b 3b3c e96d 403d 9e29 023d
00000150: 5198 403d 244b 423c dd4f 89bd 4e5a 893d
00000160: b1ef 52bd 31c0 53bd 2334 e63b 1e6f 88bc
00000170: 8a6e f93a 8c2d 10bd 8e4a 363d 436d 85bd
00000180: 4fa7 073c b53b 2b3d 7e36 88bd f0c7 293d
00000190: 6e15 3abd 02c6 2e3d d2cb 5d3d ee33 ffbc
000001a0: cd35 8cbc 1fef 82bd 6700 913d 93b1 883d
000001b0: 2eee 8dbb 23dc 70bd 959b a83c 546e 893d
000001c0: 5f6b 03bd 3f35 aebc 0a4d 7dbd 1a57 3dbd
000001d0: 8b93 76bc 98bc 81bd 3d03 8c3d b83d 39bd
000001e0: f930 ae3c 99fd 9b3d 621c 093d 6860 8bbd
000001f0: 50c4 8ebc c3f9 9cbd deda 86bd 404b ebba
00000200: 1a14 ac3c 9d76 513d 295d 3bbd 8140 d93c
00000210: d302 8ebc ae32 f33c b1ce 283d 2a26 8dbd
00000220: a197 b7bc 1b84 523c ef8c 453d 1472 fe39
00000230: 8358 5f3d 8b7f 17bd 1c70 eb3c b9bc 4fbd
00000240: d686 dcbc bcd9 8d3c 7d29 fc3b f86c 93bd
00000250: 730d 67bd 091c a13d 68ec 113d 6aa7 ddbc
00000260: ccef 7ebd 5e12 ea3b 8626 cebb d98f 3bbd
00000270: 6366 663d 4ae5 40bd f1c4 933d 0e52 58bd
00000280: 7f8a 043d ecc9 843d ece3 a6bc 92e7 4a3d
00000290: b9bc 023c 69e9 273d 87ff 2bbc d8b6 0c3d
000002a0: ad6a a5bb ec99 12bd dcdc 7a3d 0e2c 29bc
000002b0: 27b2 6b3d 6973 9c39 9168 653d 5481 263d
000002c0: f9f4 023d 4ce9 01bd 91dc 8fbc c902 57bd
000002d0: 8772 453d d0d0 4f3c 6e59 233c 5c70 46bd
000002e0: 560c 36bc df77 193c 57db d1bb 0503 533c
000002f0: 50b1 543d 051a 943c 0af4 e4bc 7fdb ee3b
00000300: eaef 913d 84fa 5ebd 0e36 debc 266e 46bd
00000310: 86be 923d 7f6c 89bd 8f2d 923d b2b3 99bc
00000320: 06ea 5e3d 300e 843d 7d4d bcbc 7d0e 3e3d
00000330: 9c4c bd3c 94ce 0e3d 86c9 8dbd 72ca 183b
00000340: f2fd 2fbd d049 913d 341e 18bd 0036 4bba
00000350: e4cb 09bd 5010 8f3d 1c1b 5d3d 9c1e 4ebd
00000360: cc3f 733d 3e1b 0e3d 0048 0c38 cfc1 23bd
00000370: 8023 5f3b 4708 623d 8b4b 5f3c a567 c1bb
00000380: 1ef6 553c ec93 8f3d 3526 9d3c 7324 5b3d
00000390: 23f7 973c a5d7 02bd fba8 cfbc 49f7 9dbd
000003a0: 8b50 f1bc 2577 8b3c 2e2a 5c3c 85a4 2ebd
000003b0: 3e4d c53c 9457 45bd 51b0 783d 61df 99bc
000003c0: 43cc c5bc 925c 89bd 0470 d83c 613e 9b3d
000003d0: 8d76 93ba 9b62 353d 5e25 5e3c 043c 9abd
000003e0: 44cf acbd 60a9 17bc 9ea9 5f3c b711 5abd
000003f0: d272 94bc 9cc4 613d 69a4 99bc f381 a9bd

encoder_blocks.2.2.bias f4 [12]
0.041837614 0.047998324 -0.025515346 -0.029278886 0.008450143 0.037443675 0.07830225 -0.04700655
0.029846312 0.025836919 0.084406726 -0.056346875
00000000: eb5d 2b3d e499 443d 8f05 d1bc 46da efbc
00000010: 7872 0a3c 8a5e 193d ee5c a03d f189 40bd
00000020: 4180 f43c f2a7 d33c 6fdd ac3d fbcb 66bd

encoder_blocks.3.0.weight f4 [12, 12, 13]
0.07204321 0.029497655 -0.0145737305 -0.053596888 -0.009812285 0.043244425 -0.06590067 -0.04351396
-0.045076728 0.05840225 0.07725364 -0.048975185 -0.063225165 -0.057233658 0.0676211 0.02827125
0.04400269 0.020874165 -0.01573765 0.052003615 -0.07241407 -0.030703794 0.0013416458 -0.036799207
0.026792629 0.018175617 0.0451747 0.064177 0.05844289 -0.012768955 0.012289146 -0.014048955
-0.04198491 0.008601717 -0.05498959 -0.013747837 0.00414719 0.015698422 0.015826346 0.046172794
-0.046107847 0.024714438 -0.011461181 0.059127156 0.05843967 -0.038685158 -0.008417081 0.032558233
0.07438471 -0.04078397 0.026919035 -0.030987386 -0.06804867 0.040581103 -0.06131925 0.03869386
0.06488745 0.037738923 -0.056747936 -0.06751589 -0.0031214722 0.015033292 -0.03127067 0.015875977
-0.021106469 -0.07280252 -0.04466227 -0.024709128 0.06222189 -0.06551516 0.00040355403 0.081113234
0.007347167 0.013157264 0.0046699382 -0.05140151 0.03815888 0.04336787 -0.049615107 -0.0038090986
0.04032167 -0.041951 -0.027575782 -0.036616832 -0.009196524 0.06856334 -0.07508704 0.018935123
-0.0023559108 -0.025339594 0.07615414 0.078589275 0.05286451 -0.0034555364 -0.06119859 -0.06593355
-0.009977363 0.04920631 0.03817706 0.020767359 0.057417084 0.011868781 0.05921859 -0.06465696
-0.027310597 0.031122545 -0.010390054 -0.054146774 -0.029198432 -0.005550225 0.051274084 -0.075075015
0.014720086 -0.067044914 -0.042811666 0.065924086 -0.04359181 -0.07162288 -0.02064019 0.06763828
-0.0063277134 -0.0042749783 -0.04936531 -0.07730278 0.02353027 0.004005155 0.008917674 -0.06703786
0.04424047 -0.053871263 -0.0034095822 -0.07429695 0.0057735755 0.04573128 0.008711832 -0.01717944
-0.064252704 0.037663173 -0.030311806 0.008687188 -0.07853017 0.073996015 -0.024331464 0.06336449
0.0065649464 -0.03144426 0.032091573 0.08155102 -0.032328434 0.024702117 0.054012187 -0.015933476
0.012478915 0.029636137 0.060078163 -0.076862484 -0.020882452 -0.035718676 -0.049754404 0.07778315
0.076930255 -0.07920303 0.07352723 0.05901735 -0.06244365 0.08276114 0.009304148 0.043889266
0.039347716 -0.030159688 -0.07771364 -0.07835838 -0.007888893 0.03165215 -0.06811471 0.0037176562
0.058018547 0.065554984 -0.024188533 0.03386138 0.021531655 0.07689813 0.0072642993 0.022377519
-0.066552065 0.07561165 -0.025229082 0.061512247 -0.00944033 -0.042185813 -0.040594596 0.078626424
-0.036907014 -0.057734028 -0.0056119515 -0.057540778 0.022233421 0.047878847 0.0064937044 0.018842192
0.023160927 0.06497886 -0.026679302 0.063169494 -0.027482526 -0.016631536 -0.01138981 0.06832167
-0.031305756 0.05654977 -0.070771866 0.012424293 -0.046527058 0.076412804 -0.07126265 0.0370729
0.044205196 0.032148182 -0.0060587577 0.062692426 0.013848764 -0.01689094 -0.030779593 0.03518384
-0.057792 -0.024734918 0.06331626 -0.05755047 0.057569116 -0.03697877 0.025497971 -0.013640247
-0.0064253802 -0.02334338 0.0086097745 0.054959644 -0.048584566 0.042209078 0.05100049 0.034445334
-0.059644 0.017694201 -0.0013966465 -0.037525084 -0.018614627 0.016375616 0.039354034 0.0114089735
0.0009809962 0.00037463353 0.014789068 -0.02540515 0.0665756 0.011684827 -0.00097021816 -0.07684786
00000000: 648b 933d 11a5 f13c a8c6 6ebc 6988 5bbd
00000010: b5c3 20bc 1121 313d eef6 86bd b23b 32bd
00000020: 60a2 38bd 3337 6f3d 2837 9e3d 349a 48bd
00000030: 327c 81bd d76d 6abd ee7c 8a3d 1c99 e73c
00000040: 2a3c 343d 4c00 ab3c 3fec 80bc be01 553d
00000050: d44d 94bd 8686 fbbc 2ada af3a c4ba 16bd
00000060: 377c db3c 08e5 943c 1b09 393d 3b6f 833d
00000070: d061 6f3d e134 51bc 6a58 493c 972d 66bc
00000080: 5ef8 2bbd 37ee 0c3c c43c 61bd 9c3e 61bc
00000090: 27e5 873b fa99 803c 41a6 813c af1f 3d3d
000000a0: 95db 3cbd ef75 ca3c adc7 3bbc 512f 723d
000000b0: 6f5e 6f3d 5474 1ebd cce7 09bc c85b 053d
000000c0: 0357 983d 180d 27bd 4f85 dc3c 42d9 fdbc
000000d0: 1a5d 8bbd 5f38 263d e529 7bbd 747d 1e3d
000000e0: b6e3 843d 2194 1a3d 8670 68bd c545 8abd
000000f0: 9d91 4cbb 324e 763c ad15 00bd 560e 823c
00000100: 79e7 acbc 7d19 95bd c9ef 36bd cc6a cabc
00000110: 61dc 7e3d d02c 86bd 1b94 d339 b21e a63d
00000120: 81c0 f03b 9191 573c 4806 993b 648a 52bd
00000130: 7c4c 1c3d 82a2 313d 3639 4bbd 12a2 79bb
00000140: 5628 253d d0d4 2bbd 9be6 e1bc 88fb 15bd
00000150: 04ad 16bc f06a 8c3d 3cc7 99bd d51d 9b3c
00000160: a065 1abb fb94 cfbc b4f6 9b3d 6af3 a03d
00000170: 7588 583d 4876 62bb 5fab 7abd 2b08 87bd
00000180: 1878 23bc 8e8c 493d 8d5f 1c3d 4f20 aa3c
00000190: 2d2e 6b3d 4775 423c 318f 723d de6a 84bd
000001a0: 79ba dfbc b5f4 fe3c 0c3b 2abc 02c9 5dbd
000001b0: 8d31 efbc a9de b5bb c604 523d eec0 99bd
000001c0: 842c 713c d84e 89bd 495b 2fbd 3503 873d
000001d0: 538d 32bd 04af 92bd 9e15 a9bc f085 8a3d
000001e0: b558 cfbb 1e15 8cbb 4833 4abd eb50 9ebd
000001f0: 8ec2 c03c ad3d 833b 701b 123c 254b 89bd
00000200: 7f35 353d 1da8 5cbd 4c73 5fbb 0029 98bd
00000210: 4330 bd3b b950 3b3d 12bc 0e3c e6bb 8cbc
00000220: ec96 83bd b344 1a3d 7750 f8bc b554 0e3c
00000230: 6dd4 a0bd 398b 973d c752 c7bc 3ec5 813d
00000240: c31e d73b b2cb 00bd 7472 033d 3904 a73d
00000250: d26a 04bd 185c ca3c e23b 5d3d ec86 82bc
00000260: 5d74 4c3c 7cc7 f23c 8514 763d 146a 9dbd
00000270: ad11 abbc bf4d 12bd 46cb 4bbd c64c 9f3d
00000280: 9c8d 9d3d 3335 a2bd 7295 963d 2dbc 713d
00000290: eac4 7fbd ac7e a93d 6d70 183c 3bc5 333d
000002a0: 122b 213d 7311 f7bc 5428 9fbd 5c7a a0bd
000002b0: 6a40 01bc afa5 013d ba7f 8bbd eca3 733b
000002c0: dba4 6d3d b141 863d 0827 c6bc 3bb2 0a3d
000002d0: 2763 b03c c47c 9d3d 5c09 ee3b 0f51 b73c
000002e0: 734c 88bd 48da 9a3d 38ad cebc 44f4 7b3d
000002f0: 9dab 1abc 08cb 2cbd 8546 26bd e406 a13d
00000300: cf2b 17bd 847a 6cbd 76e4 b7bb e1af 6bbd
00000310: dd22 b63c 9c1c 443d 24c9 d43b f15a 9a3c
00000320: fcbb bd3c a313 853d 8d8e dabc 025f 813d
00000330: 0923 e1bc dc3e 88bc 539c 3abc 3bec 8b3d
00000340: 773a 00bd bba0 673d d7f0 90bd 438f 4b3c
00000350: 2893 3ebd 517e 9c3d 27f2 91bd c1d9 173d
00000360: 8210 353d d0ad 033d 8b88 c6bb e364 803d
00000370: ede5 623c de5e 8abc 7c25 fcbc ee1c 103d
00000380: 4eb7 6cbd e2a0 cabc f5ab 813d 0bba 6bbd
00000390: 98cd 6b3d 0d77 17bd 1fe1 d03c 587b 5fbc
000003a0: ff8b d2bb 9e3a bfbc 0310 0d3c 5d1d 613d
000003b0: 9c00 47bd 6de3 2c3d e4e5 503d 8d16 0d3d
000003c0: 444d 74bd 6ef3 903c ae0f b7ba e7b3 19bd
000003d0: b47d 98bc 2826 863c b231 213d b4ec 3a3c
000003e0: c594 803a 766a c439 d94d 723c 761e d0bc
000003f0: ca58 883d b771 3f3c 3d56 7eba 6962 9dbd

encoder_blocks.3.0.bias f4 [12]
-0.044992097 0.021282252 0.06500272 -0.018703606 -0.042315032 0.06484295 -0.012267074 -0.050117727
-0.022954237 -0.058943346 0.008678455 -0.0063369637
00000000: a249 38bd 1e58 ae3c 2520 853d 4e38 99bc
00000010: 8752 2dbd 61cc 843d d6fb 48bc 3f48 4dbd
00000020: 860a bcbc 946e 71bd 1430 0e3c 4ea6 cfbb

encoder_blocks.3.2.weight f4 [12, 12, 13]
0.006477026 -0.05627876 -0.012352179 0.053982183 -0.035441473 -0.06373891 0.033725332 -0.011289514
-0.05149022 -0.002374727 -0.047229137 0.032835513 -0.0077878293 0.026605215 -0.0031646637 -0.010553039
-0.030885866 -0.043133616 0.010054874 -0.06503789 0.05883994 -0.032398753 -0.008917388 0.06653844
0.03475456 0.047819685 -0.0007916275 -0.04046042 0.029981624 -0.06465302 0.026225606 -0.0669862
0.050027464 -0.05368988 -0.003438624 0.07932906 0.004154369 -0.000526768 -0.037905894 -0.050331082
0.06076969 -0.073889 0.0040760343 0.019715948 0.039288215 0.012674192 0.031190397 -0.030919747
-0.032270312 0.068349876 -0.06805029 0.004877982 0.06493146 0.06278004 0.049024954 -0.002144131
-0.0042528477 -0.046156067 0.0070867036 0.044985406 0.0666088 -0.012368012 0.024058023 -0.025628684
-0.049881276 -0.03159484 -0.032408185 -0.078436784 0.0718939 -0.041756097 -0.025986515 0.049145862
0.070844084 0.05973146 0.07289511 0.015482276 0.059440143 -0.0636985 -0.02072298 -0.07242246
0.03537315 -0.06385626 -0.040027358 -0.057280824 -0.07304054 -0.006100524 0.053787928 -0.07710393
-0.016993597 0.033080555 0.040373616 -0.0445342 0.014766343 -0.065600224 0.077941164 0.0361813
0.052737817 0.020392612 0.029262938 0.03883715 -0.019678261 -0.045712892 -0.03256037 0.008640803
0.044373676 -0.03010855 0.07133789 0.06574763 -0.025943011 0.07294047 0.005872161 -0.026427653
0.01924315 0.06708009 -0.022741467 0.05065524 -0.0018582965 0.006287318 0.0014010075 0.04011061
0.07133142 0.017575502 0.03739191 -0.057621878 0.057774 -0.009122137 -0.0019424148 -0.06062504
0.0705026 -0.034546908 0.07606998 -0.017931031 -0.041528106 -0.060198426 -0.04847008 0.05058029
-0.054409668 -0.030212265 -0.014143973 -0.0039950497 -0.0015906233 0.010885412 -0.079412684 0.014355301
0.04310411 -0.022004198 -0.05067188 -0.008244066 -0.06278492 -0.033856515 -0.014295778 0.0006831994
-0.024783745 0.02983771 -0.01680129 -0.025617912 0.0058668023 -0.048954688 0.043362807 0.017087119
-0.020523725 0.076315835 0.07400165 -0.021764308 0.07372064 0.022066595 0.015153441 -0.040608544
0.05593577 -0.013329544 0.044050023 0.021986943 -0.032915898 0.042761646 -0.07829263 -0.031606767
-0.072052315 0.06832256 -0.040069398 0.0063914647 -0.041494057 -0.02805628 0.024133088 0.06745909
-0.048724737 -0.03758123 -0.02894904 0.01377707 -0.057647713 -0.023555387 0.06958905 0.05408974
0.006665905 0.05657837 0.026092242 -0.014812363 0.009736258 -0.08003742 0.0028186655 -0.029727243
-0.04871275 0.036383137 0.076976925 -0.009790763 0.0052547175 0.006324976 0.0094507905 0.037911296
-0.04087607 -0.00478922 -0.056563113 0.049718875 0.048922777 -0.05333082 -0.05580888 0.0076687043
0.06459073 -0.030934433 -0.05716785 0.0035634236 -0.031159624 0.022536423 0.03398017 0.01997064
0.038451307 -0.033231135 0.0467394 -0.003499101 -0.008357086 -0.045862477 -0.016047923 -0.0489931
0.026974954 -0.034999866 -0.052325517 -0.06856502 -0.0709474 -0.02760861 0.023000747 -0.04339505
0.02448119 -0.045806956 0.06636171 -0.0057016485 -0.050282147 0.061631206 -0.0574809 -0.04448008
0.011449084 -0.0043935925 0.07781303 -0.01137317 0.07152666 0.010295406 0.07300198 0.053188697
00000000: 3b3d d43b 8f84 66bd cb60 4abc 6c1c 5d3d
00000010: 142b 11bd 8c89 82bd 9323 0a3d a7f7 38bc
00000020: 69e7 52bd 4fa1 1bbb 5773 41bd 887e 063d
00000030: 0c31 ffbb 2ef3 d93c 3f66 4fbb a7e6 2cbc
00000040: 5b04 fdbc e0ac 30bd 33bd 243c 9632 85bd
00000050: 2602 713d 8eb4 04bd 3c1a 12bc 4e45 883d
00000060: cc5a 0e3d 93de 433d 3985 4fba d3b9 25bd
00000070: 069c f53c cd68 84bd 15d7 d63c 1030 89bd
00000080: 99e9 4c3d ebe9 5bbd 8a5a 61bb 4677 a23d
00000090: 5f21 883b cd16 0aba 3643 1bbd f727 4ebd
000000a0: a3e9 783d 1e53 97bd 4190 853b 5783 a13c
000000b0: aeec 203d 6aa7 4f3c 0183 ff3c 694b fdbc
000000c0: e02d 04bd 05fb 8b3d f35d 8bbd 7bd7 9f3b
000000d0: c9fa 843d d292 803d 64ce 483d 8d84 0cbb
000000e0: 795b 8bbb 250e 3dbd 9437 e83b 9e42 383d
000000f0: 326a 883d 34a3 4abc 5515 c53c 3ff3 d1bc
00000100: 4f50 4cbd 9769 01bd 72be 04bd 77a3 a0bd
00000110: 1c3d 933d 7108 2bbd ace1 d4bc 2c4d 493d
00000120: b416 913d faa8 743d 084a 953d 5fa9 7d3c
00000130: 8277 733d 5c74 82bd 3dc3 a9bc 3a52 94bd
00000140: 70e3 103d 12c7 82bd baf3 23bd 4c9f 6abd
00000150: 4796 95bd e8e6 c7bb bb50 5c3d aae8 9dbd
00000160: 2836 8bbc 7a7f 073d ce5e 253d 7e69 36bd
00000170: 88ee 713c 6959 86bd 9e9f 9f3d d832 143d
00000180: 9c03 583d 680e a73c d4b8 ef3c b413 1f3d
00000190: 4e34 a1bc 713d 3bbd 065e 05bd 2892 0d3c
000001a0: 2cc1 353d 35a6 f6bc 9a19 923d b2a6 863d
000001b0: 7086 d4bc d061 953d 426b c03b ce7e d8bc
000001c0: cfa3 9d3c 4961 893d 504c babc de7b 4f3d
000001d0: 1592 f3ba d905 ce3b 03a2 b73a 064b 243d
000001e0: 3516 923d 80fa 8f3c 4228 193d eb04 6cbd
000001f0: 6ea4 6c3d 0475 15bc a098 feba f651 78bd
00000200: ab63 903d 0f81 0dbd 94ca 9b3d 19e4 92bc
00000210: 6019 2abd a092 76bd 9088 46bd 472d 4f3d
00000220: acdc 5ebd b67f f7bc 1fbc 67bc e8e8 82bb
00000230: 767c d0ba ba58 323c 1ea3 a2bd 7f32 6b3c
00000240: ef8d 303d 2642 b4bc 518d 4fbd 1e12 07bc
00000250: 6195 80bd 21ad 0abd d738 6abc bc18 333a
00000260: 4807 cbbc 376e f43c dca2 89bc a8dc d1bc
00000270: 4e3e c03b b684 48bd 339d 313d 49fa 8b3c
00000280: 5f21 a8bc 7a4b 9c3d 2d8e 973d 104b b2bc
00000290: d9fa 963d 01c5 b43c 2346 783c 2555 26bd
000002a0: e81c 653d 2964 5abc cc6d 343d f61d b43c
000002b0: d2d2 06bd d626 2f3d e357 a0bd 1976 01bd
000002c0: 2a90 93bd b3ec 8b3d cf1f 24bd 7e6f d13b
000002d0: acf5 29bd 49d6 e5bc c1b2 c53c fe27 8a3d
000002e0: 9793 47bd c7ee 19bd 8a26 edbc 38b9 613c
000002f0: 0220 6cbd 3af7 c0bc b484 8e3d 348d 5d3d
00000300: aa6d da3b b9be 673d 66bf d53c 8eaf 72bc
00000310: d384 1f3c a9ea a3bd 5cb9 383b 8c86 f3bc
00000320: 0587 47bd 7c06 153d 14a6 9d3d 7069 20bc
00000330: c42f ac3b bf41 cf3b 7dd7 1a3c e048 1b3d
00000340: aa6d 27bd e4ee 9cbb b9ae 67bd 05a6 4b3d
00000350: 4063 483d 6b71 5abd da97 64bd c149 fb3b
00000360: 2548 843d 356a fdbc d628 6abd 5488 693b
00000370: 7842 ffbc 4e9e b83c ca2e 0b3d 7899 a33c
00000380: 1e7f 1d3d 5f1d 08bd d071 3f3d 2c51 65bb
00000390: 29ec 08bc 4bda 3bbd ef76 83bc fdac 48bd
000003a0: 94fa dc3c 055c 0fbd 4853 56bd d16b 8cbd
000003b0: df4c 91bd 742b e2bc 106c bc3c 02bf 31bd
000003c0: c78c c83c 13a0 3bbd a6e8 873d e5d4 babb
000003d0: a7f4 4dbd 0171 7c3d 1871 6bbd bf30 36bd
000003e0: f094 3b3c 20f8 8fbb 705c 9f3d 8856 3abc
000003f0: 927c 923d 10ae 283c 1082 953d 64dc 593d

encoder_blocks.3.2.bias f4 [12]
-0.07560293 -0.048142936 -0.07417503 -0.043326866 -0.0357422 0.02224871 0.0048572575 0.0054459646
-0.015866673 0.05648722 0.019886553 -0.014936032
00000000: b5d5 9abd 8731 45bd 14e9 97bd 8377 31bd
00000010: 6a66 12bd ed42 b63c a129 9f3b 1074 b23b
00000020: d3fa 81bc 255f 673d 20e9 a23c 42b6 74bc
