Python/save/localizer/trial_2/quake_localization_model_00740.pth (torch, 252994 bytes, 35 tensors)

encoder_blocks.0.weight f4 [12, 1, 13]
0.19166934 0.19426303 0.22334568 0.08089143 0.18613201 0.101456836 -0.10908756 -0.060817674
-0.20727256 -0.200121 -0.19224715 0.08617774 -0.0873522 -0.21434644 -0.24786094 -0.25022244
-0.13215762 0.11466556 -0.17506798 0.28441566 -0.19891639 -0.018378798 0.072987996 0.17397879
0.15625116 -0.03920874 0.06854213 -0.084711954 0.022280756 0.07439648 -0.21861166 -0.18782276
0.15590759 -0.06794393 -0.106205046 -0.106855586 -0.008976907 -0.11059011 -0.2449801 0.07661899
0.029601142 -0.20774387 0.0727768 -0.15307501 -0.14288811 0.08855146 0.035927914 0.036588103
-0.09256357 0.0026676338 0.26678458 -0.25367066 0.060747176 0.0396514 -0.08717847 -0.0047376323
-0.14688307 -0.110904045 -0.14661148 0.17930827 -0.034244657 0.11996419 -0.011599503 -0.131591
-0.16976821 -0.08541647 0.23306683 0.09896173 -0.030160367 -0.057089984 0.07483593 0.22622237
-0.24037312 0.07799792 0.15354274 -0.20065853 0.22807074 0.16442934 -0.12034013 0.031467747
0.12092917 0.108580455 0.065320246 -0.034629118 -0.07884144 0.24252908 0.14173734 0.14538425
-0.26947236 0.12080846 -0.14930765 0.09215059 -0.09480212 -0.053233113 0.110528976 -0.20320436
0.27164975 0.20079356 -0.091688946 0.14440016 -0.17187974 0.01322388 0.21473768 0.025754059
-0.17993112 -0.0144775845 -0.044885997 -0.0693538 0.16465448 0.19404335 0.19005863 0.24785839
0.15823758 0.18606338 0.22817922 -0.14091028 0.17040275 0.2617211 -0.08031817 -0.19616947
-0.22518142 0.015223244 -0.18398292 -0.19307859 0.12925687 0.21312346 -0.19361225 0.27161404
0.048168294 0.11302119 0.28462076 -0.22618565 0.27729496 0.02605095 -0.03827016 0.20738271
0.116936795 0.027672764 -0.04343211 -0.050078932 -0.0075720055 -0.10274589 -0.19085304 0.07336882
0.14894149 -0.21005154 -0.053880706 -0.22687472 -0.27076033 0.08994016 -0.24053629 -0.102231935
-0.1753505 0.23924118 -0.1943759 -0.117150284
00000000: f844 443e e3ec 463e bbb4 643e 68aa a53d
00000010: 6499 3e3e 9ac8 cf3d 4c69 dfbd f41b 79bd
00000020: 423f 54be 85ec 4cbe 70dc 44be f47d b03d
00000030: b6e5 b2bd a27d 5bbe 42cf 7dbe 281d 80be
00000040: 5454 07be c7d5 ea3d 0545 33be ee9e 913e
00000050: bdb0 4bbe 228f 96bc bb7a 953d 7f27 323e
00000060: 4e00 203e 5899 20bd d15f 8c3d 767d adbd
00000070: 2286 b63c 2f5d 983d bcdb 5fbe 9c54 40be
00000080: 3da6 1f3e 3026 8bbd 0882 d9bd 1ad7 dabd
00000090: e013 13bc 117d e2bd 10dc 7abe 6bea 9c3d
000000a0: 187e f23c cfba 54be 010c 953d b2bf 1cbe
000000b0: 4351 12be 785a b53d 2629 133d 68dd 153d
000000c0: f891 bdbd 78d3 2e3b fd97 883e 1fe1 81be
000000d0: 08d2 783d 8269 223d a08a b2bd 243e 9bbb
000000e0: 8468 16be a921 e3bd 5221 16be 969c 373e
000000f0: 2044 0cbd c9af f53d d80b 3ebc cbbf 06be
00000100: b8d7 2dbe d5ee aebd 12a9 6e3e 73ac ca3d
00000110: e012 f7bc 30d7 69bd 9443 993d d6a6 673e
00000120: 5f24 76be 60bd 9f3d 4f3a 1d3e 6e79 4dbe
00000130: 608b 693e 2a60 283e e374 f6bd 53e4 003d
00000140: b6a9 f73d 6e5f de3d 9fc6 853d 43d7 0dbd
00000150: 9f77 a1bd 8b59 783e 9823 113e 9cdf 143e
00000160: 48f8 89be 6d6a f73d 1be4 18be 73b9 bc3d
00000170: 9d27 c2bd f70a 5abd 045d e23d ce14 50be
00000180: ad15 8b3e d49c 4d3e 6ac7 bbbd a3dd 133e
00000190: 3e01 30be f9a8 583c 32e4 5b3e 2dfa d23c
000001a0: dd3f 38be 6433 6dbc 61da 37bd 5d09 8ebd
000001b0: 2f9b 283e 4db3 463e bb9e 423e 97ce 7d3e
000001c0: 0809 223e 6687 3e3e d0a7 693e c94a 10be
000001d0: 0f7e 2e3e 4f00 863e da7d a4bd a6e0 48be
000001e0: f595 66be ea6a 793c 0566 3cbe 65b6 45be
000001f0: ea5b 043e 093d 5a3e 4a42 46be ff10 8b3e
00000200: 1e4c 453d a777 e73d d0b9 913e 369d 67be
00000210: 9bf9 8d3e cd68 d53c 2cc1 1cbd 225c 543e
00000220: 8f7c ef3d feb1 e23c dee5 31bd 911f 4dbd
00000230: 961e f8bb 706c d2bd fb6e 43be 6442 963d
00000240: 1e84 183e c017 57be 04b2 5cbd d951 68be
00000250: 19a1 8abe 8c32 b83d 254f 76be fa5e d1bd
00000260: 158f 33be a4fb 743e 7a0a 47be 7dec efbd

encoder_blocks.0.bias f4 [12]
-0.1835879 0.043418206 0.2647717 -0.116067804 0.26820022 -0.26644075 0.06657264 0.111430444
0.08087289 -0.07295448 0.0060308413 0.109620996
00000000: 77fe 3bbe 4ad7 313d 2890 873e f5b4 edbd
00000010: 8a51 893e ec6a 88be 3c57 883d a535 e43d
00000020: b0a0 a53d 2969 95bd 5d9e c53b f980 e03d

encoder_blocks.1.0.weight f4 [12, 12, 13]
-0.0135294655 0.052277964 0.07092507 -0.02653311 -0.045635447 0.061874524 -0.04263364 0.021019576
-0.04852958 -0.02781956 -0.03751426 0.051718004 0.013421536 0.060725965 -0.047137916 -0.0196629
-0.04878818 0.017634729 0.006057439 -0.052291505 -0.02741897 -0.07513216 -0.026033826 -0.018620532
-0.039865583 0.0463235 -0.009873821 0.069322936 -0.0045073726 0.0072989203 -0.056332532 -0.071263984
0.07643158 -0.08390261 0.056966227 -0.013230648 0.05147341 0.08172651 0.07110848 -0.08315376
0.035131942 -0.061325077 0.031609498 0.035643365 0.067301705 0.061693463 0.017659158 -0.060798172
-0.00058215746 -0.07568816 -0.06604421 0.06361841 0.0033437759 0.04364306 2.9390923e-05 -0.072575726
0.07168795 0.042117283 -0.022770755 0.0138308415 0.0060379067 -0.010872587 -0.059177116 0.016959215
-0.023156479 0.04297651 -0.037912518 0.027290354 0.014242975 -0.048059456 -0.0562899 -0.05002978
0.06015031 -0.071020916 0.0425649 0.07446794 0.031570684 -0.044714488 0.034427553 -0.08585496
0.0038976385 0.04929052 0.0797577 -0.042562723 -0.061359923 0.015451691 -0.04856551 0.009964697
0.053331245 0.06562483 0.025150256 -0.045850333 -0.0003858784 -0.03036623 -0.04701356 -0.021109218
-0.03398255 -0.054262843 0.06277413 0.05074774 -0.06657101 -0.006400578 -0.020416489 0.0010634261
0.06945318 -0.024319462 0.0016771101 -0.07689861 0.028234418 -0.04838624 0.018633023 -0.0308517
-0.007907805 0.044016518 0.03644562 0.05753351 0.06490936 -0.016887765 -0.030690406 -0.016776973
0.0039722826 0.03588468 -0.045782942 -0.077332854 -0.06982476 -0.011205117 -0.018883852 -0.015016507
-0.032254647 -0.06089286 -0.033380505 0.012274127 -0.06696332 0.021925986 -0.036124714 0.06857797
-0.014542443 0.0030157003 -0.04158912 -0.0078325495 -0.065698154 -0.041779816 -0.018771091 -0.026535666
0.04585158 -0.021871801 -0.016737837 0.06362941 -0.073184475 0.017376008 -0.039957218 0.026126567
0.038766522 -0.03420581 0.04731953 -0.075200014 -0.031622622 0.047099352 -0.062457412 0.043626577
0.027137658 -0.071370564 -0.06854846 0.045779727 0.07976219 0.06620761 -0.040907413 0.052290365
0.057054758 -0.07018633 -0.064435 0.03747467 0.063937396 0.05822099 0.064353906 0.040829767
0.081870295 0.025606368 -0.0062832534 0.026262982 -0.066615105 0.0636699 0.0011226024 0.008083991
0.07903091 0.06905521 0.004109785 -0.036849357 -0.049518812 -0.04674555 0.04331581 -0.026371354
-0.07040292 0.030670606 0.08642515 0.0051169912 0.012103881 0.015084974 0.026126232 0.016021412
-0.032661356 -0.066408984 -0.01934464 0.026811507 -0.030133814 0.08228683 -0.03001734 0.07579342
-0.046347164 -0.050672486 -0.03473982 -0.062298287 0.013322428 -0.0115661435 0.044603776 -0.06575563
-0.0069532306 -0.015841022 0.05358315 -0.01196019 0.024295354 0.07207346 -0.0030521208 0.0045669177
0.04869381 0.005079268 0.011251776 0.010882769 0.021584025 0.051149156 -0.0203854 -0.04517687
-0.02480797 0.035643972 0.0331807 -0.024961362 0.07103875 -0.06514433 -0.061439767 0.07688106
0.021530852 0.051802475 0.013120891 -0.06951054 -0.0033370028 0.017733233 -0.051059272 -0.078018524
-0.032337002 -0.028554734 0.054360434 0.06719392 -0.054961737 0.0052514323 -0.016168378 0.0043416796
00000000: b1aa 5dbc 6b21 563d 2a41 913d f75b d9bc
00000010: 3cec 3abd 2470 7d3d 9da0 2ebd 3f31 ac3c
00000020: f4c6 46bd d9e5 e3bc 8da8 19bd 42d6 533d
00000030: 01e6 5b3c cabb 783d b013 41bd 1714 a1bc
00000040: 1dd6 47bd b576 903c 7b7d c63b 9e2f 56bd
00000050: bf9d e0bc e4de 99bd e444 d5bc 168a 98bc
00000060: 184a 23bd b6bd 3d3d cfc5 21bc 2ff9 8d3d
00000070: 95b2 93bb c82b ef3b f1bc 66bd daf2 91bd
00000080: 2988 9c3d 22d5 abbd 6b55 693d 5cc5 58bc
00000090: c8d5 523d 3a60 a73d 53a1 913d 854c aabd
000000a0: 83e6 0f3d 0130 7bbd f678 013d c7fe 113d
000000b0: 7ad5 893d 49b2 7c3d f0a9 903c 8107 79bd
000000c0: ed9b 18ba 6502 9bbd 3042 87bd 5e4a 823d
000000d0: 4023 5b3b 11c3 323d 878c f637 95a2 94bd
000000e0: 22d1 923d 2c83 2c3d bc89 babc c19a 623c
000000f0: a2d9 c53b ef22 32bc b463 72bd 0dee 8a3c
00000100: a8b2 bdbc 2308 303d 284a 1bbd 0590 df3c
00000110: 5e5b 693c fed9 44bd 3d90 66bd 07ec 4cbd
00000120: 2c60 763d 6a73 91bd 8858 2e3d a682 983d
00000130: 4350 013d 8a26 37bd e803 0d3d bad4 afbd
00000140: 866f 7f3b dbe4 493d 0158 a33d 4056 2ebd
00000150: 8b54 7bbd 1729 7d3c a1ec 46bd f842 233c
00000160: dd71 5a3d 5066 863d e907 ce3c 8fcd 3bbd
00000170: b94f cab9 9ac2 f8bc 4a91 40bd 3ded acbc
00000180: 4931 0bbd b742 5ebd b98f 803d dddc 4f3d
00000190: 6256 88bd f1bb d1bb 7b40 a7bc a962 8b3a
000001a0: 783d 8e3d 9c39 c7bc 7ad2 db3a 057d 9dbd
000001b0: de4b e73c a630 46bd 48a4 983c b4bc fcbc
000001c0: bd8f 01bc aa4a 343d 0148 153d 42a8 6b3d
000001d0: 33ef 843d 3658 8abc 726a fbbc dd6f 89bc
000001e0: ec29 823b d0fb 123d e586 3bbd b060 9ebd
000001f0: 4900 8fbd ab95 37bc 4fb2 9abc cc07 76bc
00000200: 731d 04bd cb6a 79bd ffb9 08bd 6c19 493c
00000210: 1124 89bd 209e b33c 82f7 13bd 9b72 8c3d
00000220: 6d43 6ebc 0ea3 453b 5a59 2abd 1854 00bc
00000230: c18c 86bd 5021 2bbd d5c5 99bc 5361 d9bc
00000240: dece 3b3d 7e2c b3bc ca1d 89bc 2350 823d
00000250: bee1 95bd 2158 8e3c 2eaa 23bd 6207 d63c
00000260: a5c9 1e3d 641b 0cbd 20d2 413d 7702 9abd
00000270: b986 01bd 40eb 403d 58d3 7fbd c8b1 323d
00000280: cb4f de3c bb2a 92bd 2363 8cbd 8683 3b3d
00000290: 5c5a a33d db97 873d 888e 27bd 6c2e 563d
000002a0: 40b2 693d dabd 8fbd 7ff6 83bd 0a7f 193d
000002b0: 9cf1 823d 2279 6e3d fbcb 833d 1d3d 273d
000002c0: 9dab a73d 72c4 d13c c0e3 cdbb 7725 d73c
000002d0: 806d 88bd 5d65 823d 4924 933a b772 043c
000002e0: f5da a13d d16c 8d3d 60ab 863b 5aef 16bd
000002f0: 3dd4 4abd 4378 3fbd eb6b 313d bd08 d8bc
00000300: 682f 90bd ec40 fb3c abff b03d 6fac a73b
00000310: 5b4f 463c f726 773c ae06 d63c 563f 833c
00000320: eac7 05bd 6f01 88bd a778 9ebc cea3 db3c
00000330: 30db f6bc ff85 a83d ede6 f5bc 9539 9b3d
00000340: 86d6 3dbd f48d 4fbd 574b 0ebd 7d2c 7fbd
00000350: 5046 5a3c ec7f 3dbc 73b2 363d e3aa 86bd
00000360: edd7 e3bb 08c5 81bc 017a 5b3d acf4 43bc
00000370: 0d07 c73c 409b 933d 1706 48bb 15a6 953b
00000380: 2973 473d fd6f a63b 5e59 383c a44d 323c
00000390: fbd0 b03c c781 513d 48ff a6bc 620b 39bd
000003a0: 153a cbbc 6aff 113d 7ce8 073d c57b ccbc
000003b0: c47c 913d 646a 85bd 44a8 7bbd d173 9d3d
000003c0: 7861 b03c d52e 543d 01f9 563c 8b5b 8ebd
000003d0: 9eb1 5abb 4945 913c 8723 51bd 2dc8 9fbd
000003e0: ce73 04bd 9eeb e9bc 0ca9 5e3d f79c 893d
000003f0: 8f1f 61bd 3514 ac3b 8c73 84bc a644 8e3b

encoder_blocks.1.0.bias f4 [12]
0.005633638 -0.0066157696 -0.030786099 0.08422155 -0.08266069 0.060097083 -0.00776582 -0.03453249
0.023509528 0.07361563 0.11747364 0.033514425
00000000: 619a b83b 19c9 d8bb 2133 fcbc 597c ac3d
00000010: 024a a9bd 5c28 763d 6b78 febb f171 0dbd
00000020: 0e97 c03c cbc3 963d 0596 f03d 6c46 093d

encoder_blocks.1.2.weight f4 [12, 12, 13]
0.0637542 -0.045453537 0.053042322 0.0742396 0.052293908 0.041996483 0.012309904 0.004318231
-0.00880779 -0.029500257 -0.0032825856 -0.008459027 0.06539176 -0.051478826 0.01819133 -0.0018555574
0.0027807595 0.047832668 0.079739794 -0.059119117 0.08702566 -0.05592552 0.09372183 -0.004219247
0.062254086 0.062369075 -0.049019746 -0.07395751 0.0436228 0.01651605 -0.008382863 -0.028989004
-0.073099084 -0.047829196 0.07483141 0.03297616 0.058023226 -0.035933353 0.04102524 0.016623924
-0.031191751 -0.0055469167 0.030779587 -0.022539007 0.061643038 0.009589351 -0.047538966 0.014273403
0.018417412 -0.06448169 -0.059265446 0.07089885 0.066612385 0.022217976 -0.05127549 -0.039354246
0.021940202 -0.007634495 0.0040081767 0.072290905 0.03229147 -0.013885653 -0.05453049 0.011885201
0.023649016 0.06883817 -0.036041047 -0.061828274 0.018230204 -0.054611202 0.05843975 -0.028411325
-0.07051686 -0.07373833 -0.00885812 0.042271804 -0.038517386 0.00019721339 -0.0080307415 0.043851957
0.03386718 -0.029287402 0.014002424 0.03248097 -0.00509384 -0.01320013 0.015986428 0.022331439
-0.052941427 0.042195704 -0.021639058 0.079965934 0.0035845921 0.045010887 0.028006632 0.08109326
0.0042735743 0.017111516 -0.07359223 0.028771264 0.014544834 -0.040317833 -0.07037661 0.08539693
-0.068701416 0.05387994 -0.008316784 -0.0076099993 -0.06730404 0.0365717 0.038742322 0.02926598
-0.021563526 0.030740738 -0.027971841 0.04148634 0.0012698999 0.068607196 -0.024097858 -0.00525065
-0.06272333 0.046977513 0.08440965 0.06643528 -0.07340102 0.06331587 -0.00898795 -0.001331067
0.036847644 0.046690416 -0.03594337 -0.02153842 0.05908555 -0.06109167 0.045263607 -0.034193926
-0.047034487 0.07777977 -0.051006258 -0.033043854 0.08514358 -0.04553771 0.065139644 -0.07785093
-0.01925694 -0.014204226 0.08513002 0.035599712 -0.029305145 0.070856065 0.029097442 0.07202915
0.024798492 0.06604046 0.08286809 -0.03136191 0.0007246369 -0.0068834233 -0.06682016 -0.057498813
-0.016463524 -0.08661031 0.023163285 -0.054281525 -0.03127697 0.038285058 0.05038657 -0.020897694
-0.0313466 -0.07810486 -0.02989626 0.012207973 -0.009559649 0.060346372 0.08859578 0.009115502
0.03461753 0.07415871 0.0033029262 -0.08405913 0.060557045 -0.06399294 -0.048689995 0.014179094
0.06861949 0.027937349 -0.011935735 0.05374818 -0.080555335 0.080907814 -0.013577395 0.028208802
-0.013952899 0.0816386 0.0065650376 -0.03360468 0.0044652065 -0.002581302 0.052196614 -0.0324115
-0.066999905 0.0062979963 -0.06698869 -0.0498817 0.06794894 0.038026325 -0.05527382 0.018888395
0.049206313 -0.035206556 -0.0038364553 -0.06267545 -0.03826668 0.07441315 -0.072661325 0.0784589
-0.0076047955 -0.024808291 0.021892311 0.032715995 -0.035265397 0.06654051 0.059341367 -0.0031923503
-0.025385851 -0.07371101 0.047863167 0.037275877 -0.06630617 0.07415292 0.053517655 0.04245832
-0.07340653 0.068881385 -0.0051910346 0.004409116 -0.04377846 -0.007143 -0.027799571 0.01247734
0.06505045 -0.028868007 0.014513256 0.016506745 0.031561673 0.03675895 -0.091798104 0.01341063
-0.02010368 0.04846783 0.018610902 -0.060554434 0.032149293 0.069620475 -0.0512881 -0.061753176
00000000: 9091 823d 7d2d 3abd e842 593d ee0a 983d
00000010: 2332 563d 8104 2c3d 7baf 493c f27f 8d3b
00000020: 8d4e 10bc 86aa f1bc a620 57bb bb97 0abc
00000030: 1dec 853d 76db 52bd fc05 953c 2d36 f3ba
00000040: 673d 363b 30ec 433d 9e4e a33d e326 72bd
00000050: 823a b23d 2812 65bd 3bf1 bf3d 9c41 8abb
00000060: 24fe 7e3d b776 7f3d eec8 48bd 0977 97bd
00000070: d2ad 323d ab4c 873c 4758 09bc 597a edbc
00000080: f9b4 95bd 8ce8 43bd 3641 993d 0312 073d
00000090: c3a9 6d3d da2e 13bd 150a 283d e52e 883c
000000a0: d885 ffbc e9c2 b5bb 7925 fc3c b9a3 b8bc
000000b0: 697d 7c3d a71c 1d3c 38b8 42bd feda 693c
000000c0: 1de0 963c fa0e 84bd 53c0 72bd 6b33 913d
000000d0: 136c 883d 7902 b63c 4006 52bd eb31 21bd
000000e0: f0bb b33c c92a fabb 0657 833b 410d 943d
000000f0: 0f44 043d a680 63bc 5d5b 5fbd 25ba 423c
00000100: 95bb c13c 07fb 8c3d c79f 13bd a53f 7dbd
00000110: 8257 953c ffaf 5fbd 855e 6f3d debe e8bc
00000120: 256b 90bd 1f04 97bd a621 11bc 3325 2d3d
00000130: 68c4 1dbd 11cb 4e39 5f93 03bc 1c9e 333d
00000140: 50b8 0a3d 22ec efbc 6c6a 653c c40a 053d
00000150: 3aea a6bb 5c45 58bc f8f5 823c 6cf0 b63c
00000160: 1cd9 58bd 67d5 2c3d 6544 b1bc 2ec5 a33d
00000170: 7aeb 6a3b 565d 383d 2a6e e53c 3914 a63d
00000180: 5709 8c3b 732d 8c3c 86b7 96bd b7b1 eb3c
00000190: 754d 6e3c 5024 25bd 9d21 90bd 96e4 ae3d
000001a0: 54b3 8cbd 36b1 5c3d 1f43 08bc 4d5d f9bb
000001b0: b3d6 89bd 35cc 153d 45b0 1e3d 35bf ef3c
000001c0: fea5 b0bc 00d4 fb3c 3425 e5bc 95ed 293d
000001d0: c572 a63a ee81 8c3d df68 c5bc a50d acbb
000001e0: 1775 80bd 7e6b 403d f7de ac3d 380f 883d
000001f0: 4653 96bd c0ab 813d 3242 13bc 3277 aeba
00000200: 8eed 163d 733e 3f3d 5b39 13bd 5771 b0bc
00000210: b103 723d 423b 7abd 5566 393d ee0e 0cbd
00000220: 3ca7 40bd 004b 9f3d f0eb 50bd fe58 07bd
00000230: c25f ae3d c085 3abd ef67 853d 4f70 9fbd
00000240: bbc0 9dbc d8b8 68bc a658 ae3d 01d1 113d
00000250: 5811 f0bc fc1c 913d c25d ee3c 0584 933d
00000260: 3526 cb3c 3840 873d bfb6 a93d 5975 00bd
00000270: 8ff5 3d3a 578e e1bb 02d9 88bd e083 6bbd
00000280: 83de 86bc bf60 b1bd eec0 bd3c 4e56 5ebd
00000290: 481c 00bd cbd0 1c3d 2662 4e3d a431 abbc
000002a0: 4b65 00bd 71f5 9fbd 00e9 f4bc f303 483c
000002b0: 13a0 1cbc c22d 773d b471 b53d 3059 153c
000002c0: 1ccb 0d3d 86e0 973d e875 583b 3127 acbd
000002d0: aa0a 783d bb0e 83bd 296f 47bd 6e4f 683c
000002e0: 6088 8c3d dedc e43c 1a8e 43bc 0d27 5c3d
000002f0: 32fa a4bd ffb2 a53d b973 5ebc 2516 e73c
00000300: b39a 64bc 2332 a73d 871f d73b 10a5 09bd
00000310: de50 923b 102b 29bb 1ecc 553d ecc1 04bd
00000320: 3f37 89bd 6c5f ce3b 5e31 89bd c150 4cbd
00000330: d028 8b3d 7ec1 1b3d cd66 62bd d6bb 9a3c
00000340: 8f8c 493d c034 10bd 0a6d 7bbb fd5b 80bd
00000350: 86bd 1cbd ec65 983d 76cf 94bd 0faf a03d
00000360: a631 f9bb c23a cbbc 8157 b33c 3501 063d
00000370: 7372 10bd 6446 883d ef0f 733d c036 51bb
00000380: fdf5 cfbc ccf5 96bd 2b0c 443d 97ae 183d
00000390: 87cb 87bd 7cdd 973d 5435 5b3d c6e8 2d3d
000003a0: 2a56 96bd af11 8d3d 8e19 aabb 597a 903b
000003b0: 0b51 33bd d40f eabb edbb e3bc c26d 4c3c
000003c0: 2c39 853d 997c ecbc 02c9 6d3c 2739 873c
000003d0: d046 013d 8e90 163d a500 bcbd 42b8 5b3c
000003e0: 79b0 a4bc 3486 463d e475 983c ed07 78bd
000003f0: faae 033d 2e95 8e3d 7913 52bd e6f0 7cbd

encoder_blocks.1.2.bias f4 [12]
-0.013085436 0.032081068 0.11044093 0.04469343 0.023974728 -0.047726367 -0.054217175 -0.041149892
0.046084844 0.0911393 0.07794634 -0.0044670515
00000000: 4c64 56bc 7067 033d db2e e23d 7510 373d
00000010: a666 c43c b97c 43bd d412 5ebd ca8c 28bd
00000020: 76c3 3c3d 3ea7 ba3d 55a2 9f3d 5860 92bb

encoder_blocks.2.0.weight f4 [12, 12, 13]
0.07296671 -0.010720742 0.023808831 0.053526357 0.0086918995 0.04650513 0.077746406 0.04222266
0.0221181 -0.075073645 0.048837274 -0.058525022 0.068339124 -0.0836338 0.081969656 -0.04109083
0.006281418 0.02118865 -0.050967023 -0.02071118 0.04328967 -0.07536378 0.03772889 0.0033021395
0.040734936 -0.05287937 0.038061637 -0.03464826 -0.09027385 -0.05354259 0.026139304 0.0057056798
-0.069768734 -0.04780081 0.015221236 -0.070547484 -0.0011512006 -0.005610088 0.05844231 0.030770713
-0.08560495 -0.01122008 0.053851258 0.026102949 0.012881728 -0.00059157977 -0.036345948 -0.06292123
0.07424688 0.015468848 0.005055606 0.04943992 0.04428711 -0.023205703 0.029475791 0.020503405
0.021503566 0.070065275 0.0676022 -0.082797 0.00096707616 0.031127 0.068259135 0.03083759
0.021323614 -0.023609906 0.023257969 0.015506189 -0.07057132 -0.07031781 -0.07071718 -0.02747341
0.070795946 0.037412018 -0.0751113 0.0013767177 -0.034500502 0.06339462 0.051492795 0.008353057
-0.014660125 0.01105696 0.004422629 0.008585608 0.016925247 -0.028724002 -0.0251101 -0.05112606
-0.02608372 0.00467236 0.06231607 -0.026796877 -0.07858397 0.060329486 -0.007463219 -0.04354153
0.032750115 -0.015012341 -0.013827684 0.08926764 -0.051171735 0.026747452 0.051667724 -0.04057217
-0.025476716 -0.053425714 0.013361082 -0.050361354 0.06704407 0.07825416 -0.028205698 0.04933655
-0.06650933 -0.004948015 0.036885083 -0.070162036 -0.03888403 -0.039784312 0.0073245955 0.0021067194
-0.0689275 0.06569819 -0.08118732 0.034663305 -0.022053868 -0.057220973 0.008719415 -0.037348904
-0.043091677 -0.06042898 -0.06737025 -0.06733313 -0.080670185 -0.016048387 0.020185588 0.026497863
0.07206015 0.0010746908 -0.0032036684 0.066236176 0.036730815 0.030986454 -0.05193867 0.01829759
-0.07090099 -0.055632852 0.066540636 -0.062005304 -0.049233347 0.00020469454 0.026016032 0.0005992849
0.017133197 0.085392416 -0.057435323 0.059038486 0.05756705 -0.04088556 0.0072673606 0.051371988
-0.033779155 0.03555741 -0.015851038 -0.008138322 0.016510088 0.00019609246 0.039724324 0.0703346
-0.03355061 0.08959811 0.04126699 -0.015134499 -0.049774226 -0.034275945 0.009092552 0.04001334
-0.020755302 -0.0020098987 0.055124912 0.04107848 -0.028935699 0.07946762 0.0027872273 0.02858824
-0.033999674 0.053628404 0.07142765 0.0053508827 -0.013002535 0.02616799 -0.053679463 -0.02112153
0.02842673 0.0032370382 0.069214 0.07427369 0.06670972 0.06323614 -0.052038446 0.017766656
0.02256811 0.046972837 -0.022325553 0.032404378 -0.0003749575 0.06517923 -0.006985036 -0.010010591
0.02192965 0.0050423467 0.03206255 0.07363728 -0.053863063 0.052446157 0.013492265 -0.023740014
-0.04803678 -0.073126264 -0.07323203 0.03202026 0.058274917 0.013789666 0.042702306 -0.0033383104
-0.068465166 0.05238987 0.07439671 -0.060166232 -0.026098277 0.066602044 -0.029722773 -0.057491004
0.02969115 0.057113197 -0.066534065 0.030787164 0.028907951 -0.052186556 0.057883773 -0.0674252
-0.007536083 0.0006887539 0.051682115 0.034612954 -0.07559294 0.070565484 -0.05036967 -0.042530034
-0.0018637201 -0.04276324 0.04304036 0.047619194 -0.02581891 -0.008360992 0.009717463 -0.03433262
00000000: 926f 953d 0da6 2fbc bd0a c33c 743e 5b3d
00000010: 7868 0e3c 2a7c 3e3d 8239 9f3d abf1 2c3d
00000020: 0531 b53c 36c0 99bd 9809 483d efb7 6fbd
00000030: 62f5 8b3d 3348 abbd b5df a73d dc4e 28bd
00000040: 5ad4 cd3b d293 ad3c ccc2 50bd 7eaa a9bc
00000050: 8250 313d 5358 9abd 9c89 1a3d b568 583b
00000060: add9 263d 0a98 58bd 85e6 1b3d 55eb 0dbd
00000070: 7fe1 b8bd 7a4f 5bbd 1822 d63c b6f6 ba3b
00000080: e9e2 8ebd c8ca 43bd 7e62 793c 337b 90bd
00000090: e2e3 96ba d4d4 b7bb 3461 6f3d dd12 fc3c
000000a0: a651 afbd 6dd4 37bc 2393 5c3d dad5 d53c
000000b0: e20d 533c 3f14 1bba 7ddf 14bd d9dc 80bd
000000c0: c00e 983d 0d71 7d3c 7fa9 a53b 8381 4a3d
000000d0: 6766 353d e319 bebc 3777 f13c c2f6 a73c
000000e0: 3f28 b03c 627e 8f3d 0673 8a3d 7991 a9bd
000000f0: 6283 7d3a 0dfe fe3c 72cb 8b3d 1d9f fc3c
00000100: dcae ae3c 9069 c1bc 7f87 be3c ac0d 7e3c
00000110: b287 90bd c902 90bd 2bd4 90bd eb0f e1bc
00000120: 77fd 903d 583d 193d f4d3 99bd fb72 b43a
00000130: 6650 0dbd 0ad5 813d 1cea 523d 43db 083c
00000140: 0531 70bc 4028 353c b3eb 903b a6aa 0c3c
00000150: d1a6 8a3c 994e ebbc b2b3 cdbc 8f69 51bd
00000160: 87ad d5bc 991a 993b 233f 7f3d 2085 dbbc
00000170: a2f0 a0bd 0d1c 773d 058e f4bb 9a58 32bd
00000180: fc24 063d 52f6 75bc 838d 62bc f4d1 b63d
00000190: 7499 51bd 791d db3c 89a1 533d 012f 26bd
000001a0: 8cb4 d0bc ecd4 5abd 71e8 5a3c b547 4ebd
000001b0: 674e 893d b843 a03d a30f e7bc 1f15 4a3d
000001c0: 0b36 88bd f522 a2bb d014 173d 1db1 8fbd
000001d0: dc44 1fbd e0f4 22bd 2903 f03b e310 0a3b
000001e0: dc29 8dbd c68c 863d 8a45 a6bd 1cfb 0d3d
000001f0: 50aa b4bc 8a60 6abd e1db 0e3c 2afb 18bd
00000200: e680 30bd 6184 77bd 6af9 89bd f4e5 89bd
00000210: 6936 a5bd e877 83bc 3f5c a53c 0c12 d93c
00000220: 4694 933d a4dc 8c3a a3f4 51bb d5a6 873d
00000230: 0d73 163d 4ed7 fd3c a5bd 54bd d4e4 953c
00000240: 8a34 91bd 46df 63bd 7546 883d 46f9 7dbd
00000250: e8a8 49bd 46a3 5639 931f d53c 5419 1d3a
00000260: eb5a 8c3c 38e2 ae3d 4d41 6bbd 57d2 713d
00000270: 6dcb 6b3d 9e77 27bd 0a23 ee3b 6f6b 523d
00000280: 035c 0abd a6a4 113d 09da 81bc 9956 05bc
00000290: 2a40 873c 2b9e 4d39 f9b5 223d 960b 903d
000002a0: 5d6c 09bd 377f b73d 9307 293d b1f6 77bc
000002b0: 0fe0 4bbd ef64 0cbd edf8 143c 07e5 233d
000002c0: 0607 aabc 81b8 03bb a9ca 613d e941 283d
000002d0: 8f0a edbc ebbf a23d eaa9 363b e231 ea3c
000002e0: 3e43 0bbd 75a9 5b3d a948 923d 7556 af3b
000002f0: 9608 55bc 415e d63c ffde 5bbd 0f07 adbc
00000300: 2cdf e83c 7d24 543b 12c0 8d3d ce1c 983d
00000310: 1b9f 883d f381 813d 4426 55bd 618b 913c
00000320: c2e0 b83c 9766 403d 14e4 b6bc 74ba 043d
00000330: f295 c4b9 b07c 853d bbe2 e4bb 7603 24bc
00000340: cfa5 b33c 453a a53b 0554 033d 24cf 963d
00000350: 849f 5cbd c8d1 563d a90e 5d3c 6b7a c2bc
00000360: 37c2 44bd 39c3 95bd adfa 95bd ad27 033d
00000370: aeb1 6e3d 0dee 613c 9de8 2e3d 8ec7 5abb
00000380: 7737 8cbd c396 563d 4d5d 983d de70 76bd
00000390: 0ecc d5bc a766 883d 2c7d f3bc b07b 6bbd
000003a0: db3a f33c 87ef 693d 0343 88bd 5d35 fc3c
000003b0: 5ed0 ec3c 92c1 55bd 8917 6d3d 3916 8abd
000003c0: 3ff1 f6bb 7e8d 343a a0b0 533d 50c6 0d3d
000003d0: 79d0 9abd a384 903d 6d50 4ebd f933 2ebd
000003e0: 1248 f4ba 8228 2fbd 174b 303d 580c 433d
000003f0: 2e82 d3bc 8bfc 08bc fe35 1f3c 5da0 0cbd

encoder_blocks.2.0.bias f4 [12]
-0.019417921 0.08645712 0.0037056701 0.1367084 -0.012365125 0.06902501 -0.10552615 0.08668735
0.021905078 -0.08959545 0.09681742 0.10784939
00000000: 5512 9fbc 6e10 b13d d4da 723b 49fd 0b3e
00000010: 1897 4abc fc5c 8d3d 181e d8bd 2389 b13d
00000020: 4772 b33c d27d b7bd 3648 c63d 24e0 dc3d

encoder_blocks.2.2.weight f4 [12, 12, 13]
-0.02145637 0.08301652 0.043075383 0.003451552 -0.05985205 0.0009824722 -0.022768779 -0.05340912
-0.026013955 -0.030672014 0.010215215 -0.043921653 0.0557484 -0.016620275 0.01810956 0.059431225
0.037228186 0.03713708 -0.060451977 0.079153456 -0.020710526 -0.018692492 -0.06278515 0.0445315
0.06260096 -0.0307864 -0.027436605 0.06219243 -0.069478266 -0.021295547 0.0153201595 0.045078013
-0.050479863 -0.043922804 0.08366026 -0.07614549 -0.05432926 0.04938918 -0.00331339 0.025017904
-0.05078909 -0.0373919 -0.03235745 0.0645746 0.04851173 -0.015370874 0.00446233 0.008805139
0.025173992 -0.03692701 -0.053639807 0.0755294 0.0024548844 -0.07114717 0.031117 -0.055335753
-0.017837618 -0.014909558 -0.05506017 -0.0014883429 0.009671569 -0.0076407716 -0.0038396344 -0.0069837123
0.015582092 0.05144922 -0.05639946 0.022810498 0.0213192 0.0103554875 0.0037296491 -0.049766466
0.045702048 0.050952766 0.052489396 -0.045209553 -0.043547403 -0.0051737926 0.013405874 -0.052618723
-0.040091697 -0.0056026033 0.03742989 0.030516047 0.03492698 0.012424342 -0.08499278 0.056481887
-0.0611445 -0.051737692 0.003988552 0.02003925 0.03735279 0.037598997 0.071228504 -0.01595802
0.015514501 0.10103289 -0.022965997 0.08163062 0.02127982 0.10035439 0.10075935 -0.006853313
-0.005845556 -0.07443474 0.065123565 0.07214214 0.009914271 -0.06587076 0.028033717 0.05220248
-0.020740625 -0.011220835 -0.049514994 -0.046577193 -0.012682175 -0.06029495 0.0720024 -0.04352304
0.023056587 0.07925138 0.031912696 -0.06392723 -0.017512273 -0.07538832 -0.06683154 -0.0032842346
0.019931559 0.053462077 -0.03905617 0.03520995 -0.010575499 0.031966656 0.04194292 -0.06502306
-0.016033446 0.017076256 0.053897865 0.0030044036 0.059901107 -0.033005405 0.035831615 -0.046978373
-0.024483822 0.029987153 0.0062341765 -0.068653785 -0.059729632 0.08405196 0.041916564 -0.017647304
-0.06038562 0.018571083 -0.0033988275 -0.038573794 0.06456064 -0.061662845 0.09162655 -0.05291743
0.041104823 0.073983155 -0.02139305 0.042348713 0.0062230774 0.047957603 -0.014634457 0.04962591
-0.026960088 -0.030369338 0.06292432 -0.009256338 0.06501266 0.004521307 0.06382052 0.04636832
0.030933872 -0.025798058 -0.022336625 -0.054090567 0.05006806 0.011300233 0.009340226 -0.044174172
-0.008575105 0.007539828 0.00037317688 0.01739249 0.04445541 0.025537116 -0.038279682 0.011225193
0.07901798 -0.05875252 -0.03244746 -0.032550577 0.07412224 -0.07288065 0.07350879 -0.011736998
0.055264264 0.068930894 -0.0197077 0.05419698 0.031566527 0.03839473 -0.0638292 0.0040611494
-0.04296679 0.07094157 -0.03713818 -0.0007751882 -0.03364171 0.06985533 0.05398093 -0.05032216
0.059387013 0.03469395 3.3445656e-05 -0.039979752 0.003404826 0.059820924 0.014518738 -0.0035474866
0.018024914 0.072003506 0.0252754 0.053803068 0.022891872 -0.029866159 -0.024216566 -0.079344966
-0.028566755 0.013049849 0.022450488 -0.039996006 0.022257056 -0.049851455 0.06677115 -0.022186413
-0.021676375 -0.05692396 0.039276846 0.07885735 0.0134201925 0.046895176 0.006002389 -0.07120234
-0.0712087 -0.015734699 0.05024982 -0.051855642 0.012430118 -5.3363103e-05 -0.017392669 -0.08639641
00000000: 45c5 afbc 9104 aa3d d06f 303d 6f33 623b
00000010: 6c27 75bd 4cc6 803a 9785 babc 85c3 5abd
00000020: 381b d5bc e043 fbbc b85d 273c 31e7 33bd
00000030: 6f58 643d 3e27 88bc 805a 943c 286e 733d
00000040: 957c 183d 0d1d 183d 7e9c 77bd 351b a23d
00000050: 1fa9 a9bc ff20 99bc 8095 80bd aa66 363d
00000060: ef34 803d c333 fcbc bbc2 e0bc 7dbd 7e3d
00000070: 9f4a 8ebd 0074 aebc 6801 7b3c b9a3 383d
00000080: f9c3 4ebd 66e8 33bd 1256 ab3d 2bf2 9bbd
00000090: 5c88 5ebd 4f4c 4a3d 7625 59bb 59f2 cc3c
000000a0: 3908 50bd 4028 19bd 3f89 04bd b03f 843d
000000b0: 3cb4 463d 1ed6 7bbc bd38 923b 6e43 103c
000000c0: b039 ce3c c740 17bd 6ab5 5bbd 28af 9a3d
000000d0: 20e2 203b 9cb5 91bd 14e9 fe3c bea7 62bd
000000e0: 3220 92bc 3847 74bc c686 61bd 8014 c3ba
000000f0: 8075 1e3c 705f fabb 60a2 7bbb a0d7 e4bb
00000100: 084c 7f3c 6bbc 523d 1f03 67bd 15dd ba3c
00000110: 9aa5 ae3c 10aa 293c 216d 743b ecd7 4bbd
00000120: 1232 3b3d d9b3 503d 1fff 563d a72d 39bd
00000130: c35e 32bd eb88 a9bb 50a4 5b3c bb86 57bd
00000140: 3137 24bd 0b96 b7bb 1650 193d cafc f93c
00000150: 980f 0f3d 788f 4b3c b210 aebd 8d59 673d
00000160: a872 7abd e7ea 53bd 66b2 823b 5a29 a43c
00000170: 3dff 183d 6801 1a3d 40e0 913d 65ba 82bc
00000180: 8930 7e3c 55ea ce3d 3023 bcbc f42d a73d
00000190: 0453 ae3c 9a86 cd3d eb5a ce3d c291 e0bb
000001a0: 148c bfbb 3e71 98bd 815f 853d 42bf 933d
000001b0: 776f 223c 40e7 86bd f7a6 e53c 45d2 553d
000001c0: 3ee8 a9bc 98d7 37bc 3cd0 4abd bac7 3ebd
000001d0: e6c8 4fbc d6f7 76bd ff75 933d 3745 32bd
000001e0: 2be1 bc3c 8c4e a23d e3b6 023d 48ec 82bd
000001f0: e675 8fbc 3165 9abd f9de 88bd 503c 57bb
00000200: 8247 a33c 0dfb 5a3d 5df9 1fbd 4f38 103d
00000210: dc44 2dbc 78ef 023d 57cc 2b3d cf2a 85bd
00000220: 9358 83bc 81e3 8b3c 02c4 5c3d 87e5 443b
00000230: dd5a 753d ad30 07bd 2cc4 123d 656c 40bd
00000240: 4c92 c8bc 9ea7 f53c 1048 cc3b 5b9a 8cbd
00000250: 0fa7 74bd 6f23 ac3d b4b0 2b3d 1491 90bc
00000260: e956 77bd 6222 983c ddbe 5ebb 8eff 1dbd
00000270: 5e38 843d 2e92 7cbd b3a6 bb3d f2bf 58bd
00000280: 885d 283d 7b84 973d 7a40 afbc d875 2d3d
00000290: f5ea cb3b 316f 443d 5dc5 6fbc 8a44 4b3d
000002a0: 67db dcbc 1ec9 f8bc 77de 803d e5a7 17bc
000002b0: 5c25 853d 7927 943b 55b4 823d b5ec 3d3d
000002c0: 0869 fd3c 7356 d3bc 4cfb b6bc 128e 5dbd
000002d0: 2b14 4d3d 9d24 393c bf07 193c faef 34bd
000002e0: 997e 0cbc a910 f73b f4a6 c339 b27a 8e3c
000002f0: e016 363d 3733 d13c 28cb 1cbd dfe9 373c
00000300: 2ed4 a13d 7ba6 70bd a1e7 04bd c153 05bd
00000310: 67cd 973d 7342 95bd c78b 963d 8a4c 40bc
00000320: c85c 623d a42b 8d3d 0b72 a1bc a7fd 5d3d
00000330: e74b 013d cb43 1d3d e2b8 82bd 6413 853b
00000340: f2fd 2fbd d049 913d 341e 18bd 0036 4bba
00000350: e4cb 09bd 5010 8f3d 1c1b 5d3d 9c1e 4ebd
00000360: cc3f 733d 3e1b 0e3d 0048 0c38 cfc1 23bd
00000370: 8023 5f3b c906 753d 00e0 6d3c f37c 68bb
00000380: fca8 933c 9376 933d 5b0e cf3c 9b60 5c3d
00000390: bc87 bb3c e0a9 f4bc d261 c6bc 9d7f a2bd
000003a0: d404 eabc 09cf 553c 16ea b73c dad2 23bd
000003b0: 6e54 b63c 0a31 4cbd 50bf 883d 48c0 b5bc
000003c0: a792 b1bc 1929 69bd c2e0 203d f67f a13d
000003d0: 5ee0 5b3c 2815 403d b0af c43b 88d2 91bd
000003e0: ded5 91bd 0ee6 80bc c1d2 4d3d 9566 54bd
000003f0: b2a7 4b3c 32d2 5fb8 127b 8ebc 9af0 b0bd

encoder_blocks.2.2.bias f4 [12]
0.08276281 0.062749125 0.011704634 -0.041932423 -0.006497946 0.062335797 0.13430908 -0.046120327
0.062459674 0.06889603 0.11514756 -0.03928071
00000000: 8c7f a93d 9d82 803d cbc4 3f3c 55c1 2bbd
00000010: b9ec d4bb d253 7f3d 5288 093e abe8 3cbd
00000020: b7d5 7f3d 5d19 8d3d 7cd2 eb3d cfe4 20bd

encoder_blocks.3.0.weight f4 [12, 12, 13]
0.077132 0.028135749 -0.0081402045 -0.048117932 -0.015622401 0.046487313 -0.060136255 -0.040174756
-0.048796263 0.06185133 0.079296485 -0.044040415 -0.06548605 -0.055451795 0.06916697 0.029175505
0.044600885 0.021480655 -0.014747913 0.052527234 -0.0724464 -0.030468956 0.0013654102 -0.036522042
0.026670592 0.018151749 0.049558632 0.06737965 0.059676934 -0.011707525 0.012483257 -0.012871318
-0.042091902 0.009129208 -0.0561864 -0.014326635 0.0042498307 0.016721087 0.01714996 0.045750245
-0.043666154 0.026386952 -0.012261132 0.055887822 0.060170878 -0.037745632 -0.008966687 0.031319134
0.07570728 -0.04009916 0.025455922 -0.029628595 -0.06625428 0.04212421 -0.06020126 0.03972049
0.065688156 0.037409987 -0.056249667 -0.067466274 -0.002720342 0.015566032 -0.030992439 0.016944649
-0.020788858 -0.070883185 -0.042088483 -0.022706533 0.062662676 -0.065179236 0.00025934094 0.08236547
0.007586814 0.01284967 0.0056386716 -0.05057644 0.037800286 0.043845627 -0.045272794 0.005891553
0.036072344 -0.0487999 -0.032214478 -0.037412904 -0.0053871255 0.06634798 -0.08539712 0.018774949
-0.0024950616 -0.02526262 0.07687286 0.080352925 0.05312374 -0.0019792954 -0.061166964 -0.061400853
-0.0076379627 0.049530443 0.037086777 0.020374035 0.058778126 0.011381171 0.06025128 -0.06752577
-0.026415765 0.032036316 -0.009841982 -0.05282936 -0.027646758 -0.0048241317 0.05173727 -0.07402327
0.01493708 -0.06645548 -0.041985027 0.06639749 -0.042948395 -0.07026303 -0.017590666 0.06882234
-0.0050035752 -0.00460963 -0.048538037 -0.07608862 0.02504005 0.0040796106 0.007767234 -0.0650989
0.04469944 -0.054558884 -0.0024792214 -0.07404312 0.0063599087 0.046152893 0.009298927 -0.016799603
-0.06390925 0.037720196 -0.030333249 0.009121089 -0.07864745 0.07443336 -0.02425166 0.06449976
0.008393981 -0.029790675 0.03289542 0.082357004 -0.031386856 0.025737295 0.054622665 -0.015691644
0.012736133 0.02981978 0.060176615 -0.07654918 -0.006070219 0.00035344454 -0.027968941 0.106243245
0.10289161 -0.05486788 0.12517732 0.07127356 -0.044800982 0.114179924 0.030449422 0.07502852
0.06065854 -0.02814346 -0.074800685 -0.07571626 -0.006468603 0.032677684 -0.06623972 0.004061397
0.058664385 0.06631205 -0.0246196 0.03353686 0.02191246 0.078658745 0.00978995 0.02589483
-0.06361826 0.07915584 -0.023917885 0.062565506 -0.0121486485 -0.043837048 -0.041002553 0.0796359
-0.037521373 -0.057788152 -0.0033360838 -0.05917284 0.018707156 0.047630366 0.0055273357 0.012247573
0.021398863 0.059536204 -0.028482901 0.063508816 -0.030425841 -0.024900032 -0.016712693 0.06857665
-0.03220495 0.05632194 -0.07216603 0.011689434 -0.046885416 0.07485155 -0.07261823 0.03321702
0.041443422 0.02986258 -0.009008944 0.06045643 0.012054132 -0.016804913 -0.026800733 0.03793355
-0.05766868 -0.023926051 0.062415943 -0.055060443 0.055156574 -0.038287565 0.027597703 -0.014080289
-0.00965588 -0.017517583 0.060942773 0.1160299 0.011403546 0.09850916 0.10713038 0.08807861
-0.0025829372 0.06850546 0.053814407 0.027556585 0.031108327 0.080948256 0.10701102 0.013881515
0.0015699567 -0.0031422093 0.005570989 -0.034566086 0.062492985 0.0091311615 -0.002438106 -0.076951966
00000000: 62f7 9d3d f17c e63c 7e5e 05bc 4f17 45bd
00000010: 19f5 7fbc 7b69 3e3d 6f51 76bd 498e 24bd
00000020: 97de 47bd d257 7d3d 3266 a23d b963 34bd
00000030: 8d1d 86bd 6c21 63bd 6aa7 8d3d 7801 ef3c
00000040: 6baf 363d 33f8 af3c 3ba1 71bc cc26 573d
00000050: c75e 94bd 089a f9bc 90f7 b23a 2398 15bd
00000060: 497c da3c fab2 943c fefd 4a3d 58fe 893d
00000070: cd6f 743d ebd0 3fbc 9386 4c3c 38e2 52bc
00000080: 8f68 2cbd ac92 153c b623 66bd 43ba 6abc
00000090: 2a42 8b3b a9fa 883c 137e 8c3c 9c64 3b3d
000000a0: 48db 32bd 7329 d83c eae2 48bc a1ea 643d
000000b0: bd75 763d 2a9b 1abd 03e9 12bc 7e48 003d
000000c0: 6b0c 9b3d 043f 24bd f088 d03c abb7 f2bc
000000d0: 53b0 87bd 708a 2c3d 9995 76bd f4b1 223d
000000e0: 8387 863d 373b 193d 0d66 66bd c22b 8abd
000000f0: c447 32bb ac08 7f3c dbe3 fdbc 81cf 8a3c
00000100: 654d aabc 342b 91bd f964 2cbd 0d03 babc
00000110: 4a55 803d b17c 85bd 27f8 8739 3aaf a83d
00000120: cf9a f83b 6c87 523c 9bc4 b83b 3e29 4fbd
00000130: 79d4 1a3d 7997 333d f76f 39bd ee0d c13b
00000140: 98c0 133d 67e2 47bd 54f3 03bd 463e 19bd
00000150: 7c86 b0bb 73e1 873d afe4 aebd eccd 993c
00000160: 3084 23bb 8ef3 cebc 856f 9d3d 1390 a43d
00000170: 4798 593d 11b7 01bb 368a 7abd 767f 7bbd
00000180: e047 fabb 6fe0 4a3d 4ee8 173d 73e7 a63c
00000190: 55c1 703d 1778 3a3c 0cca 763d f34a 8abd
000001a0: e065 d8bc 8338 033d 4440 21bc 9963 58bd
000001b0: 747b e2bc c013 9ebb 76ea 533d 8399 97bd
000001c0: a8ba 743c d019 88bd 7ef8 2bbd 68fb 873d
000001d0: a8ea 2fbd 10e6 8fbd 4d1a 90bc baf2 8c3d
000001e0: 08f5 a3bb 610c 97bb d2cf 46bd 5ad4 9bbd
000001f0: ca20 cd3c 41ae 853b 4884 fe3b 9252 85bd
00000200: c316 373d 2379 5fbd 6f7a 22bb eba3 97bd
00000210: c866 d03b d10a 3d3d 875a 183c 529f 89bc
00000220: dae2 82bd 7e80 1a3d 6f7d f8bc 9f70 153c
00000230: ea11 a1bd 8470 983d 6bab c6bc 7318 843d
00000240: e886 093c 930b f4bc 59bd 063d caaa a83d
00000250: 818f 00bd 05d7 d23c 04bc 5f3d c38b 80bc
00000260: 37ab 503c 9c48 f43c c17b 763d d1c5 9cbd
00000270: b0e8 c6bb 864e b939 1f1f e5bc 0f96 d93d
00000280: d6b8 d23d 24bd 60bd 7c2e 003e dff7 913d
00000290: 3c81 37bd 2ad7 e93d 1171 f93c 8da8 993d
000002a0: 1775 783d 1d8d e6bc 1a31 99bd 2011 9bbd
000002b0: 93f6 d3bb 09d9 053d b1a8 87bd 7815 853b
000002c0: 114a 703d 9dce 873d 0baf c9bc f25d 093d
000002d0: c281 b33c d617 a13d 0766 203c 6521 d43c
000002e0: 4a4a 82bd 751c a23d 71ef c3bc 5822 803d
000002f0: 200b 47bc 7a8e 33bd 4bf2 27bd 2618 a33d
00000300: 03b0 19bd 45b3 6cbd 33a2 5abb 385f 72bd
00000310: c03f 993c 0f18 433d a71e b53b 0baa 483c
00000320: ab4c af3c 3cdc 733d f954 e9bc e910 823d
00000330: 9d3f f9bc 27fb cbbc 0fe9 88bc ea71 8c3d
00000340: 56e9 03bd d6b1 663d c9cb 93bd 0a85 3f3c
00000350: ec0a 40bd c54b 993d deb8 94bd 920e 083d
00000360: 94c0 293d 5fa2 f43c 409a 13bc 29a1 773d
00000370: b27e 453c 75aa 89bc 368d dbbc 3660 1b3d
00000380: fe35 6cbd 9100 c4bc dca7 7f3d 0f87 61bd
00000390: dceb 613d 6cd3 1cbd 9414 e23c 03b1 66bc
000003a0: b233 1ebc 0981 8fbc 219f 793d 16a1 ed3d
000003b0: f0d5 3a3c 2cbf c93d 2c67 db3d 8f62 b43d
000003c0: 7f46 29bb 974c 8c3d 7f6c 5c3d 59be e13c
000003d0: e4d6 fe3c 33c8 a53d 9828 db3d 4b6f 633c
000003e0: 01c7 cd3a 86ed 4dbb d88c b63b 2b95 0dbd
000003f0: a5f8 7f3d de9a 153c a2c8 1fbb fe98 9dbd

encoder_blocks.3.0.bias f4 [12]
-0.048086587 0.080201 0.10042441 -0.019866344 -0.038995408 0.09911689 -0.032347403 -0.050117727
0.023855133 -0.08569379 0.03998784 0.03776941
00000000: 71f6 44bd 6c40 a43d 50ab cd3d bebe a2bc
00000010: a6b9 1fbd ccfd ca3d b67e 04bd 3f48 4dbd
00000020: d76b c33c 3a80 afbd 4aca 233d 19b4 1a3d

encoder_blocks.3.2.weight f4 [12, 12, 13]
0.0067276247 -0.056784842 -0.0128788045 0.05326476 -0.03624474 -0.06444068 0.033283126 -0.010723672
-0.051593073 -0.002235072 -0.04669675 0.032971106 -0.0077072703 0.026324205 -0.0032924425 -0.010559685
-0.03101856 -0.043249063 0.009930226 -0.065247685 0.058660794 -0.03282754 -0.009328888 0.065979436
0.033942245 0.047179926 -0.00095496094 -0.040605646 0.029814893 -0.06493398 0.026061824 -0.06722934
0.049777597 -0.054176282 -0.0039893 0.078869365 0.0035403196 -0.0010428124 -0.038421243 -0.050747942
0.060269136 -0.0741487 0.003931803 0.01967468 0.03933931 0.012589763 0.031172171 -0.031094952
-0.032271303 0.068033874 -0.06819927 0.0046546333 0.06380161 0.061994925 0.048691627 -0.002982485
-0.0026080336 -0.046328302 0.0068910695 0.044722315 0.06617762 -0.012929451 0.023153123 -0.025506034
-0.050457977 -0.031826947 -0.03276101 -0.078659415 0.07154192 -0.04193323 -0.026250808 0.048802648
0.070603296 0.059527136 0.072728716 0.015174779 0.05910774 -0.06405042 -0.020763313 -0.07253371
0.03519996 -0.06388428 -0.040308133 -0.057353493 -0.073091075 -0.0061673447 0.053660512 -0.07725755
-0.017119613 0.033095244 0.040406395 -0.0445342 0.014766343 -0.065600224 0.077941164 0.0361813
0.052737817 0.020392612 0.029262938 0.03883715 -0.019678261 -0.045712892 -0.03256037 0.008640803
0.044209912 -0.030265858 0.071167305 0.06559998 -0.0260907 0.072811484 0.005673131 -0.026575074
0.019112727 0.0669378 -0.02288255 0.05047938 -0.0020016702 0.0058025913 0.0015208707 0.03992919
0.071481526 0.017498901 0.03724153 -0.05790476 0.05740866 -0.009053126 -0.0028480852 -0.061120763
0.06988384 -0.03570199 0.07582405 -0.018128589 -0.041865993 -0.060519885 -0.048728064 0.050374184
-0.05471808 -0.030409245 -0.014396955 -0.004240528 -0.0018523657 0.01060263 -0.0796688 0.013654254
0.042572364 -0.022389928 -0.05127789 -0.009014011 -0.063133016 -0.034158196 -0.015087242 0.00037085713
-0.025393214 0.029169006 -0.01758885 -0.026838638 0.008418107 -0.0488697 0.043803003 0.01943255
-0.019404352 0.07639839 0.07357647 -0.020790538 0.07332968 0.019448373 0.009576253 -0.036035314
0.053061426 -0.016528428 0.041311096 0.020014623 -0.033902932 0.042804897 -0.07881153 -0.03308739
-0.076031394 0.069079936 -0.036220722 0.004740775 -0.043940548 -0.029222079 0.023098605 0.06756609
-0.049113575 -0.037711494 -0.029653614 0.014536989 -0.05656392 -0.02275065 0.06820768 0.05321924
0.006581943 0.05707881 0.026643902 -0.015320746 0.009177607 -0.08109858 0.0015395033 -0.030525932
-0.049099535 0.035835717 0.07607961 -0.009894061 0.0051171575 0.0063438173 0.009582449 0.038704325
-0.040222827 -0.009865984 -0.05769195 0.04892003 0.050108798 -0.05319035 -0.05659467 0.0053176177
0.06191063 -0.017033564 -0.05246858 0.003053445 -0.033619232 0.020377118 0.032298163 0.018116264
0.0370778 -0.034678526 0.04568762 -0.0045938636 -0.00935906 -0.0472902 -0.017034724 -0.04883237
0.027003767 -0.035796463 -0.052414883 -0.06797291 -0.07159644 -0.028830962 0.02266864 -0.0434623
0.024407873 -0.046265427 0.06629307 -0.005623706 -0.049905103 0.06193342 -0.05774572 -0.04448008
0.011449084 -0.0043935925 0.07781303 -0.01137317 0.07152666 0.010295406 0.07300198 0.053188697
00000000: 6873 dc3b 3997 68bd 9f01 53bc 262c 5a3d
00000010: 5d75 14bd 7af9 83bd e353 083d 57b2 2fbc
00000020: 4253 53bd 497a 12bb 1745 3fbd b60c 073d
00000030: 458d fcbb dca5 d73c 05c6 57bb 8702 2dbc
00000040: a31a febc ee25 31bd 63b2 223c 94a0 85bd
00000050: 4d46 703d 2c76 06bd 31d8 18bc 3a20 873d
00000060: 0607 0b3d bd3f 413d 5856 7aba 1b52 26bd
00000070: 5d3e f43c 1bfc 84bd 9b7f d53c 89af 89bd
00000080: 98e3 4b3d f3e7 5dbd adb8 82bb 4386 a13d
00000090: b504 683b faae 88ba 985f 1dbd 13dd 4fbd
000000a0: c5dc 763d 46db 97bd 5bd6 803b cb2c a13c
000000b0: 4222 213d 4b45 4e3c c85c ff3c d7ba febc
000000c0: ea2e 04bd 5855 8b3d 0fac 8bbd e585 983b
000000d0: 6baa 823d 64ee 7d3d df70 473d cc75 43bb
000000e0: 8beb 2abb bfc2 3dbd 7bce e13b bf2e 373d
000000f0: 2288 873d 0cd6 53bc 9eab bd3c 08f2 d0bc
00000100: 06ad 4ebd f95c 02bd 6930 06bd 3018 a1bd
00000110: 9284 923d 2ec2 2bbd ef0b d7bc 49e5 473d
00000120: 7698 903d bad2 733d cbf2 943d a39f 783c
00000130: f51a 723d de2c 83bd d317 aabc 8e8c 94bd
00000140: d52d 103d c3d5 82bd 241a 25bd 7feb 6abd
00000150: c6b0 95bd 7017 cabb 20cb 5b3d 3539 9ebd
00000160: 6e3e 8cbc e18e 073d 2d81 253d 7e69 36bd
00000170: 88ee 713c 6959 86bd 9e9f 9f3d d832 143d
00000180: 9c03 583d 680e a73c d4b8 ef3c b413 1f3d
00000190: 4e34 a1bc 713d 3bbd 065e 05bd 2892 0d3c
000001a0: 7415 353d 1bf0 f7bc 2ac0 913d 4859 863d
000001b0: 2abc d5bc 301e 953d ace5 b93b f8b3 d9bc
000001c0: 4b92 9c3c af16 893d 2f74 bbbc 77c3 4e3d
000001d0: 742e 03bb aa23 be3b f457 c73a ca8c 233d
000001e0: e864 923d db59 8f3c 938a 183d 8b2d 6dbd
000001f0: 5825 6b3d 9053 14bc f1a6 3abb c459 7abd
00000200: 421f 8f3d 403c 12bd a449 9b3d 6882 94bc
00000210: ad7b 2bbd b3e3 77bd 1497 47bd 2955 4e3d
00000220: 1120 60bd cf1c f9bc 35e1 6bbc 21f4 8abb
00000230: 14cb f2ba a7b6 2d3c 6529 a3bd 18b6 5f3c
00000240: 5c60 2e3d 156b b7bc c408 52bd 81af 13bc
00000250: e24b 81bd 77e9 0bbd 7b30 77bc 9a6f c239
00000260: 6e05 d0bc d7f3 ee3c 7e16 90bc b4dc dbbc
00000270: 1aec 093c 982b 48bd c76a 333d 0331 9f3c
00000280: e0f5 9ebc c276 9c3d 43af 963d eb50 aabc
00000290: df2d 963d 3252 9f3c b7e5 1c3c c499 13bd
000002a0: f056 593d a066 87bc d335 293d b5f5 a33c
000002b0: cddd 0abd 3054 2f3d f067 a1bd a586 07bd
000002c0: 59b6 9bbd c879 8d3d 2e5c 14bd 8158 9b3b
000002d0: 01fb 33bd 2463 efbc 4939 bd3c 1760 8a3d
000002e0: 512b 49bd 5e77 1abd 23ec f2bc 8d2c 6e3c
000002f0: 92af 67bd 925f babc 78b0 8b3d 6bfc 593d
00000300: 57ad d73b 78cb 693d 5044 da3c de03 7bbc
00000310: ac5d 163c 0317 a6bd 29c9 c93a 8511 fabc
00000320: 981c 49bd 79c8 123d a0cf 9b3d b31a 22bc
00000330: d4ad a73b ccdf cf3b b4ff 1c3c 6d88 1e3d
00000340: b1c0 24bd f0a4 21bc 654e 6cbd 5f60 483d
00000350: e23e 4d3d 20de 59bd d0cf 67bd 693f ae3b
00000360: 0096 7d3d f989 8bbc 4be9 56bd 4e1c 483b
00000370: 52b4 09bd eaed a63c 144b 043d 8f68 943c
00000380: e4de 173d 120b 0ebd f122 3b3d 1f88 96bb
00000390: be56 19bc 5eb3 41bd 688c 8bbc 7404 48bd
000003a0: 0137 dd3c 509f 12bd fdb0 56bd 6235 8bbd
000003b0: 28a1 92bd e92e ecbc 95b3 b93c 8605 32bd
000003c0: 05f3 c73c d180 3dbd a9c4 873d 1147 b8bb
000003d0: 4b69 4cbd e6ad 7d3d c786 6cbd bf30 36bd
000003e0: f094 3b3c 20f8 8fbb 705c 9f3d 8856 3abc
000003f0: 927c 923d 10ae 283c 1082 953d 64dc 593d

encoder_blocks.3.2.bias f4 [12]
-0.07552882 -0.0597453 -0.0727918 -0.04332745 -0.015286376 0.03213472 0.00428726 0.0054459646
0.012485126 0.080327705 0.048890635 0.004846869
00000000: dbae 9abd 7db7 74bd de13 95bd 2078 31bd
00000010: b573 7abc b29f 033d 257c 8c3b 1074 b23b
00000020: 6a8e 4c3c da82 a43d 8c41 483d 7cd2 9e3b
