Python/save/localizer/trial_2/quake_localization_model_00770.pth (torch, 252994 bytes, 35 tensors)

encoder_blocks.0.weight f4 [12, 1, 13]
000000 32 59 44 3e 8c e2 46 3e a7 c3 64 3e c5 94 a5 3d
       0.1917465 0.19422358 0.2234026 0.08085016
000010 8f 9b 3e 3e 79 d7 cf 3d 4f a0 df bd 30 6e 78 bd
       0.18614028 0.1014852 -0.10919248 -0.060651958
000020 63 56 54 be 7d e9 4c be c0 e0 44 be c0 8b b0 3d
       -0.20736079 -0.20010944 -0.1922636 0.08620405
000030 b8 01 b3 bd 02 71 5b be a2 ed 7d be 55 17 80 be
       -0.08740562 -0.21429828 -0.24797681 -0.250178
000040 5b 62 07 be b2 34 eb 3d 82 81 33 be e4 ba 91 3e
       -0.13221113 0.1148466 -0.17529872 0.284629
000050 c8 da 4b be 9b e0 95 bc 1b 49 95 3d 45 57 32 3e
       -0.19907677 -0.018295577 0.072893344 0.17416103
000060 7f f1 1f 3e 74 8a 20 bd 79 2a 8c 3d 32 52 ad bd
       0.15619467 -0.03919454 0.068440385 -0.08462943
000070 b2 d8 b5 3c 29 74 98 3d f9 e5 5f be 1e 39 40 be
       0.022198055 0.07444031 -0.21865071 -0.18771788
000080 c1 82 1f 3e 81 02 8b bd 82 85 d9 bd 16 d5 da bd
       0.15577222 -0.06787587 -0.10621168 -0.10685174
000090 17 09 13 bc 32 92 e2 bd 78 d8 7a be a8 c0 9c 3d
       -0.008974335 -0.11063041 -0.24496639 0.07653934
0000a0 b4 84 f2 3c 69 b1 54 be d3 d5 94 3d 23 9b 1c be
       0.029604293 -0.20770802 0.07267346 -0.15293555
0000b0 94 73 12 be 81 87 b5 3d c6 2e 13 3d 6d a4 15 3d
       -0.14301902 0.08863736 0.03593328 0.03653376
0000c0 be 83 bd bd 70 c3 2b 3b 4b a6 88 3e ef f2 81 be
       -0.092536435 0.002620902 0.2668937 -0.25380656
0000d0 d2 85 79 3d 60 cf 21 3d 3b 85 b2 bd 32 41 9a bb
       0.060918637 0.03950441 -0.08716818 -0.004707479
0000e0 08 6e 16 be 75 28 e3 bd 1a 12 16 be cf 8f 37 3e
       -0.14690411 -0.11091701 -0.14655343 0.17925952
0000f0 e8 5b 0c bd 06 c4 f5 3d 65 a8 3e bc 72 b3 06 be
       -0.034267336 0.12000279 -0.011636828 -0.1315439
000100 5f e2 2d be d4 c2 ae bd c1 94 6e 3e 73 c1 ca 3d
       -0.16980885 -0.08533254 0.23298933 0.09900179
000110 4f 27 f7 bc 5e c5 69 bd 9e 25 99 3d 11 c4 67 3e
       -0.030170111 -0.05707299 0.07477878 0.22633387
000120 1d 2f 76 be 8c aa 9f 3d bb 41 1d 3e c0 7b 4d be
       -0.2404141 0.07796201 0.15357105 -0.20066738
000130 0d 8f 69 3e b7 44 28 3e 3f d6 f6 bd 71 55 01 3d
       0.22808476 0.16432463 -0.12052583 0.031575624
000140 c1 92 f7 3d c6 7a de 3d f7 a1 85 3d 6c b5 0d bd
       0.12088538 0.10863261 0.06525033 -0.034596846
000150 07 6a a1 bd 35 4e 78 3e c0 2a 11 3e 9e da 14 3e
       -0.07881551 0.24248584 0.14176464 0.14536521
000160 db f3 89 be bb 1f f7 3d 6e d5 18 be 27 99 bc 3d
       -0.2694386 0.12066599 -0.14925167 0.09208899
000170 78 0c c2 bd c1 42 5a bd f1 7f e2 3d 91 19 50 be
       -0.094750345 -0.053286318 0.11059559 -0.20322253
000180 d5 0e 8b 3e 87 d4 4d 3e b5 87 bc bd d0 0a 14 3e
       0.27159753 0.20100604 -0.092055716 0.1445725
000190 c5 10 30 be 12 19 59 3c c8 d7 5b 3e ed a9 d4 3c
       -0.17193897 0.013250606 0.21469033 0.025959933
0001a0 45 8a 38 be 50 eb 6b bc 55 02 38 bd 27 ec 8d bd
       -0.18021496 -0.014399365 -0.0449241 -0.06929808
0001b0 c0 94 28 3e 11 a7 46 3e de c4 42 3e e2 9e 7d 3e
       0.16462994 0.19399668 0.19020411 0.2476764
0001c0 a9 1e 22 3e 4d 79 3e 3e 43 bf 69 3e bc 7d 10 be
       0.15832008 0.1860096 0.22826867 -0.14110464
0001d0 7c f9 2e 3e 13 fc 85 3e 75 62 a4 bd 5c d1 48 be
       0.17087358 0.2616888 -0.08026592 -0.19611114
0001e0 e1 ec 66 be df c2 7e 3c 90 93 3c be 1f 9a 45 be
       -0.225513 0.015549391 -0.18415666 -0.19297074
0001f0 ca 4b 04 3e 01 46 5a 3e 14 40 46 be 38 07 8b 3e
       0.12919536 0.21315767 -0.19360381 0.27153945
000200 26 6e 45 3d c8 9a e7 3d eb c9 91 3e 77 c1 67 be
       0.04820075 0.11308819 0.28474364 -0.22632395
000210 bf fc 8d 3e 91 1e d7 3c 94 21 1d bd a1 56 54 3e
       0.27731892 0.026259692 -0.0383621 0.20736171
000220 95 7f ef 3d f3 5d e3 3c 78 89 32 bd 56 e3 4c bd
       0.11694256 0.02775476 -0.04358813 -0.050021492
000230 2d 53 f8 bb 22 4b d2 bd 0b 9e 43 be 87 14 96 3d
       -0.0075782747 -0.10268237 -0.19103257 0.07328134
000240 a2 9a 18 3e c2 17 57 be df af 5c bd 6b 5a 68 be
       0.14902738 -0.21005157 -0.05387866 -0.22690742
000250 9c 9c 8a be f8 2f b8 3d 40 6d 76 be ac 36 d1 bd
       -0.27072608 0.08993524 -0.24065113 -0.10215506
000260 d5 9e 33 be d2 15 75 3e ff 27 47 be 37 b0 ef bd
       -0.17541058 0.23934105 -0.19448851 -0.11703532

encoder_blocks.0.bias f4 [12]
000000 7f 4a 3c be 06 56 33 3d 0b bb 87 3e d9 ae ed bd
       -0.18387793 0.04378321 0.2650989 -0.11605615
000010 db 56 89 3e 52 ce 88 be 60 d0 88 3d 0f 9b e4 3d
       0.26824078 -0.2671991 0.066803694 0.111623876
000020 d1 a9 a6 3d 43 ce 94 bd 22 e4 be 3b a5 24 e1 3d
       0.08137859 -0.07265904 0.0058255354 0.109933175

encoder_blocks.1.0.weight f4 [12, 12, 13]
000000 f7 8b 5b bc ee 45 56 3d f9 54 91 3d 0a a3 d8 bc
       -0.013400069 0.052312784 0.070962854 -0.02644493
000010 7d f3 3a bd 99 db 7d 3d 74 1f 2e bd 7e 92 ac 3c
       -0.045642365 0.061977003 -0.042510465 0.021065947
000020 1b 97 46 bd d8 16 e4 bc 9c 67 19 bd c9 81 53 3d
       -0.04848395 -0.027842924 -0.037452325 0.051637445
000030 16 6e 5f 3c ff b0 78 3d cb 28 41 bd 00 71 a1 bc
       0.013637086 0.06071567 -0.047158044 -0.019707203
000040 72 e4 47 bd 91 ae 90 3c 9e e9 c8 3b d6 3b 56 bd
       -0.048801847 0.017661365 0.006131365 -0.052303158
000050 9e 97 e0 bc 0e 1a 9a bd 00 6d d5 bc d4 47 98 bc
       -0.027416047 -0.07524501 -0.026052952 -0.018588938
000060 74 9b 22 bd d8 b6 3d 3d 10 a8 23 bc 34 cf 8d 3d
       -0.039699033 0.04631695 -0.0099888 0.069242865
000070 d9 ca 94 bb 36 10 eb 3b e6 d6 66 bd d0 f9 91 bd
       -0.004540783 0.0071735634 -0.056357287 -0.07127726
000080 df 33 9c 3d f4 d8 ab bd 03 e3 68 3d da db 57 bc
       0.07627081 -0.0839099 0.05685712 -0.013174975
000090 52 56 52 3d 56 7a a7 3d 3d 65 91 3d 48 49 aa bd
       0.051351853 0.081776306 0.07099388 -0.083147585
0000a0 7a c9 0f 3d 39 0c 7b bd 26 98 01 3d 91 f3 11 3d
       0.035104252 -0.061290953 0.03163924 0.035632674
0000b0 75 04 8a 3d 2b 9b 7c 3d 3e dc 90 3c 63 58 79 bd
       0.06739131 0.061671417 0.017683145 -0.060875308
0000c0 fd 28 09 ba 57 cd 9a bd 4d 53 87 bd 6e 70 82 3d
       -0.0005232243 -0.07558697 -0.06607685 0.063691005
0000d0 4e f4 56 3b bd 02 32 3d 0f d0 0d 36 28 d4 94 bd
       0.0032799426 0.043459643 2.1131743e-06 -0.07267028
0000e0 04 a9 92 3d ac 48 2c 3d 61 2c bb bc 4a 83 62 3c
       0.071611434 0.042061493 -0.02284831 0.013825247
0000f0 1f 20 c3 3b f0 ce 32 bc 2e a1 73 bd 9c 58 8a 3c
       0.005954757 -0.010913596 -0.059479885 0.016887955
000100 4d 84 be bc 7e 31 30 3d 5b fd 1a bd d6 71 df 3c
       -0.023256445 0.04301595 -0.037839275 0.02727596
000110 b7 43 6a 3c 54 a1 44 bd 67 90 66 bd 8f a9 4c bd
       0.014298371 -0.048005417 -0.056290057 -0.04996639
000120 8f 4f 76 3d b0 75 91 bd 46 1f 2e 3d 15 bf 98 3d
       0.060134467 -0.07102525 0.042510293 0.07458321
000130 b1 8d 01 3d 31 56 37 bd 77 45 0d 3d 52 e5 af bd
       0.031629268 -0.044759933 0.034490075 -0.08588661
000140 f2 c0 7a 3b 7d e6 49 3d ac 47 a3 3d 6d 28 2e bd
       0.0038261977 0.049292076 0.07972655 -0.04251902
000150 40 ff 7a bd 1a af 7c 3c 37 6e 47 bd 07 8f 21 3c
       -0.06127858 0.015422607 -0.048689093 0.0098607605
000160 ae 75 5a 3d e3 11 86 3d 0b 44 cf 3c 35 fe 3b bd
       0.053334884 0.0654638 0.025301 -0.045896728
000170 14 2b c8 b9 13 ee f8 bc 0c 8b 40 bd 93 0f ad bc
       -0.00038179068 -0.03038696 -0.047007605 -0.02112559
000180 ad 46 0b bd 74 46 5e bd 56 78 80 3d 21 ac 4f 3d
       -0.03400295 -0.054266408 0.06272952 0.050701264
000190 7c 42 88 bd da a6 ce bb 31 cc a7 bc fa 96 82 3a
       -0.06653306 -0.0063065113 -0.020483108 0.0009963207
0001a0 83 47 8e 3d 5e 46 c7 bc e6 86 da 3a 58 84 9d bd
       0.069472335 -0.024325546 0.0016672283 -0.07691258
0001b0 6c 51 e7 3c f4 85 46 bd d2 4c 98 3c 74 d6 fc bc
       0.028237067 -0.04846759 0.018591318 -0.030863978
0001c0 91 7d 00 bc e6 39 34 3d 47 e1 14 3d 6c ea 6b 3d
       -0.007842437 0.04400053 0.036347654 0.05759661
0001d0 0c ab 84 3d 12 56 8a bc 13 b4 fb bc e1 f3 88 bc
       0.06477937 -0.016886745 -0.030725515 -0.016717853
0001e0 1e 5e 83 3b db e1 12 3d 6a 64 3b bd 4a 73 9e bd
       0.0040090224 0.035859924 -0.04575006 -0.077368334
0001f0 45 01 8f bd 41 e3 35 bc 97 35 9a bc 30 67 75 bc
       -0.06982664 -0.011101545 -0.018824382 -0.014978215
000200 2e 6f 04 bd 26 d1 78 bd 08 49 09 bd 7b 85 49 3c
       -0.03233259 -0.060746334 -0.033516914 0.012299891
000210 df 1b 89 bd ad 6e b3 3c b4 ee 13 bd 35 6e 8c 3d
       -0.06694769 0.02190336 -0.036116317 0.06856958
000220 24 47 6e bc 8e 9f 47 3b 89 88 2a bd 0d 0b ff bb
       -0.014543328 0.0030460092 -0.041634116 -0.0077833
000230 4b c0 86 bd 6e 4b 2b bd b4 e1 99 bc 10 e2 d9 bc
       -0.06579646 -0.041819982 -0.018784381 -0.026597053
000240 5b 74 3b 3d 1d e1 b2 bc f7 3f 89 bc ff 54 82 3d
       0.045765262 -0.021835858 -0.016754134 0.06363868
000250 17 d8 95 bd 2f 8a 8d 3c d3 bc 23 bd 50 9e d5 3c
       -0.073166065 0.017277805 -0.039975 0.026076466
000260 b6 27 1f 3d ff 23 0c bd 3a 76 42 3d ac 2d 9a bd
       0.03885623 -0.034214016 0.04747603 -0.075282425
000270 9b 72 01 bd 1f 0c 41 3d 95 c1 7f bd 86 ac 32 3d
       -0.031603437 0.0471307 -0.062440474 0.043621562
000280 b2 7e dc 3c 5a 29 92 bd 7b e1 8c bd b2 23 3c 3d
       0.026915882 -0.071367934 -0.068789445 0.04593248
000290 99 51 a3 3d 57 94 87 3d e1 42 27 bd e5 fd 55 3d
       0.07974548 0.066200905 -0.040835265 0.052244086
0002a0 14 a4 69 3d e0 5c 8f bd c1 3f 84 bd 4d 05 19 3d
       0.057041243 -0.070001364 -0.064574726 0.03735857
0002b0 04 90 82 3d c3 b7 6e 3d 34 c6 83 3d 51 86 27 3d
       0.06375125 0.058280718 0.064342886 0.04089958
0002c0 4f 1a a8 3d 83 4d d2 3c ca 87 cc bb 00 5c d6 3c
       0.08208143 0.025671726 -0.0062417733 0.026166916
0002d0 47 70 88 bd 82 26 82 3d 39 d6 96 3a 45 33 03 3c
       -0.0666204 0.06355001 0.0011507935 0.008007829
0002e0 72 04 a2 3d 7e 3d 8d 3d b0 04 8c 3b 6c 40 17 bd
       0.07911004 0.06896494 0.0042730197 -0.03692667
0002f0 10 ad 4a bd 69 53 3f bd 23 4d 31 3d f0 72 d7 bc
       -0.04948145 -0.046710405 0.043286454 -0.026299924
000300 4e 4a 90 bd 40 e3 fb 3c bd df b0 3d c1 eb a9 3b
       -0.070454225 0.03074801 0.08636425 0.0051855748
000310 b1 e3 43 3c 3c 14 77 3c 03 a9 d5 3c a1 35 83 3c
       0.011956141 0.015080508 0.026081568 0.016016783
000320 ca bb 05 bd 9e 19 88 bd d5 a3 9d bc 22 e6 da 3c
       -0.032649793 -0.06645511 -0.01924316 0.026721064
000330 d0 64 f6 bc 55 65 a8 3d 45 cc f5 bc a5 33 9b 3d
       -0.030077368 0.082224526 -0.03000463 0.0757821
000340 2d ae 3d bd fe 66 4f bd a6 97 0d bd 45 0f 7f bd
       -0.046308685 -0.05063533 -0.03456845 -0.06227042
000350 42 c5 5b 3c e0 4f 3e bc e0 76 36 3d dd 93 86 bd
       0.013413729 -0.011615723 0.04454696 -0.065711714
000360 d9 6d e6 bb 96 a0 80 bc bb 8b 5b 3d e1 73 42 bc
       -0.007032138 -0.015701573 0.053600054 -0.011868448
000370 46 ea c7 3c 95 c3 93 3d 41 18 49 bb 5e 25 90 3b
       0.024403702 0.07215039 -0.0030684622 0.0043989858
000380 c5 75 47 3d c0 64 a5 3b f2 6b 38 3c 8c 12 33 3c
       0.0486963 0.0050474107 0.011256205 0.010929715
000390 8f 5e b0 3c 84 db 51 3d 8c 2f a8 bc 0d 08 39 bd
       0.021529464 0.051234737 -0.020530485 -0.045173693
0003a0 ae 6f cb bc 51 e9 11 3d 62 02 09 3d 6c bf cb bc
       -0.024833526 0.0356229 0.033449538 -0.02487155
0003b0 41 7a 91 3d 52 65 85 bd ea 6b 7c bd f2 89 9d 3d
       0.07103396 -0.06513466 -0.061626352 0.076923266
0003c0 76 27 af 3c 29 6f 54 3d 42 e9 57 3c 4e 5e 8e bd
       0.021381121 0.051863823 0.013178172 -0.06951581
0003d0 71 ee 55 bb 34 33 91 3c cf 6b 51 bd d1 27 a0 bd
       -0.0032643343 0.01772461 -0.051128205 -0.078200944
0003e0 01 c5 04 bd 29 cc e9 bc 19 20 5f 3d d7 9f 89 3d
       -0.03241444 -0.028539734 0.05447397 0.0671994
0003f0 ae e9 60 bd b6 e7 ab 3b 0f 42 84 bc ac e2 8e 3b
       -0.054910354 0.005246128 -0.01614478 0.0043605175

encoder_blocks.1.0.bias f4 [12]
000000 8b e4 99 3b c0 3a bd bb d0 c6 f8 bc 6b c3 ae 3d
       0.004696434 -0.005774826 -0.030368239 0.08533367
000010 8e 76 a9 bd f6 40 79 3d 86 82 de bb b5 09 0f bd
       -0.08274566 0.060852967 -0.006790462 -0.034921367
000020 a2 c9 bc 3c 97 b2 94 3d f3 e7 f3 3d a5 d2 0a 3d
       0.023045365 0.07260626 0.11909475 0.033892293

encoder_blocks.1.2.weight f4 [12, 12, 13]
000000 c3 8a 82 3d 64 72 39 bd 73 64 59 3d f0 f1 97 3d
       0.06374123 -0.045275107 0.05307431 0.07419193
000010 28 e5 56 3d 5a ee 2b 3d eb 1d 4b 3c ac 8a 8d 3b
       0.052464634 0.041975357 0.01239727 0.0043195095
000020 96 af 0f bc e8 4a f1 bc c2 f0 57 bb 7d 45 0a bc
       -0.00876989 -0.029454663 -0.00329499 -0.008439419
000030 15 0f 86 3d 71 5d 52 bd 4e 6c 94 3c 2a 15 ec ba
       0.065458454 -0.051358644 0.01811805 -0.0018011678
000040 b2 a5 3e 3b 44 40 44 3d 09 51 a3 3d 0a c5 71 bd
       0.0029090461 0.04791285 0.079744406 -0.0590258
000050 b5 60 b2 3d 77 3c 65 bd 34 24 c0 3d 30 9d 88 bb
       0.08709852 -0.055965867 0.09381905 -0.004169129
000060 82 b9 7f 3d 2b 9d 7f 3d 0f 4e 49 bd 59 79 97 bd
       0.062432773 0.062405746 -0.049146708 -0.07396192
000070 5e 34 33 3d c5 62 87 3c cc bf 08 bc 51 98 ed bc
       0.043751113 0.01652659 -0.008346509 -0.029003294
000080 e1 8c 95 bd 4a 8f 43 bd 66 3f 99 3d 5d 49 07 3d
       -0.07302261 -0.047744073 0.074827954 0.03302895
000090 ef 86 6e 3d 1e 4a 14 bd 9d 3c 28 3d 27 5b 88 3c
       0.05823415 -0.036203496 0.04107343 0.016645027
0000a0 02 b7 00 bd 70 d6 b1 bb e3 89 fb 3c cc 7d b9 bc
       -0.03142453 -0.0054271743 0.030705398 -0.022642992
0000b0 a5 c5 7c 3d 00 02 1f 3c 5b c0 42 bd d3 a1 69 3c
       0.061711926 0.009705067 -0.047546726 0.014259773
0000c0 9d e8 96 3c 48 2f 84 bd f9 72 72 bd bf 09 91 3d
       0.018421466 -0.06454331 -0.059191678 0.07081937
0000d0 16 a6 88 3d 76 ec b5 3c a3 02 52 bd ab 48 21 bd
       0.066723034 0.02220748 -0.051272046 -0.039375942
0000e0 d2 07 b6 3c fd b2 fc bb 3a 0c 83 3b 17 1f 94 3d
       0.022220526 -0.0077117668 0.0039992603 0.072324924
0000f0 20 c3 04 3d d9 4c 63 bc c8 71 5f bd 43 c7 42 3c
       0.03241265 -0.013873302 -0.05455187 0.011888328
000100 ef e9 c0 3c d9 ec 8c 3d 2d f9 13 bd 0b 0c 7d bd
       0.023549048 0.068811126 -0.036126304 -0.061779063
000110 f1 e9 94 3c 1f 65 5f bd fc 0e 6f 3d 08 19 e9 bc
       0.018177958 -0.054539796 0.0583639 -0.028454319
000120 94 62 90 bd 4f d6 96 bd fe 0f 12 bc 84 0f 2d 3d
       -0.07050052 -0.07365095 -0.008914946 0.042251125
000130 87 c5 1d bd 73 97 7f 39 5e cb 03 bc bd e3 33 3d
       -0.038518455 0.00024375114 -0.008044092 0.04391836
000140 b8 74 0a 3d fc f4 ef bc 75 94 66 3c b5 17 05 3d
       0.033802718 -0.029291622 0.014073481 0.032493312
000150 37 ab a7 bb fa 1f 5a bc bb a0 82 3c 40 56 b8 3c
       -0.005116846 -0.013313288 0.015945783 0.022502065
000160 49 c7 58 bd fc 11 2c 3d 4c 42 b0 bc cb f8 a3 3d
       -0.052924428 0.04200934 -0.021515988 0.08006438
000170 cf d8 6e 3b 94 81 38 3d 11 a7 e6 3c 08 81 a6 3d
       0.0036445146 0.04504545 0.028155835 0.081300795
000180 e4 d2 90 3b b9 22 8c 3c 4b b5 96 bd 99 4f ec 3c
       0.0044196714 0.0171064 -0.07358798 0.028846549
000190 b8 35 70 3c 84 e3 24 bd 80 51 90 bd 9c ff ae 3d
       0.014661245 -0.04025604 -0.07046795 0.08544847
0001a0 72 99 8c bd c1 04 5d 3d de 3b 07 bc e2 b2 f3 bb
       -0.06865205 0.05395961 -0.00825402 -0.007437096
0001b0 b1 c2 89 bd 09 f2 15 3d 23 cb 1e 3d 08 4f f1 3c
       -0.067265876 0.036607776 0.038767945 0.02945663
0001c0 01 75 b0 bc d3 4f fb 3c 14 03 e4 bc 7f 65 2a 3d
       -0.021540167 0.030677712 -0.027833499 0.0416007
0001d0 ce f5 98 3a ab 64 8c 3d 36 d6 c4 bc 32 21 a7 bb
       0.0011669935 0.068551384 -0.024027925 -0.0051003927
0001e0 8b 8e 80 bd d1 e8 40 3d 43 21 ad 3d db 3f 88 3d
       -0.06277188 0.04709703 0.0845361 0.066528045
0001f0 22 57 96 bd 69 c9 81 3d ed 73 11 bc 50 1a 92 ba
       -0.07340838 0.06337244 -0.0088777365 -0.0011146758
000200 3a 36 16 3d bf 79 3f 3d 7b 2d 13 bd 17 25 b1 bc
       0.03667281 0.046746965 -0.035932045 -0.021624131
000210 b6 23 72 3d a4 5b 7a bd fa 5d 39 3d e3 0e 0c bd
       0.059116088 -0.06112255 0.04525564 -0.034193885
000220 d6 23 40 bd e9 42 9f 3d a6 41 51 bd 08 40 07 bd
       -0.046909176 0.07776434 -0.051087998 -0.03302005
000230 d0 89 ae 3d 9d c1 39 bd 74 f1 84 3d 55 63 9f bd
       0.085223794 -0.04535066 0.06491366 -0.07782618
000240 0b ca 9d bc 1b 43 68 bc f2 c4 ae 3d 48 9c 11 3d
       -0.01926138 -0.014176155 0.08533658 0.035549432
000250 af 88 ef bc 11 50 91 3d 5f ae ef 3c 43 65 93 3d
       -0.02923998 0.070953496 0.029257951 0.071970485
000260 0f dc ca 3c af 67 87 3d a5 d3 a9 3d 55 89 00 bd
       0.024763135 0.06611573 0.08292321 -0.03138097
000270 b6 12 41 3a 2f 3d e1 bb fb fc 88 bd 54 3b 6b bd
       0.0007365154 -0.0068737487 -0.06688877 -0.057429627
000280 9f d0 86 bc 88 86 b1 bd 49 af bd 3c 27 c3 5e bd
       -0.0164569 -0.08668238 0.023154872 -0.05438533
000290 c4 44 00 bd 88 fb 1c 3d 2b 8a 4e 3d f9 30 ab bc
       -0.03131558 0.038325816 0.050424736 -0.020897375
0002a0 ff 73 00 bd 0a e9 9f bd 90 53 f5 bc 76 ae 46 3c
       -0.031360622 -0.078081205 -0.029947072 0.012126556
0002b0 50 3a 1c bc 7d 07 77 3d 5e 7e b5 3d 4a 22 14 3c
       -0.009535387 0.060309876 0.08861993 0.009041378
0002c0 24 94 0d 3d d9 e8 97 3d 3b e5 54 3b 56 59 ac bd
       0.034565106 0.07417459 0.0032485265 -0.08415477
0002d0 ff fd 77 3d 84 c1 82 bd cf d6 47 bd fd cf 67 3c
       0.060544964 -0.063845664 -0.04878884 0.014148709
0002e0 12 97 8c 3d e3 17 e5 3c 9e ee 43 bc 10 2c 5c 3d
       0.06864752 0.027965492 -0.011958746 0.05375296
0002f0 5b 00 a5 bd b0 bf a5 3d 04 10 5e bc 50 4f e7 3c
       -0.080567084 0.08093202 -0.013553623 0.028236061
000300 23 d9 64 bc 51 51 a7 3d 86 41 d8 3b 4b c7 09 bd
       -0.013967785 0.08169807 0.006599608 -0.033637326
000310 38 97 92 3b 46 2b 2d bb 7f 0e 56 3d 65 da 04 bd
       0.004473593 -0.0026423498 0.05225992 -0.03243484
000320 2c 3c 89 bd 0d 06 d1 3b 4b 13 89 bd db 6e 4c bd
       -0.0670093 0.006378895 -0.06693133 -0.049910408
000330 58 30 8b 3d c3 fb 1b 3d bb 55 62 bd b4 a6 9b 3c
       0.0679633 0.038081896 -0.05525754 0.019000389
000340 22 74 49 3d 15 8d 10 bd 75 17 7d bb bf 76 80 bd
       0.04918302 -0.035290796 -0.0038618718 -0.06272649
000350 fd c7 1c bd ee 6e 98 3d 3e 1e 95 bd 30 a9 a0 3d
       -0.03827666 0.07443033 -0.07281159 0.0784477
000360 11 bc f8 bb 8e ce ca bc af ca b2 3c 0e 13 06 3d
       -0.0075907786 -0.024756696 0.021825163 0.032733016
000370 d8 72 10 bd cd 42 88 3d 51 19 73 3d 91 4f 4f bb
       -0.035265774 0.06653366 0.059350315 -0.0031633119
000380 b4 98 cf bc 9e d9 96 bd dc 05 44 3d 89 d5 18 3d
       -0.02534137 -0.07365726 0.04785715 0.037313018
000390 06 c3 87 bd b3 d3 97 3d 07 59 5b 3d 0a be 2d 3d
       -0.06628995 0.07413425 0.0535517 0.042417563
0003a0 aa 5d 96 bd e3 1b 8d 3d 74 da aa bb 09 71 91 3b
       -0.07342084 0.068900846 -0.00521403 0.0044385237
0003b0 f9 8a 33 bd 42 40 eb bb 62 f8 e3 bc a8 14 4d 3c
       -0.043833707 -0.007179291 -0.0278284 0.012517132
0003c0 f0 5a 85 3d 5a 1f e5 bc d4 36 6e 3c 36 99 87 3c
       0.065114856 -0.027969051 0.014539439 0.016552549
0003d0 dc 7f 01 3d f2 9e 16 3d 15 a2 bc bd 9a d0 59 3c
       0.031616077 0.036772676 -0.09210602 0.013294363
0003e0 73 d9 a4 bc 4c 51 46 3d 2c 33 98 3c 30 1b 78 bd
       -0.02012322 0.048417374 0.018579088 -0.060572803
0003f0 31 94 03 3d b6 99 8e 3d d4 9c 51 bd 89 e6 7c bd
       0.03212375 0.06962912 -0.051174954 -0.061743293

encoder_blocks.1.2.bias f4 [12]
000000 ef 6d 5e bc 8f e3 05 3d e3 e1 e4 3d e0 72 39 3d
       -0.013576015 0.03268772 0.11175897 0.04527557
000010 35 a7 c3 3c 26 9a 43 bd 2f 8b 5d bd ae 16 25 bd
       0.023883441 -0.04775443 -0.054087814 -0.040304832
000020 92 8c 3d 3d a4 ed be 3d ce bc a0 3d 53 f2 86 bb
       0.046276636 0.0932267 0.07848512 -0.0041182428

encoder_blocks.2.0.weight f4 [12, 12, 13]
000000 6f 78 95 3d e7 9c 30 bc 67 fb c2 3c fb 44 5b 3d
       0.072983615 -0.010779596 0.023801519 0.05353258
000010 7a 49 0e 3c 54 f3 3f 3d 42 2a 9f 3d c6 73 2d 3d
       0.00868451 0.046862915 0.07771732 0.04234674
000020 36 ef b5 3c ba c2 99 bd b0 78 48 3d 64 fc 6e bd
       0.022208791 -0.07507844 0.04894322 -0.058346167
000030 ef 48 8c 3d a1 66 ab bd 7f 0b a8 3d 73 3c 27 bd
       0.068498485 -0.08369184 0.08205318 -0.040829133
000040 fb 89 ce 3b be d2 ae 3c d4 dc 4f bd 95 ac a7 bc
       0.0063030696 0.021340724 -0.050747707 -0.020468036
000050 d2 74 30 3d f1 46 9a bd 43 5d 1a 3d b8 3c 6e 3b
       0.04308016 -0.07533062 0.037686598 0.003635211
000060 37 d4 26 3d 7c c7 58 bd 48 43 1b 3d 2d 2e 0e bd
       0.040729728 -0.052924618 0.03790596 -0.034712005
000070 b6 32 b9 bd 28 85 5c bd 4d 78 d5 3c 64 0d b7 3b
       -0.090428755 -0.053837925 0.02605834 0.005586313
000080 a5 fb 8e bd 4c 4a 46 bd 32 80 77 3c 08 eb 91 bd
       -0.06981591 -0.0484107 0.015106248 -0.07124907
000090 0c 7c 9b ba e0 c3 b8 bb 22 da 6d 3d 25 2d fc 3c
       -0.001186253 -0.0056385845 0.058069356 0.030783245
0000a0 11 94 af bd 95 8a 36 bc f9 10 5d 3d 11 d2 d6 3c
       -0.08573163 -0.011141439 0.053971265 0.026223214
0000b0 37 7b 54 3c aa 00 df b9 ff 05 15 bd 24 ae 80 bd
       0.01296883 -0.0004253437 -0.03638267 -0.06283215
0000c0 f6 58 98 3d 80 a4 7f 3c 59 81 ad 3b 14 a5 4a 3d
       0.07438843 0.015603185 0.0052949605 0.049473837
0000d0 47 d9 36 3d 45 f9 bf bc 1f dd f1 3c 3e 25 a9 3c
       0.044640806 -0.02343429 0.029524384 0.020647641
0000e0 8f 46 b3 3c af b0 8f 3d e9 3b 8b 3d 1a e3 a9 bd
       0.02188423 0.070161216 0.06798536 -0.08295269
0000f0 3e 98 82 3a fe 11 00 3d 4a 07 8c 3d 5f ce fe 3c
       0.0009963585 0.03126716 0.06837328 0.031104265
000100 ad 03 b0 3c 9e 2a c2 bc 19 ed bd 3c dd 2d 7e 3c
       0.021486128 -0.023701962 0.023184346 0.015513864
000110 45 16 91 bd 4f 06 90 bd 0f c9 90 bd 82 61 e1 bc
       -0.07084326 -0.07032453 -0.07069599 -0.027512316
000120 63 28 91 3d 77 b0 19 3d e5 02 9a bd ce fb ae 3a
       0.07087781 0.037521806 -0.07520083 0.001335019
000130 e1 73 0d bd 4f 9a 81 3d 86 f4 52 3d d0 ce 05 3c
       -0.03453434 0.0632826 0.051502727 0.008166984
000140 d2 c3 73 bc 67 af 36 3c d8 17 94 3b 0d d3 09 3c
       -0.01487823 0.011150218 0.004519444 0.008412135
000150 e3 47 8b 3c a5 22 ec bc ac ff ca bc 29 76 4f bd
       0.017002052 -0.028825114 -0.024780117 -0.050649796
000160 10 98 d6 bc ef ca 9e 3b 7c ba 7e 3d 1a 13 d9 bc
       -0.026195556 0.004845969 0.062189564 -0.026498366
000170 d2 f6 a0 bd 30 30 77 3d 98 2e f5 bb 77 08 31 bd
       -0.07859577 0.06034869 -0.007482361 -0.043220963
000180 bd 18 06 3d 59 99 73 bc 2c f9 60 bc 23 66 b7 3d
       0.032738436 -0.014868104 -0.013731282 0.08955028
000190 c4 b4 51 bd cd 98 dc 3c d0 1d 54 3d 29 f7 24 bd
       -0.051197782 0.02692833 0.051786244 -0.040274773
0001a0 17 14 d2 bc 9f d3 5b bd b5 83 59 3c dc 14 4e bd
       -0.025644345 -0.053668614 0.01327603 -0.05031286
0001b0 d3 8d 89 3d 36 43 a0 3d 54 51 e6 bc a1 1a 4a 3d
       0.06716504 0.078253195 -0.028114952 0.0493418
0001c0 a5 59 88 bd 37 8c 9c bb c7 b3 16 3d b9 db 8f bd
       -0.06657723 -0.004777457 0.036792543 -0.07024331
0001d0 0a 9b 1f bd cb 21 22 bd 16 3e ed 3b e1 07 1f 3b
       -0.038966216 -0.03958301 0.0072400672 0.002426617
0001e0 7e eb 8d bd 32 6d 86 3d 2e 89 a6 bd 12 3c 0e 3d
       -0.06929682 0.06563796 -0.08131634 0.034725256
0001f0 5c 1a b3 bc 65 3c 69 bd 42 72 0c 3c 8d 6b 17 bd
       -0.021863155 -0.056942362 0.008572163 -0.036967803
000200 1b 36 30 bd d2 12 76 bd af aa 89 bd f7 4b 8a bd
       -0.04302035 -0.060076542 -0.067220084 -0.067527704
000210 bc 42 a5 bd df ad 83 bc d0 d0 a5 3c a4 40 da 3c
       -0.08069369 -0.01607412 0.020241171 0.026642151
000220 57 25 94 3d 07 32 93 3a 29 8a 42 bb 3b 6d 87 3d
       0.072336845 0.0011230119 -0.00296844 0.06612631
000230 5c 20 17 3d 26 70 fe 3c 17 48 54 bd e9 1d 98 3c
       0.036896095 0.031059336 -0.051826563 0.01856895
000240 39 86 91 bd 82 7e 62 bd b3 45 88 3d a0 57 7d bd
       -0.07105679 -0.05529643 0.06653919 -0.061851144
000250 fc 80 49 bd 8c 3f 1a 39 dd 2f d5 3c 6f 49 51 3a
       -0.049195275 0.00014710258 0.0260238 0.000798366
000260 e9 4e 8d 3c 72 10 af 3d 8e f0 6b bd c3 7e 71 3d
       0.017249541 0.085480586 -0.057602458 0.05895878
000270 6f f5 6b 3d af 7e 27 bd 38 79 ee 3b da 6f 52 3d
       0.05760711 -0.0408923 0.007277634 0.0513762
000280 04 44 0a bd 05 9c 11 3d 2b cf 81 bc cc 3e 05 bc
       -0.03375627 0.035549182 -0.015845856 -0.008132648
000290 c0 2e 87 3c 6f 15 5e 39 e9 a3 22 3d d5 0b 90 3d
       0.016501784 0.00021179554 0.0397071 0.07033507
0002a0 99 7e 09 bd f2 69 b7 3d 1a 32 29 3d 22 4d 77 bc
       -0.033568 0.08955754 0.041307546 -0.0150940735
0002b0 a6 c4 4b bd d9 47 0c bd 15 30 14 3c 1a 08 24 3d
       -0.049748085 -0.034248207 0.009044667 0.04004679
0002c0 41 a5 a9 bc b5 2a 03 bb 97 86 61 3d 3c 5f 28 3d
       -0.020708682 -0.002001447 0.055059996 0.041106448
0002d0 48 35 ed bc 35 d5 a2 3d e4 e4 44 3b ed 0b eb 3c
       -0.02895607 0.07950822 0.0030043656 0.02869221
0002e0 2f 9a 0a bd ac c1 5c 3d f2 95 92 3d 3f ac b2 3b
       -0.033838447 0.053895637 0.07157506 0.0054526622
0002f0 4a 16 52 bc 42 47 d7 3c e4 27 5b bd d2 64 ab bc
       -0.012822697 0.026279096 -0.05350484 -0.020922098
000300 10 b3 e9 3c 7b 5f 5d 3b de 17 8e 3d e4 3c 98 3d
       0.028527766 0.0033778835 0.06938146 0.07433489
000310 c2 c1 88 3d 83 99 81 3d 36 26 55 bd 1b 05 92 3c
       0.06677581 0.06328108 -0.052038394 0.0178247
000320 0f 3f b9 3c e2 9c 40 3d 10 70 b6 bc dc dc 04 3d
       0.022613076 0.047024615 -0.022270232 0.03243719
000330 1f db ad b9 1e 93 85 3d 7f e3 e3 bb 1b f0 23 bc
       -0.0003316039 0.06522201 -0.00695461 -0.010005976
000340 1d f5 b2 3c fa 1d 9f 3b 86 fc 02 3d 51 b4 96 3d
       0.021845395 0.0048558684 0.031979106 0.073586114
000350 9f 4d 5c bd bd 8b 56 3d 0f a1 5c 3c 5b b0 c3 bc
       -0.053784963 0.05237936 0.013466134 -0.023887804
000360 83 a2 44 bd 1e fc 95 bd 9c fc 95 bd e8 e5 02 3d
       -0.048006546 -0.07323478 -0.07323572 0.031957537
000370 24 79 6e 3d ab 6a 62 3c 37 0a 2f 3d a1 40 57 bb
       0.058220997 0.013819377 0.04273435 -0.0032844918
000380 dd 23 8c bd 9a a8 56 3d 82 67 98 3d 37 46 76 bd
       -0.06842778 0.052406885 0.074416175 -0.060125556
000390 3b 89 d5 bc f1 6b 88 3d 70 50 f3 bc 46 5e 6b bd
       -0.026066413 0.06661213 -0.029701442 -0.057462953
0003a0 e4 4a f3 3c 41 01 6a 3d db 4b 88 bd 45 32 fc 3c
       0.029698797 0.057130102 -0.06655093 0.03078569
0003b0 69 ca ec 3c 87 11 56 bd 47 31 6d 3d 5f 1a 8a bd
       0.02890511 -0.05226281 0.057908323 -0.06743311
0003c0 6f e3 f5 bb c8 ae 33 3a 18 d8 53 3d c3 94 0d 3d
       -0.007503919 0.00068543525 0.051719755 0.0345657
0003d0 5c cb 9a bd d4 7d 90 3d 05 84 4e bd 27 4d 2e bd
       -0.07558319 0.0705525 -0.050418872 -0.042554047
0003e0 fe b3 f7 ba 38 44 2f bd 29 67 30 3d 7d e9 42 3d
       -0.0018898246 -0.042789668 0.04306713 0.047585953
0003f0 15 5b d4 bc 82 37 09 bc 99 77 1e 3c d8 95 0c bd
       -0.025922338 -0.0083750505 0.009672069 -0.03432259

encoder_blocks.2.0.bias f4 [12]
000000 c8 41 9e bc c1 c1 b2 3d 46 6f 75 3b 38 ed 0c 3e
       -0.019318476 0.08728362 0.0037450357 0.13762367
000010 18 97 4a bc 17 0c 8f 3d cf 95 d7 bd b0 6a b5 3d
       -0.012365125 0.06984728 -0.105266206 0.0885824
000020 a8 62 af 3c c7 dd b8 bd c0 b0 c8 3d f7 9d de 3d
       0.021409348 -0.09026676 0.097993374 0.10869973

encoder_blocks.2.2.weight f4 [12, 12, 13]
000000 e2 4b b0 bc 1a 06 aa 3d 68 6d 30 3d c5 99 61 3b
       -0.021520559 0.08301945 0.043073088 0.003442393
000010 a3 82 75 bd ea e7 82 3a b3 a7 ba bc e5 d1 5a bd
       -0.059939038 0.0009987329 -0.022785043 -0.053422827
000020 af 61 d5 bc b2 b0 fb bc 56 7e 26 3c 66 13 34 bd
       -0.026047556 -0.030723903 0.010161957 -0.043963812
000030 ed 4b 64 3d ec df 87 bc 59 af 94 3c f4 93 73 3d
       0.05573647 -0.016586266 0.018150019 0.05946727
000040 5d a0 18 3d 00 3d 18 3d 22 70 77 bd 9f 2f a2 3d
       0.03726231 0.03716755 -0.060409673 0.07919239
000050 e0 6e a9 bc 15 bd 98 bc 17 7c 80 bd ca 96 36 3d
       -0.020682752 -0.018644849 -0.06273668 0.044577397
000060 8e 4e 80 3d 31 d4 fb bc b1 5b e1 bc f9 a1 7e 3d
       0.06264983 -0.03074083 -0.027509542 0.062166188
000070 30 54 8e bd d3 f2 ae bc 82 42 7a 3c 6c 7a 38 3d
       -0.06949651 -0.021356022 0.015274646 0.045038626
000080 63 cc 4e bd 4e e1 33 bd c1 4c ab 3d e6 ee 9b bd
       -0.050487887 -0.04391604 0.08364249 -0.07613926
000090 49 9b 5e bd ce 76 4a 3d a9 c3 57 bb 29 c4 cd 3c
       -0.05434731 0.049429707 -0.003292302 0.02511795
0000a0 30 74 4f bd ab a4 18 bd 56 16 04 bd 8a 79 84 3d
       -0.050647914 -0.037266415 -0.032247864 0.06468494
0000b0 60 26 47 3d 86 05 7a bc b3 59 96 3b 61 c4 12 3c
       0.04862058 -0.015260106 0.0045883297 0.008957953
0000c0 c9 30 cf 3c 92 bb 16 bd dd 43 5b bd 4d e8 9a 3d
       0.025291817 -0.036799975 -0.053531516 0.07563839
0000d0 20 e2 20 3b 9c b5 91 bd 14 e9 fe 3c be a7 62 bd
       0.0024548844 -0.07114717 0.031117 -0.055335753
0000e0 32 20 92 bc 38 47 74 bc c6 86 61 bd 80 14 c3 ba
       -0.017837618 -0.014909558 -0.05506017 -0.0014883429
0000f0 80 75 1e 3c 70 5f fa bb 60 a2 7b bb a0 d7 e4 bb
       0.009671569 -0.0076407716 -0.0038396344 -0.0069837123
000100 08 4c 7f 3c f1 ec 52 3d e1 bf 66 bd c3 34 bb 3c
       0.015582092 0.051495496 -0.056335334 0.022852307
000110 f9 f5 ae 3c 99 93 2a 3c 81 c5 77 3b da 9f 4b bd
       0.021357523 0.010411167 0.003780693 -0.049712993
000120 b8 63 3b 3d da eb 50 3d 65 43 57 3d 1c eb 38 bd
       0.045749396 0.051006176 0.052554507 -0.045146093
000130 9e 1e 32 bd 25 c9 a7 bb d1 9a 5b 3c 59 85 57 bd
       -0.04348623 -0.005120414 0.01340361 -0.052617405
000140 2b 40 24 bd cc 33 b8 bb 22 4d 19 3d 08 11 fa 3c
       -0.040100258 -0.005621409 0.037427075 0.0305257
000150 8e 02 0f 3d b9 61 4b 3c 05 15 ae bd 25 63 67 3d
       0.034914546 0.012413436 -0.08500103 0.056491036
000160 ba 8c 7a bd 9f e5 53 bd c8 8a 82 3b d5 c0 a5 3c
       -0.061169364 -0.051732656 0.003983829 0.020233551
000170 af 36 1a 3d 87 a8 1c 3d 17 8d 92 3d 83 c9 80 bc
       0.037649807 0.038246658 0.07155817 -0.015721088
000180 b8 cb 80 3c 21 b4 cf 3d e4 c0 b8 bc 80 ba a7 3d
       0.01572214 0.10141779 -0.022552915 0.08189869
000190 5c ab b3 3c 88 3c ce 3d 27 d0 ce 3d ad 46 d6 bb
       0.021932296 0.10070139 0.10098296 -0.006539187
0001a0 3b d1 be bb a4 58 98 bd ef 6e 85 3d 29 bc 93 3d
       -0.005823282 -0.07438782 0.065152995 0.07213623
0001b0 77 c1 22 3c 25 da 86 bd 83 b1 e5 3c 9e 7a 55 3d
       0.009933821 -0.065845765 0.028038746 0.05211889
0001c0 01 f1 a9 bc f2 68 38 bc 62 80 4a bd 42 18 3f bd
       -0.020744802 -0.01125549 -0.04943884 -0.046653993
0001d0 58 cc 4e bc 1a e6 76 bd 93 7a 93 3d 5b 3d 32 bd
       -0.0126219615 -0.060278036 0.072011136 -0.043515544
0001e0 cd fe bc 3c 6a 54 a2 3d 3b ae 02 3d 4c eb 82 bd
       0.023070717 0.07926257 0.03190444 -0.063925356
0001f0 f3 5d 8f bc 13 60 9a bd 57 dc 88 bd d0 63 56 bb
       -0.017500853 -0.07537856 -0.066826515 -0.0032713301
000200 4b 57 a3 3c f6 05 5b 3d d6 b6 1f bd b2 9b 10 3d
       0.019939085 0.05347248 -0.038992725 0.035304733
000210 21 e3 2b bc f2 2f 03 3d 50 14 2c 3d 5b 10 85 bd
       -0.0104911635 0.032028146 0.04201156 -0.0649726
000220 56 c2 82 bc 73 70 8c 3c e8 14 5d 3d 93 75 4a 3b
       -0.015961807 0.017143464 0.053975016 0.0030892834
000230 88 a9 75 3d 85 e1 06 bd 92 0d 13 3d 17 41 40 bd
       0.05997613 -0.032929916 0.035901614 -0.046937075
000240 00 fa c7 bc 7d 56 f6 3c 58 fc ce 3b 3a 65 8c bd
       -0.024411201 0.030070538 0.006316703 -0.06855245
000250 6f 54 74 bd ef 50 ac 3d 92 11 2c 3d 92 9c 8f bc
       -0.059650835 0.08413874 0.042008944 -0.017530713
000260 7a 07 77 bd 2a 4d 99 3c 69 25 59 bb 2c 93 1d bd
       -0.060309865 0.018713553 -0.003313387 -0.038470432
000270 ea 70 84 3d 0b f9 7c bd b5 05 bc 3d 8a ff 58 bd
       0.06466849 -0.061760943 0.09180776 -0.052978076
000280 2f 97 29 3d d0 30 97 3d 2b ff ae bc 5c 9a 2c 3d
       0.041403946 0.07382357 -0.021361908 0.042139396
000290 f6 62 d0 3b 53 ce 44 3d d0 6e 6d bc a1 d3 4c 3d
       0.0063594533 0.04804833 -0.014491752 0.050006513
0002a0 1e 67 e2 bc 04 17 f8 bc 10 ef 80 3d 58 28 17 bc
       -0.02763706 -0.030284412 0.062955976 -0.009225927
0002b0 84 50 85 3d 49 61 98 3b f7 d8 82 3d 42 f4 3d 3d
       0.06509498 0.004650269 0.06389039 0.04637552
0002c0 73 7e fe 3c 4e 40 d3 bc 41 36 b7 bc b3 a9 5d bd
       0.031066155 -0.025787499 -0.022364737 -0.054116916
0002d0 7e 08 4d 3d 3f 65 3a 3c 6a a9 1c 3c 94 bb 33 bd
       0.050056927 0.011376678 0.009561876 -0.04388006
0002e0 e4 15 0d bc ea 1d fe 3b 18 f8 ef 39 5c c9 8f 3c
       -0.008611176 0.007755031 0.00045770477 0.01755207
0002f0 59 85 36 3d 25 47 d1 3c 77 8e 1c bd 1a 0c 38 3c
       0.044560764 0.02554662 -0.038221803 0.011233354
000300 0f 60 a2 3d 05 77 70 bd 3d da 04 bd 82 ec 02 bd
       0.07928478 -0.058707256 -0.03243469 -0.031963833
000310 87 93 97 3d 83 28 95 bd 46 d4 96 3d e3 59 40 bc
       0.074011855 -0.072831176 0.07364707 -0.011740181
000320 3c 07 63 3d 3a 45 8d 3d 57 4a a1 bc f3 27 5e 3d
       0.05542682 0.068979695 -0.019688768 0.054237317
000330 a7 b3 00 3d e6 9a 1e 3d e8 9a 82 bd 92 54 86 3b
       0.03142133 0.03872194 -0.06377202 0.004099437
000340 f2 fd 2f bd d0 49 91 3d 34 1e 18 bd 00 36 4b ba
       -0.04296679 0.07094157 -0.03713818 -0.0007751882
000350 e4 cb 09 bd 50 10 8f 3d 1c 1b 5d 3d 9c 1e 4e bd
       -0.03364171 0.06985533 0.05398093 -0.05032216
000360 cc 3f 73 3d 3e 1b 0e 3d 00 48 0c 38 cf c1 23 bd
       0.059387013 0.03469395 3.3445656e-05 -0.039979752
000370 80 23 5f 3b 30 7d 75 3d 9f 78 6d 3c fe 96 65 bb
       0.003404826 0.05993384 0.01449409 -0.0035032625
000380 51 91 94 3c ec 8e 93 3d 97 9b cf 3c a2 79 5c 3d
       0.018135699 0.072049946 0.025342746 0.053826936
000390 a1 76 bb 3c 35 79 f4 bc 19 1b c7 bc 37 ae a2 bd
       0.022883715 -0.029842952 -0.024304913 -0.07943385
0003a0 4f 3a ea bc cb 9f 54 3c 00 f9 b8 3c 94 18 23 bd
       -0.028592257 0.012977551 0.02257967 -0.03981836
0003b0 67 9f b5 3c 2c e1 4b bd 2b c8 88 3d c9 4e b6 bc
       0.022170736 -0.049775288 0.06678804 -0.022254365
0003c0 e0 f1 b0 bc 21 fd 68 bd 2f 35 21 3d ed 54 a1 3d
       -0.02159971 -0.056882028 0.03935736 0.078775264
0003d0 ff 94 5d 3c e7 17 3f 3d dd d8 c4 3b ce 66 8e bd
       0.013524293 0.046653654 0.0060072974 -0.06953202
0003e0 28 0e 93 bd c2 1a 7d bc ae 91 4c 3d 5b 96 53 bd
       -0.071804345 -0.015448274 0.04994362 -0.051657062
0003f0 ef 8b 66 3c dc 19 ca b9 ec d2 8e bc c5 02 b1 bd
       0.014071449 -0.0003854771 -0.01743456 -0.08643106

encoder_blocks.2.2.bias f4 [12]
000000 1f b9 ab 3d 98 31 81 3d 9f 83 45 3c 63 b9 2a bd
       0.083849184 0.063082874 0.012055307 -0.041680705
000010 e0 73 de bb 61 c9 81 3d 06 98 0a 3e ed 54 3c bd
       -0.0067887157 0.06337238 0.13534555 -0.04597943
000020 26 f7 80 3d 0b 59 8e 3d 31 f6 ec 3d a7 60 20 bd
       0.0629714 0.06950577 0.11570395 -0.039154675

encoder_blocks.3.0.weight f4 [12, 12, 13]
000000 8c 45 9e 3d af 75 e7 3c 9f 1a 03 bc 5d 3a 44 bd
       0.07728109 0.028254358 -0.008001952 -0.047907222
000010 33 c6 7e bc 4f e0 3e 3d 8a 75 75 bd 3f 9a 23 bd
       -0.015550184 0.046600636 -0.059926547 -0.039942022
000020 da b3 47 bd 9e e0 7d 3d 32 af a2 3d d0 b1 33 bd
       -0.048755504 0.06198179 0.07943572 -0.043870747
000030 25 e5 85 bd e3 e0 62 bd 80 ca 8d 3d e8 a1 ef 3c
       -0.065378465 -0.05539025 0.069233894 0.029252008
000040 f0 fa 36 3d 43 a0 b0 3c 8a 60 70 bc e9 6b 57 3d
       0.044672906 0.021560794 -0.014671454 0.052593146
000050 e8 3e 94 bd 7a 08 f9 bc a2 be bb 3a 6d 55 15 bd
       -0.07238561 -0.03039955 0.0014323781 -0.03645842
000060 de f6 da 3c d6 38 95 3c 87 3d 4b 3d 5d 32 8a 3d
       0.026729044 0.018215578 0.049619224 0.06747887
000070 11 ca 74 3d a2 e2 3e bc 15 70 4e 3c e1 6e 51 bc
       0.059763018 -0.011650713 0.012599965 -0.012782783
000080 af 18 2c bd e1 aa 16 3c 59 d3 65 bd 11 d7 68 bc
       -0.042015728 0.009196014 -0.05610976 -0.014211432
000090 39 3f 8d 3b 32 7c 89 3c c4 10 8d 3c ff cc 3b 3d
       0.0043105152 0.016782854 0.017219909 0.045849796
0000a0 b2 6b 32 bd c7 ed d8 3c 25 9b 47 bc cc 7a 65 3d
       -0.043559738 0.026480569 -0.012182985 0.05602531
0000b0 be ba 76 3d b9 3e 1a bd 60 1c 11 bc f1 9f 00 3d
       0.060236685 -0.037657473 -0.008856863 0.031402532
0000c0 93 56 9b 3d 45 f9 23 bd 93 28 d1 3c 9c c5 f1 bc
       0.07584872 -0.040032644 0.025532043 -0.029513173
0000d0 1e 89 87 bd 65 cd 2c 3d 24 3a 76 bd 2b 03 23 3d
       -0.0661795 0.042188067 -0.06011404 0.039797943
0000e0 e5 aa 86 3d a4 92 19 3d 49 11 66 bd 20 fc 89 bd
       0.06575564 0.037493363 -0.05616883 -0.06737542
0000f0 07 36 2e bb ac 41 80 3c b3 64 fd bc 0a 4e 8b 3c
       -0.0026582496 0.015656315 -0.030931806 0.017004985
000100 aa c2 a9 bc f7 09 91 bd 1c 25 2c bd 28 6f b9 bc
       -0.020722706 -0.07081979 -0.042027578 -0.022636011
000110 af 7f 80 3d bc 4c 85 bd 5d 6f a9 39 ff f6 a8 3d
       0.06274354 -0.065087765 0.00032317164 0.08250236
000120 1b 94 fa 3b 36 66 53 3c a2 22 bb 3b c4 d5 4e bd
       0.00764705 0.012902787 0.0057109157 -0.05049683
000130 07 04 1b 3d e0 d0 33 3d 3f 27 39 bd f6 09 c4 3b
       0.037845638 0.04390037 -0.045203444 0.0059826327
000140 26 97 14 3d 38 5e 47 bd 0b e2 03 bd 5d cf 18 bd
       0.03627696 -0.04867384 -0.032197993 -0.037307132
000150 99 7d ae bb a3 01 88 3d 8c e0 ae bd 95 d8 9b 3c
       -0.005325031 0.06640937 -0.08538923 0.019024173
000160 ee 4d 1e bb 77 bc ce bc d9 87 9d 3d a0 d2 a4 3d
       -0.0024155336 -0.025236351 0.076919265 0.08047986
000170 f6 a7 59 3d c8 45 fa ba bc 34 7a bd 71 1c 7b bd
       0.053138696 -0.0019094283 -0.061085448 -0.06130642
000180 f1 7a f8 bb ba 75 4b 3d ed f5 17 3d 44 34 a7 3c
       -0.007583015 0.04967282 0.037099767 0.020410664
000190 8c 3c 71 3d 76 72 3b 3c 2f 1b 77 3d e3 44 8a bd
       0.058895633 0.011440864 0.06032866 -0.0675142
0001a0 04 c4 d7 bc 3c 8b 03 3d 1e bf 1f bc 9d 20 58 bd
       -0.026338585 0.032115206 -0.009750156 -0.052765477
0001b0 f1 ae e1 bc 80 71 9b bb 16 46 54 3d e5 67 97 bd
       -0.027549239 -0.004743755 0.05182465 -0.07392863
0001c0 34 07 76 3c 3c f4 87 bd 97 a7 2b bd 6a 22 88 3d
       0.015016366 -0.06638381 -0.041907873 0.06647189
0001d0 fa a6 2f bd 61 bb 8f bd 42 38 8f bc 9c 28 8d 3d
       -0.04288385 -0.070181616 -0.01748288 0.06892511
0001e0 6c d4 a0 bb e4 17 94 bb 04 6c 46 bd cf 94 9b bd
       -0.004908135 -0.0045194495 -0.048442855 -0.07596742
0001f0 08 d8 cd 3c b1 1b 88 3b 52 7a 01 3c 66 14 85 bd
       0.025127426 0.0041536917 0.007902699 -0.06498031
000200 d2 7b 37 3d 3a 27 5f bd 87 16 1e bb 3b 7b 97 bd
       0.04479582 -0.05448077 -0.0024122314 -0.07396551
000210 f7 80 d2 3b c0 52 3d 3d 0e 50 19 3c 82 1c 89 bc
       0.006424065 0.046221495 0.009357465 -0.016737226
000220 b1 bf 82 bd e0 be 1a 3d 1e 05 f8 bc 1d 7d 16 3c
       -0.063842185 0.03777969 -0.030275878 0.009185103
000230 bf f2 a0 bd 5b 8c 98 3d 9f 31 c6 bc 76 36 84 3d
       -0.078588 0.07448646 -0.024193583 0.064557
000240 ae 69 0a 3c a5 97 f3 bc 53 f7 06 3d b1 c7 a8 3d
       0.008448048 -0.029735396 0.03295071 0.08241213
000250 48 41 00 bd 18 50 d3 3c 02 01 60 3d dd 1f 80 bc
       -0.031312257 0.025795028 0.05468846 -0.015640194
000260 35 8e 51 3c 90 e5 f4 3c 78 ab 76 3d de a7 9c bd
       0.012790252 0.02989462 0.06022212 -0.076492056
000270 dc c7 bb bb d2 49 4d 3a b6 1f e2 bc 32 99 da 3d
       -0.005730612 0.00078311295 -0.027603012 0.10673751
000280 d0 7c d3 3d 67 01 5f bd dd 86 00 3e c8 89 92 3d
       0.103265405 -0.054444697 0.12551446 0.07155186
000290 7a 46 35 bd cf bf ea 3d d5 9b fb 3c 13 33 9a 3d
       -0.044256665 0.11462366 0.030713955 0.07529273
0002a0 e4 a7 79 3d 6c 29 e6 bc 0c 15 99 bd ff f3 9a bd
       0.06095113 -0.028095923 -0.074747175 -0.0756607
0002b0 44 5f d2 bb 65 09 06 3d ae 8d 87 bd 67 73 86 3b
       -0.006420048 0.032723803 -0.0661882 0.0041031125
0002c0 54 76 70 3d 0f e1 87 3d 92 7c c9 bc d4 72 09 3d
       0.058706596 0.066347234 -0.024595533 0.033556774
0002d0 10 b0 b3 3c 89 26 a1 3d 44 4c 21 3c 78 a1 d4 3c
       0.02193454 0.07868678 0.009844843 0.0259559
0002e0 2e 1e 82 bd bf 4c a2 3d d6 63 c3 bc d5 45 80 3d
       -0.063534126 0.079247944 -0.023851316 0.062633194
0002f0 24 eb 45 bc 91 44 33 bd 78 aa 27 bd 50 33 a3 3d
       -0.012079988 -0.043766562 -0.040934056 0.079687715
000300 af 8b 19 bd 37 84 6c bd f9 1f 56 bb 4f 44 72 bd
       -0.03748673 -0.057743277 -0.0032672866 -0.059147175
000310 41 79 99 3c de 4a 43 3d 99 b7 b6 3b 78 e0 48 3c
       0.018734576 0.04767882 0.0055760858 0.012260549
000320 7e 9a af 3c 93 07 74 3d 96 34 e9 bc 84 25 82 3d
       0.021435972 0.059577536 -0.028467458 0.06354812
000330 3f 30 f9 bc ad 23 cc bc 9d c6 88 bc 31 74 8c 3d
       -0.030418513 -0.024919355 -0.016696269 0.06858099
000340 0b db 03 bd 7c c7 66 3d 05 c0 93 bd ed e0 3f 3c
       -0.032191318 0.056342587 -0.07214359 0.011711341
000350 95 f4 3f bd 90 52 99 3d 77 b3 94 bd 73 13 08 3d
       -0.04686411 0.07486451 -0.07260793 0.033221673
000360 1c ba 29 3d 58 7b f4 3c 15 e1 13 bc 4f 8f 77 3d
       0.041437253 0.029843971 -0.009025832 0.060439404
000370 6f 0c 45 3c c0 b4 89 bc 0d 5f db bc 6e 8e 1b 3d
       0.01202689 -0.016809821 -0.026778722 0.03797763
000380 9b f8 6b bd 81 81 c3 bc a6 e2 7f 3d ba 6b 61 bd
       -0.057610136 -0.023865463 0.06247201 -0.055034377
000390 7a 1e 62 3d 08 8f 1c bd ae 36 e2 3c a1 ef 66 bc
       0.055204846 -0.038222343 0.027613964 -0.014095218
0003a0 db ef 1d bc e0 67 8f bc a2 6f 7c 3d e8 d8 ee 3d
       -0.0096397055 -0.017505586 0.0616299 0.11662465
0003b0 98 17 45 3c c8 17 cb 3d e3 63 dc 3d c0 94 b5 3d
       0.012029551 0.09916645 0.107612394 0.088662624
0003c0 d2 f1 0a bb a8 70 8d 3d 96 d7 5e 3d 9d 15 e7 3c
       -0.0021201265 0.06906253 0.054404818 0.028208548
0003d0 a8 39 01 3d 90 0a a7 3d 8e 6c dc 3d 8d 31 63 3c
       0.031549126 0.081563115 0.10762893 0.013866794
0003e0 16 e2 d1 3a 70 a2 4d bb b3 84 b6 3b e0 99 0d bd
       0.0016012813 -0.0031377338 0.005570018 -0.034570575
0003f0 ff f5 7f 3d e1 bf 15 3c fc f4 1e bb b3 96 9d bd
       0.06249046 0.009139986 -0.0024254909 -0.07694759

encoder_blocks.3.0.bias f4 [12]
000000 dd a9 44 bd 80 2b a6 3d 25 d3 ce 3d 33 59 a3 bc
       -0.048013557 0.08113766 0.100988664 -0.019939994
000010 af 58 1f bd 87 41 cc 3d f2 64 04 bd 3f 48 4d bd
       -0.038902935 0.09973436 -0.03232283 -0.050117727
000020 59 5e cb 3c 04 5f b0 bd 99 45 26 3d 73 5e 1d 3d
       0.024825262 -0.08611873 0.040593717 0.038420152

encoder_blocks.3.2.weight f4 [12, 12, 13]
000000 c4 76 dd 3b 00 a5 68 bd 41 4a 53 bc 40 26 5a 3d
       0.0067585427 -0.05679798 -0.0128961215 0.053259134
000010 3f aa 14 bd 4b f5 83 bd 30 50 08 3d 19 38 2f bc
       -0.03629517 -0.0644327 0.033279598 -0.010694527
000020 32 54 53 bd a1 26 10 bb aa 16 3f bd ff 0e 07 3d
       -0.051593967 -0.002199568 -0.046652474 0.032973286
000030 ad a3 fc bb 91 79 d8 3c 48 56 52 bb c3 89 2b bc
       -0.0077099414 0.026425155 -0.0032094885 -0.010469857
000040 64 43 fd bc 4a d2 30 bd 33 25 24 3c 4a 79 85 bd
       -0.030915923 -0.043169297 0.010018635 -0.06517275
000050 32 9d 70 3d b2 06 06 bd fa f2 16 bc 61 53 87 3d
       0.058743663 -0.03272123 -0.009213204 0.066077
000060 86 79 0b 3d 6a a6 41 3d 2a 74 5e ba 39 fc 25 bd
       0.03405144 0.047277845 -0.0008485938 -0.04052374
000070 f2 bc f4 3c 48 da 84 bd c5 0c d6 3c b1 82 89 bd
       0.029875252 -0.06486946 0.026129136 -0.067143805
000080 65 45 4c 3d 44 81 5d bd 02 9a 7f bb 52 c5 a1 3d
       0.049870867 -0.054078355 -0.0039001708 0.07898964
000090 ee 13 72 3b 83 ae 5c ba 73 d4 1c bd 77 ab 4f bd
       0.0036938149 -0.0008418338 -0.038288545 -0.05070063
0000a0 a8 13 77 3d 2e b6 97 bd 13 90 84 3b 59 f8 a1 3c
       0.06032148 -0.07407795 0.0040454953 0.019771742
0000b0 71 72 21 3d f2 8e 4f 3c 9c f2 ff 3c e5 33 fe bc
       0.03941578 0.012668358 0.031243615 -0.031030605
0000c0 25 d6 03 bd 54 73 8b 3d 66 96 8b bd 4e 0f 9a 3b
       -0.032186646 0.068091065 -0.068157956 0.0047015315
0000d0 52 cb 82 3d 60 60 7e 3d 23 11 48 3d 7d 71 3b bb
       0.063864365 0.06210363 0.048844468 -0.002860158
0000e0 b5 12 16 bb 10 1a 3d bd 08 55 e4 3b 46 6a 37 3d
       -0.0022899334 -0.046167433 0.0069681443 0.044779085
0000f0 2a a5 87 3d a5 d8 52 bc aa 7f c0 3c e8 ff cf bc
       0.066232994 -0.012869035 0.023498375 -0.02539058
000100 bd 80 4e bd 69 12 02 bd c1 e4 05 bd 83 ef a0 bd
       -0.050415743 -0.03175584 -0.03268886 -0.07858183
000110 eb b0 92 3d 3e 6d 2b bd e8 49 d6 bc 5d 38 48 3d
       0.07162651 -0.04185223 -0.026158288 0.048881877
000120 41 c7 90 3d 5c 32 74 3d 3c 2a 95 3d cb 48 7a 3c
       0.07069255 0.05961834 0.07283446 0.015276144
000130 2a 76 72 3d ba fb 82 bd 3d d7 a9 bc a5 83 94 bd
       0.05919472 -0.06395669 -0.020732516 -0.07251672
000140 11 49 10 3d b7 c3 82 bd 6f 0d 25 bd 82 d5 6a bd
       0.03522593 -0.06384986 -0.040296014 -0.057332523
000150 7c 9f 95 bd 98 47 c9 bb eb e7 5b 3d f5 2b 9e bd
       -0.0730581 -0.006142568 0.05368797 -0.07723228
000160 9f fc 8b bc 07 c6 07 3d fa a2 25 3d 7e 69 36 bd
       -0.017088233 0.033147838 0.04043863 -0.0445342
000170 88 ee 71 3c 69 59 86 bd 9e 9f 9f 3d d8 32 14 3d
       0.014766343 -0.065600224 0.077941164 0.0361813
000180 9c 03 58 3d 68 0e a7 3c d4 b8 ef 3c b4 13 1f 3d
       0.052737817 0.020392612 0.029262938 0.03883715
000190 4e 34 a1 bc 71 3d 3b bd 06 5e 05 bd 28 92 0d 3c
       -0.019678261 -0.045712892 -0.03256037 0.008640803
0001a0 84 67 35 3d fa 7d f7 bc 4f e0 91 3d 9f 79 86 3d
       0.044288173 -0.030211437 0.071228616 0.06566166
0001b0 30 29 d5 bc 34 44 95 3d 22 1c bc 3b c6 32 d9 bc
       -0.026020616 0.07288399 0.0057406584 -0.026513468
0001c0 1c 15 9d 3c c0 39 89 3d f8 d3 ba bc ff 07 4f 3d
       0.019175105 0.06700468 -0.022806153 0.050544735
0001d0 91 e7 fc ba 0c 4d c1 3b 3e 99 de 3a a3 1a 24 3d
       -0.0019295086 0.0058990773 0.0016982926 0.040064465
0001e0 83 b8 92 3d 73 50 90 3c a4 b4 18 3d a1 ff 6c bd
       0.07164099 0.017616486 0.037281647 -0.057860974
0001f0 96 7b 6b 3d fa 18 12 bc c5 a4 35 bb 87 0b 7a bd
       0.057490908 -0.008917088 -0.0027716618 -0.06104615
000200 b7 50 8f 3d b0 9a 11 bd 80 74 9b 3d 33 ee 93 bc
       0.06997817 -0.035547912 0.0759058 -0.018057918
000210 d8 34 2b bd 68 8a 77 bd 8f 40 47 bd 6b a3 4e 3d
       -0.041798443 -0.06043473 -0.048645552 0.050448816
000220 5e ba 5f bd 3b 68 f8 bc 6b 6d 6a bc 53 ad 87 bb
       -0.054621093 -0.030323138 -0.014308314 -0.004140535
000230 88 42 e5 ba 73 56 2f 3c d2 f9 a2 bd 03 f2 60 3c
       -0.0017491141 0.010701763 -0.07957806 0.013729575
000240 a5 c1 2e 3d e5 be b6 bc 5c bf 51 bd a6 1a 12 bc
       0.042665143 -0.022307822 -0.051207885 -0.008917486
000250 bc 03 81 bd b7 51 0b bd f2 69 75 bc 1d 02 ed 39
       -0.062995404 -0.034013476 -0.014978873 0.00045205737
000260 6b 50 cf bc 89 bd ef 3c af 43 8f bc 98 f9 da bc
       -0.025306901 0.029265182 -0.017488329 -0.026730344
000270 a1 7e 09 3c 0a 31 48 bd 26 7b 33 3d 15 19 9f 3c
       0.008392007 -0.048874892 0.043818615 0.01942114
000280 3e c0 9e bc 10 7a 9c 3d 46 af 96 3d 9b 4e aa bc
       -0.019378778 0.07640469 0.073576495 -0.020789435
000290 8a 36 96 3d 4f 55 9f 3c 23 d0 1b 3c d0 8a 13 bd
       0.07334621 0.019449858 0.009510073 -0.036021054
0002a0 bd 9d 59 3d c2 fe 86 bc 00 6a 29 3d 4e 67 a4 3c
       0.053128947 -0.0164789 0.041360855 0.02006879
0002b0 af 90 0a bd 1d 9f 2f 3d cd 3b a1 bd ad 19 07 bd
       -0.033829387 0.04287635 -0.07872734 -0.03298347
0002c0 39 85 9b bd 13 a7 8d 3d 64 f3 13 bd e2 e6 9e 3b
       -0.075937696 0.069166325 -0.036120787 0.0048493007
0002d0 70 96 33 bd 06 94 ee bc 54 75 bd 3c f3 73 8a 3d
       -0.04384464 -0.029123317 0.023127235 0.06760397
0002e0 cc e9 48 bd 61 3f 1a bd 96 79 f2 bc 28 1d 6f 3c
       -0.04905109 -0.0376581 -0.029598992 0.014594354
0002f0 af 6c 67 bd 34 c1 b9 bc 54 d4 8b 3d 21 4a 5a 3d
       -0.056500133 -0.022675134 0.06827608 0.05329335
000300 9f 35 d9 3b d9 fd 69 3d b3 b5 da 3c a6 bb 7a bc
       0.0066287066 0.057126854 0.026697969 -0.015303528
000310 a1 7e 16 3c fc 15 a6 bd 3f 90 cb 3a a7 fc f9 bc
       0.009185464 -0.08109662 0.001553066 -0.030515982
000320 4d 15 49 bd f3 e7 12 3d 6b d9 9b 3d 17 e2 21 bc
       -0.04909258 0.035865735 0.076098286 -0.009880564
000330 9e a7 a8 3b dd ab d0 3b dc 44 1d 3c 23 b7 1e 3d
       0.0051469347 0.006368144 0.009598937 0.03874887
000340 0a aa 24 bd 18 71 21 bc 3e 3f 6c bd 22 7c 48 3d
       -0.040201224 -0.009853624 -0.0576775 0.048946507
000350 f5 57 4d 3d 0d c0 59 bd f5 9c 67 bd 54 98 b0 3b
       0.05013271 -0.05316167 -0.05654617 0.0053892527
000360 7b b2 7d 3d 78 30 8b bc da b6 56 bd 6e 82 4b 3b
       0.06193779 -0.016990885 -0.052420475 0.0031053084
000370 e5 8a 09 bd 9b 5b a7 3c bd 71 04 3d 46 cc 94 3c
       -0.033579726 0.020429423 0.03233503 0.018163811
000380 e9 1d 18 3d 34 d7 0d bd 9f 5e 3b 3d 1a 02 94 bb
       0.0371379 -0.03462906 0.045744535 -0.004516852
000390 09 52 18 bc a7 60 41 bd 52 05 8b bc 14 bc 47 bd
       -0.009296902 -0.047211315 -0.01697031 -0.04876335
0003a0 a6 db dd 3c bd 50 12 bd 7d ba 56 bd 31 3b 8b bd
       0.027082276 -0.03572153 -0.052423943 -0.06798399
0003b0 d1 a0 92 bd d1 1e ec bc 7e b9 b9 3c 26 0e 32 bd
       -0.071595795 -0.028823288 0.022671457 -0.043470524
0003c0 99 08 c8 3c e1 7f 3d bd f5 c6 87 3d ed da b7 bb
       0.024418162 -0.046264533 0.06629745 -0.005610815
0003d0 06 5a 4c bd a7 c1 7d 3d b4 75 6c bd bf 30 36 bd
       -0.04989054 0.06195226 -0.057729438 -0.04448008
0003e0 f0 94 3b 3c 20 f8 8f bb 70 5c 9f 3d 88 56 3a bc
       0.011449084 -0.0043935925 0.07781303 -0.01137317
0003f0 92 7c 92 3d 10 ae 28 3c 10 82 95 3d 64 dc 59 3d
       0.07152666 0.010295406 0.07300198 0.053188697

encoder_blocks.3.2.bias f4 [12]
000000 17 6a 9a bd b6 50 74 bd f4 44 95 bd 20 78 31 bd
       -0.07539766 -0.059647284 -0.072885424 -0.04332745
000010 cc b9 78 bc 78 e4 03 3d 25 7c 8c 3b 10 74 b2 3b
       -0.015181016 0.032200307 0.00428726 0.0054459646
000020 6d 73 53 3c e9 18 a6 3d 23 a9 49 3d 7f c9 ab 3b
       0.012905938 0.0811022 0.049233567 0.005242526
