Python/save/localizer/trial_2/quake_localization_model_00120.pth (torch, 252994 bytes, 35 tensors)

encoder_blocks.0.weight f4 [12, 1, 13]
000000 22 e7 3c 3e 64 ac 49 3e 4d 82 63 3e 17 b9 ab 3d
       0.18447545 0.19694668 0.22217675 0.083849125
000010 07 ad 3c 3e 9e 22 d1 3d a3 d1 dd bd 4c 00 7d bd
       0.1842538 0.10211681 -0.10831001 -0.06176786
000020 77 24 56 be 14 02 4a be b7 a6 46 be 2d 93 b2 3d
       -0.20912348 -0.19727355 -0.19399534 0.08719478
000030 07 93 b0 bd 5c 9c 59 be 0d a7 79 be 52 66 83 be
       -0.08621793 -0.21251053 -0.24380131 -0.25664002
000040 e0 65 fc bd 6e 90 ce 3d d1 44 27 be b4 17 8d 3e
       -0.123241186 0.100861415 -0.16334845 0.27557147
000050 1f f6 46 be 73 9d a0 bc b1 d4 95 3d f0 7d 31 3e
       -0.19429825 -0.019606328 0.07315958 0.17333198
000060 f2 21 22 3e 05 a3 35 bd 53 e0 8d 3d 1c ff b6 bd
       0.15833262 -0.04434492 0.06927552 -0.08935377
000070 83 ef 0c 3d a6 24 85 3d 57 fe 5d be 1d 7e 40 be
       0.034408104 0.06501131 -0.21679054 -0.18798108
000080 17 b9 1e 3e d9 15 8b bd 2d 93 d2 bd 53 78 eb bd
       0.15500294 -0.067912765 -0.10281978 -0.114975594
000090 47 b5 a6 bb d4 d7 e2 bd 86 0b 7c be 26 53 a6 3d
       -0.005087528 -0.11076322 -0.24613771 0.08121328
0000a0 c0 75 e6 3c 61 de 53 be a0 75 9e 3d 36 af 25 be
       0.02813232 -0.206903 0.07737279 -0.16180119
0000b0 f4 aa 08 be 99 b6 a8 3d 57 e2 15 3d 17 3e 11 3d
       -0.13346463 0.08237953 0.036592808 0.035459604
0000c0 3a 75 b7 bd ac e6 45 3b ea 0b 86 3e 40 f0 7f be
       -0.08957906 0.0030197306 0.26180965 -0.24993992
0000d0 60 6f 51 3d 98 8f 3c 3d ae da b1 bd b1 56 ee bb
       0.051131606 0.04603538 -0.08684288 -0.007273518
0000e0 b7 33 12 be 7f 66 ef bd 3e 08 10 be 4d 42 37 3e
       -0.1427754 -0.116894715 -0.14065644 0.17896385
0000f0 60 3b 15 bd be 46 fa 3d c3 70 47 bc 08 cd 09 be
       -0.036433578 0.12220524 -0.012172881 -0.1345712
000100 8a 48 2b be 7c ce b3 bd ed c2 71 3e ba 9f c6 3d
       -0.1672689 -0.08779618 0.23609515 0.09698434
000110 3c 86 f6 bc 53 8f 65 bd 6a d6 9a 3d b3 4f 61 3e
       -0.030093305 -0.056044888 0.075604275 0.22003059
000120 fa 3c 6e be c9 59 9e 3d 07 40 1a 3e 4d 9d 47 be
       -0.23265448 0.07731969 0.15063487 -0.19493599
000130 78 48 61 3e 91 05 2f 3e 67 6f e6 bd 9d 66 cf 3c
       0.22000301 0.17091967 -0.11251717 0.025317485
000140 3d fb ff 3d 8d f6 d6 3d bc ec 88 3d 33 e7 01 bd
       0.12499092 0.104962446 0.066857785 -0.03171463
000150 d2 be aa bd eb 98 78 3e 22 69 14 3e c0 69 11 3e
       -0.08337177 0.24277084 0.1449323 0.14200497
000160 87 64 88 be 40 99 f3 3d e4 b3 1a be eb 35 c4 3d
       -0.26639196 0.118944645 -0.15107685 0.095805965
000170 09 ab c8 bd 13 c5 47 bd ef f6 d9 3d 45 23 4f be
       -0.09798247 -0.04877193 0.10642802 -0.20228298
000180 2e f0 8a 3e d4 20 4d 3e 1d e0 b0 bd 37 45 0c 3e
       0.27136368 0.20032054 -0.08636496 0.13698278
000190 e5 29 2a be 16 1a 19 3c 58 d7 5f 3e 8b b1 8a 3c
       -0.16617544 0.009344598 0.21859491 0.016930362
0001a0 d2 bc 2d be c7 b1 91 bc df 76 2a bd 37 20 9a bd
       -0.1696656 -0.017784966 -0.04161727 -0.07525676
0001b0 d3 35 2c 3e 60 84 47 3e 47 4c 3f 3e 80 5e 80 3e
       0.16817407 0.19484091 0.18681441 0.25072098
0001c0 df 79 21 3e 27 e6 3e 3e d9 f2 66 3e f6 52 07 be
       0.15769146 0.18642484 0.22553577 -0.13215241
0001d0 12 a2 1b 3e 46 72 86 3e 04 48 ab bd 1f 85 47 be
       0.15198544 0.2625906 -0.08363345 -0.19484375
0001e0 4b f6 5c be 5d 89 e4 3a a7 b7 33 be 64 c9 4a be
       -0.21578328 0.0017435957 -0.17550527 -0.19803387
0001f0 97 1d 08 3e 31 81 54 3e 5b d2 3e be 76 d6 87 3e
       0.13292538 0.20752408 -0.18634932 0.26530808
000200 ac 59 5d 3d 3e 22 d3 3d cb d2 8e 3e fa f0 5d be
       0.054040596 0.103092656 0.27895197 -0.21673957
000210 70 a3 89 3e 17 1c d7 3c b4 f4 07 bd 0d 3e 50 3e
       0.26882505 0.026258511 -0.03319235 0.2033617
000220 1e 4e f7 3d 31 5b be 3c a7 f6 20 bd 5c f7 4f bd
       0.120754465 0.023236843 -0.039297726 -0.05077301
000230 0f 1d f1 bb 9b 59 da bd 8c 39 3b be fe 13 99 3d
       -0.0073582004 -0.10661622 -0.18283671 0.07474516
000240 48 e2 15 3e 7e 08 54 be 25 f1 63 bd 13 5b 68 be
       0.146371 -0.20706365 -0.055649895 -0.22690992
000250 71 32 8a be f5 50 b3 3d 6b 92 71 be 1b 76 da bd
       -0.2699161 0.08755676 -0.2359101 -0.10667058
000260 48 7f 2d be 18 4a 6c 3e ca d8 3f be 46 ff f9 bd
       -0.16943085 0.2307514 -0.18735042 -0.12206893

encoder_blocks.0.bias f4 [12]
000000 7c de 23 be b9 c1 33 3d a4 30 81 3e 55 81 fa bd
       -0.1600284 0.04388592 0.25232422 -0.122316994
000010 ab f9 87 3e 85 64 6f be 4a a3 3b 3d f0 f5 c9 3d
       0.2655767 -0.23378189 0.04581002 0.09861362
000020 f2 0f 74 3d b0 eb a2 bd 4e c5 aa 3c 06 3b cd 3d
       0.05958552 -0.0795511 0.020846035 0.100210235

encoder_blocks.1.0.weight f4 [12, 12, 13]
000000 99 d3 80 bc e9 73 58 3d b9 7d 87 3d d1 cd d1 bc
       -0.015725898 0.052844916 0.066157766 -0.025610836
000010 15 a3 43 bd 24 f7 61 3d e2 ef 32 bd 58 f1 95 3c
       -0.04776295 0.055167332 -0.0436858 0.018303558
000020 1b 24 3f bd fd b8 d0 bc de 7c 05 bd 10 bf 52 3d
       -0.046665292 -0.025478834 -0.032589786 0.051451743
000030 83 35 22 3c 21 bf 6b 3d 6a 52 43 bd 2c 48 97 bc
       0.0099004535 0.05755532 -0.047686018 -0.018467031
000040 05 09 4c bd ea e6 82 3c 42 de 18 3c 61 1a 56 bd
       -0.04981329 0.015979249 0.009330334 -0.05227125
000050 de 78 b7 bc fe 3f 91 bd 90 37 ba bc f4 56 b2 bc
       -0.022396501 -0.07092284 -0.022731572 -0.021769978
000060 4d 11 3b bd 31 e5 2f 3d 80 a3 49 bb 86 6d 88 3d
       -0.045670796 0.042943183 -0.003076762 0.06661515
000070 c4 c7 6b bb f7 1b ee 3b dc a8 69 bd 31 3b 89 bd
       -0.0035977224 0.0072665173 -0.057045802 -0.06700743
000080 a8 3c 98 3d 10 f2 a0 bd 83 85 73 3d ac cc 57 bc
       0.07433444 -0.0785867 0.0594535 -0.013171356
000090 e3 a7 53 3d ab 46 a6 3d ef d1 90 3d 75 83 a4 bd
       0.05167378 0.081189476 0.07071292 -0.08032886
0000a0 37 ac 1e 3d 66 06 87 bd 07 7d 05 3d 1a d2 ff 3c
       0.038738456 -0.06593017 0.03258994 0.031228114
0000b0 42 d7 89 3d b9 b3 6c 3d d5 89 a3 3c 76 3a 71 bd
       0.0673051 0.057788584 0.019963184 -0.058893643
0000c0 3e 86 4d ba 5f 7e 9f bd 42 3a 8b bd ab 31 7a 3d
       -0.0007840133 -0.07787775 -0.06798221 0.061082523
0000d0 d7 16 05 3c 64 06 3b 3d fd 21 2d 3b 36 38 8e bd
       0.008123121 0.04566039 0.0026417964 -0.06944315
0000e0 21 71 8e 3d 03 ff 37 3d ec c3 bf bc 5b fe 27 3c
       0.069551714 0.044920933 -0.023408853 0.010253514
0000f0 4b 3f 01 3c 3d 7f 11 bc 5c d1 5f bd cb 09 a9 3c
       0.007888625 -0.008880434 -0.05464302 0.020634552
000100 7d a8 98 bc f6 eb 26 3d be c5 0e bd 42 73 e7 3c
       -0.018635029 0.040752374 -0.03485655 0.028253201
000110 52 8a 17 3c 91 f7 39 bd 9e 87 71 bd 03 c1 4f bd
       0.009249287 -0.045402113 -0.058967225 -0.05072118
000120 83 74 78 3d bc 1b 90 bd 34 44 2f 3d e4 86 96 3d
       0.06065799 -0.0703654 0.042789653 0.07349947
000130 12 8c f9 3c 26 36 46 bd cc ba 07 3d 22 c6 a2 bd
       0.030462299 -0.048391484 0.033137128 -0.07947947
000140 d6 44 3b 3b f4 ec 4d 3d 3d 5b a2 3d 20 8b 48 bd
       0.0028574965 0.050274804 0.079275586 -0.048960805
000150 00 18 81 bd 4f 71 76 3c 43 88 3d bd 25 22 72 3c
       -0.06303406 0.015041663 -0.046272527 0.0147786485
000160 2b fd 73 3d 81 96 88 3d bf d5 a6 3c 96 ba 32 bd
       0.05956761 0.06669331 0.020365594 -0.043634973
000170 2b 55 9a 3a 50 5e 03 bd 40 3f 40 bd 8b e4 8b bc
       0.001177465 -0.032072365 -0.04693532 -0.017076751
000180 2f 73 0e bd f3 fc 62 bd 66 98 86 3d 02 00 4e 3d
       -0.034777816 -0.055417012 0.065720364 0.050292976
000190 9d 0e 8b bd f1 7c ea bb 34 18 a5 bc ad 24 a9 3a
       -0.06789897 -0.0071560075 -0.020153143 0.0012904607
0001a0 49 8f 8a 3d ae 1c d8 bc 44 6a c7 3b ef 90 9c bd
       0.06765611 -0.026380863 0.006085666 -0.076448314
0001b0 2a a5 ed 3c d8 01 3e bd 99 5d b7 3c 19 8a 0a bd
       0.02900942 -0.046388477 0.022383498 -0.033823106
0001c0 4b a1 1f bc 39 47 33 3d 4e eb 10 3d 75 14 6c 3d
       -0.009743045 0.043769095 0.035380654 0.057636697
0001d0 d4 b0 8e 3d 5f af 8d bc f7 13 01 bd 2c 0b b5 bc
       0.06967321 -0.017295538 -0.03151318 -0.022100054
0001e0 76 34 28 3c 5d b3 06 3d e5 b8 34 bd e5 1d 9b bd
       0.010266414 0.032885898 -0.04412164 -0.07574061
0001f0 4b b2 90 bd 63 e5 3d bc be 67 ad bc 37 2c 7f bc
       -0.07065257 -0.011590335 -0.021167632 -0.0155745065
000200 35 a9 09 bd 49 2b 75 bd f6 c4 ed bc be b8 e3 3b
       -0.033608634 -0.059855733 -0.029024582 0.006949513
000210 d9 3d 90 bd 44 59 ad 3c 96 c1 11 bd ed 54 8a 3d
       -0.070430465 0.02116073 -0.03558501 0.067544796
000220 ad 52 8b bc 54 15 cc 3b 0f 9b 2a bd e1 b2 00 bc
       -0.017007196 0.0062281284 -0.04165178 -0.007855148
000230 c5 2a 7e bd 1e 3d 26 bd 6d 71 a1 bc 66 de b7 bc
       -0.062052507 -0.04058563 -0.019707406 -0.022444915
000240 36 6a 36 3d f9 66 a6 bc 55 45 85 bc a7 cf 80 3d
       0.044534884 -0.020312773 -0.016268412 0.062896065
000250 4f 95 88 bd c1 a6 94 3c 0a c8 1c bd 6b 2b e1 3c
       -0.06669103 0.01814592 -0.03827671 0.027486524
000260 58 51 12 3d c1 d7 2d bd f7 a0 33 3d d8 e0 96 bd
       0.035722107 -0.042442087 0.04385468 -0.07367104
000270 55 38 00 bd 10 da 24 3d 9e 67 83 bd 33 66 2f 3d
       -0.031303722 0.040247023 -0.06416248 0.042822074
000280 d4 3c 03 3d 5d c7 96 bd 80 6b 77 bd 66 5a 2d 3d
       0.032040432 -0.07362244 -0.060405254 0.04232254
000290 a2 ad 95 3d 3c 5c 8d 3d 17 f5 58 bd 88 12 66 3d
       0.073085085 0.06902358 -0.05296811 0.056170017
0002a0 b5 a9 70 3d b3 7a 98 bd 30 6d 6c bd 87 6d 29 3d
       0.058755595 -0.07445278 -0.057721317 0.04136422
0002b0 af 68 8e 3d d0 30 6d 3d 9f d0 86 3d 81 55 1d 3d
       0.069535606 0.05790788 0.0658276 0.03841162
0002c0 7a 83 99 3d 0a e9 ba 3c 48 42 1d bc ca a0 08 3d
       0.0749578 0.0228162 -0.009598322 0.033356465
0002d0 dc ec 6f bd 7d eb 88 3d 39 85 90 ba 86 bf 29 3c
       -0.058575496 0.06685541 -0.0011026032 0.010360604
0002e0 cc 0c 9f 3d c9 0c 97 3d ad f4 01 3b f9 97 09 bd
       0.07766113 0.073754855 0.0019829676 -0.033592198
0002f0 88 1c 4c bd d4 c3 48 bd 3d 9f 3e 3d 89 aa fe bc
       -0.049831897 -0.04901488 0.04653858 -0.031087177
000300 e5 94 85 bd 6d 5f 07 3d fd 30 ab 3d 45 50 14 3c
       -0.0652254 0.03304999 0.08358953 0.009052341
000310 47 62 45 3c 89 66 82 3c b0 26 d0 3c d0 63 94 3c
       0.012047357 0.015918033 0.025409073 0.018114
000320 d0 bb 0e bd b4 81 81 bd bd d9 d2 bc 74 ce ca 3c
       -0.03484708 -0.06323567 -0.025738591 0.024756648
000330 19 13 ec bc 7a 84 a2 3d 30 6f cd bc ab ab 93 3d
       -0.0288177 0.07935424 -0.025077432 0.072104774
000340 36 dd 21 bd b3 cf 55 bd 1d 7d 17 bd cd 4f 7b bd
       -0.039517604 -0.05220003 -0.03698455 -0.0613554
000350 98 54 46 3c c8 92 fb bb 6a ba 4f 3d c4 b5 8e bd
       0.01210513 -0.00767741 0.050714888 -0.06968263
000360 6d 50 6f 3b 6e ce dd bc b9 59 48 3d e7 da 1a bc
       0.0036516443 -0.027075972 0.04891369 -0.009451604
000370 77 5e 89 3c a2 6d 8c 3d e0 59 6e 3a 6a f3 a2 3b
       0.016768677 0.06856848 0.0009092372 0.004972865
000380 1d d9 48 3d 89 37 b6 3b e3 d9 3f 3c 1e 4e b9 3b
       0.04903518 0.0055608195 0.011709663 0.0056550642
000390 a8 2f dc 3c 4d ef 2d 3d 33 c2 97 bc 4e 62 28 bd
       0.026878193 0.042464543 -0.018525219 -0.041109376
0003a0 82 b2 f6 bc 93 d5 27 3d 66 f0 e0 3c a5 8b dd bc
       -0.030114416 0.040975165 0.02745838 -0.027044127
0003b0 f5 3f 92 3d 9d 41 88 bd bc 05 61 bd d7 06 99 3d
       0.07141105 -0.0665314 -0.05493711 0.07472008
0003c0 47 b9 ee 3c f0 8d 50 3d 08 82 3d 3b eb 17 8c bd
       0.029141081 0.050916612 0.0028916616 -0.068404995
0003d0 f5 fb 53 bc 8a 2f 9e 3c de a7 3d bd b3 63 96 bd
       -0.012938489 0.019309778 -0.04630267 -0.07343235
0003e0 13 c6 fd bc a3 4f ee bc af 9e 56 3d 9e 4c 8c 3d
       -0.030978238 -0.029090708 0.052397426 0.06850551
0003f0 42 2f 6c bd ac 51 bf 3b dd ab 71 bc 75 93 6a 39
       -0.057662256 0.0058385935 -0.014750448 0.00022370911

encoder_blocks.1.0.bias f4 [12]
000000 8b 17 a6 3c 86 a9 2c 3b af ae 7e bd 6f 35 70 3d
       0.020274898 0.002634616 -0.06217831 0.05864471
000010 f5 2f ae bd de 60 88 3c aa e6 15 bd 48 16 a3 bc
       -0.08505241 0.016647752 -0.03659693 -0.019908085
000020 29 1d 68 3d 56 7d 9f 3d 5b a6 84 3d f2 0e e2 3c
       0.056668434 0.07787578 0.06477042 0.027595017

encoder_blocks.1.2.weight f4 [12, 12, 13]
000000 9b fa 61 3d 18 a4 4f bd f9 82 43 3d 93 87 a4 3d
       0.055170637 -0.0506936 0.047732327 0.08033671
000010 a6 e7 46 3d 8b c8 11 3d 2a 9f f4 3b db 0a ea b9
       0.04856076 0.035591643 0.007465263 -0.00044640046
000020 fe 0e 62 bc 36 11 fd bc 69 8a 93 bb 54 dd 16 bc
       -0.01379752 -0.030891996 -0.0045025838 -0.009208042
000030 15 ab 7b 3d 37 ca 69 bd 96 e8 86 3c da 1d 2b bc
       0.061442453 -0.057077613 0.016468327 -0.010444129
000040 27 52 a7 3a 9c 24 3c 3d ec 12 9e 3d c9 6e 8c bd
       0.0012765572 0.04593335 0.07718453 -0.06857068
000050 d6 87 9e 3d d4 64 66 bd f6 97 a4 3d df 03 96 bc
       0.077407524 -0.0562485 0.08036797 -0.018312393
000060 e3 a2 61 3d 48 e2 6e 3d 39 19 52 bd d2 7d 9a bd
       0.05508698 0.058321267 -0.051293585 -0.075435296
000070 b5 40 35 3d 02 5f 55 3c d4 4f 60 bc 1b e1 09 bd
       0.044251163 0.01302314 -0.0136909075 -0.033661943
000080 03 95 a0 bd 77 48 5b bd 3d 2e 96 3d fa 6a d7 3c
       -0.07840922 -0.053535905 0.07333038 0.026296128
000090 c8 85 54 3d 08 17 13 bd 0f 95 1a 3d d1 61 2b 3c
       0.051885396 -0.035910636 0.03773981 0.010460333
0000a0 77 2c fe bc 05 b3 e7 bb 77 c8 0e 3d 90 5e 94 bc
       -0.031027062 -0.0070709013 0.034859147 -0.018111497
0000b0 e6 a8 54 3d a0 a9 b0 3b 3b f0 40 bd cd fa 88 3c
       0.051918887 0.0053913146 -0.0471041 0.016721154
0000c0 22 4d 8f 3c 57 20 82 bd fb 92 77 bd 46 67 93 3d
       0.017492834 -0.063538246 -0.060442906 0.07197432
0000d0 e7 34 81 3d be b0 77 3c 89 18 5f bd 1e c0 3d bd
       0.063089184 0.015117822 -0.054466758 -0.046325795
0000e0 e6 7f 71 3c 2b fb e7 bb 72 f6 83 3b cf 68 91 3d
       0.014739966 -0.007079502 0.0040271813 0.07100069
0000f0 22 30 eb 3c eb 4d 90 bc 34 be 64 bd a1 05 82 3b
       0.028709475 -0.01761528 -0.055845454 0.003967956
000100 57 11 cb 3c 7c f4 8d 3d cf fc 1d bd c7 59 87 bd
       0.024788542 0.06931397 -0.038571175 -0.066089205
000110 c7 c9 7f 3c c8 7d 7e bd 06 cd 75 3d 1f f1 ad bc
       0.015612072 -0.062131673 0.06000998 -0.02123314
000120 e3 c0 96 bd 23 bc 96 bd ae 5d 07 bc 58 ff 28 3d
       -0.07361009 -0.07360103 -0.008262081 0.04125914
000130 a2 40 1a bd d5 52 d6 bb 1c 92 33 bc be 3a 22 3d
       -0.037659295 -0.006540636 -0.010960128 0.039606802
000140 b5 e7 12 3d 56 9e ea bc 01 85 10 3c 02 eb f8 3c
       0.035865504 -0.028639954 0.008820773 0.030385498
000150 83 7d cf bb ae 31 8d bc 09 f6 a7 3c a7 79 68 3c
       -0.006332101 -0.017235603 0.02050306 0.01418916
000160 fc ea 73 bd a1 07 41 3d 06 1f f4 bc b8 95 95 3d
       -0.05955027 0.047126416 -0.02979995 0.07303947
000170 f3 e5 e4 39 f7 ec 1c 3d 1e c0 95 3c 2d 81 98 3d
       0.00043658874 0.038311925 0.018280085 0.07446513
000180 c0 e1 89 bb 7c 13 74 3c 9d 09 9a bd 92 dc af 3c
       -0.0042078197 0.014897224 -0.07521365 0.02146748
000190 08 23 34 3c 3d 17 45 bd f1 41 92 bd f2 62 99 3d
       0.01099468 -0.048117865 -0.071414836 0.074895754
0001a0 98 1f 95 bd 7b 19 3a 3d 86 b3 2d bc 4a 0e 30 bc
       -0.07281417 0.045434456 -0.010601884 -0.010745594
0001b0 9c 96 89 bd a3 db f7 3c 04 0d 03 3d 54 5a ce 3c
       -0.067181796 0.030256098 0.031994835 0.025189556
0001c0 52 bf cd bc a5 4b e5 3c 75 7f 03 bd 24 79 f3 3c
       -0.025115643 0.027990172 -0.032103974 0.02972085
0001d0 b0 3e 19 3b 0a 1b 5c 3d 0d 98 cb bc eb 88 3a bb
       0.0023383312 0.053736724 -0.024852777 -0.0028462957
0001e0 36 c7 7e bd 14 02 38 3d 52 2e 97 3d d3 30 7e 3d
       -0.0622017 0.044923857 0.07381882 0.06205828
0001f0 0f 51 a1 bd 99 a4 79 3d b7 cc 75 bc d0 47 e3 bb
       -0.07876789 0.06094799 -0.015002421 -0.006936051
000200 02 24 27 3d bc 75 2b 3d 21 be 23 bd 4f f4 c6 bc
       0.040805824 0.041860327 -0.039976243 -0.024286417
000210 d7 2e 70 3d 61 e4 6c bd fa 59 33 3d ee e5 26 bd
       0.05863842 -0.057834987 0.04378698 -0.04074662
000220 94 5f 5d bd 14 64 a2 3d f7 18 53 bd 55 67 0d bd
       -0.05404623 0.07929245 -0.05153748 -0.034522373
000230 3c f0 9a 3d 45 a0 5d bd ef a8 93 3d 96 ab 95 bd
       0.07565352 -0.054107923 0.07209956 -0.07308118
000240 96 e1 b0 bc ab 89 bd bc c0 95 a2 3d d6 82 f0 3c
       -0.021591943 -0.023136934 0.07938719 0.029359262
000250 78 d4 ff bc 0c 4a 8a 3d 42 0f b1 3c b4 80 90 3d
       -0.031229243 0.067524046 0.02161372 0.07055798
000260 4a 1f d7 3c b7 41 76 3d a7 36 9b 3d a0 a4 0a bd
       0.026260037 0.060121264 0.075787835 -0.033848405
000270 ff de 44 3b f4 1e 0d bc 31 25 7a bd e6 81 8a bd
       0.0030040143 -0.008613337 -0.061070625 -0.067630574
000280 3b b2 6b bc 40 ef 9f bd a6 ce b2 3c cd 98 49 bd
       -0.014385755 -0.07809305 0.021827053 -0.049217988
000290 dc 9f a0 bc ae ea 17 3d 64 23 4e 3d 6b c4 b5 bc
       -0.019607477 0.037089042 0.05032672 -0.022188386
0002a0 35 11 02 bd a8 e2 9f bd d2 98 d5 bc f3 b0 b8 3c
       -0.03175469 -0.07806903 -0.026073847 0.022545313
0002b0 5a 55 2b bc 79 ba 7a 3d b6 b2 aa 3d 83 8a 55 3c
       -0.010457361 0.06121299 0.08334868 0.013033512
0002c0 54 dd 25 3d 8d 4a 92 3d 96 e8 a7 3b 4f 06 a3 bd
       0.040494278 0.07143126 0.005124162 -0.07960188
0002d0 da ba 79 3d a0 83 88 bd aa da 46 bd bc 6d 81 3c
       0.06096921 -0.066657305 -0.048548378 0.015799396
0002e0 bf 88 83 3d b6 1e 01 3d 23 24 26 bc 83 d7 70 3d
       0.064225666 0.03152343 -0.010140452 0.058799278
0002f0 cf 4d a5 bd 93 45 a0 3d 56 6b 26 bc ce 23 fe 3c
       -0.080714814 0.0782577 -0.010157427 0.031022932
000300 de 75 4f bc 49 2c 99 3d c3 7a b2 3b 7e d1 0a bd
       -0.012662379 0.0747915 0.0054467632 -0.033891194
000310 8f 56 be 3b 36 dc 82 bb 3e 68 55 3d cc a4 06 bd
       0.0058086584 -0.0039935363 0.052101366 -0.032872006
000320 ce b3 71 bd ed 50 88 3b d0 fc 85 bd 16 b5 40 bd
       -0.059009366 0.0041600377 -0.06542361 -0.047047697
000330 40 a3 90 3d 5f a4 15 3d ee 77 71 bd 22 0a 3b 3c
       0.070623875 0.03653371 -0.058952264 0.01141599
000340 2e 54 54 3d b3 98 f4 bc d9 e7 d7 39 ac a2 5b bd
       0.051838093 -0.029857969 0.00041180736 -0.053621933
000350 97 1c 1e bd b1 60 99 3d 36 3d 82 bd e4 41 a6 3d
       -0.038601484 0.074891455 -0.06359331 0.081180364
000360 d9 50 02 bc a5 ec d3 bc e9 64 ba 3c 2a 8d 00 3d
       -0.007953846 -0.025869677 0.022753196 0.031384625
000370 98 9c 12 bd 17 eb 8e 3d 93 4c 7a 3d 49 09 8b ba
       -0.03579387 0.069784336 0.061108183 -0.0010607626
000380 22 f5 be bc bb 7c 95 bd f9 29 42 3d 87 7c 0e 3d
       -0.023310248 -0.07299181 0.04740331 0.034786727
000390 c1 cb 85 bd 1d d8 96 3d 56 73 50 3d b2 43 2f 3d
       -0.065330036 0.07365439 0.050891243 0.04278917
0003a0 af 30 91 bd 1a 40 8a 3d c9 7a 63 bc 30 33 a3 3b
       -0.07089364 0.06750508 -0.013884255 0.0049804673
0003b0 28 66 38 bd fc 3a 00 bc 44 4d b3 bc 8f cf 19 3c
       -0.0450193 -0.007826563 -0.021887429 0.009387865
0003c0 f7 58 81 3d ea 95 66 bd 8b fe 8e 3c c5 4d 80 3c
       0.06315797 -0.056295313 0.01745536 0.015662083
0003d0 aa d5 e1 3c f9 a1 17 3d f8 a6 9c bd 7c c4 b2 3c
       0.027567703 0.037019704 -0.07649034 0.021822207
0003e0 df ec 9b bc e0 27 53 3d a4 c6 b3 3c 86 13 5e bd
       -0.019033847 0.0515517 0.021945305 -0.054217838
0003f0 ac f5 1e 3d 2e 03 8f 3d 8f 37 69 bd 9d e1 60 bd
       0.03880851 0.06983028 -0.05693775 -0.05490266

encoder_blocks.1.2.bias f4 [12]
000000 06 dc a3 ba 04 33 6e bb f3 f0 8e 3d 06 1e db 3c
       -0.0012501485 -0.0036346326 0.06979551 0.026747715
000010 82 79 ab 3c 55 b3 1c bd f4 63 32 bd 62 29 98 bd
       0.020931963 -0.03825696 -0.043552354 -0.07429768
000020 e8 2f 29 3d d7 47 41 3d d1 19 74 3d f7 82 80 bc
       0.041305453 0.047187652 0.059594933 -0.015687449

encoder_blocks.2.0.weight f4 [12, 12, 13]
000000 7c 54 9c 3d 8e 79 5b bc 43 ea e6 3c 7b c5 49 3d
       0.076333016 -0.01339568 0.028187877 0.049260598
000010 85 2c 09 3c 29 ad 0a 3d c8 c7 9e 3d 67 2e 12 3d
       0.008372431 0.033856545 0.07752949 0.035688784
000020 1e 47 9c 3c f2 f2 a1 bd b1 13 35 3d 54 ad 92 bd
       0.01907688 -0.07907666 0.044208232 -0.07161966
000030 03 17 56 3d 0b d5 93 bd 39 4c 89 3d 0d d4 15 bd
       0.05226804 -0.07218369 0.067039914 -0.03657918
000040 64 5e e5 bb 34 d2 6f 3c 45 bf 8c bd b6 60 95 bc
       -0.0069997776 0.014637519 -0.06872419 -0.018234592
000050 95 b6 2c 3d 2b cf 9f bd 21 8e f5 3c 8c 3b ea b9
       0.04216631 -0.07803186 0.029974999 -0.00044676324
000060 8a 57 2e 3d f7 5d 83 bd c7 73 46 3d 17 6a 20 bd
       0.042563953 -0.06414407 0.048450258 -0.039163675
000070 7f 41 87 bd 77 92 2b bd 04 f3 11 3d 8a 13 89 39
       -0.06604289 -0.041887727 0.03563215 0.00026145234
000080 91 66 73 bd 17 9e 09 bd cb 51 b7 3c 3f bf 4b bd
       -0.059423987 -0.03359803 0.02237787 -0.049742933
000090 76 14 24 3c 35 8b 85 3b a3 92 79 3d 5b bb 1a 3d
       0.010014644 0.0040754327 0.06093086 0.037776332
0000a0 06 39 a6 bd ab 6e 3c bc 47 96 72 3d a2 ff 0d 3d
       -0.08116345 -0.011500995 0.059225347 0.03466762
0000b0 d6 6f 7b 3c 21 24 97 ba c0 59 04 bd 20 9c 70 bd
       0.015346488 -0.0011531153 -0.032312155 -0.058742642
0000c0 f9 41 a2 3d e1 b9 26 3c 91 7a c4 3b c5 ca 3c 3d
       0.079227395 0.010176153 0.0059960564 0.046091814
0000d0 ab f9 30 3d 54 54 e3 bc 94 31 2b 3d 4e a3 47 3c
       0.043206852 -0.027750172 0.04179533 0.012184931
0000e0 1c ce cc 3c a1 5e 7f 3d 5b ce 50 3d 9e 8c 91 bd
       0.025000624 0.062346105 0.050978046 -0.07106899
0000f0 93 78 13 bc 3d ee f0 3c b3 a2 73 3d ae 79 a9 3c
       -0.009000915 0.029410476 0.059481334 0.020687904
000100 d7 31 05 39 5e 56 cb bc 7e 7a b8 3c dc dc 72 3c
       0.00012702435 -0.024821457 0.022519346 0.014823165
000110 e1 3e 87 bd b5 9c 8d bd ed 0e 99 bd 5c a4 e9 bc
       -0.0660379 -0.06914655 -0.0747355 -0.028520755
000120 93 d9 83 3d 2a 6c cd 3c 96 5f 9d bd 47 fb 8c ba
       0.06437983 0.02507599 -0.07684247 -0.0010756039
000130 e0 26 2a bd 14 45 77 3d a7 2b 33 3d 50 47 a0 bb
       -0.04154098 0.060368612 0.043742802 -0.0048913136
000140 ea 0b 06 bc f3 97 5c 3a 21 6e 5e ba a7 8d 1a bb
       -0.0081815515 0.0008414976 -0.00084850384 -0.0023582967
000150 c9 17 a3 3c 5c 7e 2f bd f8 73 0d bd 60 9e 7e bd
       0.019908803 -0.042845115 -0.034534425 -0.062162757
000160 f1 e5 10 bd 9b aa e9 3b 3e 8c 43 3d 4e 4c 32 bd
       -0.03537554 0.0071309335 0.047741167 -0.0435298
000170 31 64 91 bd ea 19 60 3d de fb 08 bc 25 3c 48 bd
       -0.07099188 0.054712214 -0.008360831 -0.048885483
000180 87 15 bd 3c 15 78 4e bc ad 28 da bc 34 70 9a 3d
       0.023081554 -0.012601872 -0.026630724 0.07540932
000190 17 b6 64 bd bc 9e 88 3c 90 f5 41 3d 65 5c 2d bd
       -0.055837717 0.016677253 0.047353327 -0.042324442
0001a0 c0 87 87 bc ad a1 37 bd 4c b5 c1 3c e9 91 6a bd
       -0.016544223 -0.04483192 0.02364602 -0.057268057
0001b0 b3 3d 90 3d a9 23 9e 3d a1 36 f1 bc df 32 60 3d
       0.07043018 0.077216454 -0.029444994 0.054736014
0001c0 d7 2d 90 bd 04 9b 18 bc 97 68 fc 3c 62 99 7b bd
       -0.07039993 -0.009314302 0.030811591 -0.061425574
0001d0 bb b1 2b bd 3b 4e 0e bd 18 e0 35 3c 72 c8 2b bc
       -0.041917544 -0.034742575 0.011100791 -0.010484802
0001e0 0a f7 7c bd 52 30 96 3d 38 9d 94 bd 3e 0d 39 3d
       -0.061759032 0.07333435 -0.072565496 0.045178644
0001f0 62 8d 8d bc 86 a2 82 bd 2f 13 8d 3c c5 82 22 bd
       -0.01727933 -0.06378655 0.017221062 -0.039675493
000200 be df 0e bd 73 79 46 bd 03 63 92 bd e2 99 7d bd
       -0.034881346 -0.048455667 -0.07147791 -0.061914332
000210 c5 c2 96 bd 8b 4b f3 bb fb a7 97 3c da 38 da 3c
       -0.07361368 -0.007424777 0.018512717 0.026638437
000220 81 2e 8c 3d 37 9b 42 3b 7e e1 20 ba b4 ee 7c 3d
       0.068448074 0.0029694566 -0.00061371166 0.061751083
000230 c5 dc 24 3d 6d 68 dd 3c d9 79 69 bd 2d 13 bb 3b
       0.040249605 0.027027333 -0.05700097 0.005709073
000240 db a4 84 bd d2 c5 62 bd 65 75 8f 3d 02 75 88 bd
       -0.06476756 -0.055364437 0.07004813 -0.066629425
000250 79 03 5a bd 54 2a a9 3b 8c 6e bc 3c 0a 29 1d ba
       -0.053225968 0.0051625166 0.023001932 -0.000599519
000260 22 12 80 3c 71 9e 9a 3d 60 66 5c bd ec db 70 3d
       0.015633646 0.075497515 -0.05380857 0.058803484
000270 48 49 5e 3d e4 62 22 bd 1f 2b a6 3b ec 4f 49 3d
       0.054269105 -0.03964509 0.0050710584 0.049148485
000280 4f cd 1a bd 46 89 06 3d cf 6a 8c bc 7c e8 43 bc
       -0.037793454 0.032845758 -0.017140774 -0.011957284
000290 b3 94 83 3c 12 35 8b b9 4f 78 1e 3d 37 4f 8a 3d
       0.016062116 -0.00026551686 0.038688954 0.0675339
0002a0 14 e4 12 bd eb 66 a1 3d 67 f0 30 3d 05 17 be bc
       -0.035862043 0.07880958 0.043198016 -0.023204336
0002b0 e8 02 31 bd 2b b7 28 bd f5 b4 62 3c 90 22 18 3d
       -0.043215662 -0.041190308 0.013837089 0.037142336
0002c0 5f 3a b5 bc 64 6c 9a bb d5 f0 72 3d b3 65 2f 3d
       -0.02212256 -0.004712628 0.059311707 0.042821597
0002d0 20 61 02 bd 0b 6e 98 3d 99 cd b2 bb f7 25 d4 3c
       -0.031830907 0.07442864 -0.005456638 0.02589701
0002e0 2e 4c 41 bd aa f9 33 3d a0 3b 87 3d 89 a6 55 ba
       -0.04719179 0.04393927 0.066031694 -0.0008150121
0002f0 1e 94 bd bc da be 5e 3c f4 c1 7b bd 69 1b c2 bc
       -0.023141917 0.013595307 -0.061464265 -0.02369471
000300 c1 00 f9 3c db 2d a1 bb 72 78 7e 3d 59 de 84 3d
       0.030395867 -0.0049187965 0.062126584 0.06487722
000310 c5 10 77 3d ff 41 6d 3d 95 69 6d bd 59 5b 6d 3c
       0.060318727 0.057924267 -0.05796202 0.014487111
000320 0c 36 5d 3c 4b 6b 2d 3d 79 9f e3 bc c1 61 da 3c
       0.013501655 0.04233865 -0.027786003 0.02665794
000330 8f 23 d4 bb de 08 7f 3d bc cd 48 bc a4 67 80 bc
       -0.0064739655 0.062264316 -0.012256082 -0.01567442
000340 2d a3 95 3c ce 86 a0 3b 7e 16 fa 3c fc 26 97 3d
       0.018266285 0.0048988825 0.030528303 0.073804826
000350 23 8b 7a bd a8 22 50 3d 6c 80 79 3b 65 85 7b bc
       -0.061167847 0.0508143 0.003807093 -0.015351628
000360 6a 00 55 bd c8 18 97 bd 67 7b 99 bd d3 01 eb 3c
       -0.052002348 -0.073777735 -0.0749424 0.028687393
000370 9e 0c 5a 3d 7f 3f 6c 3c 74 f2 2b 3d 64 fb a3 bb
       0.05323469 0.0144194355 0.04197927 -0.0050043333
000380 06 0d 8f bd 71 46 52 3d 0a 36 99 3d f3 ed 7f bd
       -0.06984906 0.05133671 0.0748101 -0.062482785
000390 07 e2 df bc 89 33 84 3d 90 f0 03 bd 31 6a 6c bd
       -0.027329458 0.06455142 -0.03221184 -0.05771846
0003a0 2c d9 f1 3c b7 3b 64 3d 23 03 96 bd 75 16 0d 3d
       0.029522501 0.05572101 -0.07324817 0.034445245
0003b0 7c d5 f1 3c 9c d9 42 bd 04 84 62 3d 27 db 89 bd
       0.029520743 -0.04757081 0.05530168 -0.06731253
0003c0 e1 fc 02 bc 97 07 54 3b 23 13 45 3d 92 8d 12 3d
       -0.007994861 0.0032353157 0.048113953 0.035779543
0003d0 07 3a 9e bd 8b 20 86 3d 5d 5d 36 bd 5c 8d 22 bd
       -0.077259116 0.06549176 -0.044522632 -0.039685592
0003e0 8f 97 41 bb 00 cf 39 bd f7 f6 27 3d 07 f9 34 3d
       -0.00295398 -0.045363426 0.04100701 0.044182803
0003f0 fe 26 a5 bc 69 53 1c bc d6 de 72 3c bd 7e 1a bd
       -0.020160194 -0.009541371 0.014823636 -0.037718523

encoder_blocks.2.0.bias f4 [12]
000000 e4 8e 85 3a 76 2c 20 3d ef 08 98 3b bd a3 a3 3d
       0.001018968 0.0391049 0.004639737 0.07990215
000010 18 97 4a bc e2 a2 d9 3c ef 4f 8b bd 62 a0 c4 3c
       -0.012365125 0.026566926 -0.068023555 0.024002258
000020 73 30 20 3d 5c 83 8d bd cd 52 4d 3d 3d 9d 77 3d
       0.039108705 -0.069098204 0.050127793 0.06045269

encoder_blocks.2.2.weight f4 [12, 12, 13]
000000 c5 f9 89 bc a2 e1 7f 3d 95 2e 49 3d 27 fd 9b 3b
       -0.016842732 0.06247104 0.04911669 0.0047604027
000010 dd 10 61 bd 38 7f a7 3b 16 c8 f9 bc a5 58 71 bd
       -0.054947723 0.005111601 -0.030490916 -0.05892243
000020 19 38 ce bc d7 66 3f bd bc 74 c1 3c c8 1f 22 bd
       -0.025173234 -0.046728935 0.023615234 -0.03958109
000030 68 1d 80 3d a4 b8 9b bc a3 0b 1c 3c e9 3b 62 3d
       0.06255609 -0.019008942 0.009524259 0.055232916
000040 44 fd 04 3d 06 4b 0d 3d 3c fe 7e bd 93 ae 9b 3d
       0.032468095 0.034495376 -0.062254176 0.07601657
000050 68 41 df bc e0 b4 c8 bc 4a 74 8c bd 49 10 17 3d
       -0.027252868 -0.02450031 -0.06858118 0.036880765
000060 5b 0f 5d 3d f9 2d 1b bd a5 5a fb bc f2 b1 68 3d
       0.053969722 -0.03788564 -0.030682871 0.056810327
000070 6c 55 85 bd e5 30 e8 bc c5 ad 66 3c a4 0f 4e 3d
       -0.065104336 -0.028343627 0.014079516 0.050307885
000080 96 85 19 bd c2 c8 41 bd aa c2 96 3d f5 6f 8c bd
       -0.037480913 -0.0473106 0.07361348 -0.068572916
000090 40 2c 2f bd 96 3f 0d 3d 66 e7 03 b9 12 7c c9 3c
       -0.04276681 0.03448447 -0.00012579336 0.024595294
0000a0 68 f3 7b bd cc 57 3a bd fa de 18 bd 39 c3 7f 3d
       -0.061511427 -0.045493886 -0.037322022 0.06244204
0000b0 33 df 0e 3d a9 fe a6 bc 8e 96 34 bc 21 20 32 bc
       0.034880828 -0.020385103 -0.011022223 -0.010871918
0000c0 96 8a 5f 3c f9 32 4d bd 60 69 8a bd 73 49 7f 3d
       0.013643881 -0.05009744 -0.0675838 0.062325906
0000d0 20 e2 20 3b 9c b5 91 bd 14 e9 fe 3c be a7 62 bd
       0.0024548844 -0.07114717 0.031117 -0.055335753
0000e0 32 20 92 bc 38 47 74 bc c6 86 61 bd 80 14 c3 ba
       -0.017837618 -0.014909558 -0.05506017 -0.0014883429
0000f0 80 75 1e 3c 70 5f fa bb 60 a2 7b bb a0 d7 e4 bb
       0.009671569 -0.0076407716 -0.0038396344 -0.0069837123
000100 08 4c 7f 3c 04 9e 4f 3d b4 3b 6e bd b5 34 a5 3c
       0.015582092 0.050687805 -0.058162406 0.020166734
000110 61 1a 92 3c b4 60 ff 3b b2 1f cd 3a 4b 46 66 bd
       0.017834844 0.0077935103 0.0015649705 -0.05621938
000120 10 90 2c 3d 49 cd 47 3d 9d d5 3d 3d 2d 61 53 bd
       0.042129576 0.04877976 0.046346296 -0.051606346
000130 8c 1f 49 bd ef 01 74 bc f4 01 77 3c 60 ca 56 bd
       -0.04910235 -0.014893039 0.015076149 -0.052439094
000140 fc 6e 2a bd 14 03 b9 3b 44 8e 37 3d 96 5b 07 3d
       -0.04160975 0.005646119 0.04481341 0.033046328
000150 24 ba 34 3d ef 5a 52 3c c2 39 94 bd 19 50 81 3d
       0.04412283 0.012839063 -0.07237579 0.063141055
000160 29 d6 4b bd f8 44 54 bd ef 5a 00 3c e0 c6 9b bc
       -0.049764786 -0.051823586 0.00783418 -0.01901573
000170 32 4c 50 ba de fe 01 bd 01 3a 32 3d ab 20 8b bd
       -0.00079459243 -0.0317372 0.043512348 -0.0679334
000180 89 57 c5 3b 90 3c 25 3d cc 95 8e bd f0 d4 24 3d
       0.006022398 0.04034096 -0.06962165 0.040242136
000190 01 80 3e bd a5 31 32 3d dd e8 5e 3d 01 68 fa bc
       -0.046508793 0.043504376 0.054421294 -0.030567171
0001a0 15 b4 ac bc 80 60 89 bd bd 41 8b 3d 07 fc 8a 3d
       -0.021081964 -0.06707859 0.06799648 0.06786352
0001b0 c5 58 1d bb c6 3f 7d bd 9b f7 ae 3c 38 dd 82 3d
       -0.002400921 -0.061828397 0.021358302 0.063898504
0001c0 62 bb 01 bd 08 56 b3 bc 53 ce 80 bd 6c b4 3e bd
       -0.031672843 -0.021891609 -0.06289353 -0.046558782
0001d0 9e c7 72 bc c3 4a 80 bd ca 91 90 3d f3 08 37 bd
       -0.0148181 -0.0626426 0.07059057 -0.04468627
0001e0 47 99 b2 3c 1d 18 9f 3d c3 ad 09 3d ac 25 8a bd
       0.021801604 0.07768271 0.033612978 -0.067454666
0001f0 03 c5 8a bc 90 16 9d bd 98 43 87 bd c4 4c 17 bb
       -0.016939646 -0.07670319 -0.06604689 -0.0023086527
000200 03 c7 a6 3c 13 19 50 3d 56 ec 36 bd 2f 09 df 3c
       0.020358568 0.050805163 -0.04465898 0.027226059
000210 bc dc 89 bc a2 83 f8 3c 14 67 29 3d 85 16 8d bd
       -0.016828887 0.030336205 0.04135807 -0.06889061
000220 ec e2 ab bc 2e 8d 54 3c ce 60 43 3d 08 fe 92 ba
       -0.020982228 0.012973113 0.047699742 -0.0011214623
000230 21 7b 59 3d f1 17 1d bd a3 ea e3 3c af 1b 53 bd
       0.05309594 -0.03835291 0.027821844 -0.051540073
000240 bf 66 e6 bc 07 d2 95 3c 0c cc ba 3b 94 a2 98 bd
       -0.028125165 0.018288625 0.005700594 -0.07452884
000250 45 b2 73 bd d9 6c 9c 3d 81 90 09 3d 6f 86 f2 bc
       -0.059496183 0.076379485 0.033585075 -0.029605119
000260 71 69 83 bd 13 77 9d 3b d1 87 23 bc 86 ac 42 bd
       -0.06416596 0.0048054545 -0.009981112 -0.047527812
000270 82 32 6e 3d c0 b8 38 bd c4 bd 97 3d 93 a8 5a bd
       0.058153637 -0.045098066 0.07409242 -0.05338342
000280 29 d7 05 3d b9 b2 88 3d 1d 7e a0 bc f3 8c 4b 3d
       0.032675896 0.06674714 -0.019591385 0.049694967
000290 00 54 0f 3c 08 b0 27 3d fe 99 29 bc 86 26 0d 3d
       0.0087480545 0.04093936 -0.010351656 0.034460567
0002a0 24 36 a5 bb aa c0 0f bd 0c dd 7e 3d b6 d3 22 bc
       -0.0050418545 -0.03509585 0.062222525 -0.009938171
0002b0 dd bf 6e 3d 2a ae 81 3a ae a9 67 3d 64 1f 29 3d
       0.058288444 0.0009893824 0.056558304 0.041289702
0002c0 1d 96 05 3d 80 f8 fd bc 51 6d 8c bc 70 2c 56 bd
       0.032613862 -0.031002283 -0.01714197 -0.052288473
0002d0 f6 fe 47 3d df 38 54 3c ea ce 2f 3c 0f 11 4a bd
       0.048827134 0.012953012 0.0107304845 -0.049332675
0002e0 4a 99 37 bc 7a 4d 1a 3c 8e 8c cc bb c1 ab 63 3c
       -0.011205981 0.009417886 -0.0062423414 0.01389593
0002f0 47 2f 4f 3d e0 21 9d 3c 09 ea e2 bc bb 2c 03 3c
       0.050582197 0.019181192 -0.027699487 0.00800627
000300 2d 8e 92 3d 14 da 5b bd af 8c d6 bc 86 aa 46 bd
       0.07156024 -0.053674772 -0.02619013 -0.048502468
000310 2f c9 93 3d 15 3e 88 bd 1b 90 91 3d 0e 19 90 bc
       0.07216107 -0.06652466 0.07107564 -0.017590072
000320 2b b2 5f 3d 57 4e 84 3d a4 15 b9 bc e4 b5 3c 3d
       0.054613274 0.06460255 -0.022593327 0.046071902
000330 0e 61 bd 3c 45 69 11 3d b5 c0 8d bd 73 7d 57 3b
       0.023117568 0.035500783 -0.069215216 0.003288117
000340 f2 fd 2f bd d0 49 91 3d 34 1e 18 bd 00 36 4b ba
       -0.04296679 0.07094157 -0.03713818 -0.0007751882
000350 e4 cb 09 bd 50 10 8f 3d 1c 1b 5d 3d 9c 1e 4e bd
       -0.03364171 0.06985533 0.05398093 -0.05032216
000360 cc 3f 73 3d 3e 1b 0e 3d 00 48 0c 38 cf c1 23 bd
       0.059387013 0.03469395 3.3445656e-05 -0.039979752
000370 80 23 5f 3b dd 7b 64 3d 49 c1 69 3c 97 cc a8 bb
       0.003404826 0.055782188 0.014267274 -0.005151342
000380 60 f9 60 3c 42 e1 90 3d f3 17 a5 3c ec 71 5e 3d
       0.013731331 0.070742145 0.020153021 0.054307863
000390 ce 57 9e 3c 18 cd fe bc 9f 52 c9 bc 7c a3 9c bd
       0.019328978 -0.031103656 -0.02457553 -0.0764837
0003a0 f4 ef ed bc 7f 0f 8e 3c e4 88 6f 3c 6c 67 2b bd
       -0.029045083 0.017341373 0.01462004 -0.041846678
0003b0 40 36 cc 3c a9 e7 41 bd f0 38 80 3d a3 bd 84 bc
       0.024928212 -0.04734007 0.0626086 -0.016203707
0003c0 9a f1 b6 bc 97 3f 85 bd ff 24 e4 3c ee 5d 9e 3d
       -0.022332001 -0.065062694 0.027849672 0.077327594
0003d0 ad e1 49 39 6c 12 3c 3d 02 e7 62 3c 66 16 9d bd
       0.00019252925 0.045916006 0.013849022 -0.07670288
0003e0 e1 5e ae bd a2 f3 30 bc 3c 64 74 3c 3c 35 58 bd
       -0.085141905 -0.010800274 0.014916476 -0.052785143
0003f0 af 20 95 bc d0 a2 5b 3d dc 56 a5 bc 1a 2d ad bd
       -0.018204061 0.053622067 -0.02018302 -0.08455868

encoder_blocks.2.2.bias f4 [12]
000000 55 0d 25 3d ec c3 44 3d 85 d4 b1 bc 93 0e f3 bc
       0.040295918 0.04803841 -0.021707783 -0.029670035
000010 c2 f4 dd 3b 75 64 14 3d 0c 33 a6 3d c5 89 40 bd
       0.006773562 0.036228616 0.08115205 -0.047006387
000020 c2 14 03 3d e1 a8 e0 3c a8 b3 b0 3d a8 78 60 bd
       0.032002218 0.027424278 0.08628017 -0.054802567

encoder_blocks.3.0.weight f4 [12, 12, 13]
000000 f5 86 93 3d f2 de f0 3c b2 4c 6e bc 6b 13 5c bd
       0.072034754 0.029403184 -0.014544653 -0.053729456
000010 0f f1 2b bc 4e 72 30 3d 50 a6 86 bd ce 63 31 bd
       -0.010494485 0.04307776 -0.0657469 -0.04330807
000020 5e 53 3a bd 2d 2a 6f 3d de 60 a0 3d 8b 2d 46 bd
       -0.04548966 0.05838983 0.07830976 -0.048383277
000030 d7 b3 82 bd 40 a0 6b bd df cf 89 3d 42 44 e4 3c
       -0.06381958 -0.057525873 0.067291014 0.02786458
000040 87 75 32 3d d0 57 a5 3c 2c 20 84 bc 64 53 53 3d
       0.043569114 0.020183474 -0.016128622 0.0515932
000050 9d 8b 95 bd b4 63 ff bc a6 24 77 3a e0 59 18 bd
       -0.0730202 -0.031175472 0.0009427763 -0.037195086
000060 d9 02 d8 3c 19 5e 8f 3c 91 69 3a 3d 84 c4 82 3d
       0.026368545 0.017500924 0.045510832 0.06385139
000070 66 ec 6f 3d e4 fe 58 bc 75 0d 44 3c 87 e0 6b bc
       0.058575056 -0.013244364 0.011966099 -0.014396793
000080 8b ba 2d bd c0 4b 04 3c 08 07 64 bd 23 d4 65 bc
       -0.04241423 0.008074701 -0.055670768 -0.014027628
000090 94 bf 72 3b 5e 20 81 3c 1f 07 7e 3c 43 a8 3a 3d
       0.003704046 0.015762504 0.0155046275 0.045570623
0000a0 d2 e5 3d bd 79 f1 c9 3c 3e de 48 bc f5 8c 6f 3d
       -0.04636175 0.024651276 -0.012260018 0.058484036
0000b0 28 67 6f 3d 3f e6 1f bd 23 d2 09 bc 7b 07 05 3d
       0.058447987 -0.03903794 -0.008411917 0.032477837
0000c0 2f 53 98 3d ca 17 27 bd 1e ae d6 3c dd 6b fe bc
       0.07437741 -0.04079417 0.026206072 -0.031057293
0000d0 64 c4 8b bd f5 ad 25 3d 12 e9 7c bd b2 da 1c 3d
       -0.06824568 0.0404491 -0.06174571 0.0382945
0000e0 7e 2f 84 3d bb f7 17 3d 71 52 6a bd 64 dd 8a bd
       0.06454371 0.03710149 -0.05720753 -0.06780508
0000f0 10 7a 61 bb 33 f7 70 3c 50 26 01 bd f5 a5 7f 3c
       -0.003440503 0.014707374 -0.03153068 0.015603532
000100 84 31 af bc 66 f2 95 bd 0f 22 38 bd b3 a1 ca bc
       -0.021385916 -0.073216245 -0.044954356 -0.024735307
000110 09 eb 7b 3d d9 66 87 bd e0 a5 75 b9 47 51 a5 3d
       0.061503444 -0.066114135 -0.00023426814 0.08072143
000120 d0 9b e8 3b cf 9a 51 3c 45 e6 86 3b 95 57 53 bd
       0.0070986524 0.012793257 0.0041168057 -0.051597197
000130 37 19 1b 3d bc 3e 30 3d 4e b0 47 bd 35 24 99 b9
       0.037865844 0.04302858 -0.04875212 -0.0002920941
000140 cf f1 14 3d be d2 2d bd 52 ca f5 bc ba 4a 15 bd
       0.03636342 -0.042437308 -0.0300037 -0.036448218
000150 7e a2 21 bc 48 5b 8d 3d 94 d7 9b bd ff 3b 9b 3c
       -0.009865401 0.06902176 -0.07609478 0.018949507
000160 30 50 fb ba 5a db cb bc 7f d6 9c 3d cb 10 a1 3d
       -0.0019173678 -0.024884868 0.076580994 0.07864531
000170 8d 1e 58 3d b8 54 5d bb 2f 9e 7a bd 15 d5 86 bd
       0.05276351 -0.003377242 -0.061186012 -0.06583611
000180 97 b2 20 bc cf e6 49 3d 04 a4 1b 3d ec 8d a7 3c
       -0.009808204 0.04929238 0.037998214 0.020453416
000190 b9 e2 6a 3d 8f 74 41 3c 9f 59 73 3d f0 90 84 bd
       0.057345126 0.011807575 0.05941164 -0.06472957
0001a0 e2 3c e2 bc 03 17 fb 3c 8c 31 2e bc 33 d8 5e bd
       -0.027616922 0.030650621 -0.01063193 -0.054405402
0001b0 68 86 f2 bc 83 dc bd bb b3 c4 50 3d e5 92 9a bd
       -0.029605106 -0.0057941093 0.050968837 -0.07547549
0001c0 dd 32 6a 3c 9a 46 8a bd 07 f3 30 bd 0a df 85 3d
       0.014294353 -0.067517474 -0.04320052 0.06536682
0001d0 c0 c4 33 bd 5b b4 92 bd b8 20 aa bc 54 60 8a 3d
       -0.043888807 -0.07163306 -0.020767555 0.067566544
0001e0 e5 cc d0 bb 80 2f a8 bb e7 1a 4d bd 1b 38 9e bd
       -0.0063720816 -0.0051326156 -0.050074484 -0.07725545
0001f0 50 3d c1 3c 99 57 5a 3b 91 54 0e 3c ab 5b 89 bd
       0.023588806 0.0033316372 0.008687154 -0.067069374
000200 78 0d 35 3d 38 97 60 bd 31 b8 77 bb 00 0a 99 bd
       0.044202298 -0.054831713 -0.0037798996 -0.074726105
000210 57 49 af 3b 69 f5 38 3d d8 ed 09 3c b9 90 8f bc
       0.005349319 0.045155916 0.008418523 -0.017525064
000220 66 3e 84 bd f9 cb 18 3d 20 5c fb bc 86 08 07 3c
       -0.06457214 0.0373039 -0.030683577 0.008241778
000230 25 c2 a1 bd 96 53 96 3d 51 3a cb bc 3e 5b 81 3d
       -0.07898358 0.073401615 -0.02480808 0.06316231
000240 c8 b0 d0 3b 06 bd 01 bd ca 5a 02 3d a4 0a a6 3d
       0.00636873 -0.031674407 0.031824864 0.08107498
000250 2d c1 05 bd 53 6b c7 3c 4d c6 5b 3d 4f 01 86 bc
       -0.03265493 0.024343168 0.05365591 -0.016358046
000260 6c 08 46 3c 3a 83 ef 3c 25 80 74 3d b4 11 9e bd
       0.012086969 0.029237378 0.05969252 -0.0771822
000270 1a 72 bf bc 93 89 11 bd f9 71 50 bd 48 2c a3 3d
       -0.023369838 -0.03553159 -0.050889943 0.0796743
000280 66 9e a0 3d c2 02 a2 bd 11 ea 99 3d 63 9f 6b 3d
       0.07842712 -0.07910682 0.07515348 0.05752505
000290 5a d8 82 bd 0d 7b ad 3d 88 8b 31 3c 4c e8 41 3d
       -0.06388922 0.08470736 0.0108364895 0.047340676
0002a0 1a ba 31 3d f9 17 f7 bc 13 41 9f bd 3d 34 a0 bd
       0.04339037 -0.030162798 -0.07776084 -0.07822464
0002b0 eb 89 08 bc 88 5d 00 3d 21 97 8b bd 4b 78 51 3b
       -0.008333663 0.0313392 -0.06815935 0.003196257
0002c0 5e a3 6b 3d 29 b1 85 3d 47 01 cb bc ad 68 09 3d
       0.057528846 0.06527931 -0.024780883 0.033547092
0002d0 0b bf ae 3c e7 54 9d 3d f4 c2 ee 3b 53 9f b9 3c
       0.02133133 0.076822095 0.007286424 0.02265898
0002e0 53 9e 88 bd 2b 59 99 3d 8c 73 dd bc a7 c4 7b 3d
       -0.06670823 0.074877106 -0.027032636 0.06146684
0002f0 22 f0 28 bc a9 66 32 bd 85 57 2b bd 3d f9 9d 3d
       -0.010311158 -0.043554936 -0.041831512 0.07713554
000300 4e fd 19 bd 83 69 65 bd 8d 53 b7 bb 2e bf 6c bd
       -0.037595086 -0.056008827 -0.005594677 -0.05779951
000310 c4 77 b5 3c 87 a6 42 3d 9d be c2 3b 7f 9e 91 3c
       0.022151835 0.047522094 0.005943133 0.017775772
000320 87 9e bf 3c db 0a 80 3d 1e a5 dd bc 1e a8 84 3d
       0.023391021 0.062520705 -0.027056273 0.06477378
000330 3f 65 e8 bc 78 91 8d bc 04 e9 2a bc d5 b5 8a 3d
       -0.02836859 -0.017281279 -0.010431532 0.06772963
000340 84 03 01 bd b0 ef 68 3d 4a e0 92 bd d9 41 49 3c
       -0.031497493 0.05686921 -0.07171686 0.012283766
000350 6d ba 3e bd 67 7d 9a 3d 08 82 92 bd 87 92 16 3d
       -0.04656451 0.0754345 -0.07153708 0.036760833
000360 7c 02 30 3d 78 97 02 3d e4 5e d5 bb 7a 49 7e 3d
       0.04297112 0.031882733 -0.006511556 0.06208179
000370 58 3b 63 3c 80 a1 8c bc c2 ad fa bc c4 0c 13 3d
       0.013869129 -0.017166853 -0.030600432 0.035900846
000380 87 9b 70 bd e8 ce cc bc 5b f5 80 3d 1e a3 6d bd
       -0.058742072 -0.025001004 0.06296798 -0.05801689
000390 12 da 6b 3d d7 9b 17 bd f4 e3 c7 3c 7d 43 64 bc
       0.057581015 -0.037013855 0.024400689 -0.013932106
0003a0 6a 60 e2 bb 0d 5e bd bc 9f 0d 10 3c 55 58 66 3d
       -0.006908466 -0.023116136 0.00879231 0.056236584
0003b0 00 4b 3d bd bd 42 37 3d 34 5b 59 3d 0f f3 11 3d
       -0.046214104 0.04474138 0.053065494 0.03563219
0003c0 66 9f 6d bd e3 02 a6 3c 14 bd 8c ba c1 54 0e bd
       -0.058013342 0.020265048 -0.0010737502 -0.034748796
0003d0 f5 4c 80 bc bb 91 a2 3c f7 0d 2f 3d 06 f4 36 3c
       -0.015661696 0.01984488 0.042737927 0.011166578
0003e0 cb a3 68 3a 10 49 99 3a 98 6b 64 3c e5 85 d2 bc
       0.0008874505 0.0011694748 0.013941668 -0.025698612
0003f0 7c 4a 88 3d b6 94 3c 3c 93 27 db ba 21 bd 9d bd
       0.06654832 0.011510065 -0.0016720168 -0.07702089

encoder_blocks.3.0.bias f4 [12]
000000 a4 3a 3c bd eb ea ba 3c 58 2f 89 3d d0 15 8b bc
       -0.04595436 0.022817096 0.06698483 -0.016978174
000010 04 0b 2d bd 4c 8d 88 3d de 15 60 bc 3f 48 4d bd
       -0.042246833 0.06667575 -0.013677089 -0.050117727
000020 b8 93 9f bc d4 4c 6a bd 73 95 2d 3c 1d e5 51 bb
       -0.019479617 -0.057202175 0.0105947135 -0.0032027431

encoder_blocks.3.2.weight f4 [12, 12, 13]
000000 a2 e8 d1 3b 9c 58 67 bd b5 9e 4d bc 10 f9 5b 3d
       0.006405906 -0.05648099 -0.012550046 0.05370432
000010 97 b2 11 bd 60 e4 82 bd 43 95 09 3d ff 7d 39 bc
       -0.035570707 -0.06391215 0.033589613 -0.011321544
000020 61 d9 52 bd 98 62 19 bb 16 30 41 bd eb 8d 06 3d
       -0.05147684 -0.0023404714 -0.047165 0.032850187
000030 99 03 ff bb 99 b1 d9 3c a0 12 4f bb 1d 0e 2d bc
       -0.0077824113 0.026573943 -0.0031596795 -0.010562447
000040 68 ec fc bc 4a a9 30 bd 7b b0 24 3c 20 2b 85 bd
       -0.030874446 -0.043130197 0.010051842 -0.06502366
000050 95 03 71 3d e5 dd 04 bd 3e 5f 12 bc e3 1f 88 3d
       0.058841307 -0.032438178 -0.00893384 0.06646707
000060 18 a9 0d 3d 15 87 43 3d b3 d1 57 ba 15 ce 25 bd
       0.03458509 0.047736246 -0.0008232847 -0.04047974
000070 d8 85 f5 3c df 6f 84 bd b9 af d6 3c 0d 3d 89 bd
       0.029971048 -0.0646665 0.026206838 -0.06701098
000080 29 d1 4c 3d 2c 2d 5c bd ac 3e 68 bb 44 46 a2 3d
       0.05000416 -0.053754017 -0.0035437746 0.07923558
000090 7b 56 84 3b 87 9b 23 ba 35 94 1b bd 6e 9d 4e bd
       0.0040386296 -0.0006241132 -0.037983138 -0.050443105
0000a0 7d 9e 78 3d 04 7e 97 bd 81 66 82 3b 72 08 a1 3c
       0.06069802 -0.073970824 0.0039795046 0.019657347
0000b0 ff ba 20 3d d4 d5 4e 3c a2 42 ff 3c 2d 90 fd bc
       0.039240833 0.012624223 0.031159703 -0.030952537
0000c0 1e 40 04 bd d2 f0 8b 3d 8b 6f 8b bd 47 eb 9e 3b
       -0.03228771 0.06833042 -0.068083845 0.0048498246
0000d0 e2 c5 84 3d f1 77 80 3d 0d ad 48 3d ef 03 15 bb
       0.06483056 0.06272877 0.04899316 -0.002273794
0000e0 67 45 8d bb e8 66 3d bd bb 7c e6 3b 13 3a 38 3d
       -0.004311252 -0.046240717 0.007033912 0.04497726
0000f0 93 60 88 3d 74 60 4a bc 55 cb c4 3c 23 f3 d1 bc
       0.06659045 -0.012352098 0.024022738 -0.025628632
000100 e3 72 4c bd 90 92 01 bd d1 ee 04 bd 22 b2 a0 bd
       -0.049914252 -0.031633914 -0.032454316 -0.07846476
000110 4f 1f 93 3d 8e 2f 2b bd a4 50 d5 bc 8b 16 49 3d
       0.07183706 -0.0417934 -0.026039429 0.049093764
000120 2b 07 91 3d 0d 74 74 3d 53 3c 95 3d 0c 31 7d 3c
       0.07081445 0.059680987 0.072868966 0.015453588
000130 08 53 73 3d 9f 7f 82 bd dd 01 aa bc 35 5d 94 bd
       0.059405357 -0.06371998 -0.020752842 -0.0724434
000140 8c c0 10 3d f0 d9 82 bd f3 2d 24 bd ba c8 6a bd
       0.035339877 -0.063892245 -0.040082883 -0.057320334
000150 87 aa 95 bd 26 24 c9 bb db 2a 5c 3d 57 f7 9d bd
       -0.07307916 -0.0061383424 0.053751808 -0.07713192
000160 b9 63 8b bc 4e 6b 07 3d c7 58 25 3d 7e 69 36 bd
       -0.017015325 0.033061318 0.040367868 -0.0445342
000170 88 ee 71 3c 69 59 86 bd 9e 9f 9f 3d d8 32 14 3d
       0.014766343 -0.065600224 0.077941164 0.0361813
000180 9c 03 58 3d 68 0e a7 3c d4 b8 ef 3c b4 13 1f 3d
       0.052737817 0.020392612 0.029262938 0.03883715
000190 4e 34 a1 bc 71 3d 3b bd 06 5e 05 bd 28 92 0d 3c
       -0.019678261 -0.045712892 -0.03256037 0.008640803
0001a0 41 94 35 3d 46 f3 f6 bc b3 03 92 3d 86 94 86 3d
       0.04433084 -0.030145299 0.07129612 0.06571297
0001b0 72 ce d4 bc 3e 50 95 3d b3 55 bf 3b 54 be d8 bc
       -0.025977347 0.072906956 0.0058390736 -0.026457943
0001c0 df 6a 9d 3c 95 51 89 3d 35 7f ba bc db 61 4f 3d
       0.019216 0.06705014 -0.022765735 0.05063043
0001d0 10 63 f6 ba 5c 38 cc 3b 3b 8e b0 3a 23 55 24 3d
       -0.0018797833 0.0062323045 0.0013470122 0.040120255
0001e0 a4 f9 91 3d 5c 05 90 3c 97 2c 19 3d 73 10 6c bd
       0.07127693 0.01758068 0.03739604 -0.057632875
0001f0 b7 bb 6c 3d 5b 74 15 bc 6b 30 04 bb 7d 65 78 bd
       0.057796206 -0.00912198 -0.002017046 -0.06064366
000200 82 4a 90 3d 01 15 0e bd cc af 9b 3d 75 41 93 bc
       0.07045461 -0.034688 0.0760189 -0.017975548
000210 d3 4a 2a bd cc c4 76 bd f6 b2 46 bd 79 04 4f 3d
       -0.041575264 -0.060246274 -0.048510514 0.050541375
000220 5d 19 5f bd 06 cb f7 bc e7 69 68 bc 9c 85 84 bb
       -0.054467548 -0.030248176 -0.014185405 -0.004044248
000230 9a 19 d6 ba 1f a3 31 3c 82 b4 a2 bd ab 0a 6a 3c
       -0.0016334534 0.010842114 -0.079445854 0.01428477
000240 d4 3c 30 3d ed 76 b4 bc 54 de 4f bd 27 fa 08 bc
       0.04302676 -0.022029364 -0.050749138 -0.008360422
000250 3e a8 80 bd 34 e5 0a bd 75 3d 6c bc 1e de 24 3a
       -0.0628209 -0.03390999 -0.014418949 0.00062892016
000260 22 b1 cb bc d2 f7 f3 3c 29 48 8a bc af 83 d3 bc
       -0.024864737 0.029781256 -0.016880112 -0.025819628
000270 62 1f c2 3b bd 5b 48 bd 1e c6 34 3d b6 d2 92 3c
       0.0059241513 -0.048915613 0.04413425 0.01792274
000280 bd de a9 bc c5 dd 9b 3d 68 f7 96 3d d0 d1 b1 bc
       -0.020736093 0.076106586 0.07371408 -0.021706492
000290 32 fb 96 3d c7 f4 a9 3c 17 a3 7b 3c 87 d9 24 bd
       0.073721305 0.020746602 0.015358708 -0.040246513
0002a0 be 39 6a 3d d0 6d 5b bc 8e dc 33 3d 75 94 b4 3c
       0.057183973 -0.013392881 0.04391151 0.022043446
0002b0 be 3a 06 bd 86 3c 32 3d 30 26 9e bd 54 ed fb bc
       -0.032770865 0.04351475 -0.077221274 -0.030752815
0002c0 32 79 91 bd 1f 14 8e 3d ae f3 1d bd c6 2d df 3b
       -0.07103194 0.069374315 -0.03856247 0.0068108765
0002d0 54 4b 29 bd cb 0e e5 bc 37 e8 c4 3c fa 94 8a 3d
       -0.041331604 -0.027961155 0.02403651 0.06766696
0002e0 95 d9 45 bd ff 05 17 bd 5a d3 e7 bc 06 e4 6f 3c
       -0.048303206 -0.036870953 -0.028299022 0.014641767
0002f0 ae e8 68 bd 45 da ba bc 73 ff 8e 3d da 1e 5f 3d
       -0.056862526 -0.022809157 0.06982317 0.05447278
000300 db 7e e2 3b 7d e3 69 3d 8e b9 d6 3c 8d 30 71 bc
       0.006912095 0.057101715 0.026211526 -0.014721048
000310 e4 27 20 3c d9 2f a4 bd 8e 40 31 3b db 18 f5 bc
       0.009775136 -0.08016939 0.0027046534 -0.029919079
000320 82 90 48 bd 57 43 14 3d 4b 65 9d 3d a2 c4 1d bc
       -0.04896594 0.036197033 0.07685336 -0.0096294
000330 b9 c0 af 3b f4 75 d9 3b 72 ce 1f 3c fa 29 1d 3d
       0.0053635505 0.0066363756 0.00975381 0.03837011
000340 c3 47 27 bd 1c 10 9a bb 7f 29 66 bd be 7c 46 3d
       -0.04083992 -0.0047016274 -0.056191918 0.048458807
000350 f1 9a 47 3d 67 da 5e bd c6 3d 64 bd 4b 9a fb 3b
       0.048731748 -0.054407503 -0.055722974 0.0076783053
000360 e1 0e 84 3d a4 db dd bc e1 c8 65 bd dd ab 93 3b
       0.064481504 -0.027082272 -0.056099776 0.0045065717
000370 aa 6b ff bc 5c 62 b8 3c 16 a8 0b 3d 2c ef a4 3c
       -0.031179268 0.022507839 0.034095846 0.020133577
000380 f4 85 1d 3d f9 d0 07 bd 72 88 3f 3d ff bf 57 bb
       0.038457826 -0.033158276 0.046760984 -0.0032920835
000390 84 4c 04 bc 66 b1 3b bd e7 02 81 bc 55 5b 47 bd
       -0.008074883 -0.045823477 -0.015748454 -0.048671085
0003a0 2e 04 e0 3c cb 30 0e bd 7f b0 55 bd 46 0d 8c bd
       0.027345743 -0.0347145 -0.052170273 -0.06838469
0003b0 2c 08 91 bd fe 27 e2 bc 04 16 bd 3c af d0 31 bd
       -0.07081637 -0.02760696 0.023081787 -0.043411907
0003c0 15 f7 c7 3c f8 b0 3b bd cd bb 87 3d a8 65 b9 bb
       0.02440981 -0.045823067 0.06627617 -0.0056578703
0003d0 78 9d 4d bd 41 89 7c 3d 10 c5 6a bd bf 30 36 bd
       -0.050199002 0.061654333 -0.05731684 -0.04448008
0003e0 f0 94 3b 3c 20 f8 8f bb 70 5c 9f 3d 88 56 3a bc
       0.011449084 -0.0043935925 0.07781303 -0.01137317
0003f0 92 7c 92 3d 10 ae 28 3c 10 82 95 3d 64 dc 59 3d
       0.07152666 0.010295406 0.07300198 0.053188697

encoder_blocks.3.2.bias f4 [12]
000000 2d e6 9a bd 3c 2f 47 bd 47 8d 98 bd 20 78 31 bd
       -0.07563434 -0.04862903 -0.074488215 -0.04332745
000010 a6 9b 0c bd 21 94 bd 3c 86 23 94 3b 10 74 b2 3b
       -0.034328125 0.023141922 0.0045208363 0.0054459646
000020 43 4a 61 bc d9 c1 6c 3d bf d2 b9 3c 94 a5 60 bc
       -0.0137506155 0.057802055 0.0226835 -0.013711352
