Python/save/localizer/trial_2/quake_localization_model_00600.pth (torch, 252994 bytes, 35 tensors)

encoder_blocks.0.weight f4 [12, 1, 13]
000000 59 6a 43 3e 08 72 47 3e 80 72 64 3e 0e b9 a5 3d
       0.19083537 0.19477093 0.22309303 0.08091937
000010 66 9d 3e 3e db 78 cf 3d b4 53 de bd c2 98 7c bd
       0.1861473 0.10130473 -0.10855809 -0.06166912
000020 b7 c2 53 be 33 e6 4c be 3c e3 44 be 4f 7c b0 3d
       -0.20679747 -0.20009689 -0.19227308 0.0861746
000030 45 cf b2 bd e0 94 5b be 4f 7c 7d be 2c 38 80 be
       -0.0873094 -0.2144351 -0.24754451 -0.25042856
000040 b9 02 07 be dc ce e8 3d ff fe 31 be b8 08 91 3e
       -0.13184632 0.1136758 -0.1738243 0.28326964
000050 88 e5 4a be 3a 8b 99 bc 4d 4e 96 3d 31 6d 31 3e
       -0.19814122 -0.018743146 0.073391534 0.1732681
000060 43 33 20 3e 67 cd 20 bd ac 30 8d 3d 98 ef ad bd
       0.15644555 -0.039258387 0.06894049 -0.084929645
000070 8b 50 b6 3c 23 e6 98 3d 9a c9 5f be a2 db 40 be
       0.022255203 0.0746577 -0.21854249 -0.18833783
000080 19 42 20 3e 1f 55 8b bd ec 2b da bd 8e f6 da bd
       0.15650214 -0.06803345 -0.10652909 -0.10691558
000090 a8 d2 10 bc e4 52 e2 bd 95 ff 7a be 62 0c 9e 3d
       -0.008839287 -0.110509664 -0.2451156 0.077172056
0000a0 fe 9c f1 3c 3a c1 54 be 98 e1 95 3d 55 93 1d be
       0.029493805 -0.20776835 0.07318419 -0.15388234
0000b0 ae 61 11 be f5 f1 b3 3d c0 20 13 3d ea 65 17 3d
       -0.14197418 0.08786384 0.035919905 0.036962427
0000c0 f9 a0 bd bd 19 8a 2f 3b 6c 65 88 3e 2a 7d 81 be
       -0.09259219 0.0026785193 0.2663988 -0.25290805
0000d0 ac db 73 3d 29 b6 26 3d a0 ca b2 bd f5 3e a1 bb
       0.059535667 0.040701065 -0.08730054 -0.004920835
0000e0 d1 2f 16 be 9e 6d e3 bd bd 16 16 be 92 7f 37 3e
       -0.14666678 -0.11104892 -0.14657111 0.17919758
0000f0 4f e8 0a bd ee c8 f4 3d 19 ec 35 bc 11 2d 07 be
       -0.033912953 0.11952387 -0.011103653 -0.13200785
000100 1a c5 2d be 21 e8 af bd d5 22 6f 3e 54 29 ca 3d
       -0.1696972 -0.08589197 0.23353131 0.09871164
000110 b5 56 f7 bc e9 5e 69 bd f4 8e 99 3d 14 03 67 3e
       -0.030192712 -0.05697528 0.07497969 0.22559768
000120 f1 d5 75 be 18 62 a0 3d 84 f0 1c 3e 8b 5c 4d be
       -0.24007393 0.0783121 0.15326124 -0.20054834
000130 bd 7d 69 3e c0 ce 28 3e 2d 4f f4 bd c0 ba fd 3c
       0.22801872 0.16485119 -0.11929164 0.030972838
000140 ee f7 f7 3d 1f fe dd 3d 81 43 86 3d 39 ea 0d bd
       0.12107836 0.108394854 0.06555844 -0.0346472
000150 ec 03 a2 bd cc a7 78 3e 25 09 11 3e e8 d6 14 3e
       -0.07910904 0.2428276 0.14163645 0.14535105
000160 7e f3 89 be 19 46 f8 3d d7 55 19 be 8b 59 bd 3d
       -0.26943582 0.12122745 -0.14974152 0.092455946
000170 32 c3 c2 bd f8 85 58 bd e3 c4 e1 3d 80 1a 50 be
       -0.09509887 -0.052862138 0.11023881 -0.20322609
000180 58 3c 8b 3e 44 b5 4c 3e 38 8c b8 bd 73 11 13 3e
       0.27194476 0.19991022 -0.090111196 0.14362125
000190 75 c9 2f be 58 71 58 3c dd 06 5c 3e 69 cc c8 3c
       -0.17166694 0.013210617 0.21486993 0.024511533
0001a0 a6 29 37 be cb 5c 73 bc 94 dc 36 bd ac b4 8e bd
       -0.17886981 -0.014853667 -0.044643953 -0.06968054
0001b0 56 af 28 3e 82 f8 46 3e 68 e3 41 3e b8 bf 7e 3e
       0.16473135 0.19430736 0.18934405 0.24877822
0001c0 99 96 21 3e bc c6 3e 3e db 40 69 3e 28 51 0f be
       0.15780105 0.18630499 0.22778647 -0.13995802
0001d0 bc 02 2c 3e 5e 20 86 3e 9e 62 a5 bd 88 f0 48 be
       0.16797918 0.2619657 -0.0807545 -0.19623005
0001e0 56 e6 64 be 3b d8 5b 3c d4 5e 3b be 47 4e 46 be
       -0.22353491 0.013418253 -0.18297893 -0.19365798
0001f0 c8 a0 04 3e 92 11 5a 3e 0b 37 46 be d7 3c 8b 3e
       0.12951958 0.21295765 -0.19356935 0.27194855
000200 79 9e 43 3d e2 b4 e7 3d 52 42 91 3e 36 9f 66 be
       0.047758553 0.113137975 0.2837091 -0.22521672
000210 4b ee 8d 3e 6c c5 c7 3c ac ed 18 bd 06 3b 54 3e
       0.27720866 0.02438613 -0.037336037 0.2072564
000220 04 cf ef 3d 9d a7 dd 3c db cf 2d bd b9 64 4e bd
       0.11709407 0.027057463 -0.042434555 -0.050389025
000230 35 9a fa bb 37 b7 d2 bd 9c ed 42 be 70 4a 96 3d
       -0.0076477774 -0.10288852 -0.19035953 0.073384166
000240 84 50 18 3e 17 e8 56 be f3 75 5d bd 76 25 68 be
       0.14874464 -0.20986973 -0.054067563 -0.2267054
000250 8c b0 8a be 82 36 b8 3d 1a de 75 be 2f 15 d2 bd
       -0.2708782 0.089947715 -0.24010506 -0.10257947
000260 83 34 33 be d6 42 74 3e 62 46 46 be 0f 48 f1 bd
       -0.175005 0.23853621 -0.19362786 -0.11781322

encoder_blocks.0.bias f4 [12]
000000 7f 8f 3a be 97 01 2b 3d 9b 5c 86 3e 7d b6 eb bd
       -0.18218802 0.041749563 0.26242527 -0.11509416
000010 33 16 89 3e ff 17 86 be 82 f0 84 3d 29 99 e1 3d
       0.2677475 -0.26190183 0.06491186 0.11015541
000020 2a a1 9f 3d b0 b1 97 bd 20 8f eb 3b 08 fc dc 3d
       0.077944115 -0.07406938 0.0071886927 0.10790259

encoder_blocks.1.0.weight f4 [12, 12, 13]
000000 12 01 69 bc 19 36 56 3d 01 91 90 3d 74 33 df bc
       -0.014221447 0.052297685 0.07058907 -0.027246214
000010 6f ca 3b bd 02 f0 7b 3d 44 5f 30 bd 0c d5 ab 3c
       -0.045847353 0.061508186 -0.043059602 0.020975612
000020 eb 26 47 bd 7d e8 e3 bc 6d ff 1c bd 0b 78 54 3d
       -0.0486211 -0.02782082 -0.03832953 0.051872294
000030 8e e0 47 3c cd 0b 79 3d 57 de 41 bd 02 08 a2 bc
       0.012199534 0.06080227 -0.04733118 -0.019779209
000040 36 de 47 bd 27 80 91 3c 96 4d c8 3b 19 9a 54 bd
       -0.0487959 0.017761303 0.0061127646 -0.05190477
000050 a9 b5 e0 bc 86 72 99 bd 9a 73 dc bc b5 f5 98 bc
       -0.027430372 -0.07492547 -0.026910592 -0.01867185
000060 0f 90 25 bd c8 1a 3f 3d f1 98 13 bc 75 bc 8d 3d
       -0.040420588 0.0466564 -0.009008632 0.06920711
000070 87 1b 8a bb 6a 0b 00 3c 69 c8 65 bd 34 97 91 bd
       -0.0042147073 0.007815221 -0.05609933 -0.07108918
000080 c3 aa 9e 3d cc 26 ac bd f4 76 6b 3d ff 9a 5d bc
       0.07747414 -0.084058374 0.05748649 -0.0135257235
000090 f7 e8 55 3d 43 cc a6 3d da 17 93 3d 55 40 aa bd
       0.052224126 0.081444286 0.07182284 -0.083130516
0000a0 0c ba 0f 3d 10 59 7c bd e1 08 01 3d 94 99 11 3d
       0.035089538 -0.061608374 0.03150261 0.035546854
0000b0 97 7b 89 3d 77 61 7e 3d 7a 52 8d 3c e1 81 78 bd
       0.06713026 0.06210467 0.017251242 -0.060670737
0000c0 28 71 61 ba cd 35 9c bd be 91 86 bd 0d 83 81 3d
       -0.00085999304 -0.07627449 -0.06570767 0.06323824
0000d0 c1 e8 80 3b 1f fa 37 3d a1 c2 8c 39 e3 ac 93 bd
       0.0039339964 0.04491627 0.0002684789 -0.0721071
0000e0 ca a6 93 3d a7 e8 2c 3d 91 cb b7 bc 73 2f 67 3c
       0.07209547 0.042214062 -0.022435935 0.014110434
0000f0 15 77 dc 3b 54 ac 2e bc 86 82 6c bd b2 9f 8c 3c
       0.006728063 -0.010661203 -0.057741664 0.017165992
000100 34 f2 bc bc ab ff 2e 3d fc 7c 1d bd a7 94 df 3c
       -0.02306471 0.042724293 -0.038449273 0.027292563
000110 ac 29 65 3c 2d 09 46 bd d0 82 66 bd 3c 6a 4d bd
       0.013986986 -0.048348594 -0.056277096 -0.05015014
000120 49 37 76 3d dd fd 91 bd ea a4 2e 3d 74 84 97 3d
       0.060111318 -0.07128499 0.042637743 0.0739831
000130 26 06 00 3d 53 bf 34 bd c7 05 0c 3d f9 f7 ae bd
       0.031255864 -0.044127773 0.034185197 -0.08543391
000140 5e 70 86 3b 24 de 48 3d 30 51 a3 3d e4 de 2d bd
       0.0041027507 0.049039975 0.0797447 -0.042448893
000150 8b 82 7b bd e1 93 82 3c f7 1f 45 bd a1 27 29 3c
       -0.061403792 0.015939655 -0.048126187 0.01032439
000160 12 66 57 3d e1 ae 87 3d fa 9f c6 3c e8 0a 3b bd
       0.052587576 0.066251524 0.024246205 -0.045664698
000170 bd c6 0d ba 12 96 f6 bc a7 53 40 bd 86 50 ad bc
       -0.00054083375 -0.030100856 -0.046954777 -0.02115656
000180 a5 37 0a bd f4 05 5e bd 20 68 80 3d a8 44 50 3d
       -0.033744473 -0.054204896 0.0626986 0.050846726
000190 12 4a 88 bd b6 2a db bb 82 fd a4 bc d0 90 bc 3a
       -0.06654753 -0.006688441 -0.020140413 0.0014386419
0001a0 09 e7 8d 3d 0f 7a c5 bc ab bb e8 3a 8e 48 9d bd
       0.06928832 -0.024106054 0.0017756125 -0.07679854
0001b0 02 c7 ea 3c cc ec 45 bd 99 1b 98 3c b8 85 fb bc
       0.028659347 -0.04832153 0.018567847 -0.03070341
0001c0 14 b5 03 bc 0c 4e 34 3d 13 a5 18 3d 18 02 6b 3d
       -0.008038778 0.044019744 0.037266802 0.057375044
0001d0 dd 4a 86 3d 2b 66 8b bc e7 0f f9 bc 45 67 8c bc
       0.06557248 -0.01701649 -0.03040309 -0.017139086
0001e0 fe 9b 85 3b 2c 1a 13 3d ad cc 3b bd d5 8a 9e bd
       0.0040774336 0.03591363 -0.04584949 -0.07741324
0001f0 0f f4 8e bd 62 c5 3e bc 4e e3 99 bc 5e e8 79 bc
       -0.06980144 -0.011643739 -0.018785145 -0.015253155
000200 86 c5 01 bd ee 37 7d bd 67 66 05 bd 13 9f 44 3c
       -0.031682514 -0.061820917 -0.03256836 0.012000817
000210 f1 c9 88 bd 54 1e b3 3c 28 61 15 bd ac 77 8c 3d
       -0.06679142 0.021865048 -0.03646961 0.06858763
000220 1e bc 6c bc 1b f3 34 3b d3 46 28 bd b1 5e 02 bc
       -0.0144491475 0.0027610722 -0.04108317 -0.0079571465
000230 d7 00 86 bd 07 e6 2b bd ef 31 99 bc 87 aa d6 bc
       -0.06543129 -0.041967418 -0.018700568 -0.02620436
000240 f8 68 3c 3d 6d 72 b4 bc 88 8e 87 bc 4a c1 82 3d
       0.045998544 -0.022027219 -0.016547456 0.06384523
000250 06 14 96 bd a8 8f 91 3c 17 fb 24 bd 09 ca d6 3c
       -0.07328038 0.017768696 -0.04027852 0.026219385
000260 48 d2 1c 3d 95 0b 09 bd 96 71 40 3d 91 fc 98 bd
       0.038286477 -0.03345831 0.046983324 -0.07470048
000270 55 b9 01 bd 03 da 3e 3d b1 54 80 bd df d5 32 3d
       -0.031670887 0.04659463 -0.062661536 0.043660995
000280 28 83 e7 3c 01 35 91 bd 55 59 89 bd e7 fd 38 3d
       0.028260782 -0.07090188 -0.06706492 0.045164015
000290 a5 41 a3 3d d0 7d 87 3d 01 c9 29 bd 44 e1 57 3d
       0.07971505 0.06615794 -0.041451458 0.052705064
0002a0 67 7d 69 3d ee 23 91 bd b9 bc 83 bd f8 97 1a 3d
       0.05700436 -0.07086931 -0.0643248 0.037742585
0002b0 b2 b9 85 3d a3 6b 71 3d f5 3c 84 3d 4f be 23 3d
       0.06529559 0.05894054 0.06456939 0.039976414
0002c0 0d e7 a2 3d ed b1 ce 3c a9 8b d0 bb 66 e6 db 3c
       0.07954226 0.025231326 -0.006364305 0.026843261
0002d0 6d 88 88 bd 3b 4a 83 3d d9 c7 47 3a 44 00 07 3c
       -0.06666646 0.06410643 0.0007621027 0.008239809
0002e0 92 73 a1 3d 2c 45 8f 3d 91 29 74 3b 1c 33 16 bd
       0.078833714 0.06995615 0.003725622 -0.036669835
0002f0 b7 e4 4b bd 38 dd 3f bd 1b b8 32 3d 73 9b db bc
       -0.049778666 -0.04684183 0.043632608 -0.026807522
000300 9b af 8f bd 4f 5d f8 3c 36 74 b1 3d 46 a4 98 3b
       -0.07015916 0.03031793 0.086647436 0.004658255
000310 dd 9f 43 3c 33 5b 77 3c 16 a0 dc 3c 88 52 89 3c
       0.01193997 0.015097427 0.026931804 0.016762987
000320 e8 cc 06 bd 1a e6 87 bd 4f f1 a2 bc 17 19 e1 3c
       -0.032910258 -0.06635685 -0.019890456 0.027477784
000330 77 ee f7 bc cb 86 a8 3d 58 6b f5 bc 57 34 9b 3d
       -0.030265076 0.08228835 -0.029958412 0.075783424
000340 26 b7 3e bd d6 51 50 bd b6 63 11 bd 68 69 80 bd
       -0.046561383 -0.050859295 -0.035495482 -0.06270105
000350 b2 8e 51 3c 65 f3 35 bc eb cc 39 3d 6b 7b 86 bd
       0.012790369 -0.011105393 0.04536144 -0.06566509
000360 88 1d d1 bb 80 ea 88 bc 85 22 5c 3d b5 94 48 bc
       -0.006381694 -0.01671338 0.053743858 -0.012242486
000370 fa 6a c1 3c c1 1d 93 3d f8 a0 4d bb 72 c1 97 3b
       0.02361058 0.071834095 -0.0031376462 0.004631215
000380 9e 0b 48 3d 96 49 b6 3b 6b c8 39 3c 77 a9 24 3c
       0.048839204 0.0055629713 0.011339287 0.010050169
000390 c3 eb b1 3c c7 9f 4f 3d c8 82 9e bc 30 70 39 bd
       0.021718865 0.050689485 -0.01934947 -0.045273006
0003a0 c5 76 cc bc 53 38 13 3d 61 72 04 3d bc 38 d3 bc
       -0.024958977 0.035942387 0.032335643 -0.025783889
0003b0 1b ba 90 3d c1 9d 85 bd 7e 75 75 bd 78 3d 9e 3d
       0.07066747 -0.0652423 -0.059926502 0.07726568
0003c0 f7 c4 b7 3c fe f3 51 3d 89 fe 52 3c 30 df 8d bd
       0.022432787 0.05125808 0.012878069 -0.06927335
0003d0 4c 37 76 bb 2d 64 92 3c ae d8 4f bd aa 3e 9f bd
       -0.003756958 0.017870033 -0.05074375 -0.07775624
0003e0 78 fc 03 bd c2 72 e8 bc b3 61 5f 3d d8 8e 89 3d
       -0.032223195 -0.028375033 0.054536533 0.067166984
0003f0 37 70 66 bd 40 42 a9 3b 41 06 82 bc 9f 55 91 3b
       -0.05625936 0.0051653683 -0.015872123 0.0044352557

encoder_blocks.1.0.bias f4 [12]
000000 a2 9b 2f 3c 03 83 12 bc 16 12 08 bd 5a a9 9c 3d
       0.010718258 -0.008942368 -0.033220373 0.07649489
000010 e5 ed aa bd 4c 9f 63 3d 88 ed 53 bc 13 a7 10 bd
       -0.08346156 0.05557184 -0.01293505 -0.035315584
000020 56 5f d6 3c f3 7b a6 3d 66 13 df 3d 33 23 05 3d
       0.026168507 0.0812911 0.10892372 0.03250427

encoder_blocks.1.2.weight f4 [12, 12, 13]
000000 59 5a 82 3d ba 1f 40 bd 12 74 58 3d 6e d8 97 3d
       0.06364889 -0.046905257 0.05284507 0.074143276
000010 aa 4e 52 3d 65 1a 2c 3d a2 e6 40 3c 7e c2 86 3b
       0.05134455 0.04201736 0.011773737 0.0041125407
000020 43 bf 19 bc fe d1 f5 bc c8 78 4a bb e0 4c 0a bc
       -0.009383979 -0.030007359 -0.0030894745 -0.00844118
000030 7e 20 86 3d 4d d7 54 bd c5 0c 99 3c 40 fd 1f bb
       0.06549166 -0.05196314 0.018682847 -0.0024412423
000040 2d b0 12 3b 7f 9c 43 3d a8 7d a3 3d 60 ef 73 bd
       0.002238284 0.04775667 0.079829514 -0.059554458
000050 cf 21 b1 3d 6b 68 64 bd e3 bf bf 3d b2 76 8e bb
       0.086490266 -0.055763643 0.09362771 -0.0043476457
000060 38 17 7b 3d c9 43 7f 3d 90 3f 45 bd 00 17 98 bd
       0.06130144 0.062320504 -0.04815632 -0.07426262
000070 2d 50 2f 3d a6 46 87 3c e6 af 08 bc fd 96 ee bc
       0.04280107 0.01651318 -0.008342719 -0.029124731
000080 55 53 96 bd b3 74 44 bd 2d d9 99 3d 61 51 06 3d
       -0.07340113 -0.047962856 0.07512126 0.032792453
000090 88 f9 68 3d 10 e1 0c bd ea 79 28 3d 1a 7c 87 3c
       0.056878597 -0.034394324 0.04113189 0.016538668
0000a0 22 2c f4 bc 6a 6e d2 bb fa 3a ff 3c 40 e4 b2 bc
       -0.0298062 -0.006421854 0.031156052 -0.021837354
0000b0 0a 61 7a 3d 83 c0 12 3c 49 a6 40 bd 50 3b 6d 3c
       0.0611277 0.008957031 -0.047033582 0.014479473
0000c0 70 30 97 3c f1 55 83 bd 33 be 74 bd 26 d3 92 3d
       0.018455714 -0.064128764 -0.0597517 0.071691796
0000d0 a5 5a 87 3d e1 36 b5 3c f9 99 52 bd 8e a8 20 bd
       0.06609086 0.022120895 -0.05141637 -0.039223246
0000e0 4f c7 a4 3c 70 14 f4 bb 8f 7b 8d 3b ff b6 93 3d
       0.020114569 -0.0074487254 0.004317708 0.07212638
0000f0 4a 41 02 3d e1 f5 60 bc 0c 2f 5f bd 0e 36 40 3c
       0.031800546 -0.013730497 -0.054488227 0.011731638
000100 46 26 c5 3c e4 eb 8c 3d d6 4b 12 bd 3c 4c 7f bd
       0.024066102 0.0688093 -0.035716854 -0.062328562
000110 7c 8a 96 3c 5b b3 61 bd 8e b1 70 3d 8e 15 e6 bc
       0.018376581 -0.055102687 0.05876308 -0.02808645
000120 db 90 90 bd 1a f2 97 bd eb 07 0b bc 11 96 2e 3d
       -0.07058879 -0.07419224 -0.0084857745 0.042623583
000130 36 d3 1d bd d5 f6 7f b9 ba fa 0b bc 06 70 31 3d
       -0.038531505 -0.00024410647 -0.008543665 0.043319725
000140 06 df 0c 3d 08 5b ee bc 60 56 63 3c ec 23 06 3d
       0.03439238 -0.029096141 0.013875574 0.0327491
000150 d5 40 a7 bb 08 4e 48 bc 17 a3 87 3c 16 b0 b3 3c
       -0.005104164 -0.012225635 0.01655726 0.02193455
000160 89 63 58 bd db a5 32 3d 01 8f b7 bc 25 a6 a2 3d
       -0.0528293 0.043615203 -0.022407057 0.07941846
000170 20 35 4e 3b 30 d3 36 3d 6a d4 de 3c 55 df a3 3d
       0.003146477 0.044634998 0.027200896 0.080015816
000180 c6 00 65 3b f6 1d 8a 3c 8a 70 96 bd 7b 34 eb 3c
       0.0034943088 0.01685999 -0.07345684 0.028711548
000190 73 af 6f 3c 18 b6 24 bd c0 70 8e bd 01 7b ae 3d
       0.014629233 -0.04021272 -0.06955099 0.08519555
0001a0 22 ee 8c bd 74 93 5b 3d 26 e1 0d bc 14 08 08 bc
       -0.06881358 0.05360742 -0.008659637 -0.008302707
0001b0 64 a7 89 bd cd 5a 15 3d e2 0b 1e 3d 92 eb e8 3c
       -0.0672138 0.036463547 0.03858555 0.028432641
0001c0 87 f6 ad bc 73 ae 01 3d e9 b0 e9 bc 8e 54 26 3d
       -0.021235717 0.03166051 -0.02852674 0.04060798
0001d0 1c 00 e1 3a ca 61 8c 3d dc 70 cd bc 46 e2 c0 bb
       0.001716617 0.06854589 -0.02507823 -0.005886349
0001e0 f3 2f 7f bd ab 15 40 3d 11 25 ab 3d 1b 09 87 3d
       -0.062301587 0.046895664 0.08356679 0.065935336
0001f0 b1 d2 95 bd 4b ba 81 3d ef f5 19 bc 17 56 0e bb
       -0.07315577 0.06334361 -0.009397014 -0.0021718794
000200 f2 fe 1c 3d c4 22 3f 3d 38 a9 13 bd a9 e1 ad bc
       0.038329072 0.046664014 -0.03605005 -0.021225767
000210 b8 bf 71 3d 66 5b 78 bd aa 2b 3b 3d 97 db 0b bd
       0.059020728 -0.06063404 0.04569594 -0.034144964
000220 96 32 44 bd 26 43 9f 3d 96 0a 4c bd 1b 24 07 bd
       -0.047899805 0.077764794 -0.049814783 -0.032993417
000230 1f b8 ad 3d 8e bc 3e bd 7c d8 87 3d e3 13 9f bd
       0.08482384 -0.04656654 0.06633088 -0.07767465
000240 77 82 9c bc a7 fa 6c bc fa 16 ac 3d 8f d8 12 3d
       -0.01910518 -0.014464057 0.0840282 0.035851058
000250 9b ef f1 bc f2 3d 90 3d 07 19 e6 3c 91 bd 94 3d
       -0.029533198 0.07043065 0.028088106 0.072627194
000260 2a a9 cd 3c ca ac 86 3d bf 6e a9 3d 06 bd fe bc
       0.025105078 0.06575926 0.08273076 -0.031095993
000270 81 7b 43 3a 0d 2f dc bb 8c 1d 88 bd 9f f0 6a bd
       0.0007457063 -0.006719476 -0.066462606 -0.05735838
000280 d0 a7 87 bc 73 cb b0 bd 34 9e be 3c 82 a6 5c bd
       -0.016559511 -0.08632555 0.023268797 -0.05386973
000290 bf 0e fb bc 1a be 1c 3d 01 73 4d 3d 6c f6 aa bc
       -0.03064668 0.038267232 0.050158504 -0.020869456
0002a0 38 f5 ff bc d9 ee 9f bd 8d 95 f1 bc bb a3 51 3c
       -0.03124486 -0.078092285 -0.029490257 0.012795384
0002b0 2b 3d 1e bc 74 f9 77 3d 10 23 b5 3d 18 87 1e 3c
       -0.009658138 0.06054063 0.08844578 0.009675764
0002c0 47 b6 0f 3d a7 12 98 3d b6 73 67 3b 41 1e ac bd
       0.035085943 0.07425433 0.0035316772 -0.08404208
0002d0 5a 5c 79 3d 82 f8 84 bd 7f 85 44 bd 6a e6 6c 3c
       0.06087909 -0.064927116 -0.047978874 0.014459232
0002e0 5c f7 8b 3d 06 52 e5 3c 19 d8 3f bc 9b 2f 5c 3d
       0.068342894 0.027993213 -0.011709237 0.053756338
0002f0 fc db a4 bd be f3 a5 3d 77 fc 60 bc 96 bd e6 3c
       -0.08049771 0.08103131 -0.013732067 0.028166573
000300 3d bc 61 bc 7f c2 a6 3d 8b 99 d1 3b 71 4d 08 bd
       -0.01377779 0.08142566 0.0063964776 -0.03327698
000310 49 95 94 3b 0d 98 27 bb 0c 26 55 3d f4 d8 03 bd
       0.0045343977 -0.0025572807 0.052038237 -0.032189324
000320 4c d1 88 bd 10 d7 c4 3b ff 94 89 bd 1a 35 4b bd
       -0.06680545 0.0060070828 -0.06717872 -0.04961119
000330 8e 27 8b 3d 74 35 1a 3d 98 d0 61 bd d3 18 97 3c
       0.06794654 0.037648633 -0.05513057 0.018444454
000340 76 6d 4a 3d 4c e7 0d bd 47 26 74 bb e5 a8 7f bd
       0.049420796 -0.03464441 -0.003725426 -0.06241693
000350 a1 fe 1b bd a6 6e 98 3d ab 1b 93 bd 15 ed a0 3d
       -0.03808463 0.074429795 -0.071830116 0.0785772
000360 2d c4 f6 bb dd ae cd bc 20 2e b6 3c 9c 1d 06 3d
       -0.00753071 -0.025107795 0.022238791 0.03274308
000370 73 8c 10 bd 18 40 88 3d b9 55 73 3d 88 b0 58 bb
       -0.035290193 0.0665285 0.059407923 -0.0033064205
000380 d5 d0 d1 bc 15 57 97 bd b0 64 44 3d c4 30 18 3d
       -0.025612274 -0.073896565 0.047947586 0.03715588
000390 88 c5 87 bd 44 1b 98 3d e5 b9 5a 3d c2 8d 2e 3d
       -0.06629473 0.074270755 0.05339994 0.04261566
0003a0 26 54 96 bd a7 4b 8d 3d 85 7d 93 bb 24 5e 8f 3b
       -0.07340269 0.06899195 -0.004501047 0.004375236
0003b0 c5 e8 30 bd dc be e3 bb 44 94 e2 bc f9 0d 43 3c
       -0.043190736 -0.0069502424 -0.02765859 0.011905187
0003c0 d3 93 84 3d a6 a9 08 bd 4f e9 6f 3c 38 0b 87 3c
       0.06473508 -0.033364914 0.014643027 0.016484842
0003d0 25 5f 00 3d 1e e0 15 3d 80 4b b6 bd c7 e8 71 3c
       0.031340737 0.036590688 -0.08901119 0.014764971
0003e0 0e 3b a2 bc 78 2d 48 3d e4 cc 99 3c 41 d5 77 bd
       -0.01980355 0.048871487 0.018774457 -0.06050611
0003f0 2b 58 03 3d 76 c3 8e 3d 3f 70 54 bd 91 f9 7c bd
       0.032066505 0.06970875 -0.05186486 -0.061761443

encoder_blocks.1.2.bias f4 [12]
000000 7b 05 2c bc 47 d6 ee 3c eb 8c d0 3d 04 4e 28 3d
       -0.0104993535 0.02915491 0.10183128 0.041090026
000010 5c 32 c7 3c 2a 23 40 bd 68 c3 62 bd c7 0f 3d bd
       0.024316005 -0.046908535 -0.055362135 -0.046157625
000020 22 70 36 3d 10 6c a9 3d 50 3e 98 3d 44 3a cc bb
       0.044540532 0.082725644 0.0743376 -0.0062325317

encoder_blocks.2.0.weight f4 [12, 12, 13]
000000 0c 73 96 3d c3 46 2f bc 14 11 c6 3c 28 cc 5c 3d
       0.07346162 -0.010698023 0.024178065 0.053905636
000010 5c c2 17 3c 45 ca 38 3d 45 10 a0 3d 8d 9b 2c 3d
       0.0092626475 0.045114774 0.07815603 0.042140532
000020 37 d7 b0 3c 0d 91 99 bd 12 11 46 3d 4a 1c 75 bd
       0.021586997 -0.07498369 0.048356123 -0.05984143
000030 c6 7b 89 3d d6 02 ab bd 90 a6 a6 3d 4b 04 2b bd
       0.06713061 -0.0835015 0.08137238 -0.04175214
000040 00 a7 d2 3b 5e f5 ac 3c 6c 5c 59 bd 2a 73 ad bc
       0.0064285994 0.021113094 -0.053066656 -0.021173079
000050 7e bb 34 3d 46 f6 98 bd f4 7b 1c 3d dc a2 3c 3b
       0.04412412 -0.07468848 0.03820415 0.0028783595
000060 f2 f8 2d 3d 23 00 5a bd 38 72 1d 3d 87 99 18 bd
       0.04247374 -0.053222787 0.038439006 -0.03725579
000070 4d e7 b6 bd 78 95 56 bd 82 2e d9 3c 2d 75 a9 3b
       -0.08930836 -0.05238864 0.026511434 0.005171439
000080 d4 12 90 bd 3e cc 35 bd ae 04 80 3c 04 7f 89 bd
       -0.07034841 -0.044384234 0.015627231 -0.067136794
000090 f7 e2 4f ba 0f 95 ba bb 34 f4 76 3d d8 ca fe 3c
       -0.0007930244 -0.0056940387 0.060291484 0.031102583
0000a0 96 13 ae bd be 26 3c bc 32 17 5b 3d 93 dd d8 3c
       -0.084998295 -0.011483846 0.053488918 0.026472842
0000b0 01 6b 50 3c d9 88 a8 ba 58 1c 11 bd ec 35 81 bd
       0.012720824 -0.0012858167 -0.03542742 -0.06309113
0000c0 c2 57 97 3d 7d 99 7a 3c d0 2f 98 3b b0 8b 49 3d
       0.07389785 0.0152953835 0.0046443716 0.049205482
0000d0 29 2a 30 3d e5 53 b3 bc 28 57 f0 3c 82 48 a6 3c
       0.043008957 -0.02189059 0.029338434 0.020298246
0000e0 4e 76 ab 3c 58 df 8c 3d b7 b9 86 3d ec 32 a9 bd
       0.020930436 0.06878537 0.06578391 -0.08261666
0000f0 bc 1e 85 3a d6 37 f2 3c 09 9a 8c 3d 41 90 f5 3c
       0.0010156254 0.02956764 0.068653174 0.029976012
000100 76 b1 a0 3c 93 85 be bc 06 2c c0 3c 7a d5 7d 3c
       0.01961587 -0.023257053 0.023458492 0.015492791
000110 01 94 8d bd fc 2b 90 bd 93 06 91 bd 6f d2 de bc
       -0.06912995 -0.07039639 -0.07081332 -0.027199952
000120 68 d7 8e 3d df 1a 13 3d ef 8c 97 bd 93 aa d7 3a
       0.06974679 0.0359143 -0.07399928 0.0016454033
000130 5e e5 0d bd 49 5c 82 3d 81 70 52 3d 9d e6 1d 3c
       -0.03464257 0.06365258 0.051376823 0.009637502
000140 05 45 50 bc 7f 69 29 3c 7e 7f 70 3b ba 19 14 3c
       -0.012711768 0.010340094 0.0036697085 0.009039337
000150 5d 7c 8c 3c 55 e7 e9 bc d9 c5 d8 bc 15 71 5e bd
       0.017149145 -0.02855269 -0.026461529 -0.054307062
000160 98 33 ce bc f3 91 a6 3b 74 6e 7f 3d 24 05 e7 bc
       -0.025171086 0.0050833165 0.062361196 -0.028200693
000170 09 ab 9f bd 40 18 77 3d 50 7a fc bb 7b 1a 3b bd
       -0.07796294 0.06032586 -0.0077050105 -0.04567955
000180 3d 48 06 3d 66 47 67 bc 3f 31 73 bc 4f 02 b5 3d
       0.032783736 -0.014116144 -0.014843284 0.08838331
000190 22 eb 51 bd e9 fa df 3c ef 92 4d 3d 6f 32 29 bd
       -0.05124963 0.027341323 0.050188955 -0.041307863
0001a0 01 ea cd bc e4 e2 52 bd 3d 83 63 3c e6 ba 55 bd
       -0.025135996 -0.05148591 0.01388627 -0.052180193
0001b0 dd c4 86 3d 6b df 9f 3d 0d 4a ee bc 4b 86 4a 3d
       0.065805174 0.078062855 -0.029088045 0.049444478
0001c0 c2 7e 87 bd bb 2f ce bb 11 45 15 3d 75 22 8e bd
       -0.06615974 -0.006292311 0.03644282 -0.06940166
0001d0 14 f9 21 bd 1d 39 24 bd 57 19 02 3c 28 67 40 3a
       -0.03954418 -0.04009353 0.007940612 0.000733959
0001e0 1f 15 89 bd 03 4a 88 3d 5d 8e a4 bd 81 d2 10 3d
       -0.06693482 0.066547416 -0.08034966 0.035357002
0001f0 20 2b b1 bc ae 62 6d bd 95 f8 29 3c 22 9a 20 bd
       -0.021627009 -0.057955436 0.010374208 -0.039209493
000200 cd e5 2f bd 91 d2 82 bd 44 71 8d bd 3e d4 87 bd
       -0.042943764 -0.063878186 -0.06906369 -0.06632279
000210 11 b9 a4 bd fa 2f 80 bc d7 cd a5 3c 52 3f d3 3c
       -0.08043111 -0.015647877 0.020239754 0.02578703
000220 d1 3f 90 3d fe 51 2d 3a 5d f8 8d bb ad 9f 88 3d
       0.07043422 0.0006611644 -0.0043325857 0.06671081
000230 e6 2f 12 3d ac 77 00 3d bb e8 57 bd 31 87 7d 3c
       0.03569021 0.031364128 -0.052712183 0.015474127
000240 e7 9c 8f bd 86 8d 68 bd ea e0 87 3d c0 3d 81 bd
       -0.070123486 -0.056775592 0.06634696 -0.06310606
000250 b4 23 4c bd f5 8e 45 3a 1c 2d ce 3c 7b 2d 93 b9
       -0.049838737 0.0007536256 0.025167994 -0.0002807191
000260 20 58 85 3c 16 c0 ac 3d 54 57 64 bd 43 89 72 3d
       0.016277373 0.08435075 -0.055747345 0.059212934
000270 2d f2 6a 3d d4 88 27 bd 12 4c ef 3b 7d 6e 52 3d
       0.057359863 -0.040901974 0.0073027695 0.0513749
000280 62 93 0a bd 59 b7 11 3d 83 25 81 bc c6 c6 06 bc
       -0.03383196 0.035575245 -0.015764957 -0.008226102
000290 61 0b 88 3c 79 cb 2b 39 89 1d 23 3d b0 03 90 3d
       0.016606988 0.0001638363 0.03982309 0.07031953
0002a0 28 ec 08 bd 84 2f b7 3d 8f a8 28 3d c6 13 80 bc
       -0.03342834 0.0894461 0.041176375 -0.015634429
0002b0 d8 20 4c bd a0 8e 0d bd 25 da 17 3c 8f 13 23 3d
       -0.04983601 -0.034559846 0.009268318 0.039813574
0002c0 1b 0d b1 bc b9 ac 04 bb 56 fe 62 3d 70 06 28 3d
       -0.021612694 -0.0020244552 0.055418335 0.041021764
0002d0 a7 88 ec bc cd a4 a2 3d 5f 0e b1 3a 98 87 e4 3c
       -0.028873755 0.079415895 0.0013508311 0.027896687
0002e0 f7 ba 0f bd 7a f5 54 3d 8a a4 90 3d 78 c4 9b 3b
       -0.035090413 0.051991917 0.07062633 0.0047536455
0002f0 88 d4 66 bc 63 94 cd 3c e3 98 5f bd 24 8d b8 bc
       -0.014088757 0.02509517 -0.054589164 -0.022528239
000300 69 ea e6 3c d3 8b 2e 3b ae d9 8b 3d c5 0f 97 3d
       0.028187947 0.0026633635 0.068286285 0.07376055
000310 ff 76 87 3d 10 cc 80 3d 36 3a 56 bd 20 42 8e 3c
       0.066144936 0.06288922 -0.052301608 0.017365515
000320 c3 6b b4 3c ae 1a 3f 3d d8 56 ba bc fa 84 03 3d
       0.022024041 0.046656303 -0.022746488 0.03210924
000330 59 18 41 ba e3 c3 84 3d c1 22 eb bb 07 f0 25 bc
       -0.0007365994 0.06482675 -0.007175774 -0.010128028
000340 ad b8 b5 3c 51 91 c0 3b f8 8e 04 3d 32 07 97 3d
       0.022182787 0.005876698 0.032362908 0.07374419
000350 19 d8 5d bd 9f 89 58 3d 91 04 60 3c f9 9e bf bc
       -0.054161165 0.05286562 0.013672964 -0.023391234
000360 fa 46 45 bd b9 72 94 bd 5b 22 96 bd a8 48 04 3d
       -0.04816339 -0.07248444 -0.073307715 0.032295853
000370 a6 84 70 3d ad b1 62 3c 50 28 2f 3d f1 cf 60 bb
       0.058720253 0.0138363065 0.042763054 -0.003430363
000380 5e 5e 8c bd 7b f2 56 3d 86 5a 98 3d 12 ea 76 bd
       -0.068539366 0.05247734 0.07439141 -0.06028182
000390 d0 a1 d5 bc 43 b0 88 3d 06 4f f3 bc 18 3e 6b bd
       -0.026078135 0.06674244 -0.029700767 -0.057432264
0003a0 b5 7e f4 3c aa 76 6a 3d 5e ef 87 bd 91 77 fd 3c
       0.029845575 0.057242073 -0.066374525 0.030940803
0003b0 a7 37 ec 3c fe 81 53 bd 46 14 6d 3d 8c 4d 8a bd
       0.02883513 -0.051637642 0.057880662 -0.06753072
0003c0 9e 31 f7 bb 17 da 45 3a ee 2d 53 3d 5e b5 0e 3d
       -0.0075437566 0.00075474515 0.051557474 0.034840934
0003d0 f5 f1 9a bd c8 a8 90 3d bd 4b 4c bd 86 1c 2e bd
       -0.07565681 0.070634425 -0.049876917 -0.04250767
0003e0 73 08 b5 ba c5 f1 2f bd 00 d3 2f 3d f0 07 43 3d
       -0.0013811722 -0.04295518 0.042925835 0.04761499
0003f0 15 eb cc bc f6 5c 0b bc 50 51 25 3c 1f 10 0d bd
       -0.02501444 -0.00850605 0.010090187 -0.034439202

encoder_blocks.2.0.bias f4 [12]
000000 00 80 a5 bc f2 6a a4 3d 72 7b 0b 3c d9 13 05 3e
       -0.020202637 0.08028211 0.008513318 0.12995853
000010 18 97 4a bc c3 5c 80 3d 20 12 da bd a7 51 94 3d
       -0.012365125 0.06267693 -0.10647988 0.072421364
000020 d2 7c c5 3c e0 28 af bd 53 46 b5 3d 23 52 d0 3d
       0.02410737 -0.08552718 0.08851304 0.10171916

encoder_blocks.2.2.weight f4 [12, 12, 13]
000000 4d 7e ae bc 64 da a9 3d d9 a9 2f 3d f8 77 63 3b
       -0.02130046 0.08293608 0.04288659 0.0034708958
000010 1b 9d 73 bd 95 c8 77 3a 5a 10 bb bc bc 4e 5a bd
       -0.059476 0.00094521913 -0.022834945 -0.053297743
000020 06 6f d5 bc 8d 7e fa bc 38 80 2d 3c 74 79 33 bd
       -0.026053917 -0.030577922 0.010589652 -0.043817
000030 99 54 65 3d d5 97 8a bc 98 af 91 3c e5 32 72 3d
       0.05598888 -0.016918102 0.017783925 0.059130568
000040 ba 42 17 3d e7 fa 16 3d a8 fe 78 bd 89 87 a1 3d
       0.03692887 0.036860373 -0.060789734 0.078871794
000050 e4 d9 ab bc 5b 27 9c bc a9 4e 81 bd 64 30 35 3d
       -0.020977922 -0.019061735 -0.06313831 0.044235602
000060 9a fc 7e 3d e9 5f fe bc 67 fc db bc 4d 0e 80 3d
       0.06225262 -0.031051593 -0.026853753 0.06252728
000070 53 02 8d bd 5b 14 ac bc d9 0a 82 3c 2e 2c 3b 3d
       -0.06885209 -0.0210058 0.015874313 0.04569643
000080 54 a3 4e bd 3b a9 32 bd 0a 9f ab 3d 2d 6b 9b bd
       -0.05044873 -0.043618422 0.08379944 -0.075888015
000090 53 23 5d bd b7 24 4a 3d 91 62 52 bb d7 1c c6 3c
       -0.053988766 0.04935142 -0.0032102207 0.024183674
0000a0 4e 27 55 bd b5 47 1d bd cb 90 08 bd 68 58 82 3d
       -0.052039437 -0.038398463 -0.03334121 0.063645184
0000b0 e8 47 42 3d 0c 6f 85 bc 5f 37 5f 3b b4 1e f4 3b
       0.047431856 -0.016288303 0.0034060103 0.007449949
0000c0 bf e9 c6 3c 4f 88 1c bd 9d 5d 5f bd 83 dd 98 3d
       0.02428138 -0.03821593 -0.054532636 0.07464125
0000d0 20 e2 20 3b 9c b5 91 bd 14 e9 fe 3c be a7 62 bd
       0.0024548844 -0.07114717 0.031117 -0.055335753
0000e0 32 20 92 bc 38 47 74 bc c6 86 61 bd 80 14 c3 ba
       -0.017837618 -0.014909558 -0.05506017 -0.0014883429
0000f0 80 75 1e 3c 70 5f fa bb 60 a2 7b bb a0 d7 e4 bb
       0.009671569 -0.0076407716 -0.0038396344 -0.0069837123
000100 08 4c 7f 3c 6e 77 51 3d a5 9d 68 bd 90 92 b8 3c
       0.015582092 0.051139288 -0.056790967 0.022530824
000110 9a cd ac 3c 8f 9f 23 3c 4c 45 61 3b e3 7e 4d bd
       0.021094132 0.009986772 0.003437358 -0.050169837
000120 16 34 3a 3d 6c 4d 4f 3d c9 67 55 3d 77 b8 3a bd
       0.04545983 0.050610945 0.05210093 -0.045586076
000130 44 15 34 bd e1 26 b2 bb 7b 63 5c 3c fd 83 57 bd
       -0.043965593 -0.0054367636 0.013451452 -0.05261611
000140 2d a0 23 bd 34 91 b3 bb ad be 19 3d bc f5 f9 3c
       -0.039947677 -0.005479956 0.03753536 0.030512683
000150 88 fc 0f 3d 39 02 4e 3c 85 cf ad bd 52 98 67 3d
       0.035152942 0.012573772 -0.08486847 0.05654175
000160 7d 86 79 bd b6 36 53 bd 2e 13 87 3b fb 0f 8f 3c
       -0.060919274 -0.05156585 0.0041221594 0.017463675
000170 c9 93 0d 3d 48 42 ed 3c 4d 96 8b 3d f4 29 99 bc
       0.034564767 0.02896227 0.06815777 -0.018696763
000180 33 d8 53 3c b6 a4 c7 3d 7b be e0 bc af d6 a1 3d
       0.012929964 0.09748213 -0.027434578 0.07902276
000190 dc 26 6a 3c 06 7c c5 3d f5 4e c8 3d 19 df 20 bc
       0.014291491 0.09642796 0.09780685 -0.009818816
0001a0 7e 51 ca bb 5f f4 98 bd aa b3 84 3d 30 19 94 3d
       -0.0061742654 -0.07468485 0.06479581 0.07231367
0001b0 88 39 20 3c a6 af 87 bd ca c2 e5 3c bb 6f 57 3d
       0.0097793415 -0.06625299 0.028046984 0.05259679
0001c0 83 cf a9 bc ab 76 3c bc 93 e0 4c bd 66 d8 3c bd
       -0.020728832 -0.011502902 -0.05001886 -0.04610481
0001d0 70 3e 57 bc 05 f8 76 bd 4b 91 93 3d 4e 33 32 bd
       -0.013137445 -0.060295124 0.07205447 -0.04350596
0001e0 8c 25 bd 3c 49 4d a2 3d ed 39 03 3d 4f d7 82 bd
       0.023089193 0.07924897 0.032037664 -0.06388723
0001f0 00 df 8e bc fd 5b 9a bd 4f a8 88 bd dc 6a 53 bb
       -0.017440319 -0.075370766 -0.06672727 -0.0032259738
000200 73 ed a3 3c 8c 48 5b 3d 63 89 21 bd 0c 8b 0d 3d
       0.020010686 0.053535983 -0.039437663 0.034556434
000210 63 f4 35 bc 38 fd 00 3d e3 d9 29 3d d4 e6 85 bd
       -0.01110563 0.03149149 0.04146756 -0.065381676
000220 8d 21 87 bc c7 9e 88 3c 88 b6 5a 3d 0a 5c 2a 3b
       -0.01649549 0.016677273 0.05339673 0.00259948
000230 cd 08 73 3d 7c f9 08 bd 3c 0e 11 3d cf cf 42 bd
       0.059334565 -0.03344105 0.035413966 -0.047561463
000240 5e 9d cd bc 9f 41 ef 3c fd d3 b3 3b 20 76 8e bd
       -0.025099453 0.029206095 0.0054879175 -0.06956124
000250 c2 88 77 bd bc 75 aa 3d e8 cc 28 3d 71 03 98 bc
       -0.060433157 0.08323237 0.04121104 -0.018556328
000260 bc 27 7a bd 07 e9 8e 3c c3 c7 8b bb 55 38 21 bd
       -0.06107305 0.0174451 -0.004265757 -0.039360363
000270 f5 06 83 3d 2c 05 79 bd e6 2f ba 3d 0c b9 56 bd
       0.06397811 -0.060795948 0.09091167 -0.05242257
000280 98 c9 25 3d 74 82 99 3d 8b 70 ae bc 0f 1d 31 3d
       0.040475458 0.07495585 -0.021293899 0.043240603
000290 8b a5 bd 3b 8b 0d 45 3d 13 bf 61 bc 28 cc 45 3d
       0.0057875565 0.04810862 -0.013778466 0.0482904
0002a0 1d cc aa bc 4c c1 fb bc 3a be 80 3d 88 28 17 bc
       -0.020849282 -0.03073182 0.06286283 -0.009225972
0002b0 6e 5c 84 3d 24 48 86 3b f6 7b 82 3d 4f c3 3e 3d
       0.06462942 0.0040979553 0.063713 0.04657298
0002c0 cf 0d fd 3c d3 27 d1 bc 41 f9 b2 bc f6 79 5c bd
       0.030890374 -0.025531685 -0.02184737 -0.05382725
0002d0 d7 de 4e 3d 98 c6 31 3c c5 97 0b 3c 35 55 38 bd
       0.050505485 0.010850571 0.008520071 -0.045003135
0002e0 8b c9 0c bc 81 95 ff 3b c1 a4 e2 b8 5b 9a 89 3c
       -0.008592973 0.0077998047 -0.000108072076 0.016797235
0002f0 3d f6 36 3d 2c 93 d1 3c e9 46 1a bd 1c 0c 31 3c
       0.044668425 0.025582872 -0.03766528 0.01080611
000300 95 2d a0 3d 9a 37 72 bd be 4c 01 bd 25 a5 16 bd
       0.07821194 -0.059135057 -0.031567328 -0.036778588
000310 ed 57 99 3d 8d 33 97 bd ea 11 96 3d 90 4a 42 bc
       0.07487474 -0.073828794 0.073276356 -0.011858597
000320 5e 7b 61 3d cf 82 8c 3d 04 0b a4 bc e3 1b 5f 3d
       0.055049293 0.06860887 -0.020024784 0.054469954
000330 b8 21 01 3d 52 54 18 3d e9 b3 84 bd b0 a5 87 3b
       0.031526297 0.03718979 -0.06479628 0.0041396245
000340 f2 fd 2f bd d0 49 91 3d 34 1e 18 bd 00 36 4b ba
       -0.04296679 0.07094157 -0.03713818 -0.0007751882
000350 e4 cb 09 bd 50 10 8f 3d 1c 1b 5d 3d 9c 1e 4e bd
       -0.03364171 0.06985533 0.05398093 -0.05032216
000360 cc 3f 73 3d 3e 1b 0e 3d 00 48 0c 38 cf c1 23 bd
       0.059387013 0.03469395 3.3445656e-05 -0.039979752
000370 80 23 5f 3b b7 72 72 3d 0f 0f 72 3c 40 8e 6f bb
       0.003404826 0.05919143 0.014774098 -0.0036553293
000380 6a 39 8f 3c 6a d2 93 3d 81 1e cc 3c a5 9c 5e 3d
       0.017483432 0.07217868 0.02491689 0.054348607
000390 12 a3 be 3c b9 cf f1 bc 95 30 c1 bc 40 cf a0 bd
       0.023271117 -0.029517995 -0.023582736 -0.0785203
0003a0 72 75 e5 bc 1e e3 5e 3c f3 b7 b5 3c c5 2c 24 bd
       -0.028010104 0.013603954 0.02218244 -0.040081758
0003b0 f0 83 bb 3c 8c 66 4b bd 0e cf 88 3d 6c 81 af bc
       0.022890061 -0.049658343 0.066801175 -0.021424018
0003c0 93 a4 b5 bc 8b c2 68 bd 04 ec 1f 3d 3d 5b a3 3d
       -0.022173202 -0.056826156 0.03904344 0.07976387
0003d0 86 23 65 3c 8f a0 48 3d a9 a7 f7 3b 67 fe a4 bd
       0.01398552 0.048981246 0.0075578284 -0.08056336
0003e0 22 dd 94 bd 3b f7 86 bc 6e bd 41 3d 6c 4b 56 bd
       -0.0726874 -0.01647531 0.047299795 -0.05231802
0003f0 31 c4 83 3b 6f 8e 22 3b 1f 8f cd bc a8 5a b0 bd
       0.0040211906 0.0024804135 -0.02509266 -0.08611041

encoder_blocks.2.2.bias f4 [12]
000000 f4 fa 97 3d ce 5f 76 3d 68 fd 12 3c ba bf 32 bd
       0.074209124 0.06014996 0.00897155 -0.043639876
000010 a5 f3 c3 bb 83 d7 6a 3d 7d df 01 3e 0d 9a 3f bd
       -0.0059799724 0.057334434 0.1268291 -0.046777774
000020 49 dd 72 3d 5f 25 83 3d 8e ba e3 3d 10 78 23 bd
       0.059293065 0.06403612 0.11119567 -0.039909422

encoder_blocks.3.0.weight f4 [12, 12, 13]
000000 e0 5f 9c 3d e4 32 e8 3c fc 0c 17 bc 70 23 47 bd
       0.07635474 0.028344579 -0.009219404 -0.04861778
000010 9e 69 80 bc b5 1e 3f 3d 80 a2 78 bd c1 64 27 bd
       -0.015675362 0.046660144 -0.060701847 -0.04086757
000020 8b e1 48 bd 76 14 7c 3d f2 61 a1 3d d9 99 37 bd
       -0.04904322 0.06154295 0.0788001 -0.044824455
000030 f1 71 86 bd 42 a0 63 bd 19 50 8d 3d 59 8b ed 3c
       -0.06564701 -0.055572756 0.06900043 0.02899711
000040 f6 17 36 3d 24 c7 ae 3c 47 a1 74 bc 02 50 56 3d
       0.044456445 0.021335192 -0.01493103 0.052322395
000050 74 b5 94 bd 13 fb fa bc de a7 96 3a e2 8c 16 bd
       -0.07261172 -0.0306373 0.001149412 -0.03675545
000060 d2 08 d9 3c 4d 12 93 3c 59 68 4a 3d 66 62 89 3d
       0.026493464 0.017953062 0.04941592 0.06708221
000070 9c d9 73 3d f8 46 41 bc fc 94 4a 3c 56 c5 56 bc
       0.0595337 -0.011796705 0.012364622 -0.013108572
000080 80 64 2d bd b5 f1 11 3c c0 0b 67 bd 29 f2 70 bc
       -0.042332172 0.008907725 -0.05640769 -0.014706173
000090 3f ea 82 3b f4 27 87 3c fd 96 8a 3c 69 a0 3a 3d
       0.0039952095 0.016498543 0.0169177 0.045563135
0000a0 7b ab 33 bd 57 6a d6 3c c9 fe 4b bc 8e 7d 63 3d
       -0.04386471 0.026173754 -0.012450882 0.05553966
0000b0 ab be 75 3d ac e2 1b bd 65 2b 17 bc fa 10 ff 3c
       0.05999629 -0.038057968 -0.009226655 0.031136025
0000c0 0d 0e 9a 3d 55 19 25 bd dc e6 ce 3c df b9 f4 bc
       0.07522211 -0.04030736 0.025256567 -0.029873786
0000d0 30 1a 88 bd 1e 28 2c 3d c1 26 77 bd b1 09 22 3d
       -0.0664562 0.042030446 -0.060339693 0.039560024
0000e0 6d 22 86 3d 53 73 18 3d 0b 4c 67 bd 02 ae 8a bd
       0.06549535 0.037219357 -0.056469005 -0.067714706
0000f0 7b 3c 3e bb b0 1c 79 3c fb 50 ff bc 58 0b 89 3c
       -0.0029027748 0.015204594 -0.031166544 0.016729042
000100 27 b2 ab bc 0d 52 91 bd 25 fe 2c bd 56 ef bb bc
       -0.020958973 -0.07095728 -0.04223456 -0.022941273
000110 fc ae 7f 3d 8e a3 85 bd a6 c7 28 39 90 1b a8 3d
       0.062422737 -0.06525336 0.00016096103 0.08208382
000120 71 27 f2 3b 00 9d 4f 3c 4e 7e ad 3b 43 48 50 bd
       0.0073899557 0.012671709 0.0052945977 -0.050850164
000130 80 52 1a 3d 32 ab 32 3d f4 13 3a bd 21 2b c2 3b
       0.037676334 0.043620296 -0.045429185 0.0059255515
000140 99 b8 11 3d 14 23 48 bd 22 5d 03 bd d6 f6 19 bd
       0.035576437 -0.048861578 -0.03207124 -0.037588917
000150 1e 95 b8 bb 1c df 86 3d d2 73 b0 bd a7 1c 8c 3c
       -0.0056330105 0.065855235 -0.08615841 0.017103506
000160 75 9b 51 bb f4 42 d1 bc 21 94 9c 3d 04 c0 a3 3d
       -0.0031983529 -0.025544621 0.07645441 0.079956084
000170 52 46 59 3d ac 22 10 bb 3d 73 7a bd 1b be 7b bd
       0.05304558 -0.0021993322 -0.061145056 -0.061460596
000180 c4 53 f2 bb 1a 3a 4a 3d 4f 9c 17 3d a5 6a a7 3c
       -0.0073952395 0.049371816 0.037014302 0.020436594
000190 f5 d4 6f 3d 0d 74 34 3c 38 f1 75 3d 45 7e 8a bd
       0.0585527 0.011013997 0.060044497 -0.06762365
0001a0 3e 24 da bc f1 80 02 3d 44 9e 23 bc 1c 7b 59 bd
       -0.02662861 0.03186125 -0.009986464 -0.053095922
0001b0 6e 3f e5 bc 19 23 a5 bb 79 ee 52 3d 4d 14 98 bd
       -0.027984347 -0.0050395844 0.051496956 -0.07425747
0001c0 1f 36 71 3c fb 91 88 bd 86 2d 2d bd 27 8e 87 3d
       0.014722376 -0.066684686 -0.042279743 0.0661891
0001d0 e4 c7 30 bd aa 62 90 bd 44 1c 92 bc 30 6c 8c 3d
       -0.04315938 -0.07050069 -0.017835744 0.06856573
0001e0 87 63 ae bb 4d 78 9b bb 96 9c 47 bd 10 8e 9c bd
       -0.005321923 -0.0047445656 -0.048733316 -0.07644284
0001f0 dd 27 ca 3c ed 26 7d 3b ee 7a f2 3b 6c 35 86 bd
       0.024677211 0.0038627938 0.0073999083 -0.06553158
000200 fe b2 35 3d 00 7a 60 bd 34 29 2e bb 89 f0 97 bd
       0.044360153 -0.05480385 -0.0026574852 -0.07418925
000210 3a ec cb 3b 7e 0f 3c 3d 94 fb 15 3c 61 6c 8b bc
       0.0062232288 0.045913212 0.009154219 -0.017019453
000220 5d 2b 83 bd 49 91 19 3d 88 c4 fa bc 78 4c 12 3c
       -0.06404755 0.03749207 -0.030611292 0.008929364
000230 85 8e a1 bd d2 29 98 3d 46 2c c8 bc c9 bd 83 3d
       -0.078885116 0.074298516 -0.024435174 0.06432683
000240 ff 49 07 3c 46 bb f5 bc 50 38 06 3d 3a 7b a8 3d
       0.008257388 -0.029996525 0.032768548 0.082266286
000250 2a 27 01 bd aa 6b d1 3c df d7 5e 3d fc 99 81 bc
       -0.03153149 0.025564034 0.05440509 -0.015820496
000260 d0 94 4d 3c 42 46 f2 3c fb bf 75 3d f2 49 9d bd
       0.012547687 0.029574517 0.05999754 -0.076801196
000270 36 aa 1e bc 05 bd 94 bb 45 1c 01 bd 11 18 d0 3d
       -0.009684136 -0.0045391344 -0.0315211 0.1016084
000280 6b 91 cb 3d c6 a9 70 bd 43 5f f9 3d d0 72 8c 3d
       0.09939846 -0.05875566 0.12176373 0.06857836
000290 f0 6d 4b bd 87 df e1 3d 93 fd e5 3c 4a 7c 94 3d
       -0.04966539 0.110289626 0.028075015 0.07250269
0002a0 d1 e3 6c 3d 85 3f e9 bc b6 d7 99 bd 31 cd 9b bd
       0.05783445 -0.028472671 -0.07511847 -0.076074965
0002b0 8c d8 de bb 9f 9e 04 3d dd 46 88 bd e9 30 7a 3b
       -0.0068007167 0.032377835 -0.06654141 0.0038176125
0002c0 8f 62 6f 3d e7 6d 87 3d 6d a6 ca bc 3a 10 09 3d
       0.058443602 0.06612759 -0.024737561 0.03346274
0002d0 ac fc b2 3c a5 f2 a0 3d f3 18 19 3c 6b 9e cf 3c
       0.021848999 0.07858781 0.009344327 0.025344094
0002e0 2b b6 83 bd 37 b0 a0 3d 40 47 c8 bc 61 22 7e 3d
       -0.0643123 0.0784611 -0.024448037 0.062044505
0002f0 ba 20 4f bc f5 8b 35 bd e2 e9 29 bd 3a 58 a2 3d
       -0.01264208 -0.044322927 -0.041482814 0.07926984
000300 f8 ed 1a bd fa d6 6d bd 15 36 74 bb ef 9f 72 bd
       -0.0378246 -0.058066346 -0.003726368 -0.059234556
000310 31 f0 98 3c ec 99 42 3d e3 a4 ac 3b ea 50 49 3c
       0.01866922 0.047510073 0.0052686795 0.012287358
000320 62 92 ae 3c 6e a4 73 3d 4f 23 e9 bc 89 ab 81 3d
       0.021310035 0.059482984 -0.02845922 0.06331546
000330 3e d0 f7 bc 33 f3 c9 bc 51 42 88 bc 11 ea 8c 3d
       -0.030250665 -0.0246521 -0.016633185 0.06880582
000340 86 f9 03 bd ed 3c 66 3d 51 09 94 bd 39 e3 3d 3c
       -0.032220386 0.056210447 -0.072283395 0.011589819
000350 11 4a 40 bd f9 39 99 3d b4 c3 94 bd 78 5d 08 3d
       -0.046945635 0.074817605 -0.0726389 0.033292264
000360 03 43 2a 3d 2d 48 f6 3c eb f8 0f bc 2d 83 78 3d
       0.041567814 0.030063713 -0.008787374 0.060671974
000370 34 22 4a 3c 1e 63 89 bc a5 c3 dc bc f5 7e 1a 3d
       0.012337256 -0.016770896 -0.02694876 0.037718732
000380 70 a5 6d bd 2e b7 c6 bc 6d 5c 7e 3d 56 b3 61 bd
       -0.0580191 -0.024257269 0.062099863 -0.05510267
000390 ad 3f 61 3d 8f bf 1d bd bf 3d e2 3c ca 64 63 bc
       0.054992367 -0.038512763 0.027617333 -0.01387901
0003a0 bc b6 1d bc 61 1c 8f bc d4 7d 5d 3d 46 6a e1 3d
       -0.009626087 -0.017469587 0.054075077 0.11006598
0003b0 48 b6 ba 3b d3 f3 bd 3d ff 7c d2 3d 76 d0 a9 3d
       0.005697999 0.092750214 0.10277747 0.08291714
0003c0 16 4b e0 bb 9f 74 82 3d 0d 24 48 3d 3c 01 b3 3c
       -0.0068448884 0.063699 0.048862506 0.021851175
0003d0 6a 08 de 3c c4 31 9a 3d f5 d5 cf 3d b5 bb 64 3c
       0.027103622 0.07529023 0.10148231 0.0139607685
0003e0 b0 60 cf 3a fc a7 55 bb 8b 5e b6 3b 83 21 0d bd
       0.0015821662 -0.0032601347 0.0055654696 -0.034455787
0003f0 e2 17 80 3d 59 c4 15 3c 07 39 24 bb d3 96 9d bd
       0.06254555 0.009141051 -0.0025058405 -0.07694783

encoder_blocks.3.0.bias f4 [12]
000000 b1 8b 45 bd 9c 61 95 3d ed d5 c3 3d 07 f6 a4 bc
       -0.048228923 0.07294008 0.095622875 -0.020136846
000010 cf 8c 1e bd b0 5b c1 3d 46 e7 fc bc 3f 48 4d bd
       -0.038708504 0.09441316 -0.030871999 -0.050117727
000020 a8 c4 8f 3c e9 8c ab bd b3 10 13 3d 1c b4 06 3d
       0.017549828 -0.08376486 0.035904597 0.03288661

encoder_blocks.3.2.weight f4 [12, 12, 13]
000000 5f e1 ce 3b 6e a8 67 bd fc 44 54 bc 0d 26 5a 3d
       0.0063134874 -0.05655711 -0.0129559 0.053258944
000010 08 15 13 bd b9 fa 83 bd 34 1e 08 3d 72 ec 3d bc
       -0.03590873 -0.06444306 0.03323193 -0.0115920175
000020 b1 57 53 bd 16 52 23 bb f5 e5 41 bd 63 78 06 3d
       -0.0515973 -0.0024920753 -0.047338445 0.032829653
000030 c9 57 01 bc 3f bd d7 3c 67 57 5a bb 91 db 2f bc
       -0.007894465 0.026335357 -0.0033316256 -0.010733501
000040 a1 cb fe bc 07 58 31 bd a7 ff 22 3c f2 97 85 bd
       -0.031102957 -0.04329684 0.009948648 -0.06523122
000050 a2 6d 70 3d a6 9e 06 bd ac 92 17 bc d3 7c 87 3d
       0.058698304 -0.032866143 -0.009251278 0.06615605
000060 c7 48 0b 3d f6 9a 41 3d 0e c5 91 ba 50 a4 26 bd
       0.034004953 0.047266923 -0.0011121349 -0.040684044
000070 19 66 f4 3c f5 c6 84 bd 3a 4d d5 3c fb b8 89 bd
       0.02983384 -0.064832605 0.026037801 -0.06724735
000080 12 ff 4b 3d bb 78 5d bd e9 b3 81 bb e4 78 a1 3d
       0.0498038 -0.054070216 -0.0039582145 0.07884386
000090 56 eb 6a 3b e6 a5 8c ba d9 26 1d bd ea 32 50 bd
       0.0035845838 -0.0010730594 -0.038367126 -0.050829805
0000a0 36 64 77 3d c7 37 98 bd 26 b9 69 3b f9 d8 9e 3c
       0.060398303 -0.07432514 0.0035663336 0.01939057
0000b0 d8 b5 1f 3d 6c fe 4a 3c 02 ea fd 3c d9 4f ff bc
       0.03899178 0.01238976 0.030995373 -0.031166004
0000c0 e9 dc 04 bd 99 8c 8b 3d 49 c6 8b bd af d9 98 3b
       -0.03243724 0.06813926 -0.06824929 0.004664622
0000d0 4a 4a 83 3d 75 d7 7e 3d c8 13 47 3d 40 88 64 bb
       0.06410654 0.062217195 0.04860285 -0.003487125
0000e0 cc 77 9d bb c2 3f 40 bd 4e e7 da 3b 4e 68 37 3d
       -0.0048055407 -0.046935804 0.0066804057 0.044777207
0000f0 e1 62 87 3d 20 57 53 bc 49 9a bf 3c 3f 8c d3 bc
       0.066106565 -0.01289919 0.023388999 -0.02582371
000100 05 52 4f bd e3 46 02 bd f3 ee 05 bd 10 03 a1 bd
       -0.05061533 -0.031805884 -0.032698583 -0.07861912
000110 0e 91 92 3d 12 de 2b bd e4 3b d7 bc 96 19 48 3d
       0.07156573 -0.04195983 -0.026273675 0.048852526
000120 e9 b8 90 3d c1 70 73 3d 90 d3 94 3d 35 c6 7a 3c
       0.07066519 0.059433702 0.07266915 0.015306045
000130 ca 9a 72 3d 12 d3 82 bd b2 0e ab bc cd 9a 94 bd
       0.05922965 -0.06387915 -0.02088103 -0.072560884
000140 17 15 10 3d c9 29 83 bd c4 41 25 bd 56 72 6b bd
       0.035176363 -0.06404454 -0.040345922 -0.057482086
000150 fc 0a 96 bd a2 77 ce bb 7d 7d 5b 3d 92 3d 9e bd
       -0.07326314 -0.0063008824 0.05358647 -0.07726587
000160 1e 48 8c bc 6a b1 06 3d a1 08 25 3d 7e 69 36 bd
       -0.017124232 0.03288404 0.040291432 -0.0445342
000170 88 ee 71 3c 69 59 86 bd 9e 9f 9f 3d d8 32 14 3d
       0.014766343 -0.065600224 0.077941164 0.0361813
000180 9c 03 58 3d 68 0e a7 3c d4 b8 ef 3c b4 13 1f 3d
       0.052737817 0.020392612 0.029262938 0.03883715
000190 4e 34 a1 bc 71 3d 3b bd 06 5e 05 bd 28 92 0d 3c
       -0.019678261 -0.045712892 -0.03256037 0.008640803
0001a0 51 ca 34 3d b6 58 f8 bc e1 a0 91 3d c5 3c 86 3d
       0.044138256 -0.030315738 0.07110763 0.065545596
0001b0 28 35 d6 bc 55 fd 94 3d 40 6d b9 3b 84 01 da bc
       -0.026148394 0.07274882 0.0056587756 -0.02661205
0001c0 b0 35 9c 3c 9b 02 89 3d 3d a0 bb bc 49 d2 4e 3d
       0.019068569 0.0668995 -0.022903556 0.050493512
0001d0 2d 57 02 bb 84 8c b8 3b c8 29 e4 39 d6 24 20 3d
       -0.0019888387 0.005631985 0.00043518678 0.03909763
0001e0 9e 99 90 3d 77 48 89 3c 7a a0 18 3d 3e 5e 6d bd
       0.0706055 0.016758187 0.037262417 -0.057951204
0001f0 8a f5 69 3d 38 be 1a bc db ec 40 bb 4c 74 7a bd
       0.05711893 -0.009444766 -0.0029438052 -0.061146066
000200 2d c5 8e 3d c8 09 13 bd 76 2e 9b 3d 61 56 95 bc
       0.06971202 -0.035898 0.07577221 -0.018229665
000210 fe 66 2b bd 68 e2 77 bd 56 ae 47 bd d7 1e 4e 3d
       -0.041846268 -0.060518652 -0.048750244 0.05032238
000220 57 6e 60 bd 59 65 f9 bc 4a 17 6c bc bf 99 8c bb
       -0.05479273 -0.030443834 -0.014409849 -0.004290789
000230 5d e5 f5 ba 7e 36 2e 3c ea 0e a3 bd e3 3c 5d 3c
       -0.0018760372 0.010633109 -0.07961829 0.013503286
000240 a7 30 2e 3d fa fb b6 bc 29 de 51 bd 1b a7 16 bc
       0.042526867 -0.022336949 -0.05123726 -0.0091951145
000250 31 95 81 bd 65 b2 0c bd f2 16 79 bc 6c 71 a2 39
       -0.06327284 -0.034349818 -0.0152032245 0.00030983554
000260 de 10 d0 bc 26 76 ef 3c e2 e5 8f bc 93 79 dc bc
       -0.025398668 0.029231142 -0.017565671 -0.02691344
000270 e7 7a 01 3c 12 3f 48 bd 1c e0 33 3d fc 01 9f 3c
       0.007902837 -0.048888274 0.0439149 0.019410126
000280 31 f8 9e bc 9a 54 9c 3d 45 96 96 3d 2e be a8 bc
       -0.019405456 0.07633324 0.073528804 -0.020598497
000290 00 07 96 3d 54 04 9f 3c ac a5 1f 3c af 10 14 bd
       0.07325554 0.019411243 0.009744089 -0.036148723
0002a0 34 57 58 3d 74 f4 87 bc 8f d6 28 3d 7c 64 a3 3c
       0.05281754 -0.016596057 0.041220244 0.019945376
0002b0 5a 6d 0b bd f7 94 2e 3d 09 e0 a1 bd 2a 8f 08 bd
       -0.034039833 0.042622533 -0.079040594 -0.033339657
0002c0 0f 1d 9c bd d1 1b 8d 3d 3a fa 14 bd 87 9a 92 3b
       -0.0762273 0.06890071 -0.036371447 0.0044739875
0002d0 9c a5 34 bd 9d ee f0 bc e2 d6 bc 3c 78 2c 8a 3d
       -0.04410325 -0.029410655 0.023051683 0.06746763
0002e0 b2 fb 49 bd 68 0f 1b bd 59 f6 f3 bc 2a 70 6c 3c
       -0.0493123 -0.03785649 -0.029780554 0.014431039
0002f0 89 35 68 bd 07 a9 bb bc ad 6a 8b 3d 7c 87 59 3d
       -0.05669168 -0.022907747 0.06807456 0.053107724
000300 a6 1b d6 3b 9b 89 69 3d e5 cd d9 3c a4 73 7c bc
       0.0065340577 0.057015996 0.026587436 -0.01540843
000310 ea 6f 16 3c cb 0d a6 bd d2 48 ca 3a 80 ba f9 bc
       0.009181956 -0.081080996 0.0015433079 -0.030484438
000320 2c 0b 49 bd 17 92 12 3d 41 e2 9b 3d 73 63 22 bc
       -0.04908292 0.035783853 0.07611514 -0.009911406
000330 1c 8d a4 3b bf d2 cd 3b ac 47 1c 3c de 02 1e 3d
       0.0050217044 0.0062812264 0.009538572 0.038576953
000340 6a eb 24 bd 92 29 22 bc db 43 6c bd cf 76 48 3d
       -0.04026357 -0.009897606 -0.0576819 0.04894143
000350 af 37 4d 3d ac fd 59 bd f4 bc 68 bd 4e ea a4 3b
       0.050101932 -0.053220436 -0.056820825 0.005032814
000360 9c 34 7d 3d 6e fd 8b bc 56 27 57 bd 75 03 48 3b
       0.06181775 -0.017088618 -0.052527748 0.0030519639
000370 bc fa 09 bd 26 d8 a5 3c 45 1c 04 3d 3c bb 93 3c
       -0.033686385 0.02024467 0.032253522 0.018033616
000380 ea 4f 17 3d a8 83 0e bd c2 bc 3a 3d c0 06 9c bb
       0.036941446 -0.034793526 0.04559017 -0.004761547
000390 3f 01 1c bc 76 5a 42 bd 5f 69 8c bc 56 9c 48 bd
       -0.0095217815 -0.04744955 -0.017140089 -0.04897722
0003a0 0c 7e db 3c f0 35 13 bd 62 8a 56 bd c7 0a 8b bd
       0.026793502 -0.03594011 -0.052378066 -0.06789165
0003b0 34 b5 92 bd c1 b4 eb bc e2 17 ba 3c 6d cf 31 bd
       -0.07163468 -0.028772714 0.022716466 -0.043410707
0003c0 8e 16 c8 3c be 40 3d bd 82 b5 87 3d 4c 97 ba bb
       0.024424817 -0.04620432 0.06626417 -0.0056943055
0003d0 85 d9 4c bd 46 99 7d 3d b2 ac 6c bd bf 30 36 bd
       -0.05001213 0.06191375 -0.057781883 -0.04448008
0003e0 f0 94 3b 3c 20 f8 8f bb 70 5c 9f 3d 88 56 3a bc
       0.011449084 -0.0043935925 0.07781303 -0.01137317
0003f0 92 7c 92 3d 10 ae 28 3c 10 82 95 3d 64 dc 59 3d
       0.07152666 0.010295406 0.07300198 0.053188697

encoder_blocks.3.2.bias f4 [12]
000000 fb 24 9b bd 7c 95 76 bd 83 91 96 bd 20 78 31 bd
       -0.07575413 -0.060201153 -0.07351973 -0.04332745
000010 07 87 92 bc 61 da fe 3c 29 6a 8c 3b 10 74 b2 3b
       -0.017886652 0.03110999 0.004285116 0.0054459646
000020 c9 f6 0e 3c 1e e8 9f 3d 64 76 3e 3d f9 d7 06 3b
       0.00872583 0.07807945 0.046499625 0.0020575507
