Python/save/localizer/trial_2/quake_localization_model_00660.pth (torch, 252994 bytes, 35 tensors)

encoder_blocks.0.weight f4 [12, 1, 13]
000000 8a ee 43 3e d7 27 47 3e c6 6d 64 3e 38 e7 a5 3d
       0.19133964 0.19448791 0.223075 0.08100742
000010 d3 94 3e 3e 01 9f cf 3d 62 d3 de bd a9 e3 7a bd
       0.1861146 0.101377495 -0.10880162 -0.06125227
000020 c9 07 54 be c6 ee 4c be 83 d5 44 be 83 64 b0 3d
       -0.20706095 -0.2001296 -0.19222073 0.08612921
000030 d6 c4 b2 bd d9 9e 5b be 3f 81 7d be ea 2f 80 be
       -0.0872895 -0.21447314 -0.24756335 -0.25036556
000040 a7 1f 07 be fe b3 e9 3d fa a9 32 be 3f 5b 91 3e
       -0.13195668 0.11411284 -0.17447653 0.28389928
000050 cf 4a 4b be f6 54 98 bc 74 fb 95 3d 7f b5 31 3e
       -0.19852756 -0.0185952 0.073233515 0.17354392
000060 80 20 20 3e b9 a1 20 bd f6 18 8d 3d 9c db ad bd
       0.15637398 -0.03921673 0.068895265 -0.08489153
000070 42 9c b6 3c 50 90 98 3d 11 c8 5f be 96 9f 40 be
       0.022291306 0.074494004 -0.21853663 -0.18810877
000080 9f f1 1f 3e a8 32 8b bd 48 da d9 bd f7 df da bd
       0.15619515 -0.06796771 -0.10637337 -0.10687249
000090 1c a6 12 bc db 41 e2 bd a3 f1 7a be b4 75 9d 3d
       -0.008950736 -0.11047717 -0.2450624 0.07688466
0000a0 da 56 f2 3c 1f d3 54 be 21 a2 95 3d ec 28 1d be
       0.02958243 -0.20783661 0.07306314 -0.15347642
0000b0 7d e9 11 be 07 cd b4 3d 87 fb 12 3d ea ba 16 3d
       -0.14249225 0.08828168 0.035884406 0.03679935
0000c0 76 b9 bd bd fa 5c 34 3b 19 77 88 3e bd b0 81 be
       -0.092638895 0.0027521239 0.26653364 -0.25330153
0000d0 c5 67 76 3d 2f c3 24 3d 1d a3 b2 bd cd 6c 9f bb
       0.060157556 0.040225204 -0.08722518 -0.004865265
0000e0 07 4b 16 be 1e 2a e3 bd ba 38 16 be f3 9c 37 3e
       -0.14677058 -0.110920176 -0.14670077 0.17930965
0000f0 8d 98 0b bd 96 5e f5 3d 44 53 3c bc dc d9 06 be
       -0.03408103 0.119809315 -0.011494461 -0.13169044
000100 0d c1 2d be 24 84 af bd 15 f5 6e 3e ba 5f ca 3d
       -0.16968174 -0.08570126 0.23335679 0.0988154
000110 d1 53 f7 bc a9 89 69 bd c3 69 99 3d f8 4f 67 3e
       -0.030191334 -0.05701605 0.074908756 0.225891
000120 ac f9 75 be 35 0d a0 3d 44 17 1d 3e 84 6d 4d be
       -0.24021024 0.07815019 0.15340906 -0.20061308
000130 a9 85 69 3e 72 a2 28 3e 3a 40 f5 bd 85 2b ff 3c
       0.22804894 0.16468218 -0.11975141 0.031148681
000140 f3 e0 f7 3d 1a 23 de 3d 0a 0f 86 3d fa de 0d bd
       0.121034525 0.10846539 0.06545837 -0.034636475
000150 d4 c3 a1 bd 91 7f 78 3e 1d 17 11 3e 78 df 14 3e
       -0.078986794 0.24267413 0.14168973 0.14538372
000160 e2 fb 89 be b5 10 f8 3d 1e 19 19 be 8a 13 bd 3d
       -0.26949984 0.121125616 -0.14950988 0.092322424
000170 b5 7b c2 bd bd 57 59 bd 47 25 e2 3d 00 1f 50 be
       -0.094962515 -0.05306219 0.11042266 -0.20324326
000180 0f 2f 8b 3e ef 16 4d 3e f7 1b ba bd 59 75 13 3e
       0.2718434 0.2002828 -0.09087365 0.14400233
000190 6c da 2f be e4 87 57 3c c8 04 5c 3e 50 09 ce 3c
       -0.17173165 0.013154957 0.21486199 0.025150925
0001a0 1c 92 37 be bd 40 71 bc 3d 3f 37 bd b4 60 8e bd
       -0.1792683 -0.014724907 -0.044738043 -0.069520384
0001b0 80 a2 28 3e c6 d7 46 3e e5 3d 42 3e 40 4b 7e 3e
       0.16468239 0.19418249 0.18968923 0.24833393
0001c0 45 cb 21 3e 90 ae 3e 3e b6 6a 69 3e 47 c5 0f be
       0.15800197 0.18621278 0.22794613 -0.14040099
0001d0 59 39 2d 3e 31 11 86 3e 81 e2 a4 bd fd 0f 49 be
       0.16916408 0.2618499 -0.08051015 -0.19635005
0001e0 df 83 65 be 49 ba 69 3c d9 eb 3b be ba f9 45 be
       -0.22413586 0.014265605 -0.18351687 -0.19333544
0001f0 2d 81 04 3e a0 26 5a 3e b4 43 46 be 9b 23 8b 3e
       0.12939902 0.21303797 -0.19361764 0.27175602
000200 71 07 45 3d 5a 57 e7 3d f6 7a 91 3e 30 15 67 be
       0.0481028 0.11295958 0.28414124 -0.22566676
000210 c5 f9 8d 3e 20 a8 cd 3c 96 f6 1a bd 7a 60 54 3e
       0.27729622 0.025104582 -0.03783282 0.20739928
000220 77 89 ef 3d 2a 43 e0 3c 57 e0 2f bd 39 b7 4d bd
       0.11696141 0.027375776 -0.042938557 -0.050223563
000230 cd 37 f8 bb 94 c9 d2 bd 9a 01 43 be b9 8c 96 3d
       -0.0075750113 -0.10292354 -0.1904358 0.073510595
000240 10 4b 18 3e 11 0a 57 be 37 be 5c bd f3 44 68 be
       0.14872384 -0.20999934 -0.05389234 -0.22682552
000250 c9 a9 8a be ea 42 b8 3d 52 1b 76 be f1 bf d1 bd
       -0.2708266 0.08997138 -0.2403386 -0.10241688
000260 4f 61 33 be 39 ab 74 3e 9c b4 46 be c1 9b f0 bd
       -0.17517589 0.23893441 -0.19404835 -0.11748458

encoder_blocks.0.bias f4 [12]
000000 4f 66 3b be 9f 3e 2d 3d 3d ff 86 3e ec c4 ec bd
       -0.18300746 0.04229605 0.26366606 -0.11560997
000010 2b 3c 89 3e dd 32 87 be 72 e1 86 3d ac 03 e3 3d
       0.26803717 -0.26405993 0.06585969 0.11084685
000020 98 88 a2 3d 28 dd 96 bd ce 41 d8 3b 97 3f de 3d
       0.079362094 -0.07366401 0.0065996414 0.108519726

encoder_blocks.1.0.weight f4 [12, 12, 13]
000000 43 4b 64 bc 7e 0f 56 3d 1c e0 90 3d 7e 87 da bc
       -0.013933959 0.05226087 0.070739955 -0.026675936
000010 e8 0c 3b bd 5b 88 7c 3d 92 fb 2f bd 92 82 ab 3c
       -0.045666605 0.061653476 -0.042964526 0.020936284
000020 4c b2 47 bd c5 2f e4 bc 69 75 1a bd cb 2c 54 3d
       -0.04875402 -0.02785481 -0.037709627 0.05180053
000030 a0 d6 50 3c 20 fc 78 3d 36 2a 41 bd c8 e1 9f bc
       0.012746483 0.06078732 -0.047159396 -0.01951684
000040 40 d6 47 bd 9c 74 90 3c 0b f0 bf 3b 98 29 56 bd
       -0.04878831 0.017633729 0.005857473 -0.05228576
000050 aa 1e e1 bc 8d 51 99 bd a5 61 d5 bc db f0 98 bc
       -0.027480442 -0.07486258 -0.026047537 -0.018669536
000060 c9 c7 24 bd fc 1c 3e 3d ee eb 19 bc 26 fc 8d 3d
       -0.040229592 0.04641436 -0.009394629 0.06932859
000070 da 84 8c bb c0 23 f7 3b ec 26 66 bd d5 ef 91 bd
       -0.004288298 0.0075421035 -0.056189463 -0.071258225
000080 58 65 9d 3d 02 c7 ab bd 5b 85 6a 3d a8 17 5b bc
       0.076853454 -0.08387567 0.057256084 -0.013372339
000090 4c 37 54 3d 82 1c a7 3d 7f 63 92 3d 5b 3f aa bd
       0.051810548 0.08159734 0.071478836 -0.08312865
0000a0 55 1a 10 3d 97 b5 7b bd b3 72 01 3d eb fd 11 3d
       0.035181362 -0.061452474 0.031603526 0.035642546
0000b0 7f 72 89 3d 62 60 7c 3d a9 f5 90 3c ae 73 78 bd
       0.067112915 0.061615355 0.017695265 -0.060657196
0000c0 e6 3a 41 ba fd 8d 9b bd 60 36 87 bd 57 be 81 3d
       -0.0007371142 -0.075954415 -0.06602168 0.063351326
0000d0 b0 1b 6c 3b e3 d7 34 3d b7 15 38 39 9e 0f 94 bd
       0.0036027245 0.044151198 0.00017555697 -0.07229541
0000e0 a2 43 93 3d 9b 70 2d 3d 9b 8d b8 bc 58 08 64 3c
       0.07190634 0.042343717 -0.02252846 0.013918005
0000f0 3b c6 cd 3b 5a af 2f bc 0a 8a 6f bd 2d 94 8b 3c
       0.0062797344 -0.010722959 -0.058481254 0.01703843
000100 61 19 bb bc 91 76 2f 3d e1 0a 1c bd 36 c2 df 3c
       -0.02283925 0.042837683 -0.038096312 0.027314287
000110 19 79 66 3c 9b 22 45 bd 13 c0 66 bd 8a 8e 4d bd
       0.014066958 -0.048128705 -0.05633552 -0.050184764
000120 0f 32 76 3d ab 5a 91 bd c1 77 2e 3d 82 f6 97 3d
       0.060106333 -0.07097372 0.042594675 0.074200645
000130 4d ed 00 3d 5c 3c 37 bd 8c 34 0c 3d dc 57 af bd
       0.031476308 -0.044735298 0.0342298 -0.0856168
000140 d3 ed 83 3b de 4c 4a 3d 2c 85 a3 3d 35 4c 2e bd
       0.0040261536 0.049389713 0.07984385 -0.042553145
000150 56 1f 7c bd c1 cd 7f 3c da 18 46 bd 5d cc 26 3c
       -0.06155332 0.01561302 -0.048363544 0.01018056
000160 a8 0d 5a 3d d1 17 87 3d 51 94 c8 3c 5b 3b 3b bd
       0.05323568 0.065963395 0.024484785 -0.045710903
000170 99 b2 d6 b9 93 3e f8 bc 9a 8c 40 bd 3d 7d ac bc
       -0.00040950326 -0.030303275 -0.047009088 -0.021055812
000180 c4 0b 0b bd d1 46 5e bd 15 dc 80 3d ac 4f 50 3d
       -0.033946767 -0.054266755 0.06291977 0.05085723
000190 30 89 88 bd 49 d5 d6 bb 4a b9 a5 bc 77 fb 8f 3a
       -0.066667914 -0.0065561873 -0.020229954 0.0010984977
0001a0 6e 16 8e 3d b7 0a c7 bc cd 6f e6 3a 60 84 9d bd
       0.06937872 -0.024297101 0.0017580927 -0.07691264
0001b0 21 78 e7 3c 8b 9b 45 bd 64 e8 99 3c 28 56 fd bc
       0.028255524 -0.04824404 0.01878757 -0.030924872
0001c0 64 4e 03 bc 7c 95 34 3d 70 72 16 3d 8e 10 6b 3d
       -0.008014295 0.044087872 0.03673023 0.057388835
0001d0 a0 31 86 3d f8 ce 8a bc 40 17 fa bc ab 94 8b bc
       0.06552434 -0.016944394 -0.030528665 -0.017038664
0001e0 c5 6b 85 3b 45 74 12 3d 0b a5 3b bd 1d 55 9e bd
       0.004071685 0.035755415 -0.045811694 -0.07731078
0001f0 89 c6 8e bd 62 a4 3d bc 84 c0 9a bc 19 cc 77 bc
       -0.06971461 -0.011574836 -0.018890627 -0.015124344
000200 47 3f 03 bd b6 d8 7a bd 88 c7 06 bd f8 c7 46 3c
       -0.032042768 -0.061241828 -0.03290513 0.012132637
000210 71 11 89 bd b9 c1 b3 3c c2 f9 13 bd 9f 66 8c 3d
       -0.0669278 0.02194296 -0.03612686 0.06855511
000220 a5 d2 6d bc c2 0b 41 3b 8c 09 2a bd 1f da 02 bc
       -0.014515554 0.002945647 -0.04151301 -0.007986574
000230 ec 09 86 bd cf f9 2a bd 3c 94 99 bc 4e 0a d7 bc
       -0.06544861 -0.041742142 -0.018747441 -0.02625003
000240 6f 3f 3c 3d 56 46 b3 bc 75 f9 88 bc 32 50 82 3d
       0.045958932 -0.021884125 -0.016720513 0.06362952
000250 b7 28 96 bd f3 56 90 3c d4 c1 23 bd 2c 53 d7 3c
       -0.073319845 0.017619586 -0.03997977 0.026284777
000260 4a 10 1e 3d 1b 93 0b bd 2b 2f 40 3d c3 49 99 bd
       0.038589753 -0.034075838 0.046919983 -0.07484772
000270 c1 28 02 bd 90 43 40 3d fb 08 80 bd b5 89 32 3d
       -0.031777147 0.046939433 -0.06251713 0.04358836
000280 2b 37 e3 3c c9 df 91 bd 46 e5 8a bd 68 d5 39 3d
       0.027736267 -0.07122762 -0.06782012 0.045369536
000290 b0 87 a3 3d 41 87 87 3d 3a 47 28 bd 1d de 56 3d
       0.07984865 0.066175945 -0.041083552 0.052457917
0002a0 f5 de 69 3d f9 8f 90 bd c3 3e 83 bd 9e 48 1a 3d
       0.057097394 -0.070587106 -0.06408455 0.03766691
0002b0 02 1e 84 3d f8 b7 6e 3d 9f 1a 84 3d c0 57 26 3d
       0.06451036 0.058280915 0.0645039 0.04061103
0002c0 a8 e2 a5 3d 59 8e ce 3c c2 70 d0 bb 3f 32 da 3c
       0.08099872 0.025214361 -0.006361098 0.026635287
0002d0 77 6b 88 bd 49 ac 82 3d c6 99 82 3a bb 03 07 3c
       -0.06661122 0.06380517 0.0009964041 0.0082406355
0002e0 c5 52 a1 3d 47 32 8e 3d 9e d0 75 3b 2d 15 16 bd
       0.07877115 0.069431834 0.0037508379 -0.03664129
0002f0 63 5b 4b bd 2f d9 3f bd ab b1 31 3d 3c 36 d9 bc
       -0.0496477 -0.04683798 0.043382328 -0.026515119
000300 9c e0 8f bd ea ff f8 3c c0 51 b1 3d 39 cc a0 3b
       -0.07025263 0.030395467 0.08658171 0.0049071577
000310 e5 f2 49 3c ec 2a 76 3c 4d 8c d7 3c 32 9a 84 3c
       0.012325977 0.015024882 0.026312018 0.016186807
000320 2a c6 05 bd de d1 87 bd f8 7f a1 bc 5c d2 dd 3c
       -0.032659687 -0.06631826 -0.01971434 0.027077846
000330 e3 50 f7 bc cb 10 a9 3d f9 86 f6 bc 16 3e 9b 3d
       -0.030189937 0.08255156 -0.030093657 0.07580201
000340 f6 7e 3e bd 8e dd 4f bd d7 77 10 bd 8a c0 7f bd
       -0.046507798 -0.0507484 -0.03527054 -0.06243948
000350 8c e5 55 3c 4c d1 3b bc bd 23 37 3d 82 a0 86 bd
       0.0130552165 -0.0114634745 0.044711817 -0.06573583
000360 40 54 dc bb 0f 3a 85 bc 01 9b 5b 3d 3c 31 48 bc
       -0.0067239106 -0.016263036 0.05361462 -0.01221877
000370 ef 82 c5 3c df 70 93 3d aa 89 49 bb 89 38 a0 3b
       0.024110286 0.07199263 -0.003075222 0.004889552
000380 7b 70 47 3d 3f 72 aa 3b fc c4 39 3c 73 ed 30 3c
       0.048691254 0.0052016075 0.011338469 0.0107988
000390 dc 75 b1 3c 2c 5b 50 3d a5 f2 a2 bc c4 fe 38 bd
       0.021662645 0.0508682 -0.019891093 -0.04516484
0003a0 cd 05 ca bc 23 fc 11 3d 30 52 05 3d 87 ef ce bc
       -0.02466097 0.035640847 0.032549083 -0.0252607
0003b0 41 5c 91 3d 06 be 85 bd c8 9b 79 bd 76 9f 9d 3d
       0.07097674 -0.06530385 -0.06093958 0.076964304
0003c0 07 66 b4 3c 7c 0d 53 3d 8c 9a 54 3c ed 67 8e bd
       0.022021307 0.05152653 0.0129763 -0.06953416
0003d0 e7 d7 60 bb d4 16 92 3c 2e 5a 50 bd b4 04 9f bd
       -0.0034308375 0.01783315 -0.050867252 -0.07764569
0003e0 eb 12 04 bd 59 e9 e9 bc e3 30 5e 3d 9c 94 89 3d
       -0.032244604 -0.028553652 0.05424584 0.06717798
0003f0 92 0c 62 bd b9 5b ab 3b 09 a1 85 bc 63 1e 8f 3b
       -0.05518777 0.00522944 -0.01631214 0.004367636

encoder_blocks.1.0.bias f4 [12]
000000 88 1e 09 3c 49 6f 0c bc 6b 9c 02 bd a8 0f a4 3d
       0.008369096 -0.008571454 -0.031887453 0.08010799
000010 0a 54 aa bd 24 bc 6c 3d 91 68 2d bc a3 d9 0f bd
       -0.083168104 0.057796612 -0.010584013 -0.035119664
000020 be ed ca 3c 8e 86 9e 3d 3a 67 e7 3d 8e e1 05 3d
       0.024771567 0.07740508 0.11298986 0.03268581

encoder_blocks.1.2.weight f4 [12, 12, 13]
000000 50 91 82 3d 12 61 3e bd 40 20 59 3d 64 e7 97 3d
       0.063753724 -0.046479292 0.05300927 0.07417181
000010 ef 5c 54 3d 72 51 2c 3d a8 1c 41 3c 7f 49 8b 3b
       0.05184644 0.04206986 0.011786617 0.004250705
000020 01 13 15 bc 99 37 f4 bc 18 db 4c bb 42 ad 0a bc
       -0.009098769 -0.029811667 -0.003125852 -0.008464159
000030 19 e2 85 3d 2c 89 54 bd 92 c8 96 3c cb 73 0b bb
       0.06537265 -0.05188863 0.018406186 -0.0021278735
000040 c3 71 13 3b 69 68 43 3d e0 36 a3 3d cb 74 73 bd
       0.0022498227 0.047706995 0.07969451 -0.059437554
000050 f5 d1 b1 3d a1 6b 64 bd 8a d0 bf 3d b9 3f 8f bb
       0.08682624 -0.055766705 0.093659475 -0.00437161
000060 41 68 7c 3d 6a 89 7f 3d 66 31 47 bd 2c 79 97 bd
       0.06162286 0.062386908 -0.048631094 -0.073961586
000070 b5 18 31 3d 0a df 85 3c 4b 2c 0b bc 0f 2e ed bc
       0.043236453 0.016341705 -0.008494447 -0.028952627
000080 23 62 96 bd ed 4c 44 bd 65 81 99 3d 33 8a 06 3d
       -0.07342937 -0.047924925 0.07495383 0.03284664
000090 a3 a0 6a 3d 7d 13 0f bd a8 be 27 3d f7 97 86 3c
       0.0572821 -0.034930695 0.04095331 0.016429884
0000a0 4e ee fb bc 16 70 bd bb ee 04 fd 3c 22 9e b6 bc
       -0.030753281 -0.005781184 0.03088614 -0.0222922
0000b0 bf 5a 7b 3d 14 70 16 3c 43 88 42 bd d1 57 6b 3c
       0.06136584 0.009181995 -0.04749323 0.014364199
0000c0 56 cc 96 3c 86 c7 83 bd 20 f0 73 bd 95 e2 91 3d
       0.018407982 -0.064345405 -0.059555173 0.07123295
0000d0 a6 ea 87 3d cc 7f b5 3c 5b 6d 52 bd 34 43 21 bd
       0.066365525 0.022155665 -0.05137382 -0.03937073
0000e0 f5 74 ad 3c b4 58 f3 bb 10 b0 86 3b af c7 93 3d
       0.021173934 -0.0074263457 0.0041103438 0.07215821
0000f0 6a ca 02 3d 35 cd 63 bc 14 50 5f bd 02 f8 41 3c
       0.03193132 -0.013903906 -0.054519728 0.011838915
000100 b2 1b c3 3c 47 37 8d 3d 4c 98 14 bd 4d 4f 7e bd
       0.023816917 0.06895309 -0.036278054 -0.062087346
000110 27 43 96 3c 21 c0 60 bd 9e 35 70 3d 2f 8e e7 bc
       0.018342568 -0.05487073 0.058644883 -0.02826604
000120 dc c2 90 bd 7b 73 97 bd 2c 14 0f bc 3d d5 2d 3d
       -0.070684165 -0.07395073 -0.008732837 0.042439688
000130 be dc 1d bd 56 db 66 b9 c1 6c 06 bc 7a c7 32 3d
       -0.038540594 -0.00022016218 -0.00820464 0.043647267
000140 42 53 0c 3d f5 1c ef bc 0d b1 61 3c cc a5 03 3d
       0.03425909 -0.029188612 0.013775122 0.032140538
000150 97 52 a8 bb a4 4e 4f bc 73 4f 84 3c cc 4e b4 3c
       -0.0051367986 -0.012653027 0.016151166 0.02201023
000160 14 4b 58 bd ef 9e 2e 3d 17 99 b4 bc da 5c a3 3d
       -0.052805975 0.04263204 -0.022045655 0.079766944
000170 45 1f 5f 3b ab 22 38 3d 8b e6 e2 3c a0 a7 a4 3d
       0.0034045738 0.044954937 0.027697822 0.080397844
000180 89 02 6e 3b ab 41 8a 3c cd 7c 96 bd 3a cb ea 3c
       0.003631743 0.016877016 -0.073480226 0.02866136
000190 16 f7 6b 3c 68 ae 24 bd 24 6d 8f bd c9 73 ae 3d
       0.014402172 -0.04020539 -0.07003239 0.08518178
0001a0 e9 18 8d bd 51 ce 5b 3d 5e ec 0b bc 78 1a 05 bc
       -0.06889517 0.053663556 -0.008540241 -0.008123986
0001b0 cf 82 8a bd c3 1c 15 3d 2d 66 1e 3d 92 f6 ea 3c
       -0.06763231 0.036404382 0.03867166 0.028682027
0001c0 f8 19 ad bc e5 f4 fe 3c 4a e3 e8 bc a3 28 28 3d
       -0.021130547 0.031122634 -0.028428692 0.04105438
0001d0 e6 0b c0 3a a8 8f 8c 3d de 6d c7 bc fd c0 b3 bb
       0.0014651984 0.06863338 -0.024344381 -0.0054856525
0001e0 26 2d 80 bd ab 8f 3e 3d cc 17 ac 3d 97 16 87 3d
       -0.062586114 0.04652373 0.084029764 0.065961055
0001f0 6a c5 95 bd 04 8d 81 3d 12 bf 18 bc 76 98 ff ba
       -0.07313044 0.06325725 -0.009322898 -0.0019500393
000200 fd b2 19 3d a9 1b 3e 3d e5 d6 13 bd 24 b7 af bc
       0.037524212 0.046413098 -0.03609361 -0.021449633
000210 7e f8 71 3d df 35 79 bd 85 ca 39 3d a1 3d 0c bd
       0.05907487 -0.06084239 0.045359153 -0.03423846
000220 7c 66 42 bd cd 32 9f 3d 55 25 4f bd 89 c1 07 bd
       -0.047461018 0.07773361 -0.050572712 -0.033143554
000230 88 00 ae 3d b9 05 3d bd 13 d8 86 3d cd fa 9f bd
       0.08496195 -0.046148036 0.06584182 -0.07811508
000240 81 19 9e bc 86 48 6a bc 79 9a ac 3d ea 1e 13 3d
       -0.01929927 -0.0142995175 0.08427901 0.035918154
000250 ed eb f0 bc 3d a9 90 3d ef 06 e7 3c fa d3 93 3d
       -0.029409373 0.0706353 0.028201548 0.07218166
000260 21 4c cc 3c ff 9a 86 3d 25 3e a9 3d 35 f0 fe bc
       0.024938645 0.06572532 0.08263806 -0.031120399
000270 dd f2 40 3a a2 f1 df bb 68 a4 88 bd 38 63 6b bd
       0.0007360408 -0.006834225 -0.06671983 -0.05746767
000280 f8 54 87 bc f2 32 b1 bd e9 5b be 3c 22 32 5d bd
       -0.016520008 -0.08652295 0.023237186 -0.05400289
000290 25 26 fe bc e8 7b 1c 3d dc 06 4e 3d 19 26 ab bc
       -0.031024048 0.038204104 0.05029951 -0.02089219
0002a0 bc 3a 00 bd 65 13 a0 bd e2 d6 f3 bc bb 5f 4d 3c
       -0.031306013 -0.07816199 -0.02976555 0.012535031
0002b0 5c 37 1d bc 99 69 77 3d c6 54 b5 3d 40 9c 18 3c
       -0.009595718 0.06040344 0.0885406 0.009314597
0002c0 e6 6d 0e 3d 12 cc 97 3d 54 55 5f 3b db f6 ab bd
       0.034772776 0.0741197 0.003407796 -0.08396693
0002d0 78 7b 78 3d a0 ea 83 bd 46 c3 45 bd 86 51 6a 3c
       0.060664624 -0.064412355 -0.04828193 0.014301663
0002e0 46 45 8c 3d 79 4a e4 3c 78 ea 41 bc d1 1c 5c 3d
       0.0684915 0.027867543 -0.011835687 0.05373842
0002f0 d4 fd a4 bd a5 a0 a5 3d 2b 41 60 bc 84 fa e6 3c
       -0.080562264 0.08087281 -0.013687412 0.028195627
000300 e0 07 64 bc 47 d9 a6 3d 8e 3d d4 3b 57 6b 09 bd
       -0.013917893 0.08146911 0.0064770645 -0.033549633
000310 3b 57 92 3b bf d9 25 bb d9 2c 55 3d 29 5b 04 bd
       0.004465965 -0.0025306789 0.052044723 -0.0323135
000320 46 1a 89 bd f5 9d c6 3b 40 a4 89 bd 53 12 4c bd
       -0.066944644 0.0060613104 -0.06720781 -0.049822163
000330 e3 2d 8b 3d 22 e7 1a 3d 72 6d 62 bd f8 37 98 3c
       0.067958616 0.03781808 -0.055280156 0.018581375
000340 e5 b8 49 3d 53 82 0f bd 9b 9e 76 bb 47 30 80 bd
       0.049248595 -0.035036396 -0.0037631157 -0.06259208
000350 03 ac 1c bd 9a 4c 98 3d 8e c1 93 bd fe ce a0 3d
       -0.03824998 0.074364856 -0.07214652 0.078519806
000360 7a 4d f8 bb 05 56 cc bc 6f 9a b4 3c 1c 2a 06 3d
       -0.0075775953 -0.024943361 0.022046296 0.032755002
000370 3b bc 10 bd c5 39 88 3d 4a 0e 73 3d 21 90 56 bb
       -0.03533576 0.06651644 0.0593398 -0.0032739716
000380 1a fd d0 bc a2 39 97 bd d6 09 44 3d e7 64 18 3d
       -0.025511313 -0.073840395 0.047860943 0.037205603
000390 76 d7 87 bd 8c 09 98 3d ed d6 5a 3d 1a 80 2e 3d
       -0.06632893 0.07423696 0.053427625 0.042602636
0003a0 b4 36 96 bd ef 13 8d 3d a2 61 a0 bb b2 35 8d 3b
       -0.073346525 0.06888568 -0.0048944512 0.0043093795
0003b0 5c b8 32 bd 12 7d e6 bb 3f 22 e3 bc ab 18 4a 3c
       -0.04363285 -0.0070339525 -0.02772629 0.012334983
0003c0 c1 ca 84 3d 9a ab 00 bd eb 15 6e 3c 96 ab 86 3c
       0.06483985 -0.031413652 0.014531593 0.01643924
0003d0 08 a0 00 3d 18 1f 16 3d 59 b9 b9 bd 19 ed 62 3c
       0.031402618 0.036650747 -0.090685554 0.013850474
0003e0 54 b8 a3 bc 8a fe 46 3d 1f 33 99 3c bf d9 77 bd
       -0.019985355 0.04858259 0.018701134 -0.060510393
0003f0 cd 11 04 3d e8 a6 8e 3d 57 35 53 bd 9f 28 7d bd
       0.03224354 0.069654286 -0.05156454 -0.061806317

encoder_blocks.1.2.bias f4 [12]
000000 4e 0c 43 bc fa 8c f9 3c e6 f8 d8 3d 02 1b 30 3d
       -0.011904789 0.03046273 0.105943486 0.042994507
000010 5c b1 c8 3c 55 71 44 bd 1b d0 5f bd fb f3 32 bd
       0.024498634 -0.047959644 -0.054641824 -0.04368971
000020 05 63 3a 3d 61 b3 b1 3d 2d 9d 9b 3d 85 56 af bb
       0.04550459 0.08676792 0.07598338 -0.00535089

encoder_blocks.2.0.weight f4 [12, 12, 13]
000000 5a 5c 95 3d 09 53 2c bc 3b ec c3 3c c0 cd 5b 3d
       0.07293005 -0.010517844 0.023916354 0.053663015
000010 d9 8d 0f 3c 63 c4 3a 3d 23 6e 9f 3d 85 fb 2b 3d
       0.008761846 0.045597445 0.07784679 0.041987915
000020 81 47 b2 3c e4 ad 99 bd 68 92 46 3d b6 ee 71 bd
       0.021762611 -0.0750387 0.048479468 -0.059065543
000030 14 b8 8a 3d 37 60 ab bd dd 90 a7 3d 52 e9 2a bd
       0.06773391 -0.08367961 0.08181927 -0.041726418
000040 34 c8 d4 3b 07 73 ab 3c ea 58 54 bd 20 31 b0 bc
       0.0064935926 0.020928873 -0.051842608 -0.0215078
000050 b1 d0 33 3d ab ae 9a bd 67 94 1b 3d fe 4d 2d 3b
       0.043900196 -0.075528465 0.037983324 0.0026444192
000060 9a 05 27 3d c8 15 59 bd 2c fe 1c 3d de 8d 0f bd
       0.040776826 -0.052999288 0.038328335 -0.035047404
000070 01 38 b8 bd 01 15 57 bd af 9b d7 3c 6a f9 c4 3b
       -0.08995057 -0.052510265 0.026319353 0.006011178
000080 b0 8b 8f bd 71 a5 3c bd 5d 29 7e 3c 18 a7 8c bd
       -0.07009065 -0.046056215 0.015512791 -0.06867808
000090 f9 cb 69 ba 7d 18 b4 bb 11 dd 72 3d 64 e9 fb 3c
       -0.0008918639 -0.0054960833 0.059292857 0.030750938
0000a0 78 5d ae bd e5 6c 39 bc 74 99 5b 3d 36 84 d3 3c
       -0.085139215 -0.011317466 0.05361314 0.025819879
0000b0 77 49 4f 3c fd 9c 68 ba b3 fe 13 bd 67 63 81 bd
       0.012651793 -0.0008873491 -0.036131572 -0.063177876
0000c0 7a e0 96 3d f7 ce 78 3c a1 87 8f 3b 13 49 4a 3d
       0.07367034 0.015186063 0.004380182 0.049386095
0000d0 73 97 30 3d 5f d2 b6 bc 1c b2 ef 3c a0 e5 a5 3c
       0.043113183 -0.02231711 0.029259734 0.020251095
0000e0 ca 14 aa 3c 4d 78 8e 3d 92 23 89 3d 8e 79 a9 bd
       0.020761866 0.06956539 0.066962376 -0.08275138
0000f0 37 38 43 3a 12 a7 f8 3c 1d 8f 8c 3d c7 6c f7 3c
       0.00074470363 0.030353103 0.06863234 0.030203236
000100 6c a0 aa 3c 01 c7 bf bc de 93 bf 3c ef d4 7c 3c
       0.020828448 -0.023410322 0.023385938 0.015431627
000110 9f 0b 8f bd 0c ef 8f bd 8e d4 90 bd 1c 58 e1 bc
       -0.069846384 -0.070280164 -0.070717916 -0.027507834
000120 f8 54 90 3d fa 08 17 3d 05 d2 98 bd 5c 5e d8 3a
       0.070474565 0.036873795 -0.07461933 0.0016507613
000130 d5 0e 0d bd b5 3f 82 3d 63 d1 52 3d 6a 5d 17 3c
       -0.034437973 0.063598074 0.051469218 0.00923858
000140 d0 39 66 bc cc 00 31 3c c1 fb 85 3b 0d 72 15 3c
       -0.0140518695 0.010803413 0.0040888493 0.00912143
000150 0d aa 8a 3c fe 9e e9 bc 65 f2 d5 bc 51 8d 57 bd
       0.01692679 -0.028518196 -0.02611656 -0.052625004
000160 20 06 d3 bc 26 0a 92 3b 5f 00 80 3d bd 96 e0 bc
       -0.025759757 0.004456776 0.06250071 -0.027415628
000170 5b a5 a0 bd b2 eb 76 3d 56 53 f3 bb a2 4b 36 bd
       -0.07844039 0.06028337 -0.007425706 -0.044505723
000180 4e 7e 06 3d 44 ac 77 bc 80 e1 67 bc 92 bc b5 3d
       0.032835297 -0.015116755 -0.0141528845 0.088738576
000190 34 51 51 bd a9 2f db 3c 4d 8a 50 3d cd a7 28 bd
       -0.051102832 0.026756125 0.050913144 -0.041175652
0001a0 b7 9d cc bc 37 e7 56 bd 34 4a 60 3c ae 0e 50 bd
       -0.024977548 -0.052466597 0.013689566 -0.05079525
0001b0 b2 71 88 3d 52 de 9f 3d f5 6f e8 bc 85 92 49 3d
       0.06662311 0.07806076 -0.028373698 0.049211998
0001c0 77 63 87 bd a0 45 b4 bb 61 99 18 3d 33 17 8f bd
       -0.06610768 -0.005501464 0.03725565 -0.06986847
0001d0 38 56 1f bd a0 7a 24 bd 71 0f fa 3b 38 54 d7 3a
       -0.038900584 -0.040156007 0.0076312353 0.0016428297
0001e0 3f 3e 8b bd 95 33 88 3d 1d d7 a5 bd 4a 37 0e 3d
       -0.06798982 0.066504635 -0.0809767 0.034720697
0001f0 41 9a b6 bc 48 90 6c bd 72 2d 20 3c 47 52 1d bd
       -0.02229035 -0.057754785 0.00977646 -0.038408544
000200 d1 f0 31 bd 00 df 7e bd 46 f1 8a bd 11 03 89 bd
       -0.04344255 -0.062224388 -0.067843005 -0.06690038
000210 c5 df a4 bd 16 d8 82 bc 15 9c a5 3c e5 ae d6 3c
       -0.08050493 -0.015972178 0.020216027 0.026206443
000220 48 90 91 3d ba 81 6f 3a 66 1d 8c bb 24 31 88 3d
       0.071075976 0.0009136457 -0.0042759655 0.06649998
000230 f2 2e 14 3d 2d 85 fd 3c 84 75 56 bd e6 2c 8d 3c
       0.036177583 0.030947292 -0.052358165 0.017233323
000240 b9 4d 90 bd b2 a2 67 bd 51 4a 88 3d 58 25 80 bd
       -0.070460744 -0.056551643 0.066548 -0.06257123
000250 dc 4b 4a bd c3 0f 0d 3a 67 73 d2 3c 07 93 cb 37
       -0.04938875 0.0005381072 0.025689794 2.426795e-05
000260 08 f8 88 3c fd b0 ae 3d bb eb 68 bd da c1 72 3d
       0.016719833 0.085298516 -0.056865435 0.059266903
000270 c3 8b 6b 3d 45 55 27 bd ab 2a f0 3b 95 9f 52 3d
       0.057506334 -0.040852804 0.007329305 0.05142172
000280 95 4a 0a bd 35 ef 11 3d 40 49 81 bc 50 0f 05 bc
       -0.033762533 0.035628516 -0.015781999 -0.008121327
000290 d4 00 88 3c a2 71 6b 39 f4 16 23 3d cc 27 90 3d
       0.016601957 0.00022453678 0.03981681 0.07038841
0002a0 00 e1 08 bd 1d a5 b7 3d 0f d0 28 3d d4 f2 79 bc
       -0.0334177 0.0896704 0.041214045 -0.015255649
0002b0 b9 08 4c bd ab 83 0c bd 6b 56 17 3c 0c c3 23 3d
       -0.049813006 -0.034305256 0.009236912 0.039980933
0002c0 02 e4 ab bc 60 61 03 bb 27 f5 62 3d c9 3a 28 3d
       -0.020982746 -0.0020047054 0.055409577 0.041071687
0002d0 23 be eb bc 53 c4 a2 3d 4d d5 0d 3b 5f 0b e8 3c
       -0.028777188 0.07947602 0.002164203 0.028325735
0002e0 c3 fe 0c bd a2 77 58 3d 10 8f 91 3d 3f 9d a6 3b
       -0.034422647 0.052848466 0.07107365 0.005084663
0002f0 ba 6b 5c bc 20 e9 d2 3c 52 a6 5d bd de e8 b1 bc
       -0.013453418 0.025745928 -0.054113694 -0.021717485
000300 d6 b1 e7 3c 90 02 47 3b 18 e4 8c 3d 4c c9 97 3d
       0.028283041 0.0030366518 0.06879443 0.07411441
000310 7a 32 88 3d c0 4d 81 3d 49 3e 55 bd 9f 52 90 3c
       0.06650253 0.06313658 -0.052061353 0.017617522
000320 7b a9 b7 3c e8 ec 3f 3d 76 e9 b7 bc ba 6d 04 3d
       0.022419682 0.04685679 -0.02245019 0.032331206
000330 b7 1a f5 b9 7b 44 85 3d 51 9c e5 bb 04 e1 23 bc
       -0.00046749946 0.06507202 -0.0070071598 -0.010002378
000340 57 ba b5 3c 60 54 b6 3b 67 2a 04 3d 71 23 97 3d
       0.02218358 0.0055642575 0.032267 0.07379807
000350 9c 18 5d bd 51 1f 58 3d bb d2 5e 3c 1b 8a bf bc
       -0.053978547 0.05276424 0.013600047 -0.023381284
000360 19 f0 44 bd 4a d7 94 bd 60 09 96 bd 9a 27 04 3d
       -0.048080537 -0.07267626 -0.07326007 0.03226433
000370 3f d6 6f 3d ae 77 62 3c ac 08 2f 3d 7f 44 5d bb
       0.05855393 0.013822479 0.04273288 -0.003376275
000380 37 43 8c bd 39 c8 56 3d 80 6c 98 3d 64 92 76 bd
       -0.06848758 0.05243704 0.0744257 -0.060198203
000390 6f 95 d5 bc 82 92 88 3d b0 29 f3 bc 99 4a 6b bd
       -0.026072232 0.06668569 -0.029682964 -0.05744419
0003a0 4a 07 f4 3c 00 47 6a 3d af ee 87 bd 4f 9e fc 3c
       0.029788632 0.057196617 -0.06637322 0.030837206
0003b0 8b 1c ed 3c 2f 9f 54 bd 52 19 6d 3d ec 1a 8a bd
       0.028944274 -0.05190962 0.057885475 -0.06743416
0003c0 bd 60 f7 bb 38 57 4a 3a 40 68 53 3d 6a 92 0e 3d
       -0.007549374 0.0007718685 0.051613092 0.0348076
0003d0 92 d1 9a bd c7 a2 90 3d 8b 5b 4d bd ea e6 2d bd
       -0.075595036 0.07062297 -0.05013613 -0.042456545
0003e0 7e e4 d7 ba 1f 0c 2f bd 74 50 30 3d 35 7d 43 3d
       -0.0016471294 -0.04273617 0.043045476 0.04772683
0003f0 3b 6f d0 bc 76 5a 08 bc 2b b7 22 3c a3 88 0c bd
       -0.025443664 -0.008322349 0.009931366 -0.034309994

encoder_blocks.2.0.bias f4 [12]
000000 86 7f a3 bc df 95 ab 3d ff f6 c7 3b 85 12 09 3e
       -0.019958269 0.08378195 0.0061024423 0.13385971
000010 18 97 4a bc b6 9a 87 3d 94 5d db bd 42 dd a3 3d
       -0.012365125 0.06621306 -0.10711208 0.08001186
000020 fa 87 b8 3c 3c 44 b4 bd 65 7e be 3d a1 61 d7 3d
       0.022525776 -0.08802077 0.093014516 0.10516668

encoder_blocks.2.2.weight f4 [12, 12, 13]
000000 a5 be ae bc db 16 aa 3d ef 2c 30 3d 51 26 63 3b
       -0.02133114 0.083051406 0.043011602 0.003466029
000010 92 2c 74 bd eb ad 67 3a e5 80 ba bc 32 7e 5a bd
       -0.059612818 0.00088378665 -0.02276654 -0.053343005
000020 e8 43 d4 bc 28 95 f9 bc a1 3f 2a 3c 1b 50 33 bd
       -0.025911286 -0.030466631 0.010391147 -0.043777566
000030 e9 c8 64 3d e3 c2 88 bc 55 a3 93 3c ba 2b 73 3d
       0.055855665 -0.016694492 0.018022219 0.059367873
000040 32 33 18 3d 2d e7 17 3d 02 e3 77 bd 3f f6 a1 3d
       0.0371582 0.0370857 -0.060519226 0.07908296
000050 2d 1a aa bc 3e f1 99 bc 26 c4 80 bd 12 1a 36 3d
       -0.020764435 -0.018791791 -0.06287412 0.044458456
000060 e7 03 80 3d 3b a4 fc bc 11 39 de bc 45 83 7f 3d
       0.06250744 -0.03084003 -0.02712682 0.062381048
000070 73 a4 8d bd 96 a7 ac bc c0 d9 7f 3c dd 8e 3a 3d
       -0.06916132 -0.021076005 0.0156158805 0.0455464
000080 cb a3 4e bd 1a 45 33 bd 2b 99 ab 3d 80 b8 9b bd
       -0.050449174 -0.043767072 0.08378824 -0.0760355
000090 9b 78 5d bd 23 44 4a 3d 7b 47 54 bb dd 1f cb 3c
       -0.054070096 0.049381386 -0.0032391238 0.024795467
0000a0 aa f6 51 bd 70 be 1a bd cf ee 05 bd ff 75 83 3d
       -0.051260628 -0.03777927 -0.03269845 0.0641899
0000b0 f5 47 45 3d 1e 70 80 bc f0 f2 85 3b d7 c8 08 3c
       0.048164327 -0.015678462 0.0040877983 0.008348665
0000c0 fa 39 cb 3c 6d 11 19 bd 43 05 5d bd 71 11 9a 3d
       0.024807919 -0.037370134 -0.053960096 0.07522858
0000d0 20 e2 20 3b 9c b5 91 bd 14 e9 fe 3c be a7 62 bd
       0.0024548844 -0.07114717 0.031117 -0.055335753
0000e0 32 20 92 bc 38 47 74 bc c6 86 61 bd 80 14 c3 ba
       -0.017837618 -0.014909558 -0.05506017 -0.0014883429
0000f0 80 75 1e 3c 70 5f fa bb 60 a2 7b bb a0 d7 e4 bb
       0.009671569 -0.0076407716 -0.0038396344 -0.0069837123
000100 08 4c 7f 3c 26 5f 52 3d f3 8f 67 bd d3 35 ba 3c
       0.015582092 0.051360272 -0.056533765 0.022730744
000110 48 41 ae 3c 32 da 27 3c f4 48 6f 3b 2e 53 4c bd
       0.021271363 0.010244893 0.003651199 -0.049884014
000120 5a f3 3a 3d e6 54 50 3d db 64 56 3d bd aa 39 bd
       0.045642234 0.050862215 0.052342277 -0.045328844
000130 c0 dc 32 bd 91 0f ac bb d5 83 5c 3c 8d 4d 57 bd
       -0.043667555 -0.005250879 0.013459166 -0.052564193
000140 ff d5 23 bd e2 5a b4 bb 2e 8b 19 3d 7e 33 fa 3c
       -0.039999004 -0.005503998 0.037486248 0.030542132
000150 b0 8d 0f 3d 39 6a 4d 3c 6f d5 ad bd 46 97 67 3d
       0.035047233 0.0125375325 -0.08487975 0.05654075
000160 83 c6 79 bd 4a 94 53 bd 5a 7c 86 3b 8b ce 9b 3c
       -0.06098033 -0.05165509 0.0041041793 0.019019386
000170 f8 ae 13 3d 8c fe 0c 3d e2 df 8e 3d 02 e4 8b bc
       0.036055535 0.034422442 0.06976296 -0.017076496
000180 ee 6b 6c 3c a5 a4 cb 3d 17 da cb bc 09 db a4 3d
       0.014430029 0.09943513 -0.024884267 0.0804959
000190 e8 9e 97 3c bb 51 ca 3d de f1 cb 3d 9a fa 05 bc
       0.01850839 0.0987887 0.09958242 -0.008177424
0001a0 23 d4 c3 bb c7 8c 98 bd cf 2c 85 3d e6 10 94 3d
       -0.0059762164 -0.07448726 0.06502687 0.072297856
0001b0 43 8e 22 3c d5 d2 86 bd da 30 e6 3c b3 31 57 3d
       0.009921613 -0.06583182 0.028099466 0.05253763
0001c0 ff 33 a8 bc e4 dc 36 bc 34 5c 4b bd 5d 07 3d bd
       -0.020532606 -0.011161063 -0.04964848 -0.0461496
0001d0 f1 30 51 bc 8c c6 76 bd 14 9a 93 3d f7 12 32 bd
       -0.012768016 -0.060247943 0.072071224 -0.043475118
0001e0 c3 43 bd 3c 0f 67 a2 3d 0c 26 03 3d 4a c1 82 bd
       0.0231036 0.07929813 0.032018706 -0.06384523
0001f0 e9 ef 8e bc 6d 4b 9a bd 79 b2 88 bd f8 54 53 bb
       -0.017448382 -0.075339176 -0.06674666 -0.003224669
000200 29 e3 a3 3c 3f 42 5b 3d 0b 5f 20 bd 11 28 0f 3d
       0.02000578 0.053529974 -0.03915314 0.03495032
000210 58 76 30 bc 76 5b 02 3d 28 15 2b 3d 4a 4c 85 bd
       -0.010770403 0.031825505 0.041768223 -0.065086916
000220 b6 a0 84 bc c5 c0 8a 3c b5 20 5c 3d ab 84 3a 3b
       -0.016189914 0.016937623 0.05374213 0.0028460424
000230 4e 95 74 3d b0 d3 07 bd 62 32 12 3d bc 23 41 bd
       0.0597127 -0.033160865 0.03569258 -0.04715322
000240 f7 30 ca bc 32 56 f3 3c ee d1 c3 3b fa 4b 8d bd
       -0.024681551 0.029704187 0.0059759533 -0.06899257
000250 8f a6 75 bd dc 94 ab 3d 47 a4 2a 3d cd 6c 93 bc
       -0.059973296 0.08378002 0.041660573 -0.017996216
000260 38 40 78 bd 1e 4f 94 3c 10 0a 6e bb 98 38 1f bd
       -0.06060812 0.018104132 -0.0036321916 -0.03887233
000270 44 6b 83 3d 7e bb 7a bd 50 40 bb 3d a4 aa 57 bd
       0.06416944 -0.061213963 0.09143126 -0.05265297
000280 5b 7d 26 3d 7b be 98 3d fb 34 af bc 93 81 2f 3d
       0.040646892 0.07458206 -0.021387568 0.04284818
000290 38 a1 c3 3b 82 87 44 3d 2a 8a 74 bc 5e b7 47 3d
       0.0059701465 0.047980793 -0.014925519 0.048758857
0002a0 80 3a c4 bc 77 3f fa bc ae cc 80 3d 69 65 18 bc
       -0.023953676 -0.03054784 0.062890396 -0.009301522
0002b0 3a ca 84 3d 80 e8 8b 3b 6d 7f 82 3d 82 7f 3e 3d
       0.06483884 0.0042696595 0.06371961 0.04650832
0002c0 80 76 fc 3c 6b 33 d2 bc 7c 22 b5 bc 71 e1 5c bd
       0.030818224 -0.025659284 -0.02211117 -0.053925935
0002d0 b0 e9 4d 3d fb ac 37 3c 2f 09 14 3c 35 48 37 bd
       0.05027169 0.011210675 0.009035393 -0.044746596
0002e0 28 b9 0b bc 35 03 f4 3b 6b 42 ab 38 27 6a 8b 3c
       -0.008528031 0.0074466714 8.166287e-05 0.01701839
0002f0 33 44 36 3d 32 33 d1 3c a1 70 1c bd 2a 24 37 3c
       0.044498634 0.025537107 -0.03819335 0.011178056
000300 89 8c a0 3d f3 31 71 bd 59 7e 03 bd 27 83 0d bd
       0.07839305 -0.058885526 -0.032102916 -0.034548905
000310 1c b6 98 3d c1 d5 95 bd d2 10 96 3d b6 81 3e bc
       0.074566096 -0.07316161 0.07327427 -0.011627605
000320 87 91 61 3d bf 93 8c 3d de f3 a1 bc 21 c7 5d 3d
       0.055070426 0.06864118 -0.019769605 0.054144982
000330 89 76 02 3d 32 52 1b 3d 31 31 83 bd 0a 45 84 3b
       0.031851325 0.037920184 -0.06405867 0.0040365504
000340 f2 fd 2f bd d0 49 91 3d 34 1e 18 bd 00 36 4b ba
       -0.04296679 0.07094157 -0.03713818 -0.0007751882
000350 e4 cb 09 bd 50 10 8f 3d 1c 1b 5d 3d 9c 1e 4e bd
       -0.03364171 0.06985533 0.05398093 -0.05032216
000360 cc 3f 73 3d 3e 1b 0e 3d 00 48 0c 38 cf c1 23 bd
       0.059387013 0.03469395 3.3445656e-05 -0.039979752
000370 80 23 5f 3b 06 ea 73 3d 4c 0b 70 3c a5 01 6e bb
       0.003404826 0.059549354 0.014651131 -0.0036316898
000380 b1 4e 91 3c 40 93 93 3d 96 65 ce 3c f9 60 5d 3d
       0.017737718 0.0720582 0.025194924 0.05404756
000390 8c 56 be 3c 37 59 f3 bc 5e cd c2 bc 16 95 a1 bd
       0.023234628 -0.029705627 -0.023779567 -0.07889764
0003a0 73 8f e7 bc ea 8d 5b 3c 6d 58 b7 3c 61 c2 24 bd
       -0.028266644 0.013400534 0.022381032 -0.040224437
0003b0 bd 9d b9 3c 49 61 4c bd 31 d7 88 3d cd 14 b3 bc
       0.022658223 -0.049897466 0.066816695 -0.021860505
0003c0 f4 2e b3 bc 06 29 69 bd d1 82 20 3d 82 5f a2 3d
       -0.021872975 -0.05692389 0.039187256 0.07928373
0003d0 09 e3 5d 3c 56 8a 45 3d 4a bf d7 3b d4 d7 9b bd
       0.013542899 0.04822763 0.0065840827 -0.07609525
0003e0 6c e8 8f bd 74 b5 85 bc 10 66 4f 3d 60 40 55 bd
       -0.07026753 -0.016321875 0.050634444 -0.052063346
0003f0 d9 83 03 3c b5 a4 cb 3a c6 12 9a bc 70 b9 b0 bd
       0.00802704 0.0015536757 -0.01880778 -0.086291194

encoder_blocks.2.2.bias f4 [12]
000000 2f ab a1 3d 8b 7b 7c 3d e4 58 2f 3c fe ae 31 bd
       0.07893979 0.061641257 0.0107023455 -0.043379776
000010 d2 ed c8 bb 18 fd 73 3d ed 06 06 3e 57 10 3e bd
       -0.006131866 0.05956754 0.1308858 -0.0464023
000020 83 76 7a 3d 4e f2 88 3d 6d 3d e8 3d c7 88 21 bd
       0.061148178 0.06686841 0.11339841 -0.03943708

encoder_blocks.3.0.weight f4 [12, 12, 13]
000000 52 cd 9d 3d 11 17 e7 3c d6 1b 0d bc 5d ec 45 bd
       0.07705177 0.028209241 -0.008612594 -0.048321117
000010 c0 c1 7e bc 40 15 3f 3d 29 cc 76 bd 2e 44 25 bd
       -0.015549123 0.046651125 -0.060253296 -0.040348224
000020 f9 da 47 bd 46 1e 7d 3d fc dc a1 3d 1c 87 35 bd
       -0.048792813 0.06179645 0.079034775 -0.044318303
000030 9a 42 86 bd 89 4a 63 bd 6d 8d 8d 3d fe 9a ee 3c
       -0.06555672 -0.055491004 0.069117405 0.02912664
000040 7f 84 36 3d 8c 90 af 3c 41 9a 72 bc dc e1 56 3d
       0.044559952 0.02143123 -0.014807285 0.05246149
000050 b3 75 94 bd 75 fa f9 bc 19 20 a9 3a fa dd 15 bd
       -0.07249012 -0.030514935 0.0012903243 -0.036588646
000060 3a 00 da 3c d3 fe 93 3c e9 c7 4a 3d bc c3 89 3d
       0.026611436 0.018065846 0.049507055 0.067267865
000070 d6 56 74 3d c9 20 40 bc a9 19 4c 3c 59 73 54 bc
       0.059653126 -0.011726567 0.01245729 -0.012966954
000080 5e b8 2c bd 53 ec 14 3c c7 5c 66 bd 3f 4c 6d bc
       -0.042168014 0.009089547 -0.056240823 -0.0144835105
000090 68 74 88 3b 74 7a 88 3c 57 a2 8b 3c 99 fa 3a 3d
       0.0041642673 0.016659953 0.017045183 0.045649145
0000a0 e0 19 33 bd 2a f1 d7 3c 4e da 49 bc 9e 53 64 3d
       -0.04372585 0.026360113 -0.012320114 0.055743806
0000b0 c9 40 76 3d 18 e3 1a bd 30 0d 14 bc 57 09 00 3d
       0.060120378 -0.03781423 -0.009036347 0.031258907
0000c0 96 b0 9a 3d ad 82 24 bd 9e 0a d0 3c 7a 80 f3 bc
       0.07553212 -0.040163685 0.025395688 -0.029724348
0000d0 ca cd 87 bd 0c 6c 2c 3d c5 c1 76 bd 54 7d 22 3d
       -0.06631048 0.04209523 -0.060243387 0.039670303
0000e0 96 68 86 3d 1b fb 18 3d 91 a9 66 bd 25 4d 8a bd
       0.06562917 0.037348848 -0.056314055 -0.067529954
0000f0 9d 97 35 bb 31 88 7c 3c 2e 6a fe bc 7e 3e 8a 3c
       -0.0027708777 0.01541333 -0.03105649 0.016875502
000100 b7 dd aa bc aa 38 91 bd 30 7a 2c bd 10 bc ba bc
       -0.020857675 -0.07090886 -0.042108715 -0.022794753
000110 ea 28 80 3d a5 87 85 bd 81 e7 6d 39 e5 7f a8 3d
       0.06257804 -0.06520013 0.00022688323 0.08227519
000120 49 52 f7 3b 04 30 52 3c 0b 2a b4 3b 20 86 4f bd
       0.007547651 0.012828831 0.005498176 -0.05066502
000130 8a cf 1a 3d ac 41 33 3d f5 25 39 bd ea 29 c3 3b
       0.03779558 0.0437638 -0.045202214 0.0059559243
000140 fd 3a 12 3d 12 fe 47 bd be 84 03 bd 4a 3c 19 bd
       0.035700787 -0.048826285 -0.032109015 -0.03741101
000150 49 38 b3 bb c8 bb 87 3d 77 c2 ae bd 4b 4a 95 3c
       -0.005469356 0.06627613 -0.08533185 0.018223902
000160 0b 21 39 bb 4a 10 d0 bc de ff 9c 3d 89 24 a4 3d
       -0.0028248455 -0.025398392 0.0766599 0.08014781
000170 fa 67 59 3d a8 8e f8 ba f2 ba 7a bd 0b 26 7c bd
       0.053077675 -0.0018963413 -0.06121344 -0.061559718
000180 0c 44 f8 bb c1 f5 4a 3d 2b b5 17 3d 9b ef a6 3c
       -0.007576471 0.049550775 0.03703801 0.020377925
000190 f3 8c 70 3d 67 61 3a 3c ba f5 76 3d aa 8c 8a bd
       0.05872817 0.011375762 0.060292937 -0.06765111
0001a0 f6 e0 d8 bc d3 03 03 3d e5 e3 21 bc d6 c9 58 bd
       -0.026474457 0.03198607 -0.009880994 -0.05292686
0001b0 6f 38 e3 bc 87 ee 9f bb 23 a5 53 3d a5 bd 97 bd
       -0.02773687 -0.0048807296 0.05167116 -0.07409219
0001c0 ad b5 73 3c 74 43 88 bd f0 66 2c bd d0 ce 87 3d
       0.014874858 -0.06653491 -0.042090356 0.06631243
0001d0 fb 3b 30 bd 75 0c 90 bd 73 bf 90 bc 43 bf 8c 3d
       -0.04302595 -0.07033626 -0.017669415 0.06872418
0001e0 bd 68 a7 bb 12 9f 97 bb 14 fa 46 bd e1 16 9c bd
       -0.0051089213 -0.004627117 -0.048578337 -0.07621551
0001f0 7d 74 cc 3c a8 cb 83 3b 25 87 fa 3b 57 af 85 bd
       0.02495789 0.0040220805 0.007645505 -0.06527584
000200 53 a8 36 3d 76 d6 5f bd 09 d8 26 bb c0 b4 97 bd
       0.04459412 -0.054647885 -0.0025458357 -0.07407522
000210 c5 f5 ce 3b 40 b6 3c 3d 97 ea 17 3c 65 1f 8a bc
       0.006315919 0.046072245 0.009272239 -0.016860673
000220 a4 f0 82 bd a1 3c 1a 3d 07 3c f9 bc aa 39 14 3c
       -0.06393555 0.037655476 -0.030424131 0.009046951
000230 71 3c a1 bd 35 4d 98 3d b8 33 c7 bc 43 00 84 3d
       -0.078728564 0.07436601 -0.024316654 0.064453624
000240 9c c3 08 3c 28 a3 f4 bc 21 9e 06 3d ee 9f a8 3d
       0.008347418 -0.029862955 0.032865647 0.08233629
000250 67 c0 00 bd c9 59 d2 3c f6 81 5f 3d bb b9 80 bc
       -0.03143349 0.025677579 0.0545673 -0.015713563
000260 23 e1 4f 3c 5d a7 f3 3c 23 4f 76 3d 13 f7 9c bd
       0.012687954 0.029742891 0.060134064 -0.07664313
000270 eb 27 f7 bb dd e4 d3 ba 72 e6 f0 bc 3a ab d5 3d
       -0.0075426004 -0.0016166229 -0.02940676 0.104330495
000280 5f ca cf 3d c1 82 67 bd 42 69 fd 3d 81 bc 8f 3d
       0.10146021 -0.05652118 0.12373592 0.07018376
000290 90 f6 3f bd 5f 6b e6 3d e2 5c f1 3c dd 78 97 3d
       -0.046866 0.11250948 0.029463235 0.073961
0002a0 54 97 73 3d d0 98 e7 bc 7b 70 99 bd bc 5e 9b bd
       0.05947049 -0.028271109 -0.07492157 -0.075864285
0002b0 41 aa d8 bb f7 59 05 3d 5c ed 87 bd af bd 81 3b
       -0.0066120927 0.0325565 -0.066370696 0.0039593796
0002c0 ca e3 6f 3d 5b a9 87 3d af ff c9 bc 45 4f 09 3d
       0.058566846 0.06624099 -0.024658052 0.033522863
0002d0 2f 79 b3 3c a9 10 a1 3d 16 60 1d 3c ab 69 d2 3c
       0.02190837 0.07864506 0.009605428 0.025685152
0002e0 0e e5 82 bd 9a 7c a1 3d 2d db c5 bc 47 52 7f 3d
       -0.06391345 0.07885094 -0.024152363 0.062334325
0002f0 0e 8e 4a bc b1 69 34 bd e6 cf 28 bd 9e c9 a2 3d
       -0.01236297 -0.044046108 -0.041213892 0.07948612
000300 0c 26 1a bd b1 29 6d bd 4a 4d 64 bb 63 61 72 bd
       -0.03763394 -0.05790109 -0.0034836107 -0.059174906
000310 a9 2c 99 3c 71 d0 42 3d 26 90 b1 3b ae e3 48 3c
       0.018698053 0.047562066 0.005418795 0.012261314
000320 6a ec ae 3c 7d bf 73 3d 39 38 e9 bc a0 ea 81 3d
       0.021352965 0.05950879 -0.028469192 0.06343579
000330 63 b1 f8 bc 57 df ca bc 13 9a 88 bc ff ab 8c 3d
       -0.030358022 -0.0247647 -0.01667503 0.06868743
000340 52 db 03 bd ca 89 66 3d 42 e2 93 bd 72 cf 3e 3c
       -0.032191582 0.05628375 -0.0722089 0.0116461385
000350 db 1f 40 bd 86 45 99 3d f2 b4 94 bd 44 3f 08 3d
       -0.04690538 0.07483964 -0.07261075 0.03326346
000360 5f fe 29 3d 47 9a f5 3c f1 af 11 bc e3 1d 78 3d
       0.041502353 0.029980792 -0.008892045 0.060575377
000370 24 26 48 3c 04 34 89 bc 17 04 dc bc c0 07 1b 3d
       0.012216125 -0.016748436 -0.026857419 0.037849188
000380 c0 dd 6c bd 26 38 c5 bc de 03 7f 3d b4 af 61 bd
       -0.057828665 -0.024074625 0.062259547 -0.055099204
000390 01 9a 61 3d 3a 51 1d bd 98 40 e2 3c 39 a8 64 bc
       0.05507851 -0.03840754 0.027618691 -0.013956123
0003a0 be 06 1e bc cf 4a 8f bc 86 7c 6d 3d 67 83 e8 3d
       -0.009645162 -0.017491726 0.057980083 0.11353188
0003b0 89 ed 12 3c e3 9e c4 3d 30 9c d7 3d 24 c9 af 3d
       0.008967766 0.09600618 0.10527837 0.085832864
0003c0 92 82 8f bb f9 0a 88 3d 8b cb 53 3d 0a 02 ce 3c
       -0.004379579 0.06642718 0.051707786 0.025147457
0003d0 02 7f f1 3c d3 f6 a0 3d 37 7b d6 3d b0 b8 64 3c
       0.029479507 0.07859578 0.1047272 0.013960049
0003e0 b3 59 d4 3a e8 8c 51 bb 8c f6 b4 3b 02 80 0d bd
       0.0016201049 -0.0031974856 0.0055225547 -0.034545906
0003f0 84 0a 80 3d eb 7a 15 3c 6e c0 23 bb c1 99 9d bd
       0.06252006 0.009123544 -0.0024986523 -0.07695342

encoder_blocks.3.0.bias f4 [12]
000000 bb 06 45 bd 32 7d 9d 3d d4 4b c9 3d 02 a7 a3 bc
       -0.04810212 0.07689895 0.09828916 -0.019977096
000010 01 d5 1e bd 72 9e c6 3d ae 8a 02 bd 3f 48 4d bd
       -0.038777355 0.0969819 -0.031870537 -0.050117727
000020 e1 c2 ab 3c f2 2b af bd db 16 1c 3d 82 e3 11 3d
       0.020966949 -0.08553304 0.038107734 0.03561736

encoder_blocks.3.2.weight f4 [12, 12, 13]
000000 e7 e2 db 3b d4 c2 67 bd 61 ed 51 bc 29 2a 5a 3d
       0.0067103985 -0.056582287 -0.012812943 0.053262863
000010 a2 fc 12 bd 84 da 83 bd 24 34 08 3d 21 69 34 bc
       -0.03588546 -0.06438163 0.03325285 -0.011011393
000020 77 5e 53 bd b3 e5 16 bb e5 c4 3f bd 21 eb 06 3d
       -0.05160376 -0.0023025095 -0.046818633 0.03293908
000030 41 3a fd bb 80 7d d8 3c 4e e3 51 bb af 89 2c bc
       -0.0077278917 0.02642703 -0.0032026353 -0.010530873
000040 11 7a fd bc 1b ea 30 bd 02 59 24 3c 60 69 85 bd
       -0.030941995 -0.04319201 0.010030987 -0.06514239
000050 8d b1 70 3d c1 de 05 bd 88 f6 15 bc 86 7e 87 3d
       0.058763076 -0.032683138 -0.009153016 0.06615929
000060 75 c4 0b 3d 4e e8 41 3d d6 e5 7b ba 25 25 26 bd
       0.034122903 0.047340684 -0.00096091384 -0.040562768
000070 7d d3 f4 3c 56 c5 84 bd 24 12 d6 3c 16 83 89 bd
       0.029886002 -0.06482951 0.026131697 -0.06714456
000080 b8 53 4c 3d 23 58 5d bd 52 83 7d bb 46 bc a1 3d
       0.049884528 -0.05403913 -0.003868301 0.078972384
000090 59 54 71 3b ab 94 6f ba bd e0 1c bd 42 81 4f bd
       0.0036823957 -0.000913928 -0.038300265 -0.05066038
0000a0 98 8c 77 3d d2 d2 97 bd db b0 79 3b 2a 84 a0 3c
       0.060436815 -0.07413258 0.00380998 0.01959427
0000b0 57 9f 20 3d db 20 4d 3c 20 f0 fe 3c fc 7f fe bc
       0.03921446 0.01252004 0.03112036 -0.031066887
0000c0 f1 5d 04 bd 6f 93 8b 3d 4c 8f 8b bd ed 6b 9a 3b
       -0.032316152 0.0681523 -0.06814441 0.004712573
0000d0 35 40 83 3d 62 2f 7f 3d eb e6 47 3d bd 4d 43 bb
       0.06408731 0.062301047 0.048804205 -0.0029800974
0000e0 52 af 67 bb 92 6b 3e bd 4f 80 df 3b fd 65 37 3d
       -0.0035352302 -0.046489306 0.0068207155 0.044774998
0000f0 3f ba 87 3d 29 6a 51 bc e0 64 c0 3c a0 13 d1 bc
       0.066273205 -0.012781658 0.023485601 -0.025522053
000100 9b 62 4e bd 61 f4 01 bd 82 97 05 bd 4a d6 a0 bd
       -0.050387006 -0.0317272 -0.032615192 -0.078533724
000110 23 bd 92 3d a2 7f 2b bd 11 49 d6 bc a3 57 48 3d
       0.07164981 -0.041869767 -0.026157888 0.048911702
000120 31 c6 90 3d a7 11 74 3d cb 1b 95 3d 6e 55 7b 3c
       0.07069052 0.059587147 0.07280692 0.015340192
000130 1a a3 72 3d 89 cc 82 bd 37 eb a9 bc e0 6e 94 bd
       0.059237577 -0.06386668 -0.020742042 -0.0724771
000140 67 4a 10 3d 76 f2 82 bd 73 a5 24 bd e7 0c 6b bd
       0.035227206 -0.06393902 -0.040196847 -0.05738535
000150 7e e2 95 bd d1 55 cb bb 30 db 5b 3d 7d 25 9e bd
       -0.073185906 -0.0062052985 0.05367583 -0.07721994
000160 c7 2f 8c bc 5d 57 07 3d 25 6d 25 3d 7e 69 36 bd
       -0.017112626 0.0330423 0.04038729 -0.0445342
000170 88 ee 71 3c 69 59 86 bd 9e 9f 9f 3d d8 32 14 3d
       0.014766343 -0.065600224 0.077941164 0.0361813
000180 9c 03 58 3d 68 0e a7 3c d4 b8 ef 3c b4 13 1f 3d
       0.052737817 0.020392612 0.029262938 0.03883715
000190 4e 34 a1 bc 71 3d 3b bd 06 5e 05 bd 28 92 0d 3c
       -0.019678261 -0.045712892 -0.03256037 0.008640803
0001a0 cf 4a 35 3d 4c 74 f7 bc e2 db 91 3d bc 72 86 3d
       0.044260796 -0.030206822 0.071220174 0.065648526
0001b0 99 72 d5 bc dc 2d 95 3d 30 28 bc 3b 3f 49 d9 bc
       -0.026055621 0.072841376 0.0057420954 -0.026524184
0001c0 d8 dd 9c 3c 21 2c 89 3d ee 0b bb bc 75 11 4f 3d
       0.019148752 0.0669787 -0.022832837 0.050553758
0001d0 6a 40 ff ba 50 38 c4 3b 69 90 b1 3a e6 a3 22 3d
       -0.0019474153 0.0059881583 0.0013547066 0.039707087
0001e0 d2 d6 91 3d 8e 9d 8e 3c 04 e5 18 3d 6c f3 6c bd
       0.07121052 0.017409112 0.03732778 -0.057849333
0001f0 c8 4a 6b 3d f3 06 13 bc 8f 2a 34 bb 54 df 79 bd
       0.057444364 -0.008973825 -0.0027491187 -0.061003998
000200 d9 40 8f 3d 95 9d 11 bd 3c 6e 9b 3d bc 27 94 bc
       0.069947906 -0.035550673 0.07589385 -0.018085353
000210 f9 05 2b bd 3c 60 77 bd be 30 47 bd 31 98 4e 3d
       -0.041753743 -0.06039451 -0.04863047 0.05043811
000220 5c ca 5f bd c1 7a f8 bc 04 c1 6a bc 14 10 89 bb
       -0.054636344 -0.030331971 -0.014328245 -0.004182825
000230 42 8a e7 ba 71 62 2f 3c 88 f7 a2 bd f4 52 61 3c
       -0.0017665105 0.010704623 -0.07957369 0.013752688
000240 55 e8 2e 3d 77 28 b6 bc b8 78 51 bd b3 5f 12 bc
       0.042702038 -0.022236092 -0.051140517 -0.008933949
000250 94 0e 81 bd 6a 9d 0b bd 33 0e 76 bc 33 29 e4 39
       -0.06301609 -0.03408567 -0.015018034 0.00043518245
000260 2e 24 cf bc ef 21 f0 3c a6 f8 8e bc bb ed da bc
       -0.025285807 0.029313056 -0.01745255 -0.026724687
000270 6e a8 0a 3c 6e 32 48 bd 28 7c 33 3d 74 19 9f 3c
       0.008463008 -0.04887622 0.043819577 0.019421317
000280 44 4d 9f bc dc 4f 9c 3d 34 af 96 3d a8 d9 a9 bc
       -0.019446023 0.076324195 0.07357636 -0.02073367
000290 0a 1e 96 3d 0c 62 9f 3c 56 17 1f 3c 2d 8b 13 bd
       0.07329948 0.019455932 0.009710154 -0.0360214
0002a0 93 0b 59 3d 3e 1f 88 bc 17 db 28 3d 19 42 a3 3c
       0.052989554 -0.01661646 0.041224565 0.019928979
0002b0 76 56 0b bd 30 cf 2e 3d 99 b2 a1 bd 4a 42 08 bd
       -0.034018002 0.04267806 -0.07895393 -0.033266343
0002c0 68 09 9c bd 0f 32 8d 3d a4 e7 14 bd 2d 7a 95 3b
       -0.076189816 0.068943135 -0.036353722 0.0045616836
0002d0 af 92 34 bd 9c 93 f0 bc 14 c5 bc 3c f5 3b 8a 3d
       -0.0440852 -0.02936726 0.023043193 0.06749717
0002e0 ba b1 49 bd 35 e4 1a bd c0 bc f3 bc 36 b9 6c 3c
       -0.04924176 -0.03781529 -0.029753089 0.014448455
0002f0 7c 17 68 bd f5 48 bb bc 4c 7c 8b 3d a7 9e 59 3d
       -0.05666302 -0.022861937 0.06810817 0.05312982
000300 33 c5 d5 3b c7 87 69 3d 3f b5 d9 3c 21 bd 7b bc
       0.006523752 0.057014253 0.026575683 -0.015364916
000310 74 0f 16 3c b6 11 a6 bd 14 5b c8 3a 9c e8 f9 bc
       0.009158958 -0.08108847 0.0015285932 -0.030506425
000320 10 1e 49 bd e6 8f 12 3d 8b c6 9b 3d cb 91 22 bc
       -0.049100935 0.035781763 0.076062284 -0.009922455
000330 29 9c a5 3b 0e 3c ce 3b 1c a7 1c 3c e0 36 1e 3d
       0.005054016 0.00629378 0.009561326 0.03862655
000340 a4 d4 24 bd e9 8d 21 bc 3a 6a 6c bd de 42 48 3d
       -0.040241852 -0.009860494 -0.057718493 0.048891895
000350 72 2f 4d 3d eb 06 5a bd 80 44 68 bd 14 cd a8 3b
       0.050094076 -0.053229254 -0.05670595 0.0051514003
000360 e3 49 7d 3d a7 68 8c bc 4d 27 57 bd 7c 1e 45 3b
       0.061838042 -0.017139746 -0.052527715 0.0030077985
000370 16 d8 09 bd 08 12 a6 3c 26 08 04 3d ed d3 93 3c
       -0.03365334 0.02027227 0.032234333 0.01804539
000380 b4 6c 17 3d 0e 6c 0e bd 4e cc 3a 3d 71 9a 9a bb
       0.0369689 -0.034771018 0.045604996 -0.004718118
000390 f4 3d 1b bc 9c 3a 42 bd a4 57 8c bc e1 71 48 bd
       -0.00947522 -0.047419176 -0.017131634 -0.04893673
0003a0 5f 13 dc 3c e8 22 13 bd 2a 93 56 bd 4f 19 8b bd
       0.026864706 -0.03592196 -0.05238644 -0.067919366
0003b0 c1 a5 92 bd d3 28 ec bc de d2 b9 3c 17 da 31 bd
       -0.07160521 -0.02882806 0.022683557 -0.043420877
0003c0 96 c6 c7 3c d5 79 3d bd bd bf 87 3d 6a dd b9 bb
       0.024386685 -0.046258766 0.06628368 -0.0056721466
0003d0 c0 a3 4c bd f1 9b 7d 3d c3 98 6c bd bf 30 36 bd
       -0.04996085 0.061916295 -0.057762872 -0.04448008
0003e0 f0 94 3b 3c 20 f8 8f bb 70 5c 9f 3d 88 56 3a bc
       0.011449084 -0.0043935925 0.07781303 -0.01137317
0003f0 92 7c 92 3d 10 ae 28 3c 10 82 95 3d 64 dc 59 3d
       0.07152666 0.010295406 0.07300198 0.053188697

encoder_blocks.3.2.bias f4 [12]
000000 a4 10 9b bd 48 18 76 bd c1 37 95 bd 20 78 31 bd
       -0.07571533 -0.06008175 -0.07286025 -0.04332745
000010 78 f5 84 bc 5a 71 01 3d 1d 7c 8c 3b 10 74 b2 3b
       -0.01623033 0.03160224 0.0042872564 0.0054459646
000020 73 61 30 3c b8 3e a2 3d ff de 44 3d b2 50 61 3b
       0.010765421 0.07922119 0.04806423 0.0034380374
