Python/save/localizer/trial_2/quake_localization_model_00850.pth (torch, 252994 bytes, 35 tensors)

encoder_blocks.0.weight f4 [12, 1, 13]
0	0x3e448dd8	0.19194734
1	0x3e46c4b7	0.19410978
2	0x3e64ec81	0.22355844
3	0x3da5652d	0.080759384
4	0x3e3e9f7f	0.1861553
5	0x3dcffb7d	0.101553895
6	0xbde01f53	-0.109434746
7	0xbd76de00	-0.06027031
8	0xbe548c90	-0.20756745
9	0xbe4cdcdb	-0.20006125
10	0xbe44f0ea	-0.19232526
11	0x3db0b6a6	0.086285874
12	0xbdb33a01	-0.08751298
13	0xbe5b575a	-0.2142004
14	0xbe7e221d	-0.248177
15	0xbe800e1a	-0.2501076
16	0xbe077f73	-0.13232212
17	0x3dec2c04	0.11531833
18	0xbe343082	-0.1759663
19	0x3e92100a	0.28527862
20	0xbe4c5c9d	-0.19957204
21	0xbc940dbd	-0.018072957
22	0x3d94d3b7	0.07266944
23	0x3e32d444	0.17463785
24	0x3e1fc7a1	0.15603496
25	0xbd20641d	-0.039157975
26	0x3d8bb84b	0.068222605
27	0xbdace6d9	-0.08442468
28	0x3cb4a5f2	0.022051785
29	0x3d985b6d	0.07439313
30	0xbe5feb54	-0.21867114
31	0xbe3ff5ea	-0.18746153
32	0x3e1f231c	0.15540737
33	0xbd8ab295	-0.06772343
34	0xbdd951cb	-0.10611304
35	0xbddae676	-0.10688488
36	0xbc12f004	-0.008968357
37	0xbde2b6e4	-0.1107004
38	0xbe7ad21a	-0.2449421
39	0x3d9c63ec	0.07636246
40	0x3cf27e0c	0.02960112
41	0xbe549956	-0.20761618
42	0x3d944921	0.07240511
43	0xbe1c3609	-0.15254988
44	0xbe12d51e	-0.1433911
45	0x3db606bc	0.08888003
46	0x3d135bb5	0.03597613
47	0x3d14ccbc	0.036328062
48	0xbdbd5394	-0.09244457
49	0x3b24b638	0.0025133025
50	0x3e88c5d8	0.26713443
51	0xbe821f51	-0.25414518
52	0x3d7b6e94	0.061384752
53	0x3d1fc398	0.039004892
54	0xbdb25312	-0.08707251
55	0xbb98a48c	-0.0046582874
56	0xbe167686	-0.1469365
57	0xbde34871	-0.110978015
58	0xbe15e4a9	-0.14638008
59	0x3e377795	0.1791671
60	0xbd0ce012	-0.034393378
61	0x3df60b7a	0.12013908
62	0xbc403578	-0.011731498
63	0xbe0698f6	-0.13144287
64	0xbe2dfcf4	-0.16991025
65	0xbdae4fb7	-0.08511298
66	0x3e6e5e9f	0.23278283
67	0x3dcb07b5	0.099135794
68	0xbcf7d44e	-0.030252602
69	0xbd6955d5	-0.05696662
70	0x3d98c04e	0.07458554
71	0x3e6819ac	0.22666043
72	0xbe7655f7	-0.2405623
73	0x3d9f834d	0.077887155
74	0x3e1d55f5	0.15364821
75	0xbe4d85d7	-0.20070587
76	0x3e699904	0.22812277
77	0x3e280ce6	0.1641117
78	0xbdf7cd85	-0.120997466
79	0x3d02a844	0.03189875
80	0x3df750aa	0.12075932
81	0x3ddeb728	0.10874778
82	0x3d855e65	0.06512145
83	0xbd0d852f	-0.034550842
84	0xbda14f43	-0.07876446
85	0x3e783dd8	0.24242342
86	0x3e11330e	0.14179632
87	0x3e14d2fb	0.14533608
88	0xbe89e895	-0.26935259
89	0x3df64338	0.1202454
90	0xbe18a42f	-0.14906381
91	0x3dbc4b09	0.09193999
92	0xbdc1d3b4	-0.09464207
93	0xbd5acc80	-0.053417683
94	0x3de2f76e	0.1108235
95	0xbe5028ad	-0.20328017
96	0x3e8afa4f	0.27144095
97	0x3e4e6392	0.2015517
98	0xbdbe29da	-0.09285326
99	0x3e146076	0.14489922
100	0xbe3030ce	-0.17206118
101	0x3c5a8150	0.013336495
102	0x3e5baff0	0.21453834
103	0x3cd8c839	0.026462661
104	0xbe393f3e	-0.18090531
105	0xbc68c3ce	-0.01420684
106	0xbd386861	-0.04502142
107	0xbd8d9f41	-0.06915141
108	0x3e28828d	0.16456051
109	0x3e468a41	0.19388677
110	0x3e432303	0.19056325
111	0x3e7d278e	0.2472212
112	0x3e2255d7	0.15853058
113	0x3e3e5397	0.18586574
114	0x3e69fd5e	0.22850558
115	0xbe10fee9	-0.1415974
116	0x3e302258	0.17200601
117	0x3e85f1b6	0.26160973
118	0xbda42d5e	-0.080164656
119	0xbe48a043	-0.19592385
120	0xbe67c8dd	-0.22635217
121	0x3c864354	0.016389526
122	0xbe3d0d4e	-0.18462107
123	0xbe454c20	-0.1926732
124	0x3e041d83	0.12901883
125	0x3e5a6a8e	0.2132971
126	0xbe465e4a	-0.19371906
127	0x3e8b0892	0.27154976
128	0x3d457120	0.048203588
129	0x3de7d0df	0.11319136
130	0x3e91f222	0.28505045
131	0xbe681e0d	-0.22667713
132	0x3e8e03fa	0.2773741
133	0x3cdbe806	0.026844036
134	0xbd1e361e	-0.03862583
135	0x3e543f43	0.20727257
136	0x3defb038	0.11703533
137	0x3ce4ce47	0.027930392
138	0xbd34a036	-0.0440981
139	0xbd4b6d81	-0.049664978
140	0xbbfcafbd	-0.0077113793
141	0xbdd1dbe5	-0.1024702
142	0xbe4404e7	-0.19142495
143	0x3d95aad7	0.07307976
144	0x3e18c5a4	0.14919144
145	0xbe5718a9	-0.21005501
146	0xbd5c8902	-0.0538416
147	0xbe687585	-0.2270108
148	0xbe8a903b	-0.27063164
149	0x3db82351	0.08991111
150	0xbe76aee9	-0.2409016
151	0xbdd0da94	-0.101979405
152	0xbe33c6cf	-0.17556308
153	0x3e7560e1	0.23962738
154	0xbe477947	-0.19479857
155	0xbdef1826	-0.11674528

encoder_blocks.0.bias f4 [12]
0	0xbe3d0e06	-0.18462381
1	0x3d377409	0.044788394
2	0x3e881dd4	0.26585257
3	0xbdee302c	-0.11630282
4	0x3e897c3f	0.26852605
5	0xbe8a0cf6	-0.26963013
6	0x3d8a1a58	0.06743306
7	0x3de5fcad	0.11229835
8	0x3da99754	0.08280817
9	0xbd935aba	-0.07195039
10	0x3bae81f7	0.0053255516
11	0x3de330cf	0.11093294

encoder_blocks.1.0.weight f4 [12, 12, 13]
0	0xbc52f63b	-0.012876089
1	0x3d562dd8	0.052289814
2	0x3d91a027	0.07110625
3	0xbcd70db1	-0.026251646
4	0xbd3ab818	-0.04558572
5	0x3d7f1d8b	0.062284034
6	0xbd2c4916	-0.042061888
7	0x3caea14c	0.021317147
8	0xbd465c90	-0.04842812
9	0xbce31d38	-0.027723894
10	0xbd18afe2	-0.03727711
11	0x3d52e17f	0.05148458
12	0x3c693e8a	0.014236102
13	0x3d77b051	0.060470883
14	0xbd41870a	-0.047247924
15	0xbca1a5b0	-0.019732326
16	0xbd4798ed	-0.048729826
17	0x3c91cc42	0.017797593
18	0x3bcb067c	0.0061958414
19	0xbd5684cd	-0.052372742
20	0xbce0ea82	-0.027455572
21	0xbd9a96d3	-0.07548299
22	0xbcd6b514	-0.026209392
23	0xbc98241e	-0.01857191
24	0xbd20e541	-0.039281134
25	0x3d3d6c75	0.04624601
26	0xbc2b0d8e	-0.010440243
27	0x3d8dc6f0	0.0692271
28	0xbb99d1ff	-0.004694223
29	0x3bdf0eaf	0.0068071703
30	0xbd674752	-0.0564645
31	0xbd924992	-0.07142939
32	0x3d9b7d1b	0.07592221
33	0xbdac18c9	-0.08403165
34	0x3d67deca	0.056608953
35	0xbc56e584	-0.013116244
36	0x3d50e1bb	0.050996523
37	0x3da7c9cc	0.081927866
38	0x3d908a5f	0.07057642
39	0xbdaa7b38	-0.08324283
40	0x3d0fb0b7	0.035080638
41	0xbd79edf5	-0.06101795
42	0x3d01e397	0.031711187
43	0x3d120d6b	0.035657328
44	0x3d8a4dde	0.06753133
45	0x3d7d1bd7	0.06179413
46	0x3c9217a0	0.01783353
47	0xbd7a1eea	-0.06106464
48	0xb9a941e4	-0.00032283284
49	0xbd9a5f88	-0.075377524
50	0xbd87102b	-0.06594881
51	0x3d82bb9e	0.063834414
52	0x3b46b285	0.0030318808
53	0x3d2faac0	0.04288745
54	0xb92df728	-0.00016590639
55	0xbd9594bb	-0.07303759
56	0x3d92206f	0.071350925
57	0x3d2b419d	0.04181062
58	0xbcbc9446	-0.023019921
59	0x3c607b95	0.013701339
60	0x3bbc68cb	0.005749797
61	0xbc34b794	-0.011030097
62	0xbd77894d	-0.060433675
63	0x3c8934f4	0.016748883
64	0xbcc153f3	-0.0235996
65	0x3d307ae1	0.043085936
66	0xbd1a67fd	-0.037696827
67	0x3cdf85db	0.027285507
68	0x3c6ed673	0.014577496
69	0xbd44065d	-0.04785763
70	0xbd667012	-0.056259222
71	0xbd4c349e	-0.049854867
72	0x3d76d3f9	0.060260747
73	0xbd916a31	-0.071003325
74	0x3d2d6ce2	0.042340167
75	0x3d9986b5	0.074963965
76	0x3d020cc4	0.031750455
77	0xbd37454c	-0.04474382
78	0x3d0db86d	0.03459971
79	0xbdb0c7ae	-0.08631836
80	0x3b6b5616	0.0035909466
81	0x3d4a1b94	0.049342707
82	0x3da32b2d	0.079672195
83	0xbd2dd463	-0.042438876
84	0xbd7a538d	-0.061114836
85	0x3c7cfdd5	0.015441378
86	0xbd4902a4	-0.049074784
87	0x3c1e4632	0.009660291
88	0x3d5a8f9f	0.053359624
89	0x3d85328e	0.06503783
90	0x3cd2ae87	0.025717987
91	0xbd3c8674	-0.046026662
92	0xb98fb158	-0.00027407217
93	0xbcf943b0	-0.030427784
94	0xbd40a01f	-0.047027703
95	0xbcadfde1	-0.021239223
96	0xbd0bb4f7	-0.03410813
97	0xbd5e480b	-0.054267924
98	0x3d805729	0.062666245
99	0x3d4f02a8	0.050539643
100	0xbd881f65	-0.06646613
101	0xbbc4ab5f	-0.0060018743
102	0xbca94d09	-0.020666616
103	0x3a483250	0.00076368917
104	0x3d8e7505	0.069559135
105	0xbcc7f05c	-0.024406604
106	0x3acfe129	0.001585995
107	0xbd9d882f	-0.076919906
108	0x3ce6ea53	0.028187906
109	0xbd473533	-0.04863472
110	0x3c96f0da	0.018425394
111	0xbcfe66f9	-0.03105496
112	0xbbfb16cc	-0.0076626297
113	0x3d34033c	0.043948397
114	0x3d13be90	0.036070406
115	0x3d6c5b91	0.057704512
116	0x3d842b00	0.06453514
117	0xbc894cfd	-0.016760344
118	0xbcfc3879	-0.030788647
119	0xbc86ebbb	-0.016469827
120	0x3b7e7571	0.0038827325
121	0x3d12e333	0.035861205
122	0xbd3b15f5	-0.045675237
123	0xbd9e8aed	-0.07741342
124	0xbd8f18a5	-0.069871224
125	0xbc334b0a	-0.010943184
126	0xbc97d539	-0.01853429
127	0xbc7554a0	-0.014973789
128	0xbd051643	-0.032491934
129	0xbd7775bb	-0.06041501
130	0xbd0a3d8e	-0.03375011
131	0x3c4c3404	0.012463573
132	0xbd896bae	-0.067099914
133	0x3cb2740e	0.021783855
134	0xbd13a6c0	-0.036047697
135	0x3d8c7faf	0.06860291
136	0xbc6c87c2	-0.014436664
137	0x3b4a99cc	0.0030914424
138	0xbd2b155f	-0.041768428
139	0xbbfc041a	-0.0076909186
140	0xbd871f8a	-0.065978125
141	0xbd2bc77f	-0.0419383
142	0xbc9ad3a0	-0.018899739
143	0xbcdd250d	-0.026995206
144	0x3d3b0ba0	0.045665383
145	0xbcb0f7a7	-0.021602465
146	0xbc8990cb	-0.016792675
147	0x3d824c80	0.063622475
148	0xbd96118a	-0.07327564
149	0x3c8ba415	0.017046014
150	0xbd2459d3	-0.040124726
151	0x3cd4e44d	0.025987769
152	0x3d1fe2e6	0.039034747
153	0xbd0ca8b4	-0.034340575
154	0x3d4449f0	0.047922075
155	0xbd9ab431	-0.075539
156	0xbd024731	-0.031806175
157	0x3d4137f3	0.047172498
158	0xbd80143f	-0.06253862
159	0x3d328d38	0.043591708
160	0x3cd79fc9	0.026321309
161	0xbd92466c	-0.07142338
162	0xbd8daf38	-0.06918186
163	0x3d3d975e	0.046286933
164	0x3da34b5f	0.0797336
165	0x3d8776fc	0.06614491
166	0xbd26e0c1	-0.040741686
167	0x3d557f85	0.052123565
168	0x3d693ad9	0.056940887
169	0xbd8e6bce	-0.06954156
170	0xbd855eed	-0.06512246
171	0x3d17f4bc	0.03709863
172	0x3d81d5f4	0.063396364
173	0x3d704ad1	0.0586651
174	0x3d83fc51	0.0644461
175	0x3d281d10	0.04104334
176	0x3da8db95	0.08245007
177	0x3cd30aa8	0.025761917
178	0xbbcb871e	-0.0062111756
179	0x3cd48a96	0.02594499
180	0xbd887436	-0.066627905
181	0x3d8235cf	0.063579194
182	0x3aaed430	0.0013338383
183	0x3bfdc388	0.0077442564
184	0x3da2809e	0.07934688
185	0x3d8cfec3	0.068845294
186	0x3b9aaf9b	0.004720641
187	0xbd17bd69	-0.03704587
188	0xbd4a5806	-0.049400352
189	0xbd3edd05	-0.0465975
190	0x3d312993	0.04325254
191	0xbcd69248	-0.0261928
192	0xbd906eed	-0.070524074
193	0x3cfd2f66	0.03090639
194	0x3db0cbac	0.08632597
195	0x3baf7553	0.0053545623
196	0x3c3c14ed	0.0114795985
197	0x3c752dcb	0.014964531
198	0x3cd5c357	0.026094122
199	0x3c832ca7	0.016012503
200	0xbd05a8aa	-0.032631554
201	0xbd88501b	-0.06655904
202	0xbc9bfc9d	-0.019041354
203	0x3cd97f56	0.026549976
204	0xbcf6a51b	-0.030108025
205	0x3da82233	0.08209648
206	0xbcf55d40	-0.029951692
207	0x3d9b2f1d	0.075773455
208	0xbd3c9f11	-0.046050135
209	0xbd4ee992	-0.05051572
210	0xbd0be677	-0.034155335
211	0xbd7ea6ea	-0.0621709
212	0x3c5dc5f4	0.013535965
213	0xbc3eac67	-0.011637784
214	0x3d362ac5	0.044474382
215	0xbd863ec3	-0.065549396
216	0xbbe8e056	-0.007106821
217	0xbc7baeba	-0.015361482
218	0x3d5c4a84	0.053782
219	0xbc3f490c	-0.011675131
220	0x3cc9f623	0.0246535
221	0x3d93fe88	0.07226282
222	0xbb4cffda	-0.003128043
223	0x3b7f2775	0.003893343
224	0x3d4748a8	0.048653275
225	0x3ba60555	0.0050665536
226	0x3c374569	0.011185982
227	0x3c33fada	0.010985101
228	0x3caf6505	0.021410475
229	0x3d527a78	0.051386327
230	0xbcaad9c0	-0.020855784
231	0xbd3988eb	-0.04529659
232	0xbccba1a9	-0.024857359
233	0x3d11de52	0.03561241
234	0x3d0b6d6b	0.034039896
235	0xbcca43fa	-0.024690617
236	0x3d913e6f	0.070919864
237	0xbd857463	-0.0651634
238	0xbd7e0c9f	-0.062023755
239	0x3d9dc4e3	0.07703569
240	0x3cad7a2e	0.021176424
241	0x3d554b1e	0.05207359
242	0x3c5acda5	0.013354694
243	0xbd8e65ce	-0.069530115
244	0xbb5067b9	-0.0031800105
245	0x3c910c53	0.017706072
246	0xbd51eea7	-0.051252987
247	0xbda0e8fc	-0.07856938
248	0xbd059b35	-0.03261872
249	0xbce947ec	-0.028476678
250	0x3d60c5ef	0.054876264
251	0x3d89bf0c	0.067258924
252	0xbd614995	-0.055001814
253	0x3bab451c	0.0052267443
254	0xbc835d9a	-0.016035844
255	0x3b8fbeb0	0.0043867454

encoder_blocks.1.0.bias f4 [12]
0	0x3acce3a1	0.0015631804
1	0xbb186d52	-0.002325852
2	0xbcf150a6	-0.029457401
3	0x3db600d7	0.08886879
4	0xbda8ce5f	-0.08242487
5	0x3d820060	0.06347728
6	0xbb728fde	-0.003701202
7	0xbd156128	-0.03646961
8	0x3cb680d5	0.022278229
9	0x3d8b5051	0.068024285
10	0x3dfd5ff5	0.12371818
11	0x3d0bbfb6	0.034118377

encoder_blocks.1.2.weight f4 [12, 12, 13]
0	0x3d8294af	0.063760154
1	0xbd37e91a	-0.044900037
2	0x3d596de5	0.05308332
3	0x3d97f9cc	0.07420692
4	0x3d58455b	0.052800518
5	0x3d2bca60	0.041941047
6	0x3c530b90	0.012881175
7	0x3b8c7bb8	0.0042872094
8	0xbc0c703a	-0.008571679
9	0xbcf09b64	-0.029370971
10	0xbb5aa4cf	-0.0033362394
11	0xbc08266d	-0.008309943
12	0x3d865dd4	0.06560865
13	0xbd50d79e	-0.05098688
14	0x3c937aa7	0.018002821
15	0xbad6cd99	-0.0016388177
16	0x3b539bdd	0.0032288947
17	0x3d44b228	0.048021466
18	0x3da3894c	0.07985172
19	0xbd70efc9	-0.058822427
20	0x3db2d296	0.08731572
21	0xbd653817	-0.055961695
22	0x3dc0a7ed	0.09407029
23	0xbb819da1	-0.0039555584
24	0x3d80de5f	0.06292414
25	0x3d802f67	0.06259041
26	0xbd4968ac	-0.04917209
27	0xbd976da4	-0.07393959
28	0x3d346ce3	0.044049155
29	0x3c880e93	0.016608512
30	0xbc05eb82	-0.008173825
31	0xbced4f23	-0.0289684
32	0xbd950974	-0.07277194
33	0xbd4240b8	-0.047425
34	0x3d996bcd	0.074912645
35	0x3d081684	0.033224598
36	0x3d70be11	0.05877501
37	0xbd15d43c	-0.036579356
38	0x3d28d02c	0.041214153
39	0x3c8a0590	0.016848356
40	0xbd025c48	-0.031826288
41	0xbba9c5a3	-0.005181031
42	0x3cfa83b9	0.030580388
43	0xbcbb1f01	-0.022841932
44	0x3d7d3da8	0.061826378
45	0x3c243d4b	0.010024379
46	0xbd431c6c	-0.047634527
47	0x3c6a1f9b	0.014289762
48	0x3c97103d	0.01844036
49	0xbd848489	-0.064705916
50	0xbd7155a8	-0.05891958
51	0x3d90ced0	0.07070696
52	0x3d892b1a	0.06697674
53	0x3cb5bc1f	0.02218443
54	0xbd518e08	-0.051160842
55	0xbd215cf6	-0.039395295
56	0x3cbcfdb4	0.023070194
57	0xbc00ef6c	-0.007869583
58	0x3b8428db	0.0040331907
59	0x3d944cd9	0.0724122
60	0x3d05f4e6	0.032704256
61	0xbc61bb5b	-0.013777579
62	0xbd5fb77d	-0.054618347
63	0x3c444d8b	0.011981378
64	0x3cbf64cf	0.023363499
65	0x3d8cbab5	0.06871549
66	0xbd1448c2	-0.0362022
67	0xbd7cb147	-0.061692502
68	0x3c940401	0.018068315
69	0xbd5e8bed	-0.054332662
70	0x3d6e001f	0.058105584
71	0xbce8b39e	-0.02840596
72	0xbd90630e	-0.07050143
73	0xbd964df6	-0.073390886
74	0xbc13596d	-0.008993489
75	0x3d2cbb47	0.04217079
76	0xbd1dac89	-0.03849462
77	0x39dfa9ce	0.0004266039
78	0xbc02ac27	-0.007975615
79	0x3d34c80b	0.04413609
80	0x3d09b58c	0.033620402
81	0xbcef52ad	-0.029214228
82	0x3c682c5c	0.014170732
83	0x3d06170a	0.032736816
84	0xbba935d0	-0.0051638857
85	0xbc5ddcf9	-0.0135414535
86	0x3c824e7c	0.015906565
87	0x3cbb60b8	0.022873268
88	0xbd582424	-0.05276884
89	0x3d2a068f	0.04151016
90	0xbcad34b7	-0.0211433
91	0x3da47c79	0.08031554
92	0x3b7c6777	0.0038513818
93	0x3d38c92a	0.04511372
94	0x3cec10d9	0.028816627
95	0x3da786fe	0.081800446
96	0x3b9f70dc	0.004865749
97	0x3c8c9c9c	0.01716452
98	0xbd969465	-0.07352523
99	0x3cedc407	0.029024137
100	0x3c74bdba	0.014937812
101	0xbd242b7c	-0.040080532
102	0xbd908795	-0.0705711
103	0x3daf8d3c	0.0857186
104	0xbd8c951e	-0.06864379
105	0x3d5e5ad0	0.054285824
106	0xbc04c75f	-0.008104174
107	0xbbe61f08	-0.007022742
108	0xbd894e85	-0.067044295
109	0x3d165e91	0.03671128
110	0x3d1f1df4	0.038846925
111	0x3cf5dcec	0.03001257
112	0xbcb03fa6	-0.021514725
113	0x3cfc4dc8	0.030798808
114	0xbce10e17	-0.027472539
115	0x3d2be8c6	0.041970037
116	0x3a91da72	0.0011127724
117	0x3d8c61ae	0.068545684
118	0xbcc2a0fc	-0.023758404
119	0xbb9fabaf	-0.004872761
120	0xbd808ed3	-0.062772416
121	0x3d425dfd	0.047452915
122	0x3dadad2d	0.08480296
123	0x3d8900d7	0.06689613
124	0xbd96b93b	-0.07359549
125	0x3d822fb6	0.063567564
126	0xbc0c34b6	-0.008557489
127	0xba2dd985	-0.0006631839
128	0x3d1641f6	0.036684
129	0x3d3f99bb	0.04677747
130	0xbd12c9d9	-0.03583703
131	0xbcb217ed	-0.021739924
132	0x3d728064	0.059204474
133	0xbd7adce4	-0.061245814
134	0x3d39c8c0	0.045357466
135	0xbd0bcb35	-0.03412934
136	0xbd3e43ae	-0.046451263
137	0x3d9f42b5	0.07776395
138	0xbd51dfbf	-0.05123877
139	0xbd06bb1f	-0.032893296
140	0x3daef71e	0.085432276
141	0xbd37c8c9	-0.044869218
142	0x3d83deed	0.06439004
143	0xbd9f016f	-0.07763945
144	0xbc9d4e4e	-0.019202378
145	0xbc662fbe	-0.014049469
146	0x3dafd7c5	0.08586077
147	0x3d1195cb	0.035543244
148	0xbced7f80	-0.02899146
149	0x3d91c861	0.07118297
150	0x3cf2f5c6	0.02965821
151	0x3d9390a5	0.07205323
152	0x3cca4e57	0.024695558
153	0x3d88129f	0.06644177
154	0x3daa3dc4	0.08312562
155	0xbd0087b5	-0.03137942
156	0x3a2d7c42	0.0006617942
157	0xbbe1ec9c	-0.006894661
158	0xbd89492b	-0.06703409
159	0xbd6b3f22	-0.057433255
160	0xbc8687fc	-0.016422264
161	0xbdb1d568	-0.08683282
162	0x3cbd2776	0.023090106
163	0xbd5ff75e	-0.054679267
164	0xbd02010e	-0.031739287
165	0x3d1d6d5d	0.038434375
166	0x3d4ecffa	0.05049131
167	0xbcab6214	-0.02092079
168	0xbd0084be	-0.031376593
169	0xbd9fd38a	-0.0780402
170	0xbcf67067	-0.030082894
171	0x3c4331f7	0.011913768
172	0xbc1b0985	-0.009462719
173	0x3d768d9b	0.06019364
174	0x3db5927a	0.08865829
175	0x3c120e31	0.008914516
176	0x3d0cfd90	0.034421504
177	0x3d97f3d0	0.074195504
178	0x3b4c51ed	0.0031176761
179	0xbdaca752	-0.08430351
180	0x3d77da2f	0.06051081
181	0xbd823310	-0.06357396
182	0xbd498d56	-0.049207054
183	0x3c660e69	0.014041522
184	0x3d8ce0fb	0.06878849
185	0x3ce5845a	0.028017212
186	0xbc44ac7b	-0.012004013
187	0x3d5c0f8b	0.05372576
188	0xbda518d0	-0.08061373
189	0x3da5c31d	0.080938555
190	0xbc5d0541	-0.013490022
191	0x3ce7cad4	0.028294958
192	0xbc65704c	-0.014003824
193	0x3da78439	0.08179516
194	0x3bdb5291	0.0066931923
195	0xbd09ec9d	-0.033672918
196	0x3b8ef8db	0.004363162
197	0xbb370bf9	-0.002793072
198	0x3d56c2a8	0.052431732
199	0xbd051d84	-0.03249885
200	0xbd8959e7	-0.06706601
201	0x3bd82fac	0.00659748
202	0xbd88eb0f	-0.06685459
203	0xbd4cc874	-0.049995854
204	0x3d8b4209	0.067997046
205	0x3d1c9ef3	0.038237523
206	0xbd626091	-0.055267874
207	0x3c9dab9b	0.019246867
208	0x3d492940	0.049111605
209	0xbd115569	-0.035481844
210	0xbb7f985c	-0.0039000725
211	0xbd80c4d8	-0.06287545
212	0xbd1d19b0	-0.038354576
213	0x3d9881bf	0.07446622
214	0xbd95b166	-0.07309227
215	0x3da098e1	0.07841659
216	0xbbf6c750	-0.007531084
217	0xbcca1d01	-0.024672033
218	0x3cb194f9	0.021677481
219	0x3d06121b	0.03273211
220	0xbd1053bb	-0.0352361
221	0x3d884772	0.06654252
222	0x3d734480	0.0593915
223	0xbb4afb93	-0.0030972704
224	0xbccedee8	-0.025252774
225	0xbd96a59f	-0.073558085
226	0x3d43eae3	0.047831427
227	0x3d18f257	0.03734049
228	0xbd87a72f	-0.066236846
229	0x3d97b3f2	0.07407369
230	0x3d5b9608	0.053609878
231	0x3d2d84ee	0.0423631
232	0xbd967381	-0.07346249
233	0x3d8d3eaa	0.06896718
234	0xbbb17466	-0.005415487
235	0x3b94d229	0.0045416546
236	0xbd3423e9	-0.04397956
237	0xbbee57ab	-0.0072736344
238	0xbce451dd	-0.027871067
239	0x3c4d87e2	0.012544604
240	0x3d85959f	0.065226786
241	0xbcd318f6	-0.025768738
242	0x3c6f0e5a	0.014590824
243	0x3c884576	0.016634684
244	0x3d01f077	0.031723466
245	0x3d16c5b9	0.036809657
246	0xbdbe24e1	-0.09284378
247	0x3c52adbf	0.012858807
248	0xbca559c0	-0.020184398
249	0x3d460f34	0.048354343
250	0x3c97743d	0.018488044
251	0xbd77ffcd	-0.060546685
252	0x3d03536e	0.032061987
253	0x3d8ea3c8	0.069648325
254	0xbd506fb0	-0.050887764
255	0xbd7cbd37	-0.061703887

encoder_blocks.1.2.bias f4 [12]
0	0xbc74f5e3	-0.014951202
1	0x3d0b6945	0.03403594
2	0x3ded98f3	0.116014384
3	0x3d415897	0.047203626
4	0x3cc484a7	0.023989035
5	0xbd41c0a5	-0.04730286
6	0xbd5c57ee	-0.053794794
7	0xbd1ab88a	-0.037773646
8	0x3d3fb029	0.04679886
9	0x3dc83894	0.097764164
10	0x3da43def	0.080196254
11	0xbb27a4c7	-0.0025580393

encoder_blocks.2.0.weight f4 [12, 12, 13]
0	0x3d958079	0.07299895
1	0xbc2ed069	-0.010669806
2	0x3cc309fc	0.023808472
3	0x3d5bbd8e	0.05364757
4	0x3c0e9462	0.008702369
5	0x3d436717	0.047705736
6	0x3d9f4777	0.07777303
7	0x3d2f0b34	0.042735294
8	0x3cb8fb8f	0.02258089
9	0xbd999d0b	-0.07500657
10	0x3d4955ef	0.04915422
11	0xbd6d1e6c	-0.05789034
12	0x3d8d313b	0.068941556
13	0xbdab297c	-0.08357522
14	0x3da8a5ea	0.082347706
15	0xbd244ada	-0.040110447
16	0x3bd279f8	0.006423231
17	0x3cb1758a	0.021662492
18	0xbd4d5e3a	-0.05013869
19	0xbca5d789	-0.020244377
20	0x3d2fe7b3	0.042945575
21	0xbd9a58bd	-0.07536457
22	0x3d1ba16d	0.037995744
23	0x3b79d32b	0.003812025
24	0x3d28ef9f	0.041244145
25	0xbd59e786	-0.053199314
26	0x3d1a99c1	0.037744287
27	0xbd0d8c82	-0.034557827
28	0xbdb97040	-0.09054613
29	0xbd5d371b	-0.05400763
30	0x3cd620e6	0.026138734
31	0x3bb3f11f	0.0054913904
32	0xbd8f80c9	-0.07006986
33	0xbd4c3bb4	-0.049861625
34	0x3c79bae5	0.015242313
35	0xbd9400fa	-0.07226749
36	0xba8fb32f	-0.0010963435
37	0xbba74249	-0.0051043374
38	0x3d695a38	0.056970805
39	0x3cfe1f79	0.031020867
40	0xbdafc0c9	-0.08581693
41	0xbc33e3e6	-0.010979628
42	0x3d5f119f	0.054460164
43	0x3cdbbc7e	0.026823279
44	0x3c5d1e76	0.013496032
45	0xb80fd655	-3.429347e-05
46	0xbd14ae4e	-0.036299042
47	0xbd80348a	-0.06260021
48	0x3d9978d2	0.07493748
49	0x3c83d12c	0.016090952
50	0x3bc4126c	0.0059836414
51	0x3d4c77da	0.049918987
52	0x3d394d6a	0.045239843
53	0xbcc2d81d	-0.023784691
54	0x3cf26fb7	0.029594285
55	0x3cab767e	0.020930525
56	0x3cbc6d86	0.023001444
57	0x3d911f92	0.070861
58	0x3d8bb948	0.06822449
59	0xbda9ccb8	-0.08291
60	0x3a90d6a7	0.00110503
61	0x3d011efc	0.03152369
62	0x3d8cff0f	0.06884586
63	0x3d00c79d	0.031440366
64	0x3cb4fedb	0.02209418
65	0xbcc2a08c	-0.023758195
66	0x3cbd352b	0.023096642
67	0x3c7dfdd7	0.015502415
68	0xbd91d8fb	-0.07121464
69	0xbd900c3f	-0.07033586
70	0xbd90a63e	-0.07062958
71	0xbce34b43	-0.027745849
72	0x3d919c86	0.071099326
73	0x3d1b1b33	0.037867736
74	0xbd9a4c86	-0.07534127
75	0x3abe0dad	0.0014499925
76	0xbd0dafab	-0.03459136
77	0x3d8143c7	0.063117556
78	0x3d5294c3	0.0514114
79	0x3bf7d817	0.0075636017
80	0xbc78f6d4	-0.015195567
81	0x3c3b6160	0.01143679
82	0x3b982349	0.004642878
83	0x3c08bbf0	0.008345589
84	0x3c8b55b1	0.017008634
85	0xbcebc750	-0.028781563
86	0xbcc8ca0d	-0.024510408
87	0xbd4a4048	-0.04937771
88	0xbcda9a06	-0.026684772
89	0x3baffb4f	0.0053705345
90	0x3d7d6791	0.061866347
91	0xbcd1dc2c	-0.025617681
92	0xbda0f286	-0.07858758
93	0x3d79497e	0.060861103
94	0xbbf38703	-0.007431866
95	0xbd2d68c8	-0.042336255
96	0x3d05eed5	0.03269847
97	0xbc6c528a	-0.014423976
98	0xbc59f9aa	-0.013304153
99	0x3db893ba	0.090125516
100	0xbd50ac91	-0.050945822
101	0x3cde87a0	0.02716428
102	0x3d562fac	0.052291557
103	0xbd2467de	-0.040138118
104	0xbcd21c33	-0.025648212
105	0xbd5dab94	-0.054118708
106	0x3c5b0402	0.013367655
107	0xbd4cd5d9	-0.05000863
108	0x3d8ab22f	0.06772267
109	0x3da09a7b	0.07841965
110	0xbce57eba	-0.02801453
111	0x3d4afd16	0.049557768
112	0xbd88a8a0	-0.06672788
113	0xbb8fa716	-0.004383932
114	0x3d16670e	0.036719374
115	0xbd900417	-0.0703203
116	0xbd1ea4a8	-0.038731247
117	0xbd1f5b8b	-0.03890566
118	0x3be8e90a	0.0071078585
119	0x3b4b09b9	0.0030981137
120	0xbd8fd57e	-0.07023142
121	0x3d8697a8	0.06571895
122	0xbda6b5ed	-0.08140168
123	0x3d0e7950	0.03478366
124	0xbcae5e39	-0.021285163
125	0xbd66f031	-0.056381408
126	0x3c054501	0.008134128
127	0xbd13df30	-0.03610152
128	0xbd2f0b97	-0.042735662
129	0xbd75a5a0	-0.059972405
130	0xbd88ade7	-0.06673794
131	0xbd8b00b6	-0.06787245
132	0xbda4e004	-0.0805054
133	0xbc8335c0	-0.016016841
134	0x3ca843bf	0.020540116
135	0x3cdd3961	0.0270049
136	0x3d95564c	0.072918504
137	0x3aa9f93f	0.0012967958
138	0xbb1e9569	-0.0024197942
139	0x3d871a48	0.065968096
140	0x3d189018	0.037246794
141	0x3d00a51c	0.03140746
142	0xbd533f83	-0.05157424
143	0x3c9d434f	0.019197134
144	0xbd923147	-0.07138305
145	0xbd5e49b0	-0.054269493
146	0x3d884776	0.06654255
147	0xbd7c0392	-0.061526842
148	0xbd493d2b	-0.0491306
149	0x39254861	0.0001576259
150	0x3cd4c09e	0.025970753
151	0x3a94c06e	0.0011348852
152	0x3c9108d1	0.0177044
153	0x3daf267d	0.08552263
154	0xbd6c6089	-0.05770925
155	0x3d7116d3	0.058859657
156	0x3d6bf423	0.057605874
157	0xbd27e03c	-0.04098533
158	0x3bec6898	0.007214617
159	0x3d522dc0	0.05131316
160	0xbd0a6b5c	-0.033793792
161	0x3d112f66	0.035445593
162	0xbc8267fa	-0.01591872
163	0xbc066c8d	-0.008204591
164	0x3c866295	0.01640443
165	0x3911a20c	0.00013888645
166	0x3d222fe3	0.03959645
167	0x3d8fe2fa	0.07025714
168	0xbd09fa3a	-0.0336859
169	0x3db73684	0.08945945
170	0x3d296f68	0.04136601
171	0xbc76b10d	-0.015056861
172	0xbd4bad7a	-0.049725987
173	0xbd0c3f22	-0.034239896
174	0x3c123a97	0.008925102
175	0x3d24237a	0.040072896
176	0xbca9dfc2	-0.020736579
177	0xbb032ad7	-0.0020014548
178	0x3d60e4d0	0.054905713
179	0x3d286aa5	0.04111733
180	0xbcedf256	-0.029046219
181	0x3da2e169	0.0795315
182	0x3b6788e6	0.00353294
183	0x3ced8839	0.02899562
184	0xbd08c1bb	-0.03338788
185	0x3d5f8759	0.054572437
186	0x3d937938	0.07200855
187	0x3bbcf36f	0.0057663242
188	0xbc4b3264	-0.012402151
189	0x3cd98e01	0.02655697
190	0xbd5921f2	-0.05301089
191	0xbca733ba	-0.020410407
192	0x3cec9eca	0.02888431
193	0x3b77f813	0.0037837073
194	0x3d8f070f	0.06983768
195	0x3d987684	0.0744448
196	0x3d88f96e	0.066882
197	0x3d81b90a	0.063341215
198	0xbd555bb0	-0.052089393
199	0x3c92d4fa	0.01792382
200	0x3cb9db40	0.022687554
201	0x3d40f2da	0.0471066
202	0xbcb5cb2a	-0.022191603
203	0x3d0508e7	0.032479193
204	0xb9948bab	-0.0002833282
205	0x3d85aa0e	0.06526576
206	0xbbe26bcc	-0.006909823
207	0xbc242245	-0.010017936
208	0x3cb12dfd	0.021628374
209	0x3b8e4ea8	0.0043428726
210	0x3d02146e	0.031757765
211	0x3d966de3	0.07345178
212	0xbd5beb29	-0.053691063
213	0x3d55cc2a	0.05219666
214	0x3c5a8967	0.013338423
215	0xbcc622aa	-0.024186451
216	0xbd449594	-0.04799421
217	0xbd9679c8	-0.07347447
218	0xbd962533	-0.07331314
219	0x3d021358	0.03175673
220	0x3d6dbd1e	0.058041684
221	0x3c62638a	0.013817677
222	0x3d2f1a17	0.04274949
223	0xbb535f50	-0.0032252856
224	0xbd8c1955	-0.06840769
225	0x3d5687cf	0.05237561
226	0x3d985b68	0.07439309
227	0xbd7644ec	-0.060124323
228	0xbcd57b10	-0.026059657
229	0x3d885664	0.06657103
230	0xbcf36b37	-0.02971421
231	0xbd6b57ea	-0.05745689
232	0x3cf2e7b6	0.029651504
233	0x3d69d840	0.057090998
234	0xbd888f28	-0.0666793
235	0x3cfbeb91	0.030751975
236	0x3cec3947	0.028835906
237	0xbd571ebc	-0.052519545
238	0x3d6d31d7	0.05790886
239	0xbd8a5126	-0.06753759
240	0xbbf49fc4	-0.0074653346
241	0x3a18f693	0.0005835082
242	0x3d53ebc7	0.051738527
243	0x3d0cec7b	0.034405213
244	0xbd9af5ba	-0.075664
245	0x3d90559f	0.07047581
246	0xbd4f2fe7	-0.050582793
247	0xbd2ec979	-0.042672608
248	0xbb053910	-0.0020328201
249	0xbd2fa6e0	-0.042883754
250	0x3d306214	0.043062285
251	0x3d425c18	0.04745111
252	0xbcd71fce	-0.026260283
253	0xbc0aaf87	-0.008464701
254	0x3c1c3a49	0.009535381
255	0xbd0cccaa	-0.03437487

encoder_blocks.2.0.bias f4 [12]
0	0xbc995d27	-0.018721176
1	0x3db76fa8	0.089568436
2	0x3b95a9be	0.004567354
3	0x3e0f9d64	0.14024884
4	0xbc4a9718	-0.012365125
5	0x3d93fe33	0.07226219
6	0xbdd313a2	-0.10306479
7	0x3dc050da	0.09390421
8	0x3cae3542	0.02126563
9	0xbdba0b2e	-0.090841636
10	0x3dceeb30	0.10103452
11	0x3de36435	0.11103097

encoder_blocks.2.2.weight f4 [12, 12, 13]
0	0xbcb24345	-0.021760592
1	0x3da9cf08	0.08291441
2	0x3d2fe84e	0.042946152
3	0x3b5aa866	0.0033364533
4	0xbd76e018	-0.060272306
5	0x3a6c3550	0.000901063
6	0xbcbbbd92	-0.022917543
7	0xbd5b7418	-0.053577513
8	0xbcd74178	-0.026276335
9	0xbcfdd2b8	-0.030984268
10	0x3c228f4e	0.009921862
11	0xbd356616	-0.04428681
12	0x3d63a956	0.055581413
13	0xbc87a1df	-0.016556678
14	0x3c94f8b7	0.018185003
15	0x3d73bd1c	0.05950652
16	0x3d18b912	0.03728587
17	0x3d184b55	0.037181217
18	0xbd77445e	-0.060367934
19	0x3da242ca	0.07922895
20	0xbca965bf	-0.0206784
21	0xbc98562c	-0.018595777
22	0xbd806120	-0.06268525
23	0x3d36c999	0.044625852
24	0x3d806bee	0.06270586
25	0xbcfb8aaa	-0.030705769
26	0xbce306ee	-0.027713265
27	0x3d7e3745	0.062064428
28	0xbd8e5067	-0.06948929
29	0xbcb01230	-0.021493047
30	0x3c788c4a	0.015170166
31	0x3d380955	0.044930775
32	0xbd4f078c	-0.050544307
33	0xbd33e6ff	-0.043921467
34	0x3dab2381	0.08356381
35	0xbd9be836	-0.0761265
36	0xbd5edb35	-0.05440827
37	0x3d4ac75d	0.049506534
38	0xbb5bb414	-0.0033524083
39	0x3ccfbcea	0.025358636
40	0xbd4e2ef7	-0.050337758
41	0xbd178bf2	-0.036998697
42	0xbd0325cf	-0.03201848
43	0x3d84f30b	0.06491669
44	0x3d4800a1	0.048828725
45	0xbc75eb9e	-0.015009789
46	0x3b9f356c	0.0048586633
47	0x3c178bd9	0.009249651
48	0x3cd13cbe	0.02554166
49	0xbd15b8db	-0.036553245
50	0xbd5a38f2	-0.053276964
51	0x3d9b6578	0.07587713
52	0x3b20e220	0.0024548844
53	0xbd91b59c	-0.07114717
54	0x3cfee914	0.031117
55	0xbd62a7be	-0.055335753
56	0xbc922032	-0.017837618
57	0xbc744738	-0.014909558
58	0xbd6186c6	-0.05506017
59	0xbac31480	-0.0014883429
60	0x3c1e7580	0.009671569
61	0xbbfa5f70	-0.0076407716
62	0xbb7ba260	-0.0038396344
63	0xbbe4d7a0	-0.0069837123
64	0x3c7f4c08	0.015582092
65	0x3d5333e2	0.05156315
66	0xbd6653d1	-0.056232277
67	0x3cbba2fa	0.022904862
68	0x3caf439f	0.021394549
69	0x3c2bd4b4	0.010487724
70	0x3b7d09a7	0.003861049
71	0xbd4b632f	-0.049655136
72	0x3d3ba4a2	0.045811303
73	0x3d5142a1	0.051088933
74	0x3d57acd4	0.052655056
75	0xbd388bfb	-0.04505537
76	0xbd31cf0b	-0.043410342
77	0xbba52be8	-0.0050406344
78	0x3c5a92ed	0.013340694
79	0xbd57d02e	-0.05268877
80	0xbd248819	-0.040168855
81	0xbbbb7e48	-0.005721841
82	0x3d190d55	0.03736623
83	0x3cf9be29	0.030486183
84	0x3d0ea746	0.034827493
85	0x3c4a2d06	0.012339836
86	0xbdae3f08	-0.08508116
87	0x3d673614	0.056448057
88	0xbd7b2360	-0.061313033
89	0xbd542d96	-0.051801287
90	0x3b7eeb61	0.003889762
91	0x3cac6ad5	0.021047035
92	0x3d1e4f1a	0.038649656
93	0x3d271a36	0.04079648
94	0x3d950b82	0.072775856
95	0xbc746456	-0.0149165
96	0x3c88368c	0.016627572
97	0x3dd20c1c	0.10256216
98	0xbcae5b33	-0.021283722
99	0x3da95d9a	0.08269806
100	0x3cc262e0	0.023728788
101	0x3dd075c0	0.10178709
102	0x3dd097c0	0.10185194
103	0xbbb28ad5	-0.005448679
104	0xbbc140f7	-0.005897637
105	0xbd985d98	-0.074397266
106	0x3d85758b	0.0651656
107	0x3d938f01	0.0720501
108	0x3c229e5d	0.009925452
109	0xbd86f5c5	-0.065898456
110	0x3ce5307e	0.027977224
111	0x3d5448a2	0.05182708
112	0xbcaa5944	-0.020794518
113	0xbc3c26e9	-0.011483886
114	0xbd4a6a4a	-0.04941777
115	0xbd400d89	-0.046887908
116	0xbc4e93fd	-0.012608525
117	0xbd770756	-0.06030973
118	0x3d9367ae	0.0719751
119	0xbd32778c	-0.04357104
120	0x3cbca9b8	0.023030147
121	0x3da2411c	0.07922575
122	0x3d02541b	0.03181849
123	0xbd831024	-0.06399563
124	0xbc8faf5e	-0.017539676
125	0xbd9a7a88	-0.07542902
126	0xbd89004d	-0.066895105
127	0xbb58aa95	-0.003306066
128	0x3ca2f619	0.01989274
129	0x3d5ad8c9	0.0534294
130	0xbd1f4b1f	-0.03889
131	0x3d113541	0.035451178
132	0xbc29cac8	-0.010363288
133	0x3d038499	0.032108877
134	0x3d2c7015	0.042099077
135	0xbd84e948	-0.06489807
136	0xbc81c932	-0.015843008
137	0x3c8d4d65	0.017248819
138	0x3d5d8673	0.0540833
139	0x3b54a621	0.0032447653
140	0x3d7619e9	0.060083304
141	0xbd066da7	-0.032819416
142	0x3d1377f2	0.03600306
143	0xbd3fbca9	-0.04681078
144	0xbcc62bc8	-0.024190798
145	0x3cf827b6	0.030292373
146	0x3bd52bab	0.00650545
147	0xbd8bec81	-0.06832219
148	0xbd738c36	-0.059459887
149	0x3dacc317	0.08435648
150	0x3d2d044d	0.04224043
151	0xbc8d402a	-0.01724251
152	0xbd76405a	-0.060119964
153	0x3c9c0ed9	0.019050049
154	0xbb4987ae	-0.0030751037
155	0xbd1c6e71	-0.038191263
156	0x3d84da97	0.06487005
157	0xbd7da7f0	-0.061927736
158	0x3dbca240	0.09210634
159	0xbd598dc6	-0.05311372
160	0x3d2bc8d6	0.04193958
161	0x3d96a03e	0.073547825
162	0xbcae61bd	-0.02128684
163	0x3d2ab38b	0.04167513
164	0x3be213e5	0.0068993443
165	0x3d454fdd	0.048171867
166	0xbc63c241	-0.013901294
167	0x3d50f874	0.051018193
168	0xbcecf443	-0.028925067
169	0xbcf6c99d	-0.030125434
170	0x3d8128bf	0.063066
171	0xbc15b634	-0.009137679
172	0x3d859b0a	0.06523712
173	0x3ba1ff88	0.004943792
174	0x3d8319d2	0.06401409
175	0x3d3dede6	0.046369456
176	0x3d00c874	0.031441167
177	0xbcd32070	-0.025772303
178	0xbcb71b95	-0.02235202
179	0xbd5db009	-0.05412296
180	0x3d4cf7a9	0.050040875
181	0x3c3ed9bb	0.011648591
182	0x3c25be3f	0.010116159
183	0xbd30787f	-0.043083664
184	0xbc0ff079	-0.0087853605
185	0x3c0637c4	0.0081920065
186	0x3a4388ec	0.00074590626
187	0x3c92f422	0.017938677
188	0x3d37930c	0.04481797
189	0x3cd1105d	0.025520498
190	0xbd1c1d81	-0.038114075
191	0x3c375fc2	0.011192264
192	0x3da37ddc	0.0798299
193	0xbd703c71	-0.05865139
194	0xbd040eeb	-0.03224079
195	0xbcfb3136	-0.030663114
196	0x3d96f050	0.07370055
197	0xbd9430cf	-0.07235872
198	0x3d97b15a	0.07406874
199	0xbc3e4890	-0.01161398
200	0x3d6582d6	0.056032978
201	0x3d8d9b31	0.06914366
202	0xbca06ad7	-0.019582195
203	0x3d5ed59e	0.05440294
204	0x3cff99ee	0.03120133
205	0x3d2299cb	0.03969745
206	0xbd8241be	-0.063601956
207	0x3b901a73	0.0043976842
208	0xbd2ffdf2	-0.04296679
209	0x3d9149d0	0.07094157
210	0xbd181e34	-0.03713818
211	0xba4b3600	-0.0007751882
212	0xbd09cbe4	-0.03364171
213	0x3d8f1050	0.06985533
214	0x3d5d1b1c	0.05398093
215	0xbd4e1e9c	-0.05032216
216	0x3d733fcc	0.059387013
217	0x3d0e1b3e	0.03469395
218	0x380c4800	3.3445656e-05
219	0xbd23c1cf	-0.039979752
220	0x3b5f2380	0.003404826
221	0x3d767173	0.060166787
222	0x3c6cda6e	0.014456375
223	0xbb5e4d8c	-0.0033920733
224	0x3c968224	0.018372603
225	0x3d93da67	0.07219391
226	0x3ccffb6f	0.025388448
227	0x3d5ce559	0.05392966
228	0x3cbc2a8e	0.02296951
229	0xbcf40d2c	-0.029791437
230	0xbcc86f8f	-0.024467258
231	0xbda2e8c1	-0.079545505
232	0xbce9c806	-0.028537761
233	0x3c533b55	0.012892564
234	0x3cba577f	0.0227468
235	0xbd21dcd1	-0.039517228
236	0x3cb34bdf	0.021886764
237	0xbd4b737b	-0.049670678
238	0x3d88c380	0.06677914
239	0xbcb7d124	-0.022438593
240	0xbcafa182	-0.021439318
241	0xbd68e5a6	-0.056859635
242	0x3d218bce	0.03943997
243	0x3da0fc48	0.07860619
244	0x3c60e55d	0.0137265595
245	0x3d3d8e0c	0.046278045
246	0x3bc75d11	0.0060840924
247	0xbd8671a8	-0.06564647
248	0xbd941ac5	-0.072316684
249	0xbc732fc8	-0.014842935
250	0x3d480fd0	0.048843205
251	0xbd4ffe2b	-0.050779503
252	0x3ca09184	0.019600637
253	0xba199190	-0.00058581773
254	0xbc797d63	-0.015227648
255	0xbdb0c379	-0.086310335

encoder_blocks.2.2.bias f4 [12]
0	0x3db18fdd	0.08670018
1	0x3d838163	0.06421163
2	0x3c58cb0b	0.013232003
3	0xbd25fa8d	-0.040522147
4	0xbbe14240	-0.0068743527
5	0x3d86653d	0.065622784
6	0x3e0d54ae	0.13801834
7	0xbd3b37d8	-0.045707554
8	0x3d839740	0.06425333
9	0x3d91c4ff	0.07117652
10	0x3df03b94	0.117301136
11	0xbd1e7331	-0.038684074

encoder_blocks.3.0.weight f4 [12, 12, 13]
0	0x3d9ee482	0.07758428
1	0x3ceb112b	0.02869471
2	0xbbf7d34c	-0.0075630303
3	0xbd41c6d5	-0.04730876
4	0xbc7ade2f	-0.015311762
5	0x3d406eb3	0.04698057
6	0xbd72d975	-0.059289414
7	0xbd21489b	-0.039375883
8	0xbd471927	-0.04860797
9	0x3d7f23d0	0.062290013
10	0x3da3c237	0.07996028
11	0xbd31f8a8	-0.043450028
12	0xbd851275	-0.06497661
13	0xbd61e147	-0.05514648
14	0x3d8e5bb8	0.06951088
15	0x3cf1c22b	0.029511532
16	0x3d380472	0.044926114
17	0x3cb2ec46	0.02184118
18	0xbc6bcdca	-0.014392326
19	0x3d5871dd	0.052842963
20	0xbd93c7e4	-0.072158605
21	0xbcf6d964	-0.030132957
22	0x3adebb60	0.0016993098
23	0xbd143c3e	-0.036190264
24	0x3cdd0dac	0.026984058
25	0x3c979dc3	0.018507844
26	0x3d4c5bfa	0.049892403
27	0x3d8aebd0	0.06783259
28	0x3d76060d	0.060064364
29	0xbc3b69f7	-0.011438838
30	0x3c54e4cf	0.012994005
31	0xbc4c648f	-0.012475147
32	0xbd2b0020	-0.041748166
33	0x3c1a22a0	0.009407669
34	0xbd64b4c2	-0.055836447
35	0xbc620682	-0.013795497
36	0x3b953e84	0.0045545716
37	0x3c8bbb1d	0.017056996
38	0x3c8fb590	0.01754263
39	0x3d3d3527	0.04619327
40	0xbd31098c	-0.043221995
41	0x3cdc2fad	0.026878202
42	0xbc437d68	-0.011931755
43	0x3d6771cb	0.056505006
44	0x3d77c6d7	0.060492363
45	0xbd190de7	-0.037366774
46	0xbc0a7495	-0.008450647
47	0x3d0203a5	0.031741757
48	0x3d9c6273	0.07635965
49	0xbd22b6d4	-0.03972514
50	0x3cd3cb6d	0.025853837
51	0xbcee2fb5	-0.029075483
52	0xbd86f45d	-0.06589577
53	0x3d2ddb7e	0.042445652
54	0xbd74fe4a	-0.05981282
55	0x3d2430ce	0.040085606
56	0x3d8725ce	0.065990075
57	0x3d1ac3ba	0.037784316
58	0xbd64f51e	-0.055897824
59	0xbd894c7c	-0.06704041
60	0xbb1d9ce7	-0.002404982
61	0x3c833e62	0.016020957
62	0xbcfb15e4	-0.030650087
63	0x3c8d5856	0.017254036
64	0xbca73a6d	-0.020413602
65	0xbd90996f	-0.07060515
66	0xbd2aeeb2	-0.041731544
67	0xbcb6e456	-0.022325676
68	0x3d8107b6	0.06300299
69	0xbd84b952	-0.064806595
70	0x3a10f161	0.00055291323
71	0x3da9ee1b	0.08297368
72	0x3c00d30c	0.0078628175
73	0x3c57a27d	0.013161299
74	0x3bc50fcc	0.006013846
75	0xbd4dda5a	-0.050257064
76	0x3d1bf559	0.03807578
77	0x3d34a0f5	0.044098813
78	0xbd381d43	-0.04494978
79	0x3bd2d6a7	0.00643428
80	0x3d167c6f	0.036739763
81	0xbd46011f	-0.048340913
82	0xbd038d49	-0.032117162
83	0xbd178969	-0.03699628
84	0xbba7ce8f	-0.0051210593
85	0x3d883aa8	0.06651813
86	0xbdae839b	-0.085211955
87	0x3ca0b968	0.019619659
88	0xbb142d17	-0.0022609883
89	0xbccd84d0	-0.025087744
90	0x3d9df32a	0.077123955
91	0x3da5541d	0.08072684
92	0x3d5a553f	0.053303953
93	0xbae012da	-0.0017095462
94	0xbd792b7a	-0.060832478
95	0xbd78d6d4	-0.06075175
96	0xbbf2d5f1	-0.0074107577
97	0x3d4d23e4	0.050083056
98	0x3d188e79	0.037245248
99	0x3ca8314f	0.020531325
100	0x3d72032a	0.05908505
101	0x3c3f411d	0.011673239
102	0x3d7860c9	0.060639177
103	0xbd89e0ca	-0.06732328
104	0xbcd5671b	-0.026050141
105	0x3d04a727	0.03238597
106	0xbc1aa553	-0.00943883
107	0xbd570205	-0.05249216
108	0xbcdef796	-0.027217668
109	0xbb92ca69	-0.0044796956
110	0x3d558b03	0.052134525
111	0xbd96c5b0	-0.07361925
112	0x3c7abaf5	0.015303363
113	0xbd875487	-0.06607919
114	0xbd2a74ea	-0.041615404
115	0x3d88c256	0.06677692
116	0xbd2ead4c	-0.042645738
117	0xbd8f2bc2	-0.06990768
118	0xbc8c0707	-0.017093195
119	0x3d8de59b	0.069285594
120	0xbb9600a8	-0.004577715
121	0xbb8afa9d	-0.004241301
122	0xbd453098	-0.048142046
123	0xbd9abf77	-0.0755605
124	0x3cd05570	0.025431365
125	0x3b8fc61f	0.0043876315
126	0x3c08dc14	0.008353252
127	0xbd8460f4	-0.06463805
128	0x3d38e5a3	0.045140874
129	0xbd5dff8f	-0.054198798
130	0xbb0e1c8c	-0.0021684496
131	0xbd96f64f	-0.073711984
132	0x3bd9ab80	0.006642759
133	0x3d3e5002	0.04646302
134	0x3c1cef73	0.0095785735
135	0xbc8778ae	-0.016537037
136	0xbd8233d3	-0.06357541
137	0x3d1b9cf8	0.037991494
138	0xbcf5e24d	-0.030015135
139	0x3c1a56d8	0.009420119
140	0xbda0775b	-0.07835265
141	0x3d9910c4	0.07473901
142	0xbcc482c8	-0.023988143
143	0x3d84a970	0.0647763
144	0x3c0dfd73	0.008666384
145	0xbcf1c30c	-0.02951195
146	0x3d07d6f9	0.033164
147	0x3da92a04	0.08259967
148	0xbcfe4313	-0.031037843
149	0x3cd512f4	0.026010014
150	0x3d60e49d	0.054905523
151	0xbc7d157c	-0.015447017
152	0x3c549cf7	0.012976876
153	0x3cf7230a	0.030168075
154	0x3d775709	0.060385738
155	0xbd9c2503	-0.07624247
156	0xbb9ad1c5	-0.0047247135
157	0x3b07ac72	0.002070215
158	0xbcd96d57	-0.026541395
159	0x3ddd6c3f	0.10811662
160	0x3dd58097	0.10424917
161	0xbd5ab3aa	-0.053393997
162	0x3e0177f8	0.1264342
163	0x3d943dc1	0.07238341
164	0xbd2fbadc	-0.042902812
165	0x3ded2191	0.11578668
166	0x3d009d71	0.031400148
167	0x3d9ba417	0.07599657
168	0x3d7cca87	0.061716583
169	0xbce583dc	-0.028016977
170	0xbd98e75e	-0.07466005
171	0xbd9ac855	-0.075577416
172	0xbbd00011	-0.006347664
173	0x3d064c1c	0.032787427
174	0xbd87677b	-0.06611534
175	0x3b883178	0.0041562878
176	0x3d70abcd	0.058757592
177	0x3d87f80a	0.066391066
178	0xbcc95425	-0.024576256
179	0x3d097cbc	0.03356622
180	0x3cb3d1c9	0.02195062
181	0x3da1366c	0.07871708
182	0x3c2373cb	0.009976338
183	0x3cd5f6b7	0.02611862
184	0xbd81b767	-0.06333809
185	0x3da2b42b	0.079445206
186	0xbcc245ca	-0.023714919
187	0x3d8092cb	0.062779985
188	0xbc436e0a	-0.011928091
189	0xbd329e6a	-0.043608107
190	0xbd2706ed	-0.04077809
191	0x3da36c37	0.07979625
192	0xbd193217	-0.037401285
193	0xbd6c155d	-0.05763756
194	0xbb4b76b8	-0.0031046104
195	0xbd722fd2	-0.059127636
196	0x3c99b87d	0.018764729
197	0x3d43751f	0.047719117
198	0x3bb8094e	0.0056163436
199	0x3c48abf1	0.012248025
200	0x3caff68d	0.02147987
201	0x3d742543	0.059605848
202	0xbce95483	-0.028482681
203	0x3d822f6f	0.063567035
204	0xbcf97683	-0.030452019
205	0xbcccb562	-0.024988834
206	0xbc88fbb3	-0.016721582
207	0x3d8c5ff4	0.06854239
208	0xbd03e693	-0.032202315
209	0x3d66d209	0.05635265
210	0xbd93bdbe	-0.07213925
211	0x3c3ff092	0.011715071
212	0xbd3ffad5	-0.04687007
213	0x3d994be6	0.074851796
214	0xbd94bc8e	-0.072625265
215	0x3d07ef4f	0.033187207
216	0x3d297ab6	0.041376792
217	0x3cf3e20e	0.029770877
218	0xbc1519f6	-0.009100428
219	0x3d774b5f	0.060374614
220	0x3c43834a	0.011933157
221	0xbc89d7b9	-0.016826497
222	0xbcdb13d3	-0.026742851
223	0x3d1bd8bc	0.03804849
224	0xbd6b7d04	-0.05749227
225	0xbcc2a491	-0.023760112
226	0x3d8023d4	0.06256834
227	0xbd613bd0	-0.054988682
228	0x3d626170	0.055268705
229	0xbd1c2e43	-0.038130056
230	0x3ce25a95	0.027631084
231	0xbc6760e9	-0.014122226
232	0xbc1de59d	-0.009637264
233	0xbc8f4023	-0.017486637
234	0x3d826ee7	0.06368809
235	0x3df272db	0.11838313
236	0x3c626548	0.013818093
237	0x3dced157	0.10098522
238	0x3ddf03a5	0.10889367
239	0x3db8ef93	0.0903007
240	0xba5a4084	-0.00083256536
241	0x3d90ac8a	0.07064159
242	0x3d6541a7	0.055970814
243	0x3cf5bdb9	0.029997693
244	0x3d0637e1	0.032768134
245	0x3daa98f7	0.08329957
246	0x3ddfe099	0.109315105
247	0x3c620265	0.013794516
248	0x3af51b08	0.0018700073
249	0xbb5215af	-0.0032056381
250	0x3bbb902d	0.005723974
251	0xbd0dfb35	-0.034663398
252	0x3d7fb131	0.062424842
253	0x3c14e5c5	0.009087984
254	0xbb1f8533	-0.0024340868
255	0xbd9db6c6	-0.07700877

encoder_blocks.3.0.bias f4 [12]
0	0xbd43c9ee	-0.047799997
1	0x3dab5969	0.08366663
2	0x3dd21675	0.102581896
3	0xbc9f9976	-0.019482356
4	0xbd1f7551	-0.03893024
5	0x3dcfb154	0.101412445
6	0xbd04829d	-0.032351125
7	0xbd4d483f	-0.050117727
8	0x3cdf4c40	0.027258039
9	0xbdaf4505	-0.08558086
10	0x3d2c9a09	0.042139087
11	0x3d244725	0.04010691

encoder_blocks.3.2.weight f4 [12, 12, 13]
0	0x3bd8ed37	0.006620075
1	0xbd684cfa	-0.056714036
2	0xbc532ab8	-0.012888603
3	0x3d5a4d8e	0.05329662
4	0xbd1435d0	-0.036184132
5	0xbd8427ec	-0.06452927
6	0x3d085a1a	0.033289053
7	0xbc2de0ad	-0.010612649
8	0xbd5352f3	-0.05159278
9	0xbb17cd55	-0.002316316
10	0xbd3faba8	-0.046794564
11	0x3d06fafa	0.032954194
12	0xbbfbce7b	-0.0076845265
13	0x3cd7ced8	0.026343748
14	0xbb58cfe1	-0.003308289
15	0xbc2d3b0d	-0.010573161
16	0xbcfe0f92	-0.031013284
17	0xbd3134fd	-0.043263424
18	0x3c22cb20	0.009936124
19	0xbd85b1e0	-0.065280676
20	0x3d703817	0.05864724
21	0xbd067629	-0.03282753
22	0xbc189fb2	-0.009315418
23	0x3d87216b	0.06598171
24	0x3d0b0ccf	0.033947762
25	0x3d413926	0.04717364
26	0xba75659e	-0.00093611504
27	0xbd2653ee	-0.040607385
28	0x3cf3f0eb	0.029777965
29	0xbd850a6a	-0.06496127
30	0x3cd521e7	0.026017142
31	0xbd89b36e	-0.067236766
32	0x3d4be07f	0.049774643
33	0xbd5ddd0c	-0.054165885
34	0xbb8330c6	-0.004003617
35	0x3da192d4	0.07889333
36	0x3b6cf73f	0.0036158112
37	0xba72b911	-0.00092591444
38	0xbd1d3870	-0.0383839
39	0xbd503ee7	-0.05084124
40	0x3d76b1b2	0.060228057
41	0xbd97e838	-0.07417339
42	0x3b81725a	0.0039503993
43	0x3ca21599	0.01978569
44	0x3d21122c	0.03932397
45	0x3c4e97f8	0.012609474
46	0x3cff4dc0	0.031165004
47	0xbcfed570	-0.031107634
48	0xbd042cc9	-0.032269273
49	0x3d8b36c5	0.06797556
50	0xbd8bdc0e	-0.068290815
51	0x3b962367	0.004581857
52	0x3d827eae	0.063718185
53	0x3d7e2576	0.062047444
54	0x3d47cb16	0.048777662
55	0xbb469659	-0.0030302017
56	0xbb1bd9aa	-0.002378086
57	0xbd3d5f1a	-0.046233274
58	0x3be14ead	0.006875834
59	0x3d36fa72	0.044672437
60	0x3d8767cd	0.06611595
61	0xbc553575	-0.013013233
62	0x3cc02edd	0.023459846
63	0xbcd1372b	-0.025539001
64	0xbd4f0469	-0.050541315
65	0xbd02681c	-0.031837568
66	0xbd064b95	-0.032786924
67	0xbda12090	-0.07867539
68	0x3d9282b4	0.07153836
69	0xbd2bd378	-0.04194972
70	0xbcd6ff8e	-0.026244905
71	0x3d47ddc5	0.04879548
72	0x3d90a464	0.07062605
73	0x3d73c505	0.059514064
74	0x3d94fa6a	0.07274325
75	0x3c791061	0.015201659
76	0x3d721c88	0.05910924
77	0xbd832f1d	-0.064054705
78	0xbcaa0f66	-0.020759296
79	0xbd948930	-0.07252729
80	0x3d103621	0.03520787
81	0xbd82d957	-0.063891105
82	0xbd258166	-0.040406607
83	0xbd6a98e4	-0.057274714
84	0xbd9591c6	-0.07303195
85	0xbbccd094	-0.0062504504
86	0x3d5b97f1	0.0536117
87	0xbd9e3f31	-0.077268966
88	0xbc8c59c0	-0.01713264
89	0x3d074fb6	0.033035003
90	0x3d2548a2	0.04035247
91	0xbd36697e	-0.0445342
92	0x3c71ee88	0.014766343
93	0xbd865969	-0.065600224
94	0x3d9f9f9e	0.077941164
95	0x3d1432d8	0.0361813
96	0x3d58039c	0.052737817
97	0x3ca70e68	0.020392612
98	0x3cefb8d4	0.029262938
99	0x3d1f13b4	0.03883715
100	0xbca1344e	-0.019678261
101	0xbd3b3d71	-0.045712892
102	0xbd055e06	-0.03256037
103	0x3c0d9228	0.008640803
104	0x3d3545c5	0.04425599
105	0xbcf8315b	-0.030296972
106	0x3d91b01b	0.071136676
107	0x3d864c2c	0.065574974
108	0xbcd5cae3	-0.02609772
109	0x3d952047	0.07281547
110	0x3bb92f73	0.0056514083
111	0xbcd9f402	-0.02660561
112	0x3c9c5c1d	0.019086892
113	0x3d890b40	0.06691599
114	0xbcbb6380	-0.022874594
115	0x3d4ea732	0.05045242
116	0xbb037de2	-0.0020064046
117	0x3bbc99b5	0.005755628
118	0x3acbf743	0.0015561361
119	0x3d237048	0.039902
120	0x3d92788b	0.07151898
121	0x3c8f6276	0.017503005
122	0x3d183d68	0.037167937
123	0xbd6d8418	-0.057987303
124	0x3d6af77d	0.05736493
125	0xbc1425d5	-0.009042223
126	0xbb3ca0ca	-0.0028782361
127	0xbd7a81e7	-0.06115904
128	0x3d8f1bad	0.069877006
129	0xbd11ee32	-0.03562755
130	0x3d9b521d	0.07584021
131	0xbc94ba0f	-0.018155126
132	0xbd2ba3a1	-0.041904096
133	0xbd77ef8d	-0.060531188
134	0xbd479a34	-0.048731044
135	0x3d4e3029	0.050338898
136	0xbd602468	-0.05472222
137	0xbcf9168b	-0.030406257
138	0xbc6bbc8d	-0.014388216
139	0xbb8ac990	-0.004235454
140	0xbaf1dbef	-0.0018452386
141	0x3c2df4d9	0.010617458
142	0xbda32a33	-0.07967033
143	0x3c5ed550	0.013600662
144	0x3d2e56e5	0.042563338
145	0xbcb78ac1	-0.02240503
146	0xbd523bd0	-0.051326573
147	0xbc13e0a1	-0.009025724
148	0xbd813019	-0.06308002
149	0xbd0baa3d	-0.0340979
150	0xbc76ffd6	-0.0150756445
151	0x39b8005c	0.00035095483
152	0xbcd01de0	-0.02540487
153	0x3ceeedb4	0.02916608
154	0xbc902c2b	-0.017599186
155	0xbcdbdf26	-0.026839804
156	0x3c0b8979	0.008516663
157	0xbd480002	-0.048828132
158	0x3d335ca4	0.04378952
159	0x3c9ea669	0.01936646
160	0xbc9ebe28	-0.019377783
161	0x3d9c73a4	0.07639244
162	0x3d96b32c	0.07358393
163	0xbcaa777c	-0.020808928
164	0x3d964627	0.07337599
165	0x3ca06ddb	0.019583633
166	0x3c1c56bb	0.0095421625
167	0xbd139309	-0.036028896
168	0x3d59f9ac	0.05321662
169	0xbc857204	-0.016289718
170	0x3d2a4942	0.04157377
171	0x3ca6474c	0.020297669
172	0xbd098847	-0.03357723
173	0x3d30c94c	0.04316072
174	0xbda09dbc	-0.078425854
175	0xbd058f81	-0.03260756
176	0xbd9ac132	-0.0755638
177	0x3d8e46a9	0.06947071
178	0xbd12a529	-0.03580204
179	0x3bab2a1a	0.0052235248
180	0xbd323577	-0.04350802
181	0xbceba6e2	-0.0287661
182	0x3cbe7646	0.023249757
183	0x3d8ac518	0.06775874
184	0xbd47e658	-0.048803657
185	0xbd195a7a	-0.0374398
186	0xbcf07c4f	-0.02935615
187	0x3c72e13d	0.014824209
188	0xbd6670bd	-0.05625986
189	0xbcb78f7a	-0.022407282
190	0x3d8c6291	0.068547376
191	0x3d5b625a	0.053560592
192	0x3bdf04c7	0.0068059894
193	0x3d6aa7c4	0.0572889
194	0x3cdc3b0b	0.026883623
195	0xbc78a37e	-0.015175698
196	0x3c17a884	0.009256486
197	0xbda5fbe4	-0.08104685
198	0x3ad509f1	0.0016253573
199	0xbcf99b16	-0.030469459
200	0xbd48cbab	-0.049022358
201	0x3d13670e	0.035986952
202	0x3d9c1456	0.07621066
203	0xbc207d0f	-0.009795441
204	0x3bac5433	0.0052590608
205	0x3bd4df9d	0.0064963833
206	0x3c1f99a5	0.009741222
207	0x3d1f862f	0.038946327
208	0xbd24276a	-0.04007665
209	0xbc1f6c74	-0.009730447
210	0xbd6bf077	-0.057602372
211	0x3d48e6e7	0.04904833
212	0x3d4dc571	0.050237123
213	0xbd594483	-0.053043853
214	0xbd668026	-0.056274556
215	0x3bbb5b43	0.0057176664
216	0x3d7e87c3	0.06214119
217	0xbc894fac	-0.016761623
218	0xbd5642da	-0.05230985
219	0x3b57821b	0.0032883945
220	0xbd085fee	-0.03329461
221	0x3ca8caa9	0.020604448
222	0x3d05243e	0.032505266
223	0x3c9636fa	0.018336762
224	0x3d18e8db	0.037331443
225	0xbd0d080a	-0.034431495
226	0x3d3c366f	0.04595035
227	0xbb8af501	-0.0042406325
228	0xbc14f9ac	-0.00909273
229	0xbd405596	-0.04695662
230	0xbc8916d9	-0.016734527
231	0xbd46e412	-0.04855735
232	0x3cdfea94	0.027333535
233	0xbd1155da	-0.035482265
234	0xbd56a468	-0.052402884
235	0xbd8b3f73	-0.06799211
236	0xbd929610	-0.071575284
237	0xbcebc34f	-0.028779654
238	0x3cba1fc5	0.022720227
239	0xbd3226f5	-0.043494184
240	0x3cc8315e	0.024437603
241	0xbd3d3f50	-0.046202958
242	0x3d87e9f9	0.066364236
243	0xbbb63b01	-0.005561233
244	0xbd4c1233	-0.049822044
245	0x3d7e3c12	0.062069006
246	0xbd6bf067	-0.057602312
247	0xbd3630bf	-0.04448008
248	0x3c3b94f0	0.011449084
249	0xbb8ff820	-0.0043935925
250	0x3d9f5c70	0.07781303
251	0xbc3a5688	-0.01137317
252	0x3d927c92	0.07152666
253	0x3c28ae10	0.010295406
254	0x3d958210	0.07300198
255	0x3d59dc64	0.053188697

encoder_blocks.3.2.bias f4 [12]
0	0xbd9a31ce	-0.07529031
1	0xbd736395	-0.05942114
2	0xbd942c53	-0.07235017
3	0xbd317820	-0.04332745
4	0xbc71f17c	-0.014767047
5	0x3d06d183	0.03291465
6	0x3b8c7c25	0.00428726
7	0x3bb27410	0.0054459646
8	0x3c67f99c	0.014158633
9	0x3da9183a	0.08256574
10	0x3d4ca164	0.0499586
11	0x3bd08a4a	0.0063641416
