Python/save/localizer/trial_2/quake_localization_model_00580.pth (torch, 252994 bytes, 35 tensors)

encoder_blocks.0.weight f4 [12, 1, 13]
0	0x3e434882	0.19070628
1	0x3e478449	0.19484057
2	0x3e646691	0.22304751
3	0x3da5cd7e	0.08095835
4	0x3e3e98e8	0.18613017
5	0x3dcf7282	0.101292625
6	0xbdde2cec	-0.10848412
7	0xbd7d18b7	-0.061791148
8	0xbe53abf6	-0.20671067
9	0xbe4ce96e	-0.20010921
10	0xbe44e2aa	-0.1922709
11	0x3db07e3a	0.08617826
12	0xbdb2d6ef	-0.087324016
13	0xbe5b9978	-0.21445262
14	0xbe7d691d	-0.24747129
15	0xbe803d0f	-0.25046584
16	0xbe06f699	-0.13180007
17	0x3de87be2	0.11351754
18	0xbe31c9b4	-0.173621
19	0x3e90f153	0.28309116
20	0xbe4ac7a0	-0.19802713
21	0xbc9a0cde	-0.018804964
22	0x3d9674b4	0.07346478
23	0x3e315107	0.17316066
24	0x3e203a5d	0.15647264
25	0xbd20dbba	-0.039272048
26	0x3d8d424d	0.068974115
27	0xbdadff53	-0.08495965
28	0x3cb6738e	0.022271898
29	0x3d98f3ab	0.07468351
30	0xbe5fcbe8	-0.21855128
31	0xbe40e5f7	-0.18837725
32	0x3e205294	0.15656501
33	0xbd8b5cec	-0.06804833
34	0xbdda3bb1	-0.106559165
35	0xbddafe0f	-0.10692989
36	0xbc105929	-0.00881032
37	0xbde25951	-0.11052192
38	0xbe7aff39	-0.24511422
39	0x3d9e2b46	0.077230975
40	0x3cf18483	0.029482132
41	0xbe54c106	-0.20776758
42	0x3d9602b2	0.07324733
43	0xbe1db439	-0.1540078
44	0xbe113ed1	-0.14184119
45	0x3db3c3c2	0.08777572
46	0x3d131444	0.035908
47	0x3d178a7c	0.036997303
48	0xbdbd9c3b	-0.09258314
49	0x3b3012ef	0.0026866754
50	0x3e885aae	0.26631683
51	0xbe816d84	-0.25278866
52	0x3d731abd	0.05935167
53	0x3d275931	0.040856544
54	0xbdb2d221	-0.08731485
55	0xbba27787	-0.0049580964
56	0xbe16228c	-0.14661616
57	0xbde38588	-0.111094534
58	0xbe160eea	-0.14654127
59	0x3e3778df	0.17917202
60	0xbd0ac7bc	-0.033881888
61	0x3df4bd0b	0.119501196
62	0xbc35bf68	-0.011092998
63	0xbe073312	-0.13203076
64	0xbe2db9e3	-0.16965441
65	0xbdb00c15	-0.085960545
66	0x3e6f35a9	0.23360313
67	0x3dca159d	0.09867404
68	0xbcf76ebc	-0.03020417
69	0xbd693ec5	-0.056944627
70	0x3d99925e	0.074986205
71	0x3e66ece1	0.225513
72	0xbe75c1f5	-0.2399977
73	0x3da06846	0.078323886
74	0x3e1cebed	0.15324374
75	0xbe4d5980	-0.20053673
76	0x3e6974d0	0.22798467
77	0x3e28f07f	0.16497992
78	0xbdf3f172	-0.119112864
79	0x3cfd33fe	0.03090858
80	0x3df7ff1e	0.121092066
81	0x3dddf1b4	0.10837117
82	0x3d864f0c	0.06558046
83	0xbd0dcc21	-0.0346185
84	0xbda2262e	-0.079174384
85	0x3e78b4f5	0.2428778
86	0x3e11060f	0.14162467
87	0x3e14d4e5	0.14534338
88	0xbe89f1ee	-0.2694239
89	0x3df8514f	0.121248834
90	0xbe19612c	-0.14978474
91	0x3dbd73f3	0.09250631
92	0xbdc2dbe3	-0.09514596
93	0xbd58476f	-0.0528025
94	0x3de1a41d	0.1101763
95	0xbe5014e3	-0.20320468
96	0x3e8b3eb1	0.27196267
97	0x3e4c97c9	0.19979776
98	0xbdb8166d	-0.089886524
99	0x3e12f599	0.143515
100	0xbe2fc1b2	-0.17163733
101	0x3c5847ed	0.013200742
102	0x3e5c10e7	0.21490823
103	0x3cc7141e	0.024301585
104	0xbe36fd55	-0.17870076
105	0xbc744e53	-0.014911252
106	0xbd36ad51	-0.04459888
107	0xbd8eddbd	-0.06975887
108	0x3e28b7cf	0.16476367
109	0x3e47029d	0.1943459
110	0x3e41c6bd	0.18923469
111	0x3e7edfbc	0.24890035
112	0x3e218b06	0.1577569
113	0x3e3ecc7c	0.18632692
114	0x3e6932c9	0.22773279
115	0xbe0f299f	-0.13980721
116	0x3e2b9bcf	0.16758655
117	0x3e8622b5	0.26198354
118	0xbda58534	-0.08082047
119	0xbe48e8b9	-0.19620027
120	0xbe64b034	-0.22332841
121	0x3c579191	0.013157264
122	0xbe3b38a0	-0.1828332
123	0xbe465ff6	-0.19372544
124	0x3e04a411	0.12953211
125	0x3e5a0e69	0.2129456
126	0xbe463342	-0.19355491
127	0x3e8b3e2d	0.27195874
128	0x3d4390e9	0.04774562
129	0x3de7a561	0.113108404
130	0x3e91311e	0.28357786
131	0xbe66762f	-0.22506021
132	0x3e8de617	0.27714607
133	0x3cc617f7	0.02418135
134	0xbd184397	-0.037173834
135	0x3e542f21	0.20721103
136	0x3defdda3	0.11712196
137	0x3cdd05f8	0.026980385
138	0xbd2d44d5	-0.04230197
139	0xbd4e94e0	-0.050434947
140	0xbbfb2128	-0.0076638646
141	0xbdd2be3e	-0.10290192
142	0xbe42d6bd	-0.19027229
143	0x3d965123	0.07339694
144	0x3e184242	0.14869025
145	0xbe56dbe1	-0.20982315
146	0xbd5d90b4	-0.054093078
147	0xbe6822a3	-0.22669463
148	0xbe8ab152	-0.2708841
149	0x3db83437	0.08994334
150	0xbe75d10e	-0.2400553
151	0xbdd2269f	-0.10261273
152	0xbe332caf	-0.17497514
153	0x3e742bd9	0.23844852
154	0xbe46246c	-0.19349831
155	0xbdf18a3e	-0.11793946

encoder_blocks.0.bias f4 [12]
0	0xbe3a5add	-0.18198724
1	0x3d2a6744	0.041602388
2	0x3e8639f5	0.26216093
3	0xbdeb7e39	-0.114986844
4	0x3e89067b	0.26762757
5	0xbe85c89d	-0.26129618
6	0x3d847f57	0.06469601
7	0x3de133cb	0.10996207
8	0x3d9ee35e	0.077582106
9	0xbd9811c0	-0.074252605
10	0x3bf0fb3a	0.0073541673
11	0x3ddc7a09	0.10765464

encoder_blocks.1.0.weight f4 [12, 12, 13]
0	0xbc6a3c31	-0.014296577
1	0x3d564c14	0.052318648
2	0x3d905903	0.07048228
3	0xbcdf57d2	-0.027263556
4	0xbd3bf84a	-0.045891084
5	0x3d7b981f	0.06142437
6	0xbd308d5f	-0.043103572
7	0x3cab46f2	0.020907853
8	0xbd46feeb	-0.048582952
9	0xbce3cf7d	-0.027808899
10	0xbd1d03f1	-0.038333837
11	0x3d548787	0.05188706
12	0x3c45bb83	0.012068632
13	0x3d78f11f	0.060776826
14	0xbd4203ac	-0.047366783
15	0xbca1e1b1	-0.019760938
16	0xbd47e1bf	-0.048799273
17	0x3c9169ca	0.01775064
18	0x3bca59d8	0.006175261
19	0xbd5499b2	-0.051904388
20	0xbce03cb4	-0.027372696
21	0xbd99518e	-0.074862584
22	0xbcdbd2cf	-0.02683392
23	0xbc99282d	-0.018695915
24	0xbd263149	-0.040574346
25	0x3d3ef409	0.04661945
26	0xbc116b27	-0.008875645
27	0x3d8d9e0b	0.0691491
28	0xbb8823a4	-0.0041546393
29	0x3c00af33	0.007854271
30	0xbd65ca7e	-0.056101315
31	0xbd916b23	-0.07100513
32	0x3d9ea0ff	0.07745551
33	0xbdabf59d	-0.083964564
34	0x3d6bc0ad	0.057556797
35	0xbc5da335	-0.013527681
36	0x3d561830	0.05226916
37	0x3da6b2d5	0.08139578
38	0x3d93430d	0.07190523
39	0xbdaa364b	-0.08311137
40	0x3d0fd51a	0.03511534
41	0xbd7cb71d	-0.061698068
42	0x3d012ea6	0.031538628
43	0x3d110f26	0.035414837
44	0x3d897f1c	0.06713697
45	0x3d7debd6	0.06199249
46	0x3c8d5cbe	0.017256137
47	0xbd784af6	-0.060618363
48	0xba639742	-0.0008681902
49	0xbd9c601a	-0.076355174
50	0xbd86bf94	-0.065795094
51	0x3d816f66	0.06320076
52	0x3b853f30	0.0040663704
53	0x3d385fa1	0.045013074
54	0x39ad65ce	0.00033072982
55	0xbd9383a7	-0.07202845
56	0x3d93a472	0.072091
57	0x3d2d2fd1	0.04228193
58	0xbcb7a847	-0.022419108
59	0x3c675f67	0.014121867
60	0x3bde351c	0.0067812335
61	0xbc2e653c	-0.010644253
62	0xbd6bc2c7	-0.0575588
63	0x3c8d2c27	0.017232968
64	0xbcbc4e2d	-0.022986496
65	0x3d2ebd1a	0.04266081
66	0xbd1d82ac	-0.038454697
67	0x3cdfaca4	0.027304001
68	0x3c63d317	0.013905308
69	0xbd45db17	-0.048304643
70	0xbd66bd08	-0.056332618
71	0xbd4d724e	-0.050157838
72	0x3d76066b	0.060064714
73	0xbd91fcd1	-0.07128299
74	0x3d2ecdde	0.0426768
75	0x3d976bb4	0.073935896
76	0x3cff921d	0.031197602
77	0xbd34ee37	-0.044172492
78	0x3d0bd032	0.034134097
79	0xbdaea6ce	-0.08527909
80	0x3b8540d0	0.004066564
81	0x3d49020a	0.04907421
82	0x3da34ddb	0.07973834
83	0xbd2e0291	-0.042482916
84	0xbd7bb9d8	-0.06145653
85	0x3c829502	0.015940193
86	0xbd44ddc9	-0.048063073
87	0x3c2ab5f9	0.010419362
88	0x3d5778a9	0.052605305
89	0x3d87d094	0.0663158
90	0x3cc5474b	0.024081847
91	0xbd3af582	-0.04564429
92	0xba09482b	-0.0005236889
93	0xbcf68a73	-0.030095315
94	0xbd40556e	-0.046956472
95	0xbcacfc4b	-0.021116396
96	0xbd0a2db9	-0.03373501
97	0xbd5e1292	-0.05421693
98	0x3d807b10	0.06273472
99	0x3d505aef	0.05086797
100	0xbd884e8c	-0.066556066
101	0xbbddbc60	-0.006766841
102	0xbca4e2a8	-0.02012761
103	0x3ac4f7c6	0.0015027456
104	0x3d8dde24	0.069271356
105	0xbcc58ca3	-0.024114912
106	0x3af26589	0.0018493395
107	0xbd9d47d5	-0.076797165
108	0x3ceb5a82	0.02872968
109	0xbd45e148	-0.048310548
110	0x3c98b0c9	0.018638985
111	0xbcfbaf54	-0.030723251
112	0xbc0464a3	-0.008080634
113	0x3d343d47	0.04400375
114	0x3d18df13	0.037322115
115	0x3d6b0d8a	0.05738596
116	0x3d8672f3	0.065648936
117	0xbc8b61cb	-0.017014405
118	0xbcf8f112	-0.030388389
119	0xbc8d2bd1	-0.017232807
120	0x3b89d1e8	0.004205931
121	0x3d12cc87	0.035839584
122	0xbd3badaf	-0.045819934
123	0xbd9e86b1	-0.07740534
124	0xbd8eebce	-0.0697857
125	0xbc3f2493	-0.011666435
126	0xbc9a824d	-0.01886096
127	0xbc7a5ea9	-0.015281358
128	0xbd0191b9	-0.031633113
129	0xbd7d6317	-0.061862078
130	0xbd04fa9c	-0.032465562
131	0x3c438221	0.011932881
132	0xbd88caed	-0.0667933
133	0x3cb2d7a6	0.021831345
134	0xbd156da8	-0.03648153
135	0x3d8c754f	0.06858312
136	0xbc6d4097	-0.014480731
137	0x3b37ee29	0.0028065538
138	0xbd282f8f	-0.04106098
139	0xbc029974	-0.007971156
140	0xbd85e878	-0.065384805
141	0xbd2bd1f8	-0.04194829
142	0xbc98eaa9	-0.018666582
143	0xbcd5cee6	-0.026099633
144	0x3d3c39da	0.04595361
145	0xbcb41848	-0.021984234
146	0xbc8764c6	-0.016527545
147	0x3d82c16d	0.06384549
148	0xbd95e458	-0.07318944
149	0x3c91e0f5	0.017807463
150	0xbd24e211	-0.040254656
151	0x3cd72333	0.026261901
152	0x3d1c8bf8	0.038219422
153	0xbd091df3	-0.033475827
154	0x3d3fe60f	0.04685026
155	0xbd98db2c	-0.07463679
156	0xbd0208f7	-0.03174683
157	0x3d3e91f9	0.04652593
158	0xbd807386	-0.06272034
159	0x3d32e4d8	0.043675274
160	0x3ce87f89	0.028381126
161	0xbd911d4a	-0.070856646
162	0xbd88cf75	-0.06680194
163	0x3d387ea2	0.04504264
164	0x3da3412f	0.07971417
165	0x3d877c79	0.06615538
166	0xbd2a320d	-0.04155164
167	0x3d581704	0.052756324
168	0x3d69611c	0.056977376
169	0xbd913e6b	-0.070919834
170	0xbd83a1a2	-0.064273134
171	0x3d1b0426	0.037845753
172	0x3d860b92	0.065451756
173	0x3d71c532	0.05902595
174	0x3d8459f4	0.0646247
175	0x3d2363d0	0.03989011
176	0x3da23fa2	0.07922293
177	0x3ccdd390	0.025125295
178	0xbbd1f785	-0.0064076805
179	0x3cdd1550	0.026987702
180	0xbd888c68	-0.06667405
181	0x3d836dc8	0.064174235
182	0x3a4a80d2	0.0007724884
183	0x3c07271b	0.00824907
184	0x3da17305	0.07883266
185	0x3d8f7966	0.07005577
186	0x3b734403	0.0037119396
187	0xbd15fb60	-0.036616683
188	0xbd4c0a3a	-0.04981444
189	0xbd3ff54f	-0.046864804
190	0x3d32f5b4	0.043691352
191	0xbcdc3521	-0.026880803
192	0xbd8f88da	-0.07008524
193	0x3cf7762d	0.030207718
194	0x3db1922c	0.08670458
195	0x3b9878e9	0.0046530855
196	0x3c433e56	0.0119167175
197	0x3c77154b	0.01508076
198	0x3cdd19cb	0.026989838
199	0x3c8a1aa3	0.016858405
200	0xbd06dac2	-0.032923467
201	0xbd87d69b	-0.066327296
202	0xbca4224b	-0.020035883
203	0x3ce1caa3	0.027562445
204	0xbcf82d0d	-0.03029492
205	0x3da8a7d2	0.08235134
206	0xbcf58de2	-0.029974882
207	0x3d9b308f	0.07577621
208	0xbd3ed0ac	-0.046585724
209	0xbd507e83	-0.0509019
210	0xbd11cdf6	-0.03559681
211	0xbd8077d1	-0.06272853
212	0x3c502046	0.012703007
213	0xbc3438c3	-0.010999861
214	0x3d3a20fd	0.045441616
215	0xbd866d5d	-0.06563828
216	0xbbcca116	-0.006244789
217	0xbc8a2464	-0.016863056
218	0x3d5c61ee	0.05380433
219	0xbc490a1b	-0.012270476
220	0x3cc0ee44	0.023551114
221	0x3d92ff89	0.07177646
222	0xbb4bbe4c	-0.0031088768
223	0x3b97a0fa	0.004627344
224	0x3d480515	0.04883297
225	0x3bb859fa	0.0056259604
226	0x3c39a885	0.011331682
227	0x3c236cd3	0.009974676
228	0x3cb233e1	0.021753253
229	0x3d4f1948	0.05056122
230	0xbc9d36e8	-0.01919122
231	0xbd39787e	-0.045280926
232	0xbccc658c	-0.024950765
233	0x3d133e50	0.035948098
234	0x3d03fa02	0.032220848
235	0xbcd42b39	-0.025899516
236	0x3d909deb	0.070613705
237	0xbd85b54b	-0.065287195
238	0xbd74b5fb	-0.059743863
239	0x3d9e4709	0.07728393
240	0x3cb991b2	0.02265248
241	0x3d51a313	0.05118091
242	0x3c52645c	0.01284131
243	0xbd8dd07c	-0.06924531
244	0xbb79ae42	-0.003809825
245	0x3c9297b1	0.017894598
246	0xbd4fbf83	-0.05071975
247	0xbd9f04b4	-0.07764569
248	0xbd03ded1	-0.032194916
249	0xbce8876f	-0.028384892
250	0x3d5f5bd9	0.054530952
251	0x3d89a222	0.067203775
252	0xbd671549	-0.056416783
253	0x3ba90b23	0.0051587983
254	0xbc820a63	-0.015874093
255	0x3b913b9f	0.004432156

encoder_blocks.1.0.bias f4 [12]
0	0x3c39e374	0.011345733
1	0xbc11ff54	-0.008910973
2	0xbd0a3b70	-0.03374809
3	0x3d9ab4a8	0.07553989
4	0xbdab661e	-0.08369087
5	0x3d60faaf	0.05492657
6	0xbc608543	-0.013703647
7	0xbd0f483c	-0.034980997
8	0x3cda80b2	0.026672695
9	0x3da82fce	0.08212243
10	0x3ddca174	0.10772982
11	0x3d056875	0.03257032

encoder_blocks.1.2.weight f4 [12, 12, 13]
0	0x3d8248b6	0.06361525
1	0xbd40f62b	-0.047109764
2	0x3d583591	0.05278546
3	0x3d97ce7d	0.074124314
4	0x3d51d2ac	0.051226303
5	0x3d2c3be8	0.04204932
6	0x3c3fdf77	0.011710993
7	0x3b849129	0.0040456248
8	0xbc1a6906	-0.009424454
9	0xbcf66b58	-0.030080482
10	0xbb48ca5e	-0.0030638198
11	0xbc0a8217	-0.008453867
12	0x3d860f95	0.06545941
13	0xbd557260	-0.05211103
14	0x3c99e214	0.01878456
15	0xbb26e552	-0.0025466275
16	0x3b0eb9fd	0.0021778338
17	0x3d43948f	0.0477491
18	0x3da37c46	0.07982688
19	0xbd744624	-0.059637204
20	0x3db0d2b3	0.08633938
21	0xbd647c5f	-0.055782672
22	0x3dbfa251	0.09357131
23	0xbb9083c5	-0.0044102394
24	0x3d7a8159	0.06115851
25	0x3d7f3831	0.062309448
26	0xbd44b1ce	-0.04802113
27	0xbd982fe9	-0.07431013
28	0x3d2f2040	0.042755365
29	0x3c873638	0.016505346
30	0xbc086458	-0.008324705
31	0xbcef053f	-0.029177306
32	0xbd9667ae	-0.07343994
33	0xbd44cbf5	-0.04804607
34	0x3d99dc21	0.075126894
35	0x3d0619d4	0.032739475
36	0x3d687453	0.05675156
37	0xbd0c775e	-0.034293525
38	0x3d286f78	0.04112193
39	0x3c8756b1	0.01652083
40	0xbcf2d2cb	-0.02964153
41	0xbbd46ec0	-0.006482929
42	0x3cff5c40	0.031171918
43	0xbcb22621	-0.021746697
44	0x3d79f82b	0.061027687
45	0x3c1227e8	0.008920647
46	0xbd40cd92	-0.047071047
47	0x3c6de2d4	0.014519412
48	0x3c971b3d	0.018445605
49	0xbd8348cb	-0.064103685
50	0xbd74ffbc	-0.0598142
51	0x3d92f5b5	0.07175771
52	0x3d872c14	0.06600204
53	0x3cb4fd59	0.022093462
54	0xbd52a733	-0.051428985
55	0xbd20c12d	-0.039246727
56	0x3ca3ade8	0.019980386
57	0xbbf51ce9	-0.007480253
58	0x3b8ebdef	0.004356138
59	0x3d93aa83	0.07210257
60	0x3d0242de	0.03180205
61	0xbc616783	-0.013757589
62	0xbd5f5434	-0.05452366
63	0x3c3fe3a9	0.011711993
64	0x3cc5cd49	0.02414574
65	0x3d8cdf72	0.06878556
66	0xbd1202ac	-0.03564708
67	0xbd7fa525	-0.062413353
68	0x3c96d314	0.018411197
69	0xbd622266	-0.055208586
70	0x3d70d47a	0.058796383
71	0xbce59d04	-0.028028972
72	0xbd90907a	-0.07058807
73	0xbd98081c	-0.07423422
74	0xbc0a619b	-0.0084461225
75	0x3d2ec3a4	0.042667046
76	0xbd1dbdcb	-0.03851108
77	0xb9de8fb0	-0.00042450195
78	0xbc0da968	-0.008646347
79	0x3d310b1b	0.04322348
80	0x3d0cf129	0.034409676
81	0xbcedbed6	-0.029021662
82	0x3c62c15e	0.013840048
83	0x3d05f968	0.032708555
84	0xbba7cf21	-0.0051211272
85	0xbc47386e	-0.01215945
86	0x3c8898db	0.01667445
87	0x3cb25d03	0.021772867
88	0xbd58624c	-0.05282812
89	0x3d332ac1	0.043741945
90	0xbcb89374	-0.022531249
91	0x3da280da	0.07934733
92	0x3b47eef0	0.0030507408
93	0x3d365f4b	0.044524472
94	0x3cde1ed2	0.027114306
95	0x3da38943	0.07985165
96	0x3b59b5a1	0.0033219832
97	0x3c896b4a	0.016774792
98	0xbd9693d9	-0.073524185
99	0x3ceb14dd	0.028696472
100	0x3c6eb2e9	0.014569023
101	0xbd24e801	-0.04026032
102	0xbd8e5cc4	-0.069512874
103	0x3dae5ac9	0.0851341
104	0xbd8d1ab1	-0.068898566
105	0x3d5b7df2	0.053586908
106	0xbc0e8dc2	-0.00870079
107	0xbc095f1e	-0.008384494
108	0xbd89b839	-0.06724591
109	0x3d14f64b	0.036367696
110	0x3d1dcfe1	0.038528327
111	0x3ce7f8e9	0.028316932
112	0xbcae05c6	-0.021242987
113	0x3d01ef72	0.031722493
114	0xbcea7e1e	-0.02862459
115	0x3d25b3e5	0.040454764
116	0x3ae3470b	0.0017339898
117	0x3d8c4611	0.068493016
118	0xbcceabae	-0.025228348
119	0xbbc1dc8f	-0.005916185
120	0xbd7ebf32	-0.062194057
121	0x3d4005dd	0.04688059
122	0x3daac168	0.083376706
123	0x3d86ca35	0.06581537
124	0xbd9608a1	-0.073258646
125	0x3d81b3c9	0.063331194
126	0xbc1a74a4	-0.009427223
127	0xbb15c3c6	-0.0022852286
128	0x3d1d5ab8	0.038416594
129	0x3d3e72ae	0.046496086
130	0xbd13a987	-0.036050346
131	0xbcad651e	-0.02116638
132	0x3d718b83	0.05897094
133	0xbd78169f	-0.06056845
134	0x3d3b61f0	0.045747697
135	0xbd0bd2a1	-0.03413642
136	0xbd44dff2	-0.048065133
137	0x3d9f3f4b	0.07775744
138	0xbd4c0670	-0.049810827
139	0xbd07057a	-0.032964207
140	0x3dad7ed4	0.08471456
141	0xbd3f4010	-0.046691954
142	0x3d8809f2	0.06642522
143	0xbd9f39e5	-0.077747144
144	0xbc9c90e0	-0.01911205
145	0xbc6e3f63	-0.01454148
146	0x3dabd176	0.08389561
147	0x3d128766	0.035773657
148	0xbcf216a9	-0.02955182
149	0x3d901b23	0.07036426
150	0x3ce54608	0.027987495
151	0x3d94d6c8	0.07267529
152	0x3ccdd8c8	0.025127783
153	0x3d86a6c4	0.06574777
154	0x3da95046	0.08267264
155	0xbcfe5e0f	-0.03105071
156	0x3a456e04	0.0007531347
157	0xbbdddd0f	-0.006770737
158	0xbd87ea15	-0.066364445
159	0xbd6aa5d1	-0.05728704
160	0xbc87b91e	-0.016567763
161	0xbdb094c0	-0.08622122
162	0x3cbec746	0.02328838
163	0xbd5c3571	-0.053761903
164	0xbcf9721f	-0.030449925
165	0x3d1cb774	0.038260892
166	0x3d4d4541	0.050114874
167	0xbcaae0ab	-0.020859083
168	0xbcffd11f	-0.031227646
169	0xbd9feeb8	-0.07809204
170	0xbcf102ff	-0.029420374
171	0x3c52cb75	0.012865891
172	0xbc1e7892	-0.009672301
173	0x3d781a38	0.06057188
174	0x3db51b88	0.08843142
175	0x3c1fd7ad	0.009756011
176	0x3d104358	0.035220474
177	0x3d980c36	0.07424204
178	0x3b6bc084	0.0035972903
179	0xbdac0767	-0.083998494
180	0x3d797d56	0.060910545
181	0xbd857aa7	-0.06517535
182	0xbd44421f	-0.04791462
183	0x3c6d9520	0.014500886
184	0x3d8ba88d	0.06819258
185	0x3ce56ca4	0.028005905
186	0xbc3f57eb	-0.011678676
187	0x3d5c2be7	0.053752806
188	0xbda4e513	-0.08051505
189	0x3da5f1ef	0.08102786
190	0xbc6129f0	-0.013742909
191	0x3ce67f87	0.028136982
192	0xbc614a32	-0.0137506
193	0x3da6a17b	0.08136269
194	0x3bd104bf	0.0063787396
195	0xbd07ec1b	-0.033184152
196	0x3b960c03	0.0045790686
197	0xbb2c7cc3	-0.002631948
198	0x3d5512a4	0.05201973
199	0xbd03b251	-0.032152478
200	0xbd88be42	-0.06676914
201	0x3bc2e729	0.0059479666
202	0xbd898a9e	-0.06715892
203	0xbd4af2ad	-0.04954784
204	0x3d8b2882	0.067948356
205	0x3d19f2b1	0.037584964
206	0xbd61c6f1	-0.055121366
207	0x3c967103	0.018364435
208	0x3d4a9f9a	0.049468614
209	0xbd0d910b	-0.034562152
210	0xbb72638f	-0.003698561
211	0xbd7f0c13	-0.062267374
212	0xbd1c1188	-0.038102657
213	0x3d9873c2	0.07443954
214	0xbd92d4b4	-0.07169476
215	0x3da10302	0.07861902
216	0xbbf71b77	-0.007541116
217	0xbccdf136	-0.025139432
218	0x3cb6bbbf	0.022306321
219	0x3d06279c	0.03275262
220	0xbd10a1f0	-0.035310686
221	0x3d883bba	0.06652017
222	0x3d735c86	0.05941441
223	0xbb58a000	-0.0033054352
224	0xbcd21eed	-0.025649512
225	0xbd975e7d	-0.07391069
226	0x3d44617a	0.047944523
227	0x3d1813c8	0.03712824
228	0xbd87b431	-0.06626166
229	0x3d981c0d	0.07427225
230	0x3d5ab0f6	0.05339142
231	0x3d2e94d0	0.042622387
232	0xbd9640b2	-0.073365584
233	0x3d8d561c	0.0690119
234	0xbb914eb6	-0.004434432
235	0x3b8f583b	0.0043745316
236	0xbd308ffc	-0.043106064
237	0xbbe32d13	-0.0069328635
238	0xbce23776	-0.027614336
239	0x3c41ed2c	0.011836331
240	0x3d846d8d	0.06466208
241	0xbd0b6c65	-0.03403892
242	0x3c708649	0.014680454
243	0x3c86e804	0.016468056
244	0x3d001f9f	0.031280156
245	0x3d15d79b	0.03658257
246	0xbdb5370a	-0.088483885
247	0x3c74c5e7	0.014939762
248	0xbca1c369	-0.0197465
249	0x3d4898b6	0.04897376
250	0x3c9a450a	0.018831749
251	0xbd77ab1e	-0.060465924
252	0x3d03566c	0.03206484
253	0x3d8ebe3c	0.06969878
254	0xbd54f7d5	-0.051994164
255	0xbd7d0557	-0.06177267

encoder_blocks.1.2.bias f4 [12]
0	0xbc25c949	-0.010118791
1	0x3ceafba2	0.028684441
2	0x3dcde9e6	0.10054378
3	0x3d25f6e3	0.040518653
4	0x3cc7e96d	0.024403298
5	0xbd3f26e1	-0.046667937
6	0xbd62f35b	-0.055407863
7	0xbd405014	-0.04695137
8	0x3d357831	0.044304077
9	0x3da72fd6	0.08163421
10	0x3d971d5f	0.07378649
11	0xbbd319d2	-0.006442287

encoder_blocks.2.0.weight f4 [12, 12, 13]
0	0x3d966c74	0.073449045
1	0xbc30943b	-0.010777528
2	0x3cc5fdf6	0.02416895
3	0x3d5cb8e7	0.053887274
4	0x3c17e01f	0.009269743
5	0x3d37871d	0.04480659
6	0x3da00740	0.07813883
7	0x3d2c573f	0.04207539
8	0x3caf70cb	0.021416089
9	0xbd99dfb1	-0.07513369
10	0x3d45350e	0.0481463
11	0xbd76c836	-0.06024953
12	0x3d88d0a6	0.066804215
13	0xbdaadeb4	-0.083432585
14	0x3da65b05	0.08122829
15	0xbd2bc43f	-0.0419352
16	0x3bce0395	0.006287048
17	0x3cac8fbb	0.02106463
18	0xbd5b537f	-0.053546425
19	0xbcadec46	-0.021230828
20	0x3d3597ab	0.044334095
21	0xbd98dc70	-0.0746392
22	0x3d1c4a5a	0.038156845
23	0x3b3e3f6e	0.0029029506
24	0x3d2e77dc	0.042594776
25	0xbd5ab8e4	-0.05339898
26	0x3d1dc339	0.038516257
27	0xbd191601	-0.0373745
28	0xbdb62bac	-0.088950485
29	0xbd55ff51	-0.05224544
30	0x3cda81cc	0.02667322
31	0x3ba4978d	0.005022949
32	0xbd904afb	-0.070455514
33	0xbd331ee3	-0.043730628
34	0x3c820bc3	0.015874749
35	0xbd8817ad	-0.06645141
36	0xba19fcff	-0.0005874186
37	0xbbb73da7	-0.0055920663
38	0x3d78a6e6	0.06070604
39	0x3cff0189	0.031128662
40	0xbdadf6ed	-0.08494363
41	0xbc3cf61f	-0.011533289
42	0x3d5af6e1	0.0534581
43	0x3cd96990	0.026539594
44	0x3c4e8ca7	0.012606776
45	0xbac092b6	-0.0014692161
46	0xbd109519	-0.03529844
47	0xbd813425	-0.06308774
48	0x3d977191	0.07394708
49	0x3c7a17b8	0.015264444
50	0x3b949cba	0.004535285
51	0x3d48c808	0.04901889
52	0x3d2ff6a0	0.04295981
53	0xbcb1c5d6	-0.02170078
54	0x3cefd2b3	0.029275274
55	0x3ca58563	0.020205205
56	0x3cacd820	0.02109915
57	0x3d8c5d15	0.068536915
58	0x3d86667c	0.06562516
59	0xbda8f35a	-0.082495406
60	0x3a742d5e	0.00093146216
61	0x3cf0257a	0.029314745
62	0x3d8c8460	0.06861186
63	0x3cf537e6	0.029933881
64	0x3c9e348a	0.019312162
65	0xbcbe6e11	-0.023245843
66	0x3cbfebfa	0.023427952
67	0x3c7ebc59	0.015547835
68	0xbd8d0ad7	-0.06886833
69	0xbd9039d9	-0.070422836
70	0xbd9116c9	-0.07084424
71	0xbcde6135	-0.027145961
72	0x3d8e93a0	0.06961751
73	0x3d11df90	0.035613596
74	0xbd972515	-0.0738012
75	0x3ae598e1	0.0017516875
76	0xbd0db2ae	-0.03459423
77	0x3d824514	0.06360832
78	0x3d52b28a	0.0514398
79	0x3c1e9b0b	0.00968052
80	0xbc4c19e7	-0.0124573475
81	0x3c2659fb	0.010153289
82	0x3b658b02	0.0035025482
83	0x3c12a2bf	0.0089499345
84	0x3c8c2d0b	0.017111322
85	0xbceb1e8d	-0.028701091
86	0xbcd9f6c6	-0.026606929
87	0xbd60d0e0	-0.0548867
88	0xbccd081c	-0.02502828
89	0x3bab123a	0.0052206786
90	0x3d7f0e62	0.062269576
91	0xbce95605	-0.0284834
92	0xbd9f9e26	-0.07793836
93	0x3d76d348	0.060260087
94	0xbc0122cf	-0.007881834
95	0xbd3c768c	-0.046011493
96	0x3d05e460	0.0326885
97	0xbc63444c	-0.013871264
98	0xbc77e3fc	-0.015130039
99	0x3db4b797	0.088240795
100	0xbd5290c2	-0.051407583
101	0x3cdff915	0.027340451
102	0x3d4c9165	0.049943347
103	0xbd29cf80	-0.041457653
104	0xbccbf57a	-0.024897326
105	0xbd50bf90	-0.05096394
106	0x3c669f0f	0.014076008
107	0xbd570df5	-0.052503545
108	0x3d861ca8	0.065484345
109	0x3d9fc5ea	0.07801421
110	0xbcefcf1e	-0.029273566
111	0x3d4adc13	0.049526285
112	0xbd873a82	-0.06602956
113	0xbbd0c76d	-0.0063714297
114	0x3d14fe0c	0.03637509
115	0xbd8dcf9c	-0.06924364
116	0xbd21fb6e	-0.039546423
117	0xbd2415aa	-0.040059723
118	0x3c0275c8	0.007962652
119	0x39eb6f7d	0.00044905758
120	0xbd889c28	-0.066704094
121	0x3d88c16c	0.06677517
122	0xbda4570c	-0.080244154
123	0x3d10ded2	0.035368748
124	0xbcae921a	-0.021309901
125	0xbd6e36fa	-0.0581579
126	0x3c2c1a06	0.010504251
127	0xbd2243b3	-0.039615344
128	0xbd306cbe	-0.043072455
129	0xbd83aacc	-0.06429061
130	0xbd8e1509	-0.06937606
131	0xbd8776ef	-0.06614482
132	0xbda498b0	-0.08036935
133	0xbc7feaf4	-0.015619982
134	0x3ca5e0a2	0.020248715
135	0x3cd269b6	0.025685173
136	0x3d8fb8ab	0.070176445
137	0x3a2ac14b	0.0006513788
138	0xbb9175bf	-0.0044390853
139	0x3d88c036	0.06677286
140	0x3d11e5ab	0.03561942
141	0x3d00e644	0.0314696
142	0xbd5880fd	-0.052857388
143	0x3c7727b8	0.015085153
144	0xbd8f6930	-0.07002485
145	0xbd692aa7	-0.056925442
146	0x3d87ca4d	0.06630383
147	0xbd81a0a5	-0.06329469
148	0xbd4cc211	-0.049989764
149	0x3a58ce11	0.00082704524
150	0x3ccdb330	0.025109857
151	0xb9a7516d	-0.0003191339
152	0x3c84300c	0.016136192
153	0x3dac7b8a	0.08422001
154	0xbd62c99e	-0.05536806
155	0x3d72a2fa	0.059237458
156	0x3d6aae4a	0.05729512
157	0xbd279d8c	-0.040921733
158	0x3bef0888	0.007294718
159	0x3d5253f1	0.051349584
160	0xbd0ab306	-0.033862136
161	0x3d119e34	0.035551265
162	0xbc8119f3	-0.015759444
163	0xbc076548	-0.008263893
164	0x3c882be1	0.016622486
165	0x39015f5b	0.00012337921
166	0x3d232096	0.039826
167	0x3d8ff456	0.07029025
168	0xbd08f17a	-0.033433415
169	0x3db6fe3b	0.08935209
170	0x3d28a660	0.041174293
171	0xbc8135be	-0.015772697
172	0xbd4c3674	-0.049856618
173	0xbd0de0a7	-0.034638073
174	0x3c18bef5	0.009322871
175	0x3d22e2ca	0.039767064
176	0xbcb28d6c	-0.02179595
177	0xbb053053	-0.0020322993
178	0x3d633525	0.055470604
179	0x3d27fc41	0.041012052
180	0xbcecc351	-0.028901728
181	0x3da29fa0	0.07940602
182	0x3a8d3316	0.0010772671
183	0x3ce3c046	0.027801644
184	0xbd108825	-0.035286088
185	0x3d53d230	0.051714122
186	0x3d905477	0.070473604
187	0x3b97e044	0.004634889
188	0xbc6a8303	-0.014313462
189	0x3ccbcd63	0.02487821
190	0xbd602ec7	-0.05473211
191	0xbcbaa1b7	-0.02278219
192	0x3ce6ed30	0.028189272
193	0x3b27f4f4	0.0025628181
194	0x3d8b89f1	0.068134196
195	0x3d96ce5f	0.07363581
196	0x3d87322e	0.06601368
197	0x3d809e97	0.062802486
198	0xbd568c03	-0.05237962
199	0x3c8d9db5	0.017287115
200	0x3cb35775	0.021892289
201	0x3d3ed857	0.046593037
202	0xbcbb3781	-0.022853615
203	0x3d033ee7	0.03204241
204	0xba5bd948	-0.00083865644
205	0x3d8499b8	0.06474632
206	0xbbed45db	-0.0072409934
207	0xbc268717	-0.010164044
208	0x3cb592bd	0.022164697
209	0x3bc2af47	0.005941305
210	0x3d04a0fe	0.032380097
211	0x3d96fd89	0.07372577
212	0xbd5dfe99	-0.05419788
213	0x3d5895e5	0.052877326
214	0x3c608070	0.013702497
215	0xbcbf8ba4	-0.023382016
216	0xbd4570af	-0.048203167
217	0xbd9463bb	-0.072455846
218	0xbd963c35	-0.07335702
219	0x3d0432e5	0.0322751
220	0x3d70cbd6	0.058788143
221	0x3c6291bf	0.013828694
222	0x3d2f2665	0.042761225
223	0xbb639060	-0.0034723505
224	0xbd8c74b1	-0.068581946
225	0x3d56f69b	0.052481275
226	0x3d984fc9	0.07437093
227	0xbd771037	-0.060318198
228	0xbcd5ba95	-0.026089946
229	0x3d88b69e	0.066754565
230	0xbcf3732b	-0.029718002
231	0xbd6b400d	-0.05743413
232	0x3cf48d3a	0.029852498
233	0x3d6a7faa	0.057250656
234	0xbd87fcb1	-0.06639994
235	0x3cfdaf47	0.030967368
236	0x3cebe40e	0.028795268
237	0xbd532d0a	-0.051556624
238	0x3d6cf351	0.057849232
239	0xbd8a5c9b	-0.06755944
240	0xbbf7241c	-0.0075421464
241	0x3a3e6c55	0.00072640675
242	0x3d53215b	0.051545482
243	0x3d0ec976	0.034860097
244	0xbd9afab6	-0.075673506
245	0x3d909ae2	0.070607916
246	0xbd4bde8a	-0.049772777
247	0xbd2e3aef	-0.042536672
248	0xbaaac864	-0.0013029692
249	0xbd3052aa	-0.043047585
250	0x3d2fad26	0.042889737
251	0x3d42d910	0.04757029
252	0xbccbe95d	-0.02489155
253	0xbc0c7441	-0.008572639
254	0x3c2609d0	0.010134175
255	0xbd0d3244	-0.034471765

encoder_blocks.2.0.bias f4 [12]
0	0xbca5ba5a	-0.02023046
1	0x3da238a9	0.07920963
2	0x3c18f455	0.009335597
3	0x3e03dca7	0.12877141
4	0xbc4a9718	-0.012365125
5	0x3d7c3415	0.061573107
6	0xbdd95392	-0.10611643
7	0x3d8f45b1	0.069957145
8	0x3ccb4898	0.024814889
9	0xbdad5ab8	-0.08464569
10	0x3db259e5	0.08708552
11	0x3dce3301	0.10068322

encoder_blocks.2.2.weight f4 [12, 12, 13]
0	0xbcae5ebf	-0.021285413
1	0x3da9c1c6	0.082889125
2	0x3d2fa770	0.04288429
3	0x3b64c5a2	0.0034907837
4	0xbd731502	-0.059346206
5	0x3a6ea432	0.00091034465
6	0xbcbaf414	-0.022821464
7	0xbd5a2c1e	-0.05326473
8	0xbcd4e1d3	-0.025986588
9	0xbcfa0eb5	-0.030524591
10	0x3c2f3d56	0.010695776
11	0xbd333322	-0.043749936
12	0x3d657c4a	0.056026734
13	0xbc8b40df	-0.016998706
14	0x3c90ff24	0.017699786
15	0x3d71dedf	0.059050437
16	0x3d16ff3f	0.036864515
17	0x3d16b13a	0.03679011
18	0xbd794dac	-0.06086509
19	0x3da165a8	0.078807175
20	0xbcac5f9a	-0.02104168
21	0xbc9cdd80	-0.019148588
22	0xbd818199	-0.06323547
23	0x3d34e930	0.044167697
24	0x3d7ea766	0.062171362
25	0xbcfefd3f	-0.031126617
26	0xbcda8e7a	-0.026679266
27	0x3d8013c9	0.06253774
28	0xbd8cd4de	-0.06876539
29	0xbcac18c2	-0.0210079
30	0x3c82a19f	0.015946208
31	0x3d3b57b4	0.045737937
32	0xbd4ed822	-0.05049909
33	0xbd3289b6	-0.043588363
34	0x3dab8cc9	0.08376462
35	0xbd9b6c62	-0.07589032
36	0xbd5cf12c	-0.053940937
37	0x3d4a2454	0.04935105
38	0xbb54e5e4	-0.0032485658
39	0x3cc49866	0.02399845
40	0xbd5642a5	-0.05230965
41	0xbd1e22d0	-0.03860742
42	0xbd0981e8	-0.033571154
43	0x3d81ef6e	0.06344496
44	0x3d414bec	0.047191545
45	0xbc872466	-0.016496848
46	0x3b50bc1f	0.003185041
47	0x3beabbb7	0.0071634906
48	0x3cc5770a	0.024104614
49	0xbd1da744	-0.038489595
50	0xbd603ca9	-0.05474535
51	0x3d988171	0.07446564
52	0x3b20e220	0.0024548844
53	0xbd91b59c	-0.07114717
54	0x3cfee914	0.031117
55	0xbd62a7be	-0.055335753
56	0xbc922032	-0.017837618
57	0xbc744738	-0.014909558
58	0xbd6186c6	-0.05506017
59	0xbac31480	-0.0014883429
60	0x3c1e7580	0.009671569
61	0xbbfa5f70	-0.0076407716
62	0xbb7ba260	-0.0038396344
63	0xbbe4d7a0	-0.0069837123
64	0x3c7f4c08	0.015582092
65	0x3d51327a	0.05107353
66	0xbd68ff12	-0.05688388
67	0x3cb801e1	0.022461833
68	0x3cac5db7	0.02104078
69	0x3c22405a	0.009903038
70	0x3b5d6c36	0.0033786423
71	0xbd4ddfe5	-0.05026235
72	0x3d39fc93	0.04540689
73	0x3d4ef75b	0.050528865
74	0x3d5512a5	0.052019734
75	0xbd3b1ac9	-0.04567984
76	0xbd3476cd	-0.04405861
77	0xbbb4baee	-0.005515448
78	0x3c5c8b16	0.013460895
79	0xbd579229	-0.052629624
80	0xbd239223	-0.03993429
81	0xbbb385f1	-0.0054786135
82	0x3d19d878	0.037559956
83	0x3cf9d22d	0.030495727
84	0x3d10321a	0.03520403
85	0x3c4e6ac6	0.012598699
86	0xbdadb4b0	-0.08481729
87	0x3d67a4ea	0.05655376
88	0xbd793ce4	-0.060849085
89	0xbd530c65	-0.051525492
90	0x3b8812ce	0.0041526323
91	0x3c8b25be	0.01698577
92	0x3d0be5b8	0.034154624
93	0x3cddbba2	0.02706701
94	0x3d8a7f7e	0.067625985
95	0xbc9dcc34	-0.01926241
96	0x3c4b43a0	0.01240626
97	0x3dc616b4	0.09672299
98	0xbce738ab	-0.028225264
99	0x3da0eb9a	0.078574374
100	0x3c5001b7	0.012695721
101	0x3dc3b909	0.09556777
102	0x3dc756a4	0.09733322
103	0xbc286b12	-0.010279434
104	0xbbccdbfc	-0.00625181
105	0xbd9901f0	-0.07471073
106	0x3d847f4e	0.06469594
107	0x3d944290	0.07239258
108	0x3c1f8b00	0.00973773
109	0xbd87a354	-0.06622949
110	0x3ce5a66e	0.028033461
111	0x3d585624	0.052816525
112	0xbca9cee9	-0.020728545
113	0xbc3c1db8	-0.011481695
114	0xbd4d3e82	-0.05010844
115	0xbd3cb8f0	-0.046074808
116	0xbc597946	-0.013273543
117	0xbd7700f7	-0.060303655
118	0x3d9392c0	0.07205725
119	0xbd323a39	-0.043512557
120	0x3cbd2412	0.023088489
121	0x3da245fa	0.07923503
122	0x3d03467f	0.032049652
123	0xbd82db1a	-0.063894466
124	0xbc8ec4f1	-0.017427893
125	0xbd9a659f	-0.07538914
126	0xbd88a14b	-0.06671389
127	0xbb535bd6	-0.0032250783
128	0x3ca3ed7e	0.020010706
129	0x3d5b4554	0.053532913
130	0xbd21f8ff	-0.0395441
131	0x3d0cef8f	0.03440815
132	0xbc37d3ef	-0.0112199625
133	0x3d007599	0.03136215
134	0x3d2973c3	0.041370165
135	0xbd861625	-0.065471925
136	0xbc880e20	-0.016608298
137	0x3c87eba6	0.016591858
138	0x3d5a35df	0.05327403
139	0x3b23c5b5	0.0024989669
140	0x3d7278cd	0.059197236
141	0xbd0969ef	-0.03354829
142	0x3d10a91c	0.035317525
143	0xbd4372d3	-0.047716927
144	0xbcceaf68	-0.025230125
145	0x3cedc061	0.029022397
146	0x3baf0d00	0.005342126
147	0xbd8eeb68	-0.06978494
148	0xbd78203d	-0.06057762
149	0x3daa0c6c	0.083031505
150	0x3d285e6b	0.04110567
151	0xbc999cfe	-0.018751618
152	0xbd7aad93	-0.06120069
153	0x3c8cf39d	0.017206008
154	0xbb92af9e	-0.0044765016
155	0xbd21f328	-0.039538532
156	0x3d82fc76	0.06395809
157	0xbd78454f	-0.060612973
158	0x3db9bf18	0.09069651
159	0xbd56ab11	-0.052409235
160	0x3d250d66	0.04029598
161	0x3d99f053	0.07516541
162	0xbcaeb138	-0.021324739
163	0x3d31a005	0.043365497
164	0x3bb5faa1	0.005553559
165	0x3d44748e	0.047962718
166	0xbc68ed38	-0.014216714
167	0x3d43abe2	0.047771342
168	0xbca51a84	-0.020154245
169	0xbcfbe7f2	-0.030750249
170	0x3d80c476	0.06287472
171	0xbc16c30e	-0.009201778
172	0x3d843ec3	0.06457283
173	0x3b84c244	0.0040514786
174	0x3d826817	0.0636751
175	0x3d3ebe41	0.04656816
176	0x3cfd00e0	0.030884206
177	0xbcd0e30a	-0.025498886
178	0xbcb241c5	-0.021759877
179	0xbd5c562f	-0.05379313
180	0x3d4f1b7c	0.05056332
181	0x3c3163ff	0.010827064
182	0x3c0a0310	0.008423582
183	0xbd3896ab	-0.045065563
184	0xbc0d632f	-0.008629604
185	0x3c02f4bd	0.0079929205
186	0xb919b786	-0.00014659585
187	0x3c893036	0.016746622
188	0x3d37fc0c	0.044918105
189	0x3cd1d009	0.025611894
190	0xbd190494	-0.03735788
191	0x3c3195c6	0.010838931
192	0x3d9fd9d2	0.07805218
193	0xbd72c304	-0.059268013
194	0xbd00b949	-0.0314267
195	0xbd195bd6	-0.037441097
196	0x3d99baa3	0.07506301
197	0xbd974e52	-0.07387985
198	0x3d960ec7	0.07327037
199	0xbc413ecc	-0.011794757
200	0x3d615fc9	0.05502299
201	0x3d8c7b16	0.06859414
202	0xbca48451	-0.020082625
203	0x3d5ee86c	0.054420874
204	0x3d000a8c	0.03126006
205	0x3d1756e5	0.036948103
206	0xbd84c948	-0.06483704
207	0x3b828315	0.0039829114
208	0xbd2ffdf2	-0.04296679
209	0x3d9149d0	0.07094157
210	0xbd181e34	-0.03713818
211	0xba4b3600	-0.0007751882
212	0xbd09cbe4	-0.03364171
213	0x3d8f1050	0.06985533
214	0x3d5d1b1c	0.05398093
215	0xbd4e1e9c	-0.05032216
216	0x3d733fcc	0.059387013
217	0x3d0e1b3e	0.03469395
218	0x380c4800	3.3445656e-05
219	0xbd23c1cf	-0.039979752
220	0x3b5f2380	0.003404826
221	0x3d7201ba	0.059083678
222	0x3c729254	0.014805395
223	0xbb6e45ed	-0.0036357597
224	0x3c8ecc9a	0.017431546
225	0x3d93e3a6	0.07221155
226	0x3ccb678a	0.024829645
227	0x3d5f0f1b	0.054457765
228	0x3cbef726	0.023311209
229	0xbcf14009	-0.02944948
230	0xbcc0a690	-0.023516923
231	0xbda087d1	-0.07838405
232	0xbce4b6b7	-0.027919156
233	0x3c61397a	0.013746614
234	0x3cb57c79	0.02215408
235	0xbd23eee4	-0.040022746
236	0x3cbca7a0	0.023029149
237	0xbd4b2204	-0.049592987
238	0x3d88d87c	0.06681916
239	0xbcae5ecd	-0.021285439
240	0xbcb63c3b	-0.022245517
241	0xbd68a9c2	-0.05680252
242	0x3d1f9cd8	0.038967937
243	0x3da38fc2	0.07986404
244	0x3c64fe66	0.013976669
245	0x3d4982b5	0.049196918
246	0x3c00b702	0.007856132
247	0xbda74779	-0.08167929
248	0xbd966403	-0.073432945
249	0xbc85a4d3	-0.016313946
250	0x3d40fe11	0.047117297
251	0xbd55939b	-0.05214272
252	0x3b601828	0.0034194086
253	0x3b678e34	0.0035332562
254	0xbcd4b864	-0.02596683
255	0xbdb05165	-0.08609275

encoder_blocks.2.2.bias f4 [12]
0	0x3d94c2f4	0.07263747
1	0x3d74c930	0.05976218
2	0x3c0bea6e	0.008539779
3	0xbd337362	-0.04381121
4	0xbbc1f552	-0.005919137
5	0x3d680b0a	0.056651153
6	0x3e009927	0.12558423
7	0xbd3fd62b	-0.046835106
8	0x3d7091df	0.058732864
9	0x3d8161bc	0.063174695
10	0x3de256ef	0.110517375
11	0xbd243ddc	-0.040098056

encoder_blocks.3.0.weight f4 [12, 12, 13]
0	0x3d9c456a	0.07630427
1	0x3ce7ffe0	0.028320253
2	0xbc19bded	-0.009383661
3	0xbd474224	-0.04864706
4	0xbc807407	-0.015680326
5	0x3d3f2869	0.046669398
6	0xbd7904a2	-0.060795434
7	0xbd2793e6	-0.04091253
8	0xbd48f5bf	-0.049062487
9	0x3d7c297e	0.061563008
10	0x3da14379	0.078741975
11	0xbd379d65	-0.044827837
12	0xbd86797a	-0.065661386
13	0xbd63b5e7	-0.055593397
14	0x3d8d43bf	0.06897687
15	0x3ced5d73	0.028975224
16	0x3d3604bc	0.04443811
17	0x3cae9640	0.02131188
18	0xbc74f40b	-0.0149507625
19	0x3d563ac2	0.05230213
20	0xbd94befa	-0.072629884
21	0xbcfb2802	-0.030658726
22	0x3a936f47	0.0011248373
23	0xbd16a69c	-0.036779985
24	0x3cd8da4e	0.026471283
25	0x3c92d724	0.017924853
26	0x3d4a4c3a	0.0493891
27	0x3d894b05	0.06703762
28	0x3d73c1c0	0.059510946
29	0xbc4183cb	-0.011811207
30	0x3c4a1c2e	0.01233582
31	0xbc5750f3	-0.013141858
32	0xbd2d7864	-0.04235114
33	0x3c1199dd	0.0088867815
34	0xbd6721f6	-0.056428872
35	0xbc71a1da	-0.014748061
36	0x3b820076	0.00396734
37	0x3c86eb40	0.016469598
38	0x3c8a4d83	0.016882664
39	0x3d3a824d	0.04553442
40	0xbd33cf41	-0.043898825
41	0x3cd62bd8	0.026143953
42	0xbc4c4191	-0.012466804
43	0x3d634660	0.055487037
44	0x3d75a112	0.05996806
45	0xbd1bf71c	-0.03807746
46	0xbc17b5d4	-0.00925966
47	0x3cfee2e8	0.031114057
48	0x3d99f925	0.07518224
49	0xbd253657	-0.040335026
50	0x3ccea8fe	0.025227066
51	0xbcf50ec9	-0.029914277
52	0xbd8827ff	-0.06648254
53	0x3d2c1345	0.042010564
54	0xbd77408f	-0.060364302
55	0x3d21f1f9	0.039537404
56	0x3d8618e4	0.06547716
57	0x3d185634	0.037191585
58	0xbd676145	-0.056489248
59	0xbd8aba25	-0.067737855
60	0xbb3f844b	-0.002922314
61	0x3c786a16	0.015162012
62	0xbcff87d1	-0.031192692
63	0x3c88d759	0.016704248
64	0xbcabecf4	-0.020987011
65	0xbd91594f	-0.070971124
66	0xbd2d1230	-0.042253673
67	0xbcbc3c85	-0.022978077
68	0x3d7f99ef	0.062402662
69	0xbd85aefb	-0.065275155
70	0x3916aac2	0.00014368727
71	0x3da80fca	0.082061365
72	0x3bf1da70	0.007380776
73	0x3c4f47cc	0.012651395
74	0x3bac3307	0.0052551064
75	0xbd506c72	-0.05088467
76	0x3d1a3b48	0.03765419
77	0x3d3298a5	0.043602604
78	0xbd3a214c	-0.04544191
79	0x3bc18a6d	0.005906394
80	0x3d118c26	0.035534047
81	0xbd48249b	-0.048863035
82	0xbd035aa5	-0.032068867
83	0xbd1a1472	-0.037617154
84	0xbbb8dc2b	-0.0056414804
85	0x3d86d7c4	0.06584123
86	0xbdb077fa	-0.08616634
87	0x3c8ac991	0.016941817
88	0xbb55049e	-0.0032503973
89	0xbcd16fcf	-0.02556601
90	0x3d9c7c95	0.0764095
91	0x3da3b4fa	0.07993503
92	0x3d591898	0.05300197
93	0xbb11c13d	-0.0022240423
94	0xbd7a8241	-0.061159376
95	0xbd7c2a04	-0.061563507
96	0xbbf2219c	-0.0073892605
97	0x3d4a27a8	0.049354225
98	0x3d179c35	0.037014205
99	0x3ca74ece	0.02042332
100	0x3d6faafa	0.058512665
101	0x3c3421f5	0.010994424
102	0x3d75f88e	0.060051493
103	0xbd8a8976	-0.067645
104	0xbcda62aa	-0.026658375
105	0x3d0269f2	0.03183932
106	0xbc23f6da	-0.0100075845
107	0xbd599bda	-0.053127147
108	0xbce5877a	-0.028018702
109	0xbba604dc	-0.0050664973
110	0x3d52d2e3	0.05147065
111	0xbd98235b	-0.074286185
112	0x3c70e435	0.014702846
113	0xbd889eec	-0.06670937
114	0xbd2d42a1	-0.04229987
115	0x3d877f06	0.06616025
116	0xbd30e195	-0.04318388
117	0xbd9072c7	-0.07053142
118	0xbc926dcd	-0.017874623
119	0x3d8c5652	0.06852402
120	0xbbaf6901	-0.0053530936
121	0xbb9c39d9	-0.004767638
122	0xbd47bdad	-0.048764873
123	0xbd9ca222	-0.07648112
124	0x3cc9eac8	0.024648085
125	0x3b7b9864	0.0038390392
126	0x3bf130da	0.00736056
127	0xbd864a51	-0.065571435
128	0x3d359113	0.044327807
129	0xbd609595	-0.054830153
130	0xbb2fa6f2	-0.0026802388
131	0xbd97fb4f	-0.0742098
132	0x3bcb3ea4	0.0062025357
133	0x3d3bf718	0.045889944
134	0x3c15a5ec	0.009133797
135	0xbc8b9a11	-0.017041238
136	0xbd833404	-0.064064056
137	0x3d19787e	0.037468426
138	0xbcfafc64	-0.030637927
139	0x3c11e9dd	0.008905855
140	0xbda19bc7	-0.0789104
141	0x3d981fc5	0.074279346
142	0xbcc84e88	-0.02445151
143	0x3d83b31e	0.06430648
144	0x3c06e2d2	0.008232789
145	0xbcf5ef1b	-0.030021241
146	0x3d062347	0.032748487
147	0x3da872b5	0.08225004
148	0xbd01415d	-0.031556476
149	0x3cd13e15	0.025542298
150	0x3d5ec341	0.054385427
151	0xbc81be65	-0.015837857
152	0x3c4d544e	0.012532307
153	0x3cf20f42	0.029548291
154	0x3d75af8b	0.059981864
155	0xbd9d57e0	-0.076827765
156	0xbc2a903b	-0.010410364
157	0xbbb550bf	-0.0055333073
158	0xbd03fd95	-0.032224257
159	0x3dce2e04	0.100673705
160	0x3dca1e14	0.09869018
161	0xbd73c036	-0.05950948
162	0x3df7fdca	0.12108953
163	0x3d8b6ece	0.06808244
164	0xbd4f2bbb	-0.050578814
165	0x3de05783	0.109541915
166	0x3ce22430	0.027605146
167	0x3d938b9e	0.07204364
168	0x3d6a9c79	0.05727813
169	0xbce9de55	-0.028548399
170	0xbd99fc74	-0.07518855
171	0xbd9bf372	-0.07614793
172	0xbbe0feba	-0.0068663033
173	0x3d045c81	0.03231478
174	0xbd886796	-0.066603824
175	0x3b76b5b3	0.0037644922
176	0x3d6f2f33	0.058394622
177	0x3d875734	0.066084296
178	0xbccae9bd	-0.024769658
179	0x3d08f277	0.033434357
180	0x3cb2c0c6	0.021820437
181	0x3da0e268	0.078556836
182	0x3c17823f	0.009247362
183	0x3cceb71e	0.025233801
184	0xbd83f947	-0.0644403
185	0x3da06c6a	0.07833178
186	0xbcc91b68	-0.024549201
187	0x3d7dbceb	0.061947744
188	0xbc509cf9	-0.012732738
189	0xbd35f413	-0.04442222
190	0xbd2a4d5e	-0.04157769
191	0x3da23145	0.07919554
192	0xbd1b3a90	-0.037897646
193	0xbd6e185a	-0.058128692
194	0xbb79ca1a	-0.0038114847
195	0xbd72bad5	-0.05926021
196	0x3c98c0cc	0.01864662
197	0x3d427aca	0.047480382
198	0x3baa850d	0.005203849
199	0x3c495863	0.012289139
200	0x3cae5b9b	0.021283915
201	0x3d73906a	0.059463896
202	0xbce9400c	-0.028472923
203	0x3d818fa0	0.063262224
204	0xbcf79353	-0.030221617
205	0xbcc9d69e	-0.02463847
206	0xbc884487	-0.016634239
207	0x3d8cfc0a	0.0688401
208	0xbd040b69	-0.032237444
209	0x3d661c17	0.056179132
210	0xbd94191d	-0.072313525
211	0x3c3d7221	0.011562855
212	0xbd405b87	-0.046962287
213	0x3d99310b	0.07480057
214	0xbd94cc5d	-0.07265542
215	0x3d08611b	0.033295732
216	0x3d2a4779	0.041572068
217	0x3cf66e2b	0.030081829
218	0xbc0f920b	-0.008762847
219	0x3d7894f4	0.060688928
220	0x3c4aa7d9	0.01236912
221	0xbc89aefc	-0.016807072
222	0xbcdd1e58	-0.026992008
223	0x3d1a46e8	0.037665278
224	0xbd6defad	-0.0580899
225	0xbcc739fe	-0.024319645
226	0x3d7e199d	0.062036145
227	0xbd61c8df	-0.055123206
228	0x3d611497	0.054951277
229	0xbd1df69c	-0.038565263
230	0x3ce209a6	0.027592491
231	0xbc632765	-0.013864373
232	0xbc1db708	-0.009626158
233	0xbc8f2d65	-0.0174777
234	0x3d5843f9	0.0527992
235	0x3ddf1660	0.108929396
236	0x3b9818a2	0.0046416083
237	0x3dbbcc65	0.091698445
238	0x3dd0c4bd	0.10193775
239	0x3da7d77a	0.08195396
240	0xbbfb5ca3	-0.0076709553
241	0x3d80a76c	0.06281933
242	0x3d443850	0.047905266
243	0x3caa1548	0.0207621
244	0x3cd7ae47	0.02632822
245	0x3d97f5c9	0.07419927
246	0x3dcd9009	0.10037238
247	0x3c652325	0.01398543
248	0x3ad32ec1	0.0016111956
249	0xbb563983	-0.0032688088
250	0x3bb7ad7c	0.0056053977
251	0xbd0cfe64	-0.034422293
252	0x3d80260b	0.06257256
253	0x3c160786	0.009157067
254	0xbb238b0c	-0.0024954705
255	0xbd9d9244	-0.076939136

encoder_blocks.3.0.bias f4 [12]
0	0xbd456682	-0.048193462
1	0x3d92d834	0.07170144
2	0x3dc2314d	0.0948206
3	0xbca7df8e	-0.020492341
4	0xbd1eb7b8	-0.038749427
5	0x3dbfba26	0.09361677
6	0xbcf85a8b	-0.030316612
7	0xbd4d483f	-0.050117727
8	0x3c86d407	0.016458524
9	0xbda9ae1e	-0.08285163
10	0x3d10327c	0.035204396
11	0x3d0332da	0.032030918

encoder_blocks.3.2.weight f4 [12, 12, 13]
0	0x3bce4cd0	0.006295778
1	0xbd67a86e	-0.05655711
2	0xbc54b12d	-0.012981695
3	0x3d5a24d0	0.053257763
4	0xbd131d24	-0.035916463
5	0xbd83fcf8	-0.06444734
6	0x3d081a91	0.03322846
7	0xbc3ec300	-0.011643171
8	0xbd53570b	-0.051596683
9	0xbb24d151	-0.0025149176
10	0xbd41f971	-0.047357026
11	0x3d06773a	0.032828547
12	0xbc015b14	-0.00789525
13	0x3cd7390a	0.026272316
14	0xbb605817	-0.0034232193
15	0xbc30d9fc	-0.010794159
16	0xbcffb81c	-0.03121572
17	0xbd31b56f	-0.04338592
18	0x3c21e72f	0.009881779
19	0xbd85d59f	-0.065348856
20	0x3d7007f0	0.05860132
21	0xbd077b6b	-0.033076685
22	0xbc199be5	-0.009375547
23	0x3d87435b	0.06604644
24	0x3d0ab9dc	0.033868656
25	0x3d410b6c	0.047130033
26	0xba99009a	-0.0011673153
27	0xbd26d6b3	-0.040732097
28	0x3cf414d2	0.029795084
29	0xbd84dc23	-0.064873
30	0x3cd4eb49	0.025991099
31	0xbd89dd1f	-0.067316286
32	0x3d4bc1c2	0.04974533
33	0xbd5dbd9e	-0.05413591
34	0xbb841b0e	-0.0040315455
35	0x3da156a4	0.078778535
36	0x3b66258d	0.0035117597
37	0xba94e83b	-0.0011360714
38	0xbd1d65e3	-0.038427245
39	0xbd504c38	-0.050853938
40	0x3d774eea	0.060377993
41	0xbd984350	-0.07434714
42	0x3b67fddf	0.0035399122
43	0x3c9ea756	0.019366901
44	0x3d1f9d18	0.038968176
45	0x3c4aa598	0.012368582
46	0x3cfdc246	0.030976426
47	0xbcff7865	-0.031185338
48	0xbd04f3b6	-0.032458983
49	0x3d8b8180	0.068118095
50	0xbd8bd033	-0.0682682
51	0x3b98394b	0.0046455017
52	0x3d831aaf	0.06401574
53	0x3d7e83dc	0.06213747
54	0x3d46da3f	0.04854798
55	0xbb6ae318	-0.0035840925
56	0xbba11594	-0.0049159024
57	0xbd40e777	-0.047095742
58	0x3bd724b8	0.0065656565
59	0x3d371d0d	0.04470544
60	0x3d8722d7	0.06598442
61	0xbc551d40	-0.013007462
62	0x3cbecff9	0.023292528
63	0xbcd3f01f	-0.025871335
64	0xbd4fbf39	-0.050719474
65	0xbd0270e8	-0.031845957
66	0xbd062406	-0.0327492
67	0xbda11481	-0.07865239
68	0x3d927583	0.0715132
69	0xbd2c0b69	-0.04200307
70	0xbcd7949c	-0.02631598
71	0x3d47e335	0.048800666
72	0x3d90a61e	0.07062934
73	0x3d733cde	0.05938422
74	0x3d94b906	0.07261853
75	0x3c7a271f	0.015268116
76	0x3d727325	0.05919184
77	0xbd82e6f8	-0.0639171
78	0xbcab20b9	-0.020889627
79	0xbd949e26	-0.07256727
80	0x3d100a77	0.03516623
81	0xbd833062	-0.06405713
82	0xbd254cdf	-0.040356513
83	0xbd6b7dc3	-0.057492983
84	0xbd96103d	-0.07327316
85	0xbbcecd15	-0.006311069
86	0x3d5b6f72	0.05357308
87	0xbd9e43bd	-0.07727764
88	0xbc8c5d16	-0.01713423
89	0x3d069e7d	0.03286599
90	0x3d24fc4f	0.040279683
91	0xbd36697e	-0.0445342
92	0x3c71ee88	0.014766343
93	0xbd865969	-0.065600224
94	0x3d9f9f9e	0.077941164
95	0x3d1432d8	0.0361813
96	0x3d58039c	0.052737817
97	0x3ca70e68	0.020392612
98	0x3cefb8d4	0.029262938
99	0x3d1f13b4	0.03883715
100	0xbca1344e	-0.019678261
101	0xbd3b3d71	-0.045712892
102	0xbd055e06	-0.03256037
103	0x3c0d9228	0.008640803
104	0x3d34b208	0.044115096
105	0xbcf884ae	-0.030336704
106	0x3d91947e	0.07108401
107	0x3d86319d	0.06552432
108	0xbcd664e4	-0.026171155
109	0x3d94f26f	0.07272803
110	0x3bb8ac28	0.005635757
111	0xbcda2f2b	-0.02663382
112	0x3c9c0793	0.01904658
113	0x3d88f7b0	0.06687868
114	0xbcbbcd39	-0.022925006
115	0x3d4eb975	0.050469834
116	0xbb03c10c	-0.0020104079
117	0x3bb58e19	0.005540621
118	0x3991a087	0.00027776157
119	0x3d1f4f1a	0.038893797
120	0x3d905364	0.070471555
121	0x3c87af07	0.016562952
122	0x3d1867a8	0.03720823
123	0xbd6dd13a	-0.058060862
124	0x3d6922b9	0.05691788
125	0xbc1c4a53	-0.009539205
126	0xbb4b9e46	-0.003106968
127	0xbd7b129f	-0.061297055
128	0x3d8e6d3b	0.06954428
129	0xbd14086a	-0.036140837
130	0x3d9b1a1a	0.07573338
131	0xbc95b091	-0.01827267
132	0xbd2b8ece	-0.041884236
133	0xbd780eff	-0.060561176
134	0xbd47d638	-0.04878828
135	0x3d4df85a	0.050285675
136	0xbd60a14d	-0.05484133
137	0xbcf9b5bb	-0.030482164
138	0xbc6cbb28	-0.014448918
139	0xbb8e0c7d	-0.004334985
140	0xbafbaf50	-0.0019202027
141	0x3c2da076	0.010597339
142	0xbda31f7d	-0.0796499
143	0x3c5ac0b6	0.01335161
144	0x3d2db106	0.04240515
145	0xbcb79a78	-0.022412524
146	0xbd5238d7	-0.051323738
147	0xbc196dfd	-0.009364602
148	0xbd81d2be	-0.06339024
149	0xbd0d1c46	-0.03445079
150	0xbc7bce79	-0.015369051
151	0x395fc0c9	0.00021338755
152	0xbcd11f1c	-0.02552753
153	0x3cee2b91	0.029073508
154	0xbc914051	-0.017730864
155	0xbcde1e27	-0.027113987
156	0x3c024dfc	0.007953163
157	0xbd4837eb	-0.048881453
158	0x3d33df89	0.04391435
159	0x3c9f2488	0.0194266
160	0xbc9f1596	-0.019419473
161	0x3d9c508d	0.07632551
162	0x3d968b80	0.07350826
163	0xbca8e29f	-0.020615874
164	0x3d96015c	0.07324478
165	0x3c9efa89	0.019406574
166	0x3c20de15	0.0098185735
167	0xbd13f3fd	-0.036121357
168	0x3d584a79	0.052805398
169	0xbc87f69e	-0.016597088
170	0x3d28da34	0.04122372
171	0x3ca36e6a	0.01995011
172	0xbd0b6fe7	-0.034042265
173	0x3d2e9512	0.042622633
174	0xbda1e21c	-0.07904455
175	0xbd089073	-0.033340883
176	0xbd9c14b3	-0.076211356
177	0x3d8d1b8d	0.068900205
178	0xbd14f9d0	-0.036371052
179	0x3b9268d7	0.0044680643
180	0xbd34a313	-0.044100832
181	0xbcf0e8e6	-0.02940793
182	0x3cbcdb9a	0.023053933
183	0x3d8a2d1b	0.067468844
184	0xbd49fe9e	-0.049315087
185	0xbd1b0dcb	-0.03785495
186	0xbcf3e98e	-0.029774453
187	0x3c6c943c	0.014439639
188	0xbd683376	-0.056689702
189	0xbcbba9ef	-0.02290818
190	0x3d8b69d9	0.06807298
191	0x3d598b16	0.05311116
192	0x3bd63576	0.0065371348
193	0x3d698792	0.057014056
194	0x3cd9c9d4	0.026585497
195	0xbc7c5c8e	-0.015402926
196	0x3c16779a	0.009183789
197	0xbda60c82	-0.081078544
198	0x3acaa4e8	0.0015460523
199	0xbcf9b0b6	-0.03047977
200	0xbd4907f1	-0.04907984
201	0x3d129158	0.03578314
202	0x3d9be556	0.07612102
203	0xbc224e1d	-0.009906319
204	0x3ba46dc4	0.005017968
205	0x3bce0d85	0.0062882327
206	0x3c1c7406	0.0095491465
207	0x3d1e049b	0.03857861
208	0xbd24e8f7	-0.040261235
209	0xbc21ecb5	-0.0098830955
210	0xbd6c467a	-0.0576844
211	0x3d4885b6	0.04895564
212	0x3d4d3cae	0.050106697
213	0xbd5a04d4	-0.05322726
214	0xbd68ca96	-0.056833826
215	0x3ba49a1f	0.0050232555
216	0x3d7d49be	0.061837904
217	0xbc8bc8f4	-0.017063595
218	0xbd57253d	-0.052525748
219	0x3b4819de	0.0030532996
220	0xbd09f42b	-0.033680122
221	0x3ca5d54b	0.020243308
222	0x3d0422e8	0.03225985
223	0x3c93c136	0.018036466
224	0x3d174bf5	0.036937673
225	0xbd0e8381	-0.03479338
226	0x3d3ac1ef	0.045595106
227	0xbb9c288c	-0.0047655758
228	0xbc1c0feb	-0.0095252795
229	0xbd425a2d	-0.04744928
230	0xbc8c6164	-0.017136283
231	0xbd489cbf	-0.04897761
232	0x3cdb6e7c	0.026786081
233	0xbd133a53	-0.035944294
234	0xbd567bc7	-0.052364137
235	0xbd8b0718	-0.067884624
236	0xbd92b699	-0.07163734
237	0xbcebb438	-0.028772458
238	0x3cba2d09	0.022726553
239	0xbd31c672	-0.043402143
240	0x3cc80915	0.024418393
241	0xbd3d3c72	-0.046200223
242	0x3d87b76a	0.0662678
243	0xbbba7806	-0.0056905774
244	0xbd4cd87a	-0.050011136
245	0x3d7d9e46	0.06191852
246	0xbd6ca17a	-0.057771184
247	0xbd3630bf	-0.04448008
248	0x3c3b94f0	0.011449084
249	0xbb8ff820	-0.0043935925
250	0x3d9f5c70	0.07781303
251	0xbc3a5688	-0.01137317
252	0x3d927c92	0.07152666
253	0x3c28ae10	0.010295406
254	0x3d958210	0.07300198
255	0x3d59dc64	0.053188697

encoder_blocks.3.2.bias f4 [12]
0	0xbd9b33d5	-0.075782456
1	0xbd76b665	-0.06023254
2	0xbd970a2c	-0.07374987
3	0xbd317820	-0.04332745
4	0xbc964ce1	-0.018347206
5	0x3cfdc6c2	0.030978564
6	0x3b8c571e	0.004282846
7	0x3bb27410	0.0054459646
8	0x3c052636	0.008126786
9	0x3d9ecd6c	0.07754025
10	0x3d3c5170	0.045976102
11	0x3ad52322	0.0016261081
