Python/save/localizer/trial_2/quake_localization_model_00880.pth (torch, 252994 bytes, 35 tensors)

encoder_blocks.0.weight f4 [12, 1, 13]
00000000: e59e 443e 50b9 463e b1fd 643e 3e58 a53d
00000010: 949f 3e3e dd08 d03d 414a e0bd 5152 76bd
00000020: d4a0 54be 6ed7 4cbe 23f7 44be 89c5 b03d
00000030: d445 b3bd b34e 5bbe ea2e 7ebe 300d 80be
00000040: fe85 07be f483 ec3d 3874 34be 3130 923e
00000050: c38b 4cbe 546b 93bc 65a6 943d 4508 333e
00000060: 98b7 1f3e 205f 20bd 469f 8b3d 46cb acbd
00000070: a253 b43c 6450 983d 01ef 5fbe d5d7 3fbe
00000080: c2f8 1e3e 098c 8abd 4f3e d9bd 83f1 dabd
00000090: f4c7 12bc 89c7 e2bd 10cf 7abe f84a 9c3d
000000a0: 3278 f23c ab93 54be b522 943d 8e15 1cbe
000000b0: 75f7 12be bf37 b63d 655f 133d 5180 143d
000000c0: eb41 bdbd 173e 223b 0cd1 883e f730 82be
000000d0: 39e4 7b3d b628 1f3d 5340 b2bd fc56 98bb
000000e0: 8776 16be 815b e3bd 6fd1 15be 4473 373e
000000f0: 8f30 0dbd 9a2e f63d 2fd2 40bc a190 06be
00000100: 3c06 2ebe c028 aebd 1c4d 6e3e a61d cb3d
00000110: fd16 f8bc 1621 69bd f193 983d 7c3a 683e
00000120: 895f 76be 9970 9f3d 325e 1d3e 488a 4dbe
00000130: 6b9e 693e 3af3 273e 8220 f8bd 0a2a 033d
00000140: 1236 f73d 12cd de3d 0246 853d d868 0dbd
00000150: 424c a1bd 8c38 783e 6f37 113e f9ce 143e
00000160: d4e4 89be c406 f63d 8e99 18be a42a bc3d
00000170: 98bc c1bd 3503 5bbd da24 e33d db2c 50be
00000180: 72f1 8a3e f499 4e3e 91ba bebd 477b 143e
00000190: a43a 30be 2ff6 5a3c 77a3 5b3e f101 da3c
000001a0: 4b76 39be 89ca 67bc c689 38bd 4984 8dbd
000001b0: 287b 283e a781 463e 9a42 433e 36fd 7c3e
000001c0: 7d6a 223e 9c45 3e3e 7b12 6a3e a727 11be
000001d0: a678 303e 78ee 853e 9f1b a4bd b293 48be
000001e0: b10a 68be 358d 883c 5c39 3dbe d42e 45be
000001f0: bd0e 043e 8075 5a3e 976b 46be 0a0d 8b3e
00000200: ec64 453d 2dd8 e73d 61fe 913e b13c 68be
00000210: d807 8e3e 5e73 dd3c a082 1ebd fd2f 543e
00000220: e1cf ef3d 6c3e e53c 0572 35bd 73c9 4abd
00000230: 6d98 febb 07b6 d1bd 2d23 44be d182 953d
00000240: 8ed5 183e 9818 57be 6179 5cbd 0480 68be
00000250: a68b 8abe aa1f b83d 1eca 76be 67b7 d0bd
00000260: b9d4 33be b176 753e a48f 47be c9eb eebd
0.19201238 0.19406629 0.223624 0.080734715 0.18615562 0.101579405 -0.10951663 -0.060137097
-0.20764476 -0.20004055 -0.192349 0.08631427 -0.08753553 -0.2141674 -0.24822584 -0.2501006
-0.13234708 0.115486056 -0.17622459 0.28552392 -0.1997519 -0.017995514 0.072583 0.17483623
0.15597379 -0.03915322 0.06817488 -0.08437209 0.022012535 0.07437208 -0.21868517 -0.18734677
0.15524581 -0.06764991 -0.106075875 -0.10690596 -0.008958805 -0.110732146 -0.2449305 0.07631487
0.02959833 -0.20759456 0.07233182 -0.15242597 -0.1435221 0.088973515 0.035979647 0.036255185
-0.092410885 0.0024756247 0.2672199 -0.25427982 0.061496947 0.038857184 -0.08703675 -0.004649041
-0.14693652 -0.11101437 -0.14630674 0.17915064 -0.034470137 0.12020607 -0.011768862 -0.13141109
-0.16994566 -0.08503866 0.23271602 0.09917764 -0.0302844 -0.05691632 0.074500926 0.2267856
-0.24059881 0.07785148 0.15367964 -0.20072281 0.22814338 0.16401377 -0.121155754 0.032022513
0.1207086 0.10878958 0.065074936 -0.034523815 -0.07875873 0.24240321 0.14181302 0.14532079
-0.26932395 0.12013009 -0.14902326 0.091878206 -0.094597995 -0.053469855 0.11091013 -0.20329611
0.27137333 0.20175916 -0.093129285 0.14500152 -0.1720987 0.013364359 0.21449076 0.026612254
-0.18111531 -0.014147409 -0.045053266 -0.06909997 0.1645323 0.19385396 0.19068375 0.24705967
0.15860935 0.18581241 0.22858612 -0.14175282 0.17233524 0.261585 -0.08013081 -0.19587591
-0.22660328 0.016668895 -0.18478912 -0.19256145 0.12896247 0.21333885 -0.1937698 0.27158386
0.04819195 0.11320529 0.28514388 -0.22679402 0.2774036 0.02703255 -0.038698792 0.20721431
0.11709572 0.027983867 -0.04429819 -0.049508523 -0.0077696354 -0.10239797 -0.19154043 0.07300342
0.14925215 -0.21005476 -0.053826693 -0.22705084 -0.27059668 0.089904144 -0.24100539 -0.10191231
-0.17561616 0.23971058 -0.19488388 -0.11666066

encoder_blocks.0.bias f4 [12]
00000000: f84f 3dbe 8aab 383d 602a 883e e316 eebd
00000010: 9c88 893e 256d 8abe 5591 8a3d 3da1 e63d
00000020: 9391 aa3d 2ce4 92bd d11b ab3b d3df e33d
-0.18487537 0.045085467 0.2659483 -0.11625459 0.26862037 -0.27036396 0.06766001 0.112612225
0.08328547 -0.071724266 0.005221822 0.111266755

encoder_blocks.1.0.weight f4 [12, 12, 13]
00000000: 82a8 4fbc f8e4 553d 74bd 913d f09c d6bc
00000010: 51b0 3abd c14c 7f3d 8fda 2bbd b1fc ae3c
00000020: 312f 46bd 6334 e2bc 00ab 18bd 80e6 523d
00000030: d6c6 6a3c 213e 773d 5b72 41bd 3746 a1bc
00000040: ba9f 47bd 9799 913c c655 cb3b b56e 56bd
00000050: 9fbb e0bc dfa6 9abd 3a61 d7bc e241 98bc
00000060: f4b5 20bd 8438 3d3d a755 2dbc 4ef8 8d3d
00000070: ea38 9cbb d7cb d93b 844f 67bd de58 92bd
00000080: f856 9b3d 492b acbd adb6 673d bc1a 57bc
00000090: 17a7 503d bbc8 a73d 4f4e 903d 8482 aabd
000000a0: 89d4 0f3d 858c 79bd e9a8 013d ff0e 123d
000000b0: 495e 8a3d 8995 7d3d b923 923c f239 7abd
000000c0: 5790 90b9 a858 9abd c3f3 86bd fbb4 823d
000000d0: 66f5 403b 5ae7 2e3d e8e3 2bb9 c8ca 95bd
000000e0: 6bfe 913d f605 2b3d bc0b bdbc 6c6a 5f3c
000000f0: 01e7 bb3b 4fab 35bc 743e 78bd 8849 893c
00000100: 4671 c2bc bc88 303d 12f4 19bd 5581 df3c
00000110: eef9 6f3c 0005 44bd 9a6a 66bd 8d15 4cbd
00000120: fd31 773d d57a 91bd 9668 2d3d 77b1 993d
00000130: b5f8 013d f5fc 36bd 1afa 0d3d 3107 b1bd
00000140: f818 693b ed40 4a3d 6c19 a33d c10a 2ebd
00000150: b81e 7abd d2f4 7c3c 123f 49bd 6e57 1e3c
00000160: f570 5a3d fefd 843d 282f d33c 1691 3cbd
00000170: 4ff4 5ab9 f8c8 f9bc cbba 40bd fdc5 adbc
00000180: c6ca 0bbd 5b3e 5ebd c84c 803d d1c6 4e3d
00000190: c813 88bd 880c c3bb ffbc a9bc eb04 473a
000001a0: 4579 8e3d cf84 c8bc 7892 cf3a 1173 9dbd
000001b0: 0da9 e63c 7043 47bd 1488 963c c0af febc
000001c0: b915 fabb 4fde 333d 738b 133d 037f 6c3d
000001d0: 1620 843d 49b9 88bc 0520 fdbc ff36 86bc
000001e0: 1ac8 793b 271a 133d 71fa 3abd 6a8d 9ebd
000001f0: b73b 8fbd d562 32bc 8562 97bc 37c8 75bc
00000200: c60e 05bd 3647 77bd d370 0abd 6027 4d3c
00000210: ebb4 89bd a641 b23c 2c30 13bd df79 8c3d
00000220: 9290 6cbc 4f70 4a3b ca1d 2bbd db13 fbbb
00000230: 3925 87bd edf2 2bbd e402 9bbc be58 debc
00000240: 7d0f 3b3d 6c54 b0bc 42e7 89bc fc48 823d
00000250: b0ec 95bd 2a55 8b3c e780 24bd 49c7 d43c
00000260: 44c5 1f3d 0fcf 0cbd 99b7 443d 0ad9 9abd
00000270: 3980 02bd 463f 413d 7f26 80bd 958d 323d
00000280: 370d d63c e03a 92bd 08ec 8dbd 9ee4 3d3d
00000290: cd52 a33d 7d72 873d 02b9 26bd 7666 553d
000002a0: 1e20 693d a02e 8ebd 4eb2 85bd 6dda 173d
000002b0: 669b 813d 48c0 703d cb06 843d 8360 283d
000002c0: 4920 a93d af17 d33c a55a cbbb 2043 d43c
000002d0: d47d 88bd 1f1a 823d 5455 b73a a4f7 fa3b
000002e0: 94ab a23d 07d7 8c3d 4d9f 9f3b 72e4 17bd
000002f0: 753c 4abd 52c2 3ebd 0d19 313d df46 d6bc
00000300: c672 90bd 064f fd3c 69cb b03d 2c38 b23b
00000310: 56c6 393c ea03 753c 6c82 d53c f1ec 823c
00000320: 6b94 05bd e45c 88bd 98a5 9bbc 51ff d83c
00000330: 048f f6bc f625 a83d 2b6b f5bc db29 9b3d
00000340: 5f46 3cbd b9d9 4ebd e96c 0bbd 32b1 7ebd
00000350: c355 5e3c 51d8 3ebc 4ace 353d 3225 86bd
00000360: fc9a e9bb 1675 7abc f089 5c3d 4770 3ebc
00000370: b9f1 ca3c eeff 933d a222 4cbb bd1f 753b
00000380: 6349 473d 0bb8 a53b 7aa4 363c 1d05 353c
00000390: a11b af3c 8c99 523d 3880 abbc b296 39bd
000003a0: f472 cbbc 5eb8 113d fa03 0c3d cee4 c9bc
000003b0: 4e2e 913d a874 85bd 69c9 7ebd 17d1 9d3d
000003c0: dd10 ad3c 1372 553d 5c7f 5b3c 8a64 8ebd
000003d0: ef59 4dbb 442d 913c d523 52bd b206 a1bd
000003e0: b4c7 05bd e939 e9bc a622 613d 29c6 893d
000003f0: f942 61bd d292 ab3b f26c 83bc 26aa 8f3b
-0.012674453 0.052220315 0.071162134 -0.02619788 -0.045578305 0.062329058 -0.04195648 0.021360727
-0.04838485 -0.02761287 -0.037272453 0.051489353 0.014329633 0.060361985 -0.0472282 -0.019686801
-0.04873631 0.017773433 0.0062052933 -0.052351672 -0.027433215 -0.075513594 -0.026291478 -0.018586103
-0.039236024 0.046196476 -0.010579503 0.06932126 -0.004767527 0.006646614 -0.056472316 -0.07145856
0.07584947 -0.084066935 0.056570698 -0.013128933 0.0509406 0.08192583 0.07046186 -0.08325675
0.0351148 -0.060925025 0.031655226 0.035658833 0.06756265 0.061910186 0.0178393 -0.061090417
-0.00027573362 -0.07536441 -0.065894626 0.063821755 0.0029443144 0.042701103 -0.00016392733 -0.07314068
0.071286045 0.04175373 -0.023076884 0.013636213 0.005734325 -0.011088206 -0.060606435 0.016758695
-0.023735654 0.04309915 -0.03758628 0.02728335 0.01464699 -0.04785633 -0.056254007 -0.04982524
0.060350407 -0.071035065 0.04233607 0.07504552 0.031731326 -0.044674832 0.034662344 -0.0864395
0.003556786 0.049378324 0.07963833 -0.042490724 -0.061064452 0.015439229 -0.049132414 0.0096644
0.05333038 0.06493758 0.025779322 -0.046036802 -0.00020881112 -0.030491337 -0.04705314 -0.021212572
-0.034128927 -0.054258686 0.06264645 0.050482575 -0.06644398 -0.0059524216 -0.020720003 0.00075919804
0.06956724 -0.02447739 0.0015836498 -0.07687963 0.028156782 -0.048648298 0.018375434 -0.031089664
-0.007631984 0.043913182 0.03602166 0.057738315 0.064514324 -0.016689913 -0.030899057 -0.016383646
0.0038113655 0.035913613 -0.045648996 -0.07741816 -0.069938116 -0.010887821 -0.018479595 -0.015001348
-0.032484792 -0.060370646 -0.033799004 0.012521595 -0.067239605 0.02175982 -0.035934612 0.068591826
-0.014438765 0.0030889695 -0.041776456 -0.007662279 -0.065988965 -0.04197972 -0.018922277 -0.027141925
0.045669068 -0.02152463 -0.016833905 0.06361577 -0.07320535 0.017008383 -0.040161993 0.025973933
0.039006487 -0.034377154 0.048026655 -0.07560928 -0.031860564 0.047179483 -0.062573425 0.043592054
0.026129348 -0.07140136 -0.06929785 0.046360604 0.07974777 0.06613634 -0.04070378 0.052099667
0.056915395 -0.06942487 -0.065281495 0.03707354 0.06328468 0.058777124 0.06446608 0.041107666
0.08258111 0.02576813 -0.006205874 0.025910914 -0.06664625 0.063526385 0.0013987222 0.0076589156
0.07942882 0.06876951 0.004871285 -0.037083097 -0.049374063 -0.046572037 0.04323678 -0.02615684
-0.07053141 0.03092147 0.086325474 0.005438825 0.011338791 0.0149545465 0.026063167 0.015982123
-0.032612246 -0.066583425 -0.01899986 0.026488932 -0.030097492 0.082103655 -0.029958328 0.07576343
-0.04596555 -0.050500605 -0.03403941 -0.062180705 0.013570252 -0.011648254 0.044386186 -0.06550063
-0.0071290713 -0.0152867045 0.053842485 -0.011623449 0.024773465 0.07226549 -0.0031148572 0.003740295
0.04865397 0.00505734 0.011147613 0.011048582 0.02137548 0.051415965 -0.020935163 -0.04530973
-0.024835087 0.035576217 0.03418348 -0.024645235 0.0708891 -0.06516391 -0.0622038 0.07705896
0.021126205 0.052110743 0.013397064 -0.0695277 -0.0031334122 0.01772178 -0.051303703 -0.07862605
-0.032661155 -0.028469997 0.054964684 0.06727249 -0.05499551 0.005236008 -0.01604316 0.004384297

encoder_blocks.1.0.bias f4 [12]
00000000: 394e 513a b228 beba e7ad edbc 9564 b73d
00000010: 6c65 a8bd 6367 833d 30b6 41bb f8f2 16bd
00000020: b0be b23c f95e 893d a5d3 ff3d 2cef 0b3d
0.00079843734 -0.0014507978 -0.029013587 0.089547314 -0.0822247 0.06416204 -0.0029558055 -0.036852807
0.021819443 0.06707568 0.1249154 0.03416364

encoder_blocks.1.2.weight f4 [12, 12, 13]
00000000: 118d 823d fb6f 37bd 2059 593d 1cf2 973d
00000010: 38aa 583d 94a7 2b3d bcff 543c beb1 8a3b
00000020: a8e2 0bbc 2b77 f0bc 74d3 5bbb 1af8 07bc
00000030: 535c 863d 23a7 50bd 2cb4 923c 5cdd d6ba
00000040: ff1b 593b c7bf 443d fc80 a33d 5fc6 70bd
00000050: 25e2 b23d 7a32 65bd c4c2 c03d 3316 81bb
00000060: c21e 813d bd3f 803d 2aa4 49bd 2997 97bd
00000070: c9c5 343d e1e3 873c 317e 05bc 3fc4 edbc
00000080: eeea 94bd ec2f 42bd 5570 993d c332 083d
00000090: 5c63 713d 1688 16bd 11b4 283d c6f7 893c
000000a0: 554d 03bd a9d6 a8bb 7614 fa3c 8ba9 bbbc
000000b0: 83f2 7c3d 01e2 243c d994 43bd eaa3 693c
000000c0: 3bdc 963c 1f9b 84bd 563c 71bd aaac 903d
000000d0: ee48 893d 6eac b53c c797 51bd 977e 21bd
000000e0: 952f bf3c e645 02bc c460 833b c93f 943d
000000f0: 9c28 063d 1ecd 61bc 0ee3 5fbd 3f0d 443c
00000100: 240a bf3c 2b95 8c3d e139 14bd 0cd9 7cbd
00000110: 18a6 933c 996f 5ebd c6ac 6d3d 14de e8bc
00000120: 0162 90bd 0831 96bd b75b 14bc 8384 2c3d
00000130: 56e0 1dbd cabb 093a 557d 03bc 75d2 343d
00000140: f459 093d 5b36 efbc 3207 683c a75c 063d
00000150: 9998 acbb 83f8 5fbc def4 813c f858 bc3c
00000160: 9536 58bd 013e 293d af24 adbc d08e a43d
00000170: dba9 7e3b f4c1 383d b6ee ec3c 64d3 a73d
00000180: 065d a23b a949 8c3c 4797 96bd f100 ee3c
00000190: b981 753c a433 24bd 03b1 90bd 7e89 af3d
000001a0: 609e 8cbd e199 5e3d 74c7 04bc fab8 e2bb
000001b0: d549 89bd d86d 163d f815 1f3d 2c5a f73c
000001c0: cab2 b0bc 030f fc3c f678 e0bc 5f3f 2c3d
000001d0: 5da0 8c3a 2143 8c3d 93ce c2bc 4941 9dbb
000001e0: 17ae 80bd 5690 423d 5fa8 ad3d c918 893d
000001f0: 36f6 96bd d43c 823d e49d 0abc cab3 17ba
00000200: ec07 163d 4130 3f3d f9d1 12bd b301 b3bc
00000210: 0651 723d dc0c 7bbd 6cb9 393d d3c3 0bbd
00000220: f201 3ebd 0028 9f3d fe8b 52bd 76d5 06bd
00000230: f814 af3d f944 37bd b78c 833d 3401 9fbd
00000240: c447 9dbc d949 66bc 5b1e b03d cf50 113d
00000250: c63b edbc 7ae7 913d 3dc2 f33c d495 933d
00000260: c1b7 c93c 7a37 883d c345 aa3d 4a9e 00bd
00000270: 9699 2b3a 9d25 e2bb 6167 89bd 0b3d 6bbd
00000280: b17a 86bc 37cd b1bd d0f0 bc3c 9f46 60bd
00000290: 8b94 02bd ac94 1d3d 2ce9 4e3d 2b70 abbc
000002a0: 4a7e 00bd 64c8 9fbd 2cdb f6bc 832d 423c
000002b0: 897a 1abc 306a 763d b59c b53d 8ba9 113c
000002c0: f6d4 0c3d c9f3 973d 886b 483b f4b2 acbd
000002d0: d4cb 773d a100 82bd 9f21 4abd 9695 653c
000002e0: c301 8d3d e4ad e53c ea00 45bc 6a0f 5c3d
000002f0: 5218 a5bd 94c0 a53d d5b4 5cbc 320c e83c
00000300: 3da9 65bc a990 a73d 0e8e dc3b 16c9 09bd
00000310: e5fc 8c3b c8db 3abb f80f 573d 172f 05bd
00000320: f256 89bd fe5c db3b f7da 88bd 00e5 4cbd
00000330: 2349 8b3d 38e5 1c3d db68 62bd 0e60 9e3c
00000340: a10d 493d f8a4 11bd 9916 80bb 6ed9 80bd
00000350: 963e 1dbd b88a 983d 38db 95bd 8498 a03d
00000360: e0f5 f5bb efe5 c9bc 071c b13c d30c 063d
00000370: a64a 10bd 2a54 883d 8e4c 733d fb51 49bb
00000380: 7c82 cebc 5695 96bd 50e2 433d 41fb 183d
00000390: 9d98 87bd edab 973d 32ad 5b3d 178b 2d3d
000003a0: 0572 96bd 1b49 8d3d 0433 b2bb 9236 963b
000003b0: 2c4b 34bd 4799 efbb 1539 e4bc 5096 4d3c
000003c0: 50a9 853d 26ce cbbc 0a61 6f3c f982 883c
000003d0: 5a15 023d f1cf 163d b47a bebd b0a9 503c
000003e0: 768a a5bc 52fc 453d 6424 973c 86f4 77bd
000003f0: 7b3f 033d 17a8 8e3d 520b 50bd 4da3 7cbd
0.063745625 -0.044784527 0.05306351 0.074192256 0.05289671 0.04190786 0.013000425 0.0042326143
-0.008537926 -0.029353699 -0.0033542784 -0.008298898 0.06560578 -0.050940644 0.017908178 -0.0016392875
0.003312826 0.048034456 0.07983586 -0.05878293 0.0873454 -0.05595634 0.094121486 -0.003939414
0.06304695 0.06262157 -0.049228825 -0.074018784 0.044133935 0.016588153 -0.008147762 -0.029024241
-0.07271372 -0.047408983 0.07492129 0.033251535 0.058932647 -0.036750875 0.04118735 0.01684178
-0.03205617 -0.0051525426 0.030527335 -0.022907993 0.061754715 0.010063649 -0.047749374 0.014260272
0.018415561 -0.064748995 -0.05889543 0.07064183 0.06703363 0.022176947 -0.051170137 -0.039427366
0.023338119 -0.007951235 0.004009338 0.072387286 0.032753572 -0.013781814 -0.054659896 0.011966049
0.023320265 0.06864389 -0.03618801 -0.06173043 0.018023536 -0.054305647 0.058026098 -0.028426208
-0.07049943 -0.07333571 -0.00905507 0.04211856 -0.03854402 0.0005254118 -0.008025487 0.04414602
0.03353305 -0.029200723 0.014161872 0.032803204 -0.0052672145 -0.01367009 0.015863832 0.022991642
-0.05278643 0.041318897 -0.021135656 0.08035052 0.0038858566 0.045106843 0.02892242 0.081946164
0.004954937 0.017124968 -0.073530726 0.029053183 0.014984542 -0.04008831 -0.07065012 0.085711464
-0.06866145 0.05434597 -0.008104194 -0.0069190236 -0.067035355 0.03672585 0.03883931 0.030194364
-0.021569628 0.030768877 -0.027401429 0.042052623 0.0010728944 0.06848741 -0.023780143 -0.0047990424
-0.06283205 0.04750093 0.0847938 0.066941805 -0.0737118 0.06359258 -0.008460496 -0.00057869835
0.03662865 0.046676878 -0.035844777 -0.021851396 0.0591593 -0.06129156 0.045342848 -0.0341223
-0.046388574 0.07771301 -0.05140304 -0.032918416 0.08548921 -0.04474351 0.064233236 -0.07763901
-0.01919926 -0.014055693 0.0859954 0.035477456 -0.028959166 0.07124229 0.029755706 0.07206312
0.024623754 0.06651206 0.08314087 -0.031400956 0.00065460184 -0.0069014565 -0.06709171 -0.057431262
-0.016415926 -0.0868172 0.023064047 -0.05475485 -0.031879943 0.038471863 0.05051534 -0.02092751
-0.03137044 -0.07801893 -0.030133806 0.011851671 -0.009428629 0.060159862 0.0886778 0.00889052
0.034382783 0.07419545 0.0030581672 -0.0843257 0.06049712 -0.06347776 -0.04934847 0.014012715
0.06885102 0.02803702 -0.012024144 0.053725637 -0.08061279 0.08093372 -0.013470848 0.028326128
-0.0140174 0.081818886 0.0067308014 -0.033639036 0.0043026083 -0.0028512347 0.052505463 -0.03251561
-0.067060366 0.006694435 -0.06682389 -0.05002308 0.06801059 0.038304538 -0.05527578 0.019332912
0.049085263 -0.035557717 -0.003908944 -0.062914714 -0.038389765 0.074483335 -0.07317203 0.0784159
-0.007506117 -0.024645774 0.02161981 0.032727074 -0.03522744 0.06656678 0.05939918 -0.003071903
-0.025208704 -0.07352702 0.04782325 0.03734899 -0.066209055 0.07405839 0.05363197 0.042368975
-0.07345966 0.068987094 -0.0054382104 0.004584142 -0.044017002 -0.0073119733 -0.02785925 0.012548044
0.065264344 -0.024878573 0.014610538 0.016664015 0.031758644 0.036819402 -0.093007475 0.012735769
-0.020207625 0.048336335 0.01844997 -0.06053593 0.03204296 0.06965654 -0.050792046 -0.061679173

encoder_blocks.1.2.bias f4 [12]
00000000: 3af7 7cbc f6a9 0d3d a9be ef3d 2e6f 433d
00000010: 2982 c23c 7585 41bd c54f 5cbd 8f08 18bd
00000020: da4b 403d 8e60 cb3d fd23 a53d 70b8 0dbb
-0.015439803 0.034585916 0.117062874 0.04771345 0.023743706 -0.047246415 -0.05378701 -0.037117537
0.046947338 0.09930526 0.08063505 -0.0021624826

encoder_blocks.2.0.weight f4 [12, 12, 13]
00000000: db70 953d 6570 2dbc a126 c33c 3a19 5c3d
00000010: 956f 0e3c d38e 443d cd3d 9f3d f296 2f3d
00000020: 3fc0 b93c dd94 99bd 0985 493d 01aa 6cbd
00000030: d172 8d3d 611c abbd c4d2 a83d 9272 23bd
00000040: 9e75 d23b 29d4 b13c 159e 4cbd 62e7 a5bc
00000050: b8e6 2f3d 087f 9abd 881f 1c3d 4a51 793b
00000060: faa7 293d 4989 5abd 372a 1a3d 53c2 0dbd
00000070: ed8c b9bd 375f 5dbd 1365 d53c 5d42 b23b
00000080: 7efd 8fbd efe7 4dbd 7208 7a3c b99b 94bd
00000090: 089d 8aba 6118 a1bb 71bd 673d dd8a fe3c
000000a0: ddce afbd c1b1 34bc a36f 5f3d 048a dc3c
000000b0: eeb9 5f3c 84a3 6437 82a8 14bd 6f34 80bd
000000c0: 2ac3 993d c489 843c fa40 ca3b fcd5 4c3d
000000d0: 97d6 393d b19d c3bc 7659 f13c ca1c ac3c
000000e0: 0b9e bf3c 2388 913d edd0 8b3d a8de a9bd
000000f0: 9bb0 8f3a 0c93 013d 7016 8d3d 9ce5 003d
00000100: 4b80 b63c 7490 c2bc cd34 bd3c c2d9 7d3c
00000110: e308 92bd e108 90bd 2fa8 90bd c3bd e3bc
00000120: 11d4 913d 6992 1b3d 9c4e 9abd 56a4 c83a
00000130: feb0 0dbd 9d1f 813d c48a 523d 6ac9 f13b
00000140: f34e 7abc f913 3d3c 16b4 983b 2a66 093c
00000150: 880b 8b3c 7647 ebbc e788 c8bc a09c 48bd
00000160: b32a dcbc 4958 b53b e202 7d3d 984c d0bc
00000170: 100a a1bd 9be5 793d 9e81 f2bb 694b 2cbd
00000180: 6fe3 053d c4de 6abc 57fb 57bc 0de4 b83d
00000190: fc69 50bd e298 de3c 3faf 563d 93ac 24bd
000001a0: 3002 d2bc 545b 5ebd a976 5a3c 7457 4cbd
000001b0: 7f14 8b3d 259e a03d bd04 e5bc c9cf 4a3d
000001c0: bbbf 88bd d023 8bbb 0932 163d 551f 90bd
000001d0: dd11 1ebd 4795 1ebd 47bc e63b ba18 573b
000001e0: 2094 90bd cea8 863d 4b12 a7bd c29a 0e3d
000001f0: d6aa adbc 4528 66bd e28e 003c fc01 13bd
00000200: 4667 2fbd 972a 76bd 116c 88bd af31 8bbd
00000210: ebb8 a4bd 8ebd 83bc 6635 a93c 99af dd3c
00000220: d9bc 953d 849d ab3a da34 15bb 8af6 863d
00000230: e3d5 183d 0b12 013d 7e27 53bd 1b5b 9f3c
00000240: 475f 92bd cb02 5dbd bd2c 883d 6bba 7bbd
00000250: 4532 49bd 9731 3038 b376 d43c 5d79 a43a
00000260: 6301 923c 2d47 af3d 588c 6cbd d7f3 703d
00000270: 770b 6c3d 68ed 27bd 5b70 ec3b 632c 523d
00000280: e155 0abd 291e 113d b976 82bc 3078 06bc
00000290: 584e 863c cdad 0939 d221 223d 30df 8f3d
000002a0: d808 0abd 042c b73d 519e 293d d019 76bc
000002b0: 5195 4bbd 592b 0cbd d2ef 113c 2b3a 243d
000002c0: ea6e a9bc 56d0 01bb 56dc 603d 737c 283d
000002d0: 8a04 eebc 8df6 a23d 2a6f 713b a3ec ed3c
000002e0: 714b 08bd c640 603d b1bf 933d dbce be3b
000002f0: eda7 49bc 9008 da3c d592 58bd 6c2a a6bc
00000300: 0b64 ed3c 0537 7d3b 8c39 8f3d c291 983d
00000310: 620d 893d e9c4 813d cf5e 55bd 522d 933c
00000320: 0323 ba3c f91a 413d 207d b5bc 801f 053d
00000330: 7525 88b9 d1b8 853d a165 e1bb e5ec 23bc
00000340: c3eb b03c 6d1c 8a3b f6de 013d 1a73 963d
00000350: 70ab 5bbd c2b0 553d 126a 5a3c ef79 c6bc
00000360: 9c77 44bd a586 96bd f624 96bd 05fc 013d
00000370: ab96 6d3d 4685 623c 1629 2f3d 6328 52bb
00000380: 6715 8cbd 5585 563d ec5a 983d 053b 76bd
00000390: ad5c d5bc df53 883d 7068 f3bc 514f 6bbd
000003a0: 5fd1 f23c 3dda 693d c598 88bd ffea fb3c
000003b0: 0135 ec3c ff6f 57bd 243f 6d3d f855 8abd
000003c0: 63e0 f3bb f6da 153a 2b00 543d 2bc7 0c3d
000003d0: 72f7 9abd 7856 903d f54e 4fbd 65ed 2ebd
000003e0: f80c 05bb abaf 2fbd 918b 303d 734a 423d
000003f0: 2f94 d7bc e4b8 0abc e524 1c3c e3bf 0cbd
0.07296916 -0.010585879 0.02382213 0.053734995 0.008693595 0.04798777 0.077754594 0.042868562
0.022674678 -0.074990965 0.049199138 -0.057779316 0.06906665 -0.08355022 0.08243325 -0.039904185
0.0064227125 0.021707611 -0.049955446 -0.020251933 0.04294464 -0.075437605 0.038116008 0.0038042837
0.04141996 -0.05335358 0.037637915 -0.03460915 -0.090600826 -0.054045882 0.026049173 0.00544004
-0.07030772 -0.050270017 0.015260803 -0.07256264 -0.0010575363 -0.0049162363 0.05657715 0.031072075
-0.08584378 -0.011028708 0.054549824 0.02692128 0.013655169 1.36279305e-05 -0.036293514 -0.06260001
0.07507928 0.016178973 0.0061722966 0.05000876 0.045370664 -0.023878904 0.029461604 0.021009821
0.02339079 0.07106044 0.06826959 -0.082944214 0.0010962667 0.031634375 0.06889045 0.031468973
0.022277972 -0.023750521 0.023096466 0.015493812 -0.07130601 -0.070329435 -0.070633285 -0.027800446
0.071205266 0.037981424 -0.07534525 0.0015307765 -0.03459262 0.06304858 0.05140187 0.0073787468
-0.015277612 0.011540406 0.00466014 0.008386174 0.016973272 -0.028720599 -0.024479343 -0.048977494
-0.02687583 0.005534206 0.061770327 -0.025427148 -0.078632474 0.061009984 -0.0074007055 -0.042064104
0.0326876 -0.014335338 -0.013182483 0.09027872 -0.050882325 0.02717251 0.05241322 -0.040203642
-0.025635809 -0.054286316 0.013333955 -0.04988809 0.06791019 0.07842664 -0.027956361 0.049514566
-0.06677195 -0.0042462125 0.03666881 -0.07037226 -0.038591255 -0.03871658 0.0070414874 0.0032821135
-0.070595026 0.06575166 -0.08157786 0.034815557 -0.021199625 -0.056190748 0.007846566 -0.035890564
-0.0428231 -0.06009921 -0.06661237 -0.06796586 -0.08043083 -0.016081598 0.020655345 0.02706127
0.073114105 0.0013093208 -0.0022767098 0.06589992 0.037313353 0.031511348 -0.051551335 0.019452622
-0.07147079 -0.05395774 0.06649158 -0.06145708 -0.049120206 4.2007854e-05 0.025935506 0.0012548376
0.017822927 0.085584976 -0.05775103 0.058826294 0.05762812 -0.040997893 0.0072155423 0.05131186
-0.033773307 0.035429154 -0.015925752 -0.008207366 0.01639478 0.00013130084 0.039583035 0.070249915
-0.03369984 0.08943942 0.041410748 -0.015020803 -0.049702946 -0.034221027 0.008907275 0.040094536
-0.02068277 -0.0019808016 0.05489763 0.04113431 -0.029054899 0.07957182 0.003683994 0.029043501
-0.03327507 0.054749273 0.072142966 0.005822999 -0.012308103 0.026615411 -0.052874405 -0.0202839
0.028978368 0.003863753 0.06993398 0.07449676 0.06692006 0.06336386 -0.05209237 0.017965946
0.022721773 0.047144864 -0.02215439 0.032500744 -0.0002596785 0.065293916 -0.00687857 -0.0100052105
0.021596795 0.0042148144 0.031706773 0.07346173 -0.053630292 0.052170523 0.013330953 -0.024228064
-0.04796563 -0.073499 -0.073312685 0.031734485 0.058005016 0.01382572 0.042763792 -0.003206753
-0.0684002 0.05237325 0.07439217 -0.06011488 -0.026045168 0.06656622 -0.029712886 -0.05744869
0.029640852 0.057092894 -0.066697635 0.030751703 0.028833868 -0.052597042 0.057921544 -0.067546785
-0.0074425205 0.00057165266 0.051757973 0.03436963 -0.07566728 0.070477426 -0.05061241 -0.042706866
-0.002030192 -0.04289214 0.04310185 0.04743428 -0.026315777 -0.008466933 0.009530281 -0.034362685

encoder_blocks.2.0.bias f4 [12]
00000000: 3b85 99bc 36c5 b83d b6b8 9f3b 545c 103e
00000010: 1897 4abc 6a62 953d 960d d2bd c503 c33d
00000020: 1555 ab3c 82e5 bbbd 5eee d03d bfd5 e43d
-0.018740287 0.0902199 0.004874314 0.1409772 -0.012365125 0.072941616 -0.102564976 0.09522203
0.020914594 -0.091746345 0.10201715 0.11173581

encoder_blocks.2.2.weight f4 [12, 12, 13]
00000000: 30c1 b2bc f7cc a93d 5ddf 2f3d 3797 5a3b
00000010: 281d 77bd d9ff 653a aefb bbbc b4a5 5bbd
00000020: 77bc d7bc 2a4b febc 7ad7 213c 24b0 35bd
00000030: 328f 633d 456f 87bc 3329 953c 5dde 733d
00000040: bfd1 183d 0262 183d d028 77bd 1353 a23d
00000050: c238 a9bc 6314 98bc 024f 80bd a8ea 363d
00000060: ff7d 803d 6550 fbbc 256b e3bc c92c 7e3d
00000070: dc44 8ebd 1b50 b0bc 5b30 783c f400 383d
00000080: 2af7 4ebd 76dd 33bd 3122 ab3d d9e8 9bbd
00000090: 4afa 5ebd 32e1 4a3d 5109 5bbb 7e56 d03c
000000a0: cebc 4dbd 4e42 17bd 67cb 02bd 3419 853d
000000b0: b04c 483d 4fb4 74bc 4558 a23b 6539 193c
000000c0: f0ce d13c 7152 15bd 3ff2 59bd 3791 9b3d
000000d0: 20e2 203b 9cb5 91bd 14e9 fe3c bea7 62bd
000000e0: 3220 92bc 3847 74bc c686 61bd 8014 c3ba
000000f0: 8075 1e3c 705f fabb 60a2 7bbb a0d7 e4bb
00000100: 084c 7f3c c848 533d d624 66bd 45dd bb3c
00000110: 4d68 af3c 2055 2c3c a026 7f3b f047 4bbd
00000120: 43bf 3b3d 6f65 513d 42d8 573d f467 38bd
00000130: cdab 31bd 3d21 a4bb 82b6 5a3c 76cc 57bd
00000140: 2785 24bd 09ea bbbb 5a09 193d 99ca f93c
00000150: ab9a 0e3d 5bf4 493c a743 aebd 9936 673d
00000160: c53a 7bbd ae34 54bd b147 7e3b 8cd8 ad3c
00000170: 014e 1f3d 0b4b 293d 64a4 953d 0e6d 71bc
00000180: 2d9d 893c 36a4 d23d 7e10 acbc f2a9 a93d
00000190: 3829 c63c 0f03 d13d 6ceb d03d efe0 a9bb
000001a0: 1766 c0bb 6a43 98bd b38c 853d 289c 933d
000001b0: a4db 223c ffdc 86bd 6f21 e53c e00f 543d
000001c0: dd4e aabc 2521 3cbc 680f 4abd d431 40bd
000001d0: 14bd 4dbc 470f 77bd b569 933d 8083 32bd
000001e0: 4ba7 bc3c 3b41 a23d 7643 023d 6016 83bd
000001f0: 70ab 8fbc 8d79 9abd 9d06 89bd 5acc 58bb
00000200: 71fb a23c 38d4 5a3d 6f2c 1fbd da62 113d
00000210: 5746 29bc 75a7 033d c288 2c3d 81de 84bd
00000220: 1b6e 81bc 1b9a 8d3c f7b2 5d3d d6ff 573b
00000230: f94d 763d de45 06bd ca9b 133d 1f92 3fbd
00000240: 7e63 c5bc 0dc6 f83c 48bd d73b a8c6 8bbd
00000250: 9b3d 73bd b3e7 ac3d 8860 2d3d 406d 8cbc
00000260: d0f3 75bd f3f0 9c3c 1420 44bb a30e 1cbd
00000270: 4b05 853d 6fd7 7dbd 31ec bc3d 7ace 59bd
00000280: 84a2 2c3d 2876 963d 53fd adbc 196d 2a3d
00000290: 8f00 e93b 35a9 453d c93c 60bc b0cb 523d
000002a0: 7721 efbc b264 f6bc 0540 813d 5250 15bc
000002b0: 4db6 853d 43f7 a43b e536 833d 5cd9 3d3d
000002c0: 2b41 013d 13f3 d2bc 1909 b7bc f3b0 5dbd
000002d0: bff0 4c3d 119f 403c f156 283c d759 2fbd
000002e0: 447b 11bc acfe 073c 83b7 603a 8979 933c
000002f0: 4ccc 373d 10c5 d03c 8965 1cbd 570a 373c
00000300: 5cf2 a33d e181 70bd 61c0 03bd 3d0c f8bc
00000310: 8bb5 963d f619 94bd d0fd 973d 19aa 3dbc
00000320: 1a63 663d 54c0 8d3d 186d a0bc 0045 5f3d
00000330: 449b ff3c 767e 233d ddfa 81bd 9f6a 913b
00000340: f2fd 2fbd d049 913d 341e 18bd 0036 4bba
00000350: e4cb 09bd 5010 8f3d 1c1b 5d3d 9c1e 4ebd
00000360: cc3f 733d 3e1b 0e3d 0048 0c38 cfc1 23bd
00000370: 8023 5f3b 8cbb 763d 6625 6c3c 676d 5cbb
00000380: 7e1d 973c 12f7 933d aff1 cf3c 2308 5d3d
00000390: 619a bc3c a0d5 f3bc 7fb4 c8bc d6fb a2bd
000003a0: f98e e9bc d0fd 523c d5cf ba3c ee9c 21bd
000003b0: 867d b23c aa60 4bbd 75bb 883d a972 b8bc
000003c0: cd3d afbc 2ae2 68bd e3b8 213d 49e2 a03d
000003d0: df52 623c 0933 3d3d 65af c93b 2c3a 84bd
000003e0: 9dec 94bd c24b 6ebc 397a 463d 9d8a 4ebd
000003f0: a190 b03c 1ac2 2dba 2d9a 6abc cba1 b0bd
-0.021820635 0.08291047 0.042937625 0.0033354291 -0.06033054 0.0008773781 -0.022947159 -0.053624824
-0.026334984 -0.0310417 0.009878034 -0.044357434 0.055556484 -0.01653255 0.018208122 0.059538234
0.037309404 0.037202843 -0.060341656 0.079260014 -0.020656947 -0.018564409 -0.062650695 0.04465738
0.06274032 -0.030677984 -0.027761051 0.06205443 -0.06946728 -0.021522572 0.015148248 0.044922784
-0.050528683 -0.043912373 0.08356131 -0.076127715 -0.054437913 0.04953117 -0.00334223 0.025431868
-0.050228886 -0.036928467 -0.03193226 0.06498948 0.04890126 -0.014935567 0.00495437 0.009352063
0.02561137 -0.036455575 -0.05320954 0.07596057 0.0024548844 -0.07114717 0.031117 -0.055335753
-0.017837618 -0.014909558 -0.05506017 -0.0014883429 0.009671569 -0.0076407716 -0.0038396344 -0.0069837123
0.015582092 0.05158308 -0.056187473 0.022932658 0.02141204 0.010518342 0.0038932934 -0.04962915
0.0458367 0.051122125 0.052696474 -0.045021012 -0.043376733 -0.005008845 0.013349177 -0.052685224
-0.040166046 -0.0057346863 0.037362434 0.030492114 0.03481547 0.012326325 -0.085089974 0.056448553
-0.061335344 -0.05180805 0.0038800056 0.021221422 0.03889275 0.041331332 0.07306746 -0.014735473
0.01679858 0.10285227 -0.021003958 0.082843676 0.024189577 0.102056615 0.10201153 -0.005184285
-0.005871545 -0.07434733 0.06520977 0.07207519 0.009940062 -0.065851204 0.027970044 0.051772952
-0.020789558 -0.011482512 -0.0493311 -0.04692252 -0.012557287 -0.060317304 0.071978964 -0.04358244
0.02302899 0.07922598 0.031802617 -0.06400752 -0.017537802 -0.07542715 -0.066907145 -0.0033080787
0.019895287 0.053425044 -0.038860735 0.035494663 -0.010331712 0.03214212 0.04212261 -0.06487752
-0.015799573 0.017285397 0.054125752 0.0032958887 0.060132954 -0.032781474 0.036037244 -0.04677021
-0.024095293 0.030367875 0.0065838434 -0.06825 -0.059384923 0.084426306 0.042328387 -0.017141938
-0.06004697 0.019157862 -0.0029926347 -0.038099896 0.0649515 -0.06197303 0.092247374 -0.053175427
0.042147174 0.07346755 -0.021238958 0.04160795 0.0071106623 0.04825707 -0.013686367 0.051463783
-0.029190762 -0.030077312 0.06311039 -0.009113388 0.06528912 0.0050343587 0.06406955 0.04634987
0.03155629 -0.025750672 -0.022343205 -0.05412383 0.05003428 0.011756674 0.010274635 -0.042810287
-0.0088794865 0.008300465 0.0008572267 0.018002288 0.044872567 0.025484592 -0.03818277 0.011171899
0.08005211 -0.058717612 -0.03216589 -0.030279273 0.07358845 -0.07231514 0.07421458 -0.011576199
0.056246854 0.06921449 -0.01958327 0.054509163 0.031201966 0.039915524 -0.063466765 0.004437759
-0.04296679 0.07094157 -0.03713818 -0.0007751882 -0.03364171 0.06985533 0.05398093 -0.05032216
0.059387013 0.03469395 3.3445656e-05 -0.039979752 0.003404826 0.060237452 0.014413213 -0.0033634545
0.01844668 0.07224859 0.025383798 0.053962838 0.023022832 -0.02976495 -0.02450013 -0.0795819
-0.028510557 0.012877896 0.02280418 -0.0394563 0.02178837 -0.049652733 0.066763796 -0.022515612
-0.021391774 -0.05685631 0.039482962 0.078556605 0.013813703 0.04619125 0.006154942 -0.06456408
-0.07271693 -0.014544429 0.048456404 -0.05042516 0.02155334 -0.00066283497 -0.014318985 -0.086246096

encoder_blocks.2.2.bias f4 [12]
00000000: 9454 b33d 6743 843d 68b8 5c3c ae85 24bd
00000010: 24d1 e1bb 0512 883d 883a 0e3e 7cd7 3abd
00000020: 8f48 843d e9af 923d 0c2c f13d cc12 1ebd
0.08756366 0.064581685 0.0134717 -0.04016655 -0.0068913866 0.06644062 0.13889515 -0.04561566
0.06459152 0.071624584 0.117759794 -0.038592145

encoder_blocks.3.0.weight f4 [12, 12, 13]
00000000: cbd5 9e3d 0624 eb3c 99f9 f5bb 00af 41bd
00000010: 04a3 7abc d98e 403d 86a8 72bd 9123 21bd
00000020: 290b 47bd 2c35 7f3d 87d3 a33d dbec 31bd
00000030: fd14 85bd 1fbf 61bd ff6f 8e3d bc12 f23c
00000040: 5f2a 383d d940 b33c 9526 6bbc 7a92 583d
00000050: 0fb8 93bd 6298 f6bc 443c e33a 8a22 14bd
00000060: 6243 dd3c 0bde 973c c579 4c3d e805 8b3d
00000070: 3121 763d 7e03 3bbc 74cc 553c a3d7 4bbc
00000080: 55db 2abd 517c 1a3c dd90 64bd 7546 61bc
00000090: 50a4 953b cae3 8b3c 1de3 8f3c 4a50 3d3d
000000a0: 00d4 30bd 008d dc3c 26d4 42bc 1d98 673d
000000b0: b3e4 773d 6ae9 18bd 348e 09bc a72c 023d
000000c0: a479 9c3d 7da0 22bd ba14 d43c aacb edbc
000000d0: d6e4 86bd 6500 2e3d 4ad1 74bd 8f5a 243d
000000e0: 6339 873d c4ec 1a3d bbca 64bd b438 89bd
000000f0: d671 1bbb 1080 833c 5cce fabc 1d83 8d3c
00000100: 8cfb a6bc 858a 90bd 82b9 2abd d880 b6bc
00000110: 3b1c 813d d3a8 84bd 9a9f 1b3a d710 aa3d
00000120: 394d 013c 9703 583c 0a9d c53b a6b1 4dbd
00000130: f609 1c3d bdb1 343d 1e1f 38bd a7e5 d33b
00000140: 8eb9 163d 1a1c 46bd a5a0 03bd 1371 17bd
00000150: 1acb a7bb 7e33 883d 7d7b aebd 4653 a13c
00000160: 88f0 17bb 1449 cebc 1bd9 9d3d e56c a53d
00000170: 566a 5a3d 6d37 e2ba be0f 79bd 00a1 78bd
00000180: 418b f0bb ceb4 4d3d 959f 183d 2d4a a83c
00000190: 4b60 723d 716e 403c d0b9 783d 98d8 89bd
000001a0: 9637 d5bc b7c2 043d b724 1abc 28e5 56bd
000001b0: e4b5 debc 2fd7 91bb 27af 553d 7db7 96bd
000001c0: f22f 7b3c b448 87bd 3857 2abd 72cc 883d
000001d0: f795 2ebd f522 8fbd c9be 8bbc 43f6 8d3d
000001e0: adde 94bb df1c 8abb 0712 45bd 01aa 9abd
000001f0: 108a d03c c3a2 903b 585a 093c 1a51 84bd
00000200: 91f2 383d bef0 5dbd 6e5d 0cbb 71e7 96bd
00000210: bb4d da3b 8468 3e3d c442 1d3c 4c4a 87bc
00000220: 4f28 82bd 5fae 1b3d 91c9 f5bc f87b 1a3c
00000230: 946b a0bd a317 993d 405d c4bc 1ab3 843d
00000240: af56 0e3c a58e f1bc e8e8 073d d533 a93d
00000250: c7fd fdbc 734c d53c fb01 613d 90cb 7cbc
00000260: a906 553c 3354 f73c 4b63 773d 231e 9cbd
00000270: f3b6 91bb 0987 1f3b b4ff d6bc 8f2c de3d
00000280: b210 d63d d982 59bd 83bc 013e c1d0 943d
00000290: 2b52 2ebd 54b7 ed3d aa6f 013d 8714 9c3d
000002a0: 83b3 7d3d ef2b e5bc 41d0 98bd daaf 9abd
000002b0: 6598 cebb 6d74 063d 6d53 87bd 721f 893b
000002c0: 28c6 703d 5704 883d 2d2d c9bc 418d 093d
000002d0: 7af5 b33c 0342 a13d a564 243c be87 d63c
000002e0: c590 81bd d0d9 a23d 72c7 c1bc 92b5 803d
000002f0: 3d7c 42bc 5b63 32bd 8ecd 26bd 0b83 a33d
00000300: e50a 19bd bdea 6bbd 8873 47bb f112 72bd
00000310: 9bef 993c b58d 433d 9d22 b93b 67f6 483c
00000320: dc31 b03c 7932 743d 5643 e9bc 3737 823d
00000330: 897d f9bc b3a7 ccbc c4ed 88bc 255f 8c3d
00000340: 7ecf 03bd b2e7 663d 1eb6 93bd a240 403c
00000350: e8e9 3fbd 6351 993d bfb7 94bd b0ed 073d
00000360: d075 293d 8ec9 f33c 9837 15bc 2346 773d
00000370: 495f 433c 0296 89bc 63e7 dabc 5ef9 1b3d
00000380: 2144 6bbd 463e c2bc d838 803d b317 61bd
00000390: 2685 623d ee1a 1cbd 096a e23c d83d 67bc
000003a0: 94d4 1dbc d424 8fbc 53a0 833d 7082 f33d
000003b0: 4c3b 6b3c 0fde cf3d 7dd0 df3d c0f0 b93d
000003c0: 52f5 e4b9 c58d 913d 3bf5 663d a8a9 f93c
000003d0: 55b6 073d 959c ab3d 68f6 e03d 3f32 613c
000003e0: 8a6b f03a 852a 52bb aba7 bb3b 8bfe 0dbd
000003f0: 2c9b 7f3d 9ea5 143c 9219 20bb 4ec2 9dbd
0.077556215 0.0287037 -0.007506561 -0.047286034 -0.015297655 0.04701123 -0.059242748 -0.03934056
-0.048594628 0.062306568 0.0799933 -0.043438774 -0.06498144 -0.055113908 0.06954955 0.029549949
0.044962283 0.021881508 -0.01435246 0.052874066 -0.07212841 -0.030101959 0.0017336686 -0.03616575
0.02700967 0.018538496 0.049920816 0.06788236 0.060090248 -0.011414407 0.013049234 -0.0124415485
-0.041713078 0.009429053 -0.055802215 -0.013749708 0.0045667067 0.017076392 0.01756435 0.046219148
-0.04317093 0.026922703 -0.0118914 0.05654155 0.06052084 -0.037331976 -0.00839572 0.031780865
0.076403886 -0.039703835 0.02588879 -0.029027779 -0.06586616 0.042480845 -0.059769906 0.040125426
0.066027425 0.037823454 -0.0558574 -0.067002684 -0.0023718975 0.016052276 -0.030615978 0.017274434
-0.020383619 -0.070576705 -0.04168082 -0.022278234 0.06304213 -0.06477513 0.0005936563 0.08303993
0.0078919465 0.01318445 0.0060306834 -0.050218247 0.038095437 0.044114817 -0.04495155 0.0064665857
0.036798052 -0.048366643 -0.032135624 -0.03697307 -0.005120647 0.06650446 -0.08519647 0.019693028
-0.002318414 -0.02518133 0.07707425 0.080774106 0.053324066 -0.001725895 -0.06080603 -0.060700417
-0.007340819 0.050221257 0.037261564 0.020543182 0.059173863 0.011745081 0.06072408 -0.06730765
-0.026027482 0.032412257 -0.009408168 -0.052464634 -0.027186342 -0.0044507007 0.05216899 -0.07359216
0.015331255 -0.06605664 -0.041587085 0.0667962 -0.042623486 -0.069890894 -0.017058747 0.06931736
-0.0045431466 -0.0042148675 -0.048112895 -0.07551957 0.025456458 0.004413934 0.008383356 -0.064607814
0.045153204 -0.054184668 -0.0021417993 -0.07368363 0.006662098 0.046486393 0.009598438 -0.01651492
-0.063553445 0.03800809 -0.03000334 0.0094289705 -0.07833019 0.074752115 -0.023970246 0.064794734
0.008687659 -0.029486964 0.0331811 0.08261839 -0.0310048 0.02603743 0.05493353 -0.015429392
0.013002076 0.030191517 0.060397428 -0.076229356 -0.004446858 0.0024341962 -0.026244976 0.108483426
0.10452403 -0.0531033 0.12669568 0.07266379 -0.04255883 0.11607233 0.03160063 0.07621103
0.061938774 -0.02797505 -0.07461596 -0.07553072 -0.006304788 0.032825876 -0.06607709 0.004184657
0.058782727 0.06641453 -0.024557674 0.033581976 0.021967638 0.07873919 0.010033761 0.026187774
-0.06326441 0.07951701 -0.023654673 0.06284632 -0.011870441 -0.043551784 -0.040723376 0.07983979
-0.037363905 -0.05759691 -0.0030433852 -0.059100095 0.01879101 0.047742564 0.005649878 0.012265778
0.02150815 0.059618447 -0.028474491 0.06358188 -0.030455368 -0.024982309 -0.016714938 0.06854085
-0.0321803 0.056373306 -0.072124705 0.01173416 -0.04685393 0.074862264 -0.07261609 0.03318566
0.04137212 0.029759195 -0.009107493 0.060369622 0.011924573 -0.016795162 -0.026721662 0.038079612
-0.05743802 -0.023711335 0.06260842 -0.054954242 0.05530276 -0.03811162 0.027638452 -0.014113866
-0.009633202 -0.017473616 0.06427064 0.11890113 0.014357399 0.10149776 0.10928438 0.090791225
-0.00043670327 0.071071185 0.056386214 0.030476406 0.03313287 0.08379475 0.10984498 0.01374489
0.0018342596 -0.00320688 0.0057267747 -0.03466658 0.062403843 0.009072689 -0.0024429304 -0.07703076

encoder_blocks.3.0.bias f4 [12]
00000000: 1baa 43bd f4fa ac3d fe38 d33d 59a2 a2bc
00000010: 9737 21bd fec4 d03d bb34 05bd 3f48 4dbd
00000020: 2e37 e73c f998 b0bd 8c62 2e3d 543c 263d
-0.047769647 0.08446303 0.10313605 -0.019852804 -0.039359655 0.10193823 -0.03252099 -0.050117727
0.028224554 -0.08622927 0.04257445 0.040584877

encoder_blocks.3.2.weight f4 [12, 12, 13]
00000000: 1e60 d93b ae3d 68bd ec9e 53bc 1719 5b3d
00000010: 3849 14bd 3831 84bd 786d 083d e9aa 2dbc
00000020: b258 53bd c67b 17bb 14b4 3fbd b0fb 063d
00000030: 1fe6 fbbb b2c2 d73c 08bd 58bb 5f55 2dbc
00000040: fb1c febc 9c32 31bd 35c1 223c e0b4 85bd
00000050: ce35 703d 227f 06bd 14cb 18bc 7822 873d
00000060: 7a08 0b3d f136 413d 18fc 78ba c055 26bd
00000070: dfe8 f33c 1a0a 85bd 0314 d53c ccb4 89bd
00000080: 8ddc 4b3d 86e0 5dbd 1f54 83bb 4c8d a13d
00000090: 40f3 6c3b 3ff5 78ba 8d44 1dbd 7d48 50bd
000000a0: 6190 763d e8eb 97bd 8c8c 813b 5ed4 a13c
000000b0: 2c01 213d fa73 4e3c 1207 ff3c 15fa febc
000000c0: 9636 04bd e02b 8b3d aee3 8bbd 3484 953b
000000d0: 9e7e 823d e966 7e3d ed8a 473d a473 4abb
000000e0: 96fc 20bb 2c8f 3dbd 8c84 e13b acf2 363d
000000f0: 3c66 873d 562a 55bc db88 bf3c 20ae d1bc
00000100: 8f18 4fbd cc63 02bd a24e 06bd b021 a1bd
00000110: 2581 923d 27d0 2bbd 58dd d6bc a9e7 473d
00000120: 96a7 903d 83c5 733d 8af8 943d 71e0 783c
00000130: d221 723d 9832 83bd 6337 aabc da96 94bd
00000140: 3e26 103d dfd8 82bd d5af 25bd 66a7 6abd
00000150: 019a 95bd 9b5b cdbb 3b98 5b3d 8845 9ebd
00000160: 7665 8cbc 6c3a 073d 4d3f 253d 7e69 36bd
00000170: 88ee 713c 6959 86bd 9e9f 9f3d d832 143d
00000180: 9c03 583d 680e a73c d4b8 ef3c b413 1f3d
00000190: 4e34 a1bc 713d 3bbd 065e 05bd 2892 0d3c
000001a0: 853f 353d 9945 f8bc 80ac 913d 1946 863d
000001b0: 63d3 d5bc 071f 953d aa11 b93b ce03 dabc
000001c0: 6251 9c3c 6c08 893d 2176 bbbc 289d 4e3d
000001d0: 2c91 03bb defc bb3b e924 c53a 2934 233d
000001e0: 5c6a 923d 0318 8f3c bc31 183d 6080 6dbd
000001f0: 8fe1 6a3d 52d3 14bc 7fd2 3dbb e891 7abd
00000200: ae14 8f3d a60e 12bd 124e 9b3d 79b9 94bc
00000210: 5ba5 2bbd 35f5 77bd 0aa6 47bd f02d 4e3d
00000220: 0e29 60bd c528 f9bc 7bd5 6bbc c2db 8abb
00000230: a68f f2ba 51c6 2d3c 1429 a3bd 2295 5e3c
00000240: d655 2e3d f4a3 b7bc 6940 52bd 3de3 13bc
00000250: ac35 81bd 87bc 0bbd 8a3b 77bc 2551 b439
00000260: 1b1f d0bc 10e7 ee3c ed37 90bc 73d2 dbbc
00000270: 3b1c 0b3c c0fd 47bd 757e 333d c02a 9d3c
00000280: 7f98 9ebc 677f 9c3d 22b7 963d 9d5a aabc
00000290: 9d4f 963d d46f a03c 0483 1b3c d498 13bd
000002a0: 2cf5 593d 6255 85bc a853 2a3d b672 a63c
000002b0: a96f 09bd 4cd9 303d b58f a0bd a666 05bd
000002c0: ceb3 9abd 8359 8e3d f47a 12bd 092a ac3b
000002d0: 670f 32bd 1859 ebbc 8485 be3c cfcb 8a3d
000002e0: 6bca 47bd 3f48 19bd 3259 f0bc 3134 733c
000002f0: ba58 66bd d652 b7bc d571 8c3d e187 5b3d
00000300: 03c0 df3b acc0 6a3d 046c dc3c 4fbd 78bc
00000310: 8293 173c b9f9 a5bd a7b5 d53a c688 f9bc
00000320: b4c4 48bd 9079 133d 9d19 9c3d 875a 20bc
00000330: ddfd ac3b 4c1d d53b 2eb1 1f3c 4898 1f3d
00000340: aa1b 24bd 753a 1fbc a5e2 6bbd a3f1 483d
00000350: 47ce 4d3d dd2c 59bd 005b 66bd a24b bc3b
00000360: ff97 7e3d 570e 89bc dd2f 56bd e078 583b
00000370: 1554 08bd 8ad9 a83c e724 053d a94b 963c
00000380: 1cf6 183d f6ff 0cbd 2048 3c3d 3f3a 8abb
00000390: 9eaf 14bc 7037 40bd d4ef 88bc 82cd 46bd
000003a0: dc1e e03c 833f 11bd 7cb7 56bd 8a46 8bbd
000003b0: 379c 92bd adbc ebbc 0e27 ba3c 7827 32bd
000003c0: 7d45 c83c a443 3dbd d6e4 873d 1008 b6bb
000003d0: 8411 4cbd 3047 7e3d 8ce5 6bbd bf30 36bd
000003e0: f094 3b3c 20f8 8fbb 705c 9f3d 8856 3abc
000003f0: 927c 923d 10ae 283c 1082 953d 64dc 593d
0.0066337725 -0.056699447 -0.012916308 0.053490724 -0.03620264 -0.064547 0.033307523 -0.01059983
-0.05159826 -0.0023114546 -0.046802595 0.03295487 -0.0076873447 0.026337955 -0.0033071656 -0.010579436
-0.031019678 -0.043261155 0.009933759 -0.0652864 0.058645062 -0.032836087 -0.009325761 0.06598371
0.03394363 0.047171537 -0.0009498014 -0.04060912 0.029774128 -0.06496067 0.026010519 -0.067239374
0.04977088 -0.0541692 -0.0040078308 0.07888278 0.003615573 -0.0009496994 -0.038395453 -0.05085038
0.060196284 -0.074180424 0.003953522 0.019754585 0.03930776 0.012600893 0.031131301 -0.031125108
-0.03227862 0.06795478 -0.06830536 0.004562879 0.063718066 0.06210986 0.048716474 -0.003089168
-0.0024564615 -0.046279117 0.006882256 0.044665024 0.066112965 -0.013010582 0.023380687 -0.025595725
-0.05056053 -0.031833455 -0.032789834 -0.078677535 0.071535386 -0.041946556 -0.026228592 0.048804913
0.070632145 0.059514534 0.072739676 0.01519023 0.059114285 -0.06406134 -0.020778364 -0.07255335
0.03519272 -0.06389021 -0.04045089 -0.05728855 -0.073047645 -0.0062670237 0.053611975 -0.07728106
-0.017138224 0.0330147 0.04034357 -0.0445342 0.014766343 -0.065600224 0.077941164 0.0361813
0.052737817 0.020392612 0.029262938 0.03883715 -0.019678261 -0.045712892 -0.03256037 0.008640803
0.04425003 -0.030306624 0.0711298 0.06556339 -0.026101774 0.072813086 0.0056478577 -0.026613142
0.019081775 0.066910595 -0.022883477 0.050442845 -0.0020075543 0.005736931 0.0015040907 0.039844666
0.07149193 0.017467504 0.037156805 -0.057983756 0.057344016 -0.009083586 -0.0028964577 -0.061174303
0.06986366 -0.0356585 0.0758325 -0.018154847 -0.041905742 -0.060536582 -0.04874233 0.05033678
-0.054726653 -0.030414948 -0.014394159 -0.004237623 -0.0018505945 0.010606364 -0.079668194 0.013585361
0.04256233 -0.022417046 -0.051330958 -0.009026346 -0.06309065 -0.03411534 -0.015089879 0.00034392733
-0.025405457 0.029162914 -0.017604792 -0.026833748 0.008490617 -0.04882598 0.04382177 0.019185424
-0.019359825 0.076414876 0.073591486 -0.02079516 0.07339404 0.019584574 0.009491686 -0.03603442
0.05321233 -0.016276065 0.041583687 0.02031837 -0.033553753 0.04317598 -0.0783991 -0.032568596
-0.07553826 0.06950667 -0.03576179 0.0052540344 -0.04347172 -0.028729007 0.023257025 0.06777155
-0.048777025 -0.037422415 -0.029339407 0.014843986 -0.05623696 -0.022378366 0.06857649 0.05359638
0.0068283095 0.057312652 0.026906975 -0.015181853 0.009251477 -0.081042714 0.0016304747 -0.030460726
-0.049015716 0.036004603 0.07622073 -0.009787208 0.0052792863 0.0065037366 0.009746833 0.038963586
-0.040065445 -0.009718527 -0.057589192 0.049058568 0.05024555 -0.0530213 -0.056239128 0.005746321
0.062156674 -0.01673047 -0.05229174 0.0033031031 -0.033283312 0.020611543 0.032505896 0.018346624
0.037344083 -0.03442379 0.04596722 -0.0042183693 -0.0090750735 -0.04692787 -0.016715921 -0.04853583
0.027358465 -0.03546096 -0.052421078 -0.06800564 -0.07158702 -0.028776491 0.0227237 -0.04349467
0.024447197 -0.046207085 0.06635444 -0.0055551603 -0.04982139 0.06207961 -0.05759196 -0.04448008
0.011449084 -0.0043935925 0.07781303 -0.01137317 0.07152666 0.010295406 0.07300198 0.053188697

encoder_blocks.3.2.bias f4 [12]
00000000: 5f15 9abd 9422 73bd 494c 8fbd 2078 31bd
00000010: f6a8 6fbc f3fc 073d 257c 8c3b 1074 b23b
00000020: b56e 6e3c c9e7 a93d dd8c 4d3d 60b5 db3b
-0.075236075 -0.05935915 -0.06996972 -0.04332745 -0.014627686 0.033200216 0.00428726 0.0054459646
0.014552762 0.08296163 0.050183166 0.006704971
