Python/save/localizer/trial_2/quake_localization_model_00190.pth (torch, 252994 bytes, 35 tensors)

encoder_blocks.0.weight f4 [12, 1, 13]
00000000: f5f6 3d3e a56e 493e 9c38 633e 3e8a ab3d
00000010: 69d8 3c3e cce3 d03d 6529 ddbd 7d4b 80bd
00000020: 13f2 53be 38c9 4bbe c8ad 45be da78 b13d
00000030: 52f4 b0bd 9a2b 5abe 8ef6 79be a5a4 82be
00000040: be41 01be 684c d73d 3bd4 29be 8d97 8d3e
00000050: fb00 47be 3882 a2bc 3ecc 963d 8ea4 303e
00000060: 9036 223e 0488 31bd 58ae 8e3d 316d b6bd
00000070: 76e0 023d ad41 8b3d bbe3 5ebe 4885 40be
00000080: 1088 1f3e c418 8bbd d202 d7bd c0ee e2bd
00000090: 2807 e2bb 181e e2bd c60e 7cbe 2533 a23d
000000a0: 25cd ec3c 20fa 53be 4bd9 9a3d aab5 23be
000000b0: 13b8 0abe 3706 ac3d 9e56 113d 8595 163d
000000c0: e8b0 b9bd 2929 3d3b 0e8d 863e 490f 80be
000000d0: 2129 5a3d eb89 3c3d e446 b4bd 8194 c5bb
000000e0: 11e4 13be defe e9bd f9eb 12be f810 373e
000000f0: cccd 0ebd 8773 f73d 0f1e 42bc c5c8 08be
00000100: b214 2bbe e8c5 b2bd 059f 713e 0535 c63d
00000110: 717d f2bc e116 68bd 6261 9b3d 8b17 623e
00000120: 99ba 6fbe 069f 9e3d 036a 1b3e ad16 4abe
00000130: eb69 643e 94e6 2d3e f3f3 e8bd bd08 d83c
00000140: 40aa fe3d 3a0f d83d e98c 883d 0dc4 04bd
00000150: 8753 a8bd d4c0 783e 5a04 133e 0dd3 123e
00000160: 6e04 89be fb5b f53d 778d 1abe 7f31 c23d
00000170: 05e7 c6bd 3c7e 4abd d633 da3d 4c59 4fbe
00000180: 9469 8b3e 6ada 4b3e 386a b2bd 19ef 0e3e
00000190: 0856 2cbe 3604 313c 2a69 5e3e 6b15 9c3c
000001a0: b423 30be c666 8dbc 55c2 2abd 1dd4 99bd
000001b0: 43f4 2b3e 5fa5 473e 8037 3f3e 158a 803e
000001c0: 61dd 203e 2869 3f3e 102f 673e 7047 09be
000001d0: a2ef 1e3e 9972 863e bb6b a9bd 6184 48be
000001e0: 3a51 5dbe e67b 573b 12be 34be 8214 4abe
000001f0: 23a5 063e d61f 573e f0f8 41be 03f6 883e
00000200: 29e6 583d 46d3 d63d 592b 8f3e 18c6 5fbe
00000210: 66e0 8a3e a96c c33c a171 06bd aafc 503e
00000220: 9e22 f53d 6395 c53c 53e0 20bd e519 52bd
00000230: 3b18 efbb d51a d9bd dcb4 3bbe 8f9d 963d
00000240: 40ee 163e acaf 54be 5101 62bd 7cbb 68be
00000250: d81c 8abe 1fee b43d cf41 73be e1ed d6bd
00000260: cfe9 2fbe f031 6f3e 369a 41be 424a f8bd
0.18551238 0.19671114 0.22189564 0.08375977 0.18441929 0.10199699 -0.10798911 -0.06264398
-0.20697813 -0.19900978 -0.19304574 0.08665629 -0.086403504 -0.21305695 -0.2441046 -0.2551624
-0.12622735 0.1051262 -0.16584866 0.27654687 -0.19433968 -0.019837484 0.07363175 0.17250273
0.15841126 -0.043342605 0.06966847 -0.08907545 0.031952344 0.06799636 -0.2176656 -0.18800843
0.15579247 -0.06791833 -0.10498585 -0.11080694 -0.0068978257 -0.11040896 -0.2461501 0.07919911
0.028906414 -0.20700884 0.075609766 -0.15987268 -0.13546781 0.08399623 0.035482995 0.036763687
-0.09066945 0.0028863645 0.2627949 -0.25011662 0.05326188 0.046029966 -0.08802584 -0.006029666
-0.14442469 -0.11425565 -0.14347829 0.17877567 -0.034864232 0.12082582 -0.011847987 -0.13357837
-0.16707113 -0.08729154 0.23595817 0.096780814 -0.02960083 -0.056662444 0.07586934 0.22079293
-0.23411025 0.07745175 0.15177159 -0.19735213 0.2230603 0.1698249 -0.113746546 0.026371354
0.12434816 0.10549779 0.066675015 -0.03241353 -0.082190566 0.24292308 0.14357129 0.14338322
-0.26761192 0.119804345 -0.15093027 0.09482097 -0.09712032 -0.049436793 0.10654418 -0.20248908
0.27228987 0.19907537 -0.08711666 0.13958396 -0.16829693 0.010804227 0.21719804 0.019053182
-0.1720112 -0.01726092 -0.041689236 -0.075111605 0.16792397 0.19496678 0.18673515 0.25105348
0.1570945 0.18692458 0.22576547 -0.13406157 0.155211 0.26259306 -0.08272501 -0.19581749
-0.21613017 0.0032880246 -0.17650631 -0.19734386 0.13148932 0.21008238 -0.18942618 0.26750192
0.052953873 0.10489516 0.2796276 -0.2185291 0.27124327 0.023855524 -0.03282321 0.20408884
0.11969493 0.024119085 -0.039276432 -0.051294226 -0.0072965897 -0.10600821 -0.18330711 0.07354271
0.14739323 -0.20770139 -0.055177037 -0.2272777 -0.2697513 0.088344805 -0.23755573 -0.104945906
-0.17179035 0.23358893 -0.18906483 -0.121235386

encoder_blocks.0.bias f4 [12]
00000000: 53cd 29be fc5f 303d 1167 833e 0b19 f9bd
00000010: 4d9a 873e aa5f 73be c6e4 4e3d 895a cb3d
00000020: 5d71 7e3d 6d35 a5bd 19f3 933c fe38 ca3d
-0.16582231 0.043060288 0.2566457 -0.1216298 0.2648491 -0.23766962 0.050511144 0.099293776
0.06211983 -0.08066831 0.018060254 0.09874152

encoder_blocks.1.0.weight f4 [12, 12, 13]
00000000: bd91 63bc 6e1e 5b3d 7464 8a3d 0148 d5bc
00000010: c228 42bd 11f6 653d a650 39bd 56c2 9d3c
00000020: 40bd 45bd 685c cebc ac6d 0ebd 15c6 573d
00000030: 51c3 303c 0545 6f3d 01e4 43bd 70de 99bc
00000040: 6c90 4dbd e3f5 773c 2d6e f43b 8351 53bd
00000050: c2b7 bdbc eb6a 90bd ced2 b5bc 188f aabc
00000060: 586b 38bd 6fe6 323d 627a 99bb ce64 893d
00000070: 2e8f 4ebb 8a01 c53b 5c08 68bd 6f3d 8dbd
00000080: 9962 9b3d 28d2 a5bd 074c 773d e07b 5abc
00000090: 9a0f 533d 80a6 a73d b68a 913d 80cd a4bd
000000a0: 0451 193d 55e6 82bd 537d 013d abe8 033d
000000b0: 4742 893d 0dc5 703d 8da4 9e3c fef5 72bd
000000c0: 83d3 9fb9 dd24 a3bd 86da 88bd e518 7d3d
000000d0: b48c ff3b 8b5a 383d 9caa 343b a14f 8ebd
000000e0: dbd0 903d 1f0e 323d b057 bcbc 1956 1d3c
000000f0: 7e62 ce3b c662 24bc 7db3 64bd 459d a33c
00000100: 7b21 a3bc 52e1 263d 8de5 0ebd 270d e43c
00000110: 29d4 303c d6ab 3fbd 71a6 6bbd 0927 50bd
00000120: d499 783d 6089 8fbd c6de 2e3d c349 973d
00000130: 7d9c f13c 1e5a 3ebd c755 0a3d 301c a2bd
00000140: b400 793b 5267 4d3d 9268 a23d f2ca 45bd
00000150: 910a 85bd fcf4 753c aace 43bd 64b3 603c
00000160: 3133 6a3d 2981 893d e45f ae3c c161 36bd
00000170: 539e 8f3a 73bc 00bd 94b7 43bd 417c 91bc
00000180: 4def 09bd 7d90 62bd 8b4a 853d 2af3 4f3d
00000190: 9eac 8abd 2ef4 01bc 0deb a3bc fda5 f73a
000001a0: 9733 8b3d 8511 d8bc cea3 873b 1cfa 99bd
000001b0: d7e5 ef3c c6b9 3fbd 0ead b73c 0747 06bd
000001c0: 9683 19bc 00d9 313d 479c 163d 3185 693d
000001d0: d098 8b3d b365 86bc b222 04bd 9a23 a9bc
000001e0: 71f0 073c 8280 0b3d 48f2 35bd 9cf5 9bbd
000001f0: 78e5 8dbd ecb3 4cbc 58f9 a0bc 3177 84bc
00000200: 1088 00bd 0cc3 79bd 9cd2 f9bc 5664 103c
00000210: 995e 8dbd 478f a93c d49a 0fbd 300b 8a3d
00000220: 92c8 8bbc 2a49 903b 7aef 26bd 8bf3 03bc
00000230: 7b1e 7fbd 4853 23bd 8007 9abc 6959 bcbc
00000240: e201 323d cfcb acbc 8ed4 88bc c545 813d
00000250: 2487 8bbd 4214 a73c 0637 1dbd 9644 e43c
00000260: f1f6 143d 80f9 26bd 7937 343d 9aaf 97bd
00000270: 3f1e 00bd c071 283d 587c 85bd 733c 363d
00000280: cbd5 ff3c 9686 95bd f84f 77bd 9c87 2d3d
00000290: f04f 9b3d 1146 8a3d 3a77 4abd 1559 5c3d
000002a0: 3b9c 703d 01b6 97bd 7475 71bd 38c1 2f3d
000002b0: ba9b 8d3d ecdf 6e3d cc58 843d fc95 193d
000002c0: 2808 9d3d a367 c33c 28a7 1dbc 0b3d f73c
000002d0: 45a6 78bd eec6 8c3d 55d5 c738 e137 153c
000002e0: 3bd7 a23d e17d 933d f2d2 153b fe82 0cbd
000002f0: 6399 4ebd 1c65 41bd 550f 383d 2b55 00bd
00000300: e27d 87bd 9ada 053d 0b2a ae3d 57b9 223c
00000310: fa26 3b3c 789d 873c adb7 d63c 2d3e 8c3c
00000320: a250 0fbd 283e 82bd 40d6 c1bc 5408 d63c
00000330: 3c7a 01bd e948 a53d d070 dbbc 4eed 983d
00000340: 22e8 20bd 2ea3 5cbd 037d 16bd f353 7fbd
00000350: b9b7 2f3c 653d d7bb a52d 483d e0af 8cbd
00000360: 55a1 d63a 64c4 c3bc a6ae 4b3d 5c12 32bc
00000370: 21a9 933c a702 8a3d 7fd6 0b3b f9fd 933b
00000380: 7c0a 4b3d 6d5c d43b d231 233c c703 ca3b
00000390: c071 d93c 8009 363d 4819 9abc 55d0 33bd
000003a0: 6df9 e1bc 3fa8 213d f3b1 d93c 372d debc
000003b0: 3e92 903d d163 85bd cd4e 62bd 4110 973d
000003c0: 812b ea3c 46c3 4f3d 2cac 063c bc2d 8fbd
000003d0: 02d5 2bbc e709 8c3c e0e8 3bbd 1738 96bd
000003e0: 8845 fbbc 82c6 efbc 3ef5 553d 3347 8c3d
000003f0: cdb0 70bd b6a5 d93b 6d1e 64bc 8421 cf39
-0.013889727 0.053495817 0.06757441 -0.02603531 -0.04740215 0.05614287 -0.045242928 0.019257706
-0.048276186 -0.025190547 -0.03477256 0.05267914 0.010788755 0.05841543 -0.047824863 -0.018782824
-0.05018656 0.015134308 0.007459423 -0.051591408 -0.023158912 -0.07051643 -0.022195246 -0.020820186
-0.045024246 0.04367679 -0.0046837786 0.0670868 -0.0031518447 0.0060121464 -0.056648597 -0.06896483
0.075871654 -0.08096725 0.06037524 -0.013335198 0.05152855 0.08186054 0.07106535 -0.080470085
0.03743078 -0.063915886 0.03161366 0.03220431 0.067020945 0.058781672 0.019365573 -0.059316628
-0.00030484432 -0.079660155 -0.06682305 0.06179132 0.0077987555 0.045008224 0.0027567511 -0.06948782
0.07071086 0.0434705 -0.022991031 0.009603047 0.0062983623 -0.010033315 -0.055835236 0.019972453
-0.019913426 0.040742226 -0.034886885 0.027838303 0.01079277 -0.046794735 -0.057531778 -0.050818477
0.060693577 -0.07008624 0.042692922 0.07387116 0.029493565 -0.04647266 0.03377321 -0.079155326
0.0037994804 0.050147362 0.079301015 -0.048289247 -0.06496156 0.015012022 -0.047804512 0.013714645
0.057177726 0.067140885 0.021285959 -0.04452682 0.0010957218 -0.03142972 -0.047782496 -0.017759444
-0.03367548 -0.055313576 0.065083586 0.05076901 -0.06771205 -0.007931752 -0.020009542 0.0018894073
0.06796949 -0.026375541 0.0041394 -0.07518408 0.0292844 -0.046808027 0.022421386 -0.03278258
-0.009369751 0.043419838 0.03677013 0.057011787 0.06816256 -0.016405916 -0.03225965 -0.020646859
0.008297072 0.0340581 -0.04442051 -0.07615206 -0.06928533 -0.012494069 -0.019650146 -0.016170116
-0.03137976 -0.060977027 -0.030495934 0.008812984 -0.06902809 0.020698203 -0.035059765 0.06740415
-0.017063413 0.004403253 -0.040755726 -0.008053671 -0.062284928 -0.039874345 -0.018802404 -0.022991853
0.043458827 -0.021093277 -0.016702916 0.063121356 -0.068128854 0.020395402 -0.038382553 0.027864736
0.036368314 -0.040765285 0.043998215 -0.0740654 -0.031278845 0.041124105 -0.06517857 0.044491243
0.031229874 -0.07301061 -0.060379 0.042365655 0.07583606 0.06751645 -0.04943011 0.053795893
0.058742743 -0.07407761 -0.058949903 0.042908877 0.06914468 0.058319017 0.06462249 0.037496552
0.07667571 0.023853129 -0.009622373 0.030180475 -0.060705442 0.0687388 9.5287956e-05 0.009107561
0.07951208 0.07201744 0.002286133 -0.03430461 -0.05043925 -0.047215566 0.044936497 -0.031331223
-0.06615807 0.032679178 0.08504113 0.009931884 0.011422867 0.01655458 0.02621063 0.017119491
-0.034989007 -0.063595116 -0.023661733 0.026127018 -0.031610712 0.08070547 -0.026787192 0.07467137
-0.03928388 -0.053866558 -0.036740314 -0.06233592 0.010724955 -0.006568598 0.048871655 -0.06869483
0.0016374985 -0.023897357 0.049727105 -0.010868635 0.018024983 0.06738787 0.0021337566 0.00451636
0.049570546 0.0064807446 0.009960609 0.006165001 0.026543498 0.044442654 -0.018810883 -0.043899853
-0.027584756 0.039467093 0.02657411 -0.02712117 0.070591435 -0.06513179 -0.05525093 0.07376147
0.028585197 0.050723337 0.00821976 -0.06991145 -0.010487797 0.017094566 -0.045876384 -0.07334917
-0.030672804 -0.02926946 0.052235834 0.06849518 -0.05876236 0.0066420687 -0.01392327 0.00039507088

encoder_blocks.1.0.bias f4 [12]
00000000: ed02 963c 6187 3aba f2b2 74bd 87be 803d
00000010: b6fd afbd d09d b93c 7cae 05bd 42bc b9bc
00000020: fbc6 553d 4263 a93d c632 8c3d 15ab f23c
0.018311942 -0.000711551 -0.059740968 0.0628634 -0.085933134 0.022658259 -0.032637104 -0.022672776
0.052191716 0.08270885 0.06845622 0.029622594

encoder_blocks.1.2.weight f4 [12, 12, 13]
00000000: deb8 653d f9ea 4dbd 46b3 423d 4686 a53d
00000010: 039c 473d c7f3 153d ee59 0b3c d122 10ba
00000020: 1d29 4abc bcff febc e97e bbbb a296 17bc
00000030: 36a4 7d3d f2f1 6bbd 272b 853c ffb4 30bc
00000040: 15c3 0d3b bd9c 3a3d 5624 993d 4456 8abd
00000050: 6ac8 a33d 9e56 69bd 4ede a53d 50d6 60bc
00000060: 1338 643d 5485 6d3d 3b6a 51bd 761d 9bbd
00000070: f48f 363d b74e 543c f9eb 5cbc 730f 0bbd
00000080: 4f0d 9ebd d70a 5ebd 9de9 8e3d 7d37 ea3c
00000090: e6e9 573d abf0 18bd 2c0c 213d fc1c 333c
000000a0: 17c5 f9bc 1b3b 07bc ceb2 093d 075a 96bc
000000b0: 88c3 533d a65a d13b 0cc1 3fbd 08b6 5b3c
000000c0: 56e2 8c3c 3a96 80bd 9732 79bd d921 923d
000000d0: ffd3 803d 6670 783c 1347 61bd 68a4 3abd
000000e0: 89ae 763c deaf 03bc a798 cb3b e94b 913d
000000f0: acc6 ec3c d42b 89bc 6338 65bd 45e2 9b3b
00000100: 78e1 cf3c d009 8c3d 4407 19bd 4262 87bd
00000110: 5cc2 653c cc48 7abd a0f8 743d b6f9 c2bc
00000120: 5d35 95bd 6af6 98bd 83e5 0dbc f48a 2a3d
00000130: 6321 12bd 2ca6 c9bb 60f2 30bc 1e86 243d
00000140: 8c7f 113d 23f5 f6bc d8ac 1a3c cb82 fd3c
00000150: 2c3f debb 8819 6abc 343b b43c 7338 683c
00000160: 7847 74bd 2df8 3b3d 19fa f7bc 8f94 943d
00000170: 84d4 463a 6a35 243d 9040 963c 8bf2 963d
00000180: f248 55bb c8ed 653c c942 9cbd 2841 c13c
00000190: b1ef 383c 0e4b 42bd 3e16 92bd d255 a23d
000001a0: dcc2 93bd d96e 363d e6e4 2cbc ccd3 28bc
000001b0: 7c09 8dbd ee1c ec3c d675 083d 57bb d33c
000001c0: 1f0c d6bc c984 e33c e67e 00bd 6720 f83c
000001d0: 80d9 003b dba5 643d 7d13 ccbc 65cc 70bb
000001e0: d13d 81bd 1e48 3c3d 1f0b 953d 741e 813d
000001f0: 5e41 a2bd ad33 753d c12e 54bc d155 cebb
00000200: d338 223d ca05 2b3d e67e 25bd b791 c0bc
00000210: f8cd 703d 8201 6ebd 5091 2b3d 7b13 23bd
00000220: 2b0a 59bd 9304 a13d 9842 55bd 2ce8 0abd
00000230: 16b8 9a3d 19a9 57bd 44c9 8f3d 8955 98bd
00000240: c80f b2bc 77c7 b7bc f234 a43d 510a f13c
00000250: f6b9 03bd c02a 8a3d a79b c03c 40d2 8f3d
00000260: 5d97 e73c 4a09 7d3d 8e93 9c3d e1b6 0ebd
00000270: 0eb1 dc38 aa05 03bc ec6e 7ebd 9efe 88bd
00000280: e0bf 78bc 0095 a2bd db55 b83c 32d0 4cbd
00000290: 7ab6 babc 626d 183d 972d 4a3d 5c41 adbc
000002a0: c25d 01bd 7653 a1bd d682 d1bc 1839 a63c
000002b0: 265d 26bc 3450 7b3d a98b b03d 0ed6 3a3c
000002c0: 27f6 2a3d 9c35 933d 16d9 b33b b799 a4bd
000002d0: 97c7 7a3d 7d74 89bd d411 44bd 143a 823c
000002e0: 01d5 823d 9788 f63c 72b0 32bc de98 6a3d
000002f0: 242a a4bd 2481 a13d a4d1 3ebc 934b f93c
00000300: da65 49bc 721a 9b3d 0a75 cb3b 9264 08bd
00000310: 0b85 d23b 2d98 7dbb 0ce0 553d abb4 06bd
00000320: 878f 79bd 65d9 603b a693 85bd 876e 43bd
00000330: ca93 8e3d d84d 183d 9a03 6dbd cd36 3f3c
00000340: f8c3 513d baf7 ffbc b0dc f2ba 50d0 60bd
00000350: 4871 1cbd 6ec6 993d 3b7c 83bd 4a36 a63d
00000360: 7996 1ebc baa4 cfbc 8084 b93c 66f7 0a3d
00000370: 44cb 12bd a68e 8c3d a2be 753d 2e91 a9ba
00000380: 1e21 dbbc bda2 97bd 6be2 413d 78be 0d3d
00000390: 1a32 86bd dff3 973d 8a3a 573d 6835 2e3d
000003a0: a18b 90bd 8bea 893d 4ba9 5fbc 100a a13b
000003b0: 553f 33bd 5e53 dcbb 1176 cdbc 44b9 1f3c
000003c0: db09 813d 01b2 61bd 471d 843c d2af 823c
000003d0: e1e6 e73c 6180 173d b9c0 9bbd 65b4 b13c
000003e0: dc17 99bc d4ff 533d af19 c03c 910a 66bd
000003f0: 0097 183d 565f 8d3d 3605 6cbd 131b 70bd
0.056084506 -0.050272916 0.04753425 0.08082251 0.04873277 0.036609437 0.008505328 -0.0005498352
-0.012338904 -0.031127803 -0.005721916 -0.009252222 0.061924182 -0.057603784 0.016255928 -0.01078534
0.002163117 0.045559634 0.07477634 -0.06754735 0.0799721 -0.05696737 0.08099042 -0.013722971
0.05571754 0.05798848 -0.0511267 -0.075739786 0.04457088 0.01295822 -0.013483995 -0.03395028
-0.07717382 -0.054209556 0.06978152 0.028590912 0.052713297 -0.037338894 0.03931825 0.010932203
-0.030489488 -0.008253838 0.033617787 -0.018353475 0.051700145 0.00638898 -0.046814963 0.013410099
0.01719777 -0.062786534 -0.06083926 0.07135362 0.06290435 0.015163517 -0.054999422 -0.045566946
0.015056261 -0.0080375355 0.006213266 0.07094557 0.028903328 -0.016744532 -0.055961978 0.004757198
0.025376067 0.06837809 -0.037360445 -0.06610538 0.01402339 -0.06110458 0.05980742 -0.023800712
-0.07285569 -0.07468875 -0.008660677 0.041636422 -0.03567637 -0.0061538424 -0.010799974 0.040166967
0.03552203 -0.030146187 0.009440623 0.030946156 -0.006782433 -0.014288314 0.022000886 0.014173615
-0.05963847 0.045890976 -0.030270623 0.07254898 0.0007584768 0.040090002 0.018341333 0.0737048
-0.00325447 0.014033742 -0.07629926 0.02359064 0.011287616 -0.04743486 -0.071331486 0.07926525
-0.07214901 0.044539306 -0.0105526205 -0.010304403 -0.068865746 0.028822388 0.033315502 0.025846167
-0.026128827 0.027773278 -0.03137102 0.030288888 0.001966089 0.055822235 -0.024911636 -0.0036742922
-0.06310619 0.045967214 0.07277512 0.063046366 -0.07922624 0.059863735 -0.0129506 -0.006296851
0.039604973 0.041753568 -0.040404223 -0.023506982 0.058790177 -0.058106907 0.041886628 -0.0398135
-0.052988213 0.078622006 -0.052065462 -0.033912823 0.07554643 -0.0526515 0.0702081 -0.074381895
-0.02173604 -0.02243398 0.08017911 0.029423865 -0.032159768 0.06746435 0.02351172 0.07022524
0.028270418 0.061776437 0.07645331 -0.034842376 0.000105233965 -0.007996956 -0.062117502 -0.066891894
-0.015182465 -0.07938576 0.022501877 -0.050003238 -0.02279209 0.03721369 0.049359884 -0.02114933
-0.031583555 -0.07877247 -0.025575083 0.020290896 -0.010154044 0.061355785 0.08620388 0.011403574
0.041738655 0.071879596 0.005488525 -0.08037131 0.0612255 -0.067116715 -0.047868565 0.015896834
0.063882835 0.030094428 -0.010906326 0.05727469 -0.0801585 0.0788596 -0.011646662 0.030431544
-0.01229235 0.075734034 0.0062090205 -0.033299036 0.0064245514 -0.003869544 0.05221562 -0.032887142
-0.060927894 0.0034309265 -0.06522302 -0.04771283 0.06961782 0.037183613 -0.057864763 0.01167078
0.05121228 -0.031246055 -0.0018528905 -0.054886162 -0.03819397 0.075085506 -0.064201795 0.081158236
-0.00967943 -0.025347102 0.022646189 0.033927344 -0.03583838 0.068631455 0.059996255 -0.0012936944
-0.02674919 -0.07404087 0.04733507 0.034605473 -0.06552525 0.074195616 0.05254606 0.0425314
-0.07057882 0.06734189 -0.013651202 0.0049145296 -0.04376157 -0.0067238053 -0.025080713 0.009748761
0.06300708 -0.0551014 0.016127242 0.015952978 0.028308334 0.036987666 -0.07605118 0.021692464
-0.018688135 0.05175765 0.023449747 -0.05616242 0.03725338 0.069029495 -0.057622157 -0.05861957

encoder_blocks.1.2.bias f4 [12]
00000000: 6339 8fba 008d 223a a338 943d a1d4 ef3c
00000010: 8bcc b43c 24f3 23bd b9cc 3ebd ff7a 94bd
00000020: b7d0 263d 9e91 453d 8213 7b3d 4172 4dbc
-0.0010927137 0.000620082 0.07237365 0.029276194 0.02207019 -0.0400268 -0.046581957 -0.07250022
0.04072639 0.048234574 0.0612979 -0.012539447

encoder_blocks.2.0.weight f4 [12, 12, 13]
00000000: 8b1e 9b3d 5067 66bc 47b1 e13c 3732 4a3d
00000010: c2e7 ef3b 6126 0e3d 40fd 9d3d 40f7 163d
00000020: 088b a63c 1191 a0bd f7c0 3a3d 5bfe 8dbd
00000030: b065 5a3d d0ef 93bd fdf8 883d 65c7 1abd
00000040: aa28 babb 1956 6a3c d322 89bd 1866 abbc
00000050: f0bf 353d c7cc 9cbd 5464 043d a03b 9cb9
00000060: 460a 2e3d 09d1 80bd 07e6 3f3d 4b79 22bd
00000070: 8b28 8cbd 1e56 36bd edfc 103d d4d3 653a
00000080: c401 79bd 1f3b 02bd e9b3 ba3c c5fd 48bd
00000090: 040a 2c3c c4fa 863b 074e 7a3d 61dd 193d
000000a0: bcf9 a6bd 60dc 3cbc b6e6 713d 0721 083d
000000b0: f184 813c cbd7 5fba a40e 04bd 0dba 72bd
000000c0: 8b93 a33d fd54 453c b39e 0a3c cb4c 3f3d
000000d0: 5563 333d 055a cbbc a635 283d 9a96 3a3c
000000e0: 4078 c63c 397d 7e3d 4e31 573d a49a 8fbd
000000f0: 77af 13bc 53bf fe3c e771 813d abdb b13c
00000100: c2f2 373b 1a8b d8bc 3b80 b03c d898 703c
00000110: db57 88bd 8211 90bd e644 98bd b36d e8bc
00000120: 2dd7 843d b8fd d33c 3b5b 9cbd b0a7 6cba
00000130: 3a61 23bd a2c9 7a3d 1872 2c3d 5699 43bb
00000140: 63a3 25bc 7023 b23a a19c 26bb 2b0d 0238
00000150: 20b3 9a3c d50d 2bbd d331 10bd 968e 81bd
00000160: d582 0bbd 029f d83b 0d57 4b3d a1c9 37bd
00000170: 82f8 96bd 3103 683d 582e 13bc ff81 47bd
00000180: d604 ba3c 14c5 54bc 6824 cfbc 24c2 9d3d
00000190: 6df2 5ebd 0353 903c 4607 413d ad4c 2dbd
000001a0: d965 99bc b81e 3bbd 013a b83c 7645 6abd
000001b0: d52c 8e3d c67e 9c3d 6805 f7bc 066c 5d3d
000001c0: 12b6 90bd fc1d 0bbc 2536 073d 1013 7ebd
000001d0: 3e39 2abd 1c01 13bd 54c5 073c d540 0ebc
000001e0: 72dc 81bd f6f0 9b3d 8998 94bd d514 2f3d
000001f0: f61b 83bc 8e21 7dbd e584 7c3c cd5a 21bd
00000200: ce62 14bd 592f 4cbd 86c3 91bd 8854 80bd
00000210: 23db 96bd 22e1 00bc aa10 993c ad9b d63c
00000220: 73d9 8c3d d599 cf3a 3245 ecb9 679b 813d
00000230: c470 263d 28b1 ea3c f07b 62bd a28c c73b
00000240: 01a8 87bd a58e 60bd 938c 8d3d 57a3 89bd
00000250: 9af3 59bd cbe4 b93b e8be bc3c ad88 7739
00000260: 9d90 903c f441 9f3d 35e1 5abd 1321 6b3d
00000270: 2ac9 643d d03f 20bd d658 ed3b 07da 4e3d
00000280: 9ecb 14bd 3d23 123d 01fe 79bc b4aa 1ebc
00000290: 9012 913c 07ac e13a 6768 273d a3d4 8d3d
000002a0: e3c4 0ebd a047 a83d 45fe 323d 7ee8 aebc
000002b0: f6d4 38bd efe7 1ebd 8c6f 683c b64f 1c3d
000002c0: 01a1 b2bc ab2c f9ba 7094 763d c1e6 2d3d
000002d0: 669e f8bc 07ef 9c3d 0adf 62bb 933a d53c
000002e0: 0921 36bd cd4d 3b3d 1953 8c3d fe2f 573a
000002f0: c968 afbc 6861 893c 0132 76bd 290f b9bc
00000300: 16b0 f03c f3b2 37bb bf69 813d 2729 8b3d
00000310: 94d4 7f3d 2bff 753d 4c7d 65bd d114 883c
00000320: adac 8c3c 7e19 353d 9f09 d3bc 0700 eb3c
00000330: 77b7 88bb f458 823d 84bd 23bc 267e 63bc
00000340: eb2d 9a3c 1b47 013c 2b2a 033d cc5a 963d
00000350: 63e2 6fbd 071f 5c3d ff93 e23b df3e 87bc
00000360: 42cc 51bd a247 92bd bd20 98bd ff20 fb3c
00000370: e07b 5d3d 15d5 7c3c 88bb 353d 5413 6dbb
00000380: 8db7 8bbd 9a04 583d ded1 9a3d 83c4 78bd
00000390: fcab cabc 426e 883d d6c3 f2bc 05dd 67bd
000003a0: fd6d f93c 6a02 6a3d a8fb 92bd cb6f 113d
000003b0: ced8 f13c c93f 3dbd 6031 643d 2a05 88bd
000003c0: 9088 e2bb ed15 213b 824d 4f3d 48a0 183d
000003d0: a2d6 9bbd 3bb1 8c3d 4942 35bd 9930 22bd
000003e0: 611b fe39 a4bd 39bd e954 2f3d d26b 3b3d
000003f0: 8ee7 abbc 536b 18bc 3ace 6c3c fdb6 15bd
0.07574185 -0.014062718 0.027550353 0.049364295 0.007321329 0.03470457 0.07714319 0.03685689
0.020329967 -0.07840169 0.045594182 -0.0693328 0.053319633 -0.07223475 0.06688116 -0.037787814
-0.005681117 0.014302754 -0.06696095 -0.020922706 0.0443725 -0.07656246 0.032322243 -0.00029799063
0.042490266 -0.0628987 0.04685023 -0.039666455 -0.068436705 -0.04451572 0.03539746 0.00087672216
-0.0607927 -0.031794664 0.022790866 -0.04907014 0.010500435 0.004119249 0.06110957 0.03756464
-0.08153102 -0.011527151 0.059057914 0.033234622 0.015810462 -0.00085389306 -0.032240525 -0.059259463
0.07987126 0.012044189 0.008460688 0.046704095 0.043795902 -0.024823198 0.041066788 0.011388445
0.024227262 0.06213114 0.052537255 -0.07011917 -0.009014002 0.03109709 0.06320553 0.021711191
0.002806828 -0.026433516 0.02154552 0.014684878 -0.06657382 -0.07034589 -0.07435016 -0.028372621
0.06486354 0.025877818 -0.07634588 -0.0009027673 -0.039887644 0.06122745 0.042100996 -0.0029846034
-0.010109755 0.0013590883 -0.0025422948 3.100668e-05 0.018884242 -0.041761238 -0.035203766 -0.06326024
-0.034060318 0.006610752 0.049643565 -0.044870023 -0.07371618 0.05664367 -0.008983217 -0.04870796
0.022707384 -0.01298644 -0.025285915 0.07703045 -0.054430414 0.017617708 0.047126077 -0.04230945
-0.018725323 -0.045683593 0.022488596 -0.05719515 0.06942145 0.076413676 -0.030153945 0.054058097
-0.07065977 -0.008491036 0.03301062 -0.0620299 -0.041558497 -0.03588973 0.008286793 -0.008682449
-0.06340875 0.07614319 -0.07255656 0.042744476 -0.016004544 -0.06179958 0.015412544 -0.039393235
-0.03622704 -0.04984984 -0.07117371 -0.06266123 -0.07366016 -0.007866176 0.018684704 0.026197279
0.06877413 0.0015838692 -0.00045064982 0.06328469 0.040634885 0.028648928 -0.055293977 0.006089763
-0.06623841 -0.054823536 0.06911578 -0.06720608 -0.053210832 0.005673026 0.02304025 0.00023606671
0.017647082 0.077762514 -0.05343743 0.05740459 0.055855907 -0.039123356 0.007243256 0.050500896
-0.036326997 0.035678137 -0.015258313 -0.0096842535 0.017709047 0.0017217406 0.04087105 0.06925323
-0.034855735 0.082167864 0.04369952 -0.021351095 -0.04512497 -0.038795408 0.014186751 0.038161956
-0.021805288 -0.0019010504 0.060200155 0.042456392 -0.030348968 0.07662778 -0.0034617805 0.026028907
-0.0444651 0.045728493 0.06851787 0.00082087505 -0.02141227 0.01677008 -0.06010628 -0.022590237
0.02938084 -0.0028030246 0.063189976 0.067949586 0.06245859 0.0600578 -0.056027696 0.016611489
0.017172182 0.044213764 -0.025761424 0.028686536 -0.0041722613 0.06364623 -0.0099939145 -0.013885057
0.018820724 0.007890488 0.032022636 0.07341537 -0.05856551 0.053740527 0.006914615 -0.016509471
-0.051220186 -0.07142569 -0.07428119 0.030655382 0.054073215 0.015431662 0.044368297 -0.003617485
-0.06822119 0.052738763 0.0755956 -0.060734283 -0.024740212 0.06661655 -0.029634397 -0.056607265
0.030447954 0.05713121 -0.07176906 0.035507005 0.029522326 -0.04620341 0.05571115 -0.0664161
-0.006913252 0.002457972 0.050611027 0.03726223 -0.07609297 0.068697415 -0.044252668 -0.039597128
0.00048467054 -0.04534687 0.042805586 0.045757122 -0.020984437 -0.009302932 0.014453465 -0.036551464

encoder_blocks.2.0.bias f4 [12]
00000000: 6cdd a739 8617 373d 8d3d b53b f284 b33d
00000010: 1897 4abc ba85 f73c 2e6b 97bd ea04 9c3c
00000020: 60f8 1a3d 76b3 87bd a8b8 563d c358 863d
0.00032017694 0.044700168 0.005531019 0.08765592 -0.012365125 0.030215133 -0.0739349 0.019045312
0.037834525 -0.06626026 0.052422196 0.06559899

encoder_blocks.2.2.weight f4 [12, 12, 13]
00000000: 6f47 6dbc 6d1d 893d 3cb5 383d 9c97 2e3b
00000010: e12e 71bd bd59 243b 980c f2bc 2025 73bd
00000020: 83f4 97bc b6e1 2fbd 22a1 c13c f004 2abd
00000030: 9975 7d3d 61c8 9bbc 472e 513c 4efe 663d
00000040: 16a7 0c3d 941b 0d3d 4c6b 7ebd c531 9e3d
00000050: 140b d5bc 82a8 bebc 063d 8bbd c4f5 1e3d
00000060: bdd8 653d e8fb 15bd 098c dfbc 5700 703d
00000070: 5908 85bd 9440 cbbc b933 823c d33e 3c3d
00000080: 6649 15bd 6318 38bd 9194 973d 299e 93bd
00000090: cd2f 38bd 9d42 2d3d 646a f5ba d1b4 bc3c
000000a0: b5fb 82bd dcf0 3cbd b3fa 24bd 1b7f 743d
000000b0: 904e 073d c1c3 acbc ee44 21bc b551 60bc
000000c0: 42c0 753c 4d53 5abd 4078 88bd 6447 823d
000000d0: 20e2 203b 9cb5 91bd 14e9 fe3c bea7 62bd
000000e0: 3220 92bc 3847 74bc c686 61bd 8014 c3ba
000000f0: 8075 1e3c 705f fabb 60a2 7bbb a0d7 e4bb
00000100: 084c 7f3c f2b8 523d 7c3e 70bd 82bb ab3c
00000110: 95bc 9e3c 9126 023c dc18 023b 5984 62bd
00000120: 6be5 303d c687 463d 7fa1 403d f5c5 4dbd
00000130: 456b 44bd 65d2 43bc d74f 9d3c 5ab1 54bd
00000140: fdfa 15bd 6059 293b 6998 2d3d f81d 073d
00000150: e62f 2a3d 00e0 763c 7808 9bbd e86a 803d
00000160: d5cb 51bd ac9f 52bd 5940 0f3c 1f4e 3fbc
00000170: e4bb f73b a117 b6bc 241e 313d be69 7dbd
00000180: f1b4 903b bae4 353d 50a2 86bd 29fd 443d
00000190: f2e9 40bd eacf 563d f660 803d c1a0 cabc
000001a0: 4c5c b3bc c0a4 92bd f49a 853d c06d 903d
000001b0: b59c 683b 3e14 89bd 967f bc3c 1598 703d
000001c0: c3c1 f1bc 2d4e b6bc 09cb 80bd 4e83 3fbd
000001d0: 1e93 82bc c248 75bd 214f 963d c63c 2ebd
000001e0: 500c c43c 76a9 a33d aef3 0e3d 9801 84bd
000001f0: 1b7b 80bc 7495 9bbd 318f 85bd 8ffc bcba
00000200: 9543 af3c 7cb4 573d 4e4e 2ebd 1a87 f23c
00000210: a620 77bc f8b6 fb3c 73ff 293d ba77 8abd
00000220: 5a0a 9dbc 9bb2 653c 0aed 443d 87f6 14ba
00000230: 37c6 5a3d 0b0a 1fbd 8912 f13c 7b4f 53bd
00000240: 39df f4bc d829 a13c fc3c 7d3b 8bf5 99bd
00000250: 1a29 7cbd ae39 9a3d 3038 0a3d 6fb7 ecbc
00000260: 4fdd 86bd f65b bd3b 6c54 34bc 8a19 3fbd
00000270: 52a2 713d 04f0 3dbd 3c57 a03d e186 5abd
00000280: aa06 033d 6888 8d3d 3a93 96bc 5c2d 4a3d
00000290: 5181 f93b 9339 303d 14fe 2ebc 361c 123d
000002a0: 9b20 a5bb 53e6 08bd 607b 823d c915 0cbc
000002b0: aeb1 763d 8528 153b 6fe8 6f3d 72ee 303d
000002c0: 98d9 083d e30c e7bc 9075 88bc 49c3 56bd
000002d0: f84b 4d3d 562f 543c fad3 153c af67 49bd
000002e0: 02b0 33bc 5cac 133c a7a0 8abb 0c51 8e3c
000002f0: 3fcf 3e3d 9fd1 b23c d9b8 e3bc ee75 0f3c
00000300: d58a 973d 9d76 5dbd 7142 cfbc 9328 38bd
00000310: 229c 963d b2f3 88bd 9ce1 903d ae8b 74bc
00000320: 4650 5d3d a5c5 873d 0f91 9fbc 75e4 3e3d
00000330: 6404 c93c 4251 0a3d 1750 8cbd 8e04 be3b
00000340: f2fd 2fbd d049 913d 341e 18bd 0036 4bba
00000350: e4cb 09bd 5010 8f3d 1c1b 5d3d 9c1e 4ebd
00000360: cc3f 733d 3e1b 0e3d 0048 0c38 cfc1 23bd
00000370: 8023 5f3b 6b9d 683d bd43 7e3c 1041 64bb
00000380: 677c 723c f0c1 923d 0467 b23c 93e5 613d
00000390: ca2c a83c f6ca f2bc e548 c4bc 946d 9bbd
000003a0: 928d e7bc 1f20 8f3c 3a1f 833c af8c 2bbd
000003b0: 0901 d63c c2fa 39bd 8b2e 853d dd41 56bc
000003c0: 5b1e a5bc e476 78bd 6747 fb3c f42f a73d
000003d0: c2ad 503b 8293 463d ee38 503c f416 a6bd
000003e0: b682 b8bd bc02 69bc 646f 603c b7c9 58bd
000003f0: c818 c1bb 605a 403d 6cf1 d3bc e141 abbd
-0.014482363 0.06695066 0.045094714 0.002664066 -0.058882598 0.0025077902 -0.02954702 -0.059361577
-0.01854921 -0.042939864 0.023636404 -0.041508615 0.061879728 -0.019016447 0.012767381 0.056394868
0.034339033 0.03445013 -0.062114045 0.077243365 -0.026006259 -0.02327371 -0.06798749 0.0388086
0.0561149 -0.03661719 -0.027288454 0.058594074 -0.06495733 -0.024811067 0.015893804 0.04595835
-0.03644695 -0.044945132 0.07401384 -0.07207901 -0.04496746 0.042299856 -0.0018723723 0.023035439
-0.063956656 -0.04612814 -0.040278148 0.05969153 0.033033907 -0.021089436 -0.009843094 -0.0136913555
0.014999451 -0.053302098 -0.06663561 0.06361273 0.0024548844 -0.07114717 0.031117 -0.055335753
-0.017837618 -0.014909558 -0.05506017 -0.0014883429 0.009671569 -0.0076407716 -0.0038396344 -0.0069837123
0.015582092 0.05144591 -0.05865334 0.020963434 0.019377032 0.007943765 0.0019851243 -0.055301998
0.04318754 0.048469327 0.047029015 -0.050237615 -0.047953863 -0.011952017 0.01920311 -0.051926948
-0.036616314 0.0025840625 0.042381678 0.032987565 0.041549586 0.015068054 -0.07569975 0.06270391
-0.05121978 -0.051421806 0.008743369 -0.01167634 0.00756024 -0.022228064 0.043241635 -0.06186842
0.004416101 0.044407584 -0.065739274 0.048092995 -0.047098108 0.052444376 0.06268494 -0.024734857
-0.021894597 -0.0716033 0.065236956 0.07052183 0.0035493795 -0.06693314 0.023010056 0.058738787
-0.029511338 -0.022254074 -0.06288726 -0.04675608 -0.015939292 -0.05988384 0.073393114 -0.042538427
0.023931652 0.079913065 0.03490036 -0.064456165 -0.015683701 -0.07596865 -0.06521452 -0.001441853
0.02139453 0.052662358 -0.042555146 0.029605437 -0.015083468 0.030726895 0.04150338 -0.06761117
-0.019169975 0.014019634 0.04807762 -0.00056824874 0.05341169 -0.038827937 0.029427784 -0.05158947
-0.029891597 0.019673273 0.0038641086 -0.07517537 -0.061562635 0.07530533 0.03374499 -0.028896062
-0.0658518 0.005778785 -0.011006456 -0.046655215 0.05899269 -0.046371475 0.07829139 -0.053351287
0.031988777 0.06910783 -0.01838075 0.049359664 0.0076142927 0.043023657 -0.010680694 0.035671435
-0.0050392873 -0.03342278 0.06371188 -0.008550116 0.060228042 0.0022759747 0.058571275 0.04319615
0.03341064 -0.028204387 -0.01665762 -0.052432332 0.050121278 0.012950739 0.009144777 -0.049171146
-0.0109672565 0.009013262 -0.004230577 0.01737263 0.046584364 0.02182847 -0.027798103 0.008756144
0.07399527 -0.054068197 -0.025300236 -0.04496057 0.07353999 -0.06687106 0.070742816 -0.01492588
0.054031633 0.066294946 -0.019478349 0.046604592 0.024538226 0.0337689 -0.068512134 0.005798883
-0.04296679 0.07094157 -0.03713818 -0.0007751882 -0.03364171 0.06985533 0.05398093 -0.05032216
0.059387013 0.03469395 3.3445656e-05 -0.039979752 0.003404826 0.05679075 0.01551908 -0.003482882
0.014800168 0.07165897 0.021777637 0.05515058 0.02052917 -0.029637795 -0.02396054 -0.0758926
-0.028265748 0.017471371 0.0160061 -0.041882213 0.02612354 -0.045405157 0.06503018 -0.0130772265
-0.020156076 -0.060660258 0.030673696 0.08163443 0.003184185 0.04848052 0.012708886 -0.08109847
-0.09009306 -0.014221843 0.013698433 -0.052926745 -0.0058928467 0.04696119 -0.025871955 -0.08362175

encoder_blocks.2.2.bias f4 [12]
00000000: aa16 1d3d 9557 493d 0d26 6cbc 0158 efbc
00000010: 9af9 903b 417f 183d f73f af3d 7587 41bd
00000020: 0185 133d d9de 043d e78c b73d 0109 55bd
0.038351692 0.04915579 -0.014413369 -0.029216768 0.004424286 0.037230734 0.08557122 -0.047248323
0.036015514 0.032439087 0.08962422 -0.05201054

encoder_blocks.3.0.weight f4 [12, 12, 13]
00000000: 3994 933d 8c80 f23c 409e 6abc 302f 55bd
00000010: e1b7 59bc 82a5 363d 5878 88bd 1a0c 2ebd
00000020: bb72 40bd b17d 783d 3f65 a13d 20eb 42bd
00000030: 8cad 81bd 9bf2 67bd 5403 8b3d 93af e83c
00000040: f7c7 343d 5ee7 a93c df01 80bc 6508 553d
00000050: 8a6f 94bd da84 fabc 059b b53a bbb5 15bd
00000060: 4e43 dc3c 503d 923c c7d1 423d 4705 853d
00000070: 592a 703d e7cc 47bc 657e 483c c896 6abc
00000080: a9d8 2cbd 70cc 103c 0519 63bd 835d 67bc
00000090: 5b08 963b e5e5 883c 3afd 853c 96ba 3a3d
000000a0: 9b80 38bd 6edd c53c eed1 44bc 1218 6f3d
000000b0: 69e4 703d d541 1fbd 7b94 08bc 1596 033d
000000c0: e99a 983d 5e21 25bd 1ad4 d53c 2575 ffbc
000000d0: 3398 8abd 3688 283d 8d11 7bbd 9f1e 1e3d
000000e0: 6a6e 853d 0d32 183d 63c1 68bd 309b 8abd
000000f0: 02e5 3dbb ca9e 743c d960 ffbc f8e1 853c
00000100: 2680 acbc cbd8 93bd 193c 33bd 9acb c8bc
00000110: 361a 7e3d 19b1 86bd 65aa 8439 b87e a53d
00000120: bdd3 fc3b 89ae 563c 0f99 943b 4a60 50bd
00000130: 9cec 1c3d 3434 333d 9d8a 3cbd 2548 713b
00000140: ff67 113d 224a 35bd 2d64 ebbc 06ff 19bd
00000150: 1833 11bc b603 8f3d 85d1 99bd 36f4 9a3c
00000160: c706 f5ba 9a70 babc 052b 9c3d 6e43 a13d
00000170: d8b9 573d 95be 4ebb cd3a 7abd 7989 86bd
00000180: fa1a 1cbc 6b3a 493d fcf6 1b3d 704d a93c
00000190: ab70 6a3d 8ecd 453c 9a3e 753d 8b4f 85bd
000001a0: 44f8 debc d17a ff3c c869 27bc 0d25 5dbd
000001b0: 8ba9 eebc 1bd3 b5bb 72d2 513d 8a2c 99bd
000001c0: e31f 6f3c 4c6c 89bd 97eb 2dbd ec82 863d
000001d0: 62e8 31bd 1870 91bd 5a9b 9dbc 636e 883d
000001e0: 3f5e c6bb 070d 89bb 5ae5 4cbd 1d55 9ebd
000001f0: 49ca c73c ffa4 743b fe80 073c 5693 87bd
00000200: cd8a 363d 3a35 5cbd e98e 53bb 4a2a 98bd
00000210: 81a9 bf3b e799 3a3d 5572 113c 3ebd 8cbc
00000220: 402a 83bd 5bb9 1a3d 13ea f8bc 26db 103c
00000230: 4819 a1bd 9b50 973d fc91 c7bc 01d5 823d
00000240: 645b e83b 3252 febc b0ab 043d 0f67 a73d
00000250: 433e 04bd 295a cc3c a7a4 5d3d 1219 83bc
00000260: 74cf 4c3c 817d f23c 8bb2 763d 166a 9dbd
00000270: d258 e9bc a17f 17bd 00da 59bd b1a1 a43d
00000280: 13cc a23d 2513 a8bd 5e0b 9c3d e2c5 6b3d
00000290: 36ec 8bbd f896 ab3d ff87 333c 659c 4b3d
000002a0: 95bb 2c3d 8134 fbbc 0595 9fbd 1944 a0bd
000002b0: a76c 11bc 28f1 f83c c47c 8cbd afd3 303b
000002c0: 27da 693d 8895 843d adad d0bc f55e 073d
000002d0: ec1c ad3c 53a9 9d3d 4d71 d63b 55e0 b43c
000002e0: fc2f 89bd 382a 983d 0b17 e7bc c50e 763d
000002f0: 74bd 4ebc 0c2f 38bd 27fe 31bd 2e50 9e3d
00000300: 04da 1cbd 63cf 6ebd 05b0 bfbb b118 70bd
00000310: 48cb b13c cfb4 413d 5610 ae3b 2918 883c
00000320: d650 af3c a9e6 7c3d 0263 dbbc 9923 823d
00000330: 9644 eebc 38c4 94bc e876 55bc 79cd 8a3d
00000340: a645 03bd 6cbe 653d 7d9a 94bd aad6 383c
00000350: bede 41bd 587e 993d 0d1f 95bd 2835 103d
00000360: fa12 2e3d 8edf fc3c f2b3 f4bb bcb1 7a3d
00000370: d031 583c 39bc 92bc 0e91 f9bc c913 153d
00000380: 061d 72bd 0d19 d2bc 9638 7b3d 973f 6dbd
00000390: 88cd 653d ca19 17bd b3c2 ce3c 7f48 62bc
000003a0: 1f25 08bc 3dde b6bc dbd0 0a3c 4a87 773d
000003b0: ea93 2bbd 03e0 4a3d 04b3 703d 99be 1d3d
000003c0: 63b2 5ebd 9db5 d73c 2a9f d13b 292a e1bc
000003d0: fa22 15bc ee01 da3c a7be 4c3d b452 2c3c
000003e0: 613b b03a f25a 0f3b 064d 4a3c b4da d7bc
000003f0: 52a7 873d d13f 2e3c 0d9c 02bb 7b23 a0bd
0.072060056 0.029602312 -0.014319956 -0.052046955 -0.013288469 0.044591434 -0.06663579 -0.04249201
-0.046984416 0.060666744 0.07880639 -0.047587514 -0.063319296 -0.05662785 0.06787744 0.028404033
0.044136014 0.020740207 -0.015625892 0.05200996 -0.07247837 -0.030580927 0.0013855404 -0.036550265
0.026887562 0.017851502 0.04756334 0.06495147 0.058634136 -0.012194849 0.012237166 -0.014318176
-0.04219881 0.008837804 -0.055443782 -0.014121416 0.004578633 0.016711185 0.0163561 0.0455881
-0.045044523 0.024153437 -0.012012942 0.058372565 0.05881158 -0.03888114 -0.008336182 0.03212555
0.07451422 -0.040315025 0.026102114 -0.031183789 -0.06767311 0.041145526 -0.061296035 0.03860342
0.065152004 0.037157107 -0.056825053 -0.06767881 -0.002897561 0.014930436 -0.03117411 0.016343102
-0.0210572 -0.07219084 -0.043758485 -0.024511147 0.062036715 -0.065767474 0.00025303956 0.0808081
0.007715671 0.013103136 0.0045348476 -0.05087308 0.038311586 0.043750957 -0.04603063 0.0036816683
0.03549957 -0.04426015 -0.028734291 -0.037596725 -0.008862279 0.0698313 -0.07510666 0.018915277
-0.0018694036 -0.02275877 0.07625393 0.07874189 0.05266747 -0.0031546701 -0.061091233 -0.065691896
-0.009527916 0.049127977 0.03807734 0.020666808 0.057236355 0.012072934 0.059874155 -0.06509312
-0.027217992 0.031186493 -0.010218091 -0.053990413 -0.029133579 -0.0055488474 0.051226087 -0.07479198
0.014595005 -0.06710109 -0.042461004 0.0656794 -0.04343451 -0.07101458 -0.019239116 0.066616796
-0.0060537155 -0.004182461 -0.050023414 -0.07731078 0.02438845 0.003732979 0.0082705 -0.06619899
0.044565964 -0.0537617 -0.0032281226 -0.07429941 0.005849064 0.04555693 0.008877357 -0.017180081
-0.06404543 0.037774425 -0.030385053 0.008841312 -0.0786615 0.07388421 -0.024361603 0.063882835
0.0070909727 -0.031045053 0.032390296 0.08173954 -0.03228594 0.024945335 0.054112103 -0.016003165
0.012500633 0.02960086 0.060228866 -0.0768625 -0.028484736 -0.03698695 -0.053186417 0.08038653
0.0794908 -0.082067765 0.076193556 0.057561763 -0.06832163 0.083784044 0.010957717 0.049709696
0.04217108 -0.030664684 -0.07792095 -0.078254886 -0.008876002 0.03038843 -0.06859735 0.0026981642
0.057092812 0.06473833 -0.02547344 0.033049542 0.021131955 0.07698312 0.006544268 0.022079626
-0.066986054 0.074299276 -0.02820923 0.06007268 -0.012618411 -0.044966742 -0.04345527 0.07730137
-0.038293853 -0.058303248 -0.0058498406 -0.058617298 0.021703377 0.047291573 0.005312006 0.016613083
0.02140085 0.061743412 -0.026780609 0.06354446 -0.029085439 -0.01815997 -0.013028838 0.06777472
-0.032048844 0.056089804 -0.07256029 0.011281649 -0.047331564 0.07494801 -0.07281313 0.035206944
0.042498566 0.030868318 -0.00746774 0.061204657 0.01319547 -0.017912017 -0.030464675 0.03639582
-0.05910971 -0.02564671 0.06133326 -0.057921972 0.056104213 -0.03688983 0.025239324 -0.01381123
-0.008309632 -0.022322768 0.008472647 0.060431756 -0.04188911 0.04953004 0.058764473 0.038511846
-0.05436934 0.026331717 0.0063971477 -0.027485924 -0.009102577 0.026612248 0.049986508 0.010517765
0.0013445431 0.0021874276 0.012347465 -0.026349403 0.06623711 0.010635332 -0.001992944 -0.07819267

encoder_blocks.3.0.bias f4 [12]
00000000: 5112 3bbd b573 dc3c 4e73 8f3d 65b3 88bc
00000010: 878c 32bd 84ce 8e3d 0f2b 84bc 3f48 4dbd
00000020: 0b7b 67bc 3952 73bd 9e26 5d3c cd33 ce3a
-0.045671765 0.026910642 0.070044145 -0.016687104 -0.04359105 0.069729835 -0.016133813 -0.050117727
-0.014128457 -0.059404586 0.013497977 0.001573199

encoder_blocks.3.2.weight f4 [12, 12, 13]
00000000: 864e ce3b 66a5 67bd db11 53bc 7610 5a3d
00000010: fbfb 12bd 63d7 83bd 663f 083d 26ee 3cbc
00000020: d3e4 52bd 0bb5 24bb c02f 41bd a885 063d
00000030: 1e06 00bc d8b0 d83c 8c75 50bb ae27 2ebc
00000040: c321 fdbc 7fcf 30bd 909d 243c cd2b 85bd
00000050: 1703 713d e330 05bd b263 13bc 2cdb 873d
00000060: 5a38 0c3d cc6a 423d a5a0 82ba 8150 26bd
00000070: 18fd f43c 4c9e 84bd 6c0f d63c fd7d 89bd
00000080: 5172 4c3d 9edd 5cbd e7f3 79bb 54c4 a13d
00000090: 46dc 743b 701d 73ba 7693 1cbd 29d1 4fbd
000000a0: 5ab3 773d 0909 98bd d175 703b 207a 9f3c
000000b0: 9d03 203d 571d 4c3c 7c58 fe3c dbdf febc
000000c0: c195 04bd ddb2 8b3d 8ca8 8bbd 2942 9b3b
000000d0: 7d01 843d 85fe 7f3d 0cbd 473d ed63 45bb
000000e0: b4ad 94bb 52f7 3ebd 953e e13b 631c 383d
000000f0: a7f3 873d 2661 4abc a0dc c23c 0d3f d2bc
00000100: 4095 4dbd 87f9 01bd 9897 05bd ece4 a0bd
00000110: f7c4 923d d99b 2bbd e7a3 d6bc cb75 483d
00000120: 04d6 903d 5ed1 733d ac02 953d 04ee 7b3c
00000130: 4ddb 723d a5ad 82bd 0aba aabc 3c86 94bd
00000140: 8548 103d 070e 83bd 6ef8 24bd 8d3e 6bbd
00000150: e1f2 95bd c4f8 ccbb 18a5 5b3d 8f27 9ebd
00000160: bc0b 8cbc 2ded 063d 9133 253d 7e69 36bd
00000170: 88ee 713c 6959 86bd 9e9f 9f3d d832 143d
00000180: 9c03 583d 680e a73c d4b8 ef3c b413 1f3d
00000190: 4e34 a1bc 713d 3bbd 065e 05bd 2892 0d3c
000001a0: e308 353d 8de7 f7bc c7c0 913d 2c5b 863d
000001b0: e9c3 d5bc e81a 953d b06b bb3b 1e8e d9bc
000001c0: c8a9 9c3c d61d 893d 4936 bbbc cc06 4f3d
000001d0: ccea feba 35f1 c33b 7304 923a 5630 233d
000001e0: 8b66 913d 1b5f 8f3c 7627 193d 4b2c 6cbd
000001f0: 936f 6c3d 0fcc 15bc 18e4 17bb b49a 78bd
00000200: f3cd 8f3d 73e6 0fbd 1a5a 9b3d a494 94bc
00000210: a801 2bbd 877a 77bd 2b46 47bd cc7a 4e3d
00000220: b6ea 5fbd 1fc0 f8bc 35a3 6abc 887e 89bb
00000230: b7e9 e9ba ab6b 2f3c 4ce9 a2bd 082f 633c
00000240: d635 2f3d 287d b5bc 9dfb 50bd 4579 10bc
00000250: 6319 81bd 2bc9 0bbd 7edd 72bc a23f f139
00000260: e212 cebc 1ded f13c 6d4b 8dbc 1a07 d9bc
00000270: 2baf c33b 3b8d 48bd 0f15 393d 8f9b 963c
00000280: 16fe a8bc f06c 9b3d 742c 953d 050e bebc
00000290: db74 923d d7cb 973c baef 803c 388c 20bd
000002a0: 070c 653d 5fa8 6abc e8cf 2d3d 4cbb af3c
000002b0: aef6 08bd b326 323d 6c6e 9ebd e51f fdbc
000002c0: 1ba8 90bd 8b29 903d 84fe 15bd 7f0a df3b
000002d0: b4e3 27bd 3e20 e5bc c19f c03c 9b33 8a3d
000002e0: cf34 48bd 7faa 17bd e96b e8bc e8d8 783c
000002f0: 73d2 66bd cde7 b6bc aa05 8f3d 3e7a 5f3d
00000300: a9dc ee3b 8832 6a3d 89c9 d73c 506d 71bc
00000310: 6fa3 1e3c 68cf a4bd 1ced 1e3b 0707 f8bc
00000320: f0b8 4abd 8920 133d 7680 9c3d 4ec5 21bc
00000330: 2e64 a93b e698 d43b 649e 213c 9707 1e3d
00000340: 7414 28bd 5f6a bcbb 664b 68bd 0a89 473d
00000350: c54c 493d d49d 61bd 9236 68bd fa4e c73b
00000360: bd4f 833d 1963 b9bc a526 5ebd 308e 913b
00000370: f943 00bd af99 b53c 8148 0b3d 7ac7 a13c
00000380: 05d0 1c3d 51bd 08bd 6617 3f3d 12c9 5fbb
00000390: 3fbe 09bc 6eae 3cbd afc2 80bc a677 46bd
000003a0: 1690 e23c fc2f 0dbd 80a2 54bd 3b8d 8bbd
000003b0: 046e 90bd 6b2e e1bc 573e bd3c cd16 32bd
000003c0: 0b5f c73c 8059 3cbd 83e6 863d 20f5 bebb
000003d0: 9b93 4ebd acd5 7b3d 3c8c 6bbd bf30 36bd
000003e0: f094 3b3c 20f8 8fbb 705c 9f3d 8856 3abc
000003f0: 927c 923d 10ae 283c 1082 953d 64dc 593d
0.006295982 -0.05655422 -0.012882675 0.053238355 -0.03588484 -0.06437566 0.033263586 -0.011531388
-0.051487755 -0.0025132324 -0.04716468 0.03284231 -0.007813958 0.026451513 -0.0031808345 -0.010629578
-0.030899888 -0.043166634 0.010047331 -0.06502495 0.058840837 -0.032517325 -0.008995937 0.066336006
0.03423343 0.04746513 -0.0009966089 -0.04060412 0.02990584 -0.06475505 0.0261304 -0.067134835
0.049913708 -0.053922288 -0.0038139762 0.07898775 0.0037362739 -0.0009274101 -0.038226567 -0.05073658
0.060473777 -0.07423598 0.0036691318 0.019467413 0.039065946 0.012458167 0.031048052 -0.031112602
-0.03236938 0.06821225 -0.06819257 0.0047381115 0.06445596 0.062498588 0.048764274 -0.0030119375
-0.0045373086 -0.04662258 0.0068739154 0.044948947 0.0663827 -0.012352264 0.023786843 -0.02566483
-0.050191164 -0.03173211 -0.032615274 -0.078561634 0.07166474 -0.041896675 -0.026201202 0.04894046
0.0707207 0.05952584 0.072759 0.015376572 0.059291173 -0.06380776 -0.020840663 -0.07252166
0.03522541 -0.0639916 -0.040275984 -0.0574327 -0.07321716 -0.006255241 0.053624243 -0.07722389
-0.01709544 0.032941032 0.04033238 -0.0445342 0.014766343 -0.065600224 0.077941164 0.0361813
0.052737817 0.020392612 0.029262938 0.03883715 -0.019678261 -0.045712892 -0.03256037 0.008640803
0.04419793 -0.03026178 0.071168475 0.065603584 -0.026094394 0.072805226 0.0057196245 -0.026557025
0.019123927 0.06695144 -0.022853034 0.05054359 -0.0019448637 0.005979682 0.0011140242 0.03984102
0.07099637 0.017501405 0.03739115 -0.05765943 0.057723593 -0.00914289 -0.0023176726 -0.06069441
0.070217036 -0.035131883 0.07585545 -0.018137284 -0.041749626 -0.060419586 -0.0486509 0.050410077
-0.054667197 -0.030365048 -0.014321138 -0.004195992 -0.0017846142 0.010706822 -0.07954654 0.013866194
0.04277595 -0.022154406 -0.051021207 -0.008817975 -0.0630367 -0.034127396 -0.014823316 0.00046014512
-0.025155488 0.02953201 -0.01724788 -0.026492644 0.0059718094 -0.048962813 0.0451861 0.018384723
-0.02062897 0.075891376 0.072838694 -0.023200044 0.07151195 0.018529816 0.01573931 -0.039196223
0.055919673 -0.014322369 0.042434603 0.021451615 -0.033438377 0.043493938 -0.07735905 -0.030898998
-0.070633136 0.07039174 -0.03661968 0.006806671 -0.04098864 -0.027969476 0.023513677 0.06748124
-0.048878487 -0.037027832 -0.028371768 0.015188433 -0.056353044 -0.022327328 0.06983502 0.05455994
0.0072894883 0.057177097 0.026341217 -0.014735535 0.00968252 -0.08047372 0.0024250215 -0.030276788
-0.049492776 0.0359197 0.076416895 -0.009873701 0.005169413 0.0064879535 0.009864423 0.038581457
-0.04103513 -0.005749985 -0.05671253 0.048714675 0.04914548 -0.055082157 -0.056692667 0.006082413
0.06411693 -0.022630261 -0.054236073 0.004441999 -0.031314824 0.022168009 0.034004692 0.019748438
0.03828432 -0.03338367 0.046653174 -0.0034146947 -0.008407175 -0.046064787 -0.015717832 -0.04845395
0.027656596 -0.03446959 -0.051912785 -0.06814047 -0.07052234 -0.027487954 0.023101015 -0.043478776
0.024337312 -0.04598379 0.06586935 -0.005827561 -0.050433736 0.06148307 -0.057506785 -0.04448008
0.011449084 -0.0043935925 0.07781303 -0.01137317 0.07152666 0.010295406 0.07300198 0.053188697

encoder_blocks.3.2.bias f4 [12]
00000000: 0f1c 9bbd 93c6 4bbd c6a9 98bd 2078 31bd
00000010: 2d5b 08bd 1295 d13c 761a 8b3b 1074 b23b
00000020: 4d9f 2fbc 07bf 773d 0100 d33c 3e18 3fbc
-0.07573711 -0.049749922 -0.07454257 -0.04332745 -0.033290077 0.025583778 0.0042450977 0.0054459646
-0.010719133 0.060484912 0.025756838 -0.011663495
