Python/save/localizer/trial_2/quake_localization_model_00140.pth (torch, 252994 bytes, 35 tensors)

encoder_blocks.0.weight f4 [12, 1, 13]
0	0x3e3d43a1	0.1848283
1	0x3e498533	0.19679718
2	0x3e63842d	0.2221839
3	0x3dab57d3	0.083663605
4	0x3e3ce50d	0.18446751
5	0x3dd09621	0.10184885
6	0xbddd06eb	-0.10792335
7	0xbd7e8a7b	-0.062143784
8	0xbe559432	-0.20857313
9	0xbe4a6524	-0.19765145
10	0xbe466917	-0.19376026
11	0x3db23597	0.08701628
12	0xbdb0927f	-0.08621692
13	0xbe59ab4e	-0.21256754
14	0xbe79f890	-0.24411225
15	0xbe8322a3	-0.25612363
16	0xbdfdcb58	-0.123923
17	0x3dd0463b	0.101696454
18	0xbe27c903	-0.16385274
19	0x3e8d454e	0.27591938
20	0xbe4733f8	-0.19453418
21	0xbc9f9df0	-0.01948449
22	0x3d95d599	0.07316131
23	0x3e316d93	0.17326955
24	0x3e21f97b	0.15817825
25	0xbd34012a	-0.043946423
26	0x3d8e27fc	0.0694122
27	0xbdb6a33a	-0.08917852
28	0x3d09a0dc	0.033600673
29	0x3d864bfc	0.065574616
30	0xbe5df0cf	-0.21673892
31	0xbe40be8c	-0.18822688
32	0x3e1f0145	0.15527828
33	0xbd8ab278	-0.067723215
34	0xbdd463cc	-0.10370597
35	0xbde8371c	-0.11338636
36	0xbbc09166	-0.005876708
37	0xbde22ff5	-0.11044303
38	0xbe7c4139	-0.24634255
39	0x3da58560	0.0808208
40	0x3ce7310e	0.028221633
41	0xbe53d7dc	-0.20687813
42	0x3d9decc3	0.07711174
43	0xbe255d92	-0.16148975
44	0xbe091414	-0.13386565
45	0x3da98cf4	0.08278838
46	0x3d147487	0.03624394
47	0x3d12a8b4	0.03580542
48	0xbdb7dc03	-0.08977511
49	0x3b3e054f	0.0028994863
50	0x3e862ce7	0.26206133
51	0xbe7fef32	-0.2499359
52	0x3d54ebcb	0.051982682
53	0x3d3d68a7	0.046242382
54	0xbdb338bf	-0.08751058
55	0xbbdcb4ec	-0.0067354348
56	0xbe12c24a	-0.14331928
57	0xbdedadf2	-0.11605443
58	0xbe1115ce	-0.14168474
59	0x3e3752fd	0.17902751
60	0xbd131df7	-0.03591725
61	0x3df92a11	0.12166227
62	0xbc43b1aa	-0.011944214
63	0xbe09937b	-0.13435166
64	0xbe2b1eb9	-0.16710939
65	0xbdb2fc97	-0.08739584
66	0x3e71c9d8	0.23612154
67	0x3dc611e9	0.09671385
68	0xbcf40417	-0.029787106
69	0xbd665ce1	-0.05624092
70	0x3d9af5a5	0.07566384
71	0x3e615725	0.22005899
72	0xbe6e5eeb	-0.23278396
73	0x3d9e4c86	0.077294394
74	0x3e1a91aa	0.15094629
75	0xbe485a35	-0.19565661
76	0x3e625391	0.2210219
77	0x3e2e83a5	0.17042406
78	0xbde7879f	-0.113051645
79	0x3cd3f5bd	0.025874013
80	0x3dff9ab6	0.12480681
81	0x3dd6fbab	0.104972206
82	0x3d893060	0.0669868
83	0xbd0309a8	-0.03199163
84	0xbdaa3aad	-0.08311973
85	0x3e78e84e	0.24307367
86	0x3e13e205	0.14441688
87	0x3e11e127	0.14246045
88	0xbe889688	-0.26677346
89	0x3df41438	0.11917919
90	0xbe1a9510	-0.15095925
91	0x3dc39e4f	0.09551679
92	0xbdc8467b	-0.09779068
93	0xbd48436a	-0.048892416
94	0x3dda3d24	0.10656193
95	0xbe4f73df	-0.20259045
96	0x3e8b3804	0.27191174
97	0x3e4c99a0	0.19980478
98	0xbdb16e84	-0.08663657
99	0x3e0d3830	0.13790965
100	0xbe2aee1a	-0.16692391
101	0x3c226073	0.009910691
102	0x3e5f350d	0.21797581
103	0x3c92ad7c	0.01790499
104	0xbe2ee160	-0.17078161
105	0xbc9044b0	-0.017610878
106	0xbd29ed02	-0.041485794
107	0xbd9a899b	-0.075457774
108	0x3e2c3966	0.16818771
109	0x3e47a01c	0.1949467
110	0x3e3f27ce	0.18667528
111	0x3e807da1	0.25095847
112	0x3e212896	0.15738139
113	0x3e3f27a8	0.18667471
114	0x3e66f7c5	0.22555454
115	0xbe07eaf1	-0.13273217
116	0x3e1cb385	0.15302856
117	0x3e868297	0.26271507
118	0xbdaaef2b	-0.08346399
119	0xbe47ce3f	-0.1951227
120	0xbe5cdb31	-0.2156799
121	0x3aed811c	0.0018120143
122	0xbe33adb1	-0.17546727
123	0xbe4ac18c	-0.19800395
124	0x3e0795c5	0.13240726
125	0x3e556fda	0.20843449
126	0xbe3fcb3a	-0.18729869
127	0x3e88145d	0.26578036
128	0x3d5d4100	0.054017067
129	0x3dd38f8d	0.103301145
130	0x3e8ef7cc	0.2792343
131	0xbe5eb38a	-0.21748176
132	0x3e8a0ceb	0.2696298
133	0x3cd16864	0.025562473
134	0xbd06c92b	-0.032906692
135	0x3e503e8d	0.20336361
136	0x3df7033d	0.120611645
137	0x3cbff8f1	0.023434134
138	0xbd212665	-0.039343257
139	0xbd50a760	-0.05094087
140	0xbbec9028	-0.007219333
141	0xbdda8660	-0.10670161
142	0xbe3afef9	-0.18261327
143	0x3d97d2cf	0.074132554
144	0x3e163ceb	0.14671676
145	0xbe541cb0	-0.20714068
146	0xbd63d8f8	-0.05562684
147	0xbe686e4e	-0.22698328
148	0xbe8a315e	-0.2699079
149	0x3db416d0	0.08793414
150	0xbe721baf	-0.23643373
151	0xbdd9940b	-0.1062394
152	0xbe2e159b	-0.1700043
153	0x3e6d2221	0.2315755
154	0xbe4074f0	-0.18794608
155	0xbdf94835	-0.121719755

encoder_blocks.0.bias f4 [12]
0	0xbe25cc93	-0.1619132
1	0x3d32b6df	0.04363143
2	0x3e81cfcc	0.2535385
3	0xbdfa8b5a	-0.122336105
4	0x3e87dbac	0.26534784
5	0xbe703a74	-0.23459798
6	0x3d416999	0.047219846
7	0x3dca1b60	0.098685026
8	0x3d76bfc3	0.060241472
9	0xbda3bffa	-0.07995601
10	0x3ca3496b	0.01993247
11	0x3dcc18b6	0.09965651

encoder_blocks.1.0.weight f4 [12, 12, 13]
0	0xbc6ff085	-0.014644747
1	0x3d5a4669	0.053289805
2	0x3d88a764	0.06672552
3	0xbcd37270	-0.025811404
4	0xbd439456	-0.047748886
5	0x3d62a4f7	0.055333104
6	0xbd35ea22	-0.04441274
7	0x3c99c741	0.01877177
8	0xbd425741	-0.047446493
9	0xbcd197aa	-0.025585014
10	0xbd07e11b	-0.03317366
11	0x3d5341f4	0.05157657
12	0x3c28f2e2	0.010311814
13	0x3d6c5a43	0.057703268
14	0xbd4353e2	-0.04768742
15	0xbc993435	-0.018701652
16	0xbd4d5b63	-0.05013598
17	0x3c79072f	0.015199467
18	0x3c0f544a	0.008748123
19	0xbd54718d	-0.051866103
20	0xbcb848bc	-0.02249562
21	0xbd9152e9	-0.07095892
22	0xbcb98857	-0.02264802
23	0xbcaf6a23	-0.021412915
24	0xbd38541a	-0.04500208
25	0x3d312671	0.04324955
26	0xbb6bc31d	-0.003597445
27	0x3d895e02	0.06707384
28	0xbb69d0e0	-0.0035677478
29	0x3bd93c32	0.0066294903
30	0xbd68bade	-0.056818835
31	0xbd8a7213	-0.06760039
32	0x3d99760e	0.0749322
33	0xbda2d80b	-0.07951363
34	0x3d73f624	0.05956091
35	0xbc55c8f2	-0.013048397
36	0x3d535654	0.051596
37	0x3da78a06	0.08180623
38	0x3d90a344	0.070623904
39	0xbda4a1d5	-0.080386795
40	0x3d1e837a	0.038699605
41	0xbd85b4ec	-0.06528649
42	0x3d036567	0.032079127
43	0x3d016787	0.031592872
44	0x3d8a1852	0.0674292
45	0x3d6e61ba	0.058198668
46	0x3ca20865	0.019779393
47	0xbd72f11b	-0.059311967
48	0xba1859dc	-0.000581173
49	0xbda031f1	-0.078220256
50	0xbd8a119e	-0.067416415
51	0x3d7a5127	0.06111255
52	0x3c02f3b7	0.007992676
53	0x3d3aba91	0.04558808
54	0x3b45cc42	0.0030181562
55	0xbd8dc24c	-0.06921825
56	0x3d8f903f	0.07009935
57	0x3d35e8ef	0.044411596
58	0xbcbe6708	-0.023242489
59	0x3c24bf19	0.010055327
60	0x3beba9fb	0.007191894
61	0xbc13100a	-0.008975992
62	0xbd628573	-0.05530305
63	0x3ca663d2	0.02031127
64	0xbc9a9a7b	-0.01887249
65	0x3d26f522	0.04076112
66	0xbd0e93ec	-0.034809038
67	0x3ce69e78	0.028151736
68	0x3c1d1896	0.009588381
69	0xbd3c7361	-0.04600847
70	0xbd6ef78b	-0.058341544
71	0xbd4f6817	-0.050636377
72	0x3d7855b6	0.060628615
73	0xbd8fd2c5	-0.07022623
74	0x3d2d43bf	0.042300936
75	0x3d970703	0.07374384
76	0x3cf9149c	0.030405335
77	0xbd4412c6	-0.047869466
78	0x3d096c35	0.03355046
79	0xbda1ba0c	-0.07896814
80	0x3b5a8f8d	0.0033349723
81	0x3d4e1be2	0.05031956
82	0x3da22688	0.079175055
83	0xbd477f81	-0.04870558
84	0xbd826726	-0.0636733
85	0x3c7c4b1c	0.015398767
86	0xbd40f672	-0.04711003
87	0x3c644717	0.013932965
88	0x3d712cc4	0.058880582
89	0x3d894335	0.06702272
90	0x3caa5674	0.020793177
91	0xbd33b571	-0.043874208
92	0x3ab23209	0.0013595234
93	0xbd031a8c	-0.03200774
94	0xbd41e42d	-0.047336746
95	0xbc8bd364	-0.017068572
96	0xbd0beaf5	-0.03415962
97	0xbd635912	-0.055504866
98	0x3d85fe9e	0.06542705
99	0x3d4e7180	0.05040121
100	0xbd8ae0b5	-0.06781141
101	0xbbe9eddd	-0.007138951
102	0xbca470a7	-0.020073248
103	0x3a8930da	0.0010466829
104	0x3d8a9cce	0.06768189
105	0xbcdd12d8	-0.026986524
106	0x3bb37597	0.0054766643
107	0xbd9aef1b	-0.07565137
108	0x3cee9aaf	0.029126493
109	0xbd3f5b40	-0.046717882
110	0x3cb8a773	0.022540784
111	0xbd08faad	-0.033442188
112	0xbc1a7b78	-0.009428851
113	0x3d32efa8	0.043685585
114	0x3d120b57	0.035655346
115	0x3d6abf01	0.05731106
116	0x3d8e2bab	0.06941923
117	0xbc8bc62a	-0.017062265
118	0xbd02acc8	-0.03190306
119	0xbcb2b3b2	-0.021814201
120	0x3c1cce9f	0.009570747
121	0x3d08aec1	0.033369783
122	0xbd353ceb	-0.04424755
123	0xbd9bb701	-0.076032646
124	0xbd8fa6d0	-0.07014239
125	0xbc43c98e	-0.01194991
126	0xbca6689c	-0.020313554
127	0xbc810b64	-0.015752502
128	0xbd086525	-0.033299584
129	0xbd7659bd	-0.060144175
130	0xbcef7c01	-0.029233934
131	0x3c009264	0.007847402
132	0xbd8fb741	-0.07017375
133	0x3cac0f31	0.021003338
134	0xbd0fe62a	-0.03513161
135	0x3d89eb8a	0.06734379
136	0xbc8e59bb	-0.017376771
137	0x3bb2d6e6	0.005457747
138	0xbd28f7ae	-0.04125183
139	0xbbffb1f9	-0.0078031984
140	0xbd7e9b04	-0.062159553
141	0xbd2571a4	-0.04039158
142	0xbca0dff3	-0.019638037
143	0xbcbb7637	-0.022883518
144	0x3d342f3b	0.043990355
145	0xbca969fc	-0.02068042
146	0xbc87a644	-0.016558774
147	0x3d811ef8	0.06304735
148	0xbd892969	-0.066973515
149	0x3c9d76c1	0.019221665
150	0xbd1e0052	-0.038574524
151	0x3ce0cf7f	0.027442692
152	0x3d14d26b	0.036333483
153	0xbd2b204a	-0.04177884
154	0x3d3467e3	0.044044387
155	0xbd9743dd	-0.07385991
156	0xbd005f34	-0.031340793
157	0x3d255f41	0.040374044
158	0xbd847c0c	-0.064689726
159	0x3d319040	0.04335046
160	0x3d0354e8	0.032063395
161	0xbd96d1aa	-0.07364209
162	0xbd75b22c	-0.05998437
163	0x3d2ce961	0.042214755
164	0x3d979469	0.07401354
165	0x3d8be8d2	0.06831516
166	0xbd541cbd	-0.05178522
167	0x3d61c3a8	0.055118233
168	0x3d70619e	0.058686845
169	0xbd9847a2	-0.07435538
170	0xbd6dfcbf	-0.058102366
171	0x3d2b5f04	0.04183866
172	0x3d8ece2c	0.06972918
173	0x3d6e1c54	0.058132485
174	0x3d868754	0.065687805
175	0x3d1a96d2	0.03774149
176	0x3d9a2d98	0.075282276
177	0x3cbe491c	0.02322822
178	0xbc1caf20	-0.009563237
179	0x3d03e5ef	0.032201704
180	0xbd73ad0a	-0.059491195
181	0x3d8ae5ec	0.06782135
182	0xba932f87	-0.0011229374
183	0x3c2510b3	0.010074782
184	0x3da05288	0.078282416
185	0x3d969d1c	0.07354185
186	0x3af6765a	0.0018803582
187	0xbd096122	-0.0335399
188	0xbd4df994	-0.050286844
189	0xbd459dbc	-0.04824613
190	0x3d3ce1ab	0.04611365
191	0xbd009152	-0.03138859
192	0xbd862fed	-0.0655211
193	0x3d06cc63	0.032909762
194	0x3dacb3ac	0.08432707
195	0x3c1424c1	0.009041966
196	0x3c401306	0.011723286
197	0x3c838a20	0.016057074
198	0x3cd49ae5	0.025952766
199	0x3c9252ba	0.017861713
200	0xbd0f8c72	-0.03504605
201	0xbd81dbea	-0.063407734
202	0xbccd95a5	-0.02509577
203	0x3cd19ff0	0.02558896
204	0xbcf667f4	-0.030078866
205	0x3da36fbf	0.07980298
206	0xbcd3a88d	-0.025837207
207	0x3d960221	0.07324625
208	0xbd2130b0	-0.039353073
209	0xbd5903d5	-0.05298217
210	0xbd178bf0	-0.03699869
211	0xbd7c11b2	-0.061540313
212	0x3c36bc3a	0.011153275
213	0xbbe851cb	-0.0070898286
214	0x3d4e5e52	0.05038292
215	0xbd8e1fe3	-0.06939676
216	0x3b4cbc59	0.0031240194
217	0xbcd3f71d	-0.025874669
218	0x3d49b1b8	0.04924175
219	0xbc2509f5	-0.010073175
220	0x3c8d0f3d	0.01721918
221	0x3d8b98c9	0.06816251
222	0x3aa2bdfe	0.0012416241
223	0x3b9e487a	0.004830417
224	0x3d48eb64	0.04905261
225	0x3bc8ba5b	0.006125731
226	0x3c3649ef	0.011126026
227	0x3bb421da	0.0054971995
228	0x3cdb8b12	0.026799712
229	0x3d308e0a	0.04310421
230	0xbc966bb2	-0.0183619
231	0xbd2d634d	-0.04233103
232	0xbceeb1ee	-0.029137578
233	0x3d2548b3	0.040352535
234	0x3cdf09c5	0.027226338
235	0xbcde82ae	-0.027161922
236	0x3d910971	0.07081879
237	0xbd8766e8	-0.06611425
238	0xbd5f7b46	-0.054560922
239	0x3d982b7a	0.074301675
240	0x3cee7bd1	0.029111775
241	0x3d4ff97c	0.050775036
242	0x3ba06c7b	0.0048957444
243	0xbd8d543d	-0.06900833
244	0xbc45c093	-0.012069839
245	0x3c9549de	0.0182237
246	0xbd3d18bc	-0.046166167
247	0xbd982ec5	-0.074307956
248	0xbcfb82cb	-0.030702015
249	0xbcedbdfe	-0.02902126
250	0x3d562d24	0.052289143
251	0x3d8c911d	0.06863616
252	0xbd6e906c	-0.0582432
253	0x3bc0ea91	0.0058873375
254	0xbc68be80	-0.014205575
255	0x39f0635d	0.000458504

encoder_blocks.1.0.bias f4 [12]
0	0x3ca39652	0.01996914
1	0x3aec671a	0.0018036098
2	0xbd7d5bda	-0.061855175
3	0x3d753418	0.059864134
4	0xbdaf1aca	-0.085500315
5	0x3c928405	0.017885217
6	0xbd1227b3	-0.03568239
7	0xbca98ce5	-0.020697067
8	0x3d640807	0.055671718
9	0x3da127f7	0.07868951
10	0x3d87495c	0.06605789
11	0x3ce7eb9d	0.028310591

encoder_blocks.1.2.weight f4 [12, 12, 13]
0	0x3d623705	0.055228252
1	0xbd4f8669	-0.050665293
2	0x3d42b766	0.047538184
3	0x3da62cc9	0.08114011
4	0x3d4744d7	0.048649635
5	0x3d125dc1	0.035733942
6	0x3c025bb5	0.007956435
7	0xba23ae7a	-0.00062439556
8	0xbc528b91	-0.012850658
9	0xbcfd3f5d	-0.030914003
10	0xbba0fe88	-0.004913155
11	0xbc101f18	-0.008796476
12	0x3d7bcf46	0.06147697
13	0xbd6a2711	-0.057166163
14	0x3c84a80e	0.016193416
15	0xbc2ceefa	-0.010555023
16	0x3aea33df	0.0017868242
17	0x3d3b4099	0.045715902
18	0x3d9d6f36	0.076872274
19	0xbd8bfd8e	-0.06835471
20	0x3da027db	0.07820102
21	0xbd67ad9c	-0.05656205
22	0x3da5f050	0.081024766
23	0xbc8b60d3	-0.017013943
24	0x3d62428e	0.055239253
25	0x3d6d82ed	0.05798619
26	0xbd52a561	-0.05142725
27	0xbd9ae196	-0.07562558
28	0x3d3732d3	0.044726204
29	0x3c59918d	0.013279331
30	0xbc6383e5	-0.013886427
31	0xbd0a0e35	-0.033704955
32	0xbda01bc2	-0.078177944
33	0xbd5d57bf	-0.05403876
34	0x3d9314cf	0.07181703
35	0x3cdfa1d9	0.027298855
36	0x3d557066	0.052109145
37	0xbd15b18e	-0.036546282
38	0x3d1cb172	0.038255163
39	0x3c31a80a	0.010843286
40	0xbcfddf02	-0.030990127
41	0xbbf34567	-0.007424045
42	0x3d1089ee	0.03528779
43	0xbc96bfa5	-0.01840193
44	0x3d54068d	0.05176406
45	0x3bb8a42b	0.0056348047
46	0xbd407c9c	-0.046993837
47	0x3c802a70	0.015645236
48	0x3c9442cc	0.018098257
49	0xbd8210f2	-0.06350888
50	0xbd77fda2	-0.060544617
51	0x3d937b6c	0.07201275
52	0x3d815a83	0.06316092
53	0x3c792451	0.015206412
54	0xbd5e984e	-0.054344468
55	0xbd3eaf7e	-0.04655408
56	0x3c70ba24	0.014692817
57	0xbbf03942	-0.0073310444
58	0x3ba1d011	0.0049381335
59	0x3d9189b7	0.07106345
60	0x3ceb0aec	0.028691731
61	0xbc88dc44	-0.016706593
62	0xbd661987	-0.05617669
63	0x3bac3259	0.0052550253
64	0x3cc909e1	0.024540843
65	0x3d8def91	0.06930459
66	0xbd1c6661	-0.038183574
67	0xbd8757c4	-0.06608537
68	0x3c76aba2	0.015055569
69	0xbd7b88f8	-0.06140992
70	0x3d745be5	0.05965795
71	0xbcaf5707	-0.021403803
72	0xbd964062	-0.07336499
73	0xbd97a107	-0.074037604
74	0xbc0574d7	-0.008145533
75	0x3d28e83b	0.041237097
76	0xbd1660ea	-0.03671352
77	0xbbcfb94d	-0.0063392282
78	0xbc2df536	-0.010617545
79	0x3d234450	0.03986007
80	0x3d11d4b6	0.035603248
81	0xbcec8a7d	-0.02887463
82	0x3c172ff0	0.009227738
83	0x3cf93fd9	0.030425953
84	0xbbd75c33	-0.0065722703
85	0xbc81859c	-0.01581078
86	0x3caae7c7	0.020862473
87	0x3c681c44	0.014166895
88	0xbd722cf9	-0.05912492
89	0x3d3cd7d3	0.046104264
90	0xbcf1b0de	-0.029503282
91	0x3d942b07	0.07234769
92	0x3a562e5b	0.00081703597
93	0x3d1ee2a9	0.03879038
94	0x3c95aef8	0.018271908
95	0x3d9825d1	0.07429088
96	0xbb801478	-0.00390869
97	0x3c6db890	0.014509335
98	0xbd9aaf17	-0.07552927
99	0x3cb65e6e	0.022261824
100	0x3c357a2a	0.011076489
101	0xbd44d4b7	-0.048054423
102	0xbd91eec1	-0.07125617
103	0x3d9cba2c	0.07652697
104	0xbd9483ab	-0.07251676
105	0x3d36c383	0.04462005
106	0xbc2c1921	-0.010504038
107	0xbc2ec48b	-0.010666977
108	0xbd8a573e	-0.067549214
109	0x3cf2fe52	0.029662285
110	0x3d04defa	0.03243921
111	0x3ccf4a7a	0.025304068
112	0xbcd060cc	-0.025436781
113	0x3ce91bf1	0.028455706
114	0xbd02c133	-0.03192253
115	0x3cf4ada2	0.02986795
116	0x3b04644a	0.0020201379
117	0x3d5ca944	0.05387236
118	0xbccad192	-0.024758134
119	0xbb3e2507	-0.002901377
120	0xbd7c9c97	-0.061672773
121	0x3d388a4f	0.045053776
122	0x3d95e7a5	0.07319573
123	0x3d7f958e	0.062398486
124	0xbda2235d	-0.07916901
125	0x3d7ab742	0.061209925
126	0xbc68ae4a	-0.01420171
127	0xbbdf93be	-0.006823032
128	0x3d261f22	0.040557034
129	0x3d2be0aa	0.041962303
130	0xbd246817	-0.04013833
131	0xbcc4f6a3	-0.024043387
132	0x3d70fb61	0.058833484
133	0xbd6e452b	-0.058171432
134	0x3d32f926	0.043694638
135	0xbd26f2c2	-0.040758856
136	0xbd5c9119	-0.053849313
137	0x3da217a3	0.079146646
138	0xbd5424ed	-0.051793028
139	0xbd0bdf75	-0.034148652
140	0x3d9a72b9	0.07541413
141	0xbd5a42bb	-0.053286295
142	0x3d9206aa	0.07130177
143	0xbd960e6d	-0.0732697
144	0xbcb42e95	-0.021994868
145	0xbcbc9841	-0.02302182
146	0x3da2e8e9	0.0795458
147	0x3cedcc33	0.029028034
148	0xbd00748c	-0.031361148
149	0x3d8aa89f	0.06770443
150	0x3cb72b83	0.022359615
151	0x3d8feefd	0.07028005
152	0x3ce13f09	0.027495878
153	0x3d78c5e7	0.06073561
154	0x3d9b5eed	0.07586465
155	0xbd0f2b31	-0.0349533
156	0x3acb318b	0.0015502436
157	0xbc067f58	-0.008209072
158	0xbd7a9f96	-0.06118735
159	0xbd8ac86d	-0.067765094
160	0xbc6c94a9	-0.01443974
161	0xbda0004b	-0.07812556
162	0x3cb371e6	0.021904897
163	0xbd4949d7	-0.049142685
164	0xbcabef84	-0.020988233
165	0x3d1911ee	0.037370615
166	0x3d4e9de4	0.050443545
167	0xbcb2b3db	-0.021814277
168	0xbd00eb79	-0.031474564
169	0xbda08056	-0.07836978
170	0xbccf36b1	-0.025294634
171	0x3cb64b99	0.022252845
172	0xbc297052	-0.010341721
173	0x3d7bce2b	0.061475914
174	0x3dad687f	0.08467197
175	0x3c4d4012	0.012527483
176	0x3d27d40f	0.04097372
177	0x3d92f16e	0.07174955
178	0x3bbcfc54	0.0057673845
179	0xbda3a73b	-0.07990881
180	0x3d7a4cef	0.061108526
181	0xbd88ebb0	-0.06685579
182	0xbd4547fe	-0.04816436
183	0x3c84aa80	0.016194582
184	0x3d836287	0.06415277
185	0x3cfe3832	0.031032655
186	0xbc2735aa	-0.010205666
187	0x3d6fe403	0.05856706
188	0xbda4ee2d	-0.08053241
189	0x3da0dbd4	0.07854429
190	0xbc229f46	-0.009925669
191	0x3cfe0c8c	0.031011842
192	0xbc4bd45e	-0.012440769
193	0x3d9a0579	0.07520575
194	0x3bc28fda	0.0059375586
195	0xbd0aa8c5	-0.033852357
196	0x3bce94a9	0.0063043428
197	0xbb6f7f9c	-0.0036544567
198	0x3d55516c	0.052079603
199	0xbd05d289	-0.032671485
200	0xbd749ab1	-0.059717838
201	0x3b770480	0.0037691891
202	0xbd8599e9	-0.06523497
203	0xbd400e56	-0.04688867
204	0x3d907bdd	0.07054875
205	0x3d181e50	0.037138283
206	0xbd6fe3ea	-0.058566965
207	0x3c3f1ac0	0.011664093
208	0x3d5455be	0.051839583
209	0xbcf709a9	-0.030155974
210	0xb9af1367	-0.00033393057
211	0xbd5c6807	-0.053810146
212	0xbd1d524b	-0.03840856
213	0x3d9a48aa	0.07533391
214	0xbd823ba2	-0.0635903
215	0x3da705ed	0.08155427
216	0xbc08bbdc	-0.00834557
217	0xbcd44338	-0.025910959
218	0x3cbbb38e	0.022912767
219	0x3d03bffa	0.032165505
220	0xbd11df07	-0.035613086
221	0x3d8ef457	0.06980198
222	0x3d793467	0.06084099
223	0xba44fd50	-0.0007514553
224	0xbcce5659	-0.025187658
225	0xbd9739d9	-0.073840804
226	0x3d430820	0.04761517
227	0x3d0d573a	0.034507014
228	0xbd8548c8	-0.065080225
229	0x3d97c619	0.07410831
230	0x3d536d01	0.051617626
231	0x3d2fb9a4	0.04290165
232	0xbd917098	-0.07101554
233	0x3d8a6b96	0.06758802
234	0xbc67c315	-0.014145632
235	0x3ba613f0	0.0050682947
236	0xbd351394	-0.044208124
237	0xbbe800f5	-0.007080192
238	0xbcbac9b4	-0.022801258
239	0x3c1e0491	0.009644643
240	0x3d815e84	0.063168555
241	0xbd6622fd	-0.05618571
242	0x3c8b5cee	0.017012086
243	0x3c82d49c	0.01597052
244	0x3ce15f7d	0.027511353
245	0x3d191c62	0.037380584
246	0xbd9cfd0c	-0.07665452
247	0x3cb4784c	0.022030018
248	0xbc995d5a	-0.018721271
249	0x3d5459d7	0.05184349
250	0x3cbb9b6c	0.02290126
251	0xbd5eb2d5	-0.054369766
252	0x3d1e15d8	0.03859505
253	0x3d8e91fa	0.069614366
254	0xbd692325	-0.056918282
255	0xbd65c8ca	-0.05609969

encoder_blocks.1.2.bias f4 [12]
0	0xba917e57	-0.0011100274
1	0xbb29c624	-0.0025905455
2	0x3d8f36ff	0.069929115
3	0x3ce058f6	0.02738617
4	0x3caf4dd2	0.021399412
5	0xbd1ef985	-0.03881218
6	0xbd35502d	-0.044265915
7	0xbd974107	-0.0738545
8	0x3d28e2f5	0.041232068
9	0x3d3d4674	0.046209767
10	0x3d75bf01	0.05999661
11	0xbc73d285	-0.014881735

encoder_blocks.2.0.weight f4 [12, 12, 13]
0	0x3d9b9965	0.07597617
1	0xbc630763	-0.013856742
2	0x3ce456ae	0.027873363
3	0x3d48d6f3	0.049033117
4	0x3c04eb71	0.008112774
5	0x3d0b4a03	0.03400613
6	0x3d9e0467	0.077156834
7	0x3d136791	0.03598744
8	0x3c9d4548	0.019198075
9	0xbda1f8c5	-0.07908777
10	0x3d3757f9	0.04476163
11	0xbd9119e8	-0.07085019
12	0x3d571a2d	0.052515198
13	0xbd93f73b	-0.0722489
14	0x3d899d43	0.067194484
15	0xbd16bcf7	-0.036801305
16	0xbbd7b0a1	-0.006582335
17	0x3c714522	0.014725955
18	0xbd8b63b9	-0.0680613
19	0xbc9effef	-0.019409148
20	0x3d2f4d35	0.04279824
21	0xbd9f02af	-0.07764184
22	0x3cfa4827	0.030551983
23	0xb988b71f	-0.00026076377
24	0x3d2d3776	0.04228922
25	0xbd836611	-0.06415952
26	0x3d441a0f	0.047876414
27	0xbd21853a	-0.039433695
28	0xbd892fec	-0.066985935
29	0xbd2e2574	-0.042516187
30	0x3d13a397	0.036044683
31	0x3a20fdd5	0.00061413395
32	0xbd744814	-0.05963905
33	0xbd07c345	-0.033145208
34	0x3cba70b7	0.022758825
35	0xbd49b4e9	-0.049244795
36	0x3c2d0761	0.010560841
37	0x3b8b51a3	0.004251675
38	0x3d7a4973	0.061105203
39	0x3d1adf72	0.03781075
40	0xbda68dea	-0.08132537
41	0xbc3feddd	-0.011714426
42	0x3d70e982	0.05881644
43	0x3d0bcdbf	0.03413176
44	0x3c7cc462	0.015427681
45	0xba7e78f2	-0.00097073533
46	0xbd04431b	-0.03229056
47	0xbd71f92a	-0.059075512
48	0x3da298c6	0.079392955
49	0x3c2b1823	0.010442766
50	0x3be878d7	0.0070944834
51	0x3d3be95b	0.045876842
52	0x3d3368e3	0.0438012
53	0xbcde4d25	-0.027136395
54	0x3d2bad5c	0.041913375
55	0x3c3a6a29	0.01137785
56	0x3cce780c	0.025203727
57	0x3d7de16b	0.061982553
58	0x3d5049f5	0.05085178
59	0xbd909be1	-0.070609815
60	0xbc16de8a	-0.009208331
61	0x3cf76059	0.03019731
62	0x3d791bea	0.060817637
63	0x3ca9ae90	0.02071312
64	0x3ab380b6	0.0013694975
65	0xbcce76c7	-0.025203122
66	0x3cb78659	0.02240293
67	0x3c732549	0.014840432
68	0xbd874daf	-0.06606614
69	0xbd8df761	-0.069319494
70	0xbd98faf8	-0.074697435
71	0xbcea3e64	-0.028594203
72	0x3d8495ed	0.064739086
73	0x3ccf160b	0.025279066
74	0xbd9d2931	-0.07673872
75	0xba6163aa	-0.000859792
76	0xbd283935	-0.041070182
77	0x3d782cd1	0.060589615
78	0x3d324e4a	0.043531694
79	0xbba6fc3b	-0.005095986
80	0xbc0d10cb	-0.008609961
81	0x3a5bf1f8	0.0008390243
82	0xba98c288	-0.0011654655
83	0xbac5edc2	-0.0015100765
84	0x3ca1300a	0.019676227
85	0xbd302021	-0.04299939
86	0xbd0d0f35	-0.03443833
87	0xbd803c1f	-0.06261467
88	0xbd111481	-0.035419945
89	0x3be6c076	0.007041986
90	0x3d43f596	0.04784163
91	0xbd3437bf	-0.043998476
92	0xbd931672	-0.071820155
93	0x3d60f5bf	0.05492186
94	0xbc06c535	-0.008225729
95	0xbd471369	-0.048602495
96	0x3cbcf702	0.023067001
97	0xbc532367	-0.012886859
98	0xbcd81dfd	-0.026381487
99	0x3d9adf11	0.07562078
100	0xbd648442	-0.055790193
101	0x3c89cfe2	0.016822759
102	0x3d401ae9	0.046900664
103	0xbd2f2f99	-0.042770002
104	0xbc9207d6	-0.017826002
105	0xbd39b196	-0.045335375
106	0x3cbe97e1	0.02326578
107	0xbd6aaa71	-0.05729145
108	0x3d8fe5ef	0.07026278
109	0x3d9e6c26	0.077354714
110	0xbcf03c9c	-0.029325776
111	0x3d607b2d	0.05480497
112	0xbd910796	-0.07081525
113	0xbc0ee58f	-0.008721723
114	0x3d00f338	0.03148195
115	0xbd7d05bb	-0.061773043
116	0xbd2cbd4c	-0.042172715
117	0xbd0fb404	-0.035083786
118	0x3c1eb3c5	0.009686415
119	0xbc26cf94	-0.010181326
120	0xbd80e795	-0.06294171
121	0x3d969cb3	0.07354107
122	0xbd938573	-0.07203188
123	0x3d33a709	0.04386047
124	0xbc883029	-0.016624527
125	0xbd821cda	-0.06353159
126	0x3c861fe7	0.016372634
127	0xbd210841	-0.039314512
128	0xbd11644d	-0.035496045
129	0xbd48fcb8	-0.049069136
130	0xbd9214ab	-0.07132848
131	0xbd7f8181	-0.062379364
132	0xbd96b340	-0.07358408
133	0xbbef7a9a	-0.0073083164
134	0x3c9779a2	0.018490616
135	0x3cdb4ffa	0.026771534
136	0x3d8bf4a5	0.068337716
137	0x3b1a9c7d	0.002359181
138	0xba21dd7a	-0.0006174665
139	0x3d7df9e4	0.062005892
140	0x3d26415d	0.04058968
141	0x3ce1aa41	0.027547004
142	0xbd68f693	-0.056875776
143	0x3bbd6a4d	0.0057804943
144	0xbd85ae3a	-0.06527372
145	0xbd622fd0	-0.05522138
146	0x3d8f3c3e	0.06993912
147	0xbd893fb1	-0.06701601
148	0xbd5af7d8	-0.05345902
149	0x3ba85f3d	0.0051383064
150	0x3cba23dc	0.022722177
151	0xb9706fd8	-0.00022929849
152	0x3c8681d3	0.016419327
153	0x3d9bd6a6	0.076093
154	0xbd5bbb49	-0.053645406
155	0x3d6ec51f	0.058293458
156	0x3d61f9f8	0.05517003
157	0xbd1f2f88	-0.03886369
158	0x3bc478ae	0.0059958315
159	0x3d4a802c	0.04943864
160	0xbd17e954	-0.037087753
161	0x3d0a04ce	0.03369599
162	0xbc86b983	-0.01644588
163	0xbc3332e3	-0.010937425
164	0x3c8c3d82	0.017119173
165	0x398d81f2	0.00026990433
166	0x3d219c44	0.039455667
167	0x3d8af5c1	0.06785155
168	0xbd11482e	-0.035469227
169	0x3da37d6d	0.079829074
170	0x3d33de39	0.0439131
171	0xbcb7c25f	-0.02243155
172	0xbd32cd9a	-0.04365311
173	0xbd2565ab	-0.04038016
174	0x3c6bf1b6	0.01440089
175	0x3d1b2544	0.037877336
176	0xbcb49d4b	-0.02204766
177	0xbb50d694	-0.003186618
178	0x3d74b618	0.05974397
179	0x3d2fd3a4	0.042926446
180	0xbd00c082	-0.03143359
181	0x3d999203	0.07498553
182	0xbb9d6cb0	-0.0048042163
183	0x3cd6e68f	0.026232986
184	0xbd3e0f25	-0.04640116
185	0x3d3713c4	0.044696584
186	0x3d8942df	0.06702208
187	0xba0fb083	-0.00054813194
188	0xbcbedf9f	-0.02329999
189	0x3c6eb20e	0.014568819
190	0xbd770136	-0.06030389
191	0xbcbee96e	-0.023304667
192	0x3cf676a1	0.030085864
193	0xbb976b1f	-0.004620924
194	0x3d7f8bc3	0.062389147
195	0x3d867993	0.06566157
196	0x3d7aabae	0.061198883
197	0x3d718da7	0.05897298
198	0xbd6a3cac	-0.057186767
199	0x3c7e1fd9	0.015510523
200	0x3c7203e4	0.014771435
201	0x3d2fcf3d	0.042922247
202	0xbce04bed	-0.027379954
203	0x3ce11b6d	0.027478898
204	0xbbb4e756	-0.0055207415
205	0x3d80ee9e	0.062955126
206	0xbc3c5835	-0.01149564
207	0xbc7ac073	-0.0153046725
208	0x3c96fdb7	0.018431528
209	0x3bcaa13b	0.006183771
210	0x3cfc5b62	0.030805293
211	0x3d963481	0.07334233
212	0xbd76c619	-0.060247514
213	0x3d531cc4	0.051541105
214	0x3b9cbe3b	0.0047834194
215	0xbc7c5b36	-0.015402606
216	0xbd54efd8	-0.051986545
217	0xbd96ac13	-0.07357039
218	0xbd995d5d	-0.07488511
219	0x3cef60f0	0.029221028
220	0x3d5acbf6	0.05341717
221	0x3c737d96	0.014861485
222	0x3d2ff017	0.042953577
223	0xbb953120	-0.0045529753
224	0xbd8d6e44	-0.06905797
225	0x3d551b26	0.052027844
226	0x3d99faa5	0.0751851
227	0xbd7c3277	-0.061571565
228	0xbcd61fb6	-0.026138168
229	0x3d856f81	0.06515408
230	0xbd006850	-0.03134948
231	0xbd692795	-0.056922514
232	0x3cf81a27	0.030285908
233	0x3d66690b	0.05625252
234	0xbd95d52f	-0.07316052
235	0x3d0feba3	0.03513683
236	0x3cf5ab28	0.02998884
237	0xbd405f32	-0.046965785
238	0x3d64272a	0.055701412
239	0xbd88444c	-0.066536516
240	0xbbe92d90	-0.007116027
241	0x3b30add0	0.002695907
242	0x3d4b583a	0.049644686
243	0x3d15121f	0.036394235
244	0xbd9d58b1	-0.07682932
245	0x3d8914b0	0.06693399
246	0xbd3476fc	-0.044058785
247	0xbd216fa0	-0.039413095
248	0xbae13eb6	-0.0017184827
249	0xbd3a3e6a	-0.04546968
250	0x3d2c7873	0.042107057
251	0x3d37f31e	0.04490959
252	0xbca97fc8	-0.020690814
253	0xbc170bc2	-0.009219112
254	0x3c79b871	0.015241728
255	0xbd18bbbb	-0.03728841

encoder_blocks.2.0.bias f4 [12]
0	0x3a519217	0.00079944864
1	0x3d26173d	0.040549506
2	0x3baccf2c	0.0052737202
3	0x3da785cd	0.08179817
4	0xbc4a9718	-0.012365125
5	0x3cdc3bfe	0.026884075
6	0xbd906d6d	-0.07052121
7	0x3cb4c5ca	0.02206697
8	0x3d20545f	0.039142963
9	0xbd8bdacb	-0.06828841
10	0x3d509175	0.05091997
11	0x3d7d8636	0.06189557

encoder_blocks.2.2.weight f4 [12, 12, 13]
0	0xbc7a8650	-0.015290812
1	0x3d81ae5f	0.06332087
2	0x3d4180a7	0.047241833
3	0x3b8211b7	0.003969397
4	0xbd67ed9e	-0.056623094
5	0x3b75eb0e	0.0037524137
6	0xbcf116df	-0.029429851
7	0xbd72aa96	-0.059244715
8	0xbcb69c58	-0.022291347
9	0xbd378f6f	-0.044814523
10	0x3cb55ed5	0.022139946
11	0xbd247060	-0.04014623
12	0x3d7efa46	0.062250398
13	0xbc9d2da3	-0.0191868
14	0x3c2be879	0.0104924375
15	0x3d63e53a	0.05563853
16	0x3d0624da	0.03274999
17	0x3d0b5584	0.0340171
18	0xbd803fcd	-0.06262169
19	0x3d9b914a	0.07596071
20	0xbce0a121	-0.027420582
21	0xbcc2dc1b	-0.023786595
22	0xbd8d8ad4	-0.06911245
23	0x3d182005	0.03713991
24	0x3d5cfea7	0.053953793
25	0xbd1c3aae	-0.0381419
26	0xbcfab4a8	-0.030603722
27	0x3d6c5a54	0.05770333
28	0xbd85fab5	-0.06541959
29	0xbcdddf28	-0.027083948
30	0x3c6a98c4	0.014318649
31	0x3d424552	0.04742939
32	0xbd19b01d	-0.03752147
33	0xbd3b1356	-0.045672737
34	0x3d96dfe9	0.07366926
35	0xbd902f5d	-0.07040284
36	0xbd33dc62	-0.043911345
37	0x3d160b7d	0.03663205
38	0xbaa5c85e	-0.0012648215
39	0x3cc99722	0.024608199
40	0xbd80685a	-0.062699035
41	0xbd3be760	-0.045874953
42	0xbd1ce8b1	-0.03830785
43	0x3d7ced69	0.06174985
44	0x3d0c13fb	0.034198742
45	0xbca7f5f4	-0.020503022
46	0xbc397f84	-0.011321906
47	0xbc4c7c72	-0.012480842
48	0x3c5c6420	0.013451606
49	0xbd565037	-0.052322593
50	0xbd8a990b	-0.06767472
51	0x3d7daa2b	0.061929863
52	0x3b20e220	0.0024548844
53	0xbd91b59c	-0.07114717
54	0x3cfee914	0.031117
55	0xbd62a7be	-0.055335753
56	0xbc922032	-0.017837618
57	0xbc744738	-0.014909558
58	0xbd6186c6	-0.05506017
59	0xbac31480	-0.0014883429
60	0x3c1e7580	0.009671569
61	0xbbfa5f70	-0.0076407716
62	0xbb7ba260	-0.0038396344
63	0xbbe4d7a0	-0.0069837123
64	0x3c7f4c08	0.015582092
65	0x3d4eea41	0.05051637
66	0xbd6fb1a9	-0.05851904
67	0x3ca5e1f5	0.020249346
68	0x3c957c4c	0.018247746
69	0x3bf01631	0.007326864
70	0x3abd479a	0.0014440895
71	0xbd674cee	-0.05646985
72	0x3d2d57f6	0.042320214
73	0x3d45a86a	0.048256315
74	0x3d3cc369	0.046084795
75	0xbd52c9e9	-0.051462088
76	0xbd482d73	-0.04887147
77	0xbc66639d	-0.014061836
78	0x3c98d397	0.018655581
79	0xbd56315a	-0.05229316
80	0xbd1ad720	-0.037802815
81	0x3b868cf1	0.004106157
82	0x3d3443dc	0.04401003
83	0x3d0ab2c2	0.033861883
84	0x3d2d52bf	0.04231524
85	0x3c6c3662	0.014417263
86	0xbd986320	-0.074407816
87	0x3d7e9ae8	0.06215945
88	0xbd4b5e2a	-0.04965035
89	0xbd5339cc	-0.05156879
90	0x3c04370d	0.008069766
91	0xbc99f248	-0.018792287
92	0x3a8f9116	0.0010953273
93	0xbcf06710	-0.029346019
94	0x3d29523e	0.041338198
95	0xbd8ba97e	-0.068194374
96	0x3bd4060e	0.0064704483
97	0x3d25d0af	0.04048222
98	0xbd8fb77b	-0.07017418
99	0x3d31154f	0.043233212
100	0xbd409b07	-0.047022846
101	0x3d38a9be	0.045083754
102	0x3d65e17a	0.056123234
103	0xbcf557b4	-0.029949047
104	0xbcb681e4	-0.022278734
105	0xbd8ce7c7	-0.068801455
106	0x3d883476	0.06650631
107	0x3d8bbf9e	0.068236575
108	0xba8ef904	-0.0010907953
109	0xbd818ff5	-0.06326286
110	0x3cb51707	0.022105707
111	0x3d7d88c0	0.061897993
112	0xbd020277	-0.031740632
113	0xbcb72207	-0.022355093
114	0xbd812de5	-0.06307582
115	0xbd410d06	-0.04713156
116	0xbc7cf157	-0.015438399
117	0xbd7d8781	-0.061896805
118	0x3d92f856	0.071762726
119	0xbd353456	-0.044239365
120	0x3cb852e1	0.022500457
121	0x3da0e981	0.07857037
122	0x3d0b9614	0.034078673
123	0xbd880e7d	-0.066433884
124	0xbc87e8ed	-0.01659056
125	0xbd9cc414	-0.076545864
126	0xbd87053b	-0.065927945
127	0xbb0d00be	-0.0021515335
128	0x3ca69425	0.020334313
129	0x3d52be4d	0.051451016
130	0xbd33a492	-0.04385812
131	0x3ce498a5	0.027904818
132	0xbc853b0c	-0.016263507
133	0x3cfca841	0.030841948
134	0x3d29cefe	0.04145717
135	0xbd8c3816	-0.06846635
136	0xbca8815e	-0.0205695
137	0x3c5957d6	0.013265571
138	0x3d41d82f	0.04732531
139	0xbacb17d4	-0.0015494772
140	0x3d583fd9	0.052795265
141	0xbd1e953b	-0.038716536
142	0x3ce66fd5	0.028129498
143	0xbd542a2e	-0.05179804
144	0xbcec9003	-0.028877264
145	0x3c9bae3e	0.019003984
146	0x3ba12aa5	0.0049184137
147	0xbd99b494	-0.07505146
148	0xbd7822f8	-0.060580224
149	0x3d9ace48	0.07558876
150	0x3d06c370	0.032901227
151	0xbcf6d5b5	-0.0301312
152	0xbd86faec	-0.06590828
153	0x3b9409ff	0.004517793
154	0xbc3f42aa	-0.011673609
155	0xbd441444	-0.04787089
156	0x3d6fd2cf	0.058550652
157	0xbd383c91	-0.044979636
158	0x3d9b08a1	0.07570005
159	0xbd5b8ded	-0.053602148
160	0x3d02d8b5	0.03194495
161	0x3d89e9fd	0.06734083
162	0xbc9c0f5e	-0.019050296
163	0x3d4ac2bc	0.04950212
164	0x3c097231	0.008389042
165	0x3d2a8dea	0.041639246
166	0xbc26c4bc	-0.010178741
167	0x3d0e4409	0.034732852
168	0xbba53d8e	-0.0050427383
169	0xbd0d34b9	-0.03447411
170	0x3d80c854	0.062882096
171	0xbc18ab6c	-0.009318214
172	0x3d71d891	0.059044424
173	0x3aca18f5	0.0015418815
174	0x3d6a83b2	0.0572545
175	0x3d2bcb2d	0.04194181
176	0x3d076009	0.03305057
177	0xbcf69367	-0.030099584
178	0xbc8a9ae2	-0.016919557
179	0xbd563ba8	-0.052302986
180	0x3d4afdd2	0.04955847
181	0x3c53a091	0.0129167
182	0x3c2cba11	0.010542409
183	0xbd484562	-0.048894294
184	0xbc3d9486	-0.011571055
185	0x3c17704e	0.009243084
186	0xbba7c207	-0.0051195654
187	0x3c738e9d	0.014865545
188	0x3d480bbc	0.048839316
189	0x3ca5c09c	0.020233445
190	0xbce3a174	-0.027786948
191	0x3c0867a3	0.00832549
192	0x3d9474cb	0.07248839
193	0xbd5b65e6	-0.053563975
194	0xbcd36011	-0.025802644
195	0xbd42a498	-0.04752025
196	0x3d945f7d	0.072447754
197	0xbd882b9b	-0.06648942
198	0x3d9145f2	0.07093419
199	0xbc8bf54e	-0.017084744
200	0x3d5f3a4b	0.054498952
201	0x3d8540ad	0.065064766
202	0xbcb1f638	-0.021723852
203	0x3d3afc97	0.045651045
204	0x3cc00f3d	0.023444766
205	0x3d1088ed	0.035286833
206	0xbd8d77d1	-0.06907619
207	0x3b90466c	0.004402926
208	0xbd2ffdf2	-0.04296679
209	0x3d9149d0	0.07094157
210	0xbd181e34	-0.03713818
211	0xba4b3600	-0.0007751882
212	0xbd09cbe4	-0.03364171
213	0x3d8f1050	0.06985533
214	0x3d5d1b1c	0.05398093
215	0xbd4e1e9c	-0.05032216
216	0x3d733fcc	0.059387013
217	0x3d0e1b3e	0.03469395
218	0x380c4800	3.3445656e-05
219	0xbd23c1cf	-0.039979752
220	0x3b5f2380	0.003404826
221	0x3d6657c6	0.05623605
222	0x3c72576c	0.014791351
223	0xbb90e40f	-0.004421718
224	0x3c6761a1	0.014122398
225	0x3d91ad2f	0.0711311
226	0x3caae1e5	0.020859668
227	0x3d604b6f	0.05475944
228	0x3ca17e43	0.019713527
229	0xbcfa69da	-0.030568052
230	0xbcc754d0	-0.024332434
231	0xbd9bb58f	-0.07602989
232	0xbceba66f	-0.028765885
233	0x3c8f15c7	0.017466439
234	0x3c80b8d2	0.01571313
235	0xbd258113	-0.040406298
236	0x3cd231a1	0.02565843
237	0xbd3d5ad7	-0.04622921
238	0x3d820c77	0.06350034
239	0xbc6ed238	-0.014576487
240	0xbcafa478	-0.02144073
241	0xbd81c30a	-0.06336029
242	0x3ce9d1b0	0.02854237
243	0x3da1c0e5	0.0789812
244	0x3adae92a	0.0016701568
245	0x3d3e3453	0.04643662
246	0x3c67bd5b	0.014144267
247	0xbda00480	-0.07813358
248	0xbdb0bbcb	-0.08629569
249	0xbc4a8482	-0.012360694
250	0x3c63c777	0.013902537
251	0xbd564035	-0.052307326
252	0xbc7c42d2	-0.015396791
253	0x3d567254	0.052355126
254	0xbcbd0bce	-0.023076918
255	0xbdaa555d	-0.08317063

encoder_blocks.2.2.bias f4 [12]
0	0x3d21dc4d	0.039516736
1	0x3d4540a5	0.048157353
2	0xbca1526a	-0.019692618
3	0xbcf709d7	-0.03015606
4	0x3bc2f759	0.0059498963
5	0x3d136fa8	0.035995156
6	0x3da8e188	0.08246142
7	0xbd40d05d	-0.04707371
8	0x3d07e7b5	0.033179957
9	0x3cea4d90	0.028601438
10	0x3db2ba6e	0.08726965
11	0xbd5d2262	-0.053987868

encoder_blocks.3.0.weight f4 [12, 12, 13]
0	0x3d937dae	0.07201706
1	0x3cf0f71d	0.029414708
2	0xbc6d9332	-0.014500426
3	0xbd5a48a5	-0.053291935
4	0xbc417f87	-0.01181019
5	0x3d32aa99	0.043619726
6	0xbd87fbfd	-0.0663986
7	0xbd3057ac	-0.04305236
8	0xbd3c4fee	-0.045974664
9	0x3d752951	0.059853856
10	0x3da0f66a	0.078595
11	0xbd43f96e	-0.047845297
12	0xbd81e92c	-0.06343302
13	0xbd6a9b1d	-0.057276834
14	0x3d89d4b5	0.06730024
15	0x3ce4ba36	0.027920824
16	0x3d32936b	0.04359762
17	0x3ca4ee7e	0.020133253
18	0xbc83a38d	-0.016069198
19	0x3d5383fb	0.05163954
20	0xbd95798a	-0.07298572
21	0xbcfefba5	-0.031125853
22	0x3a83d6f2	0.0010058566
23	0xbd17995d	-0.037011493
24	0x3cd8b2e7	0.026452495
25	0x3c8ecb8a	0.01743104
26	0x3d3dacf7	0.04630753
27	0x3d833e9d	0.06408427
28	0x3d7055cb	0.05867557
29	0xbc54a34a	-0.012978384
30	0x3c411b4b	0.011786292
31	0xbc6bf98d	-0.014402759
32	0xbd2d8fee	-0.04237359
33	0x3c08540c	0.00832082
34	0xbd643f42	-0.05572439
35	0xbc668e7b	-0.014072056
36	0x3b8b2f3c	0.004247574
37	0x3c848970	0.016178817
38	0x3c8015b9	0.015635358
39	0x3d39a588	0.04532388
40	0xbd3cbaed	-0.046076704
41	0x3cc85816	0.024456065
42	0xbc4ce2d4	-0.012505252
43	0x3d6e52a3	0.058184277
44	0x3d6ff907	0.0585871
45	0xbd1fac5b	-0.03898273
46	0xbc08d172	-0.008350717
47	0x3d04dbbf	0.03243613
48	0x3d97e9c8	0.07417637
49	0xbd267b5f	-0.040645
50	0x3cd4ee22	0.025992457
51	0xbcff5bd0	-0.03117171
52	0xbd8b9a3b	-0.068165265
53	0x3d2682fe	0.040652268
54	0xbd7d06fc	-0.06177424
55	0x3d1cbb93	0.038264822
56	0x3d8472dc	0.0646722
57	0x3d171b3a	0.0368912
58	0xbd6a3d48	-0.05718735
59	0xbd8ae6d6	-0.0678231
60	0xbb576144	-0.0032864371
61	0x3c7069cc	0.014673661
62	0xbd00b9fc	-0.03142737
63	0x3c81cfa2	0.015846077
64	0xbcaf29e5	-0.021382282
65	0xbd957ce5	-0.07299212
66	0xbd36c204	-0.04461862
67	0xbcca33db	-0.02468293
68	0x3d7c1181	0.06154013
69	0xbd879f18	-0.066221416
70	0xb98ac792	-0.00026470103
71	0x3da51158	0.08059949
72	0x3bf0c302	0.0073474655
73	0x3c524e6d	0.012836081
74	0x3b8559fa	0.004069564
75	0xbd52267a	-0.051306225
76	0x3d1bd574	0.03804536
77	0x3d3132d4	0.043261364
78	0xbd40c135	-0.047059257
79	0x3b103c7c	0.0022008708
80	0x3d0d2e0e	0.03446775
81	0xbd33d92b	-0.04390828
82	0xbcf453f5	-0.02982519
83	0xbd1af10e	-0.037827544
84	0xbc13a0c3	-0.009010497
85	0x3d8f9a5e	0.07011865
86	0xbd9b6fcf	-0.07589685
87	0x3c977f3b	0.018493285
88	0xba786721	-0.00094758166
89	0xbcbee3da	-0.023302007
90	0x3d9bfaef	0.07616221
91	0x3da16d05	0.07882122
92	0x3d57b64e	0.052664094
93	0xbb58145e	-0.0032971124
94	0xbd7a6993	-0.06113584
95	0xbd86c135	-0.0657982
96	0xbc1fc086	-0.009750491
97	0x3d499d1c	0.049222097
98	0x3d1b858c	0.037969157
99	0x3ca620df	0.020279346
100	0x3d6ad707	0.057333972
101	0x3c429301	0.011875869
102	0x3d744457	0.059635486
103	0xbd84f302	-0.064916626
104	0xbce25fe2	-0.027633611
105	0x3cfb4f0d	0.030677343
106	0xbc2dbd56	-0.010604223
107	0xbd5e87bb	-0.05432866
108	0xbcf24708	-0.029574886
109	0xbbbcc82a	-0.005761166
110	0x3d50b085	0.050949592
111	0xbd9a5541	-0.07535792
112	0x3c69c938	0.014269166
113	0xbd8a3918	-0.06749171
114	0xbd3049f4	-0.043039277
115	0x3d85b473	0.065285586
116	0xbd33794f	-0.04381686
117	0xbd92499f	-0.07142948
118	0xbca71254	-0.020394482
119	0x3d88d45d	0.0668113
120	0xbbca4767	-0.0061730626
121	0xbba564ca	-0.0050474154
122	0xbd4f6e9d	-0.0506426
123	0xbd9e4bac	-0.07729277
124	0x3cc63ee3	0.024199909
125	0x3b5456ca	0.0032400363
126	0x3c0b6cc2	0.008509817
127	0xbd8880e4	-0.06665209
128	0x3d36eaa7	0.044657376
129	0xbd5f925e	-0.054582946
130	0xbb74dbe7	-0.0037362517
131	0xbd99217c	-0.0747709
132	0x3bb024e4	0.0053754915
133	0x3d38c833	0.0451128
134	0x3c0af5c9	0.008481451
135	0xbc8f5fcd	-0.017501736
136	0xbd8416f4	-0.064496905
137	0x3d192f28	0.037398487
138	0xbcfb600e	-0.03068545
139	0x3c095237	0.008381418
140	0xbda1cdab	-0.07900556
141	0x3d9654d3	0.07340398
142	0xbccaf6f7	-0.024775965
143	0x3d81ad5f	0.06331896
144	0x3bd40015	0.0064697363
145	0xbd0160f7	-0.031586614
146	0x3d029dc6	0.031888746
147	0x3da63033	0.08114662
148	0xbd05e348	-0.032687455
149	0x3cc85f98	0.024459645
150	0x3d5beeef	0.05369466
151	0xbc85f7b2	-0.016353462
152	0x3c4641c8	0.012100644
153	0x3cefd92d	0.029278362
154	0x3d74fe28	0.059812695
155	0xbd9e177f	-0.07719325
156	0xbccbacfa	-0.024862755
157	0xbd144bcc	-0.036205098
158	0xbd55f2b2	-0.052233405
159	0x3da35fb2	0.07977237
160	0x3da1823d	0.07886169
161	0xbda564e5	-0.08075885
162	0x3d9aec09	0.075645514
163	0x3d6a83ac	0.05725448
164	0xbd85a881	-0.0652628
165	0x3dad2639	0.08454556
166	0x3c317e81	0.010833384
167	0x3d451ce0	0.04812324
168	0x3d33fe9d	0.04394399
169	0xbcf8fbc9	-0.030393498
170	0xbda0001e	-0.07812522
171	0xbda0b8ec	-0.07847771
172	0xbc0f2e54	-0.008739073
173	0x3cfd7752	0.030940685
174	0xbd8c4ca4	-0.068505555
175	0x3b29a702	0.0025886898
176	0x3d69aa92	0.057047434
177	0x3d84fa75	0.064930834
178	0xbccee16e	-0.025253978
179	0x3d07e633	0.03317852
180	0x3cad1277	0.021126969
181	0x3d9d11a5	0.07669381
182	0x3bead8ce	0.0071669584
183	0x3cb7eb1f	0.022450982
184	0xbd8984ac	-0.06714758
185	0x3d975d86	0.07390885
186	0xbce3421b	-0.027741482
187	0x3d7a6d30	0.061139286
188	0xbc3a66b0	-0.011377022
189	0xbd35bce4	-0.044369593
190	0xbd306a5d	-0.043070186
191	0x3d9cb756	0.07652156
192	0xbd1bcde1	-0.03803814
193	0xbd64ceac	-0.05586116
194	0xbbb8a7ff	-0.005635261
195	0xbd6d3897	-0.057915296
196	0x3cb40845	0.0219766
197	0x3d414320	0.047183156
198	0x3bc0ae7e	0.005880176
199	0x3c8d85c4	0.017275698
200	0x3cbb1de9	0.02284141
201	0x3d7b9b04	0.06142713
202	0xbcde63cb	-0.027147194
203	0x3d8555f6	0.065105364
204	0xbcec0237	-0.02880965
205	0xbc913b85	-0.017728576
206	0xbc2e95c5	-0.010655825
207	0x3d89ff25	0.06738118
208	0xbd025b15	-0.031825144
209	0x3d6803bf	0.056644198
210	0xbd93e78c	-0.072218984
211	0x3c416954	0.011804897
212	0xbd400f01	-0.04688931
213	0x3d998ca5	0.07497529
214	0xbd9373be	-0.071998104
215	0x3d143706	0.036185287
216	0x3d2d8e3f	0.042371985
217	0x3d01298f	0.031533774
218	0xbbe0a8b7	-0.00685605
219	0x3d7c9f46	0.061675332
220	0x3c6136a8	0.013745941
221	0xbc8f802a	-0.017517168
222	0xbcfbac4d	-0.030721808
223	0x3d1324d0	0.03592378
224	0xbd72d998	-0.059289545
225	0xbcd028c1	-0.025410058
226	0x3d7ff353	0.06248791
227	0xbd6fe235	-0.058565337
228	0x3d691377	0.05690333
229	0xbd18e65a	-0.037329055
230	0x3cc4f7b8	0.024043903
231	0xbc66a35b	-0.014077033
232	0xbbeef79a	-0.0072927
233	0xbcbe477c	-0.023227446
234	0x3c0d0fb2	0.008609699
235	0x3d67e243	0.056612264
236	0xbd3ba2fb	-0.045809727
237	0x3d3921cf	0.045198258
238	0x3d601096	0.054703318
239	0x3d139965	0.03603496
240	0xbd6c7017	-0.057724085
241	0x3cb2677b	0.021777859
242	0x38596172	5.1827585e-05
243	0xbd078e4e	-0.033094697
244	0xbc5c5593	-0.013448137
245	0x3cb4dada	0.022077013
246	0x3d3951e5	0.045244116
247	0x3c34b0fb	0.011028524
248	0x3a791fa9	0.0009503314
249	0x3abce06d	0.0014410146
250	0x3c5ef301	0.013607741
251	0xbcd3f922	-0.025875632
252	0x3d883261	0.06650234
253	0x3c38d4bb	0.011281188
254	0xbb031499	-0.002000129
255	0xbd9e4c6c	-0.0772942

encoder_blocks.3.0.bias f4 [12]
0	0xbd3d6724	-0.04624094
1	0x3cc048b6	0.023472171
2	0x3d8b04c2	0.06788017
3	0xbc866c6e	-0.016409125
4	0xbd2e213f	-0.042512175
5	0x3d8a60c1	0.067567356
6	0xbc6710d9	-0.014103138
7	0xbd4d483f	-0.050117727
8	0xbc91d68e	-0.017802503
9	0xbd67fe87	-0.05663922
10	0x3c3b580f	0.011434569
11	0xbae47940	-0.0017431155

encoder_blocks.3.2.weight f4 [12, 12, 13]
0	0x3bcf76aa	0.0063312845
1	0xbd684b69	-0.05671254
2	0xbc539dcd	-0.012916041
3	0x3d59f01c	0.0532075
4	0xbd1275cc	-0.03575687
5	0xbd8394a4	-0.06424835
6	0x3d08b0c0	0.033371687
7	0xbc3bffe4	-0.011474583
8	0xbd52e87c	-0.051491246
9	0xbb1aab57	-0.0023600662
10	0xbd41277a	-0.04715679
11	0x3d068d1d	0.03284942
12	0xbbff1a43	-0.007785113
13	0x3cd95244	0.026528485
14	0xbb4f2af9	-0.0031611307
15	0xbc2d6136	-0.010582259
16	0xbcfcf22c	-0.030877195
17	0xbd30a921	-0.043130044
18	0x3c24af8e	0.010051621
19	0xbd852ab6	-0.06502287
20	0x3d71040d	0.058841754
21	0xbd04f026	-0.032455586
22	0xbc12c00b	-0.008956919
23	0x3d880627	0.066417985
24	0x3d0cd0e8	0.034378916
25	0x3d42f3c2	0.047595747
26	0xba6a9d78	-0.0008949856
27	0xbd260268	-0.04052964
28	0x3cf559ec	0.029950105
29	0xbd848305	-0.064703025
30	0x3cd66273	0.026169991
31	0xbd8959c0	-0.067065716
32	0x3d4cad42	0.04996992
33	0xbd5c8348	-0.053836137
34	0xbb71dcf5	-0.0036905382
35	0x3da1fea8	0.079099
36	0x3b7df6a0	0.0038751736
37	0xba4ea697	-0.00078831
38	0xbd1c15db	-0.03810678
39	0xbd4f3b84	-0.050593868
40	0x3d78251f	0.060582276
41	0xbd97c938	-0.07411426
42	0x3b79b6ae	0.003810327
43	0x3ca042b6	0.01956306
44	0x3d205ffd	0.03915404
45	0x3c4d743a	0.012539918
46	0x3cfecee3	0.03110451
47	0xbcfe3ff4	-0.031036355
48	0xbd0464df	-0.03232276
49	0x3d8bd4c4	0.06827691
50	0xbd8b8c50	-0.06813872
51	0x3b9d336f	0.004797391
52	0x3d847cf5	0.06469146
53	0x3d805335	0.062658705
54	0x3d484596	0.048894487
55	0xbb2cec4a	-0.0026385956
56	0xbb8f348c	-0.0043702777
57	0xbd3e2adc	-0.046427593
58	0x3be40c3d	0.0069594667
59	0x3d383836	0.044975482
60	0x3d883dba	0.066523984
61	0xbc4a52ac	-0.012348812
62	0x3cc4459f	0.02395898
63	0xbcd1f2e2	-0.02562851
64	0xbd4ca561	-0.049962405
65	0xbd01bf1e	-0.031676404
66	0xbd05465c	-0.032537803
67	0xbda0c8f8	-0.07850832
68	0x3d92f175	0.071749605
69	0xbd2b64d2	-0.041844197
70	0xbcd5f647	-0.02611841
71	0x3d48ca88	0.049021274
72	0x3d90f099	0.0707714
73	0x3d74274b	0.059607785
74	0x3d95262c	0.07282671
75	0x3c7cacb1	0.015422032
76	0x3d7315db	0.059347015
77	0xbd829306	-0.06375699
78	0xbcaa4d68	-0.020788863
79	0xbd946ebd	-0.07247684
80	0x3d1086b2	0.035284705
81	0xbd82ef6f	-0.063933246
82	0xbd249257	-0.040178623
83	0xbd6aff12	-0.05737216
84	0xbd95ca37	-0.0731396
85	0xbbcafdef	-0.006194822
86	0x3d5bf3a8	0.053699166
87	0xbd9e0974	-0.07716647
88	0xbc8ba64d	-0.017047072
89	0x3d073381	0.033008102
90	0x3d254e42	0.040357836
91	0xbd36697e	-0.0445342
92	0x3c71ee88	0.014766343
93	0xbd865969	-0.065600224
94	0x3d9f9f9e	0.077941164
95	0x3d1432d8	0.0361813
96	0x3d58039c	0.052737817
97	0x3ca70e68	0.020392612
98	0x3cefb8d4	0.029262938
99	0x3d1f13b4	0.03883715
100	0xbca1344e	-0.019678261
101	0xbd3b3d71	-0.045712892
102	0xbd055e06	-0.03256037
103	0x3c0d9228	0.008640803
104	0x3d354f4f	0.044265088
105	0xbcf76890	-0.030201226
106	0x3d91e2a7	0.07123309
107	0x3d86795e	0.06566118
108	0xbcd5447d	-0.026033634
109	0x3d95368a	0.07285793
110	0x3bbd7642	0.0057819197
111	0xbcd91f6b	-0.026504239
112	0x3c9d12d8	0.019174024
113	0x3d8938a1	0.06700254
114	0xbcbad547	-0.022806777
115	0x3d4f37f5	0.050590474
116	0xbafa282b	-0.0019085457
117	0x3bc88ae0	0.006120071
118	0x3aad2308	0.0013209293
119	0x3d23f031	0.040023986
120	0x3d91b8a7	0.07115298
121	0x3c8ff83b	0.01757442
122	0x3d192c36	0.03739568
123	0xbd6c1447	-0.057636525
124	0x3d6cb3d2	0.057788678
125	0xbc157fad	-0.009124679
126	0xbb0b12f5	-0.0021221016
127	0xbd786640	-0.06064439
128	0x3d901c80	0.07036686
129	0xbd0ef916	-0.034905516
130	0x3d9b84f2	0.07593717
131	0xbc93e20d	-0.018052125
132	0xbd2aa7c9	-0.04166392
133	0xbd77193c	-0.0603268
134	0xbd46f8f3	-0.04857726
135	0x3d4ec6a3	0.050482403
136	0xbd5f81b9	-0.054567073
137	0xbcf83db5	-0.030302862
138	0xbc697e7e	-0.0142513495
139	0xbb870567	-0.004120517
140	0xbae01093	-0.0017094783
141	0x3c307f57	0.010772548
142	0xbda2cead	-0.079495765
143	0x3c66e114	0.014091749
144	0x3d2fd625	0.042928834
145	0xbcb4c9c5	-0.022068867
146	0xbd506545	-0.05087783
147	0xbc0c81c2	-0.008575859
148	0xbd80d83a	-0.06291242
149	0xbd0b3f5a	-0.033995964
150	0xbc6f5579	-0.014607781
151	0x3a117ac7	0.0005549606
152	0xbccce988	-0.0250137
153	0x3cf31384	0.029672392
154	0xbc8bc7ac	-0.017062984
155	0xbcd71948	-0.026257172
156	0x3bc34e1e	0.00596024
157	0xbd47f4f1	-0.04881758
158	0x3d39d41a	0.04536829
159	0x3c9b6dcc	0.018973254
160	0xbca85f55	-0.02055327
161	0x3d9c2fd9	0.07626314
162	0x3d972d1b	0.0738165
163	0xbcb2edf2	-0.021841977
164	0x3d957457	0.07297581
165	0x3ca03fce	0.019561674
166	0x3c7d85dd	0.01547381
167	0xbd2289bc	-0.039682135
168	0x3d6b0a74	0.057383016
169	0xbc5df5af	-0.013547345
170	0x3d31ccf8	0.043408364
171	0x3cb3c691	0.02194527
172	0xbd06cc02	-0.0329094
173	0x3d3308cd	0.043709565
174	0xbd9d834a	-0.07691057
175	0xbcfb32ef	-0.030663935
176	0xbd90997f	-0.07060527
177	0x3d8f30b8	0.06991714
178	0xbd1a69ba	-0.037698485
179	0x3be558b9	0.006999102
180	0xbd287e15	-0.041135866
181	0xbce2f7a9	-0.027705984
182	0x3cc4147a	0.023935545
183	0x3d8abf3d	0.06774757
184	0xbd46141d	-0.048359025
185	0xbd165b5c	-0.03670822
186	0xbce696c5	-0.028148064
187	0x3c77f88e	0.015134944
188	0xbd671ef1	-0.056425992
189	0xbcb78113	-0.022400415
190	0x3d8f41c0	0.06994963
191	0x3d603635	0.054739196
192	0x3bec41ac	0.007209977
193	0x3d6aec50	0.05735427
194	0x3cd7869a	0.0263093
195	0xbc6fb72e	-0.014631076
196	0x3c2177c6	0.009855216
197	0xbda42430	-0.08014715
198	0x3b309759	0.002694568
199	0xbcf5b2da	-0.02999251
200	0xbd493c24	-0.04912962
201	0x3d140c59	0.03614459
202	0x3d9d4535	0.07679216
203	0xbc1c48eb	-0.009538869
204	0x3baea089	0.005329196
205	0x3bdb3e90	0.0066908076
206	0x3c228884	0.009920243
207	0x3d1e2439	0.038608763
208	0xbd270d18	-0.04078397
209	0xbba3cd9c	-0.004998876
210	0xbd65843c	-0.05603431
211	0x3d456d3e	0.048199885
212	0x3d47a24c	0.048738763
213	0xbd5f158a	-0.0544639
214	0xbd65668e	-0.056006007
215	0x3be722ac	0.0070536938
216	0x3d84090f	0.0644704
217	0xbccbd099	-0.02487974
218	0xbd62cfb4	-0.055373862
219	0x3b9c986b	0.004778912
220	0xbd001efb	-0.031279545
221	0x3cb7fcc5	0.022459397
222	0x3d0c38bd	0.034233797
223	0x3ca556ad	0.020182932
224	0x3d1da730	0.03848952
225	0xbd07cc05	-0.033153553
226	0x3d4001b2	0.046876617
227	0xbb4eba4e	-0.0031544152
228	0xbc04217e	-0.008064626
229	0xbd3ba616	-0.04581269
230	0xbc7f54a6	-0.015584147
231	0xbd469d4c	-0.048489854
232	0x3ce1f20f	0.027581243
233	0xbd0d7908	-0.034539253
234	0xbd552cea	-0.052044787
235	0xbd8bc7fd	-0.06825254
236	0xbd90c883	-0.070694946
237	0xbce19a7e	-0.027539488
238	0x3cbdd751	0.02317396
239	0xbd31c2d1	-0.043398682
240	0x3cc8323c	0.024438016
241	0xbd3bb906	-0.04583075
242	0x3d8788ef	0.06617915
243	0xbbbb19a1	-0.0057098423
244	0xbd4dbd41	-0.050229315
245	0x3d7c6e55	0.06162866
246	0xbd6adf36	-0.057341777
247	0xbd3630bf	-0.04448008
248	0x3c3b94f0	0.011449084
249	0xbb8ff820	-0.0043935925
250	0x3d9f5c70	0.07781303
251	0xbc3a5688	-0.01137317
252	0x3d927c92	0.07152666
253	0x3c28ae10	0.010295406
254	0x3d958210	0.07300198
255	0x3d59dc64	0.053188697

encoder_blocks.3.2.bias f4 [12]
0	0xbd9b0500	-0.07569313
1	0xbd464e43	-0.04841448
2	0xbd989505	-0.07450298
3	0xbd317820	-0.04332745
4	0xbd0a4c22	-0.033764012
5	0x3cc3b123	0.023888176
6	0x3b8f4938	0.004372742
7	0x3bb27410	0.0054459646
8	0xbc531394	-0.012883086
9	0x3d703249	0.058641706
10	0x3cc36c48	0.023855343
11	0xbc57bf46	-0.013168162
