Python/save/localizer/trial_2/quake_localization_model_00460.pth (torch, 252994 bytes, 35 tensors)

encoder_blocks.0.weight f4 [12, 1, 13]
00000000: 6c41 423e 7228 483e da8b 633e 8d26 a73d
00000010: b953 3e3e 0471 cf3d 1945 ddbd 0a23 80bd
00000020: b0f1 52be aa1c 4dbe 99d6 44be 3e9f b03d
00000030: 695d b3bd 37c0 5bbe ca8c 7cbe da91 80be
00000040: e03c 06be 728d e53d 5c3f 30be 023a 903e
00000050: 0bc8 49be 68d6 9dbc 8f3c 973d a6b5 303e
00000060: b680 203e 87ca 21bd 82af 8d3d fed3 aebd
00000070: bbe5 b93c 0211 993d c8e4 5fbe 6a1c 41be
00000080: dfbd 203e 80a7 8bbd 1091 dabd b218 dbbd
00000090: 7c01 0ebc f783 e2bd 4ae4 7abe 9817 9e3d
000000a0: 4f55 f33c dd24 55be 29be 973d bab6 1ebe
000000b0: 255e 10be 0fd2 b23d 0203 123d 0eef 183d
000000c0: 3696 bdbd d830 343b 9a17 883e 3309 81be
000000d0: 97f0 6e3d 8372 2b3d 4a14 b3bd 02a5 aabb
000000e0: f1c1 15be 5039 e4bd 79d2 15be 1a46 373e
000000f0: 150b 0abd 9ca3 f43d f548 37bc 5f3b 07be
00000100: 666d 2dbe 6bfe b0bd d6bd 6f3e ab52 c93d
00000110: 38d4 f6bc 3994 68bd 8e6b 993d ce87 663e
00000120: 8d30 75be 8e6a a03d a2cb 1c3e 3536 4dbe
00000130: c725 693e 9ae6 293e 5563 f1bd f817 f83c
00000140: 2aa3 f83d 8724 dd3d 3ce3 863d d5ca 0cbd
00000150: cc31 a3bd 5e0f 793e 36eb 103e c3de 143e
00000160: 5bf9 89be 24d9 f83d 3f92 19be 5e25 be3d
00000170: f664 c3bd a199 56bd 998d e03d 33f0 4fbe
00000180: 285d 8b3e 28be 4b3e b25a b5bd 0e4c 123e
00000190: 1b78 2fbe 223a 553c 7d6f 5c3e dd84 bb3c
000001a0: 59eb 35be f31c 7bbc 1d33 35bd f40c 90bd
000001b0: 70e5 283e 5e5f 473e f1de 403e d9df 7f3e
000001c0: a727 213e 2600 3f3e f4c4 683e 5b08 0ebe
000001d0: dfe9 283e b622 863e 1fe4 a5bd ac5d 49be
000001e0: 8136 62be 2383 323c 1209 3abe c4f3 46be
000001f0: 00c0 043e ef17 5a3e 3651 46be 0254 8b3e
00000200: 5723 443d 06e0 e63d bbc3 903e 2b5d 65be
00000210: b3a7 8d3e c40c ba3c aac4 12bd f4a9 533e
00000220: 357c f03d b3d5 d83c 9815 2abd 5990 4fbd
00000230: 9cfe fdbb 3704 d3bd e44d 42be 171d 963d
00000240: 5e21 183e d9bf 56be 4730 5dbd 7b50 68be
00000250: ea9d 8abe 30d3 b73d 0e67 75be 477e d2bd
00000260: 8f08 33be 018b 733e c31e 45be f281 f3bd
0.18970269 0.19546679 0.22221318 0.0816165 0.18586625 0.10128978 -0.10804195 -0.06256683
-0.20600009 -0.20030466 -0.19222488 0.08624123 -0.08758051 -0.21460043 -0.24663082 -0.25111276
-0.1310916 0.11208619 -0.1721167 0.28169256 -0.19705217 -0.019267276 0.073845975 0.17256793
0.156741 -0.039499786 0.06918241 -0.08536528 0.022692552 0.07473947 -0.21864617 -0.18858495
0.1569743 -0.068190575 -0.106722 -0.1069807 -0.008667346 -0.110603265 -0.24501148 0.07719344
0.029703764 -0.20814843 0.07409317 -0.15499392 -0.14098413 0.08731472 0.0356474 0.037337355
-0.09257166 0.0027494933 0.26580507 -0.2520233 0.058334913 0.041857254 -0.08744104 -0.0052076587
-0.14624764 -0.11143744 -0.1463107 0.17897835 -0.033701975 0.119452685 -0.011186828 -0.13206242
-0.16936263 -0.086422764 0.2341226 0.09830221 -0.03013049 -0.05678198 0.074912176 0.22512743
-0.23944302 0.07832824 0.15312055 -0.2004021 0.22768317 0.16591874 -0.11786524 0.030284867
0.12140496 0.10797983 0.0658631 -0.034373123 -0.079684824 0.24322268 0.14152226 0.14538102
-0.26948056 0.12150791 -0.14997195 0.09284471 -0.09540741 -0.052392606 0.109645076 -0.20306472
0.2721951 0.19896758 -0.088551894 0.14286825 -0.1713566 0.013014348 0.21526904 0.022890503
-0.1776556 -0.015326726 -0.0442382 -0.070337206 0.16493773 0.19469973 0.18835045 0.24987735
0.15737782 0.186524 0.22731382 -0.13870375 0.16495465 0.26198357 -0.08100151 -0.19664639
-0.22091104 0.010895523 -0.18167523 -0.19428927 0.12963867 0.21298192 -0.19366917 0.2721253
0.047885265 0.11273198 0.2827433 -0.22398822 0.27667007 0.022711165 -0.035832085 0.206703
0.117424406 0.026469087 -0.0415245 -0.05067477 -0.007751299 -0.10303538 -0.18975025 0.07329767
0.14856479 -0.20971622 -0.05400112 -0.22686951 -0.27073604 0.08975828 -0.23965093 -0.10277992
-0.17483734 0.23783495 -0.19250016 -0.118900195

encoder_blocks.0.bias f4 [12]
00000000: cc99 38be 6eac 273d 756a 853e 3869 ebbd
00000010: 90a9 883e 7fbf 83be 7165 813d 0a42 de3d
00000020: 0ac7 993d 4f2f 9bbd 47d7 0e3c de4d d93d
-0.18027419 0.040935926 0.26057783 -0.11494678 0.26691866 -0.25732037 0.063181765 0.1085244
0.07508667 -0.07577383 0.008718318 0.10610555

encoder_blocks.1.0.weight f4 [12, 12, 13]
00000000: b8d9 6cbc 289b 563d 59b6 8e3d 545d dabc
00000010: b537 3dbd 10fd 793d 2350 32bd 3549 a83c
00000020: feb2 46bd b76f e1bc 67ad 1bbd eaef 543d
00000030: 721d 3a3c aaaf 773d 17e2 42bd 483a 9cbc
00000040: 6154 48bd 012f 903c 5043 c93b c9aa 55bd
00000050: 0d46 dbbc 39ba 97bd 2bd4 d2bc 1696 9cbc
00000060: f1bb 2abd 7ce7 3c3d 33de 00bc b241 8c3d
00000070: 4d03 60bb 7fa0 f13b 4d79 65bd 7cda 90bd
00000080: cebd 9d3d d147 aabd 4e51 6d3d 2c0f 5dbc
00000090: 529f 553d cb8d a63d 0976 933d 414b a9bd
000000a0: e09e 103d 94ce 7dbd 8352 023d c28c 0c3d
000000b0: 7e96 893d b90a 793d b4c1 943c 99ed 76bd
000000c0: 6afc 46ba 182b 9ebd 4d7d 87bd 9da1 803d
000000d0: a718 a43b 7f2e 373d dd78 5a3a 3ddf 92bd
000000e0: 0f41 933d e6aa 2f3d 1498 b7bc 1770 633c
000000f0: 53f4 df3b 2708 2dbc 3bc3 68bd b4e6 903c
00000100: 9dcc b7bc 7c3a 2c3d 8c77 1abd b5f9 df3c
00000110: db71 5d3c f3d7 43bd 65f2 68bd fcbc 4dbd
00000120: f70b 753d 1037 91bd f83b 2f3d f130 973d
00000130: 94f4 fb3c 758c 36bd 9d32 0a3d 127e acbd
00000140: ab11 723b e7f2 4b3d 0c3d a33d acea 2fbd
00000150: ac63 7ebd fff7 813c 50df 43bd cbca 363c
00000160: 74d4 583d 2d3b 883d 64c7 ba3c 1b08 3abd
00000170: 0472 69b9 7207 f8bc f2ca 40bd 62fd a9bc
00000180: ec9c 0abd 7767 5ebd bbb1 813d 2063 503d
00000190: 0fae 88bd 0b8b edbb 251b a4bc a64d dd3a
000001a0: a774 8d3d d8f0 c6bc f718 193b b560 9dbd
000001b0: 9f83 ed3c 2f34 45bd 5ca9 9e3c c2a7 00bd
000001c0: ee91 07bc 6ec1 333d fdc7 193d 60e3 6a3d
000001d0: a11c 883d e310 88bc 03b5 fabc f281 92bc
000001e0: fa7a aa3b bf63 0f3d 0296 39bd 0a67 9ebd
000001f0: 2d36 8ebd 4d1b 46bc a373 9dbc c4d1 7dbc
00000200: 0846 00bd c670 7dbd 7f84 02bd a296 383c
00000210: e818 89bd d0cf af3c 2656 13bd 262d 8c3d
00000220: f678 70bc dcaf 503b 241b 29bd bcb6 04bc
00000230: 0ccf 84bd e47b 2abd b04f 98bc 63bb cdbc
00000240: 8f2e 3a3d efff adbc e08d 88bc 1b63 823d
00000250: f38d 94bd 3c12 943c 8457 23bd d2ce da3c
00000260: 71d2 1a3d d7b9 0bbd 663f 3c3d ac12 98bd
00000270: f8bb 02bd 2c6f 3c3d 4ea3 81bd e236 323d
00000280: 1e2f f03c 34d6 90bd 50fa 84bd 05e5 353d
00000290: 4729 a33d d236 873d d511 2dbd daa1 583d
000002a0: 1aa0 6a3d c297 92bd a7b1 82bd b178 1e3d
000002b0: df1a 883d 030d 733d c3a0 853d ab1e 223d
000002c0: 41dd 9d3d 84cf c33c ead5 ddbb 3264 e83c
000002d0: 3fdf 87bd 5989 843d 8376 553a bc16 0b3c
000002e0: e42f a13d 2bc0 903d 0e10 6e3b 48be 13bd
000002f0: 242e 4dbd b800 41bd 2a3b 343d afd4 debc
00000300: 5f6e 8ebd 47ff f13c ca3b b23d 0aba 9f3b
00000310: 3d66 433c bd38 753c 250c db3c 531a 913c
00000320: 0b53 06bd 6c28 87bd 0908 b2bc fcb0 e43c
00000330: 98d2 f8bc f1ff a93d 8704 f7bc 0a5f 9b3d
00000340: 5f25 3dbd 5609 52bd fc01 15bd e162 80bd
00000350: 8362 453c bd33 2bbc ca90 3c3d 3ae1 85bd
00000360: 2b11 a9bb ea9b 91bc ca27 5c3d 9e69 4bbc
00000370: 0b95 be3c c576 913d 6c19 2cbb 5e50 9c3b
00000380: e93e 473d 3af4 c03b a6a1 423c 4751 1d3c
00000390: 623e b43c 1440 493d 1c39 96bc 2e17 39bd
000003a0: 06a1 cabc 71d5 123d bde1 003d 1137 dabc
000003b0: 58db 8f3d 9383 87bd 9805 70bd 3349 9e3d
000003c0: d5b0 c83c 50aa 4f3d e556 4d3c 7c75 8ebd
000003d0: d1de 82bb 21cd 923c 42e5 4bbd 8f36 9dbd
000003e0: 152b 02bd b39b e9bc 3b88 5d3d c4a8 8a3d
000003f0: a6ee 68bd b153 a03b 84ff 85bc ed1e 943b
-0.014456205 0.052394062 0.06968374 -0.02665583 -0.046195704 0.061032355 -0.043533456 0.02054272
-0.048510544 -0.02751909 -0.038007166 0.051986612 0.011359559 0.06047026 -0.047578897 -0.01907076
-0.048908595 0.017600538 0.0061420575 -0.052164827 -0.026766801 -0.07408566 -0.025735935 -0.019114535
-0.04168314 0.0461192 -0.007865476 0.06848468 -0.0034181655 0.007373869 -0.056023885 -0.070729226
0.07702218 -0.08314479 0.057938866 -0.013492387 0.052153893 0.081325136 0.07200248 -0.08266307
0.035307765 -0.061964586 0.03181697 0.034313925 0.06718157 0.06080124 0.018158771 -0.060285185
-0.0007590713 -0.07723063 -0.06615696 0.06280825 0.0050078216 0.044722077 0.000833405 -0.071714856
0.07190143 0.04288759 -0.022411384 0.013881705 0.0068345456 -0.010561026 -0.05682681 0.017688133
-0.022436434 0.042047963 -0.037711665 0.02734075 0.013515915 -0.047813367 -0.05687179 -0.050229058
0.059825864 -0.070905805 0.0427818 0.07382382 0.030756272 -0.044567544 0.033739675 -0.084224835
0.00369368 0.049792197 0.07970628 -0.04294841 -0.062106773 0.015865324 -0.04782039 0.011156748
0.052936986 0.06651912 0.022800155 -0.045417886 -0.00022263086 -0.030276988 -0.047068544 -0.020750705
-0.03384106 -0.05429789 0.063327275 0.050875783 -0.06673824 -0.007249241 -0.020032475 0.0016884103
0.06907015 -0.024284765 0.0023360827 -0.07684461 0.028993426 -0.04814547 0.019367866 -0.031409986
-0.008274538 0.04388564 0.03754424 0.057345748 0.066460855 -0.016609615 -0.030603891 -0.017884228
0.005202648 0.035007235 -0.045309074 -0.07734497 -0.06943927 -0.01209147 -0.019220179 -0.015491907
-0.031316787 -0.061875127 -0.03186464 0.011266382 -0.066942036 0.021461397 -0.03597083 0.06844549
-0.014677277 0.0031843102 -0.04128565 -0.008100208 -0.064848036 -0.041622058 -0.018592685 -0.025113767
0.045454558 -0.021240203 -0.016669214 0.06366559 -0.07253637 0.018075101 -0.039878383 0.026709948
0.03779835 -0.034112778 0.0459589 -0.074254364 -0.031917542 0.04600446 -0.06329976 0.04350937
0.029319342 -0.07072106 -0.06493056 0.044407863 0.079668574 0.06602253 -0.042253334 0.05288873
0.05728159 -0.07157852 -0.06381541 0.03868932 0.0664575 0.05933858 0.065248035 0.03958003
0.077082165 0.023902662 -0.0067698853 0.02836809 -0.06634378 0.064715095 0.0008142965 0.008489307
0.078704625 0.07067903 0.0036325487 -0.03607014 -0.05009283 -0.047119826 0.044001736 -0.027201025
-0.06954645 0.029540671 0.0870281 0.0048744725 0.011926231 0.014967141 0.02673919 0.017712748
-0.03279404 -0.06599507 -0.021732347 0.027916424 -0.030373856 0.0830077 -0.030153526 0.07586487
-0.046178218 -0.051278435 -0.036378846 -0.0626886 0.012047413 -0.010449347 0.04603652 -0.06537099
-0.0051595173 -0.01777454 0.053748883 -0.012415318 0.023264429 0.071027316 -0.002626027 0.0047703227
0.04864398 0.005888489 0.01187936 0.009601898 0.022002403 0.049133375 -0.018337779 -0.04518812
-0.024734985 0.035848085 0.03146528 -0.026637586 0.070242584 -0.06616893 -0.058599085 0.077288054
0.024498383 0.050699532 0.012532924 -0.06956002 -0.003993847 0.017920079 -0.049779184 -0.07676422
-0.031779367 -0.028516626 0.054084998 0.06770471 -0.056868218 0.0048927893 -0.01635719 0.004520288

encoder_blocks.1.0.bias f4 [12]
00000000: b0df 603c 37a2 03bc 79c0 1abd 2491 933d
00000010: 60e3 b0bd f72b 4e3d d6b1 93bc 8f87 0abd
00000020: 526c fe3c 9f49 ad3d 2b28 ce3d e600 053d
0.013725206 -0.0080342805 -0.037781212 0.07205418 -0.08637118 0.050334897 -0.018029135 -0.033820685
0.03105751 0.08461308 0.10066255 0.03247156

encoder_blocks.1.2.weight f4 [12, 12, 13]
00000000: 4532 813d f7ea 44bd 53ba 553d ec0b 973d
00000010: b571 4f3d 5bf6 2c3d 2d24 3d3c c521 563b
00000020: e080 21bc 23f7 f9bc 422c 3bbb 1723 06bc
00000030: 47ca 843d 72f8 59bd 1c52 9f3c 0ebf 5dbb
00000040: f63d 113b 6403 433d 0827 a33d ff12 78bd
00000050: 5dda ae3d 7a63 66bd 1684 be3d d5ab a4bb
00000060: 8e5f 763d a948 7e3d 184a 41bd 1bdd 98bd
00000070: c55b 2f3d 755c 863c 32d4 09bc 7b75 f2bc
00000080: 8104 97bd 973b 48bd 00aa 993d bc1d 043d
00000090: 1ac4 653d 1115 0dbd 3c00 2a3d d893 813c
000000a0: a157 edbc 3e45 e6bb 3ae0 003d f2cb abbc
000000b0: 1958 753d 9a1a 103c 4355 40bd 9c9d 6c3c
000000c0: 3879 963c b585 82bd 9ef8 76bd 9669 923d
000000d0: 0180 853d d30c af3c 43ae 53bd ca55 22bd
000000e0: b852 9d3c 9acf ffbb b2a9 943b 2c8b 933d
000000f0: 64a5 013d 2474 5cbc 57ce 60bd 03ab 3d3c
00000100: 910e cc3c 223a 8c3d 382c 10bd bf82 81bd
00000110: fdda 983c 957a 64bd 3b35 723d 5d00 e2bc
00000120: 3964 90bd 2e2c 98bd cc2c 05bc 486e 2f3d
00000130: 8372 1abd 0fd6 19bb 71aa 1fbc fc93 2f3d
00000140: 8842 0d3d 2f96 e8bc 4dd9 573c 3577 043d
00000150: 5e7a b7bb cba8 45bc bfe7 943c dd5a a63c
00000160: 335b 58bd 96b7 363d 2116 c3bc 5d06 a13d
00000170: 18ee 323b 4697 333d 8b36 d83c 32b9 a03d
00000180: 6ded ff3a f740 833c 888c 98bd ec0e ea3c
00000190: 3359 643c 71a3 27bd 9046 8ebd fc7f ad3d
000001a0: d6aa 8dbd 0693 5a3d 2d22 0fbc b7f7 0ebc
000001b0: 0c9b 8abd f5a4 0e3d cf10 1c3d 556d e33c
000001c0: 2cf2 b2bc cac3 043d f13b f1bc 3e54 203d
000001d0: 4508 053b 191f 8b3d 3571 d6bc 189f b9bb
000001e0: e935 7dbd d55c 3f3d 8b70 a73d a2ad 853d
000001f0: 199d 98bd 0c08 823d 4e6d 20bc 1502 3bbb
00000200: 99fa 1d3d 19b9 353d 9bc0 15bd b872 abbc
00000210: 6eb6 703d 8588 76bd 1545 3c3d f8da 0cbd
00000220: 4a2f 49bd 2315 9f3d 85c2 4fbd 4a09 05bd
00000230: f257 ab3d 350c 41bd 228c 883d 60ae 9fbd
00000240: 8938 9ebc e985 7ebc b0b1 aa3d 6568 0d3d
00000250: 6491 f0bc edf7 8e3d e58a e13c 3e12 943d
00000260: 4f6b d03c 35af 863d 6ec1 a73d ce71 fbbc
00000270: 66a7 243a b3ad dfbb f3bd 86bd 5c3e 67bd
00000280: 7656 88bc c817 afbd 6524 c13c bb57 59bd
00000290: 375c ebbc 141b 1c3d f6c5 4c3d c145 aabc
000002a0: e5c1 febc 6bd3 9fbd c833 edbc 2b88 5b3c
000002b0: 9401 20bc 8177 783d aa0d b53d adbd 283c
000002c0: e11f 143d ad92 973d 4b6b 873b 451e abbd
000002d0: e0a2 793d 66ad 88bd 3cc5 41bd 3133 713c
000002e0: 9490 893d f974 e53c 8b81 3cbc c828 5c3d
000002f0: 3a06 a5bd 4b8d a53d 6a98 62bc d0af e63c
00000300: c698 5fbc 7045 a53d 3897 cd3b e116 05bd
00000310: 79ba a63b 51c7 51bb ad11 553d b79c 02bd
00000320: f320 88bd b518 b43b c07a 89bd f947 49bd
00000330: b47c 8b3d a4d8 183d 504b 62bd 07c3 913c
00000340: de6c 4b3d 5bad 09bd 586e 68bb 6410 7abd
00000350: afb4 1cbd 7986 983d 0d3f 90bd f5a7 a13d
00000360: f6f5 fabb 5833 cfbc f901 ba3c 1829 073d
00000370: 3d61 11bd 3d15 883d 59fb 733d 66f0 60bb
00000380: 987d d4bc a590 97bd 804a 443d 281c 173d
00000390: 5a41 87bd 531b 983d c56d 5a3d a556 2f3d
000003a0: 6d85 95bd 8383 8d3d 1d54 7cbb cf03 8c3b
000003b0: 6a0d 2fbd e071 ddbb e418 e0bc 3b5b 3a3c
000003c0: a4f6 823d 47a2 1bbd f61f 753c 5e8d 863c
000003d0: 7778 fc3c 8820 153d 82d9 adbd d811 863c
000003e0: 5259 9ebc 76e0 4b3d daa9 9e3c cf39 76bd
000003f0: d6cc 033d 240a 8e3d 4214 59bd 02ef 7cbd
0.06308416 -0.048075642 0.052179646 0.07375321 0.05064555 0.04222713 0.0115442695 0.0032673937
-0.009857386 -0.030513352 -0.0028560315 -0.008187077 0.06483894 -0.05321545 0.019448332 -0.0033835801
0.0022162176 0.047610655 0.07966429 -0.06056499 0.08537743 -0.056247212 0.09302537 -0.005025367
0.06014972 0.062081013 -0.047189802 -0.074640475 0.042812128 0.016401509 -0.008412408 -0.029597035
-0.07373906 -0.048884954 0.07503128 0.03225492 0.05609522 -0.03444392 0.04150413 0.015817568
-0.028972449 -0.0070272973 0.03146384 -0.020971272 0.05989847 0.008795405 -0.046956312 0.014441874
0.018368348 -0.06373159 -0.060295694 0.07149045 0.065185554 0.02136842 -0.05167986 -0.039632596
0.019204482 -0.0078067305 0.004536831 0.07204279 0.03165187 -0.013455424 -0.05488428 0.011576417
0.02490929 0.068470255 -0.03519842 -0.06323766 0.01865911 -0.055780966 0.059132796 -0.027588064
-0.07050366 -0.074303016 -0.008128356 0.04282978 -0.037706863 -0.0023473536 -0.009745226 0.04286574
0.034487277 -0.028391926 0.013174367 0.032340247 -0.005599304 -0.012064169 0.018176911 0.020306999
-0.05282135 0.044608675 -0.023814263 0.07862542 0.002730256 0.043845437 0.026393196 0.07847823
0.0019525714 0.016022189 -0.07448679 0.028571568 0.013937282 -0.040927354 -0.069470525 0.08471677
-0.0691735 0.05336287 -0.0087361755 -0.008726052 -0.06767854 0.034825284 0.038101967 0.027762095
-0.021843992 0.03241328 -0.029447528 0.03914284 0.0020299118 0.06793041 -0.026177028 -0.0056647174
-0.06181899 0.04671939 0.08175763 0.065272585 -0.07451839 0.06349191 -0.009791685 -0.0028535177
0.038569067 0.044365976 -0.036560636 -0.020928726 0.05876773 -0.06018879 0.04596432 -0.034388512
-0.049117364 0.077677034 -0.050722618 -0.032479562 0.083663836 -0.047130782 0.06667353 -0.07796931
-0.019314067 -0.015534856 0.083346725 0.034523387 -0.029366203 0.06980882 0.02753205 0.07230042
0.025441794 0.06576387 0.08191191 -0.030693915 0.0006281048 -0.0068261265 -0.06579199 -0.056455955
-0.01664279 -0.08549458 0.023576925 -0.053062182 -0.028730495 0.03811176 0.049993478 -0.020785214
-0.031098315 -0.07803997 -0.028955355 0.013399164 -0.009766001 0.060660843 0.08840497 0.0102991285
0.036163215 0.07401023 0.0041326634 -0.08355383 0.060946345 -0.06673698 -0.047307238 0.014721678
0.06717029 0.028009878 -0.011505495 0.05374983 -0.08057828 0.0808359 -0.013830284 0.028160006
-0.013647264 0.08069885 0.00627413 -0.032492522 0.0050881472 -0.003200967 0.05201881 -0.031887736
-0.066469096 0.0054961094 -0.06712866 -0.049140904 0.068108946 0.03731598 -0.055247605 0.017793192
0.04966437 -0.03361259 -0.003546616 -0.061050788 -0.03825825 0.074475236 -0.07043276 0.078933634
-0.0076587154 -0.025293037 0.022706019 0.032998174 -0.035493124 0.06644676 0.059565876 -0.0034322976
-0.025938794 -0.07400636 0.04792261 0.036892086 -0.06604262 0.07427087 0.05332734 0.04280724
-0.073008396 0.069098495 -0.0038502284 0.004272915 -0.042737402 -0.0067579597 -0.027355619 0.01137429
0.06394699 -0.037996557 0.014961233 0.016424831 0.03081916 0.036407977 -0.08488752 0.01636593
-0.0193297 0.04977461 0.0193681 -0.060113724 0.03217777 0.06935528 -0.052997835 -0.061751373

encoder_blocks.1.2.bias f4 [12]
00000000: afd0 03bc 65a6 cd3c 340e bf3d 9045 183d
00000010: 0ecd c43c 33c4 36bd 5a84 65bd aa49 55bd
00000020: 79ea 2d3d 166b 9c3d 13cb 8f3d 3e45 e3bb
-0.0080453595 0.025103757 0.09328881 0.037175715 0.024023559 -0.044620704 -0.056034423 -0.052072205
0.04245994 0.076376125 0.07021155 -0.0069357445

encoder_blocks.2.0.weight f4 [12, 12, 13]
00000000: e783 963d 4a62 30bc 14b5 c73c 91e1 5b3d
00000010: 9d9b 1b3c 8341 323d d911 a03d 7650 2c3d
00000020: 4aa5 a63c bee5 99bd b504 403d b7ec 80bd
00000030: 01fe 833d 375f a9bd 7bc2 a43d b711 2ebd
00000040: 7af9 a53b 59d8 b13c 7223 6bbd 9ec1 a6bc
00000050: 9be8 3b3d 9fd4 97bd 4e2a 1b3d c577 703b
00000060: 08d7 323d 4885 61bd 6ce2 203d c5cf 13bd
00000070: c51e b0bd 8533 54bd 0eb9 e63c d80d 6d3b
00000080: 7439 90bd bf97 20bd f9db 8e3c 0edc 7abd
00000090: 33a0 d53a fa50 72bb bcf4 823d c028 fe3c
000000a0: 1429 adbd d7eb 2cbc 0647 5a3d b8b1 e43c
000000b0: 796e 523c 70ea 0bbb 4269 0cbd 9a88 80bd
000000c0: 5b57 993d 2d97 7a3c a1c2 9c3b d84f 473d
000000d0: 47c0 2f3d d00b b0bc 0364 ed3c 2b69 9f3c
000000e0: 1da9 b53c ebd0 893d 0b26 853d 0647 a9bd
000000f0: dbdb a838 5ed7 e63c 5a41 8b3d 148b fa3c
00000100: bdf1 8b3c bbeb bcbc 9875 c03c 2a30 843c
00000110: f577 89bd 0646 90bd c3ef 91bd 235c d8bc
00000120: 3f7a 8d3d bd9c 093d 49bb 94bd 1195 0c3b
00000130: 6a85 0bbd 83aa 813d 2b86 533d 2345 263c
00000140: 128a 26bc 021b 103c 0976 463b 0a12 073c
00000150: 7644 8b3c c36e f2bc 3f44 dfbc 915b 6dbd
00000160: 4259 c8bc f3b0 df3b 7c3a 7a3d 3280 f0bc
00000170: 16bf 9ebd 1a92 743d 1895 12bc 48f1 3dbd
00000180: 1de0 023d 1a9a 3ebc bf4f 8dbc 75de b43d
00000190: a7dd 56bd 2eec e03c 4447 493d 040f 2ebd
000001a0: 6c5c b3bc 3739 48bd 187f 7f3c 9c56 5fbd
000001b0: ffd7 833d ef18 9f3d 0503 f9bc 5a9a 4d3d
000001c0: 31e2 85bd c5ac c4bb 60cc 113d 9fcd 8abd
000001d0: d2ad 21bd d4c5 20bd 8a30 0c3c 0dd9 84ba
000001e0: cfe7 84bd be0d 8e3d 3fd9 a1bd 40cc 143d
000001f0: 721a 9bbc 25a0 6bbd 21bb 573c 0ebf 2ebd
00000200: b331 2ebd cbaf 84bd 879e 91bd 0d6c 84bd
00000210: 033a a3bd a560 73bc 3acc a83c a1a6 ce3c
00000220: 6212 8f3d 0a0f 783a 1a72 89bb 974d 893d
00000230: b93b 133d 4ef9 023d 8456 5abd cadd 513c
00000240: 927c 8dbd 2391 6bbd 469d 873d 19b9 80bd
00000250: aac5 4fbd e42c ef3a c13c cc3c 6c4e 323a
00000260: 9821 763c 30cf ab3d db15 5abd 613b 733d
00000270: bd8d 693d 321a 28bd e930 f13b 8fd0 513d
00000280: 75e8 0abd 9635 113d 56c0 7dbc 2706 09bc
00000290: 79da 893c 81b4 1eb7 8ce8 233d c29a 8f3d
000002a0: 60ba 08bd e1f9 b53d 9780 283d c3d6 88bc
000002b0: b69f 4cbd f58a 0fbd b596 1e3c 43ec 213d
000002c0: c647 babc 6285 f8ba 75a2 643d 29d3 283d
000002d0: 385b eebc 3016 a33d 5e60 ceb9 9d81 de3c
000002e0: fae8 13bd 25b3 4d3d b500 8f3d 4cd1 803b
000002f0: 2f14 80bc 16a2 bf3c d004 64bd 82df c4bc
00000300: caaa ea3c 581b 083b f9ef 893d e648 953d
00000310: 048a 853d 882a 7f3d e231 58bd 155e 8a3c
00000320: 7d4d ac3c ade0 3d3d d1b3 bfbc f839 023d
00000330: 89cd bcba bcf6 833d b94a f4bb 84f7 28bc
00000340: fc98 b53c 28b6 d03b fde6 053d fad9 963d
00000350: 3210 5ebd 38bd 583d 9be6 663c e33e bfbc
00000360: 7ed5 45bd d23f 94bd 5daf 96bd 17f7 033d
00000370: cb36 733d b662 633c 41cd 2f3d d694 6fbb
00000380: 3be0 8cbd 4e53 573d fd05 983d 11c4 77bd
00000390: 830e d6bc 9a06 893d 8e3a f3bc c3e0 6abd
000003a0: de71 f53c bf98 6b3d c3ea 87bd 24ed fe3c
000003b0: 4dee ea3c 41c3 4fbd 8636 6c3d f890 8abd
000003c0: e8b9 f8bb 20c5 143a adb6 533d 2408 0f3d
000003d0: bbbe 9abd f85e 903d 95b0 48bd 41ce 2ebd
000003e0: e347 22ba ea3f 32bd 308b 2e3d 4457 413d
000003f0: 50e3 c3bc 8cc0 13bc 12f4 2a3c d94e 0dbd
0.07349377 -0.010765621 0.024378337 0.053681914 0.00949755 0.043519508 0.07815904 0.04206892
0.020342488 -0.07514523 0.04687949 -0.0629515 0.06444932 -0.08270114 0.08044907 -0.042497363
0.0050651403 0.021709608 -0.05740685 -0.020355996 0.045876127 -0.07413601 0.03788214 0.0036692482
0.0436621 -0.055058748 0.039278433 -0.036086816 -0.08599619 -0.051806945 0.028164413 0.0036171582
-0.07042208 -0.039207216 0.017438876 -0.061245017 0.0016298353 -0.0036974535 0.06394336 0.03102529
-0.08455101 -0.0105542755 0.05329039 0.027916774 0.012843722 -0.0021349452 -0.03428007 -0.06276055
0.07487365 0.015294832 0.0047839438 0.04866013 0.04290798 -0.021490008 0.028978353 0.019459328
0.022175366 0.06729301 0.06501397 -0.082655 8.0518155e-05 0.028178867 0.06799574 0.030583896
0.017083043 -0.023061624 0.023493573 0.016136248 -0.06712333 -0.07044606 -0.07125809 -0.026411122
0.06908082 0.033596743 -0.07262284 0.0021451155 -0.03406278 0.06331351 0.051641624 0.010148319
-0.010164754 0.008795502 0.0030282757 0.008244047 0.017000418 -0.02959383 -0.027254222 -0.057948653
-0.024456624 0.006826514 0.06109093 -0.029358003 -0.077512905 0.059709646 -0.0089466795 -0.04637268
0.031952012 -0.01163342 -0.01724994 0.08831493 -0.052457478 0.02745637 0.04914023 -0.04249479
-0.021894656 -0.04888269 0.015594266 -0.054525957 0.06437682 0.077684276 -0.030396948 0.05019603
-0.06537283 -0.006002041 0.035595298 -0.067775 -0.03947241 -0.039251164 0.0085564945 -0.0010135487
-0.064895265 0.06936215 -0.079027645 0.0363276 -0.018933509 -0.057525773 0.013167174 -0.042662673
-0.042527866 -0.06478842 -0.07110315 -0.064659216 -0.07970049 -0.014854585 0.020605195 0.02522594
0.06985928 0.000946269 -0.00419451 0.06704252 0.035945628 0.031976037 -0.053305164 0.012809226
-0.069085255 -0.05751146 0.066217944 -0.062853046 -0.050725617 0.0018247631 0.024931313 0.0006801847
0.015022658 0.08389127 -0.0532435 0.0593828 0.057019938 -0.041040607 0.007360567 0.051224288
-0.033913095 0.035451494 -0.015487751 -0.008363283 0.016827809 -9.459561e-06 0.040016696 0.070119396
-0.033380866 0.08885551 0.041138258 -0.016703969 -0.049957 -0.03504463 0.009679486 0.039531957
-0.022739302 -0.001896065 0.055818994 0.041217003 -0.02909623 0.07963216 -0.0003936318 0.027161414
-0.036110856 0.050219674 0.06982557 0.0039312 -0.015634624 0.023392718 -0.055668652 -0.024032358
0.028645892 0.0020768251 0.06735224 0.07289295 0.06520465 0.06229642 -0.052781947 0.016890565
0.021033043 0.046356846 -0.023401173 0.031793565 -0.0014404516 0.06443545 -0.0074551967 -0.010312919
0.022167675 0.006369371 0.03269099 0.073657945 -0.054214664 0.052914828 0.014093067 -0.023345416
-0.048299305 -0.07238735 -0.07357667 0.032218065 0.059378427 0.013878515 0.042920355 -0.003655722
-0.06878706 0.05256968 0.07423017 -0.060489718 -0.026129967 0.06690712 -0.029691007 -0.057343256
0.029961523 0.057518717 -0.06636574 0.031118937 0.028678084 -0.050723318 0.057669185 -0.06765932
-0.007590521 0.0005675126 0.051687885 0.034919873 -0.0755591 0.07049364 -0.048996527 -0.042677168
-0.00061905215 -0.043517984 0.04261321 0.047202364 -0.023912102 -0.009018075 0.010434167 -0.034499023

encoder_blocks.2.0.bias f4 [12]
00000000: 4494 9dbc 7f2c 953d ebb7 553c 347a f93d
00000010: 1897 4abc ee94 5f3d b6e4 d7bd b4cf 623d
00000020: cd0f df3c 6743 a0bd 6ffb a13d 9ded c13d
-0.019235738 0.072838776 0.013044338 0.121815115 -0.012365125 0.05458539 -0.1054167 0.055373862
0.027229214 -0.07825356 0.07909285 0.09469149

encoder_blocks.2.2.weight f4 [12, 12, 13]
00000000: 61bc adbc 9b37 a93d d787 2f3d 2bce 6f3b
00000010: a97f 6fbd 3139 0b3a 4e52 babc 8557 58bd
00000020: c6aa d0bc ebba f9bc bde9 3b3c b9f9 30bd
00000030: 02af 673d 290f 90bc db33 8c3c 2e96 6f3d
00000040: 513e 153d 3ec5 143d 2e61 7bbd 7d9a a03d
00000050: a408 b0bc fbd3 a1bc 8cf5 82bd 483c 333d
00000060: b88e 7c3d 038d 01bd d3df cebc 1f2e 803d
00000070: 5763 8abd 30b3 a8bc 0603 873c e499 3d3d
00000080: 43af 4fbd b229 32bd b190 aa3d f27b 9bbd
00000090: 5d83 5bbd 4b84 4a3d 7d2a 6cbb a58d bc3c
000000a0: aefd 5dbd 498a 23bd 019e 0fbd 96bc 7e3d
000000b0: c1f7 3a3d a8e2 91bc a14b e33a b823 a33b
000000c0: ec43 bb3c 544e 25bd 796c 66bd ba2b 963d
000000d0: 20e2 203b 9cb5 91bd 14e9 fe3c bea7 62bd
000000e0: 3220 92bc 3847 74bc c686 61bd 8014 c3ba
000000f0: 8075 1e3c 705f fabb 60a2 7bbb a0d7 e4bb
00000100: 084c 7f3c 9c96 4f3d 6169 6bbd 98e8 b33c
00000110: 0516 aa3c 5aeb 183c 1d7d 453b 547d 50bd
00000120: c1c5 383d 01dc 4c3d a801 533d baa2 3dbd
00000130: caa9 36bd 2eb7 c4bb 4e4e 5e3c 1ae5 57bd
00000140: e74c 23bd f113 b6bb 5f66 1a3d 78ca f73c
00000150: 688e 113d 5c1f 503c 81f6 acbd 2dec 673d
00000160: 5bfb 76bd 6892 51bd f5db 903b 8866 673c
00000170: 448c 053d 6494 803c 9263 853d 4fd3 bbbc
00000180: 0aee 153c 8962 bb3d 7703 07bd 82de 9a3d
00000190: cb2b 1d3b a4e5 b83d da6b c13d 7d43 52bc
000001a0: a30f e9bb 560a 9abd b18c 823d 71fe 943d
000001b0: c331 153c 1a71 87bd 1c69 e53c 6492 5d3d
000001c0: c9c7 a9bc f9b9 36bc a985 50bd f88a 3cbd
000001d0: bf95 6abc 292f 77bd 34a8 933d 137b 32bd
000001e0: b21c bd3c 0b0c a23d 11d0 033d 8a0b 83bd
000001f0: 0916 8ebc b7b9 9abd 5572 88bd 6c99 51bb
00000200: 10c4 a33c bdfb 5a3d 03ce 24bd daca 083d
00000210: 9af4 44bc 0668 fa3c c1e4 263d 1246 87bd
00000220: 9a3a 8ebc 08ab 833c 59e1 563d 282b f03a
00000230: 9d95 6e3d 9883 0cbd 19d1 0d3d 7c89 47bd
00000240: f2a4 d5bc 06a7 e23c 21ff 923b a51b 92bd
00000250: d2c1 7bbd 8304 a73d c785 253d 3f19 a5bc
00000260: cc00 7ebd 2da2 7e3c 8c91 bebb 2893 26bd
00000270: 9c61 823d 520c 72bd 420c b63d d928 56bd
00000280: ff78 213d 03a8 9d3d d704 b1bc ee30 333d
00000290: 899e 8b3b fe34 423d 991f 78bc 693d 383d
000002a0: 6147 93bc 4412 f9bc 94a7 813d ae00 10bc
000002b0: 3a06 843d 647e 873b c0c1 823d 3752 3f3d
000002c0: 370c ff3c 4e37 cbbc 1008 abbc f5ab 5abd
000002d0: 2ac2 513d 24e2 363c 6a49 043c 8d47 39bd
000002e0: 643e 11bc 3589 0d3c 6980 66ba f1be 8f3c
000002f0: 0921 3b3d c285 d63c 48ab 0cbd 98b6 353c
00000300: 3379 9e3d b802 74bd 5314 f2bc 33d1 29bd
00000310: 39bc 9d3d c9e4 97bd 6b7d 963d b54d 35bc
00000320: 9913 603d b8e0 8c3d cca5 a1bc 5a14 5f3d
00000330: 8a36 fd3c dcb5 103d 5a53 84bd 24a6 563b
00000340: f2fd 2fbd d049 913d 341e 18bd 0036 4bba
00000350: e4cb 09bd 5010 8f3d 1c1b 5d3d 9c1e 4ebd
00000360: cc3f 733d 3e1b 0e3d 0048 0c38 cfc1 23bd
00000370: 8023 5f3b 0ef8 6f3d 5d1f 793c 879b 4bbb
00000380: 1620 8e3c 4803 953d 52dd ca3c d7b3 633d
00000390: bc45 c33c b73c eabc ce81 bcbc e3d0 9dbd
000003a0: 6537 dfbc 8ab7 753c 925d b53c cbe9 1fbd
000003b0: da83 c83c fa8b 47bd 0d0c 8a3d 2412 a2bc
000003c0: a7b7 b6bc b3df 65bd c20a 1f3d a3aa a53d
000003d0: c1c0 683c 63f4 4d3d 9894 2e3c f76f b1bd
000003e0: a25b a5bd 9c82 71bc 6bdc 303d dbb5 51bd
000003f0: 1f13 453b 81c7 513c ad73 02bd 4ac8 aebd
-0.02120799 0.08262559 0.042854156 0.0036591392 -0.058471356 0.00053109514 -0.022744324 -0.05281784
-0.025472056 -0.030484637 0.011469302 -0.043206904 0.056563385 -0.017585354 0.01711457 0.058492832
0.036436383 0.036320917 -0.061371975 0.07841966 -0.021488495 -0.0197544 -0.063944906 0.04375866
0.061659545 -0.03162862 -0.025253212 0.06258797 -0.06757229 -0.020593256 0.016480934 0.04628934
-0.050704252 -0.043496795 0.08328379 -0.07592 -0.053592075 0.04944257 -0.0036036067 0.02301676
-0.054197006 -0.0399268 -0.035062794 0.06219157 0.045646433 -0.017808273 0.0017341265 0.0049786232
0.022859536 -0.040357903 -0.05625579 0.07332559 0.0024548844 -0.07114717 0.031117 -0.055335753
-0.017837618 -0.014909558 -0.05506017 -0.0014883429 0.009671569 -0.0076407716 -0.0038396344 -0.0069837123
0.015582092 0.05068074 -0.057473544 0.021961495 0.020762453 0.009333456 0.0030134388 -0.050900772
0.045110468 0.0500145 0.05151525 -0.046297766 -0.044595517 -0.006003282 0.013568474 -0.052708723
-0.03986826 -0.0055565764 0.037695285 0.030247912 0.0355362 0.012702789 -0.084454544 0.05662172
-0.060298305 -0.051165015 0.004420752 0.014123566 0.03260447 0.015695758 0.06513132 -0.022927908
0.009150991 0.091496535 -0.03296229 0.07561971 0.0023982401 0.090281755 0.09444399 -0.012833473
-0.0071124597 -0.07521503 0.06374491 0.07275093 0.009106102 -0.06613369 0.028004222 0.054094687
-0.020725148 -0.011152738 -0.05090872 -0.04603097 -0.014317929 -0.06034771 0.072098166 -0.043574404
0.023084972 0.07912453 0.03218085 -0.06398685 -0.017344492 -0.075549535 -0.06662432 -0.0031982316
0.01999095 0.053462733 -0.04023553 0.03339658 -0.012021208 0.03056718 0.0407455 -0.06605162
-0.017361928 0.016072765 0.052461002 0.0018323408 0.05824815 -0.034305185 0.03462324 -0.0487151
-0.026079629 0.027667534 0.00448598 -0.07134179 -0.06146414 0.081551574 0.040410783 -0.02015364
-0.06201248 0.015541595 -0.0058156904 -0.040667683 0.06366274 -0.05909378 0.08889057 -0.05228505
0.03942203 0.07698061 -0.021608753 0.043747835 0.004260842 0.04741382 -0.015144252 0.04498044
-0.017978372 -0.030404218 0.06330791 -0.008789225 0.064465 0.00413494 0.06384611 0.046709266
0.031133754 -0.024806645 -0.020877868 -0.053386647 0.05121056 0.011162315 0.008074144 -0.04523425
-0.008864973 0.00863867 -0.00087929383 0.017547103 0.0456858 0.026186828 -0.034343034 0.011090897
0.07737961 -0.059572905 -0.029550707 -0.041459274 0.07701916 -0.07416684 0.0734814 -0.01106589
0.05470619 0.06878799 -0.019732378 0.05446277 0.030909795 0.035329685 -0.064612105 0.0032752836
-0.04296679 0.07094157 -0.03713818 -0.0007751882 -0.03364171 0.06985533 0.05398093 -0.05032216
0.059387013 0.03469395 3.3445656e-05 -0.039979752 0.003404826 0.058586173 0.0152052315 -0.0031068043
0.017349284 0.072760165 0.024763737 0.05559143 0.023836963 -0.028593404 -0.023011114 -0.077058576
-0.027248094 0.014997372 0.022139344 -0.03904132 0.024476934 -0.048717476 0.0674058 -0.01978404
-0.02230437 -0.05612154 0.03882862 0.08089187 0.014206112 0.050281893 0.010655545 -0.08663934
-0.08074118 -0.014740612 0.043178957 -0.05119882 0.0030071212 0.012803913 -0.0318486 -0.08534296

encoder_blocks.2.2.bias f4 [12]
00000000: fcae 803d ea13 6b3d 3823 b83b 3c15 34bd
00000010: 7683 adbb 7790 513d 2b95 f23d 247f 43bd
00000020: dcd4 623d f69d 6d3d 1024 da3d 9fff 29bd
0.062833756 0.05739204 0.005619433 -0.043965563 -0.0052952124 0.051163163 0.11844858 -0.047728673
0.05537878 0.05801197 0.106514096 -0.041503545

encoder_blocks.3.0.weight f4 [12, 12, 13]
00000000: 6a41 9a3d 503a e53c e056 31bc e783 47bd
00000010: c863 81bc 179c 3f3d 94cf 7dbd d7d6 29bd
00000020: 6467 49bd bbba 7d3d f434 a13d f483 38bd
00000030: 3c14 87bd c393 64bd c4c4 8c3d d740 eb3c
00000040: 7734 353d 3023 ac3c a46b 78bc 6c57 553d
00000050: 581a 95bd a3c4 fcbc b9b3 673a 72c0 17bd
00000060: e9e7 d63c af5a 903c 152e 493d cc71 883d
00000070: 1da8 723d 1534 44bc 1c2a 453c 366d 5cbc
00000080: d73f 2ebd 4668 0e3c e3e2 67bd c46d 77bc
00000090: 9939 713b 87de 843c a728 873c 0697 393d
000000a0: 2a16 35bd 5014 d33c 5cfe 4ebc 194e 603d
000000b0: 3da2 743d 2dc1 1cbd 8225 1dbc ec80 fd3c
000000c0: 37ee 983d d680 26bd 1357 cc3c 16bc f7bc
000000d0: 76d1 88bd 252d 2b3d 754c 78bd 16cb 203d
000000e0: 81c1 853d d524 173d d7fe 67bd 6360 8bbd
000000f0: 44b3 49bb 11c4 713c 83ba 00bd 7056 873c
00000100: 8b03 afbc 21c9 91bd aa5b 2ebd 8c33 bfbc
00000110: 0ec5 7e3d 1b49 86bd e2bf 8eb7 9849 a73d
00000120: d231 ef3b 7273 4c3c 4d78 a13b c149 51bd
00000130: f297 193d caaf 313d f584 3bbd 0be9 ab3b
00000140: 1355 103d fd84 49bd 1396 02bd 9ab2 1bbd
00000150: 58fd b5bb 6db2 863d d14a afbd 3fe2 833c
00000160: 8963 83bb 13ae d2bc e0f1 9a3d 3200 a43d
00000170: 9395 563d 4344 07bb c0f1 79bd 2763 82bd
00000180: 2d79 efbb 0302 4b3d 62d5 163d 6493 a63c
00000190: 0f1b 6f3d 6419 333c d721 753d 9554 8abd
000001a0: 6a96 dcbc 1727 013d 55ef 27bc 7ecc 5abd
000001b0: d6ff e7bc bcc2 acbb 38a8 513d 76e8 98bd
000001c0: 177c 6c3c 0542 89bd 0cfc 2dbd 5f05 873d
000001d0: 97a6 31bd 8a18 91bd 42b0 94bc b898 8b3d
000001e0: 28cc b7bb 23bf a4bb f71e 49bd f78a 9dbd
000001f0: 2492 c73c e822 713b 2570 e43b f6f3 86bd
00000200: 2735 343d a4f2 61bd 4e01 40bb 2675 98bd
00000210: f9f8 c43b 3ffd 3a3d 2e36 133c 8018 8dbc
00000220: 5aa9 83bd be9c 183d 9874 fdbc 89dc 0d3c
00000230: ed07 a2bd a19c 973d 4d95 c9bc 7546 833d
00000240: b1cd 023c a11f f8bc eb1f 053d 031a a83d
00000250: 858c 02bd 3894 cf3c 36eb 5d3d 8551 83bc
00000260: b884 4a3c 5a8b ef3c d11c 753d 75e3 9dbd
00000270: c759 7ebc 9e1f 49bc 711a 17bd ccf1 c13d
00000280: 3f06 c03d ccc8 84bd 6440 ed3d 8ae0 853d
00000290: f23c 69bd 24b8 d53d 9a74 c93c 46e8 8d3d
000002a0: e45c 5b3d 478d edbc c1d2 9abd 46d2 9cbd
000002b0: 7416 efbb b7cf 023d 9312 89bd 1842 613b
000002c0: 2813 6e3d c9e2 863d c0e9 cbbc 3690 083d
000002d0: f4be b13c 3587 a03d a1e2 0d3c 5832 c93c
000002e0: 4b73 85bd b7cd 9e3d 18ec cdbc 2eab 7b3d
000002f0: 0aee 58bc 5d48 38bd 295b 2cbd 077a a13d
00000300: b4af 1cbd 0057 6fbd 0e2a 8bbb 4ff6 72bd
00000310: db85 983c c100 423d 5027 a03b af04 4a3c
00000320: 1caf ad3c dacd 733d be3b e9bc b510 813d
00000330: b151 f5bc 9409 c8bc bdf7 86bc ab95 8d3d
00000340: 9f8b 04bd 046b 653d d38c 94bd 2f14 3b3c
00000350: 0580 40bd 6403 993d 7ce1 94bd 5692 083d
00000360: a286 2a3d e26e f73c defd 0bbc 4f50 793d
00000370: edc4 4f3c cddc 8bbc daa8 dfbc 384c 193d
00000380: fd9f 6fbd 6f32 cabc 4bda 7c3d 6d49 62bd
00000390: 8f5f 603d a654 1fbd feb2 e03c c4c6 5ebc
000003a0: 7097 1abc cdd0 8ebc 177c 383d c4d7 cf3d
000003b0: 1c39 13bb 1912 ae3d c403 c53d fcd7 9a3d
000003c0: 862e 58bc d61f 6b3d 4f54 2c3d 19bd 653c
000003d0: b1ab b23c b73b 8a3d ed3f bf3d 3676 673c
000003e0: 29c4 ca3a 5587 39bb 1cdf af3b ffb5 0abd
000003f0: 82eb 813d cf56 193c ffec 20bb 020b 9dbd
0.07532008 0.027981907 -0.010823935 -0.048709776 -0.01579465 0.04677972 -0.06196554 -0.041464653
-0.049170867 0.06194566 0.07871428 -0.045047715 -0.06595656 -0.05580498 0.068734676 0.028717441
0.044239487 0.021012872 -0.015162382 0.052085325 -0.07280415 -0.030855482 0.00088387314 -0.037048765
0.02623363 0.017621366 0.049116213 0.0666233 0.059242357 -0.011975308 0.012033965 -0.013453772
-0.04254135 0.008691853 -0.05661286 -0.015101854 0.0036808013 0.01621939 0.016498877 0.045310043
-0.04421059 0.025766522 -0.012633886 0.05476198 0.059725035 -0.038270164 -0.009591462 0.030945264
0.07467311 -0.04065021 0.024943864 -0.030241054 -0.066805765 0.0417911 -0.06061979 0.039256178
0.065310486 0.03690036 -0.05663952 -0.06805494 -0.0030777017 0.0147562185 -0.03142787 0.016520709
-0.021363994 -0.071184404 -0.042567886 -0.02334001 0.062199645 -0.065569125 -1.7017072e-05 0.08168334
0.00729964 0.012478696 0.004927671 -0.051095728 0.037498422 0.043380536 -0.045781095 0.0052462867
0.035237383 -0.049199093 -0.031881403 -0.038012125 -0.0055538826 0.06577001 -0.08559192 0.016099093
-0.0040096682 -0.02571777 0.07565665 0.0800785 0.05238874 -0.0020640052 -0.061021566 -0.06366568
-0.0073081465 0.049562465 0.03682459 0.020333953 0.058375414 0.010931347 0.059846725 -0.06754414
-0.026927192 0.03153142 -0.010249932 -0.053417675 -0.028320234 -0.0052722376 0.051185817 -0.074662134
0.014433882 -0.06702045 -0.0424767 0.06592821 -0.043371763 -0.070847586 -0.018150453 0.06816238
-0.005609054 -0.005027668 -0.049101796 -0.07692521 0.024361677 0.0036794487 0.0069713765 -0.065895006
0.043996003 -0.05516304 -0.0029297653 -0.07444219 0.006011125 0.04565167 0.008985085 -0.017223597
-0.064287856 0.037258856 -0.030939385 0.008658537 -0.07911668 0.074029215 -0.024607325 0.06409923
0.007983611 -0.03028852 0.032501142 0.08208086 -0.03187229 0.02533923 0.054179393 -0.016030082
0.012360744 0.029241253 0.059841935 -0.077093996 -0.015524334 -0.0122756045 -0.03689045 0.09469947
0.09376191 -0.064836115 0.11584547 0.06536968 -0.056942888 0.10435513 0.024591733 0.06929068
0.053555384 -0.02899803 -0.07559729 -0.07657294 -0.007296378 0.031936374 -0.06692996 0.003437167
0.058123738 0.065862246 -0.024891734 0.033340655 0.021697499 0.07838289 0.00865999 0.024560139
-0.06516131 0.07754081 -0.025136992 0.061442547 -0.013240347 -0.044990886 -0.042079125 0.07884603
-0.0382535 -0.05843258 -0.0042469567 -0.05931693 0.018618515 0.047364 0.004887499 0.012330218
0.021201663 0.059522487 -0.02847087 0.06302015 -0.02994618 -0.02441863 -0.016475553 0.069133125
-0.032359716 0.05601026 -0.072534226 0.011418386 -0.04699709 0.0747135 -0.0726957 0.03334268
0.041632302 0.03020424 -0.008544413 0.060867604 0.012681228 -0.01707306 -0.027302194 0.037426203
-0.058502186 -0.024682252 0.061731618 -0.055245806 0.05477863 -0.038899086 0.0274291 -0.013597194
-0.00943552 -0.017433548 0.045040216 0.10148576 -0.002246446 0.084995456 0.09619859 0.07560727
-0.013194686 0.057403408 0.04207259 0.014022135 0.021810384 0.06749671 0.09338365 0.014127305
0.0015469837 -0.0028309424 0.005367173 -0.03386497 0.06343748 0.009359076 -0.0024555323 -0.07668115

encoder_blocks.3.0.bias f4 [12]
00000000: b385 45bd 6458 833d 8cc0 b83d 9318 b5bc
00000010: a285 30bd 040c b63d c3e4 e6bc 3f48 4dbd
00000020: 68f1 263c b703 a7bd 2433 fd3c edff dc3c
-0.04822321 0.064133435 0.090211004 -0.022106444 -0.043096192 0.088890105 -0.028185254 -0.050117727
0.010189392 -0.081550054 0.030908175 0.026977504

encoder_blocks.3.2.weight f4 [12, 12, 13]
00000000: d04c ce3b 41a8 67bd b718 53bc a51b 5a3d
00000010: 04ff 12bd dade 83bd ad60 083d 2ef9 3cbc
00000020: 8b08 53bd 51d1 24bb 1671 41bd a48e 063d
00000030: 3821 00bc 9172 d83c 1df4 52bb 4289 2ebc
00000040: 868d fdbc 07ef 30bd 013b 243c 314f 85bd
00000050: 14dd 703d 7d79 05bd 2773 14bc 7dc0 873d
00000060: c1f1 0b3d ce3f 423d d9c1 85ba 2960 26bd
00000070: cad8 f43c f7aa 84bd aad9 d53c c388 89bd
00000080: da5a 4c3d ac03 5dbd ac74 7cbb ddb1 a13d
00000090: 7a42 733b 1d8c 7bba 46bc 1cbd 63e5 4fbd
000000a0: 39a5 773d 7b12 98bd 03e3 6e3b 7d66 9f3c
000000b0: 39f6 1f3d 0abd 4b3c e742 fe3c 8af3 febc
000000c0: a8a6 04bd 71ac 8b3d e7ae 8bbd 3f92 9a3b
000000d0: 74db 833d b7b3 7f3d b699 473d f986 4fbb
000000e0: 76bf 95bb cbfa 3ebd d16b df3b bae8 373d
000000f0: 76dd 873d 577c 4cbc 2929 c23c 578b d2bc
00000100: 0928 4ebd 8f10 02bd 37a6 05bd cbeb a0bd
00000110: 1ab5 923d eea9 2bbd 7ec5 d6bc 7f5f 483d
00000120: b4cd 903d d2b6 733d 35f8 943d acac 7b3c
00000130: 41c7 723d cdb9 82bd f3c3 aabc 7887 94bd
00000140: bf3b 103d a813 83bd 7b02 25bd d546 6bbd
00000150: 9cf9 95bd 584e cdbb 969d 5b3d ee2b 9ebd
00000160: a919 8cbc b4da 063d 402b 253d 7e69 36bd
00000170: 88ee 713c 6959 86bd 9e9f 9f3d d832 143d
00000180: 9c03 583d 680e a73c d4b8 ef3c b413 1f3d
00000190: 4e34 a1bc 713d 3bbd 065e 05bd 2892 0d3c
000001a0: c7fc 343d b9fd f7bc 9fb9 913d 7b54 863d
000001b0: 56dc d5bc 9c14 953d 5e00 bb3b 5aa8 d9bc
000001c0: 8b8e 9c3c 4e17 893d 8a4f bbbc 5af9 4e3d
000001d0: dc2c 00bb 3e00 c23b 1a1f 803a 4cb1 223d
000001e0: 0939 913d cd42 8e3c 460a 193d 0c89 6cbd
000001f0: 0afa 6b3d 4e8c 16bc 1ea8 20bb 8f1c 79bd
00000200: 1185 8f3d 0e7d 10bd f950 9b3d 02c3 94bc
00000210: 5717 2bbd c48e 77bd e65d 47bd 3564 4e3d
00000220: c206 60bd a2de f8bc fc04 6bbc 2d54 8abb
00000230: 4467 ecba b52b 2f3c a4f2 a2bd 5b20 623c
00000240: 8d07 2f3d c8db b5bc a23c 51bd 76e6 11bc
00000250: d12d 81bd c4ff 0bbd 916e 74bc bd66 de39
00000260: 839f cebc 9459 f13c bfc1 8dbc 9cd6 d9bc
00000270: 7665 ec3b 39df 47bd d37c 333d 779f 9f3c
00000280: 3499 a3bc a37e 9b3d 880d 953d f287 adbc
00000290: a7dd 953d 9736 993c bfba 213c 4afc 12bd
000002a0: d612 593d dabf 89bc 7c07 283d 36c0 a13c
000002b0: f15b 0cbd 84a3 2d3d ec55 a2bd 018d 09bd
000002c0: 9077 9cbd 2cc3 8c3d e066 15bd cc5a 893b
000002d0: 1065 35bd 5704 f3bc e07e bb3c 84db 893d
000002e0: a516 4bbd a1c2 1bbd d649 f5bc fa4e 6a3c
000002f0: 89cb 68bd e1dc bcbc 8efb 8a3d 3dbc 583d
00000300: b763 d13b 50f8 683d 6d20 d83c 8b59 7ebc
00000310: db09 143c e059 a6bd 3f59 b63a 7065 fabc
00000320: 8ac5 49bd feaf 113d 026d 9b3d bbab 24bc
00000330: 4ab5 9f3b 9e65 ca3b 7159 1a3c a249 1d3d
00000340: 71a8 25bd c8ae 23bc 8c34 6dbd 960d 483d
00000350: 6d33 4c3d 077a 5bbd 49bc 6abd bdee 993b
00000360: 94c3 7c3d f248 8cbc a74a 57bd 869c 3c3b
00000370: ee83 0bbd f7fd a43c be7f 033d 24b1 923c
00000380: 56cc 163d 001b 0fbd 7840 3a3d 7ce4 a2bb
00000390: abc9 1dbc 80e5 42bd 94ad 8dbc 8fe6 48bd
000003a0: 260f da3c 15d9 13bd 1993 56bd 301c 8bbd
000003b0: c0cc 92bd bd4a edbc da55 b93c d6e5 31bd
000003c0: 1c22 c73c cc02 3ebd 9452 873d 39bb bcbb
000003d0: 365d 4dbd c100 7d3d a605 6dbd bf30 36bd
000003e0: f094 3b3c 20f8 8fbb 705c 9f3d 8856 3abc
000003f0: 927c 923d 10ae 283c 1082 953d 64dc 593d
0.006295778 -0.056556944 -0.01288431 0.05324902 -0.035887733 -0.0643899 0.033295322 -0.011534018
-0.05152182 -0.0025149176 -0.047226988 0.032850876 -0.00782042 0.026421817 -0.003218896 -0.010652842
-0.030951273 -0.043196704 0.010023833 -0.06509245 0.058804587 -0.032586563 -0.009060658 0.06628511
0.0341661 0.04742413 -0.0010204866 -0.04061905 0.02988853 -0.064779215 0.026104767 -0.06715538
0.04989133 -0.05395858 -0.003852169 0.07895253 0.003711848 -0.00095957686 -0.03826549 -0.05075587
0.060460303 -0.074254 0.0036451227 0.01945805 0.039053176 0.012435207 0.03103776 -0.031121988
-0.0323855 0.0682 -0.06820469 0.004717141 0.06438342 0.06242725 0.048730575 -0.0031666143
-0.004569943 -0.046625894 0.0068182726 0.04489968 0.06634037 -0.012480817 0.023701267 -0.025701208
-0.05033115 -0.031754073 -0.032629218 -0.07857474 0.07163449 -0.041910104 -0.026217218 0.048919197
0.07070485 0.059500523 0.07273904 0.015360992 0.059272055 -0.06383095 -0.020845389 -0.07252401
0.03521323 -0.064002335 -0.04028557 -0.057440598 -0.07323 -0.006265443 0.053617083 -0.07723223
-0.01710208 0.032923415 0.04032445 -0.0445342 0.014766343 -0.065600224 0.077941164 0.0361813
0.052737817 0.020392612 0.029262938 0.03883715 -0.019678261 -0.045712892 -0.03256037 0.008640803
0.04418638 -0.030272352 0.071154825 0.06559082 -0.02610604 0.072793216 0.005706831 -0.026569534
0.019110939 0.06693898 -0.022865076 0.05053077 -0.0019557988 0.005920439 0.0009774894 0.039719865
0.07090957 0.017365837 0.037363313 -0.057747886 0.057611503 -0.009188725 -0.0024514268 -0.06081825
0.07007802 -0.03527551 0.07583804 -0.018159393 -0.041770305 -0.060438886 -0.048673533 0.050388534
-0.054693945 -0.030379597 -0.01434445 -0.0042214603 -0.0018036147 0.010691573 -0.07956436 0.013801659
0.04273181 -0.022199526 -0.051083215 -0.008905044 -0.06307567 -0.034179464 -0.014918939 0.00042419686
-0.025222545 0.02946166 -0.0173043 -0.026591592 0.0072142435 -0.048796866 0.043820214 0.019485218
-0.019970514 0.075925134 0.072779715 -0.021182988 0.073176675 0.018702788 0.009871184 -0.035885133
0.05299648 -0.016815115 0.041022763 0.019744974 -0.03426737 0.04239227 -0.079265445 -0.033581737
-0.07639992 0.068731636 -0.036475062 0.004191732 -0.044285834 -0.029665155 0.022887647 0.067313224
-0.049582142 -0.03802741 -0.029942434 0.014301056 -0.05683473 -0.023054542 0.067862615 0.052913893
0.0063900608 0.056877434 0.02638265 -0.015524278 0.009035553 -0.08122611 0.0013912095 -0.030565947
-0.049260654 0.03556823 0.07589151 -0.010050709 0.0048739063 0.0061766645 0.009420739 0.0384003
-0.04044384 -0.009990402 -0.05791144 0.04884108 0.04985373 -0.05358317 -0.05730847 0.0046976493
0.061709955 -0.017124627 -0.05256143 0.0028779819 -0.034061365 0.020140631 0.032104246 0.017906733
0.036815964 -0.03493786 0.04547164 -0.004971085 -0.009630601 -0.04758215 -0.017294683 -0.049048003
0.026618551 -0.036095697 -0.052386377 -0.06792486 -0.07167959 -0.028966302 0.022623945 -0.04343208
0.024308257 -0.046389386 0.066075474 -0.0057596234 -0.05013772 0.061768297 -0.057866715 -0.04448008
0.011449084 -0.0043935925 0.07781303 -0.01137317 0.07152666 0.010295406 0.07300198 0.053188697

encoder_blocks.3.2.bias f4 [12]
00000000: 8c1f 9bbd 2591 77bd 5eac 98bd 2078 31bd
00000010: 5a67 a9bc 48bf f63c af25 873b 1074 b23b
00000020: c995 9d3b c4d2 963d 8395 2f3d f4a2 98ba
-0.075743765 -0.060441155 -0.074547514 -0.04332745 -0.020679165 0.030120507 0.0041243653 0.0054459646
0.0048091155 0.07364419 0.042867195 -0.0011645244
