Python/save/localizer/trial_2/quake_localization_model_00440.pth (torch, 252994 bytes, 35 tensors)

encoder_blocks.0.weight f4 [12, 1, 13]
000000 8a 0a 42 3e 90 4b 48 3e c7 56 63 3e fa 89 a7 3d
       0.18949333 0.19560075 0.22201072 0.08180614
000010 84 3d 3e 3e 9f 7f cf 3d 37 28 dd bd 6a 68 80 bd
       0.18578154 0.10131764 -0.10798686 -0.062699154
000020 98 c6 52 be 20 2b 4d be e2 d5 44 be 21 b4 b0 3d
       -0.2058357 -0.20035982 -0.19222215 0.08628107
000030 48 9a b3 bd 48 c6 5b be 52 66 7c be af a2 80 be
       -0.08769661 -0.21462357 -0.24648407 -0.25124118
000040 50 13 06 be 2d e5 e4 3d 9d ee 2f be c4 17 90 3e
       -0.13093305 0.11176524 -0.17180867 0.28143132
000050 0f 98 49 be 8e bd 9e bc b4 6e 97 3d f4 9d 30 3e
       -0.19686912 -0.019377496 0.07394162 0.17247754
000060 f5 86 20 3e c1 e7 21 bd 72 d2 8d 3d 40 1a af bd
       0.15676482 -0.03952766 0.06924905 -0.08549929
000070 bb 56 bb 3c 0b f0 98 3d cb e6 5f be ea 1d 41 be
       0.022868505 0.074676596 -0.21865384 -0.18859068
000080 8d bf 20 3e 28 92 8b bd 6c b5 da bd 77 1e db bd
       0.15698071 -0.068149865 -0.10679135 -0.1069917
000090 21 72 0d bc 79 94 e2 bd 0d d7 7a be 18 0f 9e 3d
       -0.0086331675 -0.11063475 -0.24496098 0.07717723
0000a0 0c e9 f3 3c df 41 55 be da 31 98 3d f3 f3 1e be
       0.029774211 -0.20825909 0.074313834 -0.15522747
0000b0 75 2b 10 be 64 9f b2 3d 71 c3 11 3d 22 39 19 3d
       -0.14079078 0.087218076 0.035586778 0.037408
0000c0 1b 9d bd bd 47 7a 37 3b a5 03 88 3e 68 f2 80 be
       -0.09258481 0.0027996467 0.2656528 -0.2518494
0000d0 85 fe 6d 3d b0 56 2c 3d 25 16 b3 bd 52 51 ad bb
       0.058104057 0.04207486 -0.08744458 -0.005289235
0000e0 f5 a6 15 be 6c 62 e4 bd ff ce 15 be e4 4a 37 3e
       -0.1461447 -0.11151585 -0.14629744 0.17899662
0000f0 1d 07 0a bd b3 a8 f4 3d 4a d7 37 bc c5 3a 07 be
       -0.03369819 0.11946239 -0.0112207625 -0.13206013
000100 e2 5f 2d be bb 25 b1 bd 00 d4 6f 3e fa 30 c9 3d
       -0.16931108 -0.08649775 0.23420715 0.09823795
000110 00 c1 f6 bc 47 6e 68 bd d4 6f 99 3d 94 58 66 3e
       -0.030121326 -0.056745794 0.07492033 0.22494727
000120 27 ea 74 be 36 56 a0 3d a1 c1 1c 3e f4 25 4d be
       -0.23917447 0.078289434 0.15308239 -0.20034009
000130 11 0b 69 3e 96 22 2a 3e b4 c5 f0 bd e5 88 f6 3c
       0.22758128 0.16614756 -0.11756459 0.030094573
000140 9b d3 f8 3d 35 f8 dc 3d ca f2 86 3d 21 6d 0c bd
       0.121497355 0.10789529 0.06589277 -0.03428376
000150 4b 71 a3 bd 50 1c 79 3e a8 ed 10 3e 43 db 14 3e
       -0.07980593 0.24327207 0.14153159 0.14536767
000160 0d f9 89 be dd e8 f8 3d 7e 99 19 be 07 42 be 3d
       -0.26947823 0.1215379 -0.14999959 0.092899375
000170 f8 79 c3 bd d3 38 56 bd b3 48 e0 3d e4 e8 4f be
       -0.09544748 -0.052300286 0.10951366 -0.20303684
000180 0e 63 8b 3e f5 a1 4b 3e b8 09 b5 bd e9 2e 12 3e
       0.2722401 0.19886 -0.08839744 0.14275707
000190 2b 63 2f be 45 42 54 3c f0 83 5c 3e d7 5e b9 3c
       -0.17127673 0.012955253 0.21534705 0.022628231
0001a0 72 b3 35 be 86 5b 7c bc ba ea 34 bd d3 46 90 bd
       -0.17744234 -0.01540268 -0.044169165 -0.07044759
0001b0 49 ed 28 3e 2f 71 47 3e 93 b6 40 3e 86 04 80 3e
       0.16496767 0.1947677 0.18819647 0.2500345
0001c0 a3 18 21 3e dd 08 3f 3e b1 af 68 3e a5 cf 0d be
       0.15732054 0.18655725 0.22723271 -0.13848741
0001d0 28 6b 28 3e f4 1e 86 3e 30 e0 a5 bd 92 79 49 be
       0.16447127 0.2619549 -0.08099401 -0.19675282
0001e0 8c b5 61 be 95 a0 2a 3c 34 c4 39 be a1 16 47 be
       -0.22041911 0.010414262 -0.18141252 -0.19442226
0001f0 e0 c8 04 3e 10 14 5a 3e 3b 51 46 be 6b 59 8b 3e
       0.12967253 0.21296716 -0.19366924 0.27216658
000200 07 33 44 3d b7 9f e6 3d 1e af 90 3e 26 25 65 be
       0.047900226 0.11260932 0.28258604 -0.22377452
000210 fb 95 8d 3e 03 31 b8 3c 8b 9b 11 bd 3e 86 53 3e
       0.2765349 0.022484308 -0.035548728 0.20656678
000220 e0 a8 f0 3d 6f ee d7 3c 98 72 29 bd 8c bf 4f bd
       0.1175096 0.026358811 -0.04136905 -0.050719783
000230 e3 ae fe bb cb 12 d3 bd e5 2c 42 be ad 08 96 3d
       -0.007772313 -0.10306319 -0.18962438 0.073258735
000240 62 2a 18 3e a4 c5 56 be 7f ea 5c bd 63 67 68 be
       0.14859918 -0.20973831 -0.05393457 -0.22695689
000250 ca 94 8a be ae b8 b7 3d e2 61 75 be f8 75 d2 bd
       -0.27066642 0.08970772 -0.2396312 -0.10276407
000260 f4 08 33 be 2e 67 73 3e dc dd 44 be 58 01 f4 bd
       -0.17483884 0.23769829 -0.19225258 -0.11914319

encoder_blocks.0.bias f4 [12]
000000 11 10 38 be c3 7b 27 3d 16 3f 85 3e 06 88 eb bd
       -0.17974879 0.040889513 0.26024693 -0.11500554
000010 11 9f 88 3e 54 4a 83 be 4d 82 80 3d fc 87 dd 3d
       0.26683858 -0.25642645 0.06274853 0.108169526
000020 f3 88 98 3d 60 ce 9b bd 7a 2c 15 3c e6 92 d8 3d
       0.07447996 -0.07607722 0.009104842 0.10574894

encoder_blocks.1.0.weight f4 [12, 12, 13]
000000 d0 a8 6d bc ce d4 56 3d cc 67 8e 3d e5 ff d8 bc
       -0.01450558 0.05244904 0.069533914 -0.026489208
000010 e1 2b 3d bd fa 7a 79 3d 1f c5 32 bd 31 ed a7 3c
       -0.046184424 0.060908295 -0.04364502 0.020498844
000020 2f 1d 47 bd 37 b1 e0 bc 7f 46 1b bd 21 f0 54 3d
       -0.048611816 -0.027428253 -0.037909027 0.051986817
000030 40 b4 38 3c d3 53 77 3d 8a c5 42 bd ef 27 9a bc
       0.011273444 0.060382675 -0.04755167 -0.01881787
000040 38 72 48 bd 33 e9 8e 3c f1 0f c6 3b 7b d5 55 bd
       -0.048937052 0.017445182 0.006044381 -0.052205544
000050 38 5f da bc 6c 44 97 bd e8 fc d0 bc 50 3c 9d bc
       -0.026656732 -0.07386097 -0.02551122 -0.019193798
000060 94 61 2b bd c4 75 3c 3d 31 32 f8 bb a9 0d 8c 3d
       -0.041841105 0.046010748 -0.0075743427 0.06838543
000070 9e d1 56 bb 97 c9 ec 3b 8f 97 65 bd aa b8 90 bd
       -0.003277875 0.00722618 -0.05605274 -0.07066472
000080 6f 9d 9d 3d 2b 24 aa bd 6a cd 6d 3d 56 45 5d bc
       0.07696044 -0.0830768 0.058057226 -0.0135053005
000090 83 71 55 3d 5b a3 a6 3d 1d 5a 93 3d bf fc a8 bd
       0.052110206 0.08136626 0.07194922 -0.082513325
0000a0 e5 0f 11 3d ce d6 7d bd 52 4c 02 3d 8e c3 0b 3d
       0.03541555 -0.06197243 0.031811066 0.034122042
0000b0 71 8c 89 3d ae 91 78 3d 6d 01 96 3c 1e b7 76 bd
       0.0671624 0.060685806 0.018311227 -0.060233228
0000c0 6e 6c 3f ba 68 81 9e bd a7 8c 87 bd cd 6f 80 3d
       -0.0007302229 -0.07739526 -0.06618624 0.06271324
0000d0 99 9d aa 3b c8 92 36 3d d1 e8 63 3a 75 a6 92 bd
       0.0052067754 0.044573575 0.0008694055 -0.071606554
0000e0 95 2a 93 3d 70 16 30 3d 6c 30 b7 bc 97 d5 60 3c
       0.07185856 0.042990148 -0.022361957 0.013722799
0000f0 65 29 df 3b 52 79 2c bc 43 bf 68 bd c0 95 91 3c
       0.0068103545 -0.010526972 -0.056823026 0.017771602
000100 b1 d2 b6 bc 24 85 2b 3d 68 60 19 bd 83 82 e0 3c
       -0.022317262 0.04187502 -0.037445456 0.027405983
000110 ec ba 5b 3c ab a6 43 bd d8 35 69 bd 1c f9 4d bd
       0.013411265 -0.04776637 -0.056936115 -0.050286397
000120 7d 46 75 3d da 08 91 bd 26 18 2f 3d d1 39 97 3d
       0.059881676 -0.070817664 0.04274764 0.073840745
000130 b4 67 fb 3c a1 08 37 bd a3 9c 09 3d 77 f9 ab bd
       0.030689098 -0.044685964 0.033596646 -0.08397191
000140 e0 cc 73 3b cc 87 4c 3d ea 50 a3 3d f4 b6 30 bd
       0.0037200972 0.049934193 0.079744175 -0.043143228
000150 8c 0c 7f bd 2b 21 82 3c 00 10 44 bd 6d b3 38 3c
       -0.062267825 0.015884956 -0.04786682 0.011273247
000160 de 58 59 3d 61 31 88 3d fe 05 b9 3c 69 ad 39 bd
       0.053063266 0.06650043 0.022585865 -0.045331392
000170 23 91 01 b9 be 81 f8 bc fb 2e 41 bd 35 19 a9 bc
       -0.00012356466 -0.030335303 -0.047163945 -0.020641902
000180 4f 7f 0a bd ca 90 5e bd 2d fd 81 3d 36 66 50 3d
       -0.033812817 -0.0543373 0.063471176 0.050878726
000190 07 d1 88 bd 69 23 ee bb ca f5 a3 bc 94 44 d8 3a
       -0.06680494 -0.007267405 -0.020014662 0.001649993
0001a0 75 54 8d 3d 58 a4 c7 bc 79 d3 1b 3b 20 4c 9d bd
       0.069008745 -0.024370357 0.002377717 -0.07680535
0001b0 f6 57 ed 3c 79 22 45 bd 12 f6 9f 3c ef 1f 01 bd
       0.028972607 -0.04812858 0.019526515 -0.031524595
0001c0 ff 11 08 bc 81 c0 33 3d f1 b1 19 3d 09 bf 6a 3d
       -0.008305072 0.043884758 0.037523214 0.05731109
0001d0 38 8d 88 3d e4 9f 86 bc f5 61 fb bc a2 ff 93 bc
       0.0666756 -0.016433664 -0.030686358 -0.018066231
0001e0 bb 05 b0 3b 32 fc 0e 3d 28 57 39 bd c0 4b 9e bd
       0.005371777 0.03490848 -0.045249134 -0.07729292
0001f0 4b 2c 8e bd d4 e9 47 bc 78 4c 9d bc 53 ab 7e bc
       -0.06942042 -0.012201745 -0.019201502 -0.015543777
000200 a0 1c 00 bd cd 36 7d bd 7f ee 01 bd b0 9a 35 3c
       -0.0312773 -0.06181984 -0.03172159 0.011084244
000210 1a 43 89 bd ac 35 af 3c e1 72 12 bd 91 34 8c 3d
       -0.06702252 0.021387897 -0.03575409 0.06845964
000220 e9 16 72 bc 49 9c 51 3b 60 3f 29 bd c1 84 05 bc
       -0.01477597 0.0031984022 -0.041320205 -0.008149327
000230 69 7b 84 bd 35 23 2a bd 70 86 98 bc f3 4a cb bc
       -0.06468851 -0.041537482 -0.018618792 -0.024816012
000240 73 09 3a 3d c7 3a ad bc cf f0 88 bc 14 29 82 3d
       0.045419168 -0.021146191 -0.016716389 0.06355491
000250 b6 46 94 bd 9d 0f 95 3c 2a 37 23 bd 37 c5 db 3c
       -0.072400495 0.018195922 -0.03984753 0.026827438
000260 bf a9 1a 3d 79 8e 0c bd 25 c3 3b 3d ab f5 97 bd
       0.03775954 -0.03431556 0.0458404 -0.07419904
000270 2c bf 02 bd 23 d7 3b 3d 46 e6 81 bd df 18 32 3d
       -0.031920597 0.045859467 -0.06342749 0.04348075
000280 70 e5 f1 3c 3d 12 91 bd 88 15 84 bd 0e 4c 35 3d
       0.02952835 -0.07083557 -0.06449419 0.044261985
000290 89 0b a3 3d 17 51 87 3d b0 04 2e bd fa e8 58 3d
       0.079611845 0.066072635 -0.04248494 0.05295656
0002a0 24 88 6a 3d 52 de 92 bd 8a 7f 82 bd df 5e 1f 3d
       0.05725874 -0.071713105 -0.063719824 0.038908836
0002b0 96 a9 88 3d d7 26 73 3d 24 c3 85 3d b4 d4 21 3d
       0.06672971 0.059363212 0.06531361 0.03950949
0002c0 aa 4d 9d 3d ea 17 c3 3c 9e 86 e3 bb a5 15 eb 3c
       0.07680829 0.023815114 -0.006943538 0.028696844
0002d0 78 be 87 bd 72 d3 84 3d ad b5 4a 3a 8a 9c 0b 3c
       -0.06628126 0.064856425 0.000773276 0.008521209
0002e0 08 53 a1 3d 8c 18 91 3d c5 fc 67 3b d8 4c 13 bd
       0.07877165 0.0708476 0.0035398465 -0.035961956
0002f0 fe 45 4d bd c4 4c 41 bd 8a ea 34 3d 7c c0 e0 bc
       -0.050115578 -0.04719235 0.044168986 -0.027435534
000300 63 ed 8d bd 73 9a f0 3c 4d 53 b2 3d 26 71 a2 3b
       -0.069300435 0.029370522 0.087072946 0.004957336
000310 e8 bc 42 3c f9 d5 75 3c 60 f2 da 3c 69 c4 91 3c
       0.011885859 0.015004628 0.026726902 0.017793851
000320 4c ae 06 bd 1b c9 86 bd 22 4a b5 bc 1a 2e e5 3c
       -0.032881066 -0.065813266 -0.022130076 0.027976085
000330 98 69 f9 bc 63 26 aa 3d a5 f1 f6 bc 6d 57 9b 3d
       -0.030445859 0.08308103 -0.030144522 0.075850345
000340 29 ff 3b bd ff 94 52 bd bb bf 15 bd f0 46 80 bd
       -0.045897637 -0.051411625 -0.0365598 -0.0626353
000350 f8 05 43 3c 0f a1 28 bc 90 46 3d 3d 60 0e 86 bd
       0.0119032785 -0.010292306 0.04620987 -0.065457106
000360 12 0c 9c bb 29 48 94 bc 95 24 5c 3d 26 e6 4a bc
       -0.004762181 -0.018100815 0.053745825 -0.012383973
000370 d6 c2 bd 3c 6c 0b 91 3d 09 9f 24 bb c7 b5 9d 3b
       0.023164194 0.07082257 -0.0025119206 0.0048129293
000380 56 21 47 3d 2c 3d c3 3b 84 5a 42 3c 32 a7 19 3c
       0.048615776 0.00595822 0.011862401 0.009378241
000390 ac 03 b6 3c 82 52 47 3d e7 19 95 bc a5 0e 39 bd
       0.022218548 0.04866267 -0.018200828 -0.04517998
0003a0 ac b4 ca bc 76 eb 12 3d d7 a1 ff 3c 52 36 db bc
       -0.024744354 0.035869084 0.031205101 -0.0267593
0003b0 da aa 8f 3d 5e c7 87 bd 5b fb 6e bd ea ef 9d 3d
       0.07015009 -0.06629823 -0.05834518 0.077117756
0003c0 cd a4 cb 3c 39 74 4f 3d 84 12 4c 3c a5 6d 8e bd
       0.024858857 0.050647948 0.012455586 -0.06954507
0003d0 90 a5 86 bb 22 c8 92 3c 60 47 4b bd 01 2d 9d bd
       -0.004109092 0.017917696 -0.049628615 -0.076745994
0003e0 87 cf 01 bd 9d 13 e9 bc 7d f9 5c 3d e6 d0 8a 3d
       -0.031692054 -0.028451735 0.053948868 0.067781255
0003f0 3b 7b 69 bd 27 d3 a0 3b c8 d7 85 bc c4 b7 91 3b
       -0.057002287 0.004907984 -0.016338244 0.0044469554

encoder_blocks.1.0.bias f4 [12]
000000 72 83 65 3c 03 8a fb bb ca 5f 1f bd b6 e4 92 3d
       0.01400839 -0.0076763644 -0.03890971 0.071725294
000010 c4 41 b2 bd 89 a1 49 3d 41 bd 9a bc 04 45 09 bd
       -0.0870395 0.049226318 -0.018889071 -0.033513084
000020 8f a0 02 3d cd e5 ac 3d c4 67 cb 3d a2 35 05 3d
       0.0318914 0.084422685 0.09931901 0.03252185

encoder_blocks.1.2.weight f4 [12, 12, 13]
000000 f0 ed 80 3d ad 07 45 bd ad f8 54 3d 5a e0 96 3d
       0.06295383 -0.048103023 0.05199497 0.073670104
000010 9b 43 4f 3d 7d ef 2c 3d 19 78 3d 3c 36 9b 48 3b
       0.050601583 0.04222058 0.011564278 0.003061009
000020 a5 84 22 bc 1f 6f fa bc 1b 01 3f bb ae f3 04 bc
       -0.00991932 -0.030570565 -0.0029144946 -0.008114738
000030 ed 5a 84 3d a1 b0 5a bd 8d 36 9f 3c 60 82 6d bb
       0.06462655 -0.053391103 0.019435192 -0.003624104
000040 35 8b 15 3b 57 e1 42 3d 8a ef a2 3d 36 44 79 bd
       0.002281857 0.047578182 0.07955845 -0.060856067
000050 d4 68 ae 3d ed fa 66 bd d9 48 be 3d 1c e1 ab bb
       0.08516088 -0.056391645 0.09291238 -0.005245341
000060 8d 4d 75 3d 82 fb 7d 3d d6 7d 41 bd 8d 20 99 bd
       0.05988841 0.062007435 -0.047239147 -0.07476912
000070 29 08 30 3d 41 28 87 3c ca 64 0b bc 0b 00 f4 bc
       0.042976532 0.016498687 -0.008507917 -0.029785177
000080 5b 1e 97 bd 06 ab 48 bd 01 64 99 3d f1 9b 03 3d
       -0.07378837 -0.048991226 0.07489777 0.03213114
000090 65 3f 65 3d e2 38 0e bd b6 91 2a 3d 2a 65 7e 3c
       0.05596866 -0.034722216 0.041642867 0.015527049
0000a0 18 bb ed bc 30 d8 ea bb 90 58 01 3d 99 ca a9 bc
       -0.029019877 -0.007166885 0.0315786 -0.020726489
0000b0 d6 d2 73 3d 66 7a 0e 3c af 89 3f bd 7c e1 69 3c
       0.05952724 0.008696174 -0.046762165 0.014274951
0000c0 a9 1a 96 3c 38 45 82 bd 7d 44 77 bd 15 1f 92 3d
       0.01832326 -0.06360859 -0.06036805 0.07134835
0000d0 da 4d 85 3d 74 8a ad 3c be ed 53 bd 62 1d 23 bd
       0.0650899 0.021184184 -0.0517404 -0.039822944
0000e0 1b 66 9b 3c 50 9d 01 bc 81 7e 92 3b 0f 71 93 3d
       0.018969586 -0.007911041 0.004470647 0.071992986
0000f0 3b da 00 3d b8 2c 59 bc 44 61 61 bd ff a0 3d 3c
       0.03145812 -0.013255291 -0.0550244 0.011574029
000100 00 89 cd 3c dc 1a 8c 3d 7e 81 0f bd ec ce 81 bd
       0.02508974 0.068410605 -0.035035603 -0.06338295
000110 44 ad 98 3c e0 06 65 bd 7d 6a 72 3d 14 33 e0 bc
       0.018637307 -0.05591476 0.059183586 -0.027368106
000120 d1 6f 90 bd 77 6a 98 bd 87 8e 04 bc 0f 64 2f 3d
       -0.07052577 -0.074421816 -0.008090622 0.042820033
000130 0a 20 19 bd 08 0b 3a bb d2 e1 24 bc 95 32 2f 3d
       -0.03738407 -0.0028387923 -0.010063605 0.04277285
000140 c8 3b 0d 3d 7d 4d e7 bc b4 1d 54 3c 6c 40 04 3d
       0.03448084 -0.028235191 0.012946535 0.032288
000150 47 25 bb bb 3f 61 46 bc fb ae 97 3c 96 68 a3 3c
       -0.005711231 -0.012108146 0.018516054 0.019947331
000160 fa 6d 58 bd 4d 5f 38 3d 6d ed c5 bc a3 91 a0 3d
       -0.052839257 0.04501276 -0.024161065 0.07840278
000170 36 ec 32 3b bd ec 32 3d 41 4b d7 3c e0 26 a0 3d
       0.0027301437 0.043682802 0.026281001 0.07819915
000180 c2 f9 dc 3a 67 96 81 3c 5f 1c 99 bd 7d 45 ea 3c
       0.0016859102 0.015818788 -0.074761145 0.028597588
000190 2d fa 61 3c ae 5b 28 bd a9 3e 8e bd a1 90 ad 3d
       0.013792557 -0.041103058 -0.06945545 0.084748514
0001a0 de 7e 8d bd 5b cc 59 3d 5b f8 0f bc a5 59 0f bc
       -0.069089636 0.053173404 -0.00878724 -0.0087494
0001b0 16 35 8a bd 9d 9f 0c 3d 5c ac 1b 3d 5a 63 e2 3c
       -0.067484066 0.034331907 0.03800617 0.027635265
0001c0 0d 4c b5 bc c2 86 05 3d 73 b2 f2 bc 6c f0 1e 3d
       -0.02213099 0.03259922 -0.029626107 0.038803503
0001d0 28 21 10 3b 8a 8d 8a 3d 1e 8e d8 bc a3 5c b4 bb
       0.002199242 0.06765278 -0.026434954 -0.005504207
0001e0 02 12 7d bd e3 16 3f 3d fc 75 a6 3d cf 85 85 3d
       -0.06178475 0.046652686 0.081279725 0.065196626
0001f0 40 34 99 bd b3 21 82 3d bb 1a 24 bc 0d 0d 43 bb
       -0.07480669 0.06354084 -0.010016139 -0.0029762418
000200 4f 4c 1e 3d 63 6e 33 3d e9 db 16 bd ff 94 ac bc
       0.038646992 0.043806445 -0.036830816 -0.02106714
000210 54 9d 70 3d 64 e8 75 bd fc cc 3c 3d 7b b9 0d bd
       0.05874379 -0.060036078 0.046093926 -0.034600716
000220 03 67 4a bd 91 2d 9f 3d 21 06 51 bd 2c fb 04 bd
       -0.049414646 0.07772363 -0.051031236 -0.0324661
000230 f5 9c aa 3d 6d 06 41 bd 35 8d 88 3d 9b 19 9f bd
       0.083307184 -0.04712527 0.06667558 -0.07768556
000240 d2 ee 9e bc 51 9b 81 bc 42 97 aa 3d 8d 74 0b 3d
       -0.019400988 -0.015821131 0.083296314 0.0340467
000250 fe ab f0 bc 11 cd 8e 3d 0e a0 e1 3c ae b5 93 3d
       -0.029378887 0.06972707 0.02754214 0.07212387
000260 17 c7 d1 3c fd 9b 86 3d e1 37 a7 3d 1e 08 fb bc
       0.025607629 0.06572721 0.08164955 -0.030643519
000270 47 7d 19 3a 31 f2 dc bb db 79 86 bd 8b d9 66 bd
       0.00058551546 -0.0067427387 -0.06566211 -0.05635981
000280 8f 8e 88 bc a3 a6 ae bd 61 6d c1 3c 14 b2 58 bd
       -0.01666954 -0.08527877 0.023611726 -0.052904204
000290 75 69 e8 bc c3 e6 1b 3d ed d6 4c 3d 4a 86 aa bc
       -0.028370598 0.03806187 0.050009657 -0.020815987
0002a0 90 bb fe bc 72 cf 9f bd 24 26 ec bc db 13 5d 3c
       -0.031095296 -0.07803239 -0.02882678 0.013493503
0002b0 58 a7 20 bc e5 9a 78 3d 08 f6 b4 3d 97 2d 2a 3c
       -0.009805523 0.060694594 0.08835989 0.010386846
0002c0 61 ff 14 3d 79 75 97 3d e3 ba 8a 3b f3 e9 aa bd
       0.03637636 0.07395453 0.0042337044 -0.083454035
0002d0 14 a5 79 3d 52 0d 89 bd d4 1b 41 bd a9 5e 71 3c
       0.060948446 -0.06691994 -0.04714568 0.014732041
0002e0 a1 38 89 3d 0c 5e e5 3c ed 2c 3c bc e3 18 5c 3d
       0.06700254 0.027998947 -0.0114853205 0.05373467
0002f0 8c 01 a5 bd f2 7e a5 3d 47 14 63 bc 66 be e6 3c
       -0.08056936 0.080808535 -0.013859815 0.02816696
000300 d5 54 5f bc 57 fa a4 3d 5a ba cb 3b 8f 5e 04 bd
       -0.013631065 0.08055561 0.006217283 -0.03231674
000310 c8 a6 ab 3b f0 ba 55 bb e1 0f 55 3d 7f 66 02 bd
       0.0052383877 -0.0032612644 0.052017096 -0.03183603
000320 0e 04 88 bd 1c 19 b1 3b fa 6d 89 bd e1 c7 48 bd
       -0.06641398 0.0054046046 -0.067104295 -0.049018744
000330 72 88 8b 3d 84 9b 18 3d 18 92 62 bd d1 d0 90 3c
       0.06813134 0.037257686 -0.055315107 0.017677696
000340 c8 6b 4b 3d 91 b3 08 bd 9c 23 69 bb ef d6 78 bd
       0.049663335 -0.033374373 -0.0035574203 -0.06075185
000350 3c 9d 1c bd 78 85 98 3d 61 90 8f bd 5e c1 a1 3d
       -0.038235888 0.07447332 -0.0700996 0.0789821
000360 29 f2 fb bb ce b3 cf bc 69 a0 ba 3c 6f 52 07 3d
       -0.00768878 -0.025354292 0.022781568 0.0330376
000370 c0 91 11 bd b6 16 88 3d a5 06 74 3d a3 bf 62 bb
       -0.03553939 0.06644957 0.05957665 -0.0034599088
000380 c8 1f d5 bc de ae 97 bd 8f 4f 44 3d 8f b4 16 3d
       -0.026016131 -0.074064 0.047927435 0.036793288
000390 08 35 87 bd 59 0d 98 3d 4f 42 5a 3d 29 98 2f 3d
       -0.06601912 0.07424421 0.053285893 0.04286972
0003a0 90 75 95 bd b0 88 8d 3d 27 af 78 bb ab 29 8b 3b
       -0.07297814 0.06910837 -0.0037946196 0.0042469106
0003b0 95 00 2f bd 83 49 dd bb 35 b9 df bc 1a 82 38 3c
       -0.042725164 -0.006753148 -0.027309993 0.011261487
0003c0 ba af 82 3d af 4f 1e bd 5a b6 75 3c e5 7e 86 3c
       0.063811734 -0.03865021 0.014997089 0.01641793
0003d0 f1 59 fb 3c 9c da 14 3d 5d 6c ac bd 02 91 88 3c
       0.030682536 0.036341295 -0.08419106 0.016670708
0003e0 d6 05 9e bc 3e 88 4c 3d e7 57 9f 3c da e2 75 bd
       -0.019289892 0.04993462 0.019451095 -0.060030796
0003f0 4b 04 04 3d 1c e0 8d 3d 05 ca 59 bd 7c ed 7c bd
       0.032230657 0.06927511 -0.053171176 -0.06174992

encoder_blocks.1.2.bias f4 [12]
000000 80 47 f6 bb 12 f1 c5 3c fc 81 bc 3d 3c ac 15 3d
       -0.0075158477 0.024162803 0.0920448 0.03654121
000010 18 9a c5 3c 19 3d 35 bd bf 60 65 bd 79 bc 59 bd
       0.02412133 -0.04424772 -0.056000467 -0.053158257
000020 c5 46 2d 3d 3c 9c 9a 3d b1 30 8e 3d 62 b6 e4 bb
       0.04230382 0.075493306 0.06942881 -0.0069797495

encoder_blocks.2.0.weight f4 [12, 12, 13]
000000 5a c8 96 3d ee 4a 2e bc 75 97 ca 3c 3b 9a 5b 3d
       0.07362433 -0.010637982 0.024730423 0.053613883
000010 3a 0d 1f 3c 45 68 31 3d a2 16 a0 3d 8d 40 2c 3d
       0.009707743 0.04331233 0.07816817 0.042053748
000020 39 b1 a7 3c 76 d1 99 bd 03 35 3f 3d 1a fd 81 bd
       0.020470249 -0.07510655 0.046681415 -0.063471034
000030 70 e7 82 3d e0 08 a9 bd 25 57 a4 3d c3 56 2d bd
       0.063917994 -0.08253646 0.08024434 -0.04231907
000040 ac 19 a0 3b 31 64 b2 3c 3f 95 6d bd ae ed a4 bc
       0.004885873 0.02177629 -0.05800366 -0.020132866
000050 5e 39 3d 3d 00 82 97 bd 9b 03 1b 3d 2f bc 85 3b
       0.046197288 -0.073978424 0.037845235 0.004081271
000060 77 64 33 3d 71 10 62 bd 5d e8 21 3d 9e ba 11 bd
       0.043796983 -0.05519146 0.03952824 -0.035578363
000070 b4 3e ae bd b2 99 53 bd 3f 5b ed 3c 86 e4 70 3b
       -0.085080534 -0.051660247 0.028974174 0.0036757304
000080 fc d0 8f bd 11 85 1c bd 9d 2d 91 3c 43 85 77 bd
       -0.070222825 -0.03821284 0.017721945 -0.060429823
000090 e0 9d 20 3b bc 43 49 bb e7 1a 84 3d 6b 31 fe 3c
       0.0024508163 -0.003071054 0.06450444 0.031029424
0000a0 ef c3 ac bd 34 78 26 bc ca 55 5a 3d 3f c1 e8 3c
       -0.08435809 -0.010160495 0.05330447 0.02841246
0000b0 36 2d 5a 3c d6 7e 03 bb aa d6 0b bd f2 44 80 bd
       0.013316443 -0.0020064614 -0.034140266 -0.0626315
0000c0 4a df 99 3d 27 cb 7b 3c 67 21 a9 3b 62 c9 47 3d
       0.07513292 0.0153682595 0.0051614526 0.048776038
0000d0 bd d0 30 3d 2c eb af bc e1 08 ed 3c 99 e6 9e 3c
       0.04316782 -0.021474443 0.028934898 0.019397067
0000e0 4b 17 b9 3c 64 88 89 3d 43 1b 85 3d 86 72 a9 bd
       0.022594115 0.067154676 0.064993404 -0.08273797
0000f0 bb da b6 b9 c1 f4 e6 3c 5b 4f 8a 3d 5a e7 fc 3c
       -0.00034876712 0.02819288 0.06753417 0.030872036
000100 ee 52 87 3c 67 16 bc bc e5 74 c2 3c 43 9f 87 3c
       0.016519036 -0.022959901 0.02373738 0.016555434
000110 1c a9 88 bd 9d 0c 90 bd cb 37 92 bd 03 2a d6 bc
       -0.0667288 -0.07033656 -0.07139548 -0.02614308
000120 bf 8d 8d 3d 8f 3b 08 3d 35 6c 94 bd 4f e4 14 3b
       0.069118015 0.033259925 -0.07247201 0.002271909
000130 0d c6 0a bd a6 80 81 3d c1 72 53 3d da 84 28 3c
       -0.033880282 0.06323366 0.05162311 0.0102855805
000140 a7 e4 22 bc db 4a 0e 3c 70 1b 40 3b 32 fa 04 3c
       -0.00994221 0.008684839 0.002931323 0.008116292
000150 8c 4f 8d 3c ec 21 f5 bc b6 a3 df bc 6b 6f 6f bd
       0.017249845 -0.029923402 -0.027299743 -0.058455866
000160 52 d6 c6 bc b6 9f e3 3b 6a d7 79 3d 76 76 f0 bc
       -0.024272118 0.0069465293 0.06099645 -0.029353362
000170 78 45 9e bd 16 02 74 3d 8f 56 0f bc 07 be 3d bd
       -0.07728094 0.0595723 -0.0087486645 -0.046323802
000180 b3 2b 02 3d be 0f 3c bc 34 d2 8b bc 88 db b4 3d
       0.031779956 -0.011478363 -0.017068006 0.08830935
000190 14 5d 57 bd ec e1 e0 3c d5 ed 48 3d df 21 2f bd
       -0.052579 0.027451478 0.04905494 -0.04275691
0001a0 03 4e af bc 68 ce 46 bd 0b e1 83 3c b1 20 5f bd
       -0.021399504 -0.048536688 0.01609852 -0.054474536
0001b0 71 68 84 3d 7d 3b 9f 3d fa fc f8 bc 01 88 4d 3d
       0.06465233 0.07775018 -0.030394066 0.05017853
0001c0 f0 5d 85 bd 2d dd bd bb 13 1c 11 3d be fa 89 bd
       -0.06512058 -0.0057941885 0.035427164 -0.067372784
0001d0 75 f4 21 bd 93 87 1f bd 45 d7 13 3c 24 89 88 ba
       -0.039539773 -0.038947653 0.009023492 -0.0010416848
0001e0 a4 23 84 bd d2 a9 8f 3d 14 eb 9f bd 6f 39 16 3d
       -0.064521104 0.070148125 -0.078085095 0.036675867
0001f0 1a 19 94 bc 11 0a 69 bd 05 b2 66 3c d7 b5 30 bd
       -0.018078376 -0.056894366 0.014080529 -0.043142166
000200 78 c3 2a bd 83 e8 83 bd 63 7b 91 bd dc 93 83 bd
       -0.04169032 -0.064408325 -0.07103612 -0.06424686
000210 2f 3a a2 bd b1 cc 6c bc 28 32 a9 3c 9e 0a d0 3c
       -0.07921254 -0.014453099 0.0206538 0.025395688
000220 45 b3 8f 3d d4 10 97 3a 85 2a 88 bb 5e ec 89 3d
       0.07016615 0.0011525401 -0.0041554593 0.067345366
000230 ee ec 13 3d cc 5f 03 3d 88 22 5a bd 84 7f 4e 3c
       0.036114626 0.03207378 -0.053255588 0.012603644
000240 d2 e6 8c bd fb c5 6a bd 15 5b 88 3d d4 1f 80 bd
       -0.06879963 -0.057317715 0.066579975 -0.06256071
000250 c3 e7 4f bd dc 90 05 3b aa d8 ce 3c 93 f6 87 3a
       -0.050758135 0.0020380532 0.025249798 0.0010373167
000260 6e ba 74 3c 07 ca ab 3d f1 e9 58 bd fc ac 73 3d
       0.014937026 0.08388143 -0.05295748 0.059491143
000270 de 77 69 3d d9 1f 28 bd 14 90 f2 3b 99 b9 51 3d
       0.05699908 -0.041045997 0.0074024294 0.05120239
000280 97 dd 0a bd 38 2f 11 3d f9 93 7c bc 9f ff 08 bc
       -0.03390273 0.035445422 -0.015416139 -0.008361726
000290 65 6b 8a 3c 2c e7 86 b7 45 0f 24 3d e7 76 8f 3d
       0.016896913 -1.6081693e-05 0.040053625 0.07005101
0002a0 8a a3 08 bd b4 db b5 3d 31 ad 28 3d b7 14 8a bc
       -0.033359088 0.08879796 0.041180793 -0.01685558
0002b0 65 a9 4c bd 8c e8 0f bd a9 e0 20 3c c4 b7 21 3d
       -0.049966235 -0.035133883 0.009819188 0.039481893
0002c0 3a d0 ba bc 37 3f f6 ba 39 4b 65 3d 08 07 29 3d
       -0.022804368 -0.001878715 0.05597994 0.04126647
0002d0 a4 84 ee bc 16 3d a3 3d 2b 34 31 ba 74 51 dd 3c
       -0.029115982 0.079706356 -0.0006759788 0.027016379
0002e0 e3 9a 14 bd 0e 4e 4c 3d c4 b8 8e 3d 83 66 77 3b
       -0.036280524 0.049879126 0.06968835 0.003775031
0002f0 28 7e 82 bc 22 06 bd 3c 8a e0 64 bd 39 5d c6 bc
       -0.015929297 0.023074213 -0.0558782 -0.024214374
000300 21 89 eb 3c f4 9a 03 3b b2 ae 89 3d b2 f1 94 3d
       0.028751912 0.0020081373 0.067227736 0.07272662
000310 95 28 85 3d 84 ae 7e 3d 20 71 58 bd 74 a4 89 3c
       0.06501881 0.06217815 -0.05284226 0.01680205
000320 5b c8 aa 3c 96 86 3d 3d 2d 67 c0 bc de 0b 02 3d
       0.02084749 0.04627093 -0.023486698 0.0317496
000330 b1 4c cb ba 02 e8 83 3d 06 75 f5 bb 20 77 29 bc
       -0.0015510527 0.06440736 -0.007490757 -0.010343343
000340 17 ba b5 3c 5b e2 d4 3b af 1f 06 3d 74 c7 96 3d
       0.022183461 0.0064967102 0.03274506 0.073622614
000350 1f d2 5d bd 2c cd 58 3d ed be 66 3c cf 50 bf bc
       -0.054155465 0.052930042 0.014083606 -0.023353962
000360 0b e0 45 bd 46 5b 94 bd d0 d8 96 bd 97 3a 04 3d
       -0.048309367 -0.072439715 -0.073655725 0.032282438
000370 7c 5d 73 3d e9 00 64 3c 9f 08 30 3d a0 1d 71 bb
       0.059415326 0.013916233 0.04297697 -0.003679134
000380 41 ec 8c bd c5 7f 57 3d 70 fc 97 3d 22 da 77 bd
       -0.06880999 0.052612085 0.074211955 -0.060510762
000390 89 1b d6 bc fd 15 89 3d ff 2f f3 bc f9 be 6a bd
       -0.026136177 0.06693647 -0.029685972 -0.057311032
0003a0 00 b4 f5 3c a5 e3 6b 3d e9 c5 87 bd 4e 0b ff 3c
       0.029993057 0.057590146 -0.06629545 0.03113332
0003b0 f0 d0 ea 3c 74 d8 4e bd 87 f7 6b 3d b1 77 8a bd
       0.028664082 -0.050499395 0.057609107 -0.067611106
0003c0 7c 95 f9 bb bc 14 1e 3a 4f f2 53 3d 84 1f 0f 3d
       -0.007616697 0.00060303113 0.051744755 0.034942165
0003d0 ca b0 9a bd 2a 47 90 3d 0a fe 47 bd f1 be 2e bd
       -0.07553251 0.070448235 -0.048826255 -0.042662565
0003e0 9f b7 f5 b9 2f 65 32 bd 70 80 2e 3d e7 0c 41 3d
       -0.0004686685 -0.043553527 0.042602956 0.047131445
0003f0 7a db c1 bc 3b 36 15 bc b0 b6 2c 3c 72 62 0d bd
       -0.023664225 -0.009107168 0.010541603 -0.034517713

encoder_blocks.2.0.bias f4 [12]
000000 09 eb 97 bc d1 46 92 3d 01 5e 6b 3c da 72 f6 3d
       -0.01854469 0.071424134 0.014365674 0.12033625
000010 18 97 4a bc 07 cb 58 3d 1d 92 d5 bd c2 93 57 3d
       -0.012365125 0.052927997 -0.104282595 0.052631147
000020 a0 79 e0 3c 56 0a 9d bd 23 93 9e 3d 99 2f bf 3d
       0.027401745 -0.07667987 0.07742908 0.093352504

encoder_blocks.2.2.weight f4 [12, 12, 13]
000000 eb c1 ad bc 91 02 a9 3d 16 2b 30 3d ea a8 70 3b
       -0.021210631 0.08252443 0.04300984 0.0036721774
000010 e5 27 6e bd 91 d8 e0 39 0d 59 b9 bc c2 b4 57 bd
       -0.058143515 0.00042885964 -0.02262547 -0.05266262
000020 33 3a cf bc 24 fb f9 bc e1 e2 3e 3c 01 51 30 bd
       -0.025296306 -0.030515261 0.011650772 -0.043046
000030 bf 28 68 3d 5a 81 91 bc ac aa 8a 3c a5 f4 6e 3d
       0.056679484 -0.017761875 0.016927086 0.05833878
000040 56 b6 14 3d 7b 30 14 3d bd 00 7c bd e8 5a a0 3d
       0.0363067 0.036179047 -0.06152414 0.07829839
000050 32 41 b1 bc a1 85 a3 bc a0 5f 83 bd f0 da 32 3d
       -0.021637533 -0.01996118 -0.064147234 0.043665826
000060 6e e4 7b 3d 5f 27 02 bd 48 d5 cb bc 5e f2 7f 3d
       0.061497144 -0.03177583 -0.024881974 0.062487
000070 2c e8 89 bd 4b 3a a6 bc c7 1c 88 3c ac 55 3d 3d
       -0.067337364 -0.020291468 0.016615285 0.04622428
000080 e9 b9 4f bd 1a 10 32 bd 6c 19 aa 3d 4e 9e 9b bd
       -0.050714407 -0.043472387 0.0830563 -0.075985536
000090 e2 e1 5a bd 91 fb 49 3d c5 87 75 bb 0d 0d ba 3c
       -0.053438075 0.049312178 -0.0037464958 0.022711301
0000a0 e3 25 60 bd ec 24 25 bd ad 4c 11 bd 9d 22 7d 3d
       -0.05472363 -0.040318415 -0.035473514 0.061800588
0000b0 e0 a8 39 3d 1c 65 95 bc 68 a5 a5 3a 08 63 8f 3b
       0.045327067 -0.01823669 0.0012637796 0.004375819
0000c0 de 94 b7 3c a5 81 27 bd 98 4f 68 bd 6c 88 95 3d
       0.022409853 -0.040895123 -0.05671653 0.07301411
0000d0 20 e2 20 3b 9c b5 91 bd 14 e9 fe 3c be a7 62 bd
       0.0024548844 -0.07114717 0.031117 -0.055335753
0000e0 32 20 92 bc 38 47 74 bc c6 86 61 bd 80 14 c3 ba
       -0.017837618 -0.014909558 -0.05506017 -0.0014883429
0000f0 80 75 1e 3c 70 5f fa bb 60 a2 7b bb a0 d7 e4 bb
       0.009671569 -0.0076407716 -0.0038396344 -0.0069837123
000100 08 4c 7f 3c ba 15 4f 3d e3 10 6c bd 75 cf b2 3c
       0.015582092 0.05055783 -0.057633292 0.021827439
000110 af 63 a9 3c a3 63 16 3c 49 ec 3f 3b 7a 31 51 bd
       0.020677416 0.009179029 0.0029285124 -0.051072575
000120 d3 4b 38 3d 18 41 4c 3d 33 7d 52 3d 36 3d 3e bd
       0.044994187 0.049866766 0.05138893 -0.046445094
000130 c7 4b 37 bd f7 b6 c9 bb 51 28 5f 3c 4b dd 57 bd
       -0.04475 -0.0061558443 0.013620452 -0.052701276
000140 2b 54 23 bd 0e d1 b6 bb 55 a8 1a 3d 03 46 f7 3c
       -0.03987519 -0.0055791205 0.03775819 0.030184751
000150 94 fe 11 3d d1 7d 50 3c e0 b8 ac bd 5c 3c 68 3d
       0.035643175 0.0127253095 -0.084336996 0.05669819
000160 17 1e 76 bd 97 17 51 bd 9d cc 94 3b 27 50 5e 3c
       -0.06008729 -0.051047888 0.0045409934 0.0135689145
000170 3e db 04 3d 39 74 5f 3c 1d 89 84 3d cd 00 be bc
       0.03243565 0.0136385495 0.06471465 -0.023193741
000180 3a 39 06 3c 79 60 b8 3d 22 d9 0a bd 0e 17 99 3d
       0.008192355 0.09002776 -0.03389848 0.074751005
000190 ca 45 4c 39 95 27 b6 3d 52 fa bf 3d f3 81 5c bc
       0.00019480955 0.088942684 0.09373917 -0.013458717
0001a0 0c 58 f2 bb 00 93 9a bd d3 e2 81 3d 4e 13 95 3d
       -0.00739575 -0.07547569 0.063420914 0.07279073
0001b0 1c a0 0e 3c ed 77 87 bd 0b 42 e4 3c 86 6e 5e 3d
       0.008705165 -0.06614671 0.027863523 0.054304622
0001c0 fb d3 ab bc 36 9e 35 bc 25 67 52 bd 7d 17 3d bd
       -0.020975104 -0.011085084 -0.051367898 -0.04616498
0001d0 94 2d 6f bc 77 51 77 bd 55 a4 93 3d 32 a5 32 bd
       -0.014598269 -0.060380425 0.07209078 -0.043614574
0001e0 db 13 bd 3c 2b f0 a1 3d 8f ea 03 3d dd 17 83 bd
       0.023080757 0.079071365 0.032206114 -0.06401036
0001f0 82 22 8e bc 2b df 9a bd cb 69 88 bd 53 ca 52 bb
       -0.017350439 -0.07562097 -0.066608034 -0.0032164052
000200 3e a9 a3 3c b4 dd 5a 3d 68 b5 25 bd ef d5 07 3d
       0.019978162 0.05343409 -0.040456206 0.033163007
000210 75 cd 48 bc 61 3d f8 3c 8b 28 26 3d cb 94 87 bd
       -0.012256016 0.030302705 0.04056601 -0.06620177
000220 f1 4b 90 bc 0a 81 82 3c d3 11 56 3d 9e c4 d2 3a
       -0.017614337 0.015930671 0.052263092 0.0016080325
000230 79 b2 6d 3d 4a 60 0d bd c3 06 0d 3d 0f e0 48 bd
       0.058031533 -0.034515657 0.034430277 -0.049041804
000240 32 73 d7 bc 4d 86 df 3c 66 7f 8c 3b fa f6 92 bd
       -0.026300047 0.02728572 0.004287648 -0.07176013
000250 6c 8b 7c bd 55 1f a6 3d 7c 87 24 3d 2f bf a8 bc
       -0.0616564 0.08111445 0.04016827 -0.020598976
000260 8d 10 7f bd ef c0 77 3c 57 ea c6 bb f1 c6 27 bd
       -0.062271643 0.015121683 -0.006070416 -0.04096121
000270 6d 41 82 3d 1f 21 6f bd 28 1a b5 3d a2 98 55 bd
       0.06360135 -0.058381196 0.088428795 -0.052147515
000280 78 27 21 3d df c1 9e 3d 01 e8 b0 bc 66 6f 33 3d
       0.03934428 0.07751822 -0.021595003 0.04380741
000290 66 10 82 3b 88 46 42 3d 50 5f 6f bc bd 8c 36 3d
       0.00396924 0.047430545 -0.014610127 0.044567812
0002a0 79 32 8d bc e0 6a f7 bc 2a 0d 82 3d 3d 01 0d bc
       -0.017235981 -0.03020233 0.06350167 -0.008606252
0002b0 2b 48 84 3d 7c ad 89 3b c6 f5 82 3d 67 fb 3f 3d
       0.064590774 0.004201589 0.06394534 0.046870615
0002c0 10 b8 00 3d 0c 63 c8 bc 90 9b a8 bc 7c ed 59 bd
       0.031425536 -0.024461292 -0.02058199 -0.053205
0002d0 4a fb 52 3d 83 7d 3b 3c 22 e3 04 3c bb 4e 38 bd
       0.05150918 0.011443499 0.008110793 -0.04499696
0002e0 21 c6 12 bc df 2b 0e 3c de b7 b0 ba 48 38 92 3c
       -0.00895837 0.008677452 -0.0013482531 0.017849103
0002f0 dd d4 3a 3d 71 b5 d7 3c bb 1a 0a bd b1 43 35 3c
       0.04561316 0.026331635 -0.0337169 0.011063502
000300 2e 6f 9e 3d 15 9c 72 bd ad 42 ee bc 47 70 2c bd
       0.077360496 -0.059230883 -0.029084528 -0.042099264
000310 d3 65 9e 3d 2d 34 98 bd 31 be 96 3d 72 e7 32 bc
       0.07734265 -0.07431827 0.07360495 -0.010919439
000320 0d c9 5f 3d 62 0b 8d 3d c8 44 9e bc 19 68 5e 3d
       0.054635096 0.06886937 -0.019319907 0.054298494
000330 3a 84 00 3d b6 48 10 3d 18 28 84 bd cc 03 6b 3b
       0.0313761 0.035225593 -0.0645296 0.0035860417
000340 f2 fd 2f bd d0 49 91 3d 34 1e 18 bd 00 36 4b ba
       -0.04296679 0.07094157 -0.03713818 -0.0007751882
000350 e4 cb 09 bd 50 10 8f 3d 1c 1b 5d 3d 9c 1e 4e bd
       -0.03364171 0.06985533 0.05398093 -0.05032216
000360 cc 3f 73 3d 3e 1b 0e 3d 00 48 0c 38 cf c1 23 bd
       0.059387013 0.03469395 3.3445656e-05 -0.039979752
000370 80 23 5f 3b 2f 29 70 3d 05 c0 7b 3c ed 91 3e bb
       0.003404826 0.058633026 0.015365605 -0.0029078678
000380 be 5d 8e 3c 94 62 95 3d 29 e2 cb 3c ed f1 64 3d
       0.017378684 0.07294193 0.024888115 0.05589478
000390 99 d0 c4 3c 28 e4 e7 bc 9e 94 ba bc c7 02 9d bd
       0.024025248 -0.028307036 -0.022775944 -0.07666545
0003a0 4e 56 dd bc 64 83 7b 3c f1 9e b5 3c 12 80 1e bd
       -0.027018692 0.01535115 0.022170516 -0.038696356
0003b0 98 5e cc 3c 71 1a 46 bd 6f 6f 8a 3d 4e 96 9d bc
       0.02494745 -0.04836506 0.067595355 -0.01923671
0003c0 98 a2 b5 bc 0b 8b 64 bd e9 ff 1e 3d cd a7 a6 3d
       -0.022172257 -0.055796664 0.038818274 0.08137474
0003d0 aa a1 6b 3c 8c a3 4f 3d 47 a5 3f 3c 1f af b3 bd
       0.014381805 0.05069308 0.01169712 -0.08773636
0003e0 97 cc a9 bd c2 24 6c bc 84 03 29 3d 58 9c 52 bd
       -0.082909755 -0.014413061 0.04126312 -0.051418632
0003f0 1b 30 4f 3b 48 97 80 3c e5 04 0a bd cf dc ac bd
       0.0031614366 0.015697137 -0.033696074 -0.084405534

encoder_blocks.2.2.bias f4 [12]
000000 4f 2d 78 3d cb a9 68 3d 11 0b a0 3b 3f 58 33 bd
       0.060590085 0.056802552 0.0048841317 -0.04378533
000010 8d 8d a3 bb cf 74 4a 3d a8 51 ef 3d c8 dd 44 bd
       -0.0049912394 0.049427804 0.116854966 -0.04806307
000020 54 bc 5f 3d d9 d5 68 3d 5c 45 d8 3d 7b 84 2b bd
       0.054622963 0.056844566 0.10560104 -0.04187439

encoder_blocks.3.0.weight f4 [12, 12, 13]
000000 18 85 99 3d 1e e9 e4 3c bd fd 33 bc 6b 44 48 bd
       0.07496089 0.02794319 -0.010985789 -0.048893373
000010 35 d4 81 bc 28 bf 3f 3d 5a ea 7e bd 5b 95 2b bd
       -0.015848259 0.04681316 -0.062235214 -0.041890483
000020 97 bc 49 bd ee 5a 7c 3d 04 d0 a0 3d 45 c5 3a bd
       -0.04925212 0.061610155 0.07852176 -0.045598287
000030 9e 58 87 bd e0 ea 64 bd 30 9a 8c 3d fd 83 ea 3c
       -0.06608699 -0.055888057 0.068653464 0.02862739
000040 f3 df 34 3d b4 70 ab 3c d2 1b 7a bc 2d ee 54 3d
       0.044158887 0.020927764 -0.015265422 0.051984955
000050 a8 4b 95 bd 19 95 fd bc 66 33 4d 3a f7 31 18 bd
       -0.07289821 -0.030954884 0.00078277884 -0.037157025
000060 95 23 d6 3c 8c b0 8f 3c cb e3 48 3d bb 38 88 3d
       0.026140014 0.017540239 0.049045365 0.066514455
000070 d8 3c 72 3d 21 41 45 bc 5c 7e 43 3c fd 45 5e bc
       0.059140056 -0.012039454 0.011931982 -0.013566491
000080 47 a9 2e bd 91 75 0c 3c fd 53 68 bd bb b9 79 bc
       -0.042641904 0.008572952 -0.056720722 -0.0152420355
000090 85 4a 69 3b 78 28 84 3c 68 5d 86 3c 7b 4b 39 3d
       0.0035597396 0.016132578 0.016401961 0.045238
0000a0 bf ad 35 bd 6e 4b d2 3c f6 61 50 bc dc 6d 5f 3d
       -0.04435515 0.025670733 -0.012718668 0.05454813
0000b0 6f 47 74 3d 90 5c 1d bd 62 f9 1e bc e8 a2 fc 3c
       0.059638437 -0.038418353 -0.009703012 0.030839399
0000c0 2c 8f 98 3d 61 f1 26 bd a9 4f cb 3c fb 72 f8 bc
       0.07449183 -0.04075754 0.024818258 -0.030328264
0000d0 cf 05 89 bd db e8 2a 3d ca a0 78 bd 20 6d 20 3d
       -0.06690561 0.041725975 -0.060700215 0.03916657
0000e0 9d 95 85 3d df c6 16 3d 70 67 68 bd d3 a2 8b bd
       0.06522677 0.036810752 -0.05673927 -0.06818166
0000f0 52 9e 4f bb c2 84 6f 3c 3e 0d 01 bd 07 91 86 3c
       -0.003168006 0.014619054 -0.03150677 0.016426576
000100 54 cd af bc 1d eb 91 bd d8 a4 2e bd fc d2 bf bc
       -0.021460213 -0.071249224 -0.042637676 -0.023416035
000110 98 71 7e 3d 08 74 86 bd 9b 5e 85 b8 2d f7 a6 3d
       0.06212005 -0.065651 -6.359556e-05 0.08152614
000120 7d 65 eb 3b 55 f8 4a 3c 4b 59 9d 3b c3 d3 51 bd
       0.007183729 0.0123883085 0.0048019043 -0.051227342
000130 ae 48 19 3d 1e 59 31 3d a8 91 3b bd 14 a9 a9 3b
       0.03742283 0.04329788 -0.045793205 0.0051776264
000140 93 c7 0f 3d 95 d4 49 bd 1b c6 02 bd 0d 1d 1c bd
       0.03510244 -0.049275 -0.03192721 -0.038113642
000150 7f bd bb bb 52 68 86 3d 6a 68 af bd 60 f3 80 3c
       -0.005729377 0.06562866 -0.08564837 0.01574105
000160 ff 90 8e bb eb 92 d3 bc 92 9f 9a 3d be 7c a3 3d
       -0.004350781 -0.025826892 0.07549967 0.07982777
000170 6f a8 56 3d c2 8b 05 bb 2c 1e 7a bd 5f 8f 82 bd
       0.052406725 -0.0020377492 -0.06106393 -0.06375002
000180 57 de ef bb c5 d6 4a 3d a9 9a 16 3d a6 f3 a5 3c
       -0.007320206 0.049521226 0.03676859 0.020257782
000190 60 c1 6e 3d b8 3f 30 3c bb 50 74 3d 38 87 8a bd
       0.058289886 0.010757379 0.059647303 -0.06764072
0001a0 59 61 dd bc ce da 00 3d ac a6 29 bc 37 19 5b bd
       -0.027023958 0.03145867 -0.010354679 -0.053490844
0001b0 c4 07 e9 bc 1a 15 b0 bb c1 54 51 3d 7e 28 99 bd
       -0.028446086 -0.0053736093 0.05110622 -0.074784264
0001c0 40 ad 6a 3c ab 69 89 bd 4a 65 2e bd 49 cf 86 3d
       0.014323533 -0.06709608 -0.042577066 0.06582505
0001d0 1f 03 32 bd 45 40 91 bd 7f 6b 95 bc 0d 5b 8b 3d
       -0.043460008 -0.070923366 -0.018239735 0.06804476
0001e0 f5 2c ba bb 47 c7 a7 bb b2 9a 49 bd 3e ca 9d bd
       -0.005681629 -0.0051201913 -0.049219795 -0.0770459
0001f0 11 76 c6 3c 38 47 6b 3b f5 4b e0 3b 6c 40 87 bd
       0.02422622 0.0035900604 0.0068449923 -0.06604084
000200 b4 a0 33 3d a6 6a 62 bd b7 83 44 bb d0 9b 98 bd
       0.04385443 -0.05527749 -0.0029985735 -0.07451594
000210 72 59 c2 3b 68 a0 3a 3d 74 c4 11 3c 58 c2 8d bc
       0.005931073 0.04556313 0.008896936 -0.017304584
000220 82 cf 83 bd 5a 34 18 3d 00 3a fe bc 86 71 0c 3c
       -0.06436063 0.0371593 -0.031033516 0.008571988
000230 8a 34 a2 bd 19 7a 97 3d 52 47 ca bc eb 23 83 3d
       -0.07920177 0.07396335 -0.024692211 0.06403335
000240 1b a8 01 3c 82 bf f8 bc 8d d5 04 3d 86 f3 a7 3d
       0.007913615 -0.030364756 0.03243022 0.08200745
000250 d1 de 02 bd 87 f7 ce 3c 76 84 5d 3d 03 fa 83 bc
       -0.031950776 0.025264515 0.054081403 -0.016110426
000260 06 02 49 3c cd 8a ee 3c 07 c6 74 3d 78 14 9e bd
       0.012268549 0.02911892 0.059759166 -0.07718748
000270 24 43 8b bc 41 00 65 bc f4 23 1d bd 41 f7 be 3d
       -0.016999789 -0.013977111 -0.038364366 0.09324504
000280 a4 22 bd 3d af e9 87 bd 79 92 e9 3d 83 7c 84 3d
       0.09235123 -0.066363685 0.114048906 0.06469061
000290 af ec 6f bd 03 a9 d2 3d 9b 13 c2 3c b2 16 8c 3d
       -0.05857533 0.10286143 0.02369099 0.06840266
0002a0 ab 78 57 3d 35 73 ee bc ab 0d 9b bd a7 14 9d bd
       0.052605312 -0.02910767 -0.07570966 -0.07669955
0002b0 50 16 f3 bb 19 52 02 3d cc 4b 89 bd bb 6c 5a 3b
       -0.0074184313 0.031816576 -0.0670391 0.0033328969
0002c0 bf b4 6d 3d a9 b7 86 3d b9 7d cc bc 0d 53 08 3d
       0.0580337 0.06577999 -0.024962293 0.03328233
0002d0 8b 40 b1 3c 5d 64 a0 3d 9c b0 0b 3c 10 e1 c7 3c
       0.021637222 0.07831643 0.008525994 0.02439931
0002e0 4a cf 85 bd e0 6c 9e 3d 67 6b cf bc f8 12 7b 3d
       -0.06533678 0.0773561 -0.025319768 0.061297387
0002f0 ab 1d 5b bc c8 e1 38 bd 9f e3 2c bd 0c 3e a1 3d
       -0.013373773 -0.045137197 -0.042209264 0.078731626
000300 e6 22 1d bd 9a b6 6f bd f4 10 8f bb fb 05 73 bd
       -0.03836336 -0.05852375 -0.0043660346 -0.059331875
000310 34 8f 98 3c 5a d8 41 3d 92 8d 9d 3b 19 da 49 3c
       0.018622972 0.04732547 0.0048081363 0.012320065
000320 23 69 ad 3c 9f db 73 3d 6a 59 e9 bc f6 f9 80 3d
       0.021168297 0.05953562 -0.028485019 0.06297676
000330 a7 45 f5 bc d7 b2 c7 bc 8b 94 86 bc 63 a3 8d 3d
       -0.02994044 -0.02437727 -0.016428253 0.06915929
000340 f9 b4 04 bd 31 3e 65 3d 70 aa 94 bd af 16 3a 3c
       -0.03239915 0.055967513 -0.07259071 0.011357947
000350 61 aa 40 bd 55 eb 98 3d cf f9 94 bd 91 7f 08 3d
       -0.047037486 0.07466761 -0.0727421 0.03332478
000360 fd 7b 2a 3d fd 55 f7 3c 8d ec 0b bc 1e 5b 79 3d
       0.04162215 0.03019237 -0.008540285 0.06087791
000370 4d 08 50 3c 12 4b 8c bc 00 4f e0 bc 65 df 18 3d
       0.012697292 -0.01712564 -0.02738142 0.03732242
000380 1e 11 70 bd a9 1f cb bc 52 6d 7c 3d 1f 93 62 bd
       -0.058610074 -0.02479537 0.061627693 -0.055316087
000390 fb 05 60 3d 63 92 1f bd 06 21 e0 3c f6 d9 5e bc
       0.054693203 -0.038957965 0.027359497 -0.013601771
0003a0 f2 60 1a bc b0 1a 8f bc e1 3e 31 3d 56 16 cc 3d
       -0.009422528 -0.01746878 0.043272857 0.09965198
0003b0 78 1d 82 bb a3 bc aa 3d 8e c6 c1 3d 58 73 97 3d
       -0.003970798 0.08336761 0.094616994 0.07395047
0003c0 39 7d 70 bc 47 04 66 3d 84 a6 26 3d 5b ca 4b 3c
       -0.014678293 0.056156423 0.040686145 0.012438382
0003d0 29 8b a9 3c a3 04 87 3d b2 d2 bb 3d 1c 1a 68 3c
       0.02069624 0.06592681 0.09171046 0.014166381
0003e0 ef 3a d1 3a 86 f3 39 bb b2 ab b1 3b cb 78 0a bd
       0.0015962998 -0.002837391 0.005422079 -0.033806603
0003f0 7e 11 82 3d 39 6b 19 3c a1 5a 20 bb 96 17 9d bd
       0.063509926 0.009363943 -0.0024468082 -0.07670514

encoder_blocks.3.0.bias f4 [12]
000000 ef ee 45 bd 0a 8d 7f 3d b3 bc b6 3d 01 96 b5 bc
       -0.048323568 0.062390365 0.0892271 -0.022166254
000010 c0 a0 34 bd fb ea b3 3d 8b 36 e3 bc 3f 48 4d bd
       -0.044098616 0.08785053 -0.027735969 -0.050117727
000020 40 37 10 3c 8b c3 a5 bd 12 3c f5 3c b1 ce d3 3c
       0.008802235 -0.080939375 0.02993587 0.025855394

encoder_blocks.3.2.weight f4 [12, 12, 13]
000000 d0 4c ce 3b c0 a7 67 bd b7 18 53 bc e8 18 5a 3d
       0.006295778 -0.056556463 -0.01288431 0.05324641
000010 04 ff 12 bd c3 da 83 bd 39 79 08 3d 2e f9 3c bc
       -0.035887733 -0.0643821 0.033318732 -0.011534018
000020 63 e5 52 bd 51 d1 24 bb 35 30 41 bd 50 97 06 3d
       -0.05148829 -0.0025149176 -0.047165114 0.032859147
000030 52 64 ff bb 0a c5 d8 3c 82 53 4f bb d1 f6 2d bc
       -0.0077939415 0.026461143 -0.0031635468 -0.010617928
000040 83 f8 fc bc 4f b7 30 bd f0 d6 24 3c 3c 28 85 bd
       -0.030880218 -0.043143567 0.010061011 -0.06501815
000050 16 17 71 3d e9 02 05 bd 52 1c 13 bc a1 df 87 3d
       0.058859907 -0.03247348 -0.00897892 0.06634451
000060 ee 36 0c 3d 2a 87 42 3d 4c b5 80 ba c2 40 26 bd
       0.034232073 0.047492184 -0.0009819656 -0.0405891
000070 2b 11 f5 3c fb 9b 84 bd 83 1b d6 3c 97 72 89 bd
       0.029915413 -0.064750634 0.026136165 -0.067113094
000080 06 83 4c 3d 35 cf 5c bd 71 a3 79 bb ba c8 a1 3d
       0.04992964 -0.053908546 -0.0038091803 0.07899614
000090 f1 4c 76 3b 3d 5b 71 ba a5 93 1c bd 67 c8 4f bd
       0.0037582482 -0.0009207016 -0.038226742 -0.050728228
0000a0 2b bc 77 3d 6b 06 98 bd be b1 70 3b 12 95 9f 3c
       0.060482185 -0.07423099 0.0036727036 0.019480262
0000b0 e8 0c 20 3d 6e 15 4c 3c 02 64 fe 3c 8a cd fe bc
       0.03907481 0.012456281 0.031053547 -0.031103868
0000c0 82 90 04 bd 93 b9 8b 3d 3b a6 8b bd d2 5a 9b 3b
       -0.032364376 0.06822505 -0.06818815 0.0047410512
0000d0 b6 12 84 3d 0b 05 80 3d 6b c2 47 3d b3 03 47 bb
       0.06448881 0.06250962 0.048769396 -0.0030367195
0000e0 33 42 93 bb e4 8c 3e bd 18 ca e1 3b 4b 29 38 3d
       -0.0044939755 -0.046521083 0.0068905465 0.044961255
0000f0 d9 0e 88 3d 71 57 49 bc 97 2e c3 3c b4 3b d2 bc
       0.06643457 -0.012288914 0.023825927 -0.025663234
000100 9e a4 4d bd a1 f4 01 bd 1b 87 05 bd fc e1 a0 bd
       -0.05020582 -0.031727437 -0.03259955 -0.07855603
000110 c9 c6 92 3d db 91 2b bd 37 8f d6 bc e6 80 48 3d
       0.071668215 -0.041887145 -0.026191337 0.048951052
000120 9c d8 90 3d 21 d6 73 3d 93 07 95 3d d7 11 7c 3c
       0.07072565 0.05953038 0.07276835 0.015385113
000130 58 dc 72 3d 33 af 82 bd ec ac aa bc 13 82 94 bd
       0.059292167 -0.06381073 -0.020834409 -0.07251372
000140 cf 4a 10 3d ad 0c 83 bd 59 ef 24 bd 80 38 6b bd
       0.035227593 -0.06398902 -0.040267322 -0.05742693
000150 d6 f2 95 bd ea e7 cc bb 3d aa 5b 3d 84 23 9e bd
       -0.07321708 -0.0062532322 0.05362915 -0.07721618
000160 a0 01 8c bc 70 ea 06 3d a8 38 25 3d 7e 69 36 bd
       -0.017090619 0.03293842 0.040337235 -0.0445342
000170 88 ee 71 3c 69 59 86 bd 9e 9f 9f 3d d8 32 14 3d
       0.014766343 -0.065600224 0.077941164 0.0361813
000180 9c 03 58 3d 68 0e a7 3c d4 b8 ef 3c b4 13 1f 3d
       0.052737817 0.020392612 0.029262938 0.03883715
000190 4e 34 a1 bc 71 3d 3b bd 06 5e 05 bd 28 92 0d 3c
       -0.019678261 -0.045712892 -0.03256037 0.008640803
0001a0 c2 0f 35 3d 0c da f7 bc 71 c3 91 3d d7 5d 86 3d
       0.04420448 -0.03025534 0.071173556 0.06560867
0001b0 f7 b8 d5 bc d1 1d 95 3d 16 a1 bb 3b 6b 83 d9 bc
       -0.026089175 0.07281078 0.00572599 -0.026551923
0001c0 19 b4 9c 3c ff 1f 89 3d 9c 2d bb bc ae 0a 4f 3d
       0.019128846 0.06695556 -0.022848897 0.050547294
0001d0 e8 6a fe ba 55 5a c5 3b b4 09 9c 3a 66 b7 23 3d
       -0.0019410523 0.0060227313 0.0011904747 0.039969824
0001e0 45 78 91 3d 2b 5d 90 3c 24 3d 19 3d df 1a 6c bd
       0.07103018 0.017622551 0.037411824 -0.057642814
0001f0 9f d2 6c 3d e1 04 15 bc d2 38 11 bb 57 85 78 bd
       0.05781805 -0.0090954015 -0.0022159112 -0.060674038
000200 26 d8 8f 3d 07 79 0f bd a8 5f 9b 3d d7 84 94 bc
       0.07023649 -0.03502753 0.07586604 -0.01812975
000210 4a f6 2a bd 36 6d 77 bd 25 3c 47 bd cb 80 4e 3d
       -0.041738786 -0.060406886 -0.048641343 0.050415795
000220 0d dd 5f bd 49 a8 f8 bc ad 8a 6a bc 2f 5c 89 bb
       -0.05465417 -0.030353682 -0.014315289 -0.0041918973
000230 16 ba e8 ba 26 8e 2f 3c 7f e6 a2 bd 82 22 64 3c
       -0.0017755653 0.010715043 -0.0795412 0.013924243
000240 f9 5e 2f 3d ec 5b b5 bc 7b f3 50 bd 60 d9 0f bc
       0.042815182 -0.022138558 -0.05101345 -0.008779854
000250 11 05 81 bd b4 b4 0b bd c0 53 72 bc 2c e8 f8 39
       -0.062997945 -0.03410788 -0.014790475 0.00047475228
000260 0c f4 cd bc 15 36 f2 3c 6a e6 8c bc 39 bf d8 bc
       -0.025140785 0.029566804 -0.017199714 -0.02645837
000270 22 d7 eb 3b 4f df 47 bd 06 48 33 3d d9 5b 9f 3c
       0.0071972767 -0.048796948 0.04376986 0.019452976
000280 97 c9 a3 bc c5 5c 9b 3d 35 fd 94 3d 1a df ad bc
       -0.019993586 0.07586054 0.07274858 -0.021224547
000290 2f d3 95 3d 58 17 99 3c 18 d4 21 3c cf 2d 13 bd
       0.07315671 0.018687889 0.009877227 -0.03593236
0002a0 38 ac 58 3d 3a b5 89 bc 8a 0c 28 3d f4 cc a1 3c
       0.052898616 -0.016810048 0.041027583 0.01975105
0002b0 54 5a 0c bd 8b a6 2d 3d 01 51 a2 bd 4e 82 09 bd
       -0.03426583 0.042395156 -0.079256065 -0.033571534
0002c0 cd 6c 9c bd ed ca 8c 3d de 5e 15 bd ce cd 89 3b
       -0.076379396 0.068746425 -0.036467426 0.004205442
0002d0 aa 53 35 bd 65 ed f2 bc 4d 75 bb 3c cd d7 89 3d
       -0.04426924 -0.029654214 0.022883082 0.06730614
0002e0 0e 1d 4b bd fa c3 1b bd 30 44 f5 bc 2d 50 6a 3c
       -0.049588256 -0.038028695 -0.02993974 0.014301342
0002f0 9f cf 68 bd 01 da bc bc 85 fe 8a 3d 24 bf 58 3d
       -0.056838628 -0.023053171 0.06786827 0.05291666
000300 e6 83 d1 3b 09 fa 68 3d df 19 d8 3c 14 b6 7e bc
       0.0063938973 0.056879077 0.026379524 -0.0155463405
000310 bd da 13 3c 42 63 a6 bd 95 fa b3 3a 91 83 fa bc
       0.009024319 -0.08124401 0.0013731295 -0.030580314
000320 f2 d8 49 bd 9d 99 11 3d 58 65 9b 3d 04 ef 24 bc
       -0.04927916 0.035546888 0.07587689 -0.010066751
000330 eb 02 9f 3b d5 f9 c9 3b 1d 1e 1a 3c ec 2d 1d 3d
       0.004852643 0.0061638155 0.009406594 0.038373873
000340 c1 d7 25 bd 5c 3b 24 bc 5a 45 6d bd 5f fe 47 3d
       -0.040488962 -0.010023918 -0.057927467 0.04882657
000350 eb 1b 4c 3d f2 90 5b bd 5a e6 6a bd 5a 2c 99 3b
       0.049831312 -0.053605027 -0.057348587 0.0046744766
000360 db c1 7c 3d 5c 86 8c bc 0c 5f 57 bd 77 7e 3b 3b
       0.061708312 -0.017153911 -0.05258088 0.0028609314
000370 95 9e 0b bd 6f 14 a5 3c f1 8f 03 3d 0b c8 92 3c
       -0.034086782 0.020151345 0.032119695 0.017917654
000380 54 d2 16 3d 49 0c 0f bd 19 48 3a 3d 95 99 a2 bb
       0.03682168 -0.034923825 0.045478914 -0.004962156
000390 92 9f 1d bc fd d6 42 bd c8 8e 8d bc 0f dc 48 bd
       -0.009620564 -0.04756831 -0.017279997 -0.04903799
0003a0 52 2b da 3c 15 cc 13 bd ca 98 56 bd e8 24 8b bd
       0.026631985 -0.0360833 -0.052391805 -0.06794149
0003b0 90 d2 92 bd 58 5b ed bc d3 2f b9 3c 00 fb 31 bd
       -0.07169068 -0.02897422 0.022605812 -0.043452263
0003c0 a1 f8 c6 3c f0 0e 3e bd db 46 87 3d e4 43 bd bb
       0.024288477 -0.046400964 0.066053115 -0.0057759155
0003d0 57 6c 4d bd ab f1 7c 3d bd 12 6d bd bf 30 36 bd
       -0.05015215 0.06175391 -0.0578792 -0.04448008
0003e0 f0 94 3b 3c 20 f8 8f bb 70 5c 9f 3d 88 56 3a bc
       0.011449084 -0.0043935925 0.07781303 -0.01137317
0003f0 92 7c 92 3d 10 ae 28 3c 10 82 95 3d 64 dc 59 3d
       0.07152666 0.010295406 0.07300198 0.053188697

encoder_blocks.3.2.bias f4 [12]
000000 d2 1a 9b bd ca 66 77 bd 43 ac 98 bd 20 78 31 bd
       -0.07573475 -0.06040076 -0.07454731 -0.04332745
000010 b4 53 ac bc cb c9 f4 3c 57 fb 86 3b 10 74 b2 3b
       -0.021036007 0.029881379 0.0041193175 0.0054459646
000020 ab 20 85 3b b0 b5 94 3d 3e d3 2c 3d a6 5e f0 ba
       0.004062732 0.07261217 0.042193644 -0.0018338754
