Python/save/localizer/trial_2/quake_localization_model_00280.pth (torch, 252994 bytes, 35 tensors)

encoder_blocks.0.weight f4 [12, 1, 13]
0.18722227 0.19628899 0.22165212 0.08331908 0.18474805 0.101987 -0.10821015 -0.063001476
-0.20528026 -0.20027107 -0.19265208 0.086858414 -0.087654285 -0.2142349 -0.24474019 -0.2530533
-0.12918642 0.10864448 -0.16821642 0.27799365 -0.19480196 -0.020034594 0.07409362 0.17232063
0.15741624 -0.04108856 0.070395194 -0.08804048 0.027078731 0.07230407 -0.21841608 -0.18843415
0.1566345 -0.067588575 -0.107335724 -0.107150964 -0.00856403 -0.11046792 -0.24509312 0.07706754
0.029834317 -0.20787314 0.07537242 -0.15825999 -0.13759458 0.085681304 0.03456694 0.038034726
-0.09206621 0.0030200847 0.26387426 -0.25035998 0.054473456 0.04549107 -0.087983355 -0.0056150067
-0.14557374 -0.11213215 -0.14578918 0.17879687 -0.03369747 0.11946788 -0.010887149 -0.13309592
-0.16873644 -0.08742895 0.23563612 0.09704238 -0.029421505 -0.05727237 0.07621175 0.22175032
-0.2358634 0.07785861 0.15239824 -0.19893044 0.22528277 0.16900486 -0.11459839 0.027287997
0.12315121 0.10670401 0.06619121 -0.033401348 -0.08061866 0.24272472 0.14250037 0.14449969
-0.26867807 0.120859474 -0.15079515 0.09334761 -0.09606083 -0.05052187 0.10731713 -0.20267256
0.27251416 0.19868897 -0.0878783 0.14161727 -0.17030007 0.012345594 0.21619543 0.019481575
-0.17480141 -0.016322305 -0.042816326 -0.07299245 0.16644108 0.19495349 0.18720719 0.25104278
0.15685183 0.18690339 0.22641715 -0.13599853 0.15858166 0.2619407 -0.08122664 -0.19705096
-0.21683562 0.0055847103 -0.17805468 -0.1966907 0.13096139 0.21161935 -0.19196577 0.27032036
0.05035632 0.10842217 0.28051698 -0.22099969 0.27457374 0.021543771 -0.033548944 0.2053097
0.11877217 0.024401594 -0.038485005 -0.052103408 -0.0073101614 -0.104557835 -0.18608361 0.07283174
0.14834812 -0.20880668 -0.05419505 -0.22766839 -0.2697006 0.08861286 -0.238567 -0.103394665
-0.17403294 0.23571503 -0.18981469 -0.12127547
00000000: 32b7 3f3e fbff 483e c6f8 623e 32a3 aa3d
00000010: 982e 3d3e 8fde d03d 489d ddbd eb06 81bd
00000020: fd34 52be dc13 4dbe 9646 45be d3e2 b13d
00000030: 1784 b3bd 6560 5bbe 2c9d 7abe 3490 81be
00000040: 7249 04be ff80 de3d ed40 2cbe 2f55 8e3e
00000050: 2a7a 47be 971f a4bc 65be 973d d274 303e
00000060: b931 213e 7a4c 28bd 5b2b 903d 914e b4bd
00000070: 37d4 dd3c 2814 943d 77a8 5fbe e2f4 40be
00000080: cb64 203e e16b 8abd d5d2 dbbd f771 dbbd
00000090: 2550 0cbc 013d e2bd b1f9 7abe 96d5 9d3d
000000a0: 1967 f43c b2dc 54be db5c 9a3d e80e 22be
000000b0: 98e5 0cbe ae79 af3d 1096 0d3d 4dca 1b3d
000000c0: 368d bcbd 9dec 453b 871a 873e 2f2f 80be
000000d0: 8f1f 5f3d d854 3a3d 9e30 b4bd 17fe b7bb
000000e0: 4811 15be 8aa5 e5bd c249 15be 8716 373e
000000f0: 5c06 0abd 93ab f43d 0360 32bc 4c4a 08be
00000100: 3fc9 2cbe f30d b3bd 984a 713e 28be c63d
00000110: 5e05 f1bc 6f96 6abd e814 9c3d 8412 633e
00000120: 2d86 71be 5674 9f3d 490e 1c3e 6cb4 4bbe
00000130: 87b0 663e 9c0f 2d3e 90b2 eabd 148b df3c
00000140: b436 fc3d a287 da3d 428f 873d dacf 08bd
00000150: 651b a5bd d48c 783e 9eeb 113e baf7 133e
00000160: 2c90 89be 2c85 f73d 0b6a 1abe 082d bf3d
00000170: 8abb c4bd 05f0 4ebd 15c9 db3d 6589 4fbe
00000180: fa86 8b3e 1f75 4b3e 8af9 b3bd 1e04 113e
00000190: 2463 2ebe 2d45 4a3c 5662 5d3e d397 9f3c
000001a0: 24ff 32be 5bb6 85bc 2c60 2fbd 117d 95bd
000001b0: 886f 2a3e e3a1 473e 3eb3 3f3e ae88 803e
000001c0: c49d 203e 9a63 3f3e e6d9 673e 3343 0bbe
000001d0: 3b63 223e 171d 863e 275a a6bd bac7 49be
000001e0: 280a 5ebe f2ff b63b f753 36be 4969 49be
000001f0: be1a 063e beb2 583e ad92 44be 6e67 8a3e
00000200: 6e42 4e3d 710c de3d ec9f 8f3e be4d 62be
00000210: ee94 8c3e 907c b03c 9e6a 09bd b53c 523e
00000220: d33e f33d dae5 c73c 74a2 1dbd 626a 55bd
00000230: 148a efbb 6b22 d6bd b48c 3ebe cf28 953d
00000240: 92e8 173e 6bd1 55be a1fb 5dbd e721 69be
00000250: 3216 8abe a97a b53d e84a 74be 95c0 d3bd
00000260: b135 32be 485f 713e c85e 42be 465f f8bd

encoder_blocks.0.bias f4 [12]
-0.17081413 0.042087145 0.2596469 -0.12012791 0.2652264 -0.24349639 0.05512678 0.10129297
0.06565943 -0.080858395 0.015397905 0.09931688
00000000: e6e9 2ebe 9263 2c3d 70f0 843e 9f05 f6bd
00000010: c1cb 873e 1e57 79be 9ecc 613d b072 cf3d
00000020: 7478 863d 1699 a5bd 7f47 7c3c a666 cb3d

encoder_blocks.1.0.weight f4 [12, 12, 13]
-0.0154147055 0.05402141 0.0683233 -0.025832053 -0.046100628 0.058165185 -0.045091648 0.020255016
-0.049551737 -0.025920218 -0.03722502 0.052124374 0.010808098 0.06067465 -0.04759836 -0.018326681
-0.04958592 0.01567478 0.005898889 -0.05211487 -0.025445014 -0.0711283 -0.022728926 -0.020470774
-0.044198357 0.044730663 -0.0045597926 0.066625476 -0.002519431 0.006854333 -0.056794133 -0.06988969
0.07666373 -0.082574725 0.060446218 -0.013745602 0.05097245 0.08231676 0.071431525 -0.08096479
0.03639967 -0.063065596 0.03194094 0.032990124 0.066681124 0.059577677 0.019285398 -0.059435204
-0.00014004506 -0.081117526 -0.06624503 0.062314916 0.007249238 0.044462502 0.0011957709 -0.06962429
0.071489036 0.04323285 -0.021694362 0.011080093 0.0064428262 -0.010102066 -0.056635223 0.019207377
-0.021535046 0.04086363 -0.03595108 0.028111678 0.011629807 -0.047278613 -0.056888357 -0.051192984
0.06050109 -0.06991115 0.04274592 0.074041754 0.028992552 -0.04501912 0.032820277 -0.08019424
0.004208355 0.05010859 0.0801438 -0.045761622 -0.06475823 0.01598015 -0.048274893 0.01298707
0.054600567 0.06521876 0.02112047 -0.04509163 3.1131334e-05 -0.030448651 -0.047868393 -0.019249555
-0.03335546 -0.05524816 0.064834 0.051277623 -0.06760726 -0.00834499 -0.019808656 0.002444145
0.06849418 -0.025063649 0.0026805347 -0.07627993 0.029013684 -0.04763289 0.021701466 -0.032380987
-0.009133172 0.043603286 0.038474582 0.05706749 0.067447454 -0.016140312 -0.031175934 -0.020095266
0.0073831845 0.034252297 -0.045399375 -0.076413475 -0.06898537 -0.013469257 -0.019096998 -0.016333235
-0.03001183 -0.06134916 -0.03132133 0.009087813 -0.066888034 0.02099047 -0.0353761 0.06822147
-0.016178967 0.0033906144 -0.040845245 -0.008807175 -0.06317509 -0.03994166 -0.018703371 -0.021970011
0.043890797 -0.021846743 -0.016537694 0.06278892 -0.07085234 0.020221395 -0.039579887 0.028063722
0.03711463 -0.038455814 0.0454112 -0.0737796 -0.03164349 0.043583293 -0.064389594 0.04366042
0.031294607 -0.0734675 -0.062456008 0.043821678 0.07804701 0.067289844 -0.04603454 0.05318885
0.057351857 -0.07295399 -0.05986742 0.042074785 0.06774101 0.057811078 0.0649342 0.039536722
0.0765912 0.02452913 -0.009089627 0.028984522 -0.06472468 0.06801106 0.00094310014 0.009185655
0.07917833 0.071185686 0.0028876367 -0.034953374 -0.049751535 -0.047825687 0.04599601 -0.030689545
-0.067105785 0.030470412 0.086976156 0.008397884 0.012216599 0.015876118 0.0245283 0.017937055
-0.0344032 -0.06383967 -0.02375245 0.02766342 -0.03181834 0.081801735 -0.028987689 0.07582969
-0.04178066 -0.053200245 -0.037244618 -0.06137089 0.011213454 -0.008734806 0.048525322 -0.067891456
-0.0009176856 -0.020089373 0.052678965 -0.01147514 0.021117475 0.068225235 0.0006949283 0.005298405
0.04828669 0.0054313443 0.01194493 0.0067155375 0.025283473 0.04583603 -0.018350022 -0.045385115
-0.02606972 0.037220113 0.027606253 -0.026589643 0.071059085 -0.06663977 -0.056461222 0.07409815
0.026894221 0.051271193 0.011497943 -0.0695088 -0.006788475 0.017042179 -0.047614366 -0.07433622
-0.030741606 -0.02912088 0.05165965 0.06904633 -0.057069335 0.005385793 -0.015234484 0.0027099731
00000000: f68d 7cbc 8e45 5d3d 16ed 8b3d be9d d3bc
00000010: 03d4 3cbd 9e3e 6e3d 05b2 38bd d9ed a53c
00000020: c3f6 4abd a356 d4bc 4379 18bd 5e80 553d
00000030: 7314 313c fb85 783d 7ff6 42bd d621 96bc
00000040: 9b1a 4bbd 6568 803c 784b c13b 6776 55bd
00000050: 1072 d0bc b7ab 91bd 0332 babc 53b2 a7bc
00000060: 5609 35bd 8037 373d 506a 95bb f072 883d
00000070: 0a1d 25bb 509a e03b f7a0 68bd 5322 8fbd
00000080: e001 9d3d f01c a9bd 7496 773d 3c35 61bc
00000090: 7dc8 503d b195 a83d b14a 923d ded0 a5bd
000000a0: d217 153d 8928 81bd 81d4 023d a720 073d
000000b0: 1d90 883d b907 743d 69fc 9d3c 5472 73bd
000000c0: 0fd9 12b9 f220 a6bd 79ab 87bd ed3d 7f3d
000000d0: 048b ed3b 501e 363d 6abb 9c3a 2e97 8ebd
000000e0: d868 923d ee14 313d 60b8 b1bc 4789 353c
000000f0: 581e d33b 2383 25bc 56fa 67bd ca58 9d3c
00000100: 446a b0bc 9f60 273d 7141 13bd 764a e63c
00000110: f28a 3e3c 38a7 41bd c403 69bd bcaf 51bd
00000120: fecf 773d 942d 8fbd 5916 2f3d 34a3 973d
00000130: ca81 ed3c f865 38bd 8e6e 063d e13c a4bd
00000140: 3ee6 893b aa3e 4d3d 6f22 a43d 8a70 3bbd
00000150: f69f 84bd cee8 823c e5bb 45bd b8c7 543c
00000160: d8a4 5f3d 6a91 853d d604 ad3c 00b2 38bd
00000170: 0493 0238 736f f9bc a611 44bd 3eb1 9dbc
00000180: bc9f 08bd e54b 62bd b0c7 843d 7c08 523d
00000190: ad75 8abd 6db9 08bc c345 a2bc f32d 203b
000001a0: ad46 8c3d 4852 cdbc e9ab 2f3b a738 9cbd
000001b0: 1bae ed3c b51a 43bd 46c7 b13c eda1 04bd
000001c0: 4da3 15bc 5c99 323d 8697 1d3d 9abf 693d
000001d0: e421 8a3d b038 84bc ac64 ffbc d49e a4bc
000001e0: a4ee f13b 234c 0c3d b2f4 39bd ab7e 9cbd
000001f0: 3448 8dbd 29ae 5cbc 4f71 9cbc 47cd 85bc
00000200: 5fdb f5bc 4249 7bbd cc4a 00bd 0de5 143c
00000210: 98fc 88bd 35f4 ab3c 88e6 10bd b3b7 8b3d
00000220: c189 84bc 1235 5e3b 584d 27bd f84b 10bc
00000230: f161 81bd de99 23bd d037 99bc 74fa b3bc
00000240: d6c6 333d f1f7 b2bc 0f7a 87bc 7a97 803d
00000250: 081b 91bd 57a7 a53c 851e 22bd e4e5 e53c
00000260: 8305 183d d883 1dbd 1801 3a3d c219 97bd
00000270: 9b9c 01bd 6584 323d b1de 83bd 45d5 323d
00000280: c62e 003d 2176 96bd dfd1 7fbd 5c7e 333d
00000290: 1cd7 9f3d 42cf 893d b78e 3cbd 8ddc 593d
000002a0: c8e9 6a3d e768 95bd 8a37 75bd 9c56 2c3d
000002b0: ccbb 8a3d 4fcb 6c3d 39fc 843d 42f1 213d
000002c0: d9db 9c3d 50f1 c83c a9ec 14bc f370 ed3c
000002d0: 5f8e 84bd 6249 8b3d 613a 773a 6e7f 163c
000002e0: 4028 a23d cdc9 913d 813e 3d3b 452b 0fbd
000002f0: 44c8 4bbd dee4 43bd 5066 3c3d a468 fbbc
00000300: c26e 89bd 169d f93c 8e20 b23d 4797 093c
00000310: 2128 483c a20e 823c 93ef c83c bbf0 923c
00000320: 5fea 0cbd 5fbe 82bd 7f94 c2bc 669e e23c
00000330: f353 02bd ab87 a73d 9777 edbc 994c 9b3d
00000340: 3322 2bbd 80e8 59bd d08d 18bd 0b60 7bbd
00000350: a3b8 373c 6f1c 0fbc 7dc2 463d ad0a 8bbd
00000360: d790 70ba 7892 a4bc e6c5 573d 3a02 3cbc
00000370: 8efe ac3c acb9 8b3d d92b 363a 3e9e ad3b
00000380: 44c8 453d 6bf9 b13b abb4 433c 030e dc3b
00000390: 491f cf3c 90be 3b3d c952 96bc bee5 39bd
000003a0: 2a90 d5bc 1e74 183d 8226 e23c 86d2 d9bc
000003b0: 6d87 913d 6f7a 88bd e243 67bd c5c0 973d
000003c0: 4551 dc3c be01 523d de61 3c3c a15a 8ebd
000003d0: db71 debb 0a9c 8b3c 4807 43bd 973d 98bd
000003e0: d2d5 fbbc e98e eebc 1299 533d 2a68 8d3d
000003f0: 89c1 69bd 4e7b b03b 0f9a 79bc ce99 313b

encoder_blocks.1.0.bias f4 [12]
0.01733009 -0.0020448845 -0.054961156 0.068734236 -0.08562281 0.031557854 -0.02811709 -0.025350068
0.04442508 0.08744436 0.07745287 0.031096404
00000000: d5f7 8d3c 7803 06bb f31e 61bd 89c4 8c3d
00000010: 035b afbd cf42 013d d055 e6bc f2aa cfbc
00000020: 13f7 353d 0716 b33d 9c9f 9e3d e3bd fe3c

encoder_blocks.1.2.weight f4 [12, 12, 13]
0.05976802 -0.048049748 0.04856279 0.07657789 0.049416393 0.038423873 0.010493879 0.00026310355
-0.011540687 -0.030710017 -0.005294117 -0.008162855 0.062449325 -0.05610674 0.016437639 -0.009212599
0.002647657 0.04627914 0.077042885 -0.06630516 0.08190877 -0.05734836 0.08513373 -0.0091262655
0.056862816 0.05892056 -0.05218205 -0.07581947 0.04405386 0.014528102 -0.011850332 -0.032849956
-0.07587414 -0.05219737 0.07102193 0.029457016 0.054206587 -0.037733845 0.042266853 0.011463258
-0.029939901 -0.008737363 0.03236973 -0.018889967 0.054583035 0.0071184244 -0.046103057 0.013500532
0.016720125 -0.062328007 -0.0607567 0.07053059 0.06354285 0.017682353 -0.053693157 -0.043645587
0.015676783 -0.008783955 0.0049917637 0.07129369 0.02927958 -0.014032181 -0.055699848 0.0061414856
0.02602226 0.067598775 -0.036040783 -0.06505306 0.015407466 -0.059041012 0.06015035 -0.025644448
-0.07118638 -0.07528005 -0.008358304 0.04183968 -0.03471074 -0.005911201 -0.011731283 0.040674396
0.0355906 -0.029789085 0.010496612 0.031943306 -0.006351943 -0.014814471 0.021862695 0.015737923
-0.058295626 0.04741922 -0.02878557 0.07379964 0.0009907328 0.041544497 0.020479333 0.07475867
-0.0019113879 0.014930721 -0.07626926 0.02691341 0.012182134 -0.046115283 -0.070384555 0.0824615
-0.07030727 0.046199977 -0.009760664 -0.00936227 -0.067140214 0.029859308 0.03368499 0.02686292
-0.02593723 0.030210158 -0.03096374 0.03285432 0.003049939 0.05882013 -0.026895294 -0.0043630097
-0.06478852 0.046918783 0.07517066 0.06428014 -0.07826078 0.059974536 -0.011977012 -0.0044218847
0.03859677 0.04219246 -0.039745912 -0.022745382 0.058662485 -0.05840475 0.043568343 -0.039057128
-0.05216986 0.07829165 -0.053060293 -0.033631608 0.07723482 -0.05024806 0.06823693 -0.074738406
-0.021340799 -0.019605048 0.08152685 0.029783567 -0.03103793 0.0676832 0.026532141 0.07057956
0.029310163 0.06373351 0.07806895 -0.033804566 -0.00043616781 -0.007660591 -0.06396012 -0.060902312
-0.016351443 -0.08348816 0.02301303 -0.05154977 -0.026199931 0.037753046 0.04864811 -0.020706432
-0.03170474 -0.078136824 -0.02659246 0.01580105 -0.009843139 0.061091106 0.08786593 0.010529043
0.040294115 0.07309345 0.0044312235 -0.08135057 0.061047643 -0.066492654 -0.046532463 0.015380465
0.06525506 0.028626021 -0.011146891 0.054606576 -0.08004185 0.07982802 -0.013155243 0.028278248
-0.012626135 0.077945255 0.006051511 -0.03211554 0.005937403 -0.003093339 0.05188573 -0.03269503
-0.06380858 0.0040371893 -0.066503555 -0.047834218 0.06845583 0.036639526 -0.056614116 0.01506307
0.050377663 -0.031799983 -0.0033828106 -0.057871077 -0.037413407 0.07488996 -0.065727934 0.0803274
-0.009340693 -0.025181277 0.022922235 0.033710636 -0.03569839 0.067346744 0.058353398 -0.002216071
-0.027789509 -0.07416577 0.047128428 0.034656525 -0.06590477 0.07431363 0.05326687 0.042422608
-0.07160544 0.06801337 -0.007527238 0.004693537 -0.0433825 -0.006487528 -0.02719821 0.009969723
0.063384704 -0.050427314 0.01550927 0.015824495 0.02944887 0.0361007 -0.07809395 0.01987445
-0.01900823 0.050911523 0.021948894 -0.0578785 0.03446854 0.06964515 -0.056382895 -0.060367476
00000000: 50cf 743d d0cf 44bd c7e9 463d ded4 9c3d
00000010: d868 4a3d 5a62 1d3d 85ee 2b3c 29f1 8939
00000020: 2615 3dbc 9393 fbbc 467a adbb 7fbd 05bc
00000030: ddca 7f3d 2ed0 65bd 3aa8 863c 71f0 16bc
00000040: 5084 2d3b 328f 3d3d a9c8 9d3d 00cb 87bd
00000050: c9bf a73d 1de6 6abd 985a ae3d 5586 15bc
00000060: fce8 683d af56 713d d8bc 55bd 3d47 9bbd
00000070: d271 343d 4707 6e3c e527 42bc ad8d 06bd
00000080: e763 9bbd e9cc 55bd f273 913d d74f f13c
00000090: ba07 5e3d ce8e 1abd 0220 2d3d 64d0 3b3c
000000a0: 8644 f5bc 2827 0fbc 1f96 043d 22bf 9abc
000000b0: 7692 5f3d ac41 e93b 8fd6 3cbd 5631 5d3c
000000c0: a5f8 883c a74b 7fbd 04dc 78bd 5872 903d
000000d0: c122 823d 95da 903c 5bed 5bbd b7c5 32bd
000000e0: 996c 803c 94ea 0fbc f391 a33b 6d02 923d
000000f0: bbdb ef3c 3ce7 65bc 8625 64bd 843e c93b
00000100: a22c d53c 3a71 8a3d 809f 13bd 8a3a 85bd
00000110: 996f 7c3c fdd4 71bd 3760 763d 4e14 d2bc
00000120: 2aca 91bd 6d2c 9abd 45f1 08bc 1660 2b3d
00000130: d92c 0ebd bfb2 c1bb 9134 40bc 329a 263d
00000140: 73c7 113d 3d08 f4bc fbf9 2b3c fcd6 023d
00000150: f623 d0bb 65b8 72bc 6519 b33c d1ec 803c
00000160: 65c7 6ebd a83a 423d b7cf ebbc 4424 973d
00000170: 7adb 813a 902a 2a3d 46c4 a73c 131b 993d
00000180: 8987 faba fc9f 743c 0f33 9cbd 8379 dc3c
00000190: 9397 473c 61e3 3cbd c725 90bd 93e1 a83d
000001a0: 42fd 8fbd 303c 3d3d 31eb 1fbc 3564 19bc
000001b0: cf80 89bd 829b f43c 46f9 093d a00f dc3c
000001c0: 507a d4bc 4b7b f73c aba7 fdbc 4092 063d
000001d0: 7ce1 473b 60ed 703d 8553 dcbc 94f7 8ebb
000001e0: d8af 84bd e92d 403d 13f3 993d 4ea5 833d
000001f0: 3047 a0bd dca7 753d 3b3b 44bc 75e5 90bb
00000200: a617 1e3d 00d2 2c3d 9ccc 22bd 8654 babc
00000210: 1348 703d d239 6fbd b874 323d 5efa 1fbd
00000220: 10b0 55bd 5f57 a03d c055 59bd 4cc1 09bd
00000230: 4a2d 9e3d e9d0 4dbd cebf 8b3d 7310 99bd
00000240: e6d2 aebc c49a a0bc 8df7 a63d abfc f33c
00000250: 4243 febc 7d9d 8a3d ef59 d93c 048c 903d
00000260: de1b f03c b786 823d 9de2 9f3d a876 0abd
00000270: 74ad e4b9 b205 fbbb 86fd 82bd b474 79bd
00000280: 76f3 85bc d7fb aabd d285 bc3c da25 53bd
00000290: 3da1 d6bc f0a2 1a3d 3e43 473d 89a0 a9bc
000002a0: d4dc 01bd 3306 a0bd 6ed8 d9bc 3471 813c
000002b0: 1e45 21bc ab3a 7a3d 0df3 b33d 0282 2c3c
000002c0: 710b 253d 05b2 953d cc33 913b 219b a6bd
000002d0: 180d 7a3d 4d2d 88bd d398 3ebd 59fe 7b3c
000002e0: 72a4 853d 1e81 ea3c 73a1 36bc 25ab 5f3d
000002f0: fbec a3bd df7c a33d 1789 57bc c9a7 e73c
00000300: d9dd 4ebc c3a1 9f3d c14b c63b 968b 03bd
00000310: 8c8e c23b 9eb9 4abb 2286 543d 39eb 05bd
00000320: 13ae 82bd 664a 843b 0433 88bd d0ed 43bd
00000330: 9232 8c3d 5413 163d 34e4 67bd 18cb 763c
00000340: cf58 4e3d b340 02bd 25b2 5dbb 390a 6dbd
00000350: cd3e 19bd e85f 993d 5e9c 86bd b182 a43d
00000360: b509 19bc f748 cebc 69c7 bb3c 2a14 0a3d
00000370: 7a38 12bd 17ed 893d f903 6f3d 803b 11bb
00000380: d3a6 e3bc 39e4 97bd bd09 413d 00f4 0d3d
00000390: 14f9 86bd bf31 983d 5d2e 5a3d 54c3 2d3d
000003a0: dfa5 92bd 984a 8b3d 0da7 f6bb 3ecc 993b
000003b0: d9b1 31bd 5495 d4bb c8ce debc 0d58 233c
000003c0: d7cf 813d df8c 4ebd 981a 7e3c 5fa2 813c
000003d0: c23e f13c 54de 133d b9ef 9fbd becf a23c
000003e0: 26b7 9bbc 9a88 503d 2bce b33c 0212 6dbd
000003f0: e22e 0d3d 1ea2 8e3d c0f1 66bd e343 77bd

encoder_blocks.1.2.bias f4 [12]
-0.0019729615 0.0077675353 0.0788488 0.030895185 0.022426136 -0.040215507 -0.04986654 -0.06819936
0.041302495 0.057483345 0.063595966 -0.010223395
00000000: cd4c 01bb cf86 fe3b 7b7b a13d e617 fd3c
00000010: 04b7 b73c 04b9 24bd db40 4cbd 1bac 8bbd
00000020: ce2c 293d a873 6b3d 9a3e 823d 0780 27bc

encoder_blocks.2.0.weight f4 [12, 12, 13]
0.07538267 -0.012549493 0.027986716 0.05103789 0.009249921 0.038173694 0.07714468 0.038651235
0.02082036 -0.07785353 0.045332696 -0.067986816 0.056449223 -0.07623784 0.072344996 -0.03902577
-0.0016613884 0.017661935 -0.06402732 -0.020046879 0.04526835 -0.07316693 0.034887657 0.002039593
0.043016363 -0.060594223 0.044022445 -0.036299046 -0.072713844 -0.05079955 0.03432732 0.0023579202
-0.06245569 -0.031187449 0.02470485 -0.051395748 0.0099864025 0.0028331026 0.06377306 0.035536706
-0.0817463 -0.009535036 0.057456344 0.032636747 0.015865061 -0.00073003164 -0.03257769 -0.06004029
0.079242684 0.014400333 0.0080407355 0.048952673 0.045296896 -0.021257589 0.035813574 0.015012618
0.02473639 0.062944055 0.057005923 -0.07585256 -0.0046233586 0.027873315 0.067509815 0.025530051
0.0066180713 -0.025764028 0.022351908 0.01591287 -0.066848196 -0.07104977 -0.0731456 -0.026352424
0.06647929 0.02871383 -0.07496961 -9.4305e-05 -0.0365509 0.06123 0.04495291 0.004585415
-0.009400433 0.0038668427 -0.0018419035 0.0039962186 0.017896954 -0.03702838 -0.031909335 -0.062564395
-0.029073333 0.0063768975 0.054902654 -0.038338803 -0.07403072 0.058204953 -0.0071412786 -0.04986776
0.02818153 -0.011870753 -0.02135898 0.08319472 -0.054361396 0.02285984 0.046156615 -0.04119257
-0.022231773 -0.04439988 0.020964531 -0.055331696 0.06820561 0.07554698 -0.030438455 0.052101057
-0.06748625 -0.007542429 0.035319757 -0.06452555 -0.04037315 -0.035010364 0.010511691 -0.004124129
-0.060274992 0.07831143 -0.071782045 0.04358333 -0.013718976 -0.057534084 0.015527325 -0.041431747
-0.034055732 -0.053034317 -0.0701242 -0.061447456 -0.07436344 -0.008816099 0.01992552 0.02647291
0.07083839 0.002107023 -0.0011410456 0.06668846 0.03825643 0.0321942 -0.05588387 0.008055725
-0.067003995 -0.05454786 0.06886954 -0.06572661 -0.051226284 0.0043001957 0.025546908 0.0017579419
0.017958827 0.08104721 -0.053312227 0.058643218 0.056725454 -0.03984076 0.00778203 0.050489984
-0.034936465 0.036200825 -0.015048045 -0.008782629 0.017455671 0.00078808493 0.040617753 0.06932821
-0.033664357 0.085382 0.042743575 -0.019716684 -0.047760453 -0.03740773 0.012427701 0.038383517
-0.021420326 -0.0017697411 0.058741584 0.041590724 -0.029593939 0.078441605 -0.0029882903 0.026305107
-0.04139773 0.045825183 0.06783547 0.00195993 -0.01958368 0.020618947 -0.05890199 -0.024236888
0.028366704 -0.0012037115 0.06538099 0.0701235 0.06342387 0.060767375 -0.054236606 0.016736101
0.01900468 0.045006774 -0.024311567 0.030624473 -0.0027442577 0.06431056 -0.008745037 -0.012255621
0.020605912 0.008601575 0.032293692 0.07401142 -0.056211237 0.05403769 0.011078701 -0.020475684
-0.05025774 -0.07171628 -0.07463269 0.034715362 0.055888217 0.014802548 0.044247136 -0.003660339
-0.06855802 0.05289707 0.07483962 -0.06017528 -0.025273722 0.0673949 -0.029431941 -0.056982547
0.030301258 0.057949163 -0.067633055 0.03350385 0.02827059 -0.04686853 0.056141432 -0.06635797
-0.0072082877 0.001449813 0.05181733 0.0363213 -0.07476329 0.07043112 -0.046449915 -0.04111792
0.0017522612 -0.045911297 0.043775972 0.04556672 -0.021042272 -0.010419742 0.012977633 -0.036017682
00000000: 3b62 9a3d 649c 4dbc 6644 e53c 1b0d 513d
00000010: fb8c 173c 055c 1c3d 08fe 9d3d c250 1e3d
00000020: 768f aa3c ac71 9fbd c7ae 393d ac3c 8bbd
00000030: 4d37 673d 9622 9cbd 9d29 943d 7cd9 1fbd
00000040: f2c2 d9ba c3af 903c c120 83bd 5a39 a4bc
00000050: 4e6b 393d 8bd8 95bd 5ce6 0e3d b1aa 053b
00000060: ed31 303d a631 78bd e150 343d 4fae 14bd
00000070: ffea 94bd 3013 50bd ce9a 0c3d 5687 1a3b
00000080: 8ad1 7fbd d27c ffbc d361 ca3c 5984 52bd
00000090: 029e 233c 93ab 393b 739b 823d f08e 113d
000000a0: 9b6a a7bd d738 1cbc 5857 6b3d 1cae 053d
000000b0: 72f7 813c 985f 3fba 2f70 05bd cfec 75bd
000000c0: fd49 a23d 60ef 6b3c 4abd 033c 9982 483d
000000d0: 3d89 393d 6524 aebc 41b1 123d 7cf7 753c
000000e0: f8a3 ca3c d0e8 803d 0b7f 693d 9658 9bbd
000000f0: 8b7f 97bb 9456 e43c 9642 8a3d 6624 d13c
00000100: 68dc d83b 150f d3bc 591b b73c b55b 823c
00000110: b5e7 88bd 8b82 91bd 5ccd 95bd 0ae1 d7bc
00000120: 4b26 883d 4439 eb3c ab89 99bd 9dc5 c5b8
00000130: 66b6 15bd 4fcc 7a3d 8b20 383d 4041 963b
00000140: 4604 1abc db6a 7d3b 076c f1ba b6f2 823b
00000150: a29c 923c 12ab 17bd 5db3 02bd c321 80bd
00000160: 332b eebc 4bf5 d03b 9be1 603d 2609 1dbd
00000170: 6b9d 97bd 5168 6e3d 6301 eabb 2342 4cbd
00000180: f4dc e63c 8c7d 42bc 07f9 aebc fe61 aa3d
00000190: 0eaa 5ebd 8f44 bb3c b80e 3d3d 8ab9 28bd
000001a0: 681f b6bc a6dc 35bd cfbd ab3c 7da3 62bd
000001b0: 62af 8b3d 60b8 9a3d 115a f9bc eb67 553d
000001c0: 3b36 8abd 7b26 f7bb 73ab 103d f925 84bd
000001d0: 515e 25bd 0767 0fbd 3a39 2c3c b423 87bb
000001e0: e9e2 76bd be61 a03d 7702 93bd 6f84 323d
000001f0: 8ec5 60bc dca8 6bbd 5266 7e3c 56b4 29bd
00000200: 067e 0bbd 833a 59bd 479d 8fbd 54b0 7bbd
00000210: dc4b 98bd 6671 10bc d83a a33c b7dd d83c
00000220: b813 913d fb15 0a3b 238f 95ba f693 883d
00000230: c6b2 1c3d 11de 033d 7ce6 64bd 29fc 033c
00000240: 6439 89bd 946d 5fbd 790b 8d3d ac9b 86bd
00000250: a7d2 51bd a8e8 8c3b c047 d13c be6a e63a
00000260: 641e 933c 14fc a53d ec5d 5abd df33 703d
00000270: f358 683d 1130 23bd 6600 ff3b 96ce 4e3d
00000280: 8a19 0fbd 5147 143d 138c 76bc 04e5 0fbc
00000290: 32ff 8e3c 7c97 4e3a cd5e 263d f3fb 8d3d
000002a0: a3e3 09bd c2dc ae3d e313 2f3d e284 a1bc
000002b0: 77a0 43bd d938 19bd 8e9d 4b3c 0938 1d3d
000002c0: ae79 afbc a8f6 e7ba 049b 703d 095b 2a3d
000002d0: fd6e f2bc fea5 a03d 31d7 43bb cf7d d73c
000002e0: ab90 29bd 30b3 3b3d 53ed 8a3d 2b72 003b
000002f0: f46d a0bc 11e9 a83c 3743 71bd 708c c6bc
00000300: 4a61 e83c dbc5 9dba 78e6 853d e99c 8f3d
00000310: 60e4 813d 36e7 783d 3427 5ebd 261a 893c
00000320: b4af 9b3c 0659 383d 0d29 c7bc 2de0 fa3c
00000330: 01d9 33bb 41b5 833d 5847 0fbc cdcb 48bc
00000340: bbcd a83c 9fed 0c3c 6446 043d 4d93 973d
00000350: c13d 66bd a056 5d3d 7183 353c 9fbc a7bc
00000360: 0fdb 4dbd fcdf 92bd 06d9 98bd b231 0e3d
00000370: 0beb 643d 6386 723c 7c3c 353d 4ce2 6fbb
00000380: 2668 8cbd 99aa 583d 8445 993d 5b7a 76bd
00000390: d60a cfbc 5606 8a3d 411b f1bc 8866 69bd
000003a0: 583a f83c 1a5c 6d3d 3383 8abd 553b 093d
000003b0: b997 e73c 37f9 3fbd 8ff4 653d b0e6 87bd
000003c0: 8033 ecbb a707 be3a 693e 543d a5c5 143d
000003d0: 7f1d 99bd 313e 903d 4442 3ebd 446b 28bd
000003e0: 21ac e53a 7c0d 3cbd 6f4e 333d 2ba4 3a3d
000003f0: d860 acbc 91b7 2abc 23a0 543c 4787 13bd

encoder_blocks.2.0.bias f4 [12]
-0.0040306207 0.051937327 0.012223746 0.098262295 -0.012365125 0.036180824 -0.08166343 0.021168102
0.03258569 -0.06288389 0.056549653 0.072510414
00000000: 4c13 84bb 3cbc 543d 1b46 483c be3d c93d
00000010: 1897 4abc 5832 143d 283f a7bd ba68 ad3c
00000020: 9378 053d 45c9 80bd 9ca0 673d 5780 943d

encoder_blocks.2.2.weight f4 [12, 12, 13]
-0.0185458 0.074489325 0.043715265 0.003927503 -0.06413655 0.002562894 -0.024755038 -0.054411415
-0.015225054 -0.0364262 0.020781105 -0.041558217 0.059325993 -0.02014235 0.014656345 0.056767866
0.03494312 0.0346277 -0.06315274 0.076612115 -0.024963934 -0.022578007 -0.06728165 0.041580454
0.05877376 -0.035133585 -0.019666046 0.060045153 -0.06490454 -0.021915315 0.017865563 0.044850916
-0.035619825 -0.045222096 0.07724704 -0.07211873 -0.050521363 0.04706647 -0.00552345 0.018644227
-0.06424784 -0.046700466 -0.041767135 0.058331225 0.03572138 -0.02057914 -0.0060027316 -0.009813712
0.01757126 -0.052610308 -0.06356766 0.066918455 0.0024548844 -0.07114717 0.031117 -0.055335753
-0.017837618 -0.014909558 -0.05506017 -0.0014883429 0.009671569 -0.0076407716 -0.0038396344 -0.0069837123
0.015582092 0.04993388 -0.05930318 0.020672677 0.019600695 0.007320412 0.0018527049 -0.053956576
0.04369951 0.04780309 0.04897071 -0.048594452 -0.04721844 -0.008933799 0.0145467045 -0.05156205
-0.039091002 -0.0034688376 0.039143074 0.029896986 0.03886285 0.013900966 -0.08116048 0.058709085
-0.057120737 -0.05036725 0.0069122906 0.00026223026 0.021660404 -0.006957284 0.0565095 -0.053123053
-0.0022987803 0.063724 -0.05303044 0.058767557 -0.032644153 0.06683505 0.073188655 -0.023533676
-0.019017408 -0.07542771 0.06163456 0.07217085 0.006484559 -0.06744546 0.025312142 0.05254541
-0.02831047 -0.021534164 -0.06156358 -0.047276426 -0.016791973 -0.05975344 0.07255953 -0.04305495
0.023399128 0.07939273 0.033571348 -0.06447886 -0.016516509 -0.07645304 -0.06587413 -0.0030050182
0.020235619 0.053096674 -0.04316712 0.03039344 -0.014511922 0.028344974 0.04045967 -0.06825808
-0.01953592 0.014089531 0.047843404 -9.589877e-05 0.05397178 -0.038080204 0.031815954 -0.053092815
-0.030670334 0.0225316 0.0020434146 -0.07546576 -0.06357224 0.07530072 0.03487365 -0.02669705
-0.065313354 0.009176559 -0.010846893 -0.046066325 0.060697358 -0.049786154 0.08272103 -0.05317693
0.035760835 0.07386451 -0.021393841 0.046015143 0.00090857013 0.04517149 -0.010677748 0.039245784
-0.0095998775 -0.031298697 0.063975886 -0.008626569 0.062665686 0.0028814413 0.061373502 0.04582472
0.033258755 -0.025676085 -0.018161954 -0.053093914 0.050657008 0.013142017 0.0073891236 -0.04633565
-0.0101937335 0.008613894 -0.003452051 0.01955377 0.043384846 0.023151722 -0.028758412 0.009423761
0.07596081 -0.055556923 -0.026291175 -0.042541187 0.07569731 -0.07000844 0.072406165 -0.013439369
0.053081255 0.067318946 -0.017259896 0.049596913 0.028676981 0.03182908 -0.06913102 0.0045685186
-0.04296679 0.07094157 -0.03713818 -0.0007751882 -0.03364171 0.06985533 0.05398093 -0.05032216
0.059387013 0.03469395 3.3445656e-05 -0.039979752 0.003404826 0.057307586 0.015927948 -0.0026687677
0.01601217 0.07239 0.023387084 0.055978097 0.022836376 -0.028388748 -0.022974104 -0.07547005
-0.027430518 0.016731298 0.019965025 -0.03835536 0.028407713 -0.045712516 0.06603933 -0.01563463
-0.021693205 -0.05724547 0.034627154 0.08615899 0.010147154 0.051484253 0.014789265 -0.093167804
-0.09377852 -0.013483336 0.020568967 -0.05252705 -0.0009189923 0.035890058 -0.036387242 -0.0862929
00000000: 5ded 97bc dc8d 983d c70e 333d 48b2 803b
00000010: 065a 83bd 3af6 273b 14cb cabc 81de 5ebd
00000020: 8172 79bc a433 15bd 233d aa3c f338 2abd
00000030: d0ff 723d 9201 a5bc 2b21 703c 6c85 683d
00000040: 8420 0f3d c6d5 0d3d 3956 81bd d0e6 9c3d
00000050: 2a81 ccbc 83f5 b8bc f6ca 89bd 4450 2a3d
00000060: c1bc 703d 3ce8 0fbd b01a a1bc e8f1 753d
00000070: acec 84bd bf87 b3bc cd5a 923c 98b5 373d
00000080: 18e6 11bd ce3a 39bd b233 9e3d fcb2 93bd
00000090: 7def 4ebd c5c8 403d 0ffe b4bb c7bb 983c
000000a0: 5f94 83bd fd48 3fbd 0414 2bbd b9ec 6e3d
000000b0: 9550 123d 9695 a8bc 90b2 c4bb b1c9 20bc
000000c0: 9af1 8f3c e87d 57bd c32f 82bd 8b0c 893d
000000d0: 20e2 203b 9cb5 91bd 14e9 fe3c bea7 62bd
000000e0: 3220 92bc 3847 74bc c686 61bd 8014 c3ba
000000f0: 8075 1e3c 705f fabb 60a2 7bbb a0d7 e4bb
00000100: 084c 7f3c 7887 4c3d e4e7 72bd bf59 a93c
00000110: a391 a03c 11e0 ef3b 76d6 f23a 9201 5dbd
00000120: 42fe 323d 2ccd 433d 8395 483d fa0a 47bd
00000130: 1f68 41bd 125f 12bc 4d55 6e3c ba32 53bd
00000140: e31d 20bd 7055 63bb 7d54 203d 86ea f43c
00000150: a72e 1f3d e1c0 633c 7737 a6bd f078 703d
00000160: 6ff7 69bd e44d 4ebd 7f80 e23b f37b 8939
00000170: 2971 b13c eef9 e3bb 8176 673d 8f97 59bd
00000180: 22a7 16bb ba81 823d 7236 59bd 40b6 703d
00000190: e0b5 05bd d1e0 883d efe3 953d b2c9 c0bc
000001a0: 65ca 9bbc d879 9abd 8574 7c3d 50ce 933d
000001b0: 6c7c d43b d820 8abd 695b cf3c db39 573d
000001c0: 5ceb e7bc 6a68 b0bc 182a 7cbd eda4 41bd
000001d0: 528f 89bc 06c0 74bd 179a 943d 635a 30bd
000001e0: 87af bf3c a898 a23d 1c82 093d 7e0d 84bd
000001f0: a14d 87bc 6993 9cbd 04e9 86bd d7ef 44bb
00000200: 2bc5 a53c e67b 593d 02d0 30bd aafb f83c
00000210: 6ac3 6dbc b833 e83c 0ab9 253d e4ca 8bbd
00000220: cb09 a0bc c7d7 663c 72f7 433d 431d c9b8
00000230: 8311 5d3d fdf9 1bbd 7251 023d da77 59bd
00000240: 5a40 fbbc 3194 b83c cfea 053b cb8d 9abd
00000250: 2a32 82bd 4437 9a3d acd7 0e3d c6b3 dabc
00000260: 02c3 85bd 4759 163c 2bb7 31bc 0bb0 3cbd
00000270: cb9d 783d 91ec 4bbd a569 a93d 0dd0 59bd
00000280: f479 123d 4746 973d 2342 afbc 607a 3c3d
00000290: 1c2d 6e3a be05 393d b9f1 2ebc 30c0 203d
000002a0: ce48 1dbc 1033 00bd ca05 833d 7456 0dbc
000002b0: de56 803d 90d6 3c3b c862 7b3d b4b2 3b3d
000002c0: 553a 083d a756 d2bc 61c8 94bc 0179 59bd
000002d0: b97d 4f3d 9d51 573c 7620 f23b 73ca 3dbd
000002e0: 9e03 27bc 4a21 0d3c ce3b 62bb 3a2f a03c
000002f0: 4fb4 313d aea8 bd3c c396 ebbc 1e66 1a3c
00000300: 5791 9b3d a88f 63bd 9760 d7bc ab3f 2ebd
00000310: 3107 9b3d 9660 8fbd af49 943d cd30 5cbc
00000320: bb6b 593d 84de 893d a064 8dbc 2226 4b3d
00000330: fdeb ea3c 365f 023d 9094 8dbd 83b3 953b
00000340: f2fd 2fbd d049 913d 341e 18bd 0036 4bba
00000350: e4cb 09bd 5010 8f3d 1c1b 5d3d 9c1e 4ebd
00000360: cc3f 733d 3e1b 0e3d 0048 0c38 cfc1 23bd
00000370: 8023 5f3b 5cbb 6a3d 547b 823c 7ee6 2ebb
00000380: f42b 833c 3541 943d 4596 bf3c 4a49 653d
00000390: 5a13 bb3c 858f e8bc 3034 bcbc 0b90 9abd
000003a0: f7b5 e0bc 1310 893c b18d a33c 831a 1dbd
000003b0: 4bb7 e83c 0c3d 3bbd a13f 873d 3214 80bc
000003c0: f3b5 b1bc 3a7a 6abd 34d5 0d3d 2074 b03d
000003d0: 4040 263c 27e1 523d ac4e 723c c3ce bebd
000003e0: f40e c0bd 36e9 5cbc 4080 a83c 9b26 57bd
000003f0: 87e8 70ba 7401 133d ca0a 15bd 55ba b0bd

encoder_blocks.2.2.bias f4 [12]
0.03914136 0.05089163 -0.0069420096 -0.02961012 0.0013338623 0.036906898 0.092646316 -0.0479355
0.04100689 0.038851988 0.0938311 -0.048538376
00000000: b152 203d be73 503d cc79 e3bb ec90 f2bc
00000010: fed4 ae3a b02b 173d 5abd bd3d 0458 44bd
00000020: d7f6 273d 4323 1f3d 852a c03d 2dd0 46bd

encoder_blocks.3.0.weight f4 [12, 12, 13]
0.07261673 0.029526824 -0.013609174 -0.048715137 -0.013527993 0.0464107 -0.06631544 -0.039496403
-0.046275795 0.06155239 0.07921231 -0.045877203 -0.06247817 -0.056056548 0.068514936 0.028796993
0.04445454 0.02100821 -0.015156431 0.052218836 -0.07228408 -0.0304552 0.0014796371 -0.036610305
0.026728148 0.017805561 0.048730195 0.06598887 0.059355162 -0.011740133 0.0123739485 -0.013797193
-0.042012386 0.009164137 -0.055765957 -0.0140873045 0.0042482894 0.016615462 0.016436722 0.045891162
-0.044869456 0.024983363 -0.012520007 0.057931002 0.059569225 -0.038366172 -0.008583085 0.03207469
0.07440577 -0.040113036 0.025561776 -0.03017265 -0.06718093 0.04166178 -0.060798813 0.03900018
0.06556034 0.037053924 -0.056327704 -0.06771687 -0.0027314387 0.015018935 -0.031193815 0.016532805
-0.021236846 -0.071555674 -0.043194808 -0.023821985 0.062224157 -0.06563001 0.00028752993 0.0811392
0.0077654677 0.013084849 0.0050548143 -0.05097892 0.037967864 0.04383801 -0.04451795 0.0041419496
0.035609435 -0.04544649 -0.028365217 -0.03953725 -0.006666507 0.06956762 -0.07612366 0.01864897
-0.0020145294 -0.023944935 0.07652868 0.079175584 0.052602235 -0.0021635254 -0.0613846 -0.065850444
-0.008103945 0.04894124 0.037872367 0.020462273 0.05736677 0.012235107 0.059888132 -0.06506967
-0.026864156 0.031470902 -0.009827859 -0.053700503 -0.02849017 -0.005194415 0.051302906 -0.074658975
0.014425897 -0.06678565 -0.042417943 0.06571485 -0.043312054 -0.07077597 -0.018293057 0.067653164
-0.005224255 -0.0045536794 -0.049392946 -0.07653902 0.024954297 0.004007905 0.008242531 -0.06576359
0.04451642 -0.05443279 -0.002805244 -0.0740567 0.006243927 0.045804456 0.009268045 -0.016899673
-0.063860565 0.03779201 -0.030406661 0.008985272 -0.0787337 0.07390936 -0.02435672 0.06429501
0.007557047 -0.030498331 0.032630432 0.08215477 -0.03195123 0.025389336 0.054336984 -0.015808145
0.012717938 0.02960098 0.060278345 -0.0766957 -0.03167325 -0.0343938 -0.05253887 0.08165655
0.08242496 -0.08118229 0.08351995 0.05823898 -0.07392778 0.08349633 0.016534548 0.05400696
0.038400754 -0.030484311 -0.07710635 -0.07776607 -0.008665953 0.03027385 -0.06848976 0.0023733682
0.056852363 0.064680964 -0.025909083 0.032317955 0.02057579 0.07725858 0.0063420692 0.022190042
-0.06652518 0.07550836 -0.02809298 0.059964597 -0.014497943 -0.046926208 -0.04348533 0.0773171
-0.0397886 -0.060117528 -0.0062683416 -0.05915969 0.01952715 0.047755614 0.005307714 0.013479171
0.021087755 0.06013457 -0.027941335 0.06384296 -0.029808339 -0.021572653 -0.015151906 0.06778896
-0.032345366 0.05549853 -0.072957575 0.01099085 -0.047570348 0.074457675 -0.073329106 0.033554696
0.041497923 0.029850012 -0.008467309 0.060495146 0.012272534 -0.01790846 -0.028992746 0.036898565
-0.05922375 -0.025450207 0.061032183 -0.056651276 0.054420736 -0.038237523 0.026143009 -0.014008698
-0.00942484 -0.019847268 0.0162133 0.07261295 -0.029630927 0.06054276 0.06945269 0.047748957
-0.0407983 0.03632188 0.016992485 -0.013950703 0.0002870032 0.037785094 0.06258985 0.011464879
0.0014749268 0.0017348351 0.010897834 -0.027073983 0.066170536 0.010510419 -0.0017091397 -0.077772364
00000000: 15b8 943d 3de2 f13c 03f9 5ebc 8689 47bd
00000010: 84a4 5dbc 2519 3e3d 64d0 87bd fbc6 21bd
00000020: b08b 3dbd 5c1e 7c3d 103a a23d bce9 3bbd
00000030: 1ce9 7fbd 8d9b 65bd 8f51 8c3d ace7 eb3c
00000040: f715 363d 6919 ac3c ae52 78bc 6be3 553d
00000050: ad09 94bd 2f7d f9bc 62f0 c13a b0f4 15bd
00000060: fdf4 da3c f8dc 913c 5099 473d 2c25 873d
00000070: 661e 733d b059 40bc 1abc 4a3c 9f0d 62bc
00000080: 2e15 2cbd 2d25 163c d86a 64bd 70ce 66bc
00000090: 3c35 8b3b 261d 883c 4ea6 863c 5ff8 3b3d
000000a0: 09c9 37bd e9a9 cc3c b720 4dbc 0f49 6d3d
000000b0: dcfe 733d d925 1dbd 11a0 0cbc c060 033d
000000c0: 0d62 983d 914d 24bd ee66 d13c a22c f7bc
000000d0: 2896 89bd 8ba5 2a3d 2d08 79bd a7be 1f3d
000000e0: 8044 863d dbc5 173d e1b7 66bd 24af 8abd
000000f0: f001 33bb fb11 763c 2c8a ffbc ce6f 873c
00000100: e5f8 adbc c88b 92bd 0aed 30bd 5326 c3bc
00000110: c2de 7e3d 0769 86bd 9dbf 9639 4f2c a63d
00000120: 7775 fe3b d661 563c dba2 a53b 46cf 50bd
00000130: 3184 1b3d 7c8f 333d 7458 36bd 31b9 873b
00000140: 33db 113d 1926 3abd 2c5e e8bc d0f1 21bd
00000150: b772 dabb 7879 8e3d b9e6 9bbd bac5 983c
00000160: 3206 04bb 2b28 c4bc 12bb 9c3d cf26 a23d
00000170: 7175 573d efc9 0dbb 6b6e 7bbd 99dc 86bd
00000180: 69c6 04bc 9c76 483d 0e20 1b3d 7fa0 a73c
00000190: 6bf9 6a3d c275 483c 424d 753d 3f43 85bd
000001a0: 3812 dcbc a2e7 003d 0705 21bc 0ff5 5bbd
000001b0: 3864 e9bc e935 aabb ff22 523d cee6 98bd
000001c0: 995a 6c3c eac6 88bd 70be 2dbd 8295 863d
000001d0: fb67 31bd fef2 90bd 52db 95bc be8d 8a3d
000001e0: 3a30 abbb 0837 95bb 4250 4abd 7dc0 9cbd
000001f0: f46c cc3c be54 833b ae0b 073c 10af 86bd
00000200: da56 363d ebf4 5ebd 2fd8 37bb 0aab 97bd
00000210: db99 cc3b 749d 3b3d 00d9 173c 2f71 8abc
00000220: 54c9 82bd cbcb 1a3d 6417 f9bc f636 133c
00000230: 223f a1bd ca5d 973d be87 c7bc 1aad 833d
00000240: 1ba1 f73b a3d7 f9bc 7da7 053d c340 a83d
00000250: 4bdf 02bd 4cfd cf3c 7590 5e3d 1580 81bc
00000260: e65e 503c c17d f23c 6de6 763d a312 9dbd
00000270: cfbb 01bd 83e0 0cbd 0033 57bd 8d3b a73d
00000280: 6bce a83d e742 a6bd 820c ab3d ff8b 6e3d
00000290: 7367 97bd 2000 ab3d 7673 873c 6736 5d3d
000002a0: 1c4a 1d3d 3cba f9bc efe9 9dbd d143 9fbd
000002b0: a4fb 0dbc dd00 f83c 5c44 8cbd 838a 1b3b
000002c0: 06de 683d 7477 843d 493f d4bc d55f 043d
000002d0: 8f8e a83c bf39 9e3d 22d1 cf3b e4c7 b53c
000002e0: 5b3e 88bd 21a4 9a3d 4023 e6bc 709d 753d
000002f0: c888 6dbc b235 40bd ac1d 32bd 6d58 9e3d
00000300: 5ff9 22bd cc3d 76bd a966 cdbb 6e51 72bd
00000310: 67f7 9f3c 649b 433d 55ec ad3b bed7 5c3c
00000320: 3ac0 ac3c ab4f 763d 3ae5 e4bc 19c0 823d
00000330: 9e30 f4bc 22b9 b0bc b33f 78bc f0d4 8a3d
00000340: 937c 04bd 6d52 633d c86a 95bd f712 343c
00000350: 20d9 42bd 447d 983d 922d 96bd a670 093d
00000360: baf9 293d 0388 f43c 78ba 0abc c2c9 773d
00000370: bd12 493c c3b4 92bc 3282 edbc f322 173d
00000380: 9a94 72bd f47c d0bc e2fc 793d 2b0b 68bd
00000390: 47e8 5e3d f39e 1cbd dd29 d63c bd84 65bc
000003a0: a56a 1abc bd96 a2bc c1d1 843c 19b6 943d
000003b0: 8fbc f2bc affb 773d 363d 8e3d 6994 433d
000003c0: 1e1c 27bd 40c6 143d d333 8b3c 7d91 64bc
000003d0: eb78 9639 8bc4 1a3d 1b2f 803d 30d7 3b3c
000003e0: 5552 c13a 6863 e33a d48c 323c 42ca ddbc
000003f0: 6b84 873d e433 2c3c 3605 e0ba 1e47 9fbd

encoder_blocks.3.0.bias f4 [12]
-0.04540248 0.03710965 0.074053735 -0.018303562 -0.04500063 0.07329413 -0.017865539 -0.050117727
-0.009259568 -0.06072487 0.01667366 0.006881206
00000000: f3f7 39bd 4a00 183d 7ca9 973d 5af1 95bc
00000010: 9552 38bd 3c1b 963d c05a 92bc 3f48 4dbd
00000020: 71b5 17bc a4ba 78bd 3397 883c bd7b e13b

encoder_blocks.3.2.weight f4 [12, 12, 13]
0.006295778 -0.056553524 -0.01288431 0.053236008 -0.035887733 -0.064379215 0.03326072 -0.011534018
-0.051487956 -0.0025149176 -0.04716473 0.032842252 -0.007814252 0.02645022 -0.0031810699 -0.010630378
-0.03090016 -0.04316709 0.010047281 -0.06502495 0.058840837 -0.03251842 -0.008996689 0.06633453
0.034230016 0.047462266 -0.000998521 -0.040605426 0.029905137 -0.064756006 0.026129588 -0.06713614
0.049912717 -0.05392402 -0.003816639 0.07898524 0.0037331586 -0.0009304738 -0.03822905 -0.05073953
0.060471512 -0.074238636 0.0036660337 0.0194655 0.039064135 0.012456472 0.0310469 -0.03111427
-0.03237024 0.06821101 -0.06819367 0.00473695 0.06445222 0.062496286 0.048761997 -0.0030185275
-0.004539399 -0.04662595 0.0068724076 0.044948667 0.066380665 -0.0123522915 0.023784548 -0.025665218
-0.050194208 -0.031733193 -0.032616965 -0.07856265 0.07166291 -0.041897733 -0.026202891 0.04893883
0.07071972 0.059524216 0.07275775 0.015375696 0.05928997 -0.063808754 -0.02084164 -0.07252254
0.0352242 -0.06399268 -0.040278055 -0.057433873 -0.07321865 -0.0062564667 0.053622913 -0.07722488
-0.017096296 0.03293974 0.040331982 -0.0445342 0.014766343 -0.065600224 0.077941164 0.0361813
0.052737817 0.020392612 0.029262938 0.03883715 -0.019678261 -0.045712892 -0.03256037 0.008640803
0.044196583 -0.03026298 0.071167186 0.06560247 -0.026095606 0.07280418 0.0057183797 -0.02655805
0.019122966 0.06695043 -0.022853928 0.0505427 -0.0019455471 0.005976982 0.0011111378 0.03983755
0.07099326 0.01750061 0.03739111 -0.057659674 0.05772277 -0.009143099 -0.0023207131 -0.06069497
0.0702145 -0.035136566 0.075853765 -0.018138994 -0.041751437 -0.060421403 -0.04865237 0.05040868
-0.054669272 -0.030366285 -0.014322567 -0.004197572 -0.00178618 0.010705417 -0.079547584 0.0138616795
0.042773124 -0.022155926 -0.051024072 -0.008822845 -0.06303917 -0.03412987 -0.014827611 0.00045822855
-0.025158647 0.02952913 -0.01725184 -0.026498776 0.0061410638 -0.049220424 0.04354911 0.01862128
-0.020443475 0.07505149 0.07215569 -0.023518173 0.071940474 0.01905647 0.011252482 -0.03770717
0.05252738 -0.015189949 0.042187043 0.020818034 -0.03278482 0.043452404 -0.07738918 -0.031348757
-0.07276612 0.07058071 -0.035279624 0.0064890836 -0.042004317 -0.028442703 0.023423566 0.06783435
-0.048860136 -0.03707313 -0.028753862 0.015288041 -0.056053355 -0.022038085 0.069293134 0.054155786
0.007329817 0.057615563 0.026949141 -0.014613883 0.009599262 -0.08064145 0.002056565 -0.03024815
-0.049280215 0.035952058 0.07621806 -0.009930319 0.0052823983 0.0066103735 0.009878688 0.038733397
-0.040614143 -0.007418249 -0.05776902 0.049008556 0.049965065 -0.054055586 -0.056904215 0.00585129
0.06279752 -0.01722853 -0.052362815 0.0034455878 -0.03330875 0.021948695 0.0335538 0.019337092
0.038156115 -0.033680372 0.046542358 -0.0034335672 -0.008510994 -0.046255656 -0.015985886 -0.047974046
0.027778437 -0.034716807 -0.05174041 -0.06760034 -0.07073157 -0.028002799 0.022920914 -0.043347336
0.024419285 -0.046126485 0.06608964 -0.005635658 -0.050145157 0.06181952 -0.057536323 -0.04448008
0.011449084 -0.0043935925 0.07781303 -0.01137317 0.07152666 0.010295406 0.07300198 0.053188697
00000000: d04c ce3b aba4 67bd b718 53bc 000e 5a3d
00000010: 04ff 12bd 40d9 83bd 653c 083d 2ef9 3cbc
00000020: 09e5 52bd 51d1 24bb ce2f 41bd 9985 063d
00000030: 5907 00bc 22ae d83c 7f79 50bb 092b 2ebc
00000040: 5522 fdbc f9cf 30bd 5a9d 243c cd2b 85bd
00000050: 1703 713d 0932 05bd d966 13bc 66da 873d
00000060: c634 0c3d cb67 423d cee0 82ba e051 26bd
00000070: 9efb f43c cc9e 84bd b80d d63c ac7e 89bd
00000080: 4771 4c3d 6fdf 5cbd 9420 7abb 03c3 a13d
00000090: 02a8 743b 0aeb 73ba 1096 1cbd 41d4 4fbd
000000a0: fab0 773d 6d0a 98bd d741 703b 1d76 9f3c
000000b0: b701 203d 3b16 4c3c 1256 fe3c 5be3 febc
000000c0: a896 04bd 37b2 8b3d 1fa9 8bbd 6b38 9b3b
000000d0: 87ff 833d 1bfc 7f3d a9ba 473d 7dd2 45bb
000000e0: 3dbf 94bb dafa 3ebd ef31 e13b 181c 383d
000000f0: 96f2 873d 4461 4abc d0d7 c23c dd3f d2bc
00000100: 7198 4dbd aafa 01bd 5e99 05bd 74e5 a0bd
00000110: 01c4 923d f59c 2bbd 72a7 d6bc 1574 483d
00000120: 80d5 903d aacf 733d 0402 953d 58ea 7b3c
00000130: 0ada 723d 2aae 82bd 16bc aabc b386 94bd
00000140: 4047 103d 980e 83bd 9afa 24bd c83f 6bbd
00000150: a9f3 95bd 0c03 cdbb b3a3 5b3d 1428 9ebd
00000160: 880d 8cbc d2eb 063d 2633 253d 7e69 36bd
00000170: 88ee 713c 6959 86bd 9e9f 9f3d d832 143d
00000180: 9c03 583d 680e a73c d4b8 ef3c b413 1f3d
00000190: 4e34 a1bc 713d 3bbd 065e 05bd 2892 0d3c
000001a0: 7a07 353d 12ea f7bc 1ac0 913d 965a 863d
000001b0: 74c6 d5bc 5c1a 953d 3f61 bb3b 4590 d9bc
000001c0: c4a7 9c3c 4f1d 893d 2938 bbbc dd05 4f3d
000001d0: ba01 ffba 8fda c33b 99a3 913a b32c 233d
000001e0: ea64 913d 705d 8f3c 6c27 193d 8d2c 6cbd
000001f0: b66e 6c3d f0cc 15bc 1b17 18bb 4a9b 78bd
00000200: 9fcc 8f3d 5ceb 0fbd 3859 9b3d 3a98 94bc
00000210: 8e03 2bbd 6f7c 77bd b547 47bd 5579 4e3d
00000220: e3ec 5fbd b7c2 f8bc 33a9 6abc c98b 89bb
00000230: 411e eaba c665 2f3c d8e9 a2bd 191c 633c
00000240: df32 2f3d 5880 b5bc 9efe 50bd b28d 10bc
00000250: ae1a 81bd c3cb 0bbd 82ef 72bc 653e f039
00000260: 8219 cebc 13e7 f13c bb53 8dbc f613 d9bc
00000270: fa3a c93b 5b9b 49bd 8d60 323d a88b 983c
00000280: 1379 a7bc 98b4 993d 5dc6 933d 2fa9 c0bc
00000290: 8755 933d 501c 9c3c 555c 383c d572 1abd
000002a0: f326 573d 44df 78bc 52cc 2c3d 958a aa3c
000002b0: 6049 06bd 26fb 313d 387e 9ebd 8e67 00bd
000002c0: 6706 95bd 9f8c 903d 5e81 10bd 61a2 d43b
000002d0: b80c 2cbd ac00 e9bc c7e2 bf3c bcec 8a3d
000002e0: 9121 48bd ffd9 17bd 388d ebbc b17a 7a3c
000002f0: 3498 65bd 3789 b4bc 8fe9 8d3d 75d2 5d3d
00000300: f62e f03b 4cfe 6b3d 72c4 dc3c 116f 6fbc
00000310: 3946 1d3c 5827 a5bd 6fc7 063b f8ca f7bc
00000320: 0dda 49bd 7742 133d 3718 9c3d c7b2 22bc
00000330: f817 ad3b d59b d83b 38da 213c e9a6 1e3d
00000340: 045b 26bd c814 f3bb 359f 6cbd 32bd 483d
00000350: 2ba8 4c3d 6469 5dbd 6514 69bd 2ebc bf3b
00000360: fc9b 803d d922 8dbc 647a 56bd 5fcf 613b
00000370: c16e 08bd c0cd b33c b66f 093d d268 9e3c
00000380: 9649 1c3d 6ef4 09bd 33a3 3e3d b305 61bb
00000390: b271 0bbc 9276 3dbd d5f4 82bc 6f80 44bd
000003a0: 9b8f e33c 3633 0ebd c1ed 53bd 0c72 8abd
000003b0: b7db 90bd 2066 e5bc a4c4 bb3c fa8c 31bd
000003c0: f40a c83c 20ef 3cbd 015a 873d 53ab b8bb
000003d0: 0265 4dbd 7736 7d3d 35ab 6bbd bf30 36bd
000003e0: f094 3b3c 20f8 8fbb 705c 9f3d 8856 3abc
000003f0: 927c 923d 10ae 283c 1082 953d 64dc 593d

encoder_blocks.3.2.bias f4 [12]
-0.075738095 -0.05256032 -0.074543 -0.04332745 -0.032027014 0.02733539 0.004116965 0.0054459646
-0.0071238065 0.062034506 0.027566608 -0.009141259
00000000: 931c 9bbd 7d49 57bd 00aa 98bd 2078 31bd
00000010: c22e 03bd 78ee df3c 9be7 863b 1074 b23b
00000020: d26e e9bb e517 7e3d 5ed3 e13c 38c5 15bc
