Python/save/localizer/trial_2/quake_localization_model_00930.pth (torch, 252994 bytes, 35 tensors)

encoder_blocks.0.weight f4 [12, 1, 13]
0	0x3e44b566	0.19209823
1	0x3e46ac5b	0.19401686
2	0x3e650d90	0.22368455
3	0x3da55339	0.08072514
4	0x3e3e9ad4	0.1861375
5	0x3dd024c6	0.10163264
6	0xbde08e67	-0.10964661
7	0xbd759063	-0.05995215
8	0xbe54b8e9	-0.20773663
9	0xbe4cceae	-0.20000717
10	0xbe450245	-0.19239147
11	0x3db0e1a2	0.08636786
12	0xbdb3698b	-0.08760365
13	0xbe5b428f	-0.21412109
14	0xbe7e437e	-0.24830434
15	0xbe800b28	-0.25008512
16	0xbe078d32	-0.13237455
17	0x3decf54e	0.11570226
18	0xbe34d79e	-0.17660376
19	0x3e9261f8	0.2859037
20	0xbe4cd7e3	-0.20004229
21	0xbc925b76	-0.017865878
22	0x3d9457b7	0.07243293
23	0x3e336124	0.17517525
24	0x3e1f9df3	0.15587597
25	0xbd205574	-0.039143994
26	0x3d8b67f6	0.06806938
27	0xbdac8f63	-0.08425786
28	0x3cb3aa86	0.021931898
29	0x3d983a34	0.07432976
30	0xbe5ff289	-0.21869864
31	0xbe3fa85b	-0.18716566
32	0x3e1eb53d	0.15498824
33	0xbd8a51ef	-0.06753909
34	0xbdd91045	-0.10598806
35	0xbddb0b0a	-0.10695465
36	0xbc12613a	-0.008934313
37	0xbde2e489	-0.11078746
38	0xbe7ac9fb	-0.24491112
39	0x3d9c394a	0.076281145
40	0x3cf23a25	0.029568741
41	0xbe5486fb	-0.20754616
42	0x3d93e8a4	0.07222107
43	0xbe1be45d	-0.15223832
44	0xbe132d74	-0.14372808
45	0x3db686ff	0.08912467
46	0x3d13644e	0.03598433
47	0x3d1400b4	0.036133483
48	0xbdbd24ec	-0.09235558
49	0x3b1e4d68	0.0024155024
50	0x3e88e2c5	0.2673551
51	0xbe824d46	-0.2544958
52	0x3d7cb004	0.0616913
53	0x3d1e2f55	0.038619358
54	0xbdb21f4c	-0.08697376
55	0xbb983f50	-0.0046462193
56	0xbe1672e0	-0.14692259
57	0xbde38019	-0.11108417
58	0xbe15b1fd	-0.14618678
59	0x3e3770a1	0.17914058
60	0xbd0dc81b	-0.034614664
61	0x3df66dee	0.12032686
62	0xbc41e930	-0.011835381
63	0xbe068322	-0.1313596
64	0xbe2e1693	-0.17000799
65	0xbdadea70	-0.08491981
66	0x3e6e2fcd	0.23260422
67	0x3dcb457e	0.09925364
68	0xbcf89d76	-0.03034852
69	0xbd68b6af	-0.056814846
70	0x3d983cf4	0.07433501
71	0x3e687972	0.22702578
72	0xbe76710c	-0.24066561
73	0x3d9f506c	0.07779011
74	0x3e1d6be4	0.15373188
75	0xbe4d915e	-0.20074984
76	0x3e69a6b2	0.22817495
77	0x3e27ca18	0.16385686
78	0xbdf8a32f	-0.121405
79	0x3d03eecd	0.03221016
80	0x3df71382	0.12064268
81	0x3ddee2f6	0.10883133
82	0x3d85321e	0.065037
83	0xbd0d53cb	-0.03450374
84	0xbda146d6	-0.07874839
85	0x3e7831ab	0.24237697
86	0x3e113d5a	0.1418356
87	0x3e14c949	0.14529909
88	0xbe89df28	-0.26928067
89	0x3df5a2a8	0.11993915
90	0xbe188563	-0.14894633
91	0x3dbbfc9d	0.091790415
92	0xbdc19b71	-0.09453476
93	0xbd5b508c	-0.053543612
94	0x3de36545	0.111033
95	0xbe503212	-0.203316
96	0x3e8ae427	0.2712719
97	0x3e4ee818	0.20205724
98	0xbdbf7f7d	-0.09350488
99	0x3e149c88	0.14512837
100	0xbe304731	-0.17214657
101	0x3c5bb36f	0.0134094795
102	0x3e5b8cfa	0.21440497
103	0x3cdc11ff	0.02686405
104	0xbe39c396	-0.18141016
105	0xbc6689fa	-0.014070982
106	0xbd38b447	-0.0450938
107	0xbd8d5a23	-0.06901958
108	0x3e286ee3	0.1644855
109	0x3e46728c	0.19379634
110	0x3e43773b	0.19088452
111	0x3e7cba80	0.24680519
112	0x3e228915	0.15872605
113	0x3e3e309e	0.18573233
114	0x3e6a33cb	0.2287132
115	0xbe116945	-0.14200313
116	0x3e310635	0.17287524
117	0x3e85e933	0.2615448
118	0xbda3f927	-0.080065064
119	0xbe488b49	-0.19584383
120	0xbe6857f8	-0.22689807
121	0x3c8b736a	0.017022807
122	0xbe3d71fd	-0.18500514
123	0xbe450a1d	-0.19242139
124	0x3e03fa9d	0.1288857
125	0x3e5a8aed	0.21342058
126	0xbe468c04	-0.19389349
127	0x3e8b17b2	0.27166516
128	0x3d455827	0.04817977
129	0x3de7e119	0.11322231
130	0x3e9211a3	0.2852908
131	0xbe6870b6	-0.22699246
132	0x3e8e1431	0.2774978
133	0x3cdf5e53	0.027266657
134	0xbd1ecceb	-0.038769644
135	0x3e540d78	0.20708263
136	0x3df0197d	0.117236115
137	0x3ce5c2f1	0.028047057
138	0xbd36d885	-0.044640083
139	0xbd498fe2	-0.049209483
140	0xbc011abe	-0.007879911
141	0xbdd179b2	-0.1022829
142	0xbe4456e3	-0.1917377
143	0x3d9545e4	0.07288721
144	0x3e18ee47	0.14934646
145	0xbe571a66	-0.21006164
146	0xbd5c471a	-0.053778745
147	0xbe689812	-0.2271426
148	0xbe8a81fb	-0.27052292
149	0x3db815bc	0.089885205
150	0xbe76f7ab	-0.24117915
151	0xbdd07f87	-0.10180574
152	0xbe33e9a2	-0.17569593
153	0x3e759655	0.23983128
154	0xbe47b08e	-0.19500944
155	0xbdeeab0d	-0.11653719

encoder_blocks.0.bias f4 [12]
0	0xbe3db4b5	-0.18525966
1	0x3d3aaf72	0.045577474
2	0x3e8836f9	0.2660444
3	0xbdee2512	-0.11628164
4	0x3e899c21	0.2687693
5	0xbe8b0f7c	-0.2716025
6	0x3d8b4885	0.068009414
7	0x3de7adbc	0.11312434
8	0x3dac26d5	0.08405844
9	0xbd923230	-0.07138479
10	0x3ba5aa15	0.0050556757
11	0x3de50ddd	0.11184285

encoder_blocks.1.0.weight f4 [12, 12, 13]
0	0xbc4a433c	-0.0123451315
1	0x3d55c014	0.052185133
2	0x3d91ea58	0.07124776
3	0xbcd5b640	-0.02608788
4	0xbd3a90c5	-0.04554822
5	0x3d7f8007	0.062377956
6	0xbd2b16d8	-0.041769832
7	0x3cafca27	0.021458698
8	0xbd45fd87	-0.048337486
9	0xbce05705	-0.027385244
10	0xbd189fc9	-0.037261758
11	0x3d52e7f9	0.051490758
12	0x3c6e25fc	0.014535423
13	0x3d769f17	0.060210314
14	0xbd4165a8	-0.047216088
15	0xbca0dad8	-0.019635603
16	0xbd47ae9d	-0.04875051
17	0x3c910bb4	0.017705776
18	0x3bcc8535	0.0062414655
19	0xbd565745	-0.05232932
20	0xbce085c7	-0.02740754
21	0xbd9ab73c	-0.075544804
22	0xbcd81d97	-0.026381297
23	0xbc98c551	-0.018648775
24	0xbd206a31	-0.039163772
25	0x3d3cd7c2	0.0461042
26	0xbc30fecc	-0.010802936
27	0x3d8e2e29	0.06942398
28	0xbb9fff41	-0.0048827236
29	0x3bd16809	0.006390576
30	0xbd678568	-0.05652371
31	0xbd926c85	-0.07149605
32	0x3d9afea4	0.075681
33	0xbdac506d	-0.084137775
34	0x3d6782ae	0.05652111
35	0xbc579341	-0.013157667
36	0x3d4ffe9f	0.050779935
37	0x3da7e50e	0.081979856
38	0x3d8fdfee	0.07025133
39	0xbdaa8d39	-0.08327717
40	0x3d100cb2	0.035168357
41	0xbd78f908	-0.06078437
42	0x3d015ec3	0.031584512
43	0x3d121c83	0.035671722
44	0x3d8a74a3	0.06760528
45	0x3d7e4d3b	0.06208537
46	0x3c9252ac	0.017861687
47	0xbd7a5cc3	-0.06112362
48	0xb937c862	-0.00017526888
49	0xbd9a6c80	-0.07540226
50	0xbd86b2d0	-0.065770745
51	0x3d82c5a8	0.06385356
52	0x3b3809f8	0.0028082114
53	0x3d2d6eb4	0.042341903
54	0xb940e3d1	-0.00018395415
55	0xbd96156b	-0.07328304
56	0x3d91b36d	0.07114301
57	0x3d2a8a88	0.04163602
58	0xbcbdb4a3	-0.023157423
59	0x3c5cf693	0.013486522
60	0x3bba5021	0.0056858216
61	0xbc374a8d	-0.011187208
62	0xbd79caca	-0.06098441
63	0x3c89a716	0.016803306
64	0xbcc49ae2	-0.023999635
65	0x3d3094b5	0.043110568
66	0xbd192ca2	-0.03739608
67	0x3cdf96ed	0.027293647
68	0x3c716234	0.014732886
69	0xbd43e10d	-0.047822047
70	0xbd664cc7	-0.056225564
71	0xbd4bf4b7	-0.049793925
72	0x3d77e82b	0.060524147
73	0xbd918918	-0.07106227
74	0x3d2d5e94	0.042326525
75	0x3d9a0498	0.075204074
76	0x3d01a5f2	0.0316524
77	0xbd365849	-0.04451779
78	0x3d0e6c1d	0.034771074
79	0xbdb14fbb	-0.086577855
80	0x3b646924	0.0034852708
81	0x3d4a6535	0.049412925
82	0x3da306b5	0.07960264
83	0xbd2e8940	-0.04261136
84	0xbd79e407	-0.06100848
85	0x3c7d1063	0.015445801
86	0xbd49cd3d	-0.049267996
87	0x3c1eb848	0.009687491
88	0x3d5a3c2a	0.053280033
89	0x3d84735d	0.06467316
90	0x3cd45d05	0.025923261
91	0xbd3cc09d	-0.046082128
92	0xb8d7a391	-0.000102824655
93	0xbcfa8499	-0.030580806
94	0xbd40f7e6	-0.047111414
95	0xbcad3ca3	-0.021147078
96	0xbd0bec50	-0.034160912
97	0xbd5e4b0b	-0.054270785
98	0x3d8048e4	0.06263903
99	0x3d4e6dc7	0.05039766
100	0xbd8809eb	-0.06642517
101	0xbbc0ca64	-0.005883502
102	0xbcaa73f8	-0.020807251
103	0x3a4d9a00	0.0007843077
104	0x3d8e867b	0.06959244
105	0xbcc990b5	-0.024605135
106	0x3acc50ed	0.0015588083
107	0xbd9d4d98	-0.076808155
108	0x3ce62240	0.028092504
109	0xbd475773	-0.048667382
110	0x3c961be8	0.018323854
111	0xbcff6bc6	-0.03117932
112	0xbbf8d930	-0.00759425
113	0x3d33a2d1	0.043856446
114	0x3d1354de	0.035969608
115	0x3d6cb3cc	0.057788655
116	0x3d83dbdc	0.06438419
117	0xbc87b987	-0.016567959
118	0xbcfe91eb	-0.031075438
119	0xbc852ea6	-0.016257595
120	0x3b7524bf	0.0037405936
121	0x3d136aa5	0.035990376
122	0xbd3ae209	-0.04562572
123	0xbd9e8636	-0.077404425
124	0xbd8f76ec	-0.070051044
125	0xbc31303f	-0.010814725
126	0xbc967189	-0.018364685
127	0xbc76b315	-0.015057345
128	0xbd04ee29	-0.03245369
129	0xbd76e66c	-0.06027834
130	0xbd0ae936	-0.033913814
131	0x3c4ed45c	0.012623873
132	0xbd8a170f	-0.06742679
133	0x3cb1d7a4	0.02170927
134	0xbd1279ac	-0.035760567
135	0x3d8c7214	0.06857696
136	0xbc6d1b12	-0.014471786
137	0x3b4b8510	0.0031054653
138	0xbd2b23a5	-0.04178204
139	0xbbfa1344	-0.007631691
140	0xbd872b54	-0.06600061
141	0xbd2c122c	-0.042009518
142	0xbc9b6f92	-0.0189741
143	0xbce01f6d	-0.027358735
144	0x3d3ad363	0.04561175
145	0xbcaf770b	-0.021419069
146	0xbc8a4950	-0.016880661
147	0x3d82373e	0.06358193
148	0xbd95aab4	-0.0730795
149	0x3c8afcdf	0.016966281
150	0xbd24d7df	-0.040244933
151	0x3cd4b8d6	0.025967043
152	0x3d1f9be8	0.038967043
153	0xbd0d5a8a	-0.034510173
154	0x3d45a69d	0.048254598
155	0xbd9b1bf6	-0.075736925
156	0xbd02c735	-0.03192826
157	0x3d414c95	0.047192175
158	0xbd803d45	-0.06261686
159	0x3d328fff	0.043594357
160	0x3cd4131e	0.025888022
161	0xbd923721	-0.07139421
162	0xbd8e47e6	-0.06947307
163	0x3d3e50b4	0.046463683
164	0x3da3478a	0.07972629
165	0x3d87681b	0.066116534
166	0xbd26885e	-0.040657394
167	0x3d554745	0.05206992
168	0x3d69103b	0.056900244
169	0xbd8dba46	-0.069202945
170	0xbd860518	-0.0654394
171	0x3d178be5	0.03699865
172	0x3d813d7a	0.06310554
173	0x3d7174ea	0.05894939
174	0x3d842294	0.06451908
175	0x3d28aaf3	0.041178655
176	0x3da946cd	0.08265457
177	0x3cd32e6c	0.025778972
178	0xbbca5eb5	-0.0061758407
179	0x3cd3ffe1	0.025878849
180	0xbd887d98	-0.0666458
181	0x3d81d652	0.063397065
182	0x3ac3491e	0.001489911
183	0x3bf72d5f	0.0075432505
184	0x3da2e0f7	0.07953065
185	0x3d8cb022	0.06869532
186	0x3ba757e6	0.005106914
187	0xbd181c8f	-0.03713661
188	0xbd4a1ff5	-0.049346883
189	0xbd3ea171	-0.04654068
190	0x3d3117a1	0.043235425
191	0xbcd5cd3f	-0.026098846
192	0xbd907ba2	-0.07054831
193	0x3cfd9ed7	0.03095953
194	0x3db0c0d6	0.086305305
195	0x3bb6b3ab	0.0055756173
196	0x3c3603df	0.011109321
197	0x3c74146b	0.014897446
198	0x3cd54a88	0.026036516
199	0x3c8303cb	0.01599302
200	0xbd0577df	-0.03258502
201	0xbd88770d	-0.06663332
202	0xbc9b4210	-0.0189524
203	0x3cd85502	0.026407722
204	0xbcf610da	-0.030037332
205	0x3da81e4b	0.08208903
206	0xbcf57282	-0.029961828
207	0x3d9b20a6	0.075745866
208	0xbd3bd403	-0.045856487
209	0xbd4ec436	-0.05048009
210	0xbd0ab088	-0.03385976
211	0xbd7e8f80	-0.06214857
212	0x3c5f4c47	0.013629026
213	0xbc3ef627	-0.011655367
214	0x3d359c68	0.044338614
215	0xbd860074	-0.06543055
216	0xbbea9c14	-0.0071597192
217	0xbc78bb5c	-0.015181389
218	0x3d5cbdae	0.05389183
219	0xbc3c4c2c	-0.01149277
220	0x3ccc544f	0.024942545
221	0x3d940ec7	0.07229381
222	0xbb4ae8ca	-0.0030961507
223	0x3b640891	0.0034795145
224	0x3d472e03	0.048627865
225	0x3ba5b86d	0.0050573857
226	0x3c366dc3	0.011134568
227	0x3c35d5da	0.0110983495
228	0x3cae98fa	0.02131318
229	0x3d52c6aa	0.051458992
230	0xbcac6355	-0.021043459
231	0xbd3983be	-0.045291655
232	0xbccb8b0f	-0.024846582
233	0x3d1189ac	0.035531685
234	0x3d0cf573	0.034413766
235	0xbcc92c62	-0.024557296
236	0x3d9113f2	0.070838824
237	0xbd8578fb	-0.06517216
238	0xbd7f9d07	-0.062405612
239	0x3d9dfd56	0.077143356
240	0x3cac641a	0.021043826
241	0x3d559b80	0.05215025
242	0x3c5bc09d	0.013412622
243	0xbd8e5d49	-0.069513865
244	0xbb48512e	-0.0030565965
245	0x3c9160ab	0.01774629
246	0xbd524ba9	-0.051341686
247	0xbda140dc	-0.07873699
248	0xbd062123	-0.032746445
249	0xbce94822	-0.028476778
250	0x3d61d154	0.05513127
251	0x3d89dfec	0.06732163
252	0xbd615609	-0.05501369
253	0x3baae48d	0.0052152337
254	0xbc834c88	-0.016027704
255	0x3b909974	0.0044128243

encoder_blocks.1.0.bias f4 [12]
0	0xba1dfd91	-0.0006026859
1	0x38d7c68c	0.00010288981
2	0xbce96f27	-0.028495384
3	0x3db99f65	0.09063605
4	0xbda78242	-0.081791416
5	0x3d85c072	0.06530847
6	0xbae5147a	-0.0017477416
7	0xbd18f2ed	-0.037341047
8	0x3cacb5e2	0.021082822
9	0x3d855638	0.065105855
10	0x3e01dfc4	0.12683016
11	0x3d0c6c96	0.034283243

encoder_blocks.1.2.weight f4 [12, 12, 13]
0	0x3d827a6f	0.063710086
1	0xbd36b529	-0.04460636
2	0x3d59003f	0.05297875
3	0x3d97db3b	0.07414862
4	0x3d592215	0.05301102
5	0x3d2b5b18	0.04183492
6	0x3c583e98	0.013198517
7	0x3b87a436	0.0041394485
8	0xbc0ae541	-0.00847751
9	0xbcf04920	-0.029331744
10	0xbb60c877	-0.0034299174
11	0xbc07a1db	-0.008278335
12	0x3d865b6e	0.065604076
13	0xbd5072f4	-0.050890878
14	0x3c917565	0.017756173
15	0xbad55eb7	-0.0016278838
16	0x3b604d99	0.003422594
17	0x3d449f5a	0.048003532
18	0x3da376be	0.07981633
19	0xbd7078a3	-0.0587088
20	0x3db2fcd7	0.087396316
21	0xbd64e845	-0.055885572
22	0x3dc0c6e0	0.094129324
23	0xbb7e3e9b	-0.003879464
24	0x3d81a106	0.06329541
25	0x3d80537f	0.062659256
26	0xbd49dcb1	-0.049282733
27	0xbd97c64a	-0.074108675
28	0x3d35247a	0.04422424
29	0x3c8771cb	0.016533753
30	0xbc048765	-0.008088921
31	0xbcee4261	-0.029084386
32	0xbd94b39b	-0.072608195
33	0xbd4254b1	-0.04744405
34	0x3d997f22	0.07494952
35	0x3d086d49	0.033307347
36	0x3d7299e9	0.05922881
37	0xbd1745eb	-0.036931913
38	0x3d288c8b	0.041149657
39	0x3c8a1389	0.016855018
40	0xbd046ed4	-0.032332256
41	0xbba782a0	-0.0051120073
42	0x3cf9161e	0.030406054
43	0xbcbcae51	-0.02303234
44	0x3d7c9ec3	0.061674844
45	0x3c2629b0	0.010141775
46	0xbd446d4a	-0.04795579
47	0x3c68f99a	0.014219666
48	0x3c96988d	0.018383289
49	0xbd84b802	-0.06480409
50	0xbd70d0ce	-0.05879288
51	0x3d90816b	0.070559345
52	0x3d896c33	0.067100905
53	0x3cb5ac4c	0.022176884
54	0xbd51acac	-0.051190063
55	0xbd219e01	-0.039457325
56	0x3cc2fca7	0.023802115
57	0xbc04564f	-0.008077218
58	0x3b80808e	0.003921575
59	0x3d9432c7	0.072362475
60	0x3d06974f	0.032859143
61	0xbc61e8e1	-0.013788433
62	0xbd601ec1	-0.05471683
63	0x3c43ad49	0.01194317
64	0x3cbea32f	0.023271171
65	0x3d8c5d44	0.068537265
66	0xbd1455f4	-0.036214784
67	0xbd7cf4a4	-0.061756745
68	0x3c9324a9	0.017961817
69	0xbd5e46fa	-0.054266907
70	0x3d6d247e	0.05789613
71	0xbce8f0e5	-0.02843518
72	0xbd9060e6	-0.07049732
73	0xbd9629d7	-0.07332199
74	0xbc15dc23	-0.009146723
75	0x3d2c020f	0.04199415
76	0xbd1e2b15	-0.038615305
77	0x3a4e2a6c	0.0007864598
78	0xbc048c31	-0.008090065
79	0x3d34d55b	0.044148784
80	0x3d08881b	0.033332925
81	0xbceec9a3	-0.029148882
82	0x3c67c854	0.014146883
83	0x3d0739c9	0.033014093
84	0xbbaff228	-0.0053694434
85	0xbc641a78	-0.013922326
86	0x3c816979	0.015797364
87	0x3cbe1cb5	0.023207048
88	0xbd58644b	-0.05283002
89	0x3d283046	0.041061662
90	0xbcad9b99	-0.021192359
91	0x3da49c4b	0.08037623
92	0x3b8070a6	0.0039196787
93	0x3d387b94	0.04503973
94	0x3cee912d	0.02912196
95	0x3da845cd	0.082164384
96	0x3ba75504	0.00510657
97	0x3c8bb686	0.017054807
98	0xbd96a338	-0.0735535
99	0x3cee5c37	0.029096706
100	0x3c778a37	0.015108637
101	0xbd2453d7	-0.04011902
102	0xbd90d82a	-0.0707248
103	0x3daf6af4	0.085653216
104	0xbd8ce2e6	-0.06879215
105	0x3d5ef180	0.05442953
106	0xbc048924	-0.0080893375
107	0xbbdddf74	-0.0067710225
108	0xbd894991	-0.06703485
109	0x3d1696e3	0.03676499
110	0x3d1f14ec	0.038838312
111	0x3cfa1e3d	0.030531997
112	0xbcb1a649	-0.021685736
113	0x3cfbe296	0.030747693
114	0xbcdf66ea	-0.027270753
115	0x3d2cba51	0.042169873
116	0x3a871509	0.0010305952
117	0x3d8c1dfa	0.06841655
118	0xbcc2b999	-0.02377014
119	0xbb9c8226	-0.004776257
120	0xbd80ee3c	-0.062954396
121	0x3d4302d6	0.047610126
122	0x3dad981b	0.084762774
123	0x3d8944b6	0.06702559
124	0xbd9795d0	-0.07401621
125	0x3d825686	0.06364159
126	0xbc081148	-0.008304901
127	0xb9f493e2	-0.00046649488
128	0x3d163087	0.036667373
129	0x3d3ea311	0.04654223
130	0xbd12cd48	-0.035840303
131	0xbcb3dfd7	-0.021957321
132	0x3d721275	0.059099633
133	0xbd7b8e61	-0.06141508
134	0x3d399344	0.04530646
135	0xbd0b961f	-0.034078714
136	0xbd3d6eb8	-0.046248168
137	0x3d9f0580	0.07764721
138	0xbd540fc3	-0.051772844
139	0xbd06f5de	-0.03294932
140	0x3daf4a07	0.085590415
141	0xbd36a0df	-0.044587012
142	0x3d8313dd	0.06400273
143	0xbd9f194a	-0.077684954
144	0xbc9d0826	-0.019168925
145	0xbc6632dc	-0.014050212
146	0x3db0998b	0.08623036
147	0x3d10d50e	0.035359435
148	0xbcecadca	-0.028891463
149	0x3d920fb2	0.071319
150	0x3cf52dbc	0.029929034
151	0x3d93e774	0.072218806
152	0x3cc8dee7	0.02452035
153	0x3d887977	0.066637926
154	0x3daa5ac2	0.08318092
155	0xbd00cab8	-0.031443328
156	0x3a1ded94	0.00060244766
157	0xbbe32a12	-0.0069325054
158	0xbd89a902	-0.06721689
159	0xbd6b643e	-0.057468645
160	0xbc866797	-0.016406817
161	0xbdb1e2ed	-0.08685861
162	0x3cbca041	0.023025634
163	0xbd60f089	-0.054916892
164	0xbd03e480	-0.032200336
165	0x3d1dcc41	0.03852487
166	0x3d4efba5	0.050532956
167	0xbcab9502	-0.020945076
168	0xbd009169	-0.031388674
169	0xbd9fb853	-0.07798829
170	0xbcf7699b	-0.030201724
171	0x3c4017fe	0.01172447
172	0xbc199d25	-0.009375845
173	0x3d761349	0.060076986
174	0x3db5a774	0.0886983
175	0x3c104517	0.008805535
176	0x3d0c9b3a	0.034327723
177	0x3d97f09e	0.07418941
178	0x3b411c29	0.0029466248
179	0xbdacb5d5	-0.08433119
180	0x3d77a99a	0.06046448
181	0xbd81d782	-0.06339933
182	0xbd4af942	-0.049554117
183	0x3c647aea	0.013945321
184	0x3d8d29e6	0.06892757
185	0x3ce5e993	0.028065478
186	0xbc45873f	-0.012056171
187	0x3d5bfc5a	0.053707458
188	0xbda53035	-0.080658354
189	0x3da5b76f	0.08091628
190	0xbc5c5c88	-0.013449796
191	0x3ce86bf7	0.028371794
192	0xbc662e32	-0.0140491
193	0x3da79a40	0.08183718
194	0x3bddf7a1	0.0067739044
195	0xbd09a001	-0.033599857
196	0x3b8a1220	0.0042135864
197	0xbb443212	-0.002993707
198	0x3d57876a	0.052619375
199	0xbd054af9	-0.032542203
200	0xbd895d25	-0.06707219
201	0x3bdeecf5	0.00680315
202	0xbd88cee2	-0.06680085
203	0xbd4d1404	-0.050067917
204	0x3d8b504d	0.068024255
205	0x3d1d3044	0.038376108
206	0xbd627ce8	-0.0552949
207	0x3c9f42ae	0.019440975
208	0x3d48d571	0.04903168
209	0xbd122aa3	-0.035685193
210	0xbb807c8b	-0.0039210967
211	0xbd810614	-0.062999874
212	0xbd1d8c07	-0.03846362
213	0x3d988db5	0.074489035
214	0xbd961656	-0.07328479
215	0x3da095cf	0.07841074
216	0xbbf55c73	-0.0074878274
217	0xbcc9a41a	-0.024614383
218	0x3cb048b8	0.02151905
219	0x3d05f736	0.03270646
220	0xbd104c46	-0.03522899
221	0x3d8855a7	0.06656962
222	0x3d735cd7	0.05941471
223	0xbb47c422	-0.0030481895
224	0xbcce4594	-0.025179662
225	0xbd968209	-0.07349021
226	0x3d43b41b	0.047779184
227	0x3d18fc93	0.03735025
228	0xbd878131	-0.06616438
229	0x3d97978e	0.07401954
230	0x3d5bca3b	0.05365966
231	0x3d2d6d27	0.042340424
232	0xbd96743c	-0.07346389
233	0x3d8d5740	0.06901407
234	0xbbb5f8c5	-0.0055533373
235	0x3b982476	0.0046430184
236	0xbd34ae4d	-0.04411154
237	0xbbf1cfa5	-0.0073794895
238	0xbce42dcc	-0.027853869
239	0x3c4d5f19	0.01253488
240	0x3d85bc53	0.065300606
241	0xbcc08c6d	-0.02350446
242	0x3c6fec0c	0.01464368
243	0x3c88be65	0.01669235
244	0x3d023f26	0.031798504
245	0x3d16d679	0.03682563
246	0xbdbef524	-0.093241006
247	0x3c4c6914	0.012476224
248	0xbca5e9f8	-0.020253167
249	0x3d45d48b	0.0482984
250	0x3c96b538	0.018396959
251	0xbd77ec44	-0.060528055
252	0x3d031726	0.032004498
253	0x3d8eab4b	0.06966265
254	0xbd4f7ee3	-0.050658118
255	0xbd7c96fa	-0.06166742

encoder_blocks.1.2.bias f4 [12]
0	0xbc854389	-0.016267555
1	0x3d10f1d0	0.03538686
2	0x3df33942	0.118761554
3	0x3d473eb6	0.04864379
4	0x3cc14c3e	0.023595925
5	0xbd40cc2d	-0.047069717
6	0xbd5c1af4	-0.053736642
7	0xbd13abcc	-0.03605251
8	0x3d4102f0	0.047121942
9	0x3dcfdc02	0.10149385
10	0x3da68e79	0.08132643
11	0xbabb151c	-0.0014273259

encoder_blocks.2.0.weight f4 [12, 12, 13]
0	0x3d954eb3	0.07290401
1	0xbc2b6d73	-0.010463106
2	0x3cc33631	0.023829551
3	0x3d5c8f97	0.053847875
4	0x3c0d8077	0.008636585
5	0x3d463bb4	0.04839678
6	0x3d9f2e89	0.07772548
7	0x3d3071db	0.04307733
8	0x3cbaafc3	0.022788888
9	0xbd9989b7	-0.0749697
10	0x3d49f24b	0.049303334
11	0xbd6beb54	-0.057597473
12	0x3d8dc5e9	0.06922514
13	0xbdaaf991	-0.08348382
14	0x3da90f7b	0.08254906
15	0xbd224101	-0.039612774
16	0x3bd1ffcf	0.0064086686
17	0x3cb2030f	0.021729974
18	0xbd4b8d58	-0.049695343
19	0xbca5b857	-0.020229502
20	0x3d3011cc	0.042985722
21	0xbd9ab547	-0.07554107
22	0x3d1cb141	0.03825498
23	0x3b7e7a56	0.0038830242
24	0x3d2aae2b	0.041670006
25	0xbd5b7f46	-0.053588174
26	0x3d192d95	0.037396986
27	0xbd0e2f2f	-0.034712967
28	0xbdb9c27f	-0.090703
29	0xbd5dbce8	-0.054135233
30	0x3cd45b7a	0.025922526
31	0x3baf67d9	0.005352956
32	0xbd90ee22	-0.0707667
33	0xbd5057e1	-0.050865058
34	0x3c799dc2	0.015235366
35	0xbd95f996	-0.07322995
36	0xba70f212	-0.0009191345
37	0xbb9842ca	-0.0046466338
38	0x3d649e5a	0.05581508
39	0x3cff28c5	0.03114737
40	0xbdaff725	-0.08592061
41	0xbc36119d	-0.011112598
42	0x3d5fff78	0.054686993
43	0x3cdd91d0	0.027047068
44	0x3c6408d2	0.013918119
45	0x388d1bcb	6.728581e-05
46	0xbd14cd65	-0.036328692
47	0xbd8038f1	-0.06260861
48	0x3d9a30f3	0.075288676
49	0x3c85988a	0.016308088
50	0x3bd30578	0.006439861
51	0x3d4d6bfd	0.050151814
52	0x3d3adb29	0.045619164
53	0xbcc489af	-0.023991434
54	0x3cefbeb7	0.029265745
55	0x3cad5110	0.021156818
56	0x3cc4ed01	0.024038794
57	0x3d920eb6	0.07131712
58	0x3d8c382e	0.06846653
59	0xbdaa0644	-0.08301976
60	0x3a862768	0.0010235133
61	0x3d0254fa	0.03181932
62	0x3d8d8518	0.06910151
63	0x3d00b10d	0.03141885
64	0x3cb95724	0.02262456
65	0xbcc2dbac	-0.023786388
66	0x3cbd1781	0.023082497
67	0x3c7d4149	0.01545746
68	0xbd9268b3	-0.07148876
69	0xbd900f14	-0.07034126
70	0xbd90c222	-0.07068278
71	0xbce52e64	-0.027976222
72	0x3d921468	0.071327984
73	0x3d1c1271	0.038103525
74	0xbd9a649a	-0.075387195
75	0x3ade21a7	0.0016947285
76	0xbd0db647	-0.03459766
77	0x3d80e3c8	0.06293446
78	0x3d524c0d	0.05134206
79	0x3be7b3fd	0.007071017
80	0xbc7c6706	-0.015405422
81	0x3c3f5a07	0.011679179
82	0x3b9b9fa1	0.004749254
83	0x3c09f2dd	0.0084197195
84	0x3c8ac508	0.016939655
85	0xbceb049b	-0.02868872
86	0xbcc823d0	-0.02443114
87	0xbd46534e	-0.04841929
88	0xbcde5038	-0.02713786
89	0x3bbe9ba9	0.005816896
90	0x3d7c3dc1	0.06158233
91	0xbccdc290	-0.025117189
92	0xbda130d2	-0.0787064
93	0x3d7b2afd	0.061320294
94	0xbbf259aa	-0.0073959427
95	0xbd2a59c7	-0.041589525
96	0x3d05c42a	0.03265778
97	0xbc6827a1	-0.0141696045
98	0xbc552082	-0.013008239
99	0x3db967d0	0.09053004
100	0xbd502fe4	-0.050826922
101	0x3cdf5921	0.02726418
102	0x3d575c27	0.052578118
103	0xbd2487aa	-0.04016844
104	0xbcd1f658	-0.025630161
105	0xbd5fc6d2	-0.05463297
106	0x3c5a6366	0.0133293625
107	0xbd4b9218	-0.049699873
108	0x3d8b684d	0.06807003
109	0x3da08ab5	0.07838956
110	0xbce4231b	-0.02784877
111	0x3d4a564c	0.049398705
112	0xbd88ef6d	-0.06686292
113	0xbb84222a	-0.004032393
114	0x3d15aff6	0.036544763
115	0xbd9024a2	-0.07038237
116	0xbd1cf7bf	-0.038322207
117	0xbd1df124	-0.038560048
118	0x3be388a1	0.0069437777
119	0x3b695b61	0.0035607445
120	0xbd91a787	-0.071120314
121	0x3d86ca5c	0.06581566
122	0xbda769a6	-0.08174448
123	0x3d0ea473	0.0348248
124	0xbcad1cff	-0.02113199
125	0xbd64fe22	-0.055906422
126	0x3bf1b0b4	0.007375801
127	0xbd11d29d	-0.035601247
128	0xbd2fc886	-0.042915843
129	0xbd76cbba	-0.060252883
130	0xbd880d5c	-0.06643173
131	0xbd8b7bea	-0.06810744
132	0xbda47204	-0.08029559
133	0xbc849f6c	-0.0161893
134	0x3caa7edb	0.020812443
135	0x3cddbeae	0.027068462
136	0x3d965975	0.07341281
137	0x3aaf875f	0.0013391784
138	0xbb0a1a08	-0.0021072645
139	0x3d86a8da	0.06575175
140	0x3d19506c	0.037430212
141	0x3d01cfff	0.0316925
142	0xbd52fe19	-0.051511858
143	0x3ca2888e	0.019840505
144	0xbd92c16f	-0.07165801
145	0xbd5abbe8	-0.053401858
146	0x3d87d58c	0.06632528
147	0xbd7b7785	-0.06139328
148	0xbd495a03	-0.049158107
149	0xb8b4cd33	-8.62129e-05
150	0x3cd39bd0	0.025831133
151	0x3abcd90b	0.0014407946
152	0x3c9355b4	0.017985202
153	0x3dafc20b	0.08581933
154	0xbd6d173a	-0.05788348
155	0x3d70c7fa	0.058784463
156	0x3d6c3894	0.057671145
157	0xbd27f7f6	-0.04100796
158	0x3becbb05	0.007224443
159	0x3d5225d9	0.051305626
160	0xbd0a317b	-0.033738595
161	0x3d1106a5	0.035406727
162	0xbc827da1	-0.015929045
163	0xbc067332	-0.008206176
164	0x3c864d7e	0.016394373
165	0x3905dae1	0.00012765407
166	0x3d221653	0.03957207
167	0x3d8fddf8	0.07024759
168	0xbd0a1c27	-0.033718254
169	0x3db72c63	0.08944013
170	0x3d29eaa1	0.041483525
171	0xbc74c3c4	-0.014939252
172	0xbd4b6e89	-0.04966596
173	0xbd0bf9e3	-0.034173857
174	0x3c11660a	0.008874426
175	0x3d247030	0.040146053
176	0xbca91b65	-0.020642946
177	0xbafbcf77	-0.001921161
178	0x3d60da65	0.054895777
179	0x3d28b32e	0.041186504
180	0xbcee1ff7	-0.029067976
181	0x3da32a9f	0.07967114
182	0x3b80f51d	0.00393547
183	0x3ceedc2b	0.029157719
184	0xbd0777c9	-0.03307322
185	0x3d617606	0.055044197
186	0x3d94473b	0.07240149
187	0x3bc2d53d	0.00594583
188	0xbc46d667	-0.012136078
189	0x3cdacb5a	0.026708294
190	0xbd57a216	-0.05264481
191	0xbca456ee	-0.020060983
192	0x3cef114e	0.029183056
193	0x3b83fea8	0.00402816
194	0x3d8f90da	0.0701005
195	0x3d98c690	0.07459748
196	0x3d892e84	0.06698325
197	0x3d81de7c	0.06341264
198	0xbd5559bb	-0.052087527
199	0x3c93dd89	0.018049972
200	0x3cbaa37d	0.022783035
201	0x3d417645	0.04723193
202	0xbcb4da90	-0.022076875
203	0x3d055424	0.032550946
204	0xb96012f3	-0.00021369364
205	0x3d85d341	0.06534434
206	0xbbdf39cd	-0.0068123103
207	0xbc235d40	-0.009970963
208	0x3cb0bd5b	0.021574667
209	0x3b82ed05	0.00399554
210	0x3d01a902	0.03165532
211	0x3d966d41	0.07345057
212	0xbd5b2f2c	-0.053511783
213	0x3d557e01	0.05212212
214	0x3c5a5652	0.013326244
215	0xbcc6da13	-0.024273908
216	0xbd4453d1	-0.047931496
217	0xbd96924c	-0.07352123
218	0xbd9628ca	-0.07331999
219	0x3d01d474	0.03169675
220	0x3d6d6aa9	0.057963047
221	0x3c62f163	0.013851496
222	0x3d2f49af	0.04279488
223	0xbb4fa3ff	-0.0031683443
224	0xbd8c0d32	-0.06838454
225	0x3d5688d2	0.052376576
226	0x3d985bee	0.07439409
227	0xbd762a74	-0.06009908
228	0xbcd5204e	-0.02601638
229	0x3d88532d	0.066564895
230	0xbcf358a4	-0.029705353
231	0xbd6b38c6	-0.05742719
232	0x3cf2cc9c	0.029638581
233	0x3d69f032	0.057113834
234	0xbd88a192	-0.06671442
235	0x3cfbf389	0.030755775
236	0x3cec4d56	0.02884547
237	0xbd57cee4	-0.05268754
238	0x3d6d649c	0.057957277
239	0xbd8a5e99	-0.06756324
240	0xbbf26408	-0.0073971786
241	0x3a11c6d4	0.0005560939
242	0x3d542f35	0.051802833
243	0x3d0c8f1b	0.034316164
244	0xbd9afae3	-0.07567384
245	0x3d905c1e	0.0704882
246	0xbd4f6079	-0.050629113
247	0xbd2f1bb7	-0.04275104
248	0xbb021930	-0.0019851439
249	0xbd2fb131	-0.042893592
250	0x3d30c049	0.043152127
251	0x3d423a45	0.04741885
252	0xbcd84e23	-0.026404446
253	0xbc0aacd8	-0.008464061
254	0x3c1be920	0.009516031
255	0xbd0ca1a0	-0.034333825

encoder_blocks.2.0.bias f4 [12]
0	0xbc9a3c9e	-0.018827733
1	0x3dbb0821	0.0913241
2	0x3bb0f5c7	0.0054003927
3	0x3e1194bc	0.14216894
4	0xbc4a9718	-0.012365125
5	0x3d97db7b	0.074149095
6	0xbdd06c0b	-0.101768576
7	0x3dc76cf3	0.09737577
8	0x3ca8815f	0.020569501
9	0xbdbe90ef	-0.09304988
10	0x3dd47bda	0.10375185
11	0x3de72bd0	0.112876534

encoder_blocks.2.2.weight f4 [12, 12, 13]
0	0xbcb3563f	-0.021891711
1	0x3da9c629	0.08289749
2	0x3d2fc127	0.042908814
3	0x3b5b7d78	0.0033491533
4	0xbd77645c	-0.060398445
5	0x3a5d8b28	0.0008451217
6	0xbcbc6d7a	-0.023001421
7	0xbd5bd777	-0.05367228
8	0xbcd8848a	-0.026430387
9	0xbcfee1b2	-0.03111348
10	0x3c20da23	0.009817633
11	0xbd362bcf	-0.044475373
12	0x3d636050	0.055511773
13	0xbc86e2fa	-0.016465653
14	0x3c95b129	0.018272953
15	0x3d7426f4	0.05960746
16	0x3d190f8b	0.03736834
17	0x3d189e6b	0.037260454
18	0xbd76e25a	-0.06027446
19	0x3da27a19	0.079334445
20	0xbca8c8e2	-0.0206036
21	0xbc9774ac	-0.01848825
22	0xbd80295b	-0.06257888
23	0x3d3737a9	0.044730816
24	0x3d80a550	0.06281531
25	0xbcfacc27	-0.030614926
26	0xbce3b18d	-0.027794624
27	0x3d7e2726	0.062049054
28	0xbd8e1c95	-0.06939045
29	0xbcb064ad	-0.021532381
30	0x3c77bfa3	0.015121373
31	0x3d37f418	0.04491052
32	0xbd4edf41	-0.05050588
33	0xbd339f15	-0.043852884
34	0x3dab35b6	0.08359854
35	0xbd9be4c9	-0.07611997
36	0xbd5f0f75	-0.0544581
37	0x3d4b1423	0.04957975
38	0xbb577536	-0.003287626
39	0x3cd199f3	0.025586104
40	0xbd4cecfd	-0.050030697
41	0xbd16938b	-0.0367618
42	0xbd0222ea	-0.031771578
43	0x3d8564b1	0.06513346
44	0x3d48d952	0.049035378
45	0xbc721db2	-0.014777588
46	0x3ba85cc0	0.00513801
47	0x3c1c6d12	0.009547489
48	0x3cd31624	0.025767393
49	0xbd14a39e	-0.03628885
50	0xbd595502	-0.053059585
51	0x3d9be686	0.07612328
52	0x3b20e220	0.0024548844
53	0xbd91b59c	-0.07114717
54	0x3cfee914	0.031117
55	0xbd62a7be	-0.055335753
56	0xbc922032	-0.017837618
57	0xbc744738	-0.014909558
58	0xbd6186c6	-0.05506017
59	0xbac31480	-0.0014883429
60	0x3c1e7580	0.009671569
61	0xbbfa5f70	-0.0076407716
62	0xbb7ba260	-0.0038396344
63	0xbbe4d7a0	-0.0069837123
64	0x3c7f4c08	0.015582092
65	0x3d538b64	0.051646605
66	0xbd65c2d9	-0.056094024
67	0x3cbc62bc	0.022996299
68	0x3cafdf89	0.021468895
69	0x3c2d71d5	0.010586222
70	0x3b822756	0.0039719744
71	0xbd4b0042	-0.049560793
72	0x3d3c0340	0.045901537
73	0x3d51b1d7	0.051194992
74	0x3d582e5b	0.052778583
75	0xbd381110	-0.044938147
76	0xbd316148	-0.043305665
77	0xbba1b20e	-0.004934556
78	0x3c5b2676	0.013375869
79	0xbd57afef	-0.052658018
80	0xbd2464de	-0.040135257
81	0xbbbba9d6	-0.005727033
82	0x3d191db9	0.03738186
83	0x3cfa0d09	0.030523794
84	0x3d0e948d	0.034809638
85	0x3c4a0cb2	0.012332128
86	0xbdae41fe	-0.08508681
87	0x3d6743cb	0.056461137
88	0xbd7b486b	-0.06134836
89	0xbd542dc5	-0.05180146
90	0x3b7e0f3f	0.0038766412
91	0x3cb0f3dd	0.021600658
92	0x3d2128df	0.03934562
93	0x3d2d607a	0.042328335
94	0x3d96c9f7	0.073627405
95	0xbc6bc7e4	-0.014390919
96	0x3c8cf44c	0.017206334
97	0x3dd3b6ff	0.10337638
98	0xbca79c60	-0.020460308
99	0x3daa581e	0.08317588
100	0x3ccc8cef	0.024969546
101	0x3dd1fe80	0.1025362
102	0x3dd1b861	0.102402456
103	0xbb98e086	-0.004665437
104	0xbbbf11ac	-0.005830964
105	0xbd9810d4	-0.07425085
106	0x3d85ba97	0.0652973
107	0x3d93bb8b	0.07213505
108	0x3c237b41	0.0099781165
109	0xbd86bce7	-0.06578999
110	0x3ce54a3e	0.027989503
111	0x3d53d550	0.051717103
112	0xbca9fcc5	-0.020750413
113	0xbc3b8c73	-0.01144706
114	0xbd496c5e	-0.049175613
115	0xbd4051d7	-0.04695305
116	0xbc4bcd5d	-0.012439099
117	0xbd76fd98	-0.06030044
118	0x3d9376f4	0.07200423
119	0xbd327e28	-0.043577343
120	0x3cbcd3fa	0.023050297
121	0x3da247cd	0.07923851
122	0x3d023f01	0.031798366
123	0xbd8312f8	-0.064001024
124	0xbc8f7a94	-0.017514504
125	0xbd9a6f16	-0.07540719
126	0xbd89046b	-0.06690296
127	0xbb57ce31	-0.0032929296
128	0x3ca3209a	0.019913007
129	0x3d5ae2ee	0.053439073
130	0xbd1ed60d	-0.038778353
131	0x3d11ce5a	0.035597183
132	0xbc27db04	-0.0102450885
133	0x3d040206	0.032228492
134	0x3d2cce4c	0.042188928
135	0xbd84bd0e	-0.06481372
136	0xbc80a669	-0.01570435
137	0x3c8e4afe	0.017369743
138	0x3d5e1085	0.054214973
139	0x3b5e8838	0.0033955704
140	0x3d76b44c	0.06023054
141	0xbd05eda1	-0.032697324
142	0x3d13ed8e	0.03611522
143	0xbd3f2d94	-0.046674326
144	0xbcc3f2fb	-0.023919573
145	0x3cf9f4f4	0.03051231
146	0x3bdce4c3	0.0067411377
147	0xbd8b74ad	-0.068093635
148	0xbd729908	-0.059227973
149	0x3dad38c7	0.08458095
150	0x3d2e20ea	0.042511858
151	0xbc8aea99	-0.016957568
152	0xbd7562dc	-0.059908733
153	0x3c9e8c2b	0.019353947
154	0xbb3a1ba8	-0.0028397832
155	0xbd1b4d5a	-0.037915565
156	0x3d8540f9	0.06506533
157	0xbd7e4748	-0.062079698
158	0x3dbd730e	0.092504606
159	0xbd5a4789	-0.053290877
160	0x3d2db528	0.042409092
161	0x3d964df9	0.07339091
162	0xbcad1802	-0.021129612
163	0x3d29f9c4	0.04149796
164	0x3bf3b0ed	0.0074368627
165	0x3d461db5	0.048368175
166	0xbc5ac957	-0.013353667
167	0x3d55bc01	0.052181248
168	0xbcf13182	-0.029442552
169	0xbcf5c672	-0.030001853
170	0x3d816768	0.06318551
171	0xbc149224	-0.009068046
172	0x3d85e57f	0.065379135
173	0x3ba94f75	0.0051669427
174	0x3d836bf1	0.064170726
175	0x3d3dbf6f	0.046325143
176	0x3d020f5c	0.03175293
177	0xbcd2a7bc	-0.025714748
178	0xbcb69ba2	-0.022291008
179	0xbd5da07c	-0.054108128
180	0x3d4cf3a2	0.050037034
181	0x3c4394d0	0.011937335
182	0x3c2c6d12	0.010524051
183	0xbd2d72c4	-0.042345777
184	0xbc14b326	-0.009075915
185	0x3c0c7bbe	0.008574424
186	0x3a886ab9	0.0010407782
187	0x3c949d01	0.018141272
188	0x3d386a54	0.045023277
189	0x3ccfc4de	0.025362428
190	0xbd1d1fb3	-0.03836031
191	0x3c373651	0.011182384
192	0x3da4906a	0.08035357
193	0xbd70f2c9	-0.058825288
194	0xbd035019	-0.03205881
195	0xbcf33e10	-0.02969268
196	0x3d966a61	0.07344509
197	0xbd941362	-0.072302595
198	0x3d988649	0.07447488
199	0xbc3c27ab	-0.011484067
200	0x3d680004	0.05664064
201	0x3d8dfc1b	0.06932851
202	0xbca10994	-0.019657888
203	0x3d5fdf27	0.054656174
204	0x3cfef13f	0.031120894
205	0x3d2513c2	0.040302046
206	0xbd818a47	-0.063252024
207	0x3b9192a2	0.004442529
208	0xbd2ffdf2	-0.04296679
209	0x3d9149d0	0.07094157
210	0xbd181e34	-0.03713818
211	0xba4b3600	-0.0007751882
212	0xbd09cbe4	-0.03364171
213	0x3d8f1050	0.06985533
214	0x3d5d1b1c	0.05398093
215	0xbd4e1e9c	-0.05032216
216	0x3d733fcc	0.059387013
217	0x3d0e1b3e	0.03469395
218	0x380c4800	3.3445656e-05
219	0xbd23c1cf	-0.039979752
220	0x3b5f2380	0.003404826
221	0x3d772c31	0.06034488
222	0x3c6b231c	0.014351632
223	0xbb5878f7	-0.0033031085
224	0x3c981946	0.018566739
225	0x3d94344c	0.07236537
226	0x3ccfc7b2	0.025363777
227	0x3d5d7144	0.054063097
228	0x3cbd7a18	0.023129508
229	0xbcf35b9e	-0.029706772
230	0xbcc8cc2c	-0.02451142
231	0xbda30f61	-0.07961918
232	0xbce8dbc4	-0.028425105
233	0x3c52cf80	0.012866855
234	0x3cbb218c	0.022843145
235	0xbd2169a6	-0.039407395
236	0x3cb120d8	0.021622106
237	0xbd4b442b	-0.049625557
238	0x3d88a6fc	0.06672475
239	0xbcb95fc1	-0.022628667
240	0xbcae67d8	-0.021289751
241	0xbd68ded1	-0.05685312
242	0x3d220f16	0.03956517
243	0x3da0c767	0.07850533
244	0x3c658a0f	0.0140099665
245	0x3d3d1c2f	0.046169456
246	0x3bcf2606	0.0063216714
247	0xbd80e24b	-0.06293162
248	0xbd960666	-0.07325439
249	0xbc66117f	-0.014042257
250	0x3d442440	0.047886133
251	0xbd4bf9f0	-0.049798906
252	0x3ccc323c	0.024926297
253	0xba3eb0df	-0.00072742807
254	0xbc5688c9	-0.013094136
255	0xbdb07e1a	-0.08617802

encoder_blocks.2.2.bias f4 [12]
0	0x3db669c6	0.089068934
1	0x3d8571b9	0.065158315
2	0x3c62304d	0.013805461
3	0xbd1e952b	-0.038716476
4	0xbbe456c1	-0.0069683497
5	0x3d8adbfb	0.06780239
6	0x3e0fbda5	0.14037187
7	0xbd3aa909	-0.04557136
8	0x3d856c4e	0.06514798
9	0x3d942f50	0.07235587
10	0x3df2c023	0.118530534
11	0xbd1d9654	-0.038473442

encoder_blocks.3.0.weight f4 [12, 12, 13]
0	0x3d9ec07c	0.07751557
1	0x3cead24c	0.02866473
2	0xbbf6afec	-0.0075282957
3	0xbd41dd67	-0.047330286
4	0xbc7aa19a	-0.015297318
5	0x3d407540	0.04698682
6	0xbd72be2c	-0.059263393
7	0xbd213ba8	-0.039363533
8	0xbd471f89	-0.04861406
9	0x3d7f1adc	0.062281474
10	0x3da3c565	0.079966344
11	0xbd31d5bf	-0.043416735
12	0xbd851d01	-0.06499673
13	0xbd61ae80	-0.055098057
14	0x3d8e7830	0.06956518
15	0x3cf238e5	0.029568145
16	0x3d38381e	0.044975393
17	0x3cb3560b	0.021891614
18	0xbc6abea9	-0.0143276835
19	0x3d58aa75	0.052896935
20	0xbd93b296	-0.07211797
21	0xbcf68c8e	-0.030096319
22	0x3ae52931	0.001748359
23	0xbd140eb3	-0.03614683
24	0x3cdd5924	0.027020045
25	0x3c97ef84	0.018546827
26	0x3d4c76c3	0.049917948
27	0x3d8b0342	0.06787731
28	0x3d7627af	0.06009644
29	0xbc3aec1b	-0.011408831
30	0x3c560aae	0.01306407
31	0xbc4bdf65	-0.012443398
32	0xbd2ac67d	-0.0416932
33	0x3c1a8b7d	0.009432671
34	0xbd6486b6	-0.055792533
35	0xbc60da15	-0.01372387
36	0x3b95b1be	0.0045683077
37	0x3c8bfe59	0.017089056
38	0x3c8fdc2a	0.017561037
39	0x3d3d52bb	0.046221476
40	0xbd30bdc4	-0.043149725
41	0x3cdcdbbe	0.02696025
42	0xbc4286d5	-0.011872967
43	0x3d67997c	0.05654286
44	0x3d77dad9	0.060511444
45	0xbd18e0eb	-0.037323873
46	0xbc0901b0	-0.008362219
47	0x3d022e6c	0.031782553
48	0x3d9c7e24	0.07641247
49	0xbd229281	-0.0396905
50	0x3cd42324	0.025895663
51	0xbcedacb1	-0.02901301
52	0xbd86e17a	-0.06585975
53	0x3d2e0db5	0.04249354
54	0xbd74c6dc	-0.05975996
55	0x3d2473e5	0.04014959
56	0x3d874322	0.066046014
57	0x3d1af271	0.037828866
58	0xbd64bb36	-0.0558426
59	0xbd892883	-0.0669718
60	0xbb1a11cb	-0.002350914
61	0x3c839ac3	0.016065007
62	0xbcfabc51	-0.030607374
63	0x3c8d9da8	0.01728709
64	0xbca6dd83	-0.020369297
65	0xbd9090b8	-0.07058853
66	0xbd2aa13d	-0.041657675
67	0xbcb64525	-0.022249768
68	0x3d812533	0.06305923
69	0xbd84a58e	-0.064768896
70	0x3a1d5033	0.00060010253
71	0x3daa2491	0.08307756
72	0x3c01a85e	0.007913677
73	0x3c57d479	0.013173216
74	0x3bc5395a	0.0060187997
75	0xbd4d9a0e	-0.050195746
76	0x3d1c18d8	0.03810963
77	0x3d34ac94	0.044109896
78	0xbd388508	-0.045048743
79	0x3bd212dd	0.00641094
80	0x3d168e34	0.03675671
81	0xbd46617b	-0.04843281
82	0xbd03c074	-0.03216596
83	0xbd1797b4	-0.03700991
84	0xbba92b7f	-0.005162656
85	0x3d882724	0.066480905
86	0xbdae2dab	-0.08504804
87	0x3ca17f56	0.019714039
88	0xbb1c546c	-0.002385403
89	0xbccf457f	-0.025301693
90	0x3d9dc3de	0.07703374
91	0x3da58eba	0.080838636
92	0x3d5a7003	0.05332948
93	0xbad39fac	-0.0016145608
94	0xbd7907b9	-0.06079838
95	0xbd7897db	-0.060691696
96	0xbbefc45d	-0.0073171095
97	0x3d4ead98	0.05045852
98	0x3d18a9d6	0.037271343
99	0x3ca8118e	0.020516183
100	0x3d727fa2	0.05920375
101	0x3c4253ac	0.011860769
102	0x3d793c23	0.060848366
103	0xbd89f312	-0.06735815
104	0xbcd5319a	-0.026024628
105	0x3d04bb54	0.032405213
106	0xbc1a3464	-0.009411905
107	0xbd56e75d	-0.05246674
108	0xbcdea662	-0.027178947
109	0xbb919c6d	-0.0044436962
110	0x3d55bb18	0.05218038
111	0xbd96b97e	-0.073595986
112	0x3c7b207b	0.015327568
113	0xbd874bb8	-0.06606239
114	0xbd2a50a6	-0.04158082
115	0x3d88caa3	0.06679275
116	0xbd2e9adb	-0.04262815
117	0xbd8f2406	-0.06989293
118	0xbc8bd530	-0.01706943
119	0x3d8dede8	0.06930143
120	0xbb948030	-0.0045318827
121	0xbb8a3609	-0.0042178673
122	0xbd451a57	-0.048120823
123	0xbd9aa80d	-0.075515844
124	0x3cd09901	0.025463583
125	0x3b90c481	0.0044179563
126	0x3c091022	0.008365663
127	0xbd844ce9	-0.06459982
128	0x3d38f48e	0.0451551
129	0xbd5dfb9a	-0.054195024
130	0xbb0cbdb5	-0.002147538
131	0xbd96e604	-0.07368091
132	0x3bda3132	0.0066586966
133	0x3d3e6a16	0.04648789
134	0x3c1d2012	0.009590166
135	0xbc874bc3	-0.016515618
136	0xbd822e73	-0.06356516
137	0x3d1bae9c	0.038008317
138	0xbcf5c784	-0.030002363
139	0x3c1a4ca9	0.009417691
140	0xbda06b2a	-0.0783294
141	0x3d991311	0.0747434
142	0xbcc453d9	-0.023965763
143	0x3d84b883	0.06480505
144	0x3c0e3ce0	0.008681506
145	0xbcf185d3	-0.029482758
146	0x3d07e3b6	0.033176146
147	0x3da92e4c	0.082607836
148	0xbcfe06bb	-0.031009069
149	0x3cd554b7	0.026041372
150	0x3d610a6c	0.05494158
151	0xbc7ce961	-0.015436501
152	0x3c54ff63	0.013000342
153	0x3cf759f7	0.030194266
154	0x3d776345	0.060397405
155	0xbd9c24cd	-0.07624207
156	0xbb823795	-0.003973911
157	0x3b48dd0a	0.0030649328
158	0xbcd29695	-0.025706569
159	0x3ddf78cf	0.10911714
160	0x3dd70e32	0.105007544
161	0xbd5778fc	-0.052605614
162	0x3e023151	0.12714125
163	0x3d95d90e	0.073167905
164	0xbd2be929	-0.041970406
165	0x3deeb983	0.11656477
166	0x3d02e05b	0.031952243
167	0x3d9ce0b3	0.076600455
168	0x3d7f4be9	0.062328253
169	0xbce4a37f	-0.027909992
170	0xbd98abb1	-0.074546225
171	0xbd9a88b9	-0.07545609
172	0xbbcc774d	-0.0062398077
173	0x3d06b228	0.032884747
174	0xbd873319	-0.06601543
175	0x3b8ac03c	0.004234342
176	0x3d70f2fa	0.05882547
177	0x3d881a19	0.06645603
178	0xbcc8dda6	-0.024519753
179	0x3d09af0a	0.033614196
180	0x3cb440c5	0.02200354
181	0x3da15713	0.07877936
182	0x3c2608dc	0.010133948
183	0x3cd78172	0.026306842
184	0xbd814fbd	-0.06314037
185	0x3da317ff	0.07963561
186	0xbcc0f811	-0.023555787
187	0x3d80f1e4	0.06296137
188	0xbc40d802	-0.01177025
189	0xbd31ffbe	-0.043456785
190	0xbd266471	-0.040623132
191	0x3da3af9b	0.079924785
192	0xbd18bc2e	-0.037288837
193	0xbd6b9ad8	-0.057520717
194	0xbb3fd8cf	-0.0029273515
195	0xbd71eaea	-0.059061922
196	0x3c9a4348	0.01883091
197	0x3d43b531	0.04778022
198	0x3bbaec2d	0.005704424
199	0x3c4950d2	0.0122873355
200	0x3cb0899c	0.021549992
201	0x3d744c38	0.059643
202	0xbce91e18	-0.028456733
203	0x3d82459b	0.063609324
204	0xbcf97fe4	-0.03045649
205	0xbccc8fed	-0.024970973
206	0xbc88d2d8	-0.0167021
207	0x3d8c6261	0.06854702
208	0xbd03aa4a	-0.032144822
209	0x3d6705d7	0.056402054
210	0xbd93ad56	-0.072107956
211	0x3c40b76b	0.01176248
212	0xbd3fd09d	-0.04682981
213	0x3d995828	0.074875176
214	0xbd94b291	-0.07260621
215	0x3d07eecf	0.03318673
216	0x3d297191	0.04136807
217	0x3cf3ac10	0.029745132
218	0xbc1543fb	-0.009110446
219	0x3d774216	0.06036576
220	0x3c433f61	0.011916966
221	0xbc891492	-0.016733442
222	0xbcda8ae3	-0.026677554
223	0x3d1c3139	0.03813288
224	0xbd6ae5c0	-0.057348013
225	0xbcc1a14a	-0.023636479
226	0x3d8058ce	0.06266938
227	0xbd60df25	-0.054900307
228	0x3d62c74f	0.055365857
229	0xbd1bf793	-0.038077902
230	0x3ce29ab1	0.027661653
231	0xbc66c45d	-0.014084903
232	0xbc1d6091	-0.009605543
233	0xbc8ee388	-0.01744248
234	0x3d85b2a7	0.06528216
235	0x3df5640a	0.119819716
236	0x3c7a7d5b	0.015288676
237	0x3dd1a8b0	0.10237253
238	0x3de13bd7	0.10997742
239	0x3dbbaad8	0.09163445
240	0x398796da	0.000258616
241	0x3d930cfd	0.07180212
242	0x3d69d2a6	0.057085656
243	0x3d001eeb	0.031279486
244	0x3d0a679d	0.03379022
245	0x3dad6103	0.08465769
246	0x3de2dfaf	0.110778205
247	0x3c616afd	0.013758418
248	0x3af2db59	0.0018528505
249	0xbb51d0ec	-0.0032015396
250	0x3bba6d11	0.0056892713
251	0xbd0e1ae0	-0.0346936
252	0x3d7f7c07	0.06237414
253	0x3c14262b	0.009042303
254	0xbb22d592	-0.0024846536
255	0xbd9dd83e	-0.077072605

encoder_blocks.3.0.bias f4 [12]
0	0xbd438ecd	-0.047743607
1	0x3dafd41a	0.08585377
2	0x3dd53895	0.10411183
3	0xbca76a53	-0.020436442
4	0xbd227ab3	-0.039667796
5	0x3dd2aeb5	0.10287229
6	0xbd054533	-0.032536697
7	0xbd4d483f	-0.050117727
8	0x3cf3f39a	0.029779244
9	0xbdb26ea7	-0.087125115
10	0x3d318db7	0.04334804
11	0x3d298761	0.041388873

encoder_blocks.3.2.weight f4 [12, 12, 13]
0	0x3bd96d0f	0.0066353153
1	0xbd6867e8	-0.056739718
2	0xbc5366fe	-0.012902973
3	0x3d5b4b78	0.05353877
4	0xbd144068	-0.036194235
5	0xbd843651	-0.064556725
6	0x3d0887d2	0.033332653
7	0xbc2c8efd	-0.010532138
8	0xbd534e50	-0.051588356
9	0xbb17a141	-0.0023136886
10	0xbd3fb085	-0.0467992
11	0x3d06fd15	0.0329562
12	0xbbfa0922	-0.0076304832
13	0x3cd8e8bd	0.026478166
14	0xbb50e655	-0.003187557
15	0xbc2b8be7	-0.010470367
16	0xbcfd1995	-0.030895988
17	0xbd30c999	-0.04316101
18	0x3c24886c	0.010042291
19	0xbd8589aa	-0.06520398
20	0x3d70968d	0.058737326
21	0xbd06101a	-0.0327302
22	0xbc170fc0	-0.009220064
23	0x3d875120	0.0660727
24	0x3d0b6edf	0.03404128
25	0x3d4194b9	0.047260974
26	0xba559048	-0.0008146805
27	0xbd25dce4	-0.04049386
28	0x3cf496b2	0.029857013
29	0xbd84dd33	-0.06487503
30	0x3cd5b917	0.026089234
31	0xbd8982c3	-0.06714394
32	0x3d4c3ee1	0.049864653
33	0xbd5d7c7b	-0.054073792
34	0xbb80a7d7	-0.003926258
35	0x3da1bf08	0.078977644
36	0x3b74b1b6	0.003733737
37	0xba57857b	-0.0008221489
38	0xbd1cda16	-0.03829392
39	0xbd500e63	-0.05079497
40	0x3d76d289	0.060259376
41	0xbd97c821	-0.074112184
42	0x3b849b4f	0.0040468345
43	0x3ca29d9e	0.019850548
44	0x3d2156ec	0.039389536
45	0x3c4fe124	0.012687955
46	0x3cff9ef4	0.031203724
47	0xbcfe6b9e	-0.031057175
48	0xbd03df35	-0.03219529
49	0x3d8b4536	0.0680031
50	0xbd8bcf2f	-0.068266265
51	0x3b9702e6	0.0046085
52	0x3d82a23b	0.06378599
53	0x3d7ee8b9	0.06223366
54	0x3d47fc89	0.04882482
55	0xbb4636b2	-0.0030245003
56	0xbb17b045	-0.0023145836
57	0xbd3d0f1b	-0.046156984
58	0x3be3ef6d	0.006956032
59	0x3d373332	0.044726558
60	0x3d8784cd	0.066171266
61	0xbc54a975	-0.012979855
62	0x3cc0ad9d	0.023520285
63	0xbcd128b9	-0.025532113
64	0xbd4ef467	-0.05052605
65	0xbd01e004	-0.03170778
66	0xbd05d58e	-0.032674365
67	0xbda0e664	-0.078564435
68	0x3d92c3ac	0.07166228
69	0xbd2b618f	-0.041841086
70	0xbcd5ed49	-0.026114123
71	0x3d48568d	0.048910666
72	0x3d90e52a	0.070749596
73	0x3d742ee5	0.059615035
74	0x3d9532de	0.07285093
75	0x3c7ac8f4	0.0153067
76	0x3d72880a	0.05921177
77	0xbd82fdc3	-0.063960575
78	0xbca9ffe5	-0.020751903
79	0xbd948da3	-0.072535776
80	0x3d105e16	0.035245977
81	0xbd82be4f	-0.06383955
82	0xbd259937	-0.04042932
83	0xbd6a8152	-0.057252236
84	0xbd958402	-0.07300569
85	0xbbcc4b86	-0.006234589
86	0x3d5bca66	0.05365982
87	0xbd9e2b33	-0.07723083
88	0xbc8c0001	-0.017089846
89	0x3d076e7d	0.033064354
90	0x3d256947	0.040383603
91	0xbd36697e	-0.0445342
92	0x3c71ee88	0.014766343
93	0xbd865969	-0.065600224
94	0x3d9f9f9e	0.077941164
95	0x3d1432d8	0.0361813
96	0x3d58039c	0.052737817
97	0x3ca70e68	0.020392612
98	0x3cefb8d4	0.029262938
99	0x3d1f13b4	0.03883715
100	0xbca1344e	-0.019678261
101	0xbd3b3d71	-0.045712892
102	0xbd055e06	-0.03256037
103	0x3c0d9228	0.008640803
104	0x3d35c14f	0.044373807
105	0xbcf785da	-0.030215193
106	0x3d91dd63	0.07122304
107	0x3d86766e	0.065655574
108	0xbcd50274	-0.026002146
109	0x3d9552f0	0.0729121
110	0x3bbc27a4	0.00574203
111	0xbcd953ed	-0.026529277
112	0x3c9d08f4	0.019169308
113	0x3d893434	0.0669941
114	0xbcbab47c	-0.02279114
115	0x3d4eee14	0.050520018
116	0xbafc0ba3	-0.0019229542
117	0x3bbef56c	0.0058275964
118	0x3ad612ca	0.0016332504
119	0x3d23b507	0.039967563
120	0x3d92b6e9	0.071637936
121	0x3c9024aa	0.017595608
122	0x3d186d0a	0.037213363
123	0xbd6d4740	-0.057929277
124	0x3d6b392f	0.05742758
125	0xbc12e4df	-0.0089657
126	0xbb391ddc	-0.0028246557
127	0xbd7a4893	-0.06110437
128	0x3d8f422c	0.06995043
129	0xbd11a76d	-0.03556006
130	0x3d9b9071	0.075959094
131	0xbc93d69a	-0.018046666
132	0xbd2b3e04	-0.04180719
133	0xbd777fed	-0.060424734
134	0xbd4734e2	-0.048634417
135	0x3d4e8f19	0.050429437
136	0xbd5fb8a5	-0.05461945
137	0xbcf84e39	-0.030310737
138	0xbc6a33f8	-0.014294617
139	0xbb879d03	-0.0041385903
140	0xbae589d1	-0.0017512386
141	0x3c2f6792	0.010705845
142	0xbda2f965	-0.079577245
143	0x3c603c58	0.013686262
144	0x3d2ed67b	0.042685013
145	0xbcb6b58a	-0.022303361
146	0xbd51e5d5	-0.051244576
147	0xbc12090b	-0.008913289
148	0xbd80ec9f	-0.06295132
149	0xbd0b2af9	-0.03397653
150	0xbc7570c3	-0.014980498
151	0x39e2f866	0.0004329115
152	0xbccf5b7a	-0.025312174
153	0x3cefa716	0.029254477
154	0xbc8f771e	-0.017512854
155	0xbcdaf857	-0.026729746
156	0x3c0a3908	0.008436449
157	0xbd47a92e	-0.048745327
158	0x3d342950	0.04398471
159	0x3c9cb2f8	0.019128308
160	0xbc9e984d	-0.019359732
161	0x3d9c5bb7	0.07634681
162	0x3d96bada	0.07359858
163	0xbcaa6aef	-0.020802943
164	0x3d966235	0.0734295
165	0x3ca0893a	0.019596685
166	0x3c1a7f8a	0.009429822
167	0xbd13728f	-0.035997923
168	0x3d5a9c50	0.053371727
169	0xbc84b3be	-0.016198989
170	0x3d2aa1ef	0.04165834
171	0x3ca71c2c	0.020399176
172	0xbd090263	-0.03344954
173	0x3d313c95	0.043270666
174	0xbda05db0	-0.078303695
175	0xbd04ee71	-0.032453958
176	0xbd9a7fe9	-0.07543928
177	0x3d8e8fca	0.06961019
178	0xbd11fcf3	-0.03564162
179	0x3bafa75d	0.0053605274
180	0xbd31a6cc	-0.04337196
181	0xbceaa200	-0.0286417
182	0x3cbef91c	0.023312144
183	0x3d8aed1e	0.06783508
184	0xbd477024	-0.04869093
185	0xbd18f17a	-0.037339665
186	0xbcefae19	-0.02925782
187	0x3c749e5c	0.014930334
188	0xbd65fda9	-0.056150112
189	0xbcb68f4a	-0.022285122
190	0x3d8c99e6	0.06865291
191	0x3d5bd694	0.053671435
192	0x3be1931e	0.006883993
193	0x3d6b02d8	0.05737576
194	0x3cdced0e	0.026968505
195	0xbc77f679	-0.015134447
196	0x3c17fc29	0.009276428
197	0xbda5e94b	-0.08101138
198	0x3ad8f4e5	0.0016552476
199	0xbcf944b9	-0.030428277
200	0xbd48af9c	-0.0489956
201	0x3d13bb1e	0.03606712
202	0x3d9c2eae	0.07626091
203	0xbc1fc3ef	-0.009751304
204	0x3baecf37	0.0053347605
205	0x3bd6ceba	0.0065554054
206	0x3c204c1d	0.009783772
207	0x3d1fe605	0.039037723
208	0xbd23e670	-0.040014684
209	0xbc1eb894	-0.009687562
210	0xbd6bc457	-0.05756029
211	0x3d4921ff	0.049104687
212	0x3d4de9ec	0.050271913
213	0xbd58ec6d	-0.05295985
214	0xbd65df11	-0.056120936
215	0x3bbf9b01	0.0058473353
216	0x3d7ec82f	0.06220263
217	0xbc88853f	-0.0166651
218	0xbd55d324	-0.052203313
219	0x3b5d26e2	0.00337451
220	0xbd08145b	-0.033222537
221	0x3ca9682f	0.020679561
222	0x3d056390	0.032565653
223	0x3c96d050	0.018409878
224	0x3d194baa	0.037425674
225	0xbd0cae18	-0.034345716
226	0x3d3c987b	0.046043854
227	0xbb878b21	-0.0041364585
228	0xbc137007	-0.008998877
229	0xbd3fde93	-0.046843123
230	0xbc885f40	-0.016646981
231	0xbd467a75	-0.048456628
232	0x3ce0d59f	0.027445612
233	0xbd10df0c	-0.035368964
234	0xbd569250	-0.05238563
235	0xbd8b45c4	-0.06800416
236	0xbd928d66	-0.07155876
237	0xbceb8890	-0.028751642
238	0x3cba44ee	0.022737946
239	0xbd323594	-0.043508127
240	0x3cc89dbe	0.02448928
241	0xbd3d1d6d	-0.04617064
242	0x3d87e85a	0.066361144
243	0xbbb53feb	-0.0055313013
244	0xbd4bebb1	-0.04978532
245	0x3d7e7c6d	0.06213038
246	0xbd6bba57	-0.057550754
247	0xbd3630bf	-0.04448008
248	0x3c3b94f0	0.011449084
249	0xbb8ff820	-0.0043935925
250	0x3d9f5c70	0.07781303
251	0xbc3a5688	-0.01137317
252	0x3d927c92	0.07152666
253	0x3c28ae10	0.010295406
254	0x3d958210	0.07300198
255	0x3d59dc64	0.053188697

encoder_blocks.3.2.bias f4 [12]
0	0xbd99be9c	-0.07507059
1	0xbd72999f	-0.059228536
2	0xbd87b7b7	-0.06626838
3	0xbd317820	-0.04332745
4	0xbc6a0ca5	-0.014285241
5	0x3d0a264c	0.03372793
6	0x3b8c7c25	0.00428726
7	0x3bb27410	0.0054459646
8	0x3c77a6fd	0.015115497
9	0x3daafdba	0.08349176
10	0x3d4f2868	0.050575644
11	0x3befa8e8	0.0073138364
