Python/save/localizer/trial_2/quake_localization_model_00180.pth (torch, 252994 bytes, 35 tensors)

encoder_blocks.0.weight f4 [12, 1, 13]
0.18540925 0.19674647 0.22186942 0.083804935 0.18442506 0.10195004 -0.10793075 -0.06262236
-0.20712382 -0.19887862 -0.19312125 0.08669733 -0.08635903 -0.21294343 -0.24405928 -0.25538877
-0.12582846 0.10460267 -0.16552146 0.27638724 -0.19430222 -0.019815583 0.073556684 0.17264521
0.15836827 -0.04345934 0.06962711 -0.08912288 0.032319993 0.06759661 -0.21758316 -0.18794134
0.15560624 -0.06786641 -0.10474677 -0.11125426 -0.0067185513 -0.11042288 -0.2461766 0.07946401
0.028792797 -0.20696463 0.07579925 -0.16012336 -0.13520448 0.083793156 0.035612773 0.03659431
-0.09051131 0.0028987047 0.2626453 -0.25007758 0.053007577 0.046056736 -0.08795441 -0.0061251
-0.14424199 -0.11461569 -0.14302318 0.17873216 -0.035057027 0.1210349 -0.011942781 -0.133692
-0.16699924 -0.087293856 0.2359671 0.0967717 -0.029616356 -0.056613483 0.07583652 0.22070311
-0.2339221 0.07741362 0.15166192 -0.19709231 0.22271125 0.1699573 -0.11363739 0.026267495
0.12448714 0.10535195 0.066732 -0.03227038 -0.08243951 0.24301696 0.1436875 0.14325148
-0.26748595 0.119652845 -0.15084448 0.09492674 -0.09723141 -0.04931014 0.10645935 -0.2024449
0.27218398 0.1992415 -0.08704421 0.13923945 -0.16798468 0.010600804 0.2173191 0.018935073
-0.17176521 -0.017334418 -0.041606948 -0.075271934 0.16803128 0.19498849 0.18666108 0.2510928
0.15710409 0.1869226 0.2256955 -0.1338283 0.15484706 0.26262426 -0.08284806 -0.1957407
-0.21595836 0.0029844802 -0.17632788 -0.19743225 0.13162968 0.20979068 -0.18903533 0.26717862
0.05315463 0.10458388 0.2795616 -0.21832402 0.2709312 0.024091037 -0.032705285 0.20387344
0.11990944 0.023958482 -0.039225895 -0.05127451 -0.007266953 -0.10614239 -0.18313713 0.07363962
0.14728157 -0.20758647 -0.055297494 -0.22719042 -0.26980534 0.0883256 -0.23740658 -0.10514344
-0.17150398 0.23326528 -0.18888709 -0.121310785
00000000: ecdb 3d3e e877 493e bd31 633e eca1 ab3d
00000010: ecd9 3c3e 2fcb d03d cc0a ddbd 2740 80bd
00000020: 4418 54be d6a6 4bbe 94c1 45be 5f8e b13d
00000030: 01dd b0bd d80d 5abe adea 79be 51c2 82be
00000040: 2dd9 00be ed39 d63d 757e 29be a182 8d3e
00000050: 29f7 46be 4a54 a2bc e3a4 963d e8c9 303e
00000060: 4b2b 223e 6c02 32bd a998 8e3d 0e86 b6bd
00000070: f861 043d 1770 8a3d 1fce 5ebe b273 40be
00000080: 3e57 1f3e 8bfd 8abd 7985 d6bd 46d9 e3bd
00000090: 4b27 dcbb 6425 e2bd b815 7cbe 07be a23d
000000a0: dfde eb3c 89ee 53be a33c 9b3d 61f7 23be
000000b0: 0b73 0abe bf9b ab3d b3de 113d eae3 153d
000000c0: fe5d b9bd 32f8 3d3b 7279 863e 2b0a 80be
000000d0: 791e 593d fda5 3c3d 7121 b4bd 10b5 c8bb
000000e0: 2cb4 13be a2bb eabd ab74 12be 9005 373e
000000f0: f597 0fbd 25e1 f73d a7ab 43bc 8ee6 08be
00000100: d901 2bbe 1fc7 b2bd 5ca1 713e 3e30 c63d
00000110: 009e f2bc 8ae3 67bd 2d50 9b3d ffff 613e
00000120: 4689 6fbe 088b 9e3d 434d 1b3e 91d2 49be
00000130: 6b0e 643e 4909 2e3e b8ba e8bd ee2e d73c
00000140: 1df3 fe3d c3c2 d73d c9aa 883d f22d 04bd
00000150: 0cd6 a8bd 70d9 783e d122 133e 84b0 123e
00000160: ebf3 88be 8d0c f53d fa76 1abe f368 c23d
00000170: 4321 c7bd 6ef9 49bd 5c07 da3d b74d 4fbe
00000180: b35b 8b3e f705 4c3e 3c44 b2bd c994 0e3e
00000190: 2d04 2cbe ffae 2d3c e688 5e3e ba1d 9b3c
000001a0: 38e3 2fbe e900 8ebc 0c6c 2abd 2c28 9abd
000001b0: 6410 2c3e 10ab 473e 1524 3f3e 3c8f 803e
000001c0: e5df 203e a368 3f3e b91c 673e 490a 09be
000001d0: 3a90 1e3e b076 863e 3eac a9bd 4070 48be
000001e0: 3024 5dbe 4597 433b 4c8f 34be ae2b 4abe
000001f0: eec9 063e 5ed3 563e 7a92 41be a3cb 883e
00000200: abb8 593d 1330 d63d b322 8f3e 5590 5fbe
00000210: 7fb7 8a3e 915a c53c faf5 05bd 33c4 503e
00000220: 1593 f53d 9444 c43c 55ab 20bd 3805 52bd
00000230: 9f1f eebb 2e61 d9bd 4d88 3bbe 5ed0 963d
00000240: fbd0 163e 8c91 54be a07f 62bd 9ba4 68be
00000250: ed23 8abe 0de4 b43d b61a 73be 7255 d7bd
00000260: bd9e 2fbe 18dd 6e3e 9e6b 41be ca71 f8bd

encoder_blocks.0.bias f4 [12]
-0.16512345 0.043168735 0.25608313 -0.12177582 0.26486492 -0.2370932 0.04992175 0.09914393
0.061751448 -0.0806296 0.018437158 0.09883456
00000000: 1f16 29be b3d1 303d 541d 833e 9a65 f9bd
00000010: 609c 873e 8fc8 72be c07a 4c3d f90b cb3d
00000020: 16ef 7c3d 2221 a5bd 8609 973c c669 ca3d

encoder_blocks.1.0.weight f4 [12, 12, 13]
-0.013801081 0.05338692 0.06748694 -0.02596904 -0.047558203 0.055986673 -0.045165326 0.01918261
-0.048145916 -0.025206879 -0.034398463 0.05258004 0.01070606 0.058284864 -0.047828473 -0.01882717
-0.050225478 0.015175034 0.007612921 -0.051602054 -0.022911886 -0.07052369 -0.022324635 -0.020952461
-0.044996295 0.043611728 -0.0046522673 0.06709591 -0.003180625 0.0059964918 -0.056623787 -0.0688527
0.0757792 -0.08069438 0.060212053 -0.013299056 0.051617462 0.081880234 0.07095591 -0.08041427
0.0374644 -0.064033374 0.031650044 0.03209869 0.067048535 0.058723588 0.019514397 -0.059346545
-0.00039553834 -0.07934773 -0.066822626 0.06162719 0.007837974 0.04505685 0.002942199 -0.06950488
0.07063741 0.04362206 -0.02310458 0.00959658 0.0063932003 -0.009870219 -0.055739574 0.020019853
-0.019683512 0.040748123 -0.034791425 0.027740099 0.010716804 -0.04669292 -0.05769447 -0.0507808
0.060740177 -0.07007431 0.04256649 0.07382578 0.029710144 -0.046672255 0.033859346 -0.07910514
0.0037232875 0.050235312 0.079234205 -0.048471153 -0.064810775 0.015046478 -0.047662262 0.013730736
0.057486475 0.06729975 0.021252772 -0.044462815 0.001149158 -0.031529527 -0.047683276 -0.017641643
-0.033800013 -0.05526646 0.06515316 0.05063538 -0.06775158 -0.007736794 -0.019990966 0.0016603224
0.067914814 -0.026433447 0.0043069115 -0.07522339 0.029295908 -0.046682175 0.02241968 -0.032944433
-0.0093429545 0.043481845 0.036502674 0.056983687 0.06842012 -0.016453011 -0.032350272 -0.020657245
0.008409478 0.033941045 -0.044290733 -0.076136984 -0.06941752 -0.012439842 -0.019710427 -0.016071195
-0.03174223 -0.060909603 -0.030427055 0.008747999 -0.06917256 0.020711236 -0.035071477 0.06732381
-0.017073 0.0045503457 -0.040876083 -0.007968323 -0.0621764 -0.03995718 -0.019001374 -0.023060188
0.04343337 -0.020988788 -0.016728802 0.063144654 -0.06787161 0.020259518 -0.03829313 0.02777697
0.036311667 -0.04096545 0.04396667 -0.07405578 -0.03123779 0.04093322 -0.06506622 0.044440683
0.03128083 -0.07305356 -0.060230933 0.042241704 0.07558223 0.06756813 -0.049737178 0.053862687
0.05883741 -0.07413725 -0.058749907 0.042784322 0.06925203 0.058267742 0.06466036 0.037399374
0.07668806 0.02373961 -0.009660783 0.030359767 -0.060293645 0.06870958 -8.342481e-05 0.009224211
0.07935072 0.072242096 0.0021582705 -0.03420182 -0.05047547 -0.04721447 0.044857696 -0.03130559
-0.066074714 0.03285355 0.084819295 0.009925083 0.011416337 0.016533902 0.026299128 0.017104222
-0.03502157 -0.063548654 -0.023717677 0.025933173 -0.031514116 0.08062922 -0.026568996 0.07448125
-0.039283376 -0.05378483 -0.036736034 -0.062332775 0.01079114 -0.0064797555 0.048941225 -0.06879346
0.0018614233 -0.024232244 0.049489748 -0.0108217355 0.017811777 0.06748894 0.0021007727 0.0044881883
0.049622156 0.006488063 0.00991359 0.00612277 0.026655262 0.04427376 -0.018871302 -0.043706823
-0.02770234 0.039641023 0.026640987 -0.027159523 0.07065757 -0.06511935 -0.0551707 0.07375769
0.02874257 0.050687045 0.0078103305 -0.0699438 -0.010812136 0.017163903 -0.045807738 -0.07333988
-0.030722167 -0.029279936 0.052325424 0.068424545 -0.058806904 0.0067182565 -0.013886292 0.00020314544
00000000: ee1d 62bc 3eac 5a3d 9836 8a3d 06bd d4bc
00000010: 64cc 42bd 4852 653d 47ff 38bd d924 9d3c
00000020: a734 45bd a87e cebc 67e5 0cbd 2b5e 573d
00000030: 7868 2f3c 1cbc 6e3d cae7 43bd 703b 9abc
00000040: 3bb9 4dbd b5a0 783c cf75 f93b ad5c 53bd
00000050: b5b1 bbbc b96e 90bd 27e2 b6bc 7fa4 abbc
00000060: 094e 38bd 36a2 323d 0c72 98bb 9569 893d
00000070: 0872 50bb 387e c43b 58ee 67bd a502 8dbd
00000080: 2032 9b3d 1843 a5bd eaa0 763d 49e4 59bc
00000090: d56c 533d d3b0 a73d 5551 913d 3db0 a4bd
000000a0: 4574 193d ee23 83bd 7aa3 013d ea79 033d
000000b0: be50 893d 2588 703d a8dc 9f3c 5d15 73bd
000000c0: 4260 cfb9 1081 a2bd 4dda 88bd cb6c 7c3d
000000d0: d86a 003c 888d 383d e8d1 403b 9358 8ebd
000000e0: 59aa 903d 0cad 323d d145 bdbc f93a 1d3c
000000f0: 0d7e d13b b3b6 21bc 2e4f 64bd ad00 a43c
00000100: 513f a1bc 81e7 263d 7481 0ebd 343f e33c
00000110: 8995 2f3c 1341 3fbd 0951 6cbd 87ff 4fbd
00000120: b1ca 783d 1f83 8fbd 335a 2e3d f831 973d
00000130: b062 f33c 682b 3fbd 19b0 0a3d e001 a2bd
00000140: 6602 743b 8bc3 4d3d 8b45 a23d b089 46bd
00000150: 83bb 84bd 8185 763c 8139 43bd e2f6 603c
00000160: f076 6b3d 74d4 893d 4b1a ae3c a41e 36bd
00000170: 589f 963a 1b25 01bd 8a4f 43bd 3585 90bc
00000180: e271 0abd 155f 62bd 056f 853d 0b67 4f3d
00000190: 57c1 8abd ef84 fdbb 18c4 a3bc 2d9f d93a
000001a0: ec16 8b3d f58a d8bc fe20 8d3b b80e 9abd
000001b0: f9fd ef3c cf35 3fbd 7aa9 b73c bef0 06bd
000001c0: 3113 19bc 051a 323d d483 153d ba67 693d
000001d0: d91f 8c3d 77c8 86bc b881 04bd 6239 a9bc
000001e0: e8c7 093c c405 0b3d 336a 35bd b5ed 9bbd
000001f0: c62a 8ebd 7bd0 4bbc c377 a1bc bda7 83bc
00000200: 2404 02bd 597c 79bd 2942 f9bc c453 0f3c
00000210: 58aa 8dbd 9caa a93c 1ca7 0fbd 11e1 893d
00000220: addc 8bbc 111b 953b ae6d 27bd 928d 02bc
00000230: aeac 7ebd 24aa 23bd c5a8 9bbc b8e8 bcbc
00000240: 30e7 313d aef0 abbc d70a 89bc fc51 813d
00000250: 4500 8bbd 4af7 a53c 42d9 1cbd 878c e33c
00000260: 8bbb 143d 63cb 27bd 6516 343d 8faa 97bd
00000270: 65e6 ffbc 98a9 273d 7041 85bd 6f07 363d
00000280: 5420 003d 1b9d 95bd b6b4 76bd a305 2d3d
00000290: dbca 9a3d 2961 8a3d 36b9 4bbd 1f9f 5c3d
000002a0: 7fff 703d 45d5 97bd bea3 70bd 9d3e 2f3d
000002b0: 02d4 8d3d 28aa 6e3d a76c 843d 1630 193d
000002c0: a10e 9d3d 9279 c23c 4348 1ebc 0cb5 f83c
000002d0: 78f6 76bd 9cb7 8c3d 5bf4 aeb8 2521 173c
000002e0: a182 a23d aaf3 933d c571 0d3b 3517 0cbd
000002f0: 5ebf 4ebd f663 41bd b4bc 373d 4a3a 00bd
00000300: 2e52 87bd 7291 063d bdb5 ad3d d19c 223c
00000310: 970b 3b3c 1b72 873c 4571 d73c 271e 8c3c
00000320: c772 0fbd cc25 82bd 934b c2bc ce71 d43c
00000330: f214 01bd ef20 a53d 39a7 d9bc a089 983d
00000340: 9be7 20bd 7b4d 5cbd 8678 16bd a750 7fbd
00000350: 52cd 303c 2154 d4bb 9876 483d 96e3 8cbd
00000360: 00fb f33a b382 c6bc c3b5 4a3d a64d 31bc
00000370: 01ea 913c a437 8a3d 1ead 093b a711 933b
00000380: 9a40 4b3d d199 d43b 9c6c 223c 84a1 c83b
00000390: 235c da3c 6758 353d fd97 9abc ed05 33bd
000003a0: 05f0 e2bc a05e 223d 333e da3c a67d debc
000003b0: ebb4 903d 4b5d 85bd acfa 61bd 460e 973d
000003c0: 8a75 eb3c 389d 4f3d cded ff3b b23e 8fbd
000003d0: 6325 31bc 509b 8c3c e5a0 3bbd 3833 96bd
000003e0: 0ead fbbc 7adc efbc 2f53 563d 2b22 8c3d
000003f0: 82df 70bd d224 dc3b 5583 63bc 7003 5539

encoder_blocks.1.0.bias f4 [12]
0.01855788 -0.00051780476 -0.060284756 0.06221359 -0.085924424 0.021620234 -0.033193428 -0.022375751
0.052858207 0.08183377 0.06766225 0.02936497
00000000: b206 983c 4abd 07ba 26ed 76bd add3 7e3d
00000010: 25f9 afbd eb1c b13c d5f5 07bd 5a4d b7bc
00000020: d981 583d 7798 a73d 8192 8a3d ce8e f03c

encoder_blocks.1.2.weight f4 [12, 12, 13]
0.055695232 -0.050406523 0.04748474 0.08071223 0.0486479 0.03639884 0.008253036 -0.0006274851
-0.012532226 -0.031148443 -0.0056293034 -0.009362454 0.061828017 -0.057707608 0.016190177 -0.010949694
0.0020781267 0.04554765 0.07472848 -0.067789845 0.079769485 -0.05698449 0.0806417 -0.014257118
0.055618234 0.057908326 -0.05118222 -0.07574636 0.044555023 0.012904701 -0.01362949 -0.034061998
-0.077337995 -0.054286096 0.06971586 0.028448071 0.052553155 -0.037298724 0.039032064 0.010739287
-0.030561347 -0.0081734415 0.03375118 -0.0183458 0.05145408 0.0061954064 -0.046786297 0.013527309
0.017227761 -0.06289059 -0.0608633 0.07123079 0.06288913 0.015053201 -0.055122674 -0.045738768
0.0149268815 -0.00797425 0.0061838226 0.07091609 0.028847309 -0.016912736 -0.055997342 0.004661627
0.025129303 0.06843642 -0.037488975 -0.06615092 0.013934869 -0.06107224 0.059789095 -0.02366896
-0.07302204 -0.07449982 -0.008726275 0.04153427 -0.03590428 -0.006299314 -0.010920521 0.04008589
0.03550748 -0.03009944 0.009253156 0.030870853 -0.0068229153 -0.014508608 0.02200781 0.0140937185
-0.05979092 0.04574295 -0.030305814 0.072442204 0.000599498 0.039740276 0.01793726 0.07360066
-0.0033197608 0.014039522 -0.0761949 0.02343074 0.011247214 -0.047626577 -0.07144529 0.07877471
-0.072351836 0.04445922 -0.010626339 -0.010379784 -0.06885605 0.028849002 0.03333454 0.025688225
-0.026106745 0.027551996 -0.031437654 0.030096186 0.0018008254 0.055477045 -0.024803748 -0.0035776962
-0.0629996 0.04580291 0.07264039 0.062897645 -0.079265624 0.059714112 -0.013154531 -0.006452841
0.039561797 0.04178051 -0.04037632 -0.023655944 0.05878531 -0.058085673 0.041893598 -0.04004903
-0.053103898 0.078618705 -0.051999524 -0.033998888 0.0753741 -0.05290103 0.070389405 -0.07427698
-0.021875856 -0.022762751 0.080004245 0.029341009 -0.032198552 0.067436054 0.023260253 0.07012881
0.028187644 0.061645623 0.076325856 -0.035091806 0.0003118155 -0.007999484 -0.06196104 -0.067070976
-0.015064544 -0.07912517 0.022441618 -0.04986512 -0.022436518 0.037190624 0.049378406 -0.02124511
-0.031585973 -0.07872258 -0.025449255 0.020538148 -0.010230633 0.0613541 0.08600573 0.011622539
0.04172317 0.07180735 0.005421997 -0.080325566 0.06123082 -0.067065895 -0.047925618 0.015892737
0.063826084 0.030244315 -0.010836658 0.057526276 -0.08021969 0.07875734 -0.0114322305 0.030508649
-0.0122744925 0.07558014 0.0061581787 -0.033301875 0.0064666886 -0.003927237 0.05218211 -0.03287376
-0.060700558 0.0034543818 -0.06523208 -0.04760678 0.06973725 0.037197795 -0.058012463 0.01145008
0.051275842 -0.031208212 -0.0016802388 -0.054614186 -0.03821222 0.07509425 -0.0640971 0.08120859
-0.00965073 -0.02540199 0.02261274 0.03364773 -0.03579753 0.06877731 0.060070068 -0.0012179349
-0.026555004 -0.07406733 0.047331218 0.03457398 -0.06545412 0.07413709 0.05246029 0.04257436
-0.07056839 0.06730381 -0.0139159355 0.0049302974 -0.043848474 -0.0068484833 -0.024843337 0.009677166
0.063032754 -0.05523139 0.016205905 0.015931798 0.028177325 0.037020165 -0.07620502 0.021801088
-0.018709278 0.05181112 0.023344569 -0.05597405 0.037404284 0.06904574 -0.057676062 -0.0583928
00000000: af20 643d 1277 4ebd 5c7f 423d 744c a53d
00000010: 0543 473d f316 153d be37 073c d07d 24ba
00000020: f753 4dbc 052b ffbc 0576 b8bb fa64 19bc
00000030: 603f 7d3d d05e 6cbd 43a1 843c 5866 33bc
00000040: 2e31 083b 2c90 3a3d 3f0b 993d 67d5 8abd
00000050: 2f5e a33d 9268 69bd 7a27 a53d b096 69bc
00000060: f2cf 633d 4831 6d3d 73a4 51bd e820 9bbd
00000070: 547f 363d 3d6e 533c 394e 5fbc 9884 0bbd
00000080: 6263 9ebd 195b 5ebd 30c7 8e3d ee0b e93c
00000090: fa41 573d 8cc6 18bd 16e0 1f3d d6f3 2f3c
000000a0: ca5b fabc e6e9 05bc ad3e 0a3d ee49 96bc
000000b0: 83c1 523d d602 cb3b fda2 3fbd a5a1 5d3c
000000c0: 3c21 8d3c c8cc 80bd cc4b 79bd 73e1 913d
000000d0: 04cc 803d b3a1 763c 50c8 61bd 9358 3bbd
000000e0: e18f 743c 6ea6 02bc aaa1 ca3b 743c 913d
000000f0: 3151 ec3c 948c 8abc 785d 65bd 90c0 983b
00000100: f8db cd3c 6528 8c3d 0a8e 19bd 227a 87bd
00000110: 144f 643c e326 7abd 69e5 743d 68e5 c1bc
00000120: 948c 95bd 5d93 98bd a6f8 0ebc d71f 2a3d
00000130: 5e10 13bd 7a6a cebb fceb 32bc 1a31 243d
00000140: 4b70 113d 1a93 f6bc 8d9a 173c dfe4 fc3c
00000150: c392 dfbb 83b5 6dbc b949 b43c 57e9 663c
00000160: 53e7 74bd f65c 3b3d e643 f8bc 945c 943d
00000170: a127 1d3a b3c6 223d 29f1 923c f1bb 963d
00000180: 5890 59bb 0606 663c 120c 9cbd d3f1 bf3c
00000190: 3c46 383c 1614 43bd e951 92bd a354 a13d
000001a0: 332d 94bd df1a 363d 191a 2ebc f80f 2abc
000001b0: 6704 8dbd be54 ec3c cc89 083d 1d70 d23c
000001c0: d0dd d5bc b9b4 e13c c5c4 00bd 478c f63c
000001d0: ac09 ec3a e63b 633d 3b31 cbbc c877 6abb
000001e0: ef05 81bd d59b 3b3d 7cc4 943d 7bd0 803d
000001f0: 0456 a2bd c996 743d 1a86 57bc 5b72 d3bb
00000200: 8d0b 223d 0a22 2b3d a461 25bd 1cca c1bc
00000210: ddc8 703d 3eeb 6dbd 9f98 2b3d 740a 24bd
00000220: 7983 59bd d802 a13d 74fd 54bd 6b42 0bbd
00000230: bc5d 9a3d c0ae 58bd 5228 903d 871e 98bd
00000240: ff34 b3bc f378 babc 44d9 a33d 8e5c f03c
00000250: a1e2 03bd ea1b 8a3d 498c be3c b29f 8f3d
00000260: c6e9 e63c 1f80 7c3d bb50 9c3d 6dbc 0fbd
00000270: 2b7b a339 4510 03bc dcca 7dbd 825c 89bd
00000280: 47d1 76bc 610c a2bd 7cd7 b73c 5e3f 4cbd
00000290: cacc b7bc 3255 183d 0341 4a3d 3a0a aebc
000002a0: 4b60 01bd 4e39 a1bd f57a d0bc 9e3f a83c
000002b0: 639e 27bc 704e 7b3d c623 b03d 766c 3e3c
000002c0: eae5 2a3d bb0f 933d 02ab b13b bb81 a4bd
000002d0: 2bcd 7a3d d859 89bd a74d 44bd 7c31 823c
000002e0: 40b7 823d edc2 f73c 3d8c 31bc aca0 6b3d
000002f0: 394a a4bd 874b a13d 404e 3bbc 46ed f93c
00000300: f41a 49bc c3c9 9a3d 8cca c93b 8c67 08bd
00000310: 84e6 d33b 0db0 80bb e8bc 553d a3a6 06bd
00000320: 26a1 78bd e962 623b 6698 85bd 54ff 42bd
00000330: 67d2 8e3d b75c 183d 7a9e 6dbd 1e99 3b3c
00000340: 9e06 523d 5da8 ffbc 753b dcba 20b3 5fbd
00000350: 6b84 1cbd 04cb 993d 5745 83bd b050 a63d
00000360: 181e 1ebc d617 d0bc 5a3e b93c 34d2 093d
00000370: 6ea0 12bd 1edb 8c3d 080c 763d 1da3 9fba
00000380: e189 d9bc 9db0 97bd 61de 413d 729d 0d3d
00000390: cf0c 86bd 30d5 973d 9ae0 563d 7462 2e3d
000003a0: 2986 90bd 94d6 893d aaff 63bc 558e a13b
000003b0: 759a 33bd 3e69 e0bb 4184 cbbc fa8c 1e3c
000003c0: 5117 813d 4f3a 62bd 3fc2 843c 6783 823c
000003d0: 22d4 e63c 75a2 173d 6111 9cbd 3298 b23c
000003e0: 3344 99bc e637 543d 1c3d bf3c 0c45 65bd
000003f0: 3c35 193d da67 8d3d bc3d 6cbd 4a2d 6fbd

encoder_blocks.1.2.bias f4 [12]
-0.0010894526 -0.00013449664 0.07178858 0.029052181 0.021996208 -0.039894447 -0.04626684 -0.07286895
0.040755935 0.047217615 0.061047416 -0.012872814
00000000: f7cb 8eba ab07 0db9 e405 933d d7fe ed3c
00000010: 6431 b43c 5c68 23bd 4c82 3dbd 513c 95bd
00000020: b2ef 263d 4267 413d db0c 7a3d 7fe8 52bc

encoder_blocks.2.0.weight f4 [12, 12, 13]
0.07555424 -0.014216229 0.027447555 0.049197648 0.0072959764 0.03435656 0.0769524 0.036568712
0.01999185 -0.078632176 0.045296095 -0.06963818 0.05299229 -0.0723159 0.06690349 -0.03777767
-0.006062371 0.014221479 -0.06736374 -0.020867938 0.043809757 -0.07701269 0.03174399 -0.00048685717
0.042262364 -0.06327231 0.04701082 -0.03950134 -0.068223566 -0.043996993 0.03550976 0.0007542808
-0.06072869 -0.032029033 0.02255959 -0.049134403 0.010457786 0.004057164 0.060838446 0.037562057
-0.08156124 -0.011647964 0.05890163 0.033279095 0.01559246 -0.00095307693 -0.03239995 -0.059433233
0.079619 0.011609747 0.008219826 0.046388958 0.04376028 -0.025371617 0.041187987 0.01118737
0.024284165 0.061935995 0.051963717 -0.07019357 -0.009424607 0.030854711 0.06264361 0.021372825
0.0025512136 -0.026352415 0.021556104 0.014627618 -0.06662782 -0.07028639 -0.07457977 -0.028580042
0.064686626 0.025548248 -0.07662705 -0.0011674736 -0.040364847 0.060906276 0.042282302 -0.0036286064
-0.010055727 0.001050376 -0.0023769776 -0.00047334697 0.018934127 -0.042171028 -0.035206135 -0.06336692
-0.034563046 0.0064607337 0.049097355 -0.045001496 -0.073520534 0.056248263 -0.008882758 -0.048900798
0.02253931 -0.01312927 -0.025661409 0.076588355 -0.05485234 0.017170718 0.046738055 -0.042562313
-0.018585138 -0.045749247 0.022708379 -0.057450905 0.06955189 0.07649643 -0.030105123 0.05417726
-0.070662476 -0.008787306 0.03264523 -0.062079277 -0.042004626 -0.035833135 0.008322087 -0.009009325
-0.0637689 0.07559419 -0.07267736 0.042570736 -0.016053302 -0.062277306 0.015344854 -0.039259564
-0.036311116 -0.049984526 -0.07126485 -0.062797144 -0.07370502 -0.007912391 0.01844084 0.026149657
0.06852428 0.0015229726 -0.0005602574 0.06274835 0.040424973 0.028196406 -0.055675827 0.005955044
-0.066160694 -0.054993298 0.06918859 -0.06733555 -0.053453367 0.0054466883 0.022688061 -3.084267e-06
0.01725902 0.077311106 -0.05371615 0.057408065 0.055851065 -0.03901412 0.00722825 0.050514597
-0.036305223 0.035557542 -0.015277145 -0.009803502 0.017766226 0.0017054938 0.040866524 0.06916571
-0.034963544 0.08193083 0.043858178 -0.021464026 -0.04488095 -0.038886156 0.014483546 0.038163595
-0.021858579 -0.0020386467 0.060240045 0.042646512 -0.030484764 0.07641981 -0.0033433498 0.026063131
-0.044648457 0.04556159 0.0685033 0.00064394955 -0.021573758 0.01635214 -0.06011954 -0.022589862
0.029566629 -0.0030238153 0.06298123 0.06769148 0.06238112 0.060024496 -0.056164198 0.016493574
0.016923698 0.04413063 -0.025911896 0.028502623 -0.0044228416 0.06355505 -0.010094063 -0.014076942
0.018813955 0.0077743125 0.03197481 0.07348262 -0.058785878 0.053442426 0.006476713 -0.016095808
-0.051303297 -0.071619846 -0.07440486 0.030260535 0.054039158 0.015516036 0.04439604 -0.0035056982
-0.06811348 0.052737813 0.07567752 -0.060668226 -0.024720712 0.06650802 -0.029714318 -0.05650331
0.030487554 0.057073817 -0.071998924 0.035734177 0.029753167 -0.046190895 0.055823762 -0.066329286
-0.0068625766 0.002645808 0.050635844 0.03731116 -0.07616752 0.068458736 -0.04399067 -0.039376512
0.00021043436 -0.045120317 0.04276058 0.045854647 -0.020891545 -0.009073362 0.01468275 -0.036650717
00000000: 2ebc 9a3d 30eb 68bc b2d9 e03c 7983 493d
00000010: 1613 ef3b 77b9 0c3d 3899 9d3d 13c9 153d
00000020: f3c5 a33c e809 a1bd 6688 393d 769e 8ebd
00000030: 720e 593d 5c1a 94bd b204 893d c2bc 1abd
00000040: dba6 c6bb 3501 693c 00f6 89bd 3df3 aabc
00000050: dc71 333d d4b8 9dbd fc05 023d dd40 ffb9
00000060: 4d1b 2d3d ea94 81bd 6b8e 403d 28cc 21bd
00000070: ccb8 8bbd 3136 34bd af72 113d edba 453a
00000080: a6be 78bd e030 03bd e4ce b83c 2841 49bd
00000090: 2257 2b3c f5f1 843b bc31 793d acda 193d
000000a0: 9409 a7bd 1ad7 3ebc d642 713d a94f 083d
000000b0: 8477 7f3c e9d7 79ba cfb5 04bd 4370 73bd
000000c0: 490f a33d cf36 3e3c 73ac 063c 5902 3e3d
000000d0: fb3d 333d 23d8 cfbc bcb4 283d 3b4b 373c
000000e0: 96ef c63c 99b0 7d3d e8d7 543d a5c1 8fbd
000000f0: ab69 1abc 05c3 fc3c 4b4b 803d 1016 af3c
00000100: 4332 273b 05e1 d7bc 6d96 b03c ada8 6f3c
00000110: 2b74 88bd 50f2 8fbd 47bd 98bd b120 eabc
00000120: 6c7a 843d 8f4a d13c a5ee 9cbd ea05 99ba
00000130: 9c55 25bd dc78 793d 3530 2d3d eacd 6dbb
00000140: c7c0 24bc c5ac 893a 11c7 1bbb 8e2b f8b9
00000150: be1b 9b3c 87bb 2cbd 4f34 10bd 84c6 81bd
00000160: fb91 0dbd 90b4 d33b 4f1a 493d 7d53 38bd
00000170: ef91 96bd 9464 663d fd88 11bc 344c 48bd
00000180: 5ca4 b83c 261c 57bc e037 d2bc 5bda 9c3d
00000190: d9ac 60bd 9ba9 8c3c 6770 3f3d d255 2ebd
000001a0: dc3f 98bc 9063 3bbd ec06 ba3c a451 6bbd
000001b0: 3971 8e3d 29aa 9c3d 059f f6bc f9e8 5d3d
000001c0: 7db7 90bd a2f8 0fbc 01b7 053d d746 7ebd
000001d0: 0b0d 2cbd c4c5 12bd 5d59 083c d99b 13bc
000001e0: 4599 82bd 20d1 9a3d ded7 94bd a75e 2e3d
000001f0: 3782 83bc 7d16 7fbd fc68 7b3c a3ce 20bd
00000200: f7ba 14bd 93bc 4cbd 4ef3 91bd ca9b 80bd
00000210: a8f2 96bd f9a2 01bc 3f11 973c ce37 d63c
00000220: 7556 8c3d 7b9e c73a 3dde 12ba 3582 803d
00000230: a894 253d 26fc e63c 560c 64bd 8822 c33b
00000240: 427f 87bd a740 61bd bfb2 8d3d 39e7 89bd
00000250: ebf1 5abd 227a b23b 50dc b93c 4efb 4eb6
00000260: ca62 8d3c 4955 9e3d 7705 5cbd b824 6b3d
00000270: 16c4 643d 45cd 1fbd f5da ec3b 65e8 4e3d
00000280: c9b4 14bd c9a4 113d fe4c 7abc de9e 20bc
00000290: 7a8a 913c e08a df3a a863 273d c0a6 8d3d
000002a0: ef35 0fbd 5acb a73d a2a4 333d 53d5 afbc
000002b0: 16d5 37bd 1747 1fbd 654c 6d3c 6e51 1c3d
000002c0: c310 b3bc d19a 05bb 44be 763d 1cae 2e3d
000002d0: 2fbb f9bc fd81 9c3d 1a1c 5bbb 5982 d53c
000002e0: 4de1 36bd ca9e 3a3d 754b 8c3d b9ce 283a
000002f0: 73bb b0bc ecf4 853c e83f 76bd 600e b9bc
00000300: b735 f23c 342b 46bb 4efc 803d d5a1 8a3d
00000310: 5883 7f3d 3fdc 753d 6e0c 66bd 881d 873c
00000320: 91a3 8a3c 52c2 343d 2f45 d4bc 557e e93c
00000330: 7ced 90bb 2629 823d 9261 25bc f9a2 66bc
00000340: b91f 9a3c a9bf fe3b 05f8 023d 0e7e 963d
00000350: 76c9 70bd 72e6 5a3d 9b3a d43b 5bdb 83bc
00000360: 6823 52bd 6dad 92bd 9361 98bd f1e4 f73c
00000370: 2a58 5d3d f936 7e3c 9fd8 353d dbbf 65bb
00000380: 157f 8bbd 9b03 583d d1fc 9a3d 3f7f 78bd
00000390: 1783 cabc 5b35 883d 716b f3bc 0470 67bd
000003a0: 09c1 f93c 3cc6 693d 2c74 93bd 005e 123d
000003b0: eabc f33c aa32 3dbd 75a7 643d a6d7 87bd
000003c0: 77df e0bb 4b65 2d3b 8867 4f3d 96d3 183d
000003d0: b7fd 9bbd 1834 8c3d 902f 34bd 4449 21bd
000003e0: 0ba8 5c39 15d0 38bd b825 2f3d 15d2 3b3d
000003f0: bf24 abbc 70a8 14bc eb8f 703c 101f 16bd

encoder_blocks.2.0.bias f4 [12]
0.00053410465 0.04394388 0.005525327 0.08654539 -0.012365125 0.029659092 -0.073458 0.019820146
0.038218684 -0.066529356 0.051976804 0.06485305
00000000: 2803 0c3a 7ffe 333d cd0d b53b b63e b13d
00000010: 1897 4abc a0f7 f23c 2671 96bd dc5d a23c
00000020: 328b 1c3d 8b40 88bd a1e5 543d add1 843d

encoder_blocks.2.2.weight f4 [12, 12, 13]
-0.0142268045 0.06646842 0.045239124 0.0025839894 -0.057972807 0.0028507484 -0.030070571 -0.05945879
-0.019617233 -0.043492515 0.02359408 -0.04176655 0.06205957 -0.018831728 0.0125525035 0.05631802
0.03424428 0.03457753 -0.062005818 0.07741263 -0.025903163 -0.023273654 -0.06801068 0.038685244
0.055884205 -0.036309782 -0.027769133 0.058340427 -0.06506968 -0.025220752 0.015715675 0.045943838
-0.03626447 -0.045164254 0.074185416 -0.07167071 -0.04459612 0.04164815 -0.00073927414 0.023818934
-0.063718095 -0.04559678 -0.040089093 0.060254566 0.03325896 -0.020743757 -0.009950383 -0.013009199
0.0149030965 -0.052808557 -0.06621912 0.0635903 0.0024548844 -0.07114717 0.031117 -0.055335753
-0.017837618 -0.014909558 -0.05506017 -0.0014883429 0.009671569 -0.0076407716 -0.0038396344 -0.0069837123
0.015582092 0.051580857 -0.058422286 0.020890322 0.019364966 0.008088787 0.0021751798 -0.055375963
0.04325353 0.04856603 0.04708768 -0.050387338 -0.047833383 -0.012108353 0.02000898 -0.05180255
-0.036147777 0.003092978 0.042886976 0.03293964 0.04166593 0.014757647 -0.07519181 0.06284343
-0.050673135 -0.051337346 0.0087101925 -0.013722988 0.006366678 -0.024325171 0.042900626 -0.06291484
0.0059272693 0.042586572 -0.06644111 0.04692098 -0.048052266 0.05093902 0.06089173 -0.024381734
-0.022430098 -0.07096694 0.06546503 0.07013226 0.0028499109 -0.066410355 0.02262665 0.05969713
-0.029749306 -0.021976197 -0.06254481 -0.04672272 -0.015928518 -0.060012292 0.07336728 -0.0425723
0.023992168 0.079827555 0.035037268 -0.06453571 -0.015616704 -0.07600097 -0.06506249 -0.0013866009
0.021486098 0.052558426 -0.04246636 0.029612316 -0.01509889 0.031034958 0.041680392 -0.06753435
-0.019288633 0.014070969 0.048424065 -0.0004429835 0.053523388 -0.03829787 0.029202016 -0.051393967
-0.029555185 0.019591564 0.004295745 -0.07499227 -0.060897395 0.07540055 0.03397057 -0.029003892
-0.065575406 0.005526908 -0.010682379 -0.046598416 0.058868084 -0.046194885 0.07771093 -0.053297598
0.031714283 0.06868448 -0.018343043 0.04942278 0.0080130985 0.042784747 -0.010490801 0.035408545
-0.0048941765 -0.03356874 0.06366435 -0.008522601 0.06007963 0.0022466176 0.05836519 0.042980973
0.03345484 -0.02839034 -0.016631458 -0.05236225 0.050071668 0.012951589 0.009314815 -0.04878292
-0.011079148 0.009032186 -0.004469814 0.01718343 0.047054045 0.021802919 -0.027829615 0.008647024
0.07382281 -0.053947553 -0.025272217 -0.045258656 0.0733016 -0.066584304 0.07079471 -0.015160721
0.054104485 0.06621407 -0.019864172 0.04632645 0.024566239 0.03407158 -0.06852321 0.0056585805
-0.04296679 0.07094157 -0.03713818 -0.0007751882 -0.03364171 0.06985533 0.05398093 -0.05032216
0.059387013 0.03469395 3.3445656e-05 -0.039979752 0.003404826 0.05674954 0.015448737 -0.0035433029
0.0147122 0.071615726 0.02166744 0.055131987 0.02043077 -0.029751936 -0.024019068 -0.07584781
-0.028344132 0.017544318 0.016058052 -0.041719794 0.026141468 -0.045413494 0.064788066 -0.013065936
-0.020243084 -0.06104857 0.030209973 0.08116159 0.0030207797 0.04820226 0.013000708 -0.08058419
-0.08922379 -0.013966387 0.01343622 -0.052804686 -0.0076847607 0.047735963 -0.025744982 -0.08313717
00000000: 8b17 69bc 9820 883d a94c 393d 2658 293b
00000010: e574 6dbd 9fd3 3a3b 8f56 f6bc 0f8b 73bd
00000020: 52b4 a0bc 3525 32bd 5f48 c13c 6713 2bbd
00000030: 2d32 7e3d ff44 9abc 04a9 4d3c b9ad 663d
00000040: bb43 0c3d 2ba1 0d3d d0f9 7dbd 838a 9e3d
00000050: df32 d4bc 64a8 bebc 2f49 8bbd 6b74 1e3d
00000060: d6e6 643d 91b9 14bd 187c e3bc 5ff6 6e3d
00000070: 4143 85bd c09b cebc 29be 803c 9b2f 3c3d
00000080: 0e8a 14bd 27fe 38bd 86ee 973d 18c8 92bd
00000090: 6caa 36bd 4097 2a3d d9cb 41ba ed1f c33c
000000a0: a27e 82bd b0c3 3abd 7634 24bd 7ecd 763d
000000b0: 8c3a 083d d0ee a9bc ee06 23bc 8924 55bc
000000c0: 1e2c 743c c94d 58bd e49d 87bd a23b 823d
000000d0: 20e2 203b 9cb5 91bd 14e9 fe3c bea7 62bd
000000e0: 3220 92bc 3847 74bc c686 61bd 8014 c3ba
000000f0: 8075 1e3c 705f fabb 60a2 7bbb a0d7 e4bb
00000100: 084c 7f3c 7346 533d 354c 6fbd 2e22 ab3c
00000110: 47a3 9e3c d586 043c 768d 0e3b e8d1 62bd
00000120: 9d2a 313d 2ced 463d 03df 403d f462 4ebd
00000130: f0ec 43bd 1d62 46bc dfe9 a33c e92e 54bd
00000140: b10f 14bd 8fb3 4a3b 41aa 2f3d b7eb 063d
00000150: e5a9 2a3d 0fca 713c 2afe 99bd 0eb4 803d
00000160: a28e 4fbd 1c47 52bd 32b5 0e3c 62d6 60bc
00000170: 919f d03b 9545 c7bc 91b8 2f3d 7fd9 80bd
00000180: 8a39 c23b 426f 2e3d 4712 88bd 3730 403d
00000190: 74d2 44bd 6fa5 503d 9b69 793d 34bc c7bc
000001a0: 53bf b7bc 1d57 91bd 8812 863d 81a1 8f3d
000001b0: 92c5 3a3b 2702 88bd 865b b93c fa84 743d
000001c0: d1b4 f3bc 6d07 b4bc 7e17 80bd 5360 3fbd
000001d0: 867c 82bc 73cf 75bd 9641 963d 4b60 2ebd
000001e0: 398b c43c a17c a33d 3d83 0f3d 4c2b 84bd
000001f0: 34dd 7fbc 66a6 9bbd 7c3f 85bd 9bbe b5ba
00000200: 9d03 b03c 8147 573d 35f1 2dbd 8795 f23c
00000210: 5661 77bc 063d fe3c 0fb9 2a3d 734f 8abd
00000220: 3203 9ebc ec89 663c 5058 463d 3d40 e8b9
00000230: 573b 5b3d 3ade 1cbd 1139 ef3c 7b82 52bd
00000240: b71d f2bc 7d7e a03c 52c3 8c3b 8c95 99bd
00000250: 8c6f 79bd 9b6b 9a3d b924 0b3d 9299 edbc
00000260: 664c 86bd 111b b53b 2505 2fbc fbdd 3ebd
00000270: a91f 713d d936 3dbd e826 9f3d 954e 5abd
00000280: d6e6 013d 73aa 8c3d 2644 96bc 8a6f 4a3d
00000290: 5f49 033c 0f3f 2f3d 9ce1 2bbc 8d08 113d
000002a0: 545f a0bb 607f 09bd 7462 823d 61a2 0bbc
000002b0: 0f16 763d fd3b 133b 5610 6f3d d10c 303d
000002c0: f107 093d dc92 e8bc b23e 88bc cc79 56bd
000002d0: f317 4d3d e732 543c 2a9d 183c 99d0 47bd
000002e0: 5185 35bc bcfb 133c 8477 92bb 44c4 8c3c
000002f0: bebb 403d 099c b23c effa e3bc 3fac 0d3c
00000300: 6a30 973d 1cf8 5cbd ae07 cfbc 2461 39bd
00000310: 261f 963d 5a5d 88bd d1fc 903d ac64 78bc
00000320: aa9c 5d3d 3e9b 873d 30ba a2bc cec0 3d3d
00000330: 233f c93c a48e 0b3d e655 8cbd 9d6b b93b
00000340: f2fd 2fbd d049 913d 341e 18bd 0036 4bba
00000350: e4cb 09bd 5010 8f3d 1c1b 5d3d 9c1e 4ebd
00000360: cc3f 733d 3e1b 0e3d 0048 0c38 cfc1 23bd
00000370: 8023 5f3b 3572 683d b31c 7d3c c236 68bb
00000380: 700b 713c 44ab 923d ea7f b13c 14d2 613d
00000390: 6e5e a73c 55ba f3bc a3c3 c4bc 1956 9bbd
000003a0: f431 e8bc 1ab9 8f3c 2d8c 833c 60e2 2abd
000003b0: a226 d63c 8003 3abd 9baf 843d 8212 56bc
000003c0: d3d4 a5bc 110e 7abd e87a f73c 0c38 a63d
000003d0: 46f8 453b bc6f 453d ec00 553c 5309 a5bd
000003e0: f6ba b6bd 46d3 64bc 9723 5c3c ba49 58bd
000003f0: 72d0 fbbb c986 433d 24e7 d2bc d243 aabd

encoder_blocks.2.2.bias f4 [12]
0.038586155 0.0490175 -0.015311719 -0.029370131 0.004771298 0.037191093 0.08480511 -0.04719926
0.035495035 0.031756822 0.08916232 -0.05237817
00000000: 840c 1e3d 93c6 483d 01de 7abc a199 f0bc
00000010: 8c58 9c3b b055 183d 4dae ad3d 0354 41bd
00000020: 3e63 113d 7113 023d bc9a b63d 7e8a 56bd

encoder_blocks.3.0.weight f4 [12, 12, 13]
0.07204668 0.029587759 -0.014346006 -0.052252445 -0.013258651 0.044534046 -0.066567846 -0.042671576
-0.046977162 0.060662396 0.07874517 -0.047724772 -0.06341478 -0.056673266 0.06784648 0.028395131
0.044143997 0.020754505 -0.015619789 0.05201792 -0.07244867 -0.030564839 0.0013933536 -0.03653121
0.026906516 0.017884148 0.047452867 0.06484589 0.058614887 -0.012195608 0.01230255 -0.014298193
-0.042161465 0.008909207 -0.055358995 -0.014081414 0.0046151495 0.016719498 0.016378574 0.04567988
-0.045030363 0.024137842 -0.01195572 0.058468517 0.058789153 -0.03887497 -0.008265507 0.032098975
0.07458034 -0.04031544 0.026138166 -0.031202508 -0.06771625 0.041111007 -0.061291985 0.038599912
0.065163456 0.037204202 -0.056807056 -0.067644216 -0.0028863035 0.014950791 -0.031159675 0.016339451
-0.021037225 -0.07223899 -0.04385408 -0.024545122 0.062077533 -0.06572459 0.00029123048 0.08083087
0.0077041676 0.013142916 0.0045399214 -0.050871417 0.03831547 0.043750137 -0.046200693 0.0034570724
0.03568207 -0.043988775 -0.028670546 -0.037295684 -0.008821991 0.069844715 -0.07496922 0.018899674
-0.0018361405 -0.022810148 0.07623224 0.07873375 0.052669868 -0.0031843062 -0.06109455 -0.065686576
-0.009558183 0.049147252 0.03806874 0.020689964 0.057219423 0.012037872 0.059853707 -0.06505307
-0.027229792 0.031172685 -0.010228564 -0.05400556 -0.029129576 -0.005537855 0.051254213 -0.07478308
0.014615743 -0.06709704 -0.042450756 0.06570344 -0.04341709 -0.071076035 -0.019301688 0.06657463
-0.0060488437 -0.004136245 -0.050008643 -0.07733819 0.024360998 0.0037917334 0.008432843 -0.06625135
0.044588715 -0.053728342 -0.0032352712 -0.0742965 0.005847491 0.045573093 0.00887807 -0.017172731
-0.06403117 0.03778252 -0.030360695 0.008849828 -0.078632005 0.0738975 -0.024337241 0.0638473
0.0070425817 -0.031083755 0.03237064 0.081725776 -0.032286186 0.024929253 0.054124475 -0.015978673
0.012514478 0.02962296 0.060237274 -0.07684657 -0.027855566 -0.0372866 -0.05285267 0.080055326
0.07930193 -0.08182153 0.07590194 0.05743108 -0.06769126 0.08394749 0.010318188 0.049201313
0.04285367 -0.030578056 -0.07788411 -0.07822374 -0.008801164 0.030547254 -0.06857485 0.0027496766
0.05718366 0.06481248 -0.025385574 0.033157732 0.021239659 0.07699945 0.0066561727 0.022325179
-0.06692625 0.07435274 -0.027915966 0.06013499 -0.012399449 -0.0446486 -0.043353222 0.07728278
-0.038113512 -0.057961885 -0.0058026947 -0.058499165 0.02194574 0.047308948 0.0054256553 0.016942015
0.02153016 0.06190799 -0.026722858 0.06364806 -0.028965933 -0.017880676 -0.012726823 0.067741014
-0.031920325 0.05622789 -0.072372325 0.011406158 -0.04724743 0.07505417 -0.07264881 0.03543298
0.042593557 0.031057289 -0.007326724 0.061320532 0.013402759 -0.017840618 -0.030425776 0.03634935
-0.059072044 -0.025531087 0.061490342 -0.058041945 0.056334097 -0.036870465 0.025145782 -0.013784311
-0.008141623 -0.022517946 0.008276727 0.059375197 -0.042986736 0.048368514 0.0577439 0.03787349
-0.05562461 0.025203884 0.0054231687 -0.02894258 -0.010126118 0.025583973 0.048850883 0.010607954
0.0013332673 0.0020629354 0.012537166 -0.026308931 0.066300504 0.010805528 -0.0019841082 -0.078009605
00000000: 368d 933d 0762 f23c 830b 6bbc a906 56bd
00000010: d03a 59bc 5569 363d b954 88bd 64c8 2ebd
00000020: 206b 40bd 2279 783d 2645 a13d 0d7b 43bd
00000030: 9cdf 81bd 3a22 68bd 18f3 8a3d e89c e83c
00000040: 56d0 343d 5a05 aa3c 25ea 7fbc be10 553d
00000050: f85f 94bd 1d63 fabc 30a1 b63a c0a1 15bd
00000060: 0e6b dc3c c781 923c f05d 423d eccd 843d
00000070: 2a16 703d 16d0 47bc a290 493c f842 6abc
00000080: 80b1 2cbd ecf7 113c 1dc0 62bd bbb5 66bc
00000090: ae3a 973b 54f7 883c 5c2c 863c d31a 3b3d
000000a0: c271 38bd b9bc c53c ede1 43bc af7c 6f3d
000000b0: e5cc 703d 5c3b 1fbd 0d6c 07bc 377a 033d
000000c0: 94bd 983d ce21 25bd b51f d63c 679c ffbc
000000d0: d1ae 8abd 0464 283d 4e0d 7bbd f11a 1e3d
000000e0: 6b74 853d 6f63 183d 84ae 68bd 0d89 8abd
000000f0: 2328 3dbb 2af4 743c 9342 ffbc 50da 853c
00000100: 4256 acbc 09f2 93bd 56a0 33bd da12 c9bc
00000110: 0345 7e3d 9d9a 86bd 4bb0 9839 a88a a53d
00000120: 3e73 fc3b 6355 573c 9fc3 943b 8c5e 50bd
00000130: aff0 1c3d 5833 333d f03c 3dbd 0d90 623b
00000140: 5d27 123d 932d 34bd 7ede eabc 5cc3 18bd
00000150: 1d8a 10bc bf0a 8f3d 7689 99bd 7dd3 9a3c
00000160: a7aa f0ba 59dc babc a61f 9c3d 293f a13d
00000170: 5cbc 573d cbaf 50bb 473e 7abd af86 86bd
00000180: ed99 1cbc a14e 493d f8ed 1b3d 007e a93c
00000190: ea5e 6a3d 7f3a 453c 2929 753d 8b3a 85bd
000001a0: 0311 dfbc dc5d ff3c b595 27bc ef34 5dbd
000001b0: 26a1 eebc e576 b5bb f0ef 513d df27 99bd
000001c0: df76 6f3c 2c6a 89bd d8e0 2dbd 868f 863d
000001d0: 1ed6 31bd 5090 91bd 931e 9ebc 4858 883d
000001e0: 6135 c6bb 5789 87bb ddd5 4cbd 7c63 9ebd
000001f0: b790 c73c bb7e 783b e829 0a3c caae 87bd
00000200: a8a2 363d 4012 5cbd d806 54bb c328 98bd
00000210: 4f9c bf3b daaa 3a3d 5375 113c d4ad 8cbc
00000220: c622 83bd d8c1 1a3d feb6 f8bc defe 103c
00000230: d109 a1bd 9357 973d e55e c7bc 60c2 823d
00000240: 75c5 e63b 5ca3 febc 1497 043d d85f a73d
00000250: 853e 04bd 6f38 cc3c a0b1 5d3d b5e5 82bc
00000260: 8609 4d3c daab f23c 5cbb 763d bc61 9dbd
00000270: 5b31 e4bc d5b9 18bd 0b7c 58bd 0cf4 a33d
00000280: 0d69 a23d 0c92 a7bd 7a72 9b3d da3c 6b3d
00000290: b7a1 8abd a9ec ab3d 9e0d 293c 5187 493d
000002a0: 5487 2f3d d57e fabc b481 9fbd c533 a0bd
000002b0: c232 10bc 3c3e fa3c f970 8cbd eb33 343b
000002c0: 6a39 6a3d 68bc 843d 68f5 cfbc 67d0 073d
000002d0: cbfe ad3c e3b1 9d3d 061c da3b 4be3 b63c
000002e0: a110 89bd 4046 983d 06b0 e4bc 1b50 763d
000002f0: 0f27 4bbc 73e1 36bd 2693 31bd 6f46 9e3d
00000300: ea1c 1cbd 7169 6dbd 8824 bebb d29c 6fbd
00000310: 8dc7 b33c 07c7 413d b2c9 b13b fbc9 8a3c
00000320: 0560 b03c 3c93 7d3d e5e9 dabc ea59 823d
00000330: f749 edbc 7f7a 92bc 2a84 50bc cdbb 8a3d
00000340: e3be 02bd 374f 663d f137 94bd e5e0 3a3c
00000350: 8586 41bd 00b6 993d e6c8 94bd 2c22 113d
00000360: 9576 2e3d db6b fe3c 0415 f0bb 3d2b 7b3d
00000370: 3f97 5b3c 7d26 92bc 7a3f f9bc 0ee3 143d
00000380: 87f5 71bd 9226 d1bc 4cdd 7b3d 64bd 6dbd
00000390: 95be 663d 7c05 17bd 87fe cd3c 97d7 61bc
000003a0: 7164 05bc 8e77 b8bc 1c9b 073c 6833 733d
000003b0: dc12 30bd 101e 463d de84 6c3d 3c21 1b3d
000003c0: a2d6 63bd 6078 ce3c d6b4 b13b fd18 edbc
000003d0: 04e8 25bc 7b95 d13c dd17 483d fccc 2d3c
000003e0: 07c1 ae3a 5032 073b af68 4d3c d485 d7bc
000003f0: 8fc8 873d ab09 313c d007 02bb 80c3 9fbd

encoder_blocks.3.0.bias f4 [12]
-0.045635942 0.026008535 0.06966677 -0.016664514 -0.043433726 0.069343954 -0.015900105 -0.050117727
-0.014740432 -0.05867214 0.013114687 0.0010135149
00000000: c1ec 3abd da0f d53c 74ad 8e3d 0584 88bc
00000010: 90e7 31bd 3404 8e3d f040 82bc 3f48 4dbd
00000020: da81 71bc 3352 70bd fcde 563c ebd7 843a

encoder_blocks.3.2.weight f4 [12, 12, 13]
0.0062963516 -0.056555495 -0.012879737 0.053242594 -0.035879616 -0.06436924 0.033268712 -0.011526664
-0.05148737 -0.0025102056 -0.047164563 0.032842427 -0.007813429 0.026453843 -0.0031804114 -0.010628138
-0.030899394 -0.04316581 0.010047426 -0.065024905 0.058840845 -0.032515332 -0.008994584 0.06633867
0.03423956 0.04747026 -0.0009931875 -0.040601738 0.029907115 -0.06475331 0.026131868 -0.06713245
0.04991551 -0.053919163 -0.0038092104 0.07899227 0.0037418494 -0.0009219289 -0.038222093 -0.050731286
0.060477845 -0.0742312 0.0036746752 0.019470846 0.03906921 0.012461204 0.031050116 -0.031109603
-0.032367803 0.06821448 -0.068190575 0.004740194 0.06446269 0.06250272 0.048768375 -0.0030001174
-0.0045335614 -0.04661652 0.0068766167 0.04494946 0.066386364 -0.012352209 0.023790963 -0.025664123
-0.050185673 -0.03173015 -0.032612238 -0.07855975 0.07166803 -0.04189476 -0.02619816 0.0489434
0.070722505 0.05952877 0.07276128 0.01537814 0.059293345 -0.06380595 -0.020838909 -0.07252003
0.03522762 -0.063989624 -0.04027226 -0.05743056 -0.07321449 -0.0062530497 0.053626645 -0.07722208
-0.017093904 0.03294336 0.040333115 -0.0445342 0.014766343 -0.065600224 0.077941164 0.0361813
0.052737817 0.020392612 0.029262938 0.03883715 -0.019678261 -0.045712892 -0.03256037 0.008640803
0.044200376 -0.030259619 0.07117082 0.06560563 -0.02609221 0.072807126 0.0057218545 -0.026555175
0.019125663 0.06695326 -0.022851419 0.050545216 -0.0019436401 0.005984517 0.0011191961 0.03984725
0.07100199 0.01750284 0.037391238 -0.057658967 0.05772507 -0.009142509 -0.002312224 -0.0606934
0.070221625 -0.035123453 0.075858496 -0.018134216 -0.041746363 -0.0604163 -0.048648253 0.050412603
-0.054663472 -0.030362824 -0.014318578 -0.004193162 -0.0017818129 0.010709342 -0.079544626 0.013874268
0.042781018 -0.02215167 -0.051016044 -0.008809255 -0.063032255 -0.03412295 -0.014815621 0.00046357384
-0.025149819 0.029537177 -0.017240789 -0.026481654 0.0059716827 -0.04896127 0.045171145 0.018373068
-0.020650882 0.07594627 0.072986506 -0.023021441 0.071551755 0.018558566 0.01573798 -0.03927765
0.0562804 -0.014213658 0.04254734 0.021511426 -0.033377197 0.043518543 -0.07729749 -0.030881142
-0.07064784 0.0702924 -0.036814827 0.006795561 -0.041028183 -0.027997626 0.023546716 0.06749164
-0.048836693 -0.037018728 -0.028363883 0.01515031 -0.056394268 -0.022382103 0.06981857 0.054545455
0.0072447914 0.057137325 0.02628813 -0.014760792 0.009647571 -0.08048357 0.0024231588 -0.030293828
-0.049496006 0.035925567 0.07642794 -0.0098653985 0.0051658736 0.006461869 0.00985135 0.0385676
-0.040947832 -0.0057134745 -0.056727495 0.048626743 0.04907058 -0.055077907 -0.056585565 0.006114167
0.06409918 -0.023000766 -0.054481335 0.0044624177 -0.031270776 0.02218926 0.034011036 0.019782316
0.038294487 -0.03337685 0.04666815 -0.0034055342 -0.008407677 -0.046053704 -0.015719542 -0.048499096
0.027615556 -0.034484126 -0.051975057 -0.06822423 -0.07059349 -0.027514301 0.023066642 -0.043506186
0.024325222 -0.045984488 0.06588114 -0.005835068 -0.050444435 0.061472856 -0.057510458 -0.04448008
0.011449084 -0.0043935925 0.07781303 -0.01137317 0.07152666 0.010295406 0.07300198 0.053188697
00000000: a051 ce3b bca6 67bd 8805 53bc e814 5a3d
00000010: 81f6 12bd 05d4 83bd c644 083d 55da 3cbc
00000020: 6ce4 52bd 4382 24bb a12f 41bd c885 063d
00000030: e603 00bc bbb5 d83c 736e 50bb a421 2ebc
00000040: ba20 fdbc a2ce 30bd f69d 243c c72b 85bd
00000050: 1903 713d cc2e 05bd 055e 13bc 92dc 873d
00000060: c83e 0c3d 2d70 423d d82d 82ba 024e 26bd
00000070: c4ff f43c 629d 84bd 8012 d63c bd7c 89bd
00000080: 3574 4c3d 57da 5cbd f2a3 79bb b3c6 a13d
00000090: d139 753b 9aad 71ba c58e 1cbd 9ccb 4fbd
000000a0: 9eb7 773d 8706 98bd d2d2 703b 5381 9f3c
000000b0: 0907 203d 142a 4c3c d05c fe3c 91d9 febc
000000c0: 1a94 04bd 09b4 8b3d 80a7 8bbd a153 9b3b
000000d0: 0405 843d 6d01 803d 59c1 473d 9e9d 44bb
000000e0: 458e 94bb f7f0 3ebd 3e55 e13b ed1c 383d
000000f0: 93f5 873d eb60 4abc 44e5 c23c 913d d2bc
00000100: 7e8f 4dbd 79f7 01bd 6994 05bd efe3 a0bd
00000110: b0c6 923d d799 2bbd 869d d6bc e078 483d
00000120: f6d6 903d 71d4 733d de03 953d 98f4 7b3c
00000130: 94dd 723d b2ac 82bd 5cb6 aabc 6285 94bd
00000140: d64a 103d fe0c 83bd 86f4 24bd 4f3c 6bbd
00000150: 7bf1 95bd 62e6 ccbb 9da7 5b3d 9c26 9ebd
00000160: 8408 8cbc 9eef 063d 5634 253d 7e69 36bd
00000170: 88ee 713c 6959 86bd 9e9f 9f3d d832 143d
00000180: 9c03 583d 680e a73c d4b8 ef3c b413 1f3d
00000190: 4e34 a1bc 713d 3bbd 065e 05bd 2892 0d3c
000001a0: 740b 353d 05e3 f7bc 02c2 913d 3f5c 863d
000001b0: 55bf d5bc e71b 953d 657e bb3b 3d8a d9bc
000001c0: 6cad 9c3c ca1e 893d e632 bbbc 8008 4f3d
000001d0: bdc1 feba c419 c43b fdb1 923a df36 233d
000001e0: 7e69 913d 1e62 8f3c 8e27 193d cf2b 6cbd
000001f0: 1f71 6c3d 76ca 15bc ae88 17bb a599 78bd
00000200: 5bd0 8f3d 9cdd 0fbd b35b 9b3d 358e 94bc
00000210: 3cfe 2abd 1577 77bd 6443 47bd 727d 4e3d
00000220: cee6 5fbd 75bb f8bc 7898 6abc cb66 89bb
00000230: b88b e9ba 3c76 2f3c 4be8 a2bd e650 633c
00000240: 263b 2f3d 6b77 b5bc 33f6 50bd b254 10bc
00000250: 0e17 81bd 82c4 0bbd 38bd 72bc d40b f339
00000260: fe06 cebc f3f7 f13c 8e3c 8dbc 0ef0 d8bc
00000270: 1bae c33b 9d8b 48bd 6105 393d 1e83 963c
00000280: 0a2c a9bc b889 9b3d f379 953d 7697 bcbc
00000290: ba89 923d 2208 983c f0ec 803c 9ae1 20bd
000002a0: 4786 663d 67e0 68bc 1f46 2e3d bb38 b03c
000002b0: 87b6 08bd 8040 323d 254e 9ebd 73fa fcbc
000002c0: d1af 90bd 76f5 8f3d 25cb 16bd 4cad de3b
000002d0: 2b0d 28bd 475b e5bc 0be5 c03c 0f39 8a3d
000002e0: fc08 48bd f3a0 17bd 605b e8bc 0139 783c
000002f0: adfd 66bd ac5a b7bc 0afd 8e3d 0e6b 5f3d
00000300: b765 ed3b d408 6a3d 345a d73c 40d7 71bc
00000310: d810 1e3c 92d4 a4bd dccd 1e3b c32a f8bc
00000320: 53bc 4abd b026 133d 4086 9c3d 7ba2 21bc
00000330: 7d46 a93b 16be d33b 8f67 213c 0ff9 1d3d
00000340: eab8 27bd 1938 bbbb 175b 68bd d62c 473d
00000350: 3cfe 483d 5f99 61bd 44c6 67bd 5a59 c83b
00000360: 6e46 833d 1a6c bcbc d227 5fbd 7939 923b
00000370: c915 00bd 40c6 b53c 284f 0b3d 860e a23c
00000380: aeda 1c3d 2ab6 08bd 1a27 3f3d 622f 5fbb
00000390: 5ac0 09bc cfa2 3cbd 45c6 80bc fda6 46bd
000003a0: 053a e23c 3a3f 0dbd cce3 54bd 25b9 8bbd
000003b0: 5293 90bd ac65 e1bc 41f6 bc3c 8b33 32bd
000003c0: b045 c73c 3b5a 3cbd b1ec 863d 1934 bfbb
000003d0: d39e 4ebd f6ca 7b3d 1690 6bbd bf30 36bd
000003e0: f094 3b3c 20f8 8fbb 705c 9f3d 8856 3abc
000003f0: 927c 923d 10ae 283c 1082 953d 64dc 593d

encoder_blocks.3.2.bias f4 [12]
-0.07573533 -0.049459524 -0.07454175 -0.04332745 -0.033237267 0.025348727 0.0042472323 0.0054459646
-0.011112983 0.060131688 0.025546351 -0.011976307
00000000: 201b 9bbd 1296 4abd 58a9 98bd 2078 31bd
00000010: cd23 08bd 22a8 cf3c 5e2c 8b3b 1074 b23b
00000020: 3b13 36bc a54c 763d 9546 d13c 4638 44bc
