Python/save/localizer/trial_2/quake_localization_model_00200.pth (torch, 252994 bytes, 35 tensors)

encoder_blocks.0.weight f4 [12, 1, 13]
00000000: 3415 3e3e bb67 493e 0939 633e 6c73 ab3d
00000010: 03da 3c3e 97f4 d03d 7440 ddbd a15a 80bd
00000020: cccb 53be 61e9 4bbe 8f9c 45be c667 b13d
00000030: 430c b1bd 7d49 5abe 2a0b 7abe ee82 82be
00000040: 78a9 01be 8549 d83d 1724 2abe d4ac 8d3e
00000050: 430d 47be cfa9 a2bc afef 963d dc87 303e
00000060: 5e38 223e 6ff8 30bd 96d3 8e3d cf51 b6bd
00000070: a432 013d e822 8c3d 49fd 5ebe f88e 40be
00000080: d3a9 1f3e f41f 8bbd e780 d7bd 0707 e2bd
00000090: 2c59 e8bb 5311 e2bd ae06 7cbe b7b6 a13d
000000a0: 619e ed3c d205 54be ec84 9a3d b078 23be
000000b0: e3f9 0abe af6b ac3d 2bd7 103d 7c3f 173d
000000c0: 9c01 babd 604a 3c3b e9a0 863e 3615 80be
000000d0: 9c1c 5b3d cc6e 3c3d b564 b4bd 6cd8 c2bb
000000e0: 9110 14be 474e e9bd e65c 13be 9020 373e
000000f0: 2d23 0ebd 5b12 f73d 31cd 40bc 5ca3 08be
00000100: 8538 2bbe a4bf b2bd b39a 713e cb3c c63d
00000110: 6060 f2bc 3851 68bd 687a 9b3d 0829 623e
00000120: 8ce5 6fbe 83ac 9e3d b287 1b3e e659 4abe
00000130: e7c4 643e 10c0 2d3e 062c e9bd 31e2 d83c
00000140: 6661 fe3d ef5c d83d 9969 883d ad44 05bd
00000150: 54dc a7bd 0da9 783e f7e8 123e c9f2 123e
00000160: 0714 89be ccaa f53d 1ea3 1abe 82f1 c13d
00000170: 35ad c6bd 6301 4bbd fe63 da3d 1864 4fbe
00000180: 9874 8b3e feb6 4b3e 468e b2bd b041 0f3e
00000190: 74a3 2cbe c940 343c aa4c 5e3e a9bb 9c3c
000001a0: 8f66 30be d9ca 8cbc 1b20 2bbd c774 99bd
000001b0: 1ad2 2b3e 72a1 473e f64b 3f3e 3684 803e
000001c0: 8bdb 203e af68 3f3e fb42 673e 1b86 09be
000001d0: f550 1f3e c16f 863e 8a2f a9bd 6399 48be
000001e0: 9879 5dbe df41 6a3b 60e9 34be 4b03 4abe
000001f0: 7389 063e 1564 573e bd59 42be 4e1f 893e
00000200: 721c 583d 536c d73d 3e32 8f3e 63fc 5fbe
00000210: bd0a 8b3e 9f64 c13c 65d4 06bd fa2b 513e
00000220: d7c7 f43d 3a9b c63c 5007 21bd 9c27 52bd
00000230: 513e f0bb 17d1 d8bd a1e6 3bbe b961 963d
00000240: 340e 173e 5fcf 54be 8a83 61bd 28cf 68be
00000250: be18 8abe b809 b53d 576b 73be 8587 d6bd
00000260: 4033 30be c684 6f3e dac7 41be 8222 f8bd
0.18562776 0.19668476 0.22189726 0.08371624 0.1844254 0.10202902 -0.10803309 -0.06267286
-0.20683211 -0.19913246 -0.19298004 0.08662371 -0.08644917 -0.21317096 -0.24418321 -0.25490516
-0.12662303 0.10560898 -0.1661533 0.2767092 -0.19438653 -0.019856362 0.07369935 0.17239326
0.15841815 -0.043205675 0.069739506 -0.089023225 0.031542435 0.06842595 -0.21776308 -0.18804538
0.15592127 -0.06793204 -0.10522633 -0.110364966 -0.0070907082 -0.110384606 -0.24611923 0.07896178
0.029006185 -0.20705345 0.07544884 -0.15964007 -0.13571887 0.084189765 0.03536145 0.036925778
-0.09082338 0.0028730854 0.2629464 -0.25016183 0.05349408 0.0460041 -0.08808271 -0.0059462097
-0.14459445 -0.11391883 -0.14390907 0.17883515 -0.034701515 0.12064048 -0.011767671 -0.13343567
-0.16720779 -0.08727959 0.2359417 0.09679564 -0.02958697 -0.05671808 0.075917065 0.22085965
-0.23427409 0.07747748 0.15188482 -0.19760856 0.22340737 0.16967797 -0.1138535 0.026475044
0.12420921 0.10564601 0.06660766 -0.032536197 -0.08196321 0.24283238 0.14346682 0.14350428
-0.26773092 0.119954675 -0.15101287 0.09469892 -0.09701005 -0.04956187 0.10663603 -0.20253026
0.2723739 0.19894025 -0.08718543 0.13989902 -0.16859227 0.011001774 0.21708933 0.019132452
-0.17226623 -0.017186569 -0.041778665 -0.07492977 0.16779366 0.1949518 0.1868132 0.2510087
0.15708749 0.18692277 0.22584145 -0.13430063 0.15558226 0.26257136 -0.082610205 -0.19589762
-0.21628416 0.0035744829 -0.1766715 -0.19727819 0.1313837 0.21034272 -0.18979545 0.26781696
0.052761503 0.10518708 0.2796802 -0.21873622 0.2715663 0.02360755 -0.0329174 0.20426932
0.11952179 0.02424394 -0.039313614 -0.051307306 -0.0073316474 -0.10586756 -0.18349697 0.07342858
0.14751512 -0.20782231 -0.055057086 -0.22735274 -0.26972002 0.08839744 -0.23771416 -0.10475067
-0.1720705 0.23390493 -0.18923894 -0.12115957

encoder_blocks.0.bias f4 [12]
00000000: 1075 2abe 0ce3 2f3d 909c 833e 9dd3 f8bd
00000010: ff9b 873e 01fe 73be 9532 513d 10b5 cb3d
00000020: 01ee 7f3d b06a a5bd ac7b 913c 832f ca3d
-0.16646218 0.04294114 0.25705385 -0.12149737 0.26486203 -0.23827364 0.05107363 0.09946644
0.062482838 -0.0807699 0.017759167 0.098723434

encoder_blocks.1.0.weight f4 [12, 12, 13]
00000000: 8090 64bc 2f51 5b3d 2893 8a3d adcf d5bc
00000010: c48a 41bd abdb 663d 0da5 39bd 0795 9e3c
00000020: c656 46bd 5185 cebc d0b4 0fbd ed0b 583d
00000030: 110e 323c 82bd 6f3d 73e1 43bd 23b3 99bc
00000040: 9861 4dbd 6c9e 783c 57d4 ef3b 4d61 53bd
00000050: d823 c0bc e473 90bd d637 b4bc 5b6f a9bc
00000060: 9e79 38bd b404 333d f669 9bbb 825b 893d
00000070: cbc8 4cbb a8f7 c53b 9104 68bd e488 8dbd
00000080: 278a 9b3d 3f55 a6bd 8ed3 773d 908c 5abc
00000090: 077b 523d 1ba7 a73d ceaf 913d 0ce4 a4bd
000000a0: 88f1 183d a0a6 82bd da65 013d e688 043d
000000b0: f633 893d 8cb3 703d 72a8 9d3c a0db 72bd
000000c0: 6112 46b9 0ac3 a3bd 44e8 88bd 2d90 7d3d
000000d0: 3839 fe3b 672c 383d ebbb 293b f35a 8ebd
000000e0: 19fb 903d 6f75 313d 175a bbbc 9168 1e3c
000000f0: fbb7 ca3b 1b97 26bc f829 65bd 972a a33c
00000100: 6cdd a4bc 1ce7 263d 5e43 0fbd 7e7a e43c
00000110: 289e 323c 2f0b 40bd 3fee 6abd b753 50bd
00000120: 3436 783d 0381 8fbd 425c 2f3d fa69 973d
00000130: 7ff8 ef3c aeb9 3dbd 960c 0a3d 244a a2bd
00000140: 2ce0 7c3b a010 4d3d 1f90 a23d 76c0 44bd
00000150: 3254 85bd 10f1 743c 0168 44bd 1c38 603c
00000160: 263f 693d 722e 893d 4349 ae3c 46a1 36bd
00000170: 6bad 853a f255 00bd caf3 43bd d27b 92bc
00000180: b98f 09bd a4d0 62bd 842b 853d 9994 503d
00000190: 0c97 8abd aa53 05bc c518 a4bc ecde 083b
000001a0: 2e4b 8b3d ed26 d7bc d87b 823b e3f7 99bd
000001b0: 797b ef3c 803a 40bd e0de b73c 36ab 05bd
000001c0: 1af1 19bc f594 313d 11b0 173d 27aa 693d
000001d0: a729 8b3d 63f5 85bc e7de 03bd ef87 a8bc
000001e0: cec3 053c 7ee3 0b3d 7b8a 36bd 0502 9cbd
000001f0: a58c 8dbd bac0 4dbc ed9e a0bc 4442 85bc
00000200: f691 febc f6cf 79bd 959b fabc 8a42 113c
00000210: cc11 8dbd e184 a93c 40a1 0fbd 612b 8a3d
00000220: 1e6c 8bbc 7e56 8c3b 2185 26bd b87c 05bc
00000230: 0eb1 7fbd 1aeb 22bd 737d 98bc f0e9 bbbc
00000240: c325 323d 1080 adbc 8b99 88bc 673f 813d
00000250: 1321 8cbd e3ab a73c 1775 1dbd d8ef e43c
00000260: 5f6a 153d 1b5b 26bd d645 343d 72b5 97bd
00000270: ee41 00bd 952c 293d 9f96 85bd 8e3f 363d
00000280: e750 ff3c c995 95bd d7ec 77bd b8ff 2d3d
00000290: d5be 9b3d 7451 8a3d 574a 49bd a72f 5c3d
000002a0: 9111 703d 8b97 97bd 2e4f 72bd 67f7 2f3d
000002b0: 2260 8d3d e51d 6f3d f536 843d 1b24 1a3d
000002c0: 9b10 9d3d 0de3 c43c 8bb9 1dbc 020a f63c
000002d0: 8b76 7abd c5cd 8c3d 4720 8b39 c5df 133c
000002e0: 5a0f a33d 7720 933d b8af 1d3b ac1a 0dbd
000002f0: 4231 4ebd b186 41bd 03a2 383d abb9 00bd
00000300: b47a 87bd 1cee 043d 95a5 ae3d 5420 223c
00000310: 8b46 3b3c 21c2 873c 0ce4 d53c 3293 8c3c
00000320: 1084 0fbd 6240 82bd 998b c1bc bc9b d73c
00000330: 6ef4 01bd 947d a53d 1a47 ddbc a343 993d
00000340: 4f34 21bd 0790 5cbd d274 16bd 6752 7fbd
00000350: 3d6f 2f3c 2ebe dabb 8ae8 473d 68a9 8cbd
00000360: 51c5 bf3a b539 c1bc 36b8 4c3d aef2 31bc
00000370: 68b9 953c d0ec 893d 9f4b 093b 0f7d 943b
00000380: 0ff0 4a3d 276e d33b cc21 243c 5305 ca3b
00000390: eb06 d93c 3c94 363d 13b1 99bc 1590 34bd
000003a0: 8108 e1bc 3bd7 203d 6aea d93c 8a22 debc
000003b0: 1689 903d 2177 85bd f0b5 62bd 62fb 963d
000003c0: f2cb e83c 3af3 4f3d 68ec 0c3c c7fa 8ebd
000003d0: 116a 26bc d59d 8b3c 313f 3cbd 3721 96bd
000003e0: 0823 fbbc 71a0 efbc e5c7 553d 0560 8c3d
000003f0: d09b 70bd e205 d93b 45a1 64bc d97a 0d3a
-0.013950467 0.05354422 0.06766349 -0.026100004 -0.047251478 0.056361835 -0.04532342 0.019358171
-0.048422597 -0.025210055 -0.035084546 0.05274575 0.0108676115 0.058530338 -0.047822427 -0.018762177
-0.0501419 0.0151744895 0.007319014 -0.051606465 -0.023454592 -0.070533544 -0.02199928 -0.020682981
-0.04503786 0.043705657 -0.004742856 0.06706907 -0.0031247612 0.006041486 -0.05664498 -0.069108754
0.0759471 -0.08121728 0.06050449 -0.013339177 0.05138686 0.0818617 0.0711361 -0.08051309
0.037339717 -0.063794374 0.031591274 0.03235712 0.06699364 0.05876498 0.01924536 -0.059291482
-0.00018889598 -0.07996185 -0.06684926 0.061905075 0.007758286 0.04496422 0.0025899361 -0.06950941
0.07079143 0.043324884 -0.022870107 0.009668485 0.006186483 -0.010167862 -0.055948228 0.01991777
-0.020125113 0.040747747 -0.034976356 0.02789044 0.010901965 -0.046885666 -0.057356115 -0.050861087
0.060598567 -0.07007029 0.042812593 0.0739326 0.029293297 -0.046319656 0.03370341 -0.079242975
0.0038585765 0.050064683 0.07937645 -0.048035108 -0.065101996 0.014950052 -0.04795075 0.0136852525
0.05694499 0.06698312 0.021275168 -0.044587396 0.0010198777 -0.031331964 -0.047839917 -0.017881308
-0.03358433 -0.055374756 0.065024406 0.050922964 -0.06767091 -0.008137623 -0.020031342 0.0020884825
0.06801449 -0.026263678 0.0039820485 -0.07517984 0.029233681 -0.04693079 0.022445142 -0.032633983
-0.009395862 0.043354947 0.037033144 0.057047036 0.06795054 -0.016352361 -0.032194998 -0.02057263
0.008164359 0.0341525 -0.04456566 -0.07617573 -0.069115914 -0.012558157 -0.019607032 -0.01626695
-0.031075459 -0.060989343 -0.030591765 0.008865962 -0.0688816 0.020693244 -0.03506589 0.06746555
-0.017019328 0.0042827716 -0.040654305 -0.008147411 -0.062424712 -0.03977499 -0.018614506 -0.022938699
0.043493044 -0.021179229 -0.016674777 0.06310921 -0.06842246 0.020467704 -0.038441744 0.027946398
0.036478397 -0.04061423 0.044011913 -0.07407655 -0.031312875 0.041302282 -0.06522869 0.044494204
0.031166507 -0.0730396 -0.060528602 0.0424802 0.07604758 0.06753817 -0.04914316 0.053756382
0.058610503 -0.074019514 -0.059157543 0.04296055 0.069031015 0.05837812 0.06455795 0.03763209
0.07669183 0.024034047 -0.009626756 0.030034069 -0.061148208 0.06875185 0.00026536194 0.009025519
0.079619125 0.071839266 0.0024061035 -0.034449264 -0.050339945 -0.047247592 0.04507638 -0.031427067
-0.06615201 0.03245364 0.08527676 0.009895403 0.011430393 0.01657206 0.026109718 0.017160032
-0.035038054 -0.06359936 -0.023626136 0.026319377 -0.031727247 0.08080593 -0.027011443 0.07483604
-0.039356526 -0.053848293 -0.036732502 -0.062334444 0.010707674 -0.006675503 0.04880575 -0.06868249
0.0014630948 -0.023587087 0.049980365 -0.010861082 0.018276885 0.067346215 0.0020949615 0.0045315097
0.049545344 0.00645234 0.010017823 0.0061651855 0.026492557 0.04457496 -0.018761193 -0.04408272
-0.027469875 0.03926776 0.026601035 -0.027116079 0.07057397 -0.06516863 -0.05534929 0.07372166
0.028417561 0.05076907 0.0086012855 -0.06981426 -0.010157124 0.017043034 -0.0459587 -0.07330554
-0.030656353 -0.02925131 0.052192587 0.06854252 -0.058742344 0.0066230157 -0.013954465 0.0005397029

encoder_blocks.1.0.bias f4 [12]
00000000: ce07 943c 7f30 55ba a0b8 72bd c800 823d
00000010: f016 b0bd c171 c13c da8c 03bd f4f7 bbbc
00000020: 36c4 523d 3428 ab3d d940 8e3d d1ca f43c
0.018070128 -0.00081325317 -0.059258103 0.06347805 -0.08598125 0.023613812 -0.03211675 -0.022945382
0.051456653 0.083572775 0.069459625 0.029881867

encoder_blocks.1.2.weight f4 [12, 12, 13]
00000000: 9d6e 673d 527b 4dbd b208 433d a46e a53d
00000010: 6ae5 473d fba1 163d 84c0 0e3c 164d edb9
00000020: 9089 49bc 2eaf febc 5bae bfbb 0302 16bc
00000030: c9fc 7d3d e284 6bbd 628f 853c d907 2fbc
00000040: b421 103b b5ad 3a3d 7f52 993d 76e7 89bd
00000050: 1823 a43d 413b 69bd 5b7f a63d 2cc3 59bc
00000060: b4a5 643d 0dd5 6d3d 8aa4 51bd ae16 9bbd
00000070: 744c 363d 8d4e 553c 655f 5abc 90ab 0abd
00000080: 76bc 9dbd 86a3 5dbd f20b 8f3d 3e6b ea3c
00000090: 7290 583d 2406 19bd 1448 223d 4f47 353c
000000a0: 253e f9bc 305b 08bc 2ec7 083d 3e95 96bc
000000b0: a6b7 543d 3e26 d73b aae9 3fbd 0293 5a3c
000000c0: 2cb9 8b3c 7369 80bd dd0c 79bd 575d 923d
000000d0: d6e4 803d 3380 793c c6d1 60bd 4df6 39bd
000000e0: b167 783c a190 04bc 80aa c63b ec56 913d
000000f0: 93e5 ec3c 4404 88bc 730e 65bd cb44 9b3b
00000100: 207a d13c a2e4 8b3d d5d4 18bd c03b 87bd
00000110: e5fd 663c 178d 7abd e605 753d d988 c4bc
00000120: a4ec 94bd 524e 99bd 7fe5 0cbc 86c4 2a3d
00000130: 55a0 11bd 22b2 c6bb a4f9 2fbc 44d4 243d
00000140: b56e 113d f46f f7bc 291f 1d3c 8208 fe3c
00000150: 94ff dbbb c194 69bc 818a b33c 7880 693c
00000160: 0bd6 73bd ce94 3c3d f324 f8bc 11c9 943d
00000170: 8b60 593a 9e57 253d dbc3 983c 1726 973d
00000180: 090d 53bb 2383 663c 3072 9cbd cc87 c23c
00000190: 5c8e 393c d188 41bd efda 91bd 232d a33d
000001a0: d05f 93bd 8998 363d d516 2cbc 0a92 27bc
000001b0: 32fd 8cbd 6634 ec3c 572b 083d c2ed d43c
000001c0: fb18 d6bc 9048 e53c 1b59 00bd 81ce f93c
000001d0: 1eed 093b bbe2 653d 3e00 cdbc d943 78bb
000001e0: f3b2 81bd 99b0 3c3d eb6c 953d 1368 813d
000001f0: c91a a2bd 45f5 743d 2e2f 52bc 96a9 c8bb
00000200: c96a 223d 8020 2b3d 4983 25bd 93a3 bfbc
00000210: 7cd5 703d 711e 6ebd 517e 2b3d 8c5f 22bd
00000220: a9a2 58bd 2d0d a13d bccc 55bd 81e9 0abd
00000230: 11fd 9a3d fad8 56bd 0f78 8f3d 0d94 98bd
00000240: 2a37 b1bc 0390 b5bc 4488 a43d d6a1 f13c
00000250: 088f 03bd 582a 8a3d 9b6d c23c b50e 903d
00000260: adff e73c 835d 7d3d e5d5 9c3d 06f5 0dbd
00000270: efb9 33b9 690c 03bc 5223 7fbd 55c3 88bd
00000280: 2281 7abc 5856 a3bd 44ae b83c 6f71 4dbd
00000290: 6b07 bebc c08b 183d a5d4 493d 03e0 acbc
000002a0: 4b5a 01bd 6568 a1bd 67d6 d2bc 643a a33c
000002b0: ed82 24bc eb55 7b3d 12c8 b03d 13f9 363c
000002c0: e6e1 2a3d b160 933d cdf9 b33b 34a8 a4bd
000002d0: 07b8 7a3d b383 89bd 57b9 43bd 9a25 823c
000002e0: 2714 833d 4532 f53c 213e 34bc 3564 693d
000002f0: 0607 a4bd 77b8 a13d e121 43bc ce1b f83c
00000300: facb 49bc 2870 9b3d 888b cb3b 6c8a 08bd
00000310: 89e6 d03b 523e 7abb 37d7 553d 48c7 06bd
00000320: 9fc0 7abd 538b 5f3b fc94 85bd 64ff 43bd
00000330: 6642 8e3d 2a2e 183d 1888 6cbd 6bbf 423c
00000340: 1c8c 513d 6d24 00bd 9f41 06bb db24 62bd
00000350: 5360 1cbd a2b2 993d b9b0 83bd db13 a63d
00000360: 48dc 1ebc b453 cfbc 38be b93c da9b 0b3d
00000370: d4db 12bd ed33 8c3d a897 753d d35c b4ba
00000380: 21d2 dcbc cd91 97bd 03e0 413d 7f4c 0d3d
00000390: f754 86bd 7000 983d f073 573d b21a 2e3d
000003a0: 66a9 90bd acfd 893d 75f4 5cbc d0b1 a03b
000003b0: 04d9 32bd 5560 d9bb a182 cfbc 93c2 203c
000003c0: 6ffa 803d 7062 61bd 9a76 833c 54c1 823c
000003d0: 71dd e83c 6353 173d 5cab 9bbd a27f b03c
000003e0: 4b0c 99bc c0d4 533d e83a c03c 5f0f 67bd
000003f0: b3f6 173d 414f 8d3d 14bc 6bbd eefe 70bd
0.056501973 -0.050166436 0.047615714 0.08077744 0.04880277 0.03677557 0.0087128915 -0.00045261596
-0.012300864 -0.031089392 -0.005849642 -0.009155753 0.062008653 -0.057499774 0.016303722 -0.010683023
0.0021992745 0.045575816 0.07486438 -0.06733601 0.08014506 -0.056941275 0.0812976 -0.0132911615
0.05582209 0.05806451 -0.051182307 -0.07572685 0.044506505 0.013019216 -0.013328408 -0.03385502
-0.07701962 -0.054111026 0.069847 0.02861559 0.05287213 -0.03735937 0.03961952 0.011064365
-0.03042514 -0.008322522 0.033393078 -0.018381711 0.051932953 0.006565838 -0.0468537 0.013340713
0.01705607 -0.06270113 -0.060803283 0.071467094 0.06293647 0.015228319 -0.054887556 -0.045400906
0.015161441 -0.008091123 0.0060628057 0.07096657 0.028918063 -0.016603597 -0.055921983 0.0047384254
0.025570929 0.068307176 -0.037312347 -0.06603193 0.014098619 -0.06116971 0.05982008 -0.023991035
-0.07271698 -0.074856415 -0.008599638 0.041691326 -0.035553295 -0.0060637156 -0.010740671 0.040241495
0.03550597 -0.03020475 0.009589949 0.031009916 -0.006713817 -0.014256657 0.02191663 0.014251821
-0.0595303 0.04604035 -0.030291056 0.07264913 0.0008292279 0.04036676 0.018648079 0.07380312
-0.0032203814 0.014069351 -0.07638967 0.023746394 0.011325445 -0.04724962 -0.071218364 0.079675935
-0.07196009 0.044579063 -0.01050349 -0.0102276895 -0.06884231 0.02883358 0.033244457 0.025992278
-0.026134958 0.027988702 -0.031334978 0.030493977 0.0021045874 0.05612443 -0.02502453 -0.0037882237
-0.0633296 0.046066854 0.07296165 0.06318679 -0.07915265 0.05980422 -0.012828631 -0.006123732
0.03965262 0.04177904 -0.040408406 -0.023393428 0.058797345 -0.0581345 0.04186851 -0.0396419
-0.0528895 0.07863841 -0.052197203 -0.033914093 0.075678 -0.05245302 0.07005321 -0.074501134
-0.02163275 -0.022163397 0.08033803 0.029496115 -0.032118827 0.06746358 0.023733905 0.07034055
0.028320158 0.061856758 0.07657985 -0.0346575 -0.00017140036 -0.007998564 -0.062289543 -0.06677882
-0.015289577 -0.07975453 0.022544034 -0.050157007 -0.023196897 0.03724265 0.04927506 -0.02110291
-0.03158025 -0.0788124 -0.025737 0.019925304 -0.010040981 0.061361235 0.086319104 0.011167782
0.04171934 0.07196177 0.005492425 -0.08039895 0.06121066 -0.06714573 -0.047784176 0.01588707
0.06400328 0.029931197 -0.011001141 0.05698033 -0.08009152 0.07896512 -0.011909933 0.030286696
-0.012316698 0.075897515 0.006211702 -0.033335134 0.006375138 -0.0038184118 0.052207198 -0.032904893
-0.061218854 0.0034110143 -0.06522557 -0.04785098 0.06946258 0.0371534 -0.057746977 0.011886458
0.05115901 -0.03128474 -0.002048589 -0.05521093 -0.0381778 0.07504775 -0.064301915 0.08109256
-0.009696074 -0.025308467 0.022673711 0.03408418 -0.035854176 0.068458416 0.059959084 -0.0013760574
-0.026955666 -0.07400856 0.047332775 0.03449678 -0.065591745 0.074219584 0.0526008 0.042505927
-0.0706356 0.06737837 -0.0134860175 0.0049040094 -0.043663993 -0.006633798 -0.025330843 0.009812015
0.062977664 -0.055025518 0.016047765 0.015961327 0.028425904 0.03694476 -0.076010436 0.021545235
-0.01868262 0.051716566 0.023465589 -0.056411143 0.037100505 0.06899882 -0.057552412 -0.05883687

encoder_blocks.1.2.bias f4 [12]
00000000: 088f 95ba 1572 b23a bf7c 953d 0399 f13c
00000010: f24d b53c d076 24bd 90c2 3fbd c8c3 93bd
00000020: 01c4 263d 70a6 4a3d ab10 7c3d 1b8a 48bc
-0.0011410424 0.0013614321 0.07299184 0.029491907 0.022131894 -0.04015237 -0.04681641 -0.07215077
0.040714268 0.049475133 0.061539333 -0.012239958

encoder_blocks.2.0.weight f4 [12, 12, 13]
00000000: 9c36 9b3d 3aa0 66bc 9dbc e13c 4c4a 4a3d
00000010: ba43 ed3b 323b 0f3d 790b 9e3d 456e 173d
00000020: 94ed a73c 3566 a0bd 9425 3b3d 899f 8dbd
00000030: 402d 5b3d e71b 94bd fc1a 893d 0a4f 1bbd
00000040: 732c b0bb 7037 6b3c 668f 88bd fcfc abbc
00000050: 913b 373d 89eb 9bbd 60c6 053d abd3 44b9
00000060: a074 2e3d 1878 80bd 4f2d 3e3d c339 23bd
00000070: f1e9 8cbd 875c 39bd 7059 103d c3e7 643a
00000080: 81df 79bd 560d 02bd 67ae bc3c 6c47 49bd
00000090: 38bc 2b3c 1e18 873b 749b 7a3d 5c16 193d
000000a0: b94c a7bd 03a7 3cbc b8bd 713d a694 073d
000000b0: 8ce3 813c b397 6bba d223 04bd e0ee 72bd
000000c0: d5ba a33d a0bd 483c 00cc 0c3c e393 3f3d
000000d0: 195a 333d 183e c8bc aec7 263d fe3e 3c3c
000000e0: 3525 c63c 029e 7e3d 2186 583d 94e5 8fbd
000000f0: fb35 10bc 6503 003d 613d 823d b2f2 b33c
00000100: 4915 423b 9b04 dabc 7a76 af3c 3a3d 703c
00000110: f37c 88bd 6c61 90bd ad0b 98bd 1ca0 e7bc
00000120: 2e17 853d fa17 d63c 340d 9cbd fea8 45ba
00000130: bcd7 21bd e479 7b3d a42e 2c3d 9cef 23bb
00000140: 14eb 28bc 9f93 d03a ae25 2fbb b2b6 b739
00000150: e105 9a3c 3add 29bd a330 10bd e271 81bd
00000160: 60a9 09bd e0a0 d83b 15f4 4c3d bdb9 37bd
00000170: 2859 97bd 47e9 683d 0090 15bc edce 47bd
00000180: e53f bb3c 0f49 54bc 7d64 ccbc e583 9e3d
00000190: 7240 5ebd ce89 943c 1a68 413d 8adf 2cbd
000001a0: 8570 9dbc d019 3bbd 8994 b53c 3c25 6abd
000001b0: ffbd 8d3d ae09 9c3d 9bc6 f8bc 4d49 5c3d
000001c0: d0db 90bd 51ed 07bc f336 083d 0f31 7ebd
000001d0: f069 29bd bf6f 13bd 8152 043c 545c 09bc
000001e0: f391 81bd 65d1 9c3d c96a 94bd 63ac 2e3d
000001f0: a0a3 82bc 6b9d 7bbd 48f2 793c 978c 22bd
00000200: 3514 14bd 268b 4cbd 83c5 91bd 1458 80bd
00000210: d927 97bd e1c5 01bc 144f 993c 2938 d63c
00000220: 3116 8d3d fccf c53a 89bd 00ba 9654 823d
00000230: 1b88 263d adfe ec3c 919c 61bd 719f c73b
00000240: 490b 88bd 2aa8 60bd 683a 8d3d 6898 89bd
00000250: 6196 59bd a38b ba3b 948c be3c cce1 b939
00000260: bd7e 923c 46f5 9f3d 2ae0 5abd 1faf 6a3d
00000270: 61e0 643d 28a8 20bd 1374 ef3b 48d5 4e3d
00000280: 09c0 14bd c3a5 123d 6fa4 78bc 2fff 1cbc
00000290: 1b45 913c 87e0 df3a e4b3 273d f8f0 8d3d
000002a0: 732b 0ebd aed0 a83d b288 323d a60e aebc
000002b0: 9163 39bd a465 1ebd a2d1 633c a354 1c3d
000002c0: 1128 b1bc 1c9a deba fc71 763d 8160 2d3d
000002d0: c490 f7bc 2a87 9d3d 5019 6bbb 1a36 d53c
000002e0: d443 35bd c466 3c3d e951 8c3d b14a 793a
000002f0: 4af9 adbc 6dcb 8c3c 1589 75bd 796a b9bc
00000300: ca40 ef3c cc28 2abb 8bf7 813d 96be 8b3d
00000310: 2f31 803d 2b4c 763d 8dc5 64bd da72 893c
00000320: 0b35 8f3c b3be 353d c7c9 d1bc fe0d ed3c
00000330: 644f 80bb 44b0 823d 14d3 21bc 1ffa 5fbc
00000340: 375c 9a3c 9276 033c ee65 033d df13 963d
00000350: 665f 6ebd 120b 5d3d 1db0 f33b 237c 8abc
00000360: ee71 51bd 3914 92bd 6cf8 97bd 01ab fe3c
00000370: 9606 5e3d ebb7 7b3c 40d0 353d 083d 70bb
00000380: f5e1 8bbd 6c12 583d dfbb 9a3d 00c9 78bd
00000390: b18f cabc 36b7 883d 1eb4 f1bc b30a 68bd
000003a0: 604f f93c 7d75 6a3d fb7b 92bd 0de1 103d
000003b0: 0122 f03c 9626 3dbd 86dc 633d 9e3e 88bd
000003c0: 8e57 e1bb e26d 153b 8b85 4f3d 9565 183d
000003d0: c573 9bbd f658 8d3d 831d 36bd 0ef2 22bd
000003e0: 697c 563a 958f 3abd c4c4 2f3d 9ed3 3a3d
000003f0: 8716 acbc ef1b 1cbc 2ee1 693c d564 15bd
0.07578775 -0.014076287 0.027555758 0.04938726 0.0072407397 0.034968562 0.07717032 0.036970396
0.020499028 -0.078319944 0.045690134 -0.069151945 0.05350995 -0.072318844 0.066946 -0.037917174
-0.0053763925 0.014356479 -0.06667976 -0.020994656 0.04473454 -0.07613284 0.03265989 -0.00018770869
0.04259169 -0.06272906 0.04642993 -0.039850008 -0.06880558 -0.045254257 0.035241544 0.0008732045
-0.061004166 -0.031751 0.02303238 -0.04914038 0.010481887 0.004122748 0.061183408 0.03737484
-0.081689306 -0.011514428 0.05901882 0.033100747 0.015855573 -0.00089871435 -0.032260723 -0.05930984
0.0799462 0.012252241 0.008593559 0.046771895 0.043787096 -0.024443671 0.040717773 0.011489628
0.024187664 0.062162407 0.05286229 -0.070262104 -0.008801932 0.031253237 0.06359363 0.021966312
0.0029614738 -0.026613524 0.021418799 0.014663035 -0.06664457 -0.07049832 -0.07424102 -0.028274588
0.06498562 0.02613448 -0.07619706 -0.00075401354 -0.03951238 0.06139554 0.042036667 -0.0025014644
-0.010309953 0.0015913135 -0.002672534 0.000350406 0.018801631 -0.041470744 -0.035202634 -0.063205495
-0.033608794 0.0066109747 0.050037462 -0.04485487 -0.07390052 0.056863096 -0.009128571 -0.048781324
0.022857616 -0.012956872 -0.02495026 0.07740001 -0.05426068 0.018132117 0.04721842 -0.04220537
-0.019218693 -0.045678914 0.022165554 -0.057164416 0.069210045 0.07619034 -0.03036814 0.053780843
-0.07073176 -0.008296327 0.03325553 -0.062058505 -0.041360795 -0.03599524 0.008076311 -0.008383829
-0.06326666 0.07657126 -0.0724693 0.04264487 -0.015947163 -0.061429422 0.015255518 -0.03968486
-0.036152083 -0.04993739 -0.071177505 -0.062667996 -0.07380647 -0.007920713 0.018714465 0.026149826
0.06888998 0.0015091891 -0.00049110554 0.0636379 0.040657144 0.028930033 -0.055080954 0.006092005
-0.066427775 -0.054847874 0.06895906 -0.06718522 -0.053121928 0.0056929155 0.023260392 0.00035454181
0.0178827 0.07810454 -0.053436436 0.057295915 0.055878047 -0.039222866 0.0073075383 0.05049637
-0.03631595 0.035802614 -0.015175923 -0.009582325 0.017733147 0.0017080464 0.04094304 0.06930727
-0.034709405 0.082429275 0.043587394 -0.02124722 -0.04526097 -0.03867115 0.013904961 0.038166653
-0.02162555 -0.0016983184 0.060167298 0.04232836 -0.030220397 0.07691796 -0.0035873242 0.026026774
-0.04425414 0.045996442 0.068515606 0.0009509726 -0.021237034 0.017186845 -0.059945185 -0.022633778
0.029205699 -0.0025964258 0.06346043 0.06823461 0.06259381 0.060131233 -0.05585246 0.016778398
0.017481348 0.044371318 -0.02560891 0.028937336 -0.003915714 0.06381276 -0.009876985 -0.013670473
0.0188428 0.008023875 0.03207963 0.07328009 -0.058196448 0.053965636 0.007436766 -0.016904896
-0.051134042 -0.071327634 -0.074204296 0.0310874 0.0542055 0.015363674 0.044388056 -0.0036657471
-0.06830207 0.052751943 0.07555365 -0.060738564 -0.02472672 0.0667557 -0.029504832 -0.05665083
0.030433357 0.05724095 -0.07152554 0.035370875 0.02931309 -0.046179377 0.05563023 -0.06652568
-0.0068768924 0.002280109 0.050664466 0.03720625 -0.07590441 0.069017336 -0.04446174 -0.039781623
0.00081819907 -0.045547087 0.04291226 0.04561197 -0.021006836 -0.009528144 0.014274878 -0.036473114

encoder_blocks.2.0.bias f4 [12]
00000000: 6ac0 1cb8 8d48 3a3d 818e a83b 77ec b53d
00000010: 1897 4abc 3395 fc3c 6e3e 98bd bf0d 913c
00000020: cac8 183d 4708 87bd bd5b 583d 4fe1 873d
-3.7372498e-05 0.045479346 0.005143941 0.08882993 -0.012365125 0.030832862 -0.074337825 0.01770675
0.037300862 -0.06593376 0.052821863 0.06634771

encoder_blocks.2.2.weight f4 [12, 12, 13]
00000000: a1c0 71bc 7306 8a3d 701e 3a3d 52e9 343b
00000010: adc8 74bd 8019 313b 9902 efbc 943f 72bd
00000020: 74fa 8dbc 96d2 2dbd ea28 c43c aa72 28bd
00000030: 3fac 7c3d debc 9dbc 8652 553c 5c15 673d
00000040: c10d 0d3d 8bf8 0c3d 8d98 7ebd a400 9e3d
00000050: de60 d5bc 0e76 bebc 590e 8bbd fff9 1f3d
00000060: b33a 673d 5341 16bd e2b3 d8bc a242 703d
00000070: 602d 85bd d561 c7bc cf3d 843c e0c9 3c3d
00000080: b565 17bd 3309 38bd 9163 973d 14dd 93bd
00000090: 8e74 3abd 7cf6 2f3d 45f2 2fbb 07f9 b53c
000000a0: 6737 83bd b8eb 3ebd 4dfa 25bd 5358 723d
000000b0: ad71 063d 26cc adbc 413f 1cbc eff6 66bc
000000c0: 9def 773c edf5 5bbd 7b99 88bd c2db 823d
000000d0: 20e2 203b 9cb5 91bd 14e9 fe3c bea7 62bd
000000e0: 3220 92bc 3847 74bc c686 61bd 8014 c3ba
000000f0: 8075 1e3c 705f fabb 60a2 7bbb a0d7 e4bb
00000100: 084c 7f3c de2a 523d 442d 71bd 9354 ac3c
00000110: 0125 9f3c 8f6b 023c 88f6 f43a bde5 61bd
00000120: d832 313d 5746 463d 0ebc 403d 1123 4dbd
00000130: 2222 44bd 55c1 3ebc 92aa 953c 1e51 56bd
00000140: 7d85 17bd ac3a 023b 9ec0 2b3d 6eb4 063d
00000150: 75fd 293d 178d 7b3c 1e67 9bbd 40ec 7f3d
00000160: a9d3 53bd 6ac1 52bd b9fd 113c f65d 27bc
00000170: ee55 153c 7a42 a5bc 4e7b 343d da46 76bd
00000180: b57e 383b 2cf1 3e3d e2e6 84bd f456 4a3d
00000190: c0ba 3bbd fad0 5d3d 67b5 833d 6b1d cdbc
000001a0: 4924 adbc 197e 93bd 67ea 843d 0519 913d
000001b0: 89df 873b 94d7 89bd 5101 bf3c e77b 6c3d
000001c0: 0beb eebc 19a1 b8bc c7d5 80bd eae4 3fbd
000001d0: 27b9 81bc 07d1 74bd 6832 963d 6c41 2ebd
000001e0: c1e3 c33c 12ba a33d ed56 0e3d ece2 83bd
000001f0: d0df 80bc 8295 9bbd 8fc1 85bd 0220 c8ba
00000200: c112 af3c cb33 583d 9ee8 2ebd 35b2 f23c
00000210: 9fe0 76bc d560 f93c cd46 293d 8dda 8abd
00000220: ef45 9cbc 44e5 643c 2b14 443d e8b6 08ba
00000230: cb4f 5a3d 6d15 20bd a1e4 f23c 6adc 54bd
00000240: 19c7 f7bc 0bd1 a13c 1509 663b 1f2d 9abd
00000250: d624 7ebd 79de 993d 24d7 093d ba99 ebbc
00000260: 90fa 86bd 66c3 c93b 95cb 34bc a4b0 3ebd
00000270: 6a57 723d b7a6 3ebd 157c a13d bd96 5abd
00000280: cc02 043d 0b57 8e3d 1635 97bc b99d 493d
00000290: 92ff e63b 7a43 313d cdbd 32bc 5457 133d
000002a0: bc62 aabb 0ef4 07bd 43a5 823d 6572 0bbc
000002b0: 659f 773d d060 1a3b 49ef 703d 600a 323d
000002c0: bbee 083d a622 e5bc c06e 88bc 002a 57bd
000002d0: 84b9 4d3d 01d6 533c 8744 133c 6b5b 4abd
000002e0: 153d 32bc 3b77 133c 8660 83bb ddf7 903c
000002f0: 2879 3c3d b66d b33c 4a0e e3bc 2636 113c
00000300: 8fef 973d e8d9 5dbd 1d53 d0bc 5057 36bd
00000310: b83f 973d 807b 89bd f8fa 903d ca13 71bc
00000320: 1e18 5d3d 9ddf 873d 6c89 9cbc 089d 3f3d
00000330: 06ce c83c 1ba5 093d 7387 8cbd 61c7 c53b
00000340: f2fd 2fbd d049 913d 341e 18bd 0036 4bba
00000350: e4cb 09bd 5010 8f3d 1c1b 5d3d 9c1e 4ebd
00000360: cc3f 733d 3e1b 0e3d 0048 0c38 cfc1 23bd
00000370: 8023 5f3b 23e1 683d a2db 7f3c 3ac3 5dbb
00000380: 78f7 743c 85eb 923d 478e b33c c325 623d
00000390: cafc a83c 7653 f1bc b6f3 c3bc 4764 9bbd
000003a0: 93cc e6bc 4098 8e3c d27c 833c f178 2bbd
000003b0: a2af d63c 1a92 39bd f19f 853d f602 54bc
000003c0: 5cca a4bc 5763 76bd 4352 ff3c 164b a83d
000003d0: 9c20 653b 3d66 473d 3f73 4b3c aab0 a8bd
000003e0: 4457 babd 30ec 69bc 3350 683c 31f1 58bd
000003f0: 3729 8bbb 1022 3c3d 5330 e0bc c63d acbd
-0.014755399 0.06739511 0.045439184 0.002760489 -0.05976169 0.0027023256 -0.029176043 -0.059142664
-0.01733134 -0.04243716 0.02394529 -0.041124977 0.061687704 -0.019255098 0.013020163 0.056416854
0.034436945 0.034416717 -0.062157203 0.07714966 -0.026047166 -0.023249652 -0.06789846 0.039056774
0.056452464 -0.03668339 -0.026452962 0.058657296 -0.06502795 -0.024338642 0.016142754 0.04609096
-0.03696223 -0.044930648 0.07392038 -0.07219902 -0.04552131 0.042959675 -0.0026847285 0.022213472
-0.064070515 -0.046611518 -0.04052191 0.059166264 0.032823253 -0.02121551 -0.009536565 -0.0140969595
0.015132812 -0.05370133 -0.06669899 0.06389572 0.0024548844 -0.07114717 0.031117 -0.055335753
-0.017837618 -0.014909558 -0.05506017 -0.0014883429 0.009671569 -0.0076407716 -0.0038396344 -0.0069837123
0.015582092 0.051310413 -0.05888106 0.021036422 0.019426825 0.007960214 0.0018689195 -0.055150736
0.04326138 0.048406925 0.047054343 -0.05008227 -0.047884114 -0.011642774 0.01826981 -0.052323453
-0.03699254 0.0019871397 0.04193174 0.032886915 0.04150148 0.015353463 -0.075880274 0.062481165
-0.051715527 -0.051453985 0.00891059 -0.010215273 0.0091147255 -0.0201733 0.044062905 -0.060126163
0.0028151695 0.04661672 -0.0648935 0.04939933 -0.045832396 0.054154374 0.06431084 -0.025038442
-0.021135466 -0.072017856 0.06490021 0.0708485 0.0041465205 -0.067305714 0.023316057 0.05773535
-0.029164812 -0.022537755 -0.06290775 -0.04684917 -0.015835358 -0.059769657 0.07333833 -0.04254286
0.023912312 0.079944745 0.034750868 -0.06439766 -0.015731722 -0.07596876 -0.06531059 -0.0015268328
0.021371247 0.05278377 -0.04270231 0.029625991 -0.015068202 0.03044168 0.041327287 -0.067799665
-0.019076316 0.013970677 0.047870796 -0.00052152434 0.053298753 -0.039082933 0.029650034 -0.051968016
-0.030246304 0.019753 0.0035100628 -0.075281374 -0.06204685 0.075131364 0.03365244 -0.028759826
-0.0659076 0.0061573265 -0.011034866 -0.046555176 0.059165396 -0.04654571 0.07884995 -0.05336641
0.03222923 0.06950196 -0.01845793 0.04922268 0.0070495093 0.04327724 -0.01090951 0.035971954
-0.0051997583 -0.033191733 0.063791774 -0.0085111605 0.060454745 0.002355624 0.05882195 0.043466926
0.033430796 -0.027970623 -0.016654372 -0.05253029 0.05022575 0.0129294405 0.008988506 -0.04940359
-0.010878821 0.009000595 -0.004009309 0.017696315 0.04601398 0.0219029 -0.027716774 0.008863008
0.07418739 -0.05416289 -0.025430257 -0.04451686 0.073852 -0.06713009 0.070791185 -0.014714191
0.053978078 0.06634448 -0.019108497 0.046780616 0.024512302 0.033604722 -0.068617724 0.0060357307
-0.04296679 0.07094157 -0.03713818 -0.0007751882 -0.03364171 0.06985533 0.05398093 -0.05032216
0.059387013 0.03469395 3.3445656e-05 -0.039979752 0.003404826 0.056855332 0.015616329 -0.0033838288
0.014951579 0.07173828 0.021918429 0.055211794 0.020628352 -0.029458743 -0.023919921 -0.07587486
-0.02817372 0.017406583 0.01605073 -0.041863386 0.026206795 -0.04530535 0.06524647 -0.012940159
-0.020116024 -0.06015333 0.031167155 0.082174465 0.0034962064 0.048681486 0.0124176135 -0.08236821
-0.09098676 -0.014277503 0.014179277 -0.052964393 -0.0042468566 0.045930922 -0.027366793 -0.0841022

encoder_blocks.2.2.bias f4 [12]
00000000: d06b 1c3d ed01 4a3d fe04 5dbc 7841 efbc
00000010: 015f 853b 83ac 183d 65cd b03d 9cc1 41bd
00000020: 23b9 153d 1ac6 073d e087 b83d 8571 53bd
0.038188756 0.049318243 -0.01348996 -0.029206023 0.0040701632 0.037273895 0.08632926 -0.04730378
0.036553513 0.03314791 0.09010291 -0.051621933

encoder_blocks.3.0.weight f4 [12, 12, 13]
00000000: d69b 933d c6a8 f23c cb88 6abc 83fb 53bd
00000010: 0649 5abc 9023 373d 35aa 88bd 7651 2dbd
00000020: 69b3 40bd 21a1 783d 728f a13d dc2f 42bd
00000030: 6a5e 81bd ffc1 67bd da14 8b3d 87bf e83c
00000040: 91c2 343d e4b4 a93c 0513 80bc eafc 543d
00000050: a47f 94bd d2b1 fabc 8460 b43a 75cd 15bd
00000060: e90a dc3c 37dc 913c 6c5b 433d 0937 853d
00000070: 9e45 703d 2d82 47bc 4f64 473c dd37 6bbc
00000080: a804 2dbd 91af 0f3c 2c75 63bd e3f1 67bc
00000090: cd76 943b b0b1 883c dc95 853c 8460 3a3d
000000a0: 1a8b 38bd 2943 c63c 6a12 46bc 3e9a 6e3d
000000b0: def4 703d 4b44 1fbd 78ae 09bc 2890 033d
000000c0: e270 983d 920f 25bd c24b d53c e956 ffbc
000000d0: 4281 8abd 6dae 283d b317 7bbd 7e20 1e3d
000000e0: 096a 853d 28f6 173d c4da 68bd ebae 8abd
000000f0: 4fa0 3ebb c936 743c 9491 ffbc 3ee9 853c
00000100: d2b0 acbc 19b9 93bd a1d9 32bd e978 c8bc
00000110: 1cf4 7d3d faca 86bd e02c 5939 d370 a53d
00000120: 1d1d fd3b c8fe 553c ce93 943b 655f 50bd
00000130: 26e0 1c3d ba21 333d e3c2 3bbd f345 823b
00000140: 2ecf 103d 1b68 36bd d4bb ebbc 6e88 1bbd
00000150: b35c 12bc 7c06 8f3d 9c03 9abd 2407 9b3c
00000160: 246c f8ba 335c babc 5248 9c3d ab47 a13d
00000170: d7b6 573d 2db7 4cbb c743 7abd d799 86bd
00000180: 1cdf 1bbc e92c 493d 9004 1c3d 6207 a93c
00000190: 1985 6a3d aa51 463c 4653 753d 3267 85bd
000001a0: c1d6 debc e991 ff3c a242 27bc 8217 5dbd
000001b0: 02b5 eebc 7f08 b6bb 2ab4 513d e032 99bd
000001c0: 0e99 6e3c 1f73 89bd d8f4 2dbd eb75 863d
000001d0: b1fe 31bd 6754 91bd fd39 9dbc 9e80 883d
000001e0: d1d6 c5bb cf80 8abb 9400 4dbd 7454 9ebd
000001f0: 9325 c83c cae1 703b 8bee 043c 9371 87bd
00000200: fe77 363d ff7a 5cbd 85e3 52bb e52d 98bd
00000210: 1bbc bf3b b682 3a3d d167 113c f5cb 8cbc
00000220: ff31 83bd d1ad 1a3d 4828 f9bc 799a 103c
00000230: 4829 a1bd 6944 973d cec4 c7bc d6e3 823d
00000240: e1d1 e93b 2502 febc 1ac1 043d c36d a73d
00000250: 1541 04bd 777b cc3c 1696 5d3d 2353 83bc
00000260: 478f 4c3c 4445 f23c 93a5 763d 2e74 9dbd
00000270: b81e eebc b991 15bd 8aca 5abd ae50 a53d
00000280: 014d a33d 7322 a8bd cbf7 9c3d 8360 6c3d
00000290: 1a38 8dbd f32f ab3d 5e8b 423c c8f3 4d3d
000002a0: d67c 293d 4496 fbbc 2594 9fbd a341 a0bd
000002b0: 39f6 11bc b1ff f73c 177c 8cbd 9e00 2e3b
000002c0: ef84 693d d574 843d da6b d1bc 03eb 063d
000002d0: b32a ac3c e4a4 9d3d 6a8b d43b 0b43 b33c
000002e0: 1a4a 89bd b029 983d a72f e9bc 07ff 753d
000002f0: d880 52bc 2b94 39bd 425a 32bd 8c50 9e3d
00000300: 45d1 1dbd 7d40 70bd 69b4 c1bb 4e74 70bd
00000310: ba9a af3c 40ad 413d eb0b ac3b f858 853c
00000320: 345d ae3c 9f49 7c3d c700 dcbc 74eb 813d
00000330: 5012 efbc 414d 97bc 06ef 5abc b7e4 8a3d
00000340: 58a9 03bd a944 653d 0ef8 94bd c919 373c
00000350: 5e19 42bd ba4a 993d 576a 95bd ce3d 0f3d
00000360: dba0 2d3d ff5f fb3c 14b3 f9bb 9e36 7a3d
00000370: 4bbf 543c cc00 93bc 5587 f9bc 5743 153d
00000380: 6227 72bd b3b3 d2bc beb0 7a3d 9ba3 6cbd
00000390: 6fd5 643d ae4c 17bd 2e94 cf3c bc87 62bc
000003a0: 9c2b 0bbc df3e b5bc 1a3d 103c c05b 7c3d
000003b0: 4262 26bd ec10 503d 504b 753d 00cb 203d
000003c0: e51f 59bd 82b4 e13c 6d03 f33b 557d d4bc
000003d0: 56b6 03bc 53ab e23c 878d 513d a5d9 2a3c
000003e0: 7ae1 af3a db82 163b 4276 473c 7125 d8bc
000003f0: a889 873d 6cd0 2b3c b8a6 02bb 0586 a0bd
0.07207458 0.029621493 -0.014314841 -0.051753532 -0.013323074 0.04471165 -0.066730894 -0.042314015
-0.0470461 0.06070054 0.07888688 -0.047408924 -0.06316836 -0.056581493 0.067910865 0.02841164
0.044130865 0.020716138 -0.01563407 0.05199901 -0.07250908 -0.03060237 0.0013761674 -0.036572892
0.026860671 0.017805202 0.04769461 0.06504638 0.058660142 -0.012177032 0.0121699115 -0.014356581
-0.04224077 0.008769886 -0.055531666 -0.014156791 0.0045307637 0.01668629 0.01630681 0.0455022
-0.045054533 0.024201946 -0.012089351 0.058252566 0.058827274 -0.03888349 -0.008403413 0.0321199
0.07443406 -0.040298052 0.0260371 -0.031169372 -0.06762935 0.04118197 -0.0613019 0.038605206
0.06514365 0.037099987 -0.056849256 -0.06771644 -0.002908725 0.01490564 -0.031197347 0.01634657
-0.021080408 -0.07213039 -0.04366458 -0.024471717 0.06200038 -0.065816835 0.0002071145 0.0807816
0.007724418 0.013061233 0.0045342213 -0.050872225 0.038299702 0.043733336 -0.045840155 0.0039756238
0.035353832 -0.044532876 -0.028776087 -0.037971906 -0.008933234 0.06983659 -0.0752022 0.018924303
-0.0018953127 -0.022749042 0.076309815 0.07874998 0.052664604 -0.003123711 -0.061099794 -0.06572311
-0.009513643 0.049115095 0.03809029 0.020633403 0.057255838 0.012104431 0.05989387 -0.065138236
-0.027202012 0.031197505 -0.010208758 -0.053977497 -0.029139046 -0.005555212 0.05119721 -0.07480407
0.014562858 -0.06711411 -0.04246983 0.0656546 -0.043455783 -0.070961766 -0.01919269 0.06665157
-0.006037571 -0.004226781 -0.05004938 -0.07730952 0.02443198 0.0036755675 0.008113514 -0.066134594
0.044548027 -0.053828236 -0.003217907 -0.07430629 0.0058512813 0.045534812 0.008874849 -0.017187098
-0.064060204 0.03776342 -0.030414715 0.008825892 -0.07869202 0.07386095 -0.024385836 0.063911125
0.007135615 -0.031006882 0.03241072 0.08175232 -0.03228863 0.024961216 0.05409821 -0.016030854
0.012485332 0.029574044 0.060216498 -0.07688175 -0.029067382 -0.036515925 -0.053415813 0.08072029
0.07973672 -0.08209696 0.0766445 0.05770923 -0.06895466 0.08358755 0.011874048 0.050281316
0.04137882 -0.0307113 -0.07791928 -0.07825019 -0.008908802 0.03027329 -0.06859606 0.002655066
0.05701154 0.064675964 -0.025564123 0.03293897 0.021016454 0.07697466 0.006486346 0.021882555
-0.06703587 0.07429826 -0.028465105 0.060057666 -0.012848102 -0.04530732 -0.043543108 0.07730207
-0.038529653 -0.05865525 -0.005911399 -0.058704667 0.021436084 0.047284365 0.005250444 0.016277775
0.021284677 0.061593648 -0.02685584 0.06343737 -0.029183537 -0.018469455 -0.013362652 0.06781905
-0.03214392 0.055973683 -0.07273875 0.011175581 -0.047387473 0.07484956 -0.07295673 0.03497105
0.04238973 0.030685423 -0.0076202247 0.061087243 0.012985061 -0.017944716 -0.03046004 0.036441173
-0.05911959 -0.025720453 0.06120371 -0.057773214 0.05586761 -0.03693836 0.025339212 -0.013826307
-0.008494284 -0.022124706 0.00880363 0.061610937 -0.04062105 0.050797388 0.059886277 0.039256096
-0.053008933 0.027551893 0.00741618 -0.02593867 -0.008039078 0.027669584 0.05116036 0.010427867
0.0013418638 0.002296618 0.012174191 -0.026385041 0.06618053 0.010486703 -0.0019935798 -0.07838062

encoder_blocks.3.0.bias f4 [12]
00000000: d23e 3bbd 18df e43c 9542 903d f3b5 89bc
00000010: 465e 33bd f19b 8f3d 56cd 85bc 3f48 4dbd
00000020: cb49 5ebc 3f45 77bd 5445 633c 1c2c 0b3b
-0.045714207 0.02793841 0.070439495 -0.016810393 -0.043791078 0.07012165 -0.016333263 -0.050117727
-0.013567398 -0.060368773 0.01387151 0.0021236008

encoder_blocks.3.2.weight f4 [12, 12, 13]
00000000: 6a4d ce3b eca4 67bd 4516 53bc df0e 5a3d
00000010: f1fd 12bd 98d8 83bd 773d 083d 3ef5 3cbc
00000020: f8e4 52bd 39c7 24bb cc2f 41bd 9c85 063d
00000030: eb06 00bc 19af d83c 1878 50bb d829 2ebc
00000040: 2322 fdbc cfcf 30bd 6b9d 243c cd2b 85bd
00000050: 1703 713d a231 05bd bc65 13bc aada 873d
00000060: 0b36 0c3d dd68 423d d6c9 82ba 6651 26bd
00000070: 24fc f43c a19e 84bd 510e d63c 707e 89bd
00000080: a471 4c3d cade 5cbd 9610 7abb 7ac3 a13d
00000090: b5ba 743b 6ba1 73ba 2495 1cbd 27d3 4fbd
000000a0: d0b1 773d f009 98bd 7354 703b 8b77 9f3c
000000b0: 6202 203d c518 4c3c ef56 fe3c 1ee2 febc
000000c0: 5896 04bd 71b2 8b3d eda8 8bbd e43b 9b3b
000000d0: 3900 843d f8fc 7f3d 82bb 473d f7aa 45bb
000000e0: fab8 94bb 99f9 3ebd 7536 e13b 301c 383d
000000f0: f6f2 873d 3b61 4abc 86d9 c23c 953f d2bc
00000100: 4e97 4dbd 44fa 01bd bd98 05bd 45e5 a0bd
00000110: 57c4 923d 929c 2bbd 2fa6 d6bc af74 483d
00000120: add5 903d 43d0 733d 3e02 953d a8eb 7b3c
00000130: 7bda 723d fcad 82bd 5cbb aabc 8b86 94bd
00000140: b247 103d 670e 83bd d4f9 24bd 5a3f 6bbd
00000150: 64f3 95bd 5eff ccbb 31a4 5b3d e627 9ebd
00000160: e50c 8cbc 4cec 063d 4a33 253d 7e69 36bd
00000170: 88ee 713c 6959 86bd 9e9f 9f3d d832 143d
00000180: 9c03 583d 680e a73c d4b8 ef3c b413 1f3d
00000190: 4e34 a1bc 713d 3bbd 065e 05bd 2892 0d3c
000001a0: f907 353d 2de9 f7bc 56c0 913d ca5a 863d
000001b0: 8dc5 d5bc 8c1a 953d fa64 bb3b 828f d9bc
000001c0: 7ba8 9c3c 7e1d 893d 8137 bbbc 3106 4f3d
000001d0: 87f9 feba a8e2 c33b 3dc6 913a 002e 233d
000001e0: 7d65 913d 075e 8f3c 6c27 193d 782c 6cbd
000001f0: 026f 6c3d a1cc 15bc dd04 18bb 169b 78bd
00000200: 17cd 8f3d 9ee9 0fbd 8859 9b3d f596 94bc
00000210: e302 2bbd c27b 77bd 2a47 47bd d979 4e3d
00000220: 1cec 5fbd ccc1 f8bc 0fa7 6abc 0d87 89bb
00000230: 720b eaba e167 2f3c a8e9 a2bd e022 633c
00000240: ef33 2f3d 367f b5bc 8cfd 50bd 6586 10bc
00000250: 3a1a 81bd d8ca 0bbd 11e9 72bc 819a f039
00000260: 2617 cebc 3ae9 f13c c250 8dbc 5f0f d9bc
00000270: d0b1 c33b ce8d 48bd 3229 393d 07c4 963c
00000280: beca a8bc 0b49 9b3d 53d9 943d 6284 bfbc
00000290: ae67 923d 23b3 973c 04f6 803c 9531 20bd
000002a0: 2caf 633d 2712 6cbc 9475 2d3d 7771 af3c
000002b0: aa11 09bd b635 323d f07d 9ebd fed0 fcbc
000002c0: 3b83 90bd 787c 903d fb1c 15bd 0b73 e03b
000002d0: c8bc 27bd 30e2 e4bc e288 c03c 8c39 8a3d
000002e0: 8645 48bd 1494 17bd a737 e8bc 42f7 793c
000002f0: eb83 66bd 3b3c b6bc 491d 8f3d 08a0 5f3d
00000300: e9e9 f03b bb6c 6a3d 9e4c d83c 87f9 70bc
00000310: 8c4c 1f3c 03c5 a4bd f092 1f3b 2dc8 f7bc
00000320: 06a1 4abd 3e2b 133d 5585 9c3d 3386 21bc
00000330: 3a2b aa3b 8842 d63b 6a44 223c fa2f 1e3d
00000340: f466 28bd 9cee bcbb 6e2e 68bd 5df2 473d
00000350: 30ac 493d 8896 61bd f997 68bd fa9d c73b
00000360: b56f 833d 7b35 b5bc 8ffa 5cbd 475d 913b
00000370: e16f 00bd 1f8a b53c 1053 0b3d 59ae a13c
00000380: 03d9 1c3d 22b5 08bd 701a 3f3d 86e5 5ebb
00000390: 616a 09bc 35a5 3cbd 9d9b 80bc 0032 46bd
000003a0: d5f8 e23c 801e 0dbd e45d 54bd 5d5c 8bbd
000003b0: fa45 90bd b5f1 e0bc 0e9a bd3c c2ed 31bd
000003c0: 8485 c73c 5953 3cbd dfe9 863d 5b7b bebb
000003d0: b77d 4ebd d2f7 7b3d 7878 6bbd bf30 36bd
000003e0: f094 3b3c 20f8 8fbb 705c 9f3d 8856 3abc
000003f0: 927c 923d 10ae 283c 1082 953d 64dc 593d
0.0062958496 -0.056553766 -0.012883727 0.05323684 -0.03588671 -0.06437796 0.033261742 -0.01153308
-0.051487893 -0.002514316 -0.047164723 0.032842264 -0.007814149 0.02645068 -0.0031809863 -0.0106300935
-0.030900067 -0.04316693 0.010047297 -0.06502495 0.058840837 -0.032518037 -0.008996423 0.06633504
0.034231227 0.047463287 -0.0009978365 -0.04060497 0.029905386 -0.064755686 0.026129873 -0.06713569
0.049913064 -0.053923406 -0.0038156859 0.07898612 0.0037342731 -0.00092937675 -0.03822817 -0.05073848
0.06047231 -0.074237704 0.003667143 0.019466182 0.039064772 0.012457077 0.031047313 -0.03111368
-0.03236994 0.06821144 -0.068193294 0.004737364 0.06445355 0.06249711 0.048762806 -0.0030161717
-0.0045386525 -0.046624754 0.006872947 0.044948757 0.06638138 -0.012352283 0.023785364 -0.025665084
-0.050193124 -0.031732813 -0.032616366 -0.0785623 0.07166355 -0.041897364 -0.02620229 0.048939403
0.070720054 0.059524786 0.07275818 0.015376009 0.05929039 -0.06380841 -0.020841293 -0.072522245
0.035224624 -0.063992314 -0.040277317 -0.057433464 -0.07321814 -0.006256028 0.053623382 -0.07722454
-0.017095992 0.032940194 0.040332116 -0.0445342 0.014766343 -0.065600224 0.077941164 0.0361813
0.052737817 0.020392612 0.029262938 0.03883715 -0.019678261 -0.045712892 -0.03256037 0.008640803
0.044197056 -0.030262554 0.07116763 0.065602854 -0.026095176 0.07280454 0.0057188245 -0.026557688
0.019123306 0.06695078 -0.022853615 0.050543014 -0.0019453027 0.0059779473 0.0011121702 0.03983879
0.070994355 0.01750089 0.03739111 -0.057659596 0.057723053 -0.009143026 -0.0023196258 -0.060694776
0.0702154 -0.035134904 0.07585436 -0.018138388 -0.0417508 -0.06042076 -0.04865185 0.05040917
-0.05466853 -0.030365847 -0.014322056 -0.0041970075 -0.0017856194 0.010705919 -0.07954723 0.013863295
0.042774137 -0.022155385 -0.05102305 -0.008821105 -0.063038304 -0.034128994 -0.014826075 0.00045891482
-0.025157522 0.029530156 -0.017250422 -0.026496587 0.0059721246 -0.04896336 0.045205303 0.01840402
-0.020604488 0.07582291 0.07268014 -0.023378555 0.071486816 0.018518036 0.01574231 -0.039109785
0.05558698 -0.014408625 0.04234846 0.021416409 -0.03346411 0.043508254 -0.077388644 -0.030861374
-0.0705628 0.070549905 -0.03640459 0.0068496517 -0.04095152 -0.027939886 0.02350277 0.067492574
-0.048894428 -0.037006453 -0.02834685 0.015256705 -0.05627815 -0.022245517 0.069880076 0.054595977
0.007352103 0.0572326 0.026403721 -0.014707929 0.00972284 -0.080453895 0.0024349056 -0.030246818
-0.04946997 0.03592991 0.076426186 -0.009858656 0.0051931413 0.006538693 0.0099040065 0.038619973
-0.04111381 -0.005765749 -0.056684904 0.04881512 0.049236476 -0.0550752 -0.056785557 0.0060918303
0.06417791 -0.022120228 -0.05394989 0.0044361684 -0.031356696 0.022160588 0.03401476 0.019736456
0.038292896 -0.033375867 0.046656072 -0.0034011318 -0.008387179 -0.04605599 -0.015699202 -0.048387527
0.027706543 -0.034452915 -0.051847354 -0.06804726 -0.07044597 -0.027459005 0.023144748 -0.043439634
0.024355657 -0.045977924 0.06587576 -0.005813045 -0.05041286 0.061515637 -0.057487935 -0.04448008
0.011449084 -0.0043935925 0.07781303 -0.01137317 0.07152666 0.010295406 0.07300198 0.053188697

encoder_blocks.3.2.bias f4 [12]
00000000: 661c 9bbd 51eb 4cbd eda9 98bd 2078 31bd
00000010: de87 08bd 04c5 d33c 53b7 8a3b 1074 b23b
00000020: 6de2 28bc aceb 783d e34a d43c 19cf 39bc
-0.07573776 -0.050029103 -0.07454286 -0.04332745 -0.033332698 0.02585078 0.0042332797 0.0054459646
-0.01030789 0.06077163 0.025914615 -0.01134088
