Python/save/localizer/trial_2/quake_localization_model_00590.pth (torch, 252994 bytes, 35 tensors)

encoder_blocks.0.weight f4 [12, 1, 13]
0.19077006 0.19480684 0.22306961 0.08093729 0.18614006 0.10129743 -0.10851954 -0.061731525
-0.20675343 -0.20010324 -0.1922715 0.08617537 -0.0873143 -0.21444266 -0.24751091 -0.2504447
-0.13182671 0.11360146 -0.17372282 0.28317785 -0.1980818 -0.01877514 0.073429585 0.17321108
0.15646024 -0.03926524 0.068957955 -0.08494338 0.022259993 0.074673876 -0.21854745 -0.18835744
0.15653259 -0.0680399 -0.10654164 -0.106925875 -0.008822867 -0.11051577 -0.24511626 0.07720207
0.02948517 -0.2077637 0.07321207 -0.15394416 -0.14190759 0.087819844 0.0359136 0.036978815
-0.09258566 0.0026805354 0.2663592 -0.25284755 0.059441295 0.040777862 -0.08730823 -0.004937009
-0.1466447 -0.11106892 -0.14655721 0.17918468 -0.033898745 0.1195136 -0.011096483 -0.13202506
-0.16967155 -0.085927196 0.23356692 0.098693356 -0.030197393 -0.056963176 0.07498693 0.2255528
-0.24003753 0.07831967 0.15325144 -0.20054181 0.22800127 0.16491601 -0.11920516 0.03094204
0.12108518 0.1083828 0.06557004 -0.03463352 -0.07914173 0.24285291 0.14163104 0.14534643
-0.26942962 0.12124167 -0.14976674 0.09248113 -0.09512256 -0.052833308 0.11021034 -0.20321651
0.27195367 0.19985415 -0.089995176 0.14356382 -0.17164987 0.013205366 0.21488765 0.024410516
-0.17878151 -0.014882421 -0.044622734 -0.069717124 0.16474657 0.1943264 0.18928888 0.24884237
0.15777588 0.18631779 0.2277588 -0.13988256 0.16778317 0.26197597 -0.08078971 -0.19621183
-0.22343536 0.013288861 -0.1829061 -0.19369191 0.12952726 0.21294838 -0.19355771 0.27195254
0.04774514 0.113131575 0.28364256 -0.2251386 0.2771779 0.024285547 -0.037257493 0.207235
0.11710802 0.027018216 -0.042368047 -0.050410796 -0.0076567875 -0.102894925 -0.190315 0.07339004
0.14871931 -0.2098477 -0.054080434 -0.22669877 -0.27088282 0.089947514 -0.24008086 -0.102597825
-0.1749881 0.23849165 -0.19356474 -0.117875054
00000000: 3a59 433e 727b 473e 5c6c 643e 73c2 a53d
00000010: 809b 3e3e 0775 cf3d 7e3f debd 32da 7cbd
00000020: 2cb7 53be dde7 4cbe d2e2 44be b67c b03d
00000030: d7d1 b2bd db96 5bbe 8073 7dbe 4a3a 80be
00000040: 95fd 06be e2a7 e83d 65e4 31be b0fc 903e
00000050: f5d5 4abe 53ce 99bc 4062 963d 3f5e 313e
00000060: 1d37 203e 97d4 20bd d439 8d3d cbf6 adbd
00000070: 975a b63c 9eee 983d e7ca 5fbe c6e0 40be
00000080: 144a 203e 8158 8bbd 8132 dabd f4fb dabd
00000090: c98d 10bc 1856 e2bd c2ff 7abe 1e1c 9e3d
000000a0: e28a f13c 02c0 54be 36f0 953d 8aa3 1dbe
000000b0: 3950 11be e4da b33d 241a 133d 1977 173d
000000c0: 8d9d bdbd ecab 2f3b 3c60 883e 3c75 81be
000000d0: b778 733d b006 273d a8ce b2bd a2c6 a1bb
000000e0: 072a 16be 1a78 e3bd 1813 16be 307c 373e
000000f0: 69d9 0abd 8cc3 f43d 06ce 35bc 9431 07be
00000100: 61be 2dbe 99fa afbd 2b2c 6f3e be1f ca3d
00000110: 8660 f7bc 3852 69bd bf92 993d 50f7 663e
00000120: 66cc 75be 1066 a03d f2ed 1c3e d55a 4dbe
00000130: 2a79 693e bedf 283e d621 f4bd 297a fd3c
00000140: 82fb f73d cdf7 dd3d 9649 863d e1db 0dbd
00000150: 0f15 a2bd 6fae 783e ba07 113e b2d5 143e
00000160: aef2 89be 8d4d f83d 745c 19be bf66 bd3d
00000170: 9ecf c2bd bd67 58bd f5b5 e13d fd17 50be
00000180: 833d 8b3e 91a6 4c3e 644f b8bd 6502 133e
00000190: fcc4 2fbe 525b 583c 820b 5c3e 90f8 c73c
000001a0: 8012 37be 66d5 73bc 54c6 36bd dac7 8ebd
000001b0: 53b3 283e 80fd 463e f2d4 413e 89d0 7e3e
000001c0: 0090 213e 17ca 3e3e 9a39 693e 603d 0fbe
000001d0: 5acf 2b3e b721 863e 1375 a5bd c1eb 48be
000001e0: 3dcc 64be 86b9 593c bd4b 3bbe 2c57 46be
000001f0: cba2 043e 240f 5a3e fe33 46be 5d3d 8b3e
00000200: 6890 433d 87b1 e73d 9939 913e bc8a 66be
00000210: 43ea 8d3e 7cf2 c63c 509b 18bd 6935 543e
00000220: 54d6 ef3d 4e55 dd3c 1e8a 2dbd 8d7b 4ebd
00000230: cae5 fabb 93ba d2bd efe1 42be 844d 963d
00000240: e049 183e 51e2 56be 7283 5dbd b923 68be
00000250: 27b1 8abe 6736 b83d c2d7 75be cf1e d2bd
00000260: 1530 33be 2837 743e d635 46be 7a68 f1bd

encoder_blocks.0.bias f4 [12]
-0.18208432 0.04167363 0.26229984 -0.11504313 0.26769498 -0.26159495 0.06480435 0.11005681
0.07776018 -0.0741608 0.007272628 0.10777925
00000000: 5074 3abe f8b1 2a3d 2a4c 863e bc9b ebbd
00000010: 510f 893e c6ef 85be 25b8 843d 7765 e13d
00000020: bb40 9f3d 9ee1 97bd 3a4f ee3b 5ebb dc3d

encoder_blocks.1.0.weight f4 [12, 12, 13]
-0.014258573 0.052323397 0.07053475 -0.02725621 -0.04586868 0.06146356 -0.043081563 0.02094058
-0.048601974 -0.02781137 -0.03833704 0.051882304 0.01213725 0.060791165 -0.047354437 -0.019772228
-0.048799317 0.017748307 0.006144894 -0.051900007 -0.027400415 -0.0748958 -0.026877765 -0.018680256
-0.040495794 0.046637557 -0.00893681 0.0691743 -0.0041828398 0.007831784 -0.056105234 -0.07104162
0.07746535 -0.08401827 0.05752322 -0.013527505 0.052248653 0.08141919 0.07186246 -0.083123185
0.035105847 -0.061652858 0.031519726 0.035475302 0.06713737 0.06205874 0.01724271 -0.060645767
-0.0008618505 -0.07631692 -0.065747686 0.063219085 0.0040025017 0.044968694 0.00029811377 -0.07206139
0.07209276 0.04224613 -0.02242724 0.014112814 0.006756903 -0.010655255 -0.05765166 0.017201295
-0.023030773 0.042688746 -0.03845585 0.027302183 0.013942124 -0.048328318 -0.056303233 -0.050152276
0.060091738 -0.071289085 0.0426587 0.0739617 0.031223714 -0.044143774 0.034159217 -0.08534797
0.0040881573 0.049053874 0.07974217 -0.042468846 -0.061427627 0.015941763 -0.04810048 0.010372542
0.05259158 0.06628569 0.024169382 -0.045657262 -0.00053060375 -0.030094849 -0.04695944 -0.0211361
-0.033733636 -0.054211937 0.06271262 0.050856736 -0.06654932 -0.0067284512 -0.020136075 0.0014739082
0.06928042 -0.024116617 0.0018076331 -0.07679452 0.02870013 -0.04832116 0.018601893 -0.030704906
-0.008058903 0.0440093 0.037296854 0.057381354 0.06560594 -0.017015878 -0.030389516 -0.017193059
0.004145746 0.03587811 -0.045836296 -0.077410005 -0.06979795 -0.011651167 -0.018819736 -0.015270174
-0.031654403 -0.061844736 -0.03250672 0.011971406 -0.06678932 0.021844579 -0.03647777 0.068588264
-0.014471116 0.002778622 -0.041066263 -0.007963152 -0.06540938 -0.04196012 -0.01868115 -0.026154887
0.045967918 -0.022010941 -0.016535481 0.06384379 -0.07322971 0.017791267 -0.040271003 0.026241172
0.03825163 -0.033463065 0.046919685 -0.074672215 -0.031714294 0.046558972 -0.06268773 0.0436623
0.028329581 -0.07088778 -0.066938564 0.045104943 0.079712644 0.06615559 -0.041497573 0.052729372
0.05699217 -0.07090333 -0.064299084 0.037787315 0.06538456 0.058980443 0.06459346 0.03993022
0.07938913 0.02518866 -0.0063832616 0.02690933 -0.066670135 0.06414145 0.000763084 0.008251582
0.07882471 0.070018776 0.0037090706 -0.036644667 -0.049795255 -0.046852294 0.043662433 -0.02684342
-0.07012487 0.030268868 0.08667418 0.0046392903 0.011936465 0.015088567 0.026966637 0.0168093
-0.0329228 -0.0663424 -0.01995784 0.027520789 -0.030283295 0.08231682 -0.029965548 0.07578107
-0.046574574 -0.05087128 -0.035552878 -0.06271216 0.012749686 -0.011056633 0.045409396 -0.06565442
-0.006318675 -0.016782193 0.05377013 -0.012255433 0.023582084 0.07181099 -0.0031355303 0.0046390425
0.048836716 0.005593896 0.011336628 0.010002343 0.02173641 0.050631125 -0.019274676 -0.045279454
-0.024954334 0.03594582 0.03227105 -0.025843084 0.07064451 -0.06526341 -0.059830878 0.077273704
0.022531059 0.05122137 0.012861433 -0.0692617 -0.0037807198 0.017880168 -0.050727487 -0.07769924
-0.032209676 -0.028374752 0.05453569 0.067179576 -0.056336377 0.005162807 -0.015867732 0.0044353995
00000000: ca9c 69bc 0f51 563d 8674 903d 6a48 dfbc
00000010: cce0 3bbd 37c1 7b3d 4b76 30bd 948b ab3c
00000020: dd12 47bd acd4 e3bc 4d07 1dbd 8a82 543d
00000030: 51db 463c 2800 793d baf6 41bd 5ef9 a1bc
00000040: cbe1 47bd e664 913c 1b5b c93b 1a95 54bd
00000050: d676 e0bc f862 99bd c22e dcbc 5607 99bc
00000060: ebde 25bd 0607 3f3d b36b 12bc 41ab 8d3d
00000070: 3410 89bb e250 003c 9ace 65bd 457e 91bd
00000080: 27a6 9e3d c511 acbd 789d 6b3d 78a2 5dbc
00000090: af02 563d 1bbf a63d a02c 933d 7d3c aabd
000000a0: 26cb 0f3d b587 7cbd d41a 013d 8d4e 113d
000000b0: 517f 893d 4e31 7e3d 9540 8d3c b267 78bd
000000c0: cfed 61ba 0c4c 9cbd b9a6 86bd 0279 813d
000000d0: 6b27 833b 1831 383d 274c 9c39 ec94 93bd
000000e0: 5ea5 933d 470a 2d3d 55b9 b7bc 6f39 673c
000000f0: 0369 dd3b 6193 2ebc 2624 6cbd bbe9 8c3c
00000100: 08ab bcbc 65da 2e3d e283 1dbd d4a8 df3c
00000110: 826d 643c eaf3 45bd 389e 66bd 796c 4dbd
00000120: c122 763d 0300 92bd e4ba 2e3d 3b79 973d
00000130: e0c8 ff3c 1ad0 34bd 89ea 0b3d ebca aebd
00000140: f3f5 853b b7ec 483d dd4f a33d d0f3 2dbd
00000150: 899b 7bbd 4d98 823c 0205 45bd 98f1 293c
00000160: 456a 573d cbc0 873d defe c53c 1c03 3bbd
00000170: 3718 0bba 7989 f6bc 8b58 40bd 9d25 adbc
00000180: 482c 0abd 560d 5ebd 796f 803d 274f 503d
00000190: 034b 88bd 577a dcbb 69f4 a4bc 2730 c13a
000001a0: e5e2 8d3d 3690 c5bc 1aee ec3a 7246 9dbd
000001b0: 891c eb3c 69ec 45bd ff62 983c db88 fbbc
000001c0: 7d09 04bc 1943 343d 96c4 183d b608 6b3d
000001d0: 685c 863d e264 8bbc 6ff3 f8bc 75d8 8cbc
000001e0: 0ad9 873b edf4 123d d7be 3bbd 2389 9ebd
000001f0: 3af2 8ebd 89e4 3ebc d92b 9abc c02f 7abc
00000200: 0ca8 01bd e850 7dbd c425 05bd b723 443c
00000210: d7c8 88bd 67f3 b23c b769 15bd 0178 8c3d
00000220: 4218 6dbc 8b19 363b 1935 28bd e177 02bc
00000230: 5af5 85bd 60de 2bbd 3609 99bc c642 d6bc
00000240: db48 3c3d 4a50 b4bc 6b75 87bc 88c0 823d
00000250: 75f9 95bd febe 913c 35f3 24bd baf7 d63c
00000260: bead 1c3d 9110 09bd db2e 403d bfed 98bd
00000270: d9e6 01bd 9fb4 3e3d 6d62 80bd 3dd7 323d
00000280: 7013 e83c 9d2d 91bd 1617 89bd f6bf 383d
00000290: 6240 a33d 957c 873d 5cf9 29bd c1fa 573d
000002a0: 9f70 693d c435 91bd 3daf 83bd dfc6 1a3d
000002b0: 57e8 853d 7a95 713d 9349 843d df8d 233d
000002c0: c596 a23d 7358 ce3c ae2a d1bb f570 dc3c
000002d0: 5a8a 88bd 985c 833d b309 483a a531 073c
000002e0: d96e a13d 0166 8f3d e113 733b b818 16bd
000002f0: 1cf6 4bbd 31e8 3fbd 61d7 323d bbe6 dbbc
00000300: a19d 8fbd 6bf6 f73c 3c82 b13d 3005 983b
00000310: 2a91 433c 0936 773c 23e9 dc3c a8b3 893c
00000320: 0fda 06bd 86de 87bd a07e a3bc 4773 e13c
00000330: ac14 f8bc b995 a83d 4f7a f5bc 1b33 9b3d
00000340: fbc4 3ebd 675e 50bd e59f 11bd 3c6f 80bd
00000350: 0fe4 503c e126 35bc 34ff 393d d375 86bd
00000360: e30c cfbb cf7a 89bc 113e 5c3d 03cb 48bc
00000370: 372f c13c a411 933d 787d 4dbb 1c03 983b
00000380: 0209 483d 004d b73b 44bd 393c dee0 233c
00000390: 8e10 b23c 9562 4f3d ede5 9dbc f376 39bd
000003a0: 086d ccbc ed3b 133d a62e 043d e0b4 d3bc
000003b0: 12ae 903d d3a8 85bd 3911 75bd ad41 9e3d
000003c0: 0e93 b83c 80cd 513d c3b8 523c 14d9 8dbd
000003d0: f4c5 77bb 6e79 923c a0c7 4fbd c720 9fbd
000003e0: 4bee 03bd 2b72 e8bc d160 5f3d 7295 893d
000003f0: f9c0 66bd c42c a93b 0cfd 81bc d456 913b

encoder_blocks.1.0.bias f4 [12]
0.011026036 -0.008919774 -0.033482525 0.07603352 -0.08358085 0.055247247 -0.013309545 -0.035150714
0.026423646 0.081705205 0.1083362 0.0325289
00000000: 8ca6 343c 3e24 12bc f924 09bd 76b7 9b3d
00000010: 702c abbd f04a 623d 4710 5abc 32fa 0fbd
00000020: 6776 d83c 0f55 a73d 5fdf dd3d 063d 053d

encoder_blocks.1.2.weight f4 [12, 12, 13]
0.06363572 -0.047034144 0.052816227 0.0741204 0.05127812 0.042033803 0.011732591 0.0040849955
-0.009411013 -0.030041529 -0.0030762863 -0.008450374 0.065478794 -0.052035976 0.018737856 -0.0024974665
0.0022014524 0.047754798 0.0798253 -0.059594788 0.08641757 -0.055777173 0.09360143 -0.0043804375
0.061234493 0.062312365 -0.048087616 -0.07428531 0.042763248 0.016514296 -0.008335412 -0.029151421
-0.07342277 -0.04800592 0.07512732 0.032765713 0.0568177 -0.0343304 0.04112857 0.016536428
-0.0297135 -0.006457214 0.03116064 -0.021790687 0.06108235 0.008931163 -0.047039848 0.014494704
0.018450499 -0.06411511 -0.059780765 0.07173756 0.066045515 0.022104587 -0.051422372 -0.0392279
0.020038683 -0.0074569616 0.0043340432 0.072117195 0.031800788 -0.013742962 -0.054504152 0.011719238
0.02410305 0.06879903 -0.03569987 -0.062365875 0.018391805 -0.055154413 0.05878291 -0.02806038
-0.07058919 -0.07421335 -0.008465178 0.042648267 -0.038521335 -0.0003321735 -0.008594606 0.043265354
0.03440702 -0.029069988 0.01386255 0.032737125 -0.005105214 -0.012182554 0.01661277 0.021855762
-0.05283799 0.043681886 -0.022473272 0.07937982 0.003090013 0.044579644 0.027154999 0.079942554
0.0034202125 0.016834725 -0.073478624 0.0287041 0.014598442 -0.040237572 -0.06953258 0.085165545
-0.068858385 0.053597085 -0.008682196 -0.00834446 -0.06722235 0.03642727 0.038558178 0.028371021
-0.021235555 0.031688932 -0.028575344 0.04052983 0.0017252901 0.06852134 -0.025159745 -0.005914172
-0.06224635 0.046887353 0.08347435 0.06587454 -0.07320111 0.06333584 -0.009417218 -0.002221958
0.038372524 0.046599418 -0.036040198 -0.021201605 0.05899522 -0.060604367 0.045717068 -0.034139298
-0.047981936 0.077764004 -0.04979616 -0.032978166 0.084766015 -0.046634723 0.066384204 -0.07771565
-0.01910536 -0.014502785 0.08395555 0.03582309 -0.029549355 0.07039465 0.028046047 0.07266446
0.02512479 0.065750346 0.08271189 -0.031078557 0.0007499858 -0.0067426874 -0.066413425 -0.05732208
-0.016563278 -0.08628725 0.023280112 -0.053820174 -0.030551013 0.038264263 0.05012987 -0.020863023
-0.031235777 -0.07809145 -0.02945754 0.01283326 -0.009664449 0.06055376 0.088439934 0.009716227
0.03515439 0.0742492 0.003564188 -0.084019914 0.060894456 -0.06504904 -0.047946528 0.014479768
0.06827126 0.027997887 -0.011694667 0.053756326 -0.080504835 0.08102961 -0.013737069 0.028153554
-0.013764402 0.08139481 0.0063879583 -0.033224873 0.0045500784 -0.002592063 0.052028984 -0.03217256
-0.06678802 0.005980366 -0.06717206 -0.049580604 0.06794799 0.037616972 -0.055126406 0.01840621
0.049444832 -0.03460884 -0.003710122 -0.06234968 -0.03809108 0.0744347 -0.0717633 0.07859663
-0.007536236 -0.025123829 0.022272442 0.03274926 -0.03529997 0.066523015 0.05941057 -0.0033070596
-0.02563254 -0.07390284 0.047943223 0.03714327 -0.066279456 0.07427141 0.05339626 0.042618517
-0.07338522 0.06900149 -0.0044663316 0.004376181 -0.04315071 -0.0069406633 -0.027637452 0.011869516
0.064699106 -0.033697084 0.0146604385 0.01647377 0.03131269 0.036586154 -0.088746846 0.014852169
-0.019773878 0.048918284 0.018800788 -0.060486205 0.03206271 0.06970371 -0.051928107 -0.061766516
00000000: 7253 823d e0a6 40bd d455 583d 70cc 973d
00000010: 0209 523d a32b 2c3d 0e3a 403c 6ddb 853b
00000020: a630 1abc a719 f6bc 859b 49bb 7073 0abc
00000030: bf19 863d ad23 55bd 2280 993c 89ac 23bb
00000040: 3e46 103b 899a 433d 727b a33d aa19 74bd
00000050: b2fb b03d 9b76 64bd 1bb2 bf3d c689 8fbb
00000060: 05d1 7a3d 403b 7f3d 85f7 44bd e622 98bd
00000070: 8428 2f3d fd48 873c 4091 08bc f6ce eebc
00000080: ad5e 96bd dba1 44bd 5adc 993d 5735 063d
00000090: adb9 683d 099e 0cbd 6e76 283d 6777 873c
000000a0: ba69 f3bc 0997 d3bb 9944 ff3c 6282 b2bc
000000b0: 7c31 7a3d 0354 123c dbac 40bd 327b 6d3c
000000c0: 8025 973c c84e 83bd addc 74bd 24eb 923d
000000d0: df42 873d ae14 b53c 44a0 52bd 6fad 20bd
000000e0: 2a28 a43c 8759 f4bb 9704 8e3b 2eb2 933d
000000f0: 8b41 023d 292a 61bc bf3f 5fbd 0c02 403c
00000100: c273 c53c 81e6 8c3d 073a 12bd 5c73 7fbd
00000110: 69aa 963c 98e9 61bd 59c6 703d e2de e5bc
00000120: 1191 90bd 2bfd 97bd 88b1 0abc f3af 2e3d
00000130: 8cc8 1dbd 9327 aeb9 64d0 0cbc 0337 313d
00000140: 60ee 0c3d 2f24 eebc c01f 633c 5d17 063d
00000150: a449 a7bb 5699 47bc 8117 883c db0a b33c
00000160: a66c 58bd c7eb 323d de19 b8bc e391 a23d
00000170: d181 4a3b 2599 363d 2974 de3c ecb8 a33d
00000180: a525 603b fae8 893c f67b 96bd dc24 eb3c
00000190: 4e2e 6f3c 27d0 24bd 1967 8ebd 466b ae3d
000001a0: a005 8dbd 9e88 5b3d c53f 0ebc 34b7 08bc
000001b0: dfab 89bd c334 153d 2eef 1d3d 586a e83c
000001c0: 30f6 adbc 41cc 013d d716 eabc 9b02 263d
000001d0: 2123 e23a eb54 8c3d cf1b cebc accb c1bb
000001e0: 07f6 7ebd f40c 403d 9af4 aa3d 3be9 863d
000001f0: 77ea 95bd 39b6 813d ad4a 1abc 459e 11bb
00000200: 822c 1d3d 08df 3e3d e39e 13bd fdae adbc
00000210: f9a4 713d 493c 78bd d241 3b3d a6d5 0bbd
00000220: b588 44bd bc42 9f3d 0ff7 4bbd 1d14 07bd
00000230: ce99 ad3d 0d04 3fbd 71f4 873d 6229 9fbd
00000240: d882 9cbc 179d 6dbc e3f0 ab3d 3bbb 123d
00000250: 7d11 f2bc 122b 903d d3c0 e53c 1bd1 943d
00000260: 81d2 cd3c 1ea8 863d da64 a93d 7598 febc
00000270: b29a 443a c3f1 dcbb c303 88bd 8fca 6abd
00000280: b6af 87bc 5fb7 b0bd efb5 be3c 8b72 5cbd
00000290: 1e46 fabc fdba 1c3d fb54 4d3d eee8 aabc
000002a0: 2ce2 ffbc 69ee 9fbd f050 f1bc 9842 523c
000002b0: a357 1ebc 3807 783d ff1f b53d cf30 1f3c
000002c0: 0dfe 0f3d f70f 983d 2795 693b a212 acbd
000002d0: 776c 793d 6e38 85bd 9463 44bd 8d3c 6d3c
000002e0: cdd1 8b3d d35b e53c fd9a 3fbc 982f 5c3d
000002f0: b8df a4bd daf2 a53d 7211 61bc 48a2 e63c
00000300: 1684 61bc 52b2 a63d 1452 d13b ce16 08bd
00000310: d318 953b 9adf 29bb 581c 553d 60c7 03bd
00000320: 28c8 88bd f2f6 c33b 8191 89bd 0815 4bbd
00000330: 5128 8b3d 4114 1a3d 3acc 61bd 9fc8 963c
00000340: aa86 4a3d 00c2 0dbd 8525 73bb 6162 7fbd
00000350: 6405 1cbd 3871 983d a3f8 92bd 45f7 a03d
00000360: 88f2 f6bb 7dd0 cdbc b274 b63c 1724 063d
00000370: b496 10bd 383d 883d 7f58 733d 41bb 58bb
00000380: 55fb d1bc 5f5a 97bd 1d60 443d 8b23 183d
00000390: 86bd 87bd 9c1b 983d 09b6 5a3d c190 2e3d
000003a0: fd4a 96bd a750 8d3d 4e5a 92bb 1166 8f3b
000003b0: cdbe 30bd 816e e3bb f067 e2bc 5c78 423c
000003c0: f780 843d f405 0abd 5632 703c 00f4 863c
000003d0: bc41 003d 5ddb 153d e8c0 b5bd 8356 733c
000003e0: d4fc a1bc 8a5e 483d 1c04 9a3c 62c0 77bd
000003f0: 3054 033d d2c0 8e3d 91b2 54bd e3fe 7cbd

encoder_blocks.1.2.bias f4 [12]
-0.010306175 0.02891578 0.101193145 0.040812436 0.024352025 -0.04679158 -0.05536966 -0.04654552
0.04442848 0.082190566 0.074080184 -0.0063385605
00000000: 3bdb 28bc c9e0 ec3c 5a3e cf3d f12a 273d
00000010: e67d c73c 87a8 3fbd 4ccb 62bd 84a6 3ebd
00000020: a3fa 353d 8753 a83d 5ab7 973d b3b3 cfbb

encoder_blocks.2.0.weight f4 [12, 12, 13]
0.0734565 -0.010744511 0.024168257 0.053891234 0.009254463 0.044952787 0.078143604 0.04209844
0.021499036 -0.07506619 0.048236273 -0.060067013 0.066948555 -0.08347209 0.08128662 -0.04183213
0.006351916 0.021075705 -0.05331503 -0.021195978 0.044211313 -0.07466663 0.038174767 0.002893747
0.04254492 -0.053311445 0.038476355 -0.03739063 -0.0891265 -0.052314285 0.026588844 0.005091905
-0.07040199 -0.044055004 0.015748853 -0.0667965 -0.0007070898 -0.005656433 0.06049882 0.031121122
-0.08497221 -0.0115234675 0.05346425 0.026502924 0.012658709 -0.0013892561 -0.035372544 -0.06309196
0.07392454 0.015275212 0.004579492 0.049102314 0.042984337 -0.02179826 0.029302238 0.0202491
0.021009998 0.06864917 0.06569837 -0.0825596 0.0009779432 0.029437935 0.06862169 0.029944442
0.019457355 -0.023260586 0.023439769 0.015519482 -0.069005296 -0.07041641 -0.070831075 -0.027180217
0.0696668 0.035751313 -0.073908925 0.0016928916 -0.03462344 0.063626446 0.051409025 0.009655484
-0.012606111 0.010241534 0.0035700405 0.008992411 0.017130416 -0.028631521 -0.026547555 -0.054615404
-0.025095185 0.0051435414 0.062315337 -0.028351352 -0.07796043 0.06029904 -0.0078021623 -0.04585439
0.03273267 -0.013992966 -0.014990347 0.08830442 -0.05134863 0.027347567 0.05005787 -0.041392006
-0.025031583 -0.051237233 0.013964401 -0.05234959 0.06564261 0.07803326 -0.029186955 0.049478814
-0.066104114 -0.0063387943 0.036398027 -0.06932196 -0.03955712 -0.04007792 0.007945853 0.00058704364
-0.06680681 0.06665277 -0.08030296 0.035359517 -0.021468086 -0.058054596 0.010420763 -0.039415486
-0.04300598 -0.06408559 -0.06923098 -0.066236235 -0.08040457 -0.015638806 0.020237517 0.025720695
0.07030213 0.00064436934 -0.0043896544 0.066735536 0.035644665 0.031408027 -0.05278918 0.015271399
-0.070080325 -0.05684905 0.06631751 -0.063207485 -0.049920008 0.0007794227 0.025132274 -0.00030118646
0.016196284 0.08427353 -0.05556592 0.0592241 0.05732758 -0.040911175 0.007299279 0.0513615
-0.03384753 0.035563853 -0.01576287 -0.008245422 0.016614875 0.00014307494 0.039823975 0.07030386
-0.033431727 0.08940002 0.041175105 -0.015704516 -0.049845688 -0.03459995 0.009294275 0.03978951
-0.021703724 -0.0020286052 0.05544393 0.041014425 -0.028886966 0.079409234 0.0012102793 0.027850237
-0.035190023 0.051851254 0.0705504 0.0046963636 -0.014201998 0.024986522 -0.05465899 -0.02265693
0.028186789 0.002611069 0.0682109 0.07369906 0.06607964 0.06284626 -0.05234001 0.01732712
0.021958018 0.04662443 -0.022800038 0.03207551 -0.00078738114 0.06478633 -0.0072091636 -0.010146178
0.022174116 0.0059080003 0.032370396 0.07373297 -0.054179948 0.05287017 0.013685595 -0.023389146
-0.048183218 -0.07247238 -0.0733326 0.032287158 0.058749717 0.013831693 0.042761713 -0.003450665
-0.06856047 0.0524792 0.07438099 -0.060300857 -0.026084486 0.066746786 -0.029710054 -0.057433605
0.029848762 0.057245344 -0.06638778 0.030954018 0.028814808 -0.051595517 0.05786605 -0.067545354
-0.007542552 0.00074170885 0.051549815 0.034852296 -0.07566937 0.07062317 -0.049824364 -0.04252273
-0.0013395876 -0.04300186 0.042908054 0.047592446 -0.024951085 -0.008539358 0.010113846 -0.034457926
00000000: 5d70 963d bf09 30bc 82fc c53c 0ebd 5c3d
00000010: 08a0 173c 6a20 383d c109 a03d 6a6f 2c3d
00000020: bf1e b03c 4dbc 99bd 6693 453d d408 76bd
00000030: 531c 893d 6af3 aabd 9979 a63d 2b58 2bbd
00000040: bc23 d03b f5a6 ac3c dc60 5abd 30a3 adbc
00000050: ec16 353d d1ea 98bd 255d 1c3d 05a5 3d3b
00000060: 9543 2e3d 1a5d 5abd 6299 1d3d eb26 19bd
00000070: f487 b6bd 8147 56bd d9d0 d93c ffd9 a63b
00000080: eb2e 90bd 0573 34bd bd03 813c 9acc 88bd
00000090: fe5b 39ba 9959 b9bb 9ccd 773d b9f1 fe3c
000000a0: e905 aebd edcc 3cbc 54fd 5a3d a91c d93c
000000b0: 7966 4f3c b317 b6ba cde2 10bd 5c36 81bd
000000c0: c065 973d e244 7a3c 900f 963b 821f 493d
000000d0: 5810 303d 4492 b2bc 3f0b f03c 71e1 a53c
000000e0: 291d ac3c f097 8c3d de8c 863d 0215 a9bd
000000f0: 542e 803a d327 f13c 8789 8c3d 0c4e f53c
00000100: 0865 9f3c fc8c bebc c204 c03c 6d45 7e3c
00000110: a652 8dbd 7b36 90bd e20f 91bd 0ca9 debc
00000120: 78ad 8e3d f86f 123d 905d 97bd 04e4 dd3a
00000130: 4fd1 0dbd 954e 823d 4592 523d 0932 1e3c
00000140: dd89 4ebc 1bcc 273c 57f7 693b e854 133c
00000150: 1655 8c3c a78c eabc 427a d9bc 67b4 5fbd
00000160: 6b94 cdbc 278b a83b 5e3e 7f3d 1841 e8bc
00000170: b8a9 9fbd 20fc 763d 48a9 ffbb d0d1 3bbd
00000180: b112 063d c142 65bc 139a 75bc f3d8 b43d
00000190: f152 52bd 0108 e03c 7b09 4d3d aa8a 29bd
000001a0: 090f cdbc 22de 51bd f1ca 643c 866c 56bd
000001b0: a26f 863d e7cf 9f3d 7b19 efbc 4caa 4a3d
000001c0: 9861 87bd a9b5 cfbb 1916 153d acf8 8dbd
000001d0: a606 22bd bf28 24bd 532f 023c d5e3 193a
000001e0: 02d2 88bd 3f81 883d e175 a4bd 24d5 103d
000001f0: d7dd afbc a8ca 6dbd d9bb 2a3c 2272 21bd
00000200: 0a27 30bd 4e3f 83bd f9c8 8dbd dda6 87bd
00000210: 27ab a4bd f41c 80bc 26c9 a53c 35b4 d23c
00000220: 90fa 8f3d e5ea 283a 17d7 8fbb a4ac 883d
00000230: 2400 123d b4a5 003d 7839 58bd e434 7a3c
00000240: 4686 8fbd 8dda 68bd 7ad1 873d ed72 81bd
00000250: ec78 4cbd 2c52 4c3a 33e2 cd3c 90e8 9db9
00000260: 12ae 843c 9a97 ac3d 1799 63bd f894 723d
00000270: 53d0 6a3d 7a92 27bd ca2e ef3b 7060 523d
00000280: b5a3 0abd 67ab 113d 2221 81bc ce17 07bc
00000290: eb1b 883c 6306 1639 771e 233d 78fb 8f3d
000002a0: b5ef 08bd 5c17 b73d 3aa7 283d c2a6 80bc
000002b0: fe2a 4cbd adb8 0dbd 0447 183c 53fa 223d
000002c0: 02cc b1bc 59f2 04bb 2d19 633d befe 273d
000002d0: 5ca4 ecbc 4fa1 a23d 3ca2 9e3a 2e26 e43c
000002e0: 6a23 10bd fb61 543d ba7c 903d f4e3 993b
000002f0: 7faf 68bc 89b0 cc3c 1be2 5fbd 079b b9bc
00000300: fbe7 e63c 781e 2b3b 28b2 8b3d 88ef 963d
00000310: c354 873d 8ab5 803d 7a62 56bd 9bf1 8d3c
00000320: 4de1 b33c 42f9 3e3d 25c7 babc 9c61 033d
00000330: 4168 4eba b2ae 843d d93a ecbb 283c 26bc
00000340: 7ea6 b53c e697 c13b d296 043d 5001 973d
00000350: cbeb 5dbd 648e 583d 8c39 603c 989a bfbc
00000360: c45b 45bd 666c 94bd 672f 96bd 8a3f 043d
00000370: 8ba3 703d 539e 623c e826 2f3d 8d24 62bb
00000380: 6f69 8cbd 6ef4 563d 0f55 983d 08fe 76bd
00000390: 22af d5bc 8ab2 883d 8062 f3bc 803f 6bbd
000003a0: 6485 f43c 187a 6a3d 51f6 87bd 4893 fd3c
000003b0: 080d ec3c d255 53bd f404 6d3d 3855 8abd
000003c0: 8327 f7bb 3d6f 423a e625 533d 48c1 0e3d
000003d0: 8bf8 9abd e1a2 903d a214 4cbd 502c 2ebd
000003e0: 1a95 afba b822 30bd 5bc0 2f3d 4cf0 423d
000003f0: 3866 ccbc aae8 0bbc 8bb4 253c c123 0dbd

encoder_blocks.2.0.bias f4 [12]
-0.02022044 0.07975463 0.0089406725 0.12937546 -0.012365125 0.062135275 -0.10626694 0.07120232
0.02443692 -0.08507694 0.08780876 0.101207666
00000000: 56a5 a5bc 6556 a33d e67b 123c 007b 043e
00000010: 1897 4abc 8f81 7e3d 7ba2 d9bd 86d2 913d
00000020: f02f c83c d23c aebd 14d5 b33d f745 cf3d

encoder_blocks.2.2.weight f4 [12, 12, 13]
-0.02129553 0.08291062 0.042881835 0.0034780973 -0.059418812 0.0009215846 -0.022832563 -0.05328729
-0.026024908 -0.030556155 0.010639687 -0.043787893 0.056005143 -0.01696031 0.017739123 0.05908834
0.036893982 0.036822647 -0.060830504 0.078836866 -0.021012804 -0.019108046 -0.0631889 0.044198535
0.062208585 -0.03109169 -0.026772825 0.0625289 -0.068808004 -0.021006186 0.015908059 0.045714613
-0.050477743 -0.04360839 0.08377786 -0.07589006 -0.05397066 0.04934816 -0.0032325378 0.024088128
-0.052175436 -0.038504083 -0.03345756 0.063545816 0.047309756 -0.016397497 0.0032925091 0.0073004807
0.024189632 -0.038355004 -0.054642014 0.07454933 0.0024548844 -0.07114717 0.031117 -0.055335753
-0.017837618 -0.014909558 -0.05506017 -0.0014883429 0.009671569 -0.0076407716 -0.0038396344 -0.0069837123
0.015582092 0.051104132 -0.056839418 0.022494527 0.021064866 0.009942037 0.003405016 -0.05021911
0.045430467 0.050567254 0.05205775 -0.045635074 -0.044015523 -0.0054785702 0.013453967 -0.05262482
-0.039942525 -0.0054815984 0.037545014 0.030502213 0.035176326 0.012583426 -0.08484663 0.056546535
-0.060886726 -0.051547717 0.0041341153 0.017233353 0.034361694 0.028035795 0.06790281 -0.018973202
0.012669127 0.097103536 -0.027849289 0.0787983 0.013488581 0.095997974 0.09757494 -0.0100479275
-0.0062158126 -0.07470636 0.064742245 0.07234415 0.009753796 -0.06624588 0.028038558 0.05270223
-0.020731091 -0.011501866 -0.050071456 -0.04609277 -0.013207543 -0.060301624 0.0720538 -0.04351118
0.02308659 0.07923976 0.032041505 -0.06389385 -0.017437335 -0.075382166 -0.066723265 -0.0032285003
0.020007988 0.053532295 -0.03949165 0.034480523 -0.011164585 0.03142409 0.041416794 -0.06542913
-0.016553339 0.016633827 0.053333398 0.0025481996 0.05926354 -0.033498745 0.035362784 -0.047639877
-0.025165452 0.029113075 0.0054122247 -0.06967359 -0.060508482 0.08312912 0.041154213 -0.018656723
-0.06113938 0.017325984 -0.004371274 -0.039450828 0.06397134 -0.06070711 0.09079527 -0.05241623
0.040379036 0.07505745 -0.021304067 0.04329649 0.005672518 0.048032127 -0.013996705 0.048043307
-0.020483334 -0.030741822 0.06287307 -0.009212238 0.06460316 0.00407626 0.063696764 0.046572972
0.030890424 -0.025514733 -0.021804243 -0.05381107 0.050538506 0.010835977 0.00846115 -0.045023896
-0.00861377 0.00788464 -0.00012542169 0.016766137 0.044777565 0.025603117 -0.037517205 0.010818968
0.07813746 -0.059209727 -0.031500027 -0.03710824 0.074971065 -0.07385243 0.07327426 -0.0118354475
0.055035345 0.068610184 -0.02003537 0.054457016 0.03143023 0.037066758 -0.06481778 0.0040821093
-0.04296679 0.07094157 -0.03713818 -0.0007751882 -0.03364171 0.06985533 0.05398093 -0.05032216
0.059387013 0.03469395 3.3445656e-05 -0.039979752 0.003404826 0.059140205 0.014791859 -0.0036452159
0.017456029 0.07219907 0.024872027 0.054403387 0.02328832 -0.029485902 -0.02354991 -0.07845272
-0.027963797 0.013675558 0.02217284 -0.04005611 0.022960188 -0.049627356 0.06681 -0.021354362
-0.022214545 -0.056815643 0.03900279 0.07981158 0.013974133 0.049078252 0.007695314 -0.08115633
-0.073053434 -0.016403595 0.0471108 -0.052257836 0.0036652805 0.0030127938 -0.025495362 -0.086093634
00000000: f773 aebc 0bcd a93d dda4 2f3d caf0 633b
00000010: 2461 73bd 7f96 713a 5b0b bbbc c643 5abd
00000020: 3032 d5bc e750 fabc 1552 2e3c ef5a 33bd
00000030: a665 653d 59f0 8abc a351 913c 9d06 723d
00000040: 251e 173d 58d3 163d 6829 79bd 3975 a13d
00000050: 0b23 acbc 7a88 9cbc 2f69 81bd 8609 353d
00000060: 6ece 7e3d 00b4 febc af52 dbbc 270f 803d
00000070: 36eb 8cbd 2a15 acbc 9e51 823c 3f3f 3b3d
00000080: c0c1 4ebd b69e 32bd ba93 ab3d 3f6c 9bbd
00000090: 5710 5dbd 4c21 4a3d fcd8 53bb 7754 c53c
000000a0: e9b5 55bd 75b6 1dbd cb0a 09bd 4f24 823d
000000b0: e0c7 413d 0b54 86bc 23c7 573b df38 ef3b
000000c0: 5629 c63c 231a 1dbd 4ed0 5fbd 52ad 983d
000000d0: 20e2 203b 9cb5 91bd 14e9 fe3c bea7 62bd
000000e0: 3220 92bc 3847 74bc c686 61bd 8014 c3ba
000000f0: 8075 1e3c 705f fabb 60a2 7bbb a0d7 e4bb
00000100: 084c 7f3c 9152 513d 73d0 68bd 7146 b83c
00000110: 3a90 ac3c ede3 223c b026 5f3b 8eb2 4dbd
00000120: 4c15 3a3d 9c1f 4f3d 823a 553d d8eb 3abd
00000130: 9f49 34bd 9485 b3bb 076e 5c3c 208d 57bd
00000140: c69a 23bd fb9e b3bb cdc8 193d c7df f93c
00000150: 0d15 103d b72a 4e3c 12c4 adbd 579d 673d
00000160: 5c64 79bd b323 53bd 7977 873b f62c 8d3c
00000170: d9be 0c3d 53ab e53c a110 8b3d b06d 9bbc
00000180: 2c92 4f3c 38de c63d 3124 e4bc 0161 a13d
00000190: 36ff 5c3c 969a c43d 5fd5 c73d 10a0 24bc
000001a0: 04ae cbbb a6ff 98bd 9597 843d 2b29 943d
000001b0: 63ce 1f3c ecab 87bd 1eb1 e53c 4bde 573d
000001c0: 40d4 a9bc 5372 3cbc ba17 4dbd c6cb 3cbd
000001d0: 7364 58bc d6fe 76bd f190 933d c738 32bd
000001e0: 1720 bd3c 7548 a23d f43d 033d c7da 82bd
000001f0: bed8 8ebc f761 9abd 35a6 88bd 3f95 53bb
00000200: cbe7 a33c ae44 5b3d ffc1 21bd 733b 0d3d
00000210: aaeb 36bc 8cb6 003d a8a4 293d b5ff 85bd
00000220: de9a 87bc aa43 883c 1f74 5a3d b2ff 263b
00000230: 53be 723d fb35 09bd 91d8 103d 0822 43bd
00000240: c727 cebc 8b7e ee3c 0859 b13b 07b1 8ebd
00000250: bed7 77bd 9a3f aa3d 5291 283d fcd5 98bc
00000260: 496d 7abd 39ef 8d3c e73c 8fbb 3197 21bd
00000270: 6803 833d 05a8 78bd dff2 b93d 67b2 56bd
00000280: 7d64 253d b8b7 993d de85 aebc a957 313d
00000290: 88e0 b93b 56bd 443d 7052 65bc 0fc9 443d
000002a0: aacc a7bc 46d6 fbbc 99c3 803d edee 16bc
000002b0: a94e 843d 2692 853b 7373 823d 4dc3 3e3d
000002c0: ea0d fd3c 4604 d1bc d09e b2bc ff68 5cbd
000002d0: 7701 4f3d 6289 313c a3a0 0a3c fa6a 38bd
000002e0: c520 0dbc 942e 013c a183 03b9 2359 893c
000002f0: ae68 373d a1bd d13c a4ab 19bd 0a42 313c
00000300: 8806 a03d e685 72bd 2c06 01bd cffe 17bd
00000310: 6e8a 993d f13f 97bd d110 963d 77e9 41bc
00000320: be6c 613d 7f83 8c3d 3721 a4bc 520e 5f3d
00000330: fcbc 003d 50d3 173d 2fbf 84bd 37c3 853b
00000340: f2fd 2fbd d049 913d 341e 18bd 0036 4bba
00000350: e4cb 09bd 5010 8f3d 1c1b 5d3d 9c1e 4ebd
00000360: cc3f 733d 3e1b 0e3d 0048 0c38 cfc1 23bd
00000370: 8023 5f3b 003d 723d 8e59 723c 93e4 6ebb
00000380: f2ff 8e3c 1bdd 933d 6cc0 cb3c 16d6 5e3d
00000390: 26c7 be3c 6b8c f1bc beeb c0bc d2ab a0bd
000003a0: 5514 e5bc 730f 603c d1a3 b53c e011 24bd
000003b0: 0117 bc3c 0e46 4bbd aed3 883d 58ef aebc
000003c0: 47fb b5bc 85b7 68bd 64c1 1f3d 4174 a33d
000003d0: c3f3 643c 4706 493d f928 fc3b 4a35 a6bd
000003e0: 0a9d 95bd d560 86bc 41f7 403d 500c 56bd
000003f0: 3435 703b 4b72 453b a6db d0bc dc51 b0bd

encoder_blocks.2.2.bias f4 [12]
0.073432766 0.05996041 0.008763334 -0.04370618 -0.005941826 0.056975905 0.1262103 -0.04681368
0.059016105 0.0636131 0.11086088 -0.03999989
00000000: eb63 963d 0c99 753d 1694 0f3c 4005 33bd
00000010: a6b3 c2bb 915f 693d 463d 013e b4bf 3fbd
00000020: dfba 713d 9647 823d 070b e33d edd6 23bd

encoder_blocks.3.0.weight f4 [12, 12, 13]
0.0763314 0.028333481 -0.009290343 -0.04862875 -0.015676469 0.04665985 -0.060744442 -0.040888518
-0.04905211 0.061554242 0.0787793 -0.044826396 -0.06565383 -0.055581525 0.06899037 0.02898807
0.044448867 0.021325527 -0.0149394125 0.052314125 -0.07261971 -0.030647153 0.001138593 -0.036766503
0.026483545 0.017940447 0.049404636 0.0670626 0.059524503 -0.011802433 0.012352119 -0.013122691
-0.042340185 0.008898435 -0.056417786 -0.014724824 0.003982397 0.016484544 0.01690237 0.04555123
-0.043878783 0.02616068 -0.012457071 0.055517767 0.05998407 -0.03806564 -0.009240481 0.031125775
0.075204685 -0.040318955 0.025243295 -0.029892841 -0.06646719 0.042021986 -0.060350247 0.039550755
0.065487444 0.037207372 -0.05647848 -0.06772511 -0.002911504 0.015186098 -0.031178819 0.016717631
-0.02097117 -0.070962116 -0.042242493 -0.022956606 0.062414978 -0.06526189 0.00015327851 0.08207479
0.0073855934 0.012662254 0.0052782577 -0.050865997 0.03766543 0.043611556 -0.0454327 0.0059179785
0.03556286 -0.048858266 -0.0320702 -0.037601475 -0.0056379684 0.06584756 -0.086169474 0.017030664
-0.0032199672 -0.025553664 0.076439016 0.07994547 0.053025957 -0.0022155528 -0.061150067 -0.061496556
-0.007395247 0.049366612 0.037017096 0.020431772 0.05853566 0.011003702 0.060046095 -0.06763219
-0.026641216 0.03185209 -0.009995593 -0.05310932 -0.028000021 -0.005051059 0.051485755 -0.074269675
0.014714163 -0.06669523 -0.042288397 0.0661768 -0.04317028 -0.070513874 -0.01785353 0.06854808
-0.005334918 -0.00475419 -0.048747227 -0.07645998 0.024664328 0.0038521907 0.0073823957 -0.065548375
0.044346027 -0.0548152 -0.0026666499 -0.0741982 0.006214755 0.045903277 0.0091450615 -0.017028926
-0.06405499 0.037481528 -0.030623103 0.008919243 -0.0788964 0.074290566 -0.02444205 0.06431808
0.008247072 -0.030006483 0.03276046 0.08225966 -0.03154186 0.025555123 0.05439657 -0.01582809
0.012540869 0.029563166 0.05999031 -0.076812856 -0.010046419 -0.0050331578 -0.03187009 0.10114766
0.09904637 -0.059127435 0.12142914 0.068328425 -0.050119307 0.10991731 0.027840048 0.07227375
0.057555955 -0.028509717 -0.075153165 -0.0761108 -0.0068325526 0.03234672 -0.06657242 0.0037914466
0.058419168 0.0661057 -0.024753824 0.03344833 0.021833934 0.07857218 0.009296432 0.025289634
-0.06437544 0.07839703 -0.024498172 0.06199646 -0.01268698 -0.04437231 -0.04153039 0.079232685
-0.037861306 -0.05809837 -0.0037695144 -0.059247334 0.018658837 0.047495574 0.0052362937 0.012288197
0.021296859 0.059473094 -0.028466078 0.06328845 -0.030236699 -0.024645219 -0.016635485 0.068821386
-0.032228243 0.056195464 -0.07229805 0.011576638 -0.046953883 0.074809425 -0.072646886 0.033294078
0.041569818 0.030072419 -0.008775759 0.060680278 0.012352452 -0.016786473 -0.026968721 0.037692394
-0.058054656 -0.024287928 0.0620687 -0.055111878 0.05497156 -0.03853937 0.027605314 -0.013872284
-0.009627384 -0.017474847 0.05344494 0.10950265 0.005173616 0.09223038 0.10236092 0.082438365
-0.0072557307 0.06326124 0.048385233 0.021308182 0.026716065 0.07474757 0.10092941 0.013972773
0.0015930019 -0.0032647783 0.005586688 -0.03443828 0.0625594 0.009150532 -0.0025011364 -0.07694254
00000000: a353 9c3d 9e1b e83c 8636 18bc f12e 47bd
00000010: f06b 80bc 661e 3f3d 2acf 78bd b87a 27bd
00000020: deea 48bd 4d20 7c3d 0b57 a13d e29b 37bd
00000030: 8475 86bd 74a9 63bd d34a 8d3d 6478 ed3c
00000040: 0410 363d dfb2 ae3c 70c4 74bc 5647 563d
00000050: a4b9 94bd bd0f fbbc d73c 953a 7998 16bd
00000060: 05f4 d83c d8f7 923c 845c 4a3d 1e58 893d
00000070: f7cf 733d fe5e 41bc 8b60 4a3c 8e00 57bc
00000080: e76c 2dbd beca 113c 5616 67bd 6340 71bc
00000090: c47e 823b 980a 873c d776 8a3c ed93 3a3d
000000a0: 3dba 33bd ec4e d63c be18 4cbc 9966 633d
000000b0: dbb1 753d b7ea 1bbd 6365 17bc 7bfb fe3c
000000c0: ea04 9a3d 7d25 25bd 07cb ce3c d5e1 f4bc
000000d0: f31f 88bd 3f1f 2c3d d231 77bd f9ff 213d
000000e0: 481e 863d c266 183d fb55 67bd 76b3 8abd
000000f0: eece 3ebb 1dcf 783c b96a ffbc 6af3 883c
00000100: bbcb abbc 9654 91bd 7706 2dbd 7e0f bcbc
00000110: d9a6 7f3d 07a8 85bd 63b9 2039 d416 a83d
00000120: d902 f23b 5875 4f3c 3cf5 ac3b dd58 50bd
00000130: 1147 1a3d 08a2 323d a417 3abd 9aeb c13b
00000140: 5daa 113d 9b1f 48bd 0b5c 03bd 0104 1abd
00000150: b5be b8bb 16db 863d 9f79 b0bd e483 8b3c
00000160: 1606 53bb eb55 d1bc 0f8c 9c3d 73ba a33d
00000170: bf31 593d cf32 11bb 7e78 7abd d0e3 7bbd
00000180: d453 f2bb a534 4a3d 3d9f 173d 8860 a73c
00000190: 17c3 6f3d df48 343c e5f2 753d bf82 8abd
000001a0: ae3e dabc 5677 023d 8ec4 23bc 2989 59bd
000001b0: 4d60 e5bc 5b83 a5bb bae2 523d b31a 98bd
000001c0: ac13 713c 8297 88bd 9936 2dbd b487 873d
000001d0: 52d3 30bd 9469 90bd 9141 92bc f062 8c3d
000001e0: 89d0 aebb 09c9 9bbb 2cab 47bd 0d97 9cbd
000001f0: d80c ca3c 0975 7c3b 06e8 f13b 3a3e 86bd
00000200: 2ea4 353d e785 60bd f6c2 2ebb 3af5 97bd
00000210: 25a5 cb3b 1305 3c3d 2bd5 153c 3f80 8bbc
00000220: 432f 83bd 3b86 193d 4ddd fabc 0422 123c
00000230: 7094 a1bd a725 983d b23a c8bc 33b9 833d
00000240: ba1e 073c 28d0 f5bc d52f 063d c177 a83d
00000250: 0a32 01bd fa58 d13c f0ce 5e3d e9a9 81bc
00000260: 3878 4d3c 742e f23c 66b8 753d 0f50 9dbd
00000270: bc99 24bc 30ed a4bb 368a 02bd 8126 cf3d
00000280: d3d8 ca3d 9c2f 72bd d7af f83d c6ef 8b3d
00000290: e749 4dbd 541c e13d d010 e43c 4304 943d
000002a0: cbbf 6b3d 368d e9bc e7e9 99bd fbdf 9bbd
000002b0: 9be3 dfbb ff7d 043d 1f57 88bd eb79 783b
000002c0: f048 6f3d 6d62 873d 88c8 cabc 1e01 093d
000002d0: 14dd b23c 73ea a03d 1050 183c 352c cf3c
000002e0: 45d7 83bd 9f8e a03d 64b0 c8bc 00f0 7d3d
000002f0: 0ddd 4fbc bdbf 35bd c51b 2abd bf44 a23d
00000300: 7514 1bbd 8ef8 6dbd f509 77bb 55ad 72bd
00000310: 6bda 983c b88a 423d 3795 ab3b 6f54 493c
00000320: c076 ae3c 0f9a 733d b131 e9bc 609d 813d
00000330: f4b2 f7bc c5e4 c9bc 2447 88bc 3af2 8c3d
00000340: c301 04bd 372d 663d 0011 94bd f0ab 3d3c
00000350: b752 40bd af35 993d e4c7 94bd 5f5f 083d
00000360: 1d45 2a3d 6f5a f63c 33c8 0fbc e28b 783d
00000370: f061 4a3c c983 89bc 82ed dcbc 5763 1a3d
00000380: b8ca 6dbd 7af7 c6bc c03b 7e3d febc 61bd
00000390: dc29 613d 75db 1dbd 8a24 e23c 9448 63bc
000003a0: 2dbc 1dbc 6927 8fbc 15e9 5a3d ed42 e03d
000003b0: 7087 a93b 48e3 bc3d 9aa2 d13d 72d5 a83d
000003c0: 7bc1 edbb 1c8f 813d 982f 463d 7f8e ae3c
000003d0: a6db da3c 4115 993d 14b4 ce3d 0fee 643c
000003e0: 46cc d03a e4f5 55bb 8910 b73b 270f 0dbd
000003f0: 251f 803d 1dec 153c 1bea 23bb 0d94 9dbd

encoder_blocks.3.0.bias f4 [12]
-0.048209816 0.072329566 0.09522949 -0.020246193 -0.03874232 0.09402103 -0.030588098 -0.050117727
0.017002253 -0.08334632 0.035558328 0.032464158
00000000: a877 45bd 8621 943d ae07 c33d 58db a5bc
00000010: 44b0 1ebd 198e c03d e493 fabc 3f48 4dbd
00000020: 4f48 8b3c 7ab1 aabd 9ca5 113d 23f9 043d

encoder_blocks.3.2.weight f4 [12, 12, 13]
0.006295778 -0.05655711 -0.012970341 0.05325854 -0.035913054 -0.06444564 0.033230755 -0.011615295
-0.051597096 -0.0025149176 -0.04735779 0.032829273 -0.0078947395 0.02630611 -0.0033746827 -0.010763242
-0.031156335 -0.04333861 0.00991709 -0.06528931 0.058652002 -0.032970197 -0.009312993 0.06610124
0.0339359 0.047197897 -0.0011376444 -0.040706113 0.029815251 -0.06485186 0.02601439 -0.06728032
0.049775433 -0.05410208 -0.0039953543 0.07881102 0.0035490156 -0.0011042821 -0.038397595 -0.050843164
0.060387753 -0.074336916 0.0035530124 0.019379431 0.03898005 0.012380115 0.030986158 -0.03117517
-0.032447435 0.06812838 -0.06825983 0.004654472 0.064059444 0.062180046 0.04857528 -0.0035414344
-0.004858386 -0.047007907 0.006628346 0.044743303 0.066046454 -0.012961746 0.023344371 -0.025850693
-0.05067606 -0.031824544 -0.03272305 -0.07863546 0.071541324 -0.041980557 -0.026293807 0.04882807
0.0706489 0.059409387 0.07264439 0.015287973 0.059211243 -0.0638984 -0.02088579 -0.07256474
0.035171613 -0.064051054 -0.04035261 -0.05748677 -0.07326749 -0.0063065686 0.053580027 -0.07727089
-0.017128602 0.03287466 0.04028546 -0.0445342 0.014766343 -0.065600224 0.077941164 0.0361813
0.052737817 0.020392612 0.029262938 0.03883715 -0.019678261 -0.045712892 -0.03256037 0.008640803
0.044127356 -0.03032615 0.07109591 0.065535076 -0.026159326 0.0727388 0.0056475396 -0.026622783
0.019057905 0.066889316 -0.022913799 0.05048189 -0.001999142 0.005584729 0.00035692294 0.038997497
0.07054265 0.016665945 0.03723606 -0.058006465 0.057019446 -0.009490498 -0.0030233685 -0.061222192
0.06962914 -0.036018517 0.07575434 -0.018250266 -0.041865047 -0.060539365 -0.048768632 0.05030416
-0.054816656 -0.030462176 -0.0144284805 -0.0043121944 -0.0018977908 0.010615754 -0.079633765 0.01342667
0.042468626 -0.022373557 -0.05128139 -0.009277148 -0.06332829 -0.03439736 -0.015282627 0.00026276856
-0.025461858 0.02915427 -0.017648086 -0.027012268 0.007921091 -0.048885275 0.043914612 0.019416954
-0.019410655 0.07633078 0.07352051 -0.020604772 0.07325013 0.019407256 0.009780449 -0.036138862
0.05280984 -0.016593905 0.041224245 0.019949883 -0.034038592 0.04262482 -0.07904014 -0.033337563
-0.07621589 0.06890299 -0.03636915 0.0044741994 -0.044098966 -0.029406436 0.023054289 0.0674695
-0.049312074 -0.037853908 -0.02977571 0.014436743 -0.056689013 -0.022906113 0.06807631 0.053111345
0.006537609 0.05701665 0.026588185 -0.01540523 0.00918423 -0.08107929 0.0015457445 -0.030481635
-0.049080465 0.035784993 0.0761195 -0.0099081015 0.0050207353 0.0062856115 0.009544577 0.038578216
-0.040262774 -0.009889276 -0.057680875 0.048949905 0.050105274 -0.053222384 -0.056825414 0.005030008
0.061829247 -0.017075311 -0.052525442 0.0030537497 -0.033680547 0.020245967 0.032259244 0.018036848
0.03694146 -0.034791507 0.045594618 -0.0047609224 -0.009521403 -0.047447126 -0.017135607 -0.048975434
0.026791923 -0.035939857 -0.052370675 -0.067888275 -0.07163526 -0.028771413 0.022721756 -0.0434064
0.02442264 -0.04620121 0.06626661 -0.0056918873 -0.050011046 0.061916567 -0.05777634 -0.04448008
0.011449084 -0.0043935925 0.07781303 -0.01137317 0.07152666 0.010295406 0.07300198 0.053188697
00000000: d04c ce3b 6ea8 67bd 8e81 54bc a025 5a3d
00000010: 9119 13bd 13fc 83bd f91c 083d 144e 3ebc
00000020: 7a57 53bd 51d1 24bb 3efa 41bd fd77 063d
00000030: f058 01bc e97f d73c c829 5dbb 4f58 30bc
00000040: 923b ffbc d483 31bd 4a7b 223c 67b6 85bd
00000050: 153d 703d c20b 07bd 8695 18bc 1660 873d
00000060: 5f00 0b3d 9552 413d 031d 95ba 74bb 26bd
00000070: 1d3f f43c 0dd1 84bd 211c d53c 44ca 89bd
00000080: 53e1 4b3d 259a 5dbd 76eb 82bb ac67 a13d
00000090: 9a96 683b 8fbd 90ba cc46 1dbd ec40 50bd
000000a0: 2659 773d f43d 98bd a8d9 683b 9dc1 9e3c
000000b0: 8ba9 1f3d f7d5 4a3c afd6 fd3c 1263 ffbc
000000c0: 9ae7 04bd e486 8b3d cfcb 8bbd 8b84 983b
000000d0: 9931 833d 81b0 7e3d dff6 463d 6917 68bb
000000e0: 1833 9fbb 5d8b 40bd 9932 d93b c144 373d
000000f0: 5d43 873d 815d 54bc b23c bf3c d5c4 d3bc
00000100: b391 4fbd 745a 02bd 9b08 06bd a10b a1bd
00000110: 4284 923d cef3 2bbd 1c66 d7bc f1ff 473d
00000120: 5fb0 903d 4257 733d 95c6 943d 687a 7a3c
00000130: 7d87 723d 2add 82bd ad18 abbc d39c 94bd
00000140: 1c10 103d 332d 83bd c748 25bd 3f77 6bbd
00000150: 440d 96bd 55a7 cebb bb76 5b3d 3340 9ebd
00000160: 4851 8cbc 94a7 063d 5e02 253d 7e69 36bd
00000170: 88ee 713c 6959 86bd 9e9f 9f3d d832 143d
00000180: 9c03 583d 680e a73c d4b8 ef3c b413 1f3d
00000190: 4e34 a1bc 713d 3bbd 065e 05bd 2892 0d3c
000001a0: e3be 343d 8c6e f8bc bc9a 913d 4137 863d
000001b0: 154c d6bc 14f8 943d ff0e b93b 0618 dabc
000001c0: 531f 9c3c 44fd 883d b8b5 bbbc 19c6 4e3d
000001d0: 0a04 03bb 1a00 b73b 6321 bb39 d7bb 1f3d
000001e0: aa78 903d 0587 883c d784 183d 3098 6dbd
000001f0: 398d 693d 097e 1bbc b523 46bb 1fc4 7abd
00000200: b999 8e3d 2788 13bd 1725 9b3d 9581 95bc
00000210: af7a 2bbd 20f8 77bd 9ec1 47bd bc0b 4e3d
00000220: 6e87 60bd d08b f9bc 6f65 6cbc 4f4d 8dbb
00000230: 4bbf f8ba b3ed 2d3c 0717 a3bd 89fb 5b3c
00000240: 95f3 2d3d c048 b7bc 6f0c 52bd 2eff 17bc
00000250: 43b2 81bd 3fe4 0cbd fc63 7abc 33c4 8939
00000260: 6395 d0bc f0d4 ee3c b892 90bc d548 ddbc
00000270: 77c7 013c ed3b 48bd cfdf 333d 4e10 9f3c
00000280: 1803 9fbc 5053 9c3d ec91 963d 57cb a8bc
00000290: 2a04 963d f7fb 9e3c 2d3e 203c 5806 14bd
000002a0: 214f 583d f1ef 87bc c1da 283d f06d a33c
000002b0: 0d6c 0bbd 5d97 2e3d ccdf a1bd f88c 08bd
000002c0: 1417 9cbd 031d 8d3d d1f7 14bd 4e9c 923b
000002d0: 1ea1 34bd c4e5 f0bc 59dc bc3c 732d 8a3d
000002e0: 75fb 49bd b30c 1bbd 31ec f3bc 1788 6c3c
000002f0: bd32 68bd 9aa5 bbbc 986b 8b3d 488b 593d
00000300: 7039 d63b 4a8a 693d 77cf d93c 3866 7cbc
00000310: 7479 163c e60c a6bd 949a ca3a 9fb4 f9bc
00000320: 9908 49bd 4993 123d 8ae4 9b3d 9755 22bc
00000330: fb84 a43b 88f7 cd3b dc60 1c3c 3104 1e3d
00000340: 94ea 24bd a106 22bc c842 6cbd b27f 483d
00000350: 303b 4d3d b7ff 59bd c4c1 68bd c4d2 a43b
00000360: aa40 7d3d 86e1 8bbc eb24 57bd 6b21 483b
00000370: 9df4 09bd dfda a53c 4522 043d 03c2 933c
00000380: ee4f 173d 8a81 0ebd 6cc1 3a3d 8301 9cbb
00000390: a9ff 1bbc eb57 42bd f95f 8cbc 779a 48bd
000003a0: bc7a db3c ac35 13bd a282 56bd 0209 8bbd
000003b0: 82b5 92bd 07b2 ebbc fa22 ba3c e9ca 31bd
000003c0: fd11 c83c 7b3d 3dbd cab6 873d 0383 babb
000003d0: 62d8 4cbd 3a9c 7d3d e2a6 6cbd bf30 36bd
000003e0: f094 3b3c 20f8 8fbb 705c 9f3d 8856 3abc
000003f0: 927c 923d 10ae 283c 1082 953d 64dc 593d

encoder_blocks.3.2.bias f4 [12]
-0.075763926 -0.060210615 -0.073655985 -0.04332745 -0.018107098 0.03105107 0.004283631 0.0054459646
0.008433349 0.07779418 0.04623902 0.0018461162
00000000: 1e2a 9bbd 689f 76bd f3d8 96bd 2078 31bd
00000010: 5655 94bc d05e fe3c b45d 8c3b 1074 b23b
00000020: 082c 0a3c 8e52 9f3d 2065 3d3d 61f9 f13a
