Python/save/localizer/trial_2/quake_localization_model_00570.pth (torch, 252994 bytes, 35 tensors)

encoder_blocks.0.weight f4 [12, 1, 13]
0.19064176 0.19487667 0.22301249 0.08098616 0.18611926 0.101287216 -0.1084483 -0.061848123
-0.20667112 -0.20011498 -0.19227108 0.08618399 -0.08734161 -0.21446477 -0.24742173 -0.25049746
-0.13175802 0.113408275 -0.1735093 0.28300685 -0.19797902 -0.018830273 0.073495254 0.1731184
0.15648228 -0.039278448 0.06899865 -0.084987655 0.022299353 0.07468209 -0.21855365 -0.18839361
0.15659203 -0.06805469 -0.10657423 -0.1069335 -0.008801178 -0.11052289 -0.2451128 0.0772673
0.029482208 -0.2077817 0.073295906 -0.15407795 -0.14177223 0.08772993 0.035902113 0.03702304
-0.092589736 0.0027000695 0.26627213 -0.2527373 0.059270594 0.04094936 -0.08733168 -0.00497956
-0.14658162 -0.11112755 -0.1465218 0.17916402 -0.033869743 0.11949153 -0.0110902265 -0.13204126
-0.16962983 -0.085986674 0.23363653 0.098654285 -0.030212352 -0.05691907 0.074974455 0.22548312
-0.23995736 0.07832615 0.15323637 -0.20053141 0.22796804 0.1650431 -0.1190119 0.030869761
0.121102035 0.108358674 0.065583795 -0.034589306 -0.07921607 0.24290246 0.14162095 0.14533913
-0.26941806 0.121255 -0.14980134 0.09253125 -0.095162615 -0.05278661 0.11015924 -0.20320052
0.27197805 0.19973919 -0.08978695 0.1434728 -0.17162697 0.013197594 0.21492521 0.024201144
-0.17861246 -0.014945775 -0.04457165 -0.0697973 0.16476896 0.1943749 0.18917523 0.24895585
0.15774135 0.18633416 0.22770844 -0.13973454 0.16739434 0.26199088 -0.08084966 -0.19620183
-0.22319484 0.013010569 -0.18275414 -0.19376351 0.12953736 0.21294902 -0.19356278 0.27197173
0.04775264 0.11308027 0.2835128 -0.2249732 0.27709478 0.02408756 -0.037080176 0.2071751
0.117143124 0.026943877 -0.042244587 -0.050455343 -0.0076672197 -0.10291613 -0.1902277 0.07340425
0.14866051 -0.20980166 -0.054099564 -0.22669674 -0.2708803 0.089935385 -0.24003002 -0.10262442
-0.1749651 0.23840603 -0.19342905 -0.11800623
00000000: 9837 433e c08d 473e 635d 643e 12dc a53d
00000010: 0c96 3e3e ac6f cf3d 241a debd 7554 7dbd
00000020: 98a1 53be f1ea 4cbe b6e2 44be 3b81 b03d
00000030: 28e0 b2bd a79c 5bbe 1f5c 7dbe 3441 80be
00000040: 93eb 06be 9942 e83d 6cac 31be 46e6 903e
00000050: 03bb 4abe f241 9abc ae84 963d f345 313e
00000060: e43c 203e 70e2 20bd 2a4f 8d3d 020e aebd
00000070: 22ad b63c ecf2 983d 87cc 5fbe 41ea 40be
00000080: a959 203e 4260 8bbd 9743 dabd f3ff dabd
00000090: d132 10bc d359 e2bd dafe 7abe 513e 9e3d
000000a0: ac84 f13c bac4 54be 2a1c 963d 9cc6 1dbe
000000b0: bd2c 11be c0ab b33d 180e 133d 79a5 173d
000000c0: b09f bdbd a6f3 303b d254 883e c966 81be
000000d0: b9c5 723d 84ba 273d f4da b2bd 942b a3bb
000000e0: 7e19 16be d796 e3bd d009 16be c676 373e
000000f0: 00bb 0abd fab7 f43d c8b3 35bc d335 07be
00000100: 71b3 2dbe c819 b0bd 6a3e 6f3e 420b ca3d
00000110: e57f f7bc f923 69bd 358c 993d 0ce5 663e
00000120: 62b7 75be 7669 a03d ffe9 1c3e 1b58 4dbe
00000130: 7470 693e 0f01 293e 83bc f3bd 95e2 fc3c
00000140: 5804 f83d 27eb dd3d cc50 863d 84ad 0dbd
00000150: 093c a2bd 6cbb 783e 1505 113e c8d3 143e
00000160: 2af1 89be 8b54 f83d 8665 19be 0681 bd3d
00000170: 9ee4 c2bd c636 58bd 2b9b e13d cc13 50be
00000180: b540 8b3e 6e88 4c3e 38e2 b7bd 89ea 123e
00000190: fbbe 2fbe b93a 583c 5b15 5c3e 7a41 c63c
000001a0: 2fe6 36be 20df 74bc c390 36bd e3f1 8ebd
000001b0: 32b9 283e 370a 473e 27b7 413e 48ee 7e3e
000001c0: f386 213e 62ce 3e3e 672c 693e 9216 0fbe
000001d0: 6c69 2b3e ab23 863e 8294 a5bd 22e9 48be
000001e0: 308d 64be 482a 553c e723 3bbe f169 46be
000001f0: 71a5 043e 4f0f 5a3e 5235 46be e13f 8b3e
00000200: 4698 433d a196 e73d 9728 913e 605f 66be
00000210: 5edf 8d3e 4653 c53c 62e1 17bd b625 543e
00000220: bce8 ef3d 68b9 dc3c a908 2dbd 43aa 4ebd
00000230: 4d3d fbbb b1c5 d2bd 0dcb 42be f854 963d
00000240: 763a 183e 3fd6 56be 8197 5dbd 3123 68be
00000250: d3b0 8abe 0b30 b83d 6eca 75be c02c d2bd
00000260: 0d2a 33be b620 743e 4412 46be 40ad f1bd

encoder_blocks.0.bias f4 [12]
-0.18190478 0.041510668 0.26201963 -0.11493007 0.26758304 -0.26099113 0.06459405 0.109881595
0.07740354 -0.07434927 0.0074334913 0.10753211
00000000: 3f45 3abe 1707 2a3d 7027 863e 7560 ebbd
00000010: a500 893e a1a0 85be e349 843d 9a09 e13d
00000020: bf85 9e3d 6e44 98bd a594 f33b cb39 dc3d

encoder_blocks.1.0.weight f4 [12, 12, 13]
-0.0143466685 0.052313186 0.07042912 -0.027262924 -0.045916326 0.061380085 -0.04311387 0.020862596
-0.04857066 -0.027806198 -0.038332965 0.05189712 0.012001135 0.060761802 -0.047377855 -0.01974982
-0.048795126 0.017747939 0.006200117 -0.05191896 -0.027328368 -0.07482778 -0.02680696 -0.018710643
-0.040636517 0.046601616 -0.008814223 0.06913986 -0.0041286782 0.007889384 -0.05610476 -0.070961006
0.077438876 -0.08389414 0.057583384 -0.013530386 0.05230504 0.081379786 0.07193714 -0.08311107
0.035132773 -0.06175005 0.031568907 0.035328835 0.06713425 0.06193484 0.017283928 -0.06059744
-0.00088073296 -0.07637993 -0.06581299 0.06316986 0.004122724 0.045071904 0.000367342 -0.07199352
0.07208959 0.042337444 -0.022412077 0.014128635 0.0068186508 -0.010635245 -0.057463393 0.017268766
-0.022937858 0.042639177 -0.038467195 0.027307842 0.013866204 -0.04827111 -0.056379385 -0.05016279
0.060052257 -0.071282454 0.042687424 0.073910385 0.0311768 -0.044191815 0.034110863 -0.08521707
0.004045466 0.049111243 0.07973501 -0.042503897 -0.06147606 0.015939973 -0.048032463 0.010467803
0.05261343 0.0663702 0.02401319 -0.045629222 -0.00051279506 -0.030099692 -0.04694897 -0.021102393
-0.033743683 -0.05421315 0.06276519 0.050864097 -0.066561796 -0.006784025 -0.020119019 0.0015171448
0.069267735 -0.02412223 0.0018994011 -0.07680996 0.028768383 -0.04828975 0.018668383 -0.03075505
-0.008090983 0.044001963 0.037328184 0.057381548 0.06570877 -0.017030234 -0.030373557 -0.017277988
0.004266017 0.035790086 -0.04579667 -0.07739832 -0.06979724 -0.011676413 -0.01889727 -0.015293077
-0.031616863 -0.061892442 -0.032415297 0.011899817 -0.06680317 0.021822324 -0.03649203 0.06858039
-0.014486611 0.002834259 -0.0410744 -0.0079754535 -0.065346755 -0.041945342 -0.018658452 -0.02605569
0.04594583 -0.02195297 -0.016523171 0.06384282 -0.07313632 0.017818233 -0.040233072 0.026289145
0.038181994 -0.033481814 0.04678625 -0.07461063 -0.031758487 0.046471182 -0.062731385 0.043664012
0.028455777 -0.070833415 -0.06665636 0.044972483 0.079714164 0.06616003 -0.041606974 0.052789982
0.056959387 -0.07095668 -0.06422208 0.037879266 0.065545075 0.059067372 0.06465313 0.03985665
0.07904833 0.025060508 -0.0064362246 0.027084714 -0.06668103 0.064193144 0.0007398653 0.008280465
0.07881138 0.070120476 0.0036992144 -0.036589663 -0.04982787 -0.04688661 0.0437272 -0.026920883
-0.070036896 0.030130764 0.08673659 0.004629953 0.011897096 0.0150858695 0.026994895 0.016927775
-0.032936867 -0.066300884 -0.020133212 0.027607527 -0.030305317 0.082404345 -0.029989526 0.07576732
-0.046627495 -0.05091746 -0.03565657 -0.062752105 0.012665026 -0.01095864 0.045480017 -0.06562691
-0.0061657145 -0.016955674 0.053841922 -0.012286104 0.023528064 0.071763024 -0.003103882 0.0046201134
0.048841164 0.005641721 0.011353182 0.009933285 0.02177884 0.050477162 -0.019096151 -0.045279678
-0.02493617 0.03594206 0.032193914 -0.025977649 0.07059771 -0.06533161 -0.059648816 0.07728904
0.022781342 0.051132035 0.012819515 -0.069231674 -0.0038311284 0.017915342 -0.05071527 -0.07760918
-0.032182403 -0.028382363 0.05452751 0.06721715 -0.05648921 0.0051627997 -0.015898837 0.004428373
00000000: 4a0e 6bbc 5a46 563d 243d 903d 7f56 dfbc
00000010: c212 3cbd af69 7b3d 2b98 30bd 09e8 aa3c
00000020: 07f2 46bd d3c9 e3bc 0703 1dbd 1392 543d
00000030: 69a0 443c 5ee1 783d 480f 42bd 60ca a1bc
00000040: 66dd 47bd 2064 913c 5a2a cb3b faa8 54bd
00000050: bedf dfbc 4f3f 99bd 459a dbbc 1047 99bc
00000060: 7a72 26bd 56e1 3e3d 8869 10bc 3399 8d3d
00000070: dd49 87bb 7a42 013c 1bce 65bd 0154 91bd
00000080: 4698 9e3d b1d0 abbd 8edc 6b3d 8dae 5dbc
00000090: cf3d 563d 72aa a63d c753 933d 2336 aabd
000000a0: 62e7 0f3d 9fed 7cbd 664e 013d f8b4 103d
000000b0: af7d 893d 63af 7d3d 0697 8d3c 0535 78bd
000000c0: fde0 66ba 156d 9cbd f6c8 86bd 335f 813d
000000d0: ea17 873b 519d 383d cf97 c039 5771 93bd
000000e0: b5a3 933d 076a 2d3d 8899 b7bc ca7b 673c
000000f0: fd6e df3b 733f 2ebc bc5e 6bbd 3a77 8d3c
00000100: 2de8 bbbc 6ba6 2e3d c78f 1dbd b2b4 df3c
00000110: 132f 633c edb7 45bd 12ee 66bd 7f77 4dbd
00000120: 5bf9 753d 89fc 91bd 02d9 2e3d 545e 973d
00000130: 7d66 ff3c 7a02 35bd d5b7 0b3d 4a86 aebd
00000140: d48f 843b df28 493d 1c4c a33d 9118 2ebd
00000150: 52ce 7bbd 8c94 823c b0bd 44bd 2681 2b3c
00000160: 2e81 573d 19ed 873d 4fb7 c43c b5e5 3abd
00000170: 186d 06ba a193 f6bc 904d 40bd edde acbc
00000180: d136 0abd 9c0e 5ebd 098b 803d df56 503d
00000190: 8d51 88bd 874c debb a4d0 a4bc efda c63a
000001a0: 3edc 8d3d fc9b c5bc 53f5 f83a 8a4e 9dbd
000001b0: acab eb3c 79cb 45bd 70ee 983c 04f2 fbbc
000001c0: 0b90 04bc 673b 343d 70e5 183d ea08 6b3d
000001d0: 5292 863d fd82 8bbc f7d1 f8bc 918a 8dbc
000001e0: f2c9 8b3b a098 123d 4a95 3bbd 0383 9ebd
000001f0: dbf1 8ebd 6d4e 3fbc 73ce 9abc d08f 7abc
00000200: af80 01bd ee82 7dbd e7c5 04bd 73f7 423c
00000210: 1ad0 88bd bbc4 b23c ab78 15bd e073 8c3d
00000220: 4059 6dbc fabe 393b a13d 28bd 7aab 02bc
00000230: 85d4 85bd e1ce 2bbd 9cd9 98bc be72 d5bc
00000240: b231 3c3d b7d6 b3bc 9a5b 87bc 06c0 823d
00000250: 7fc8 95bd 8bf7 913c 6fcb 24bd 555c d73c
00000260: b964 1c3d 3a24 09bd f0a2 3f3d 75cd 98bd
00000270: 3015 02bd 9158 3e3d 5079 80bd 09d9 323d
00000280: 171c e93c 1c11 91bd 2183 88bd 1135 383d
00000290: 2e41 a33d e97e 873d 136c 2abd 4f3a 583d
000002a0: 3f4e 693d bc51 91bd de86 83bd 4a27 1b3d
000002b0: 7f3c 863d a1f0 713d dc68 843d ba40 233d
000002c0: 17e4 a13d b24b cd3c f7e6 d2bb c3e0 dd3c
000002d0: 1090 88bd b277 833d 85f3 413a caaa 073c
000002e0: dc67 a13d 539b 8f3d 856e 723b 0bdf 15bd
000002f0: 4f18 4cbd 2d0c 40bd 4b1b 333d 2f89 dcbc
00000300: 816f 8fbd cbd4 f63c f4a2 b13d dcb6 973b
00000310: 0aec 423c b92a 773c 6624 dd3c 1eac 8a3c
00000320: cfe8 06bd c2c8 87bd 68ee a4bc 2e29 e23c
00000330: db42 f8bc 9cc3 a83d 98ac f5bc e62b 9b3d
00000340: 79fc 3ebd d48e 50bd a00c 12bd 2d84 80bd
00000350: f880 4f3c de8b 33bc 4149 3a3d 6767 86bd
00000360: c309 cabb a0e6 8abc 5989 5c3d a84b 49bc
00000370: edbd c03c 7ef8 923d 806a 4bbb 5264 973b
00000380: ac0d 483d 30de b83b b202 3a3c 38bf 223c
00000390: 8a69 b23c 24c1 4e3d 886f 9cbc 2f77 39bd
000003a0: f046 ccbc fb37 133d c4dd 033d 14cf d4bc
000003b0: 8895 903d 94cc 85bd 5152 74bd b749 9e3d
000003c0: f09f ba3c d36f 513d f108 523c 56c9 8dbd
000003d0: ab13 7bbb 32c3 923c d1ba 4fbd 90f1 9ebd
000003e0: b2d1 03bd 2182 e8bc 3d58 5f3d 25a9 893d
000003f0: 3b61 67bd b42c a93b 473e 82bc e31b 913b

encoder_blocks.1.0.bias f4 [12]
0.011700349 -0.008921133 -0.033971608 0.07504658 -0.08379549 0.054604135 -0.014099426 -0.034870263
0.026961442 0.08259216 0.107119255 0.03258363
00000000: d2b2 3f3c f229 12bc d025 0bbd 05b2 993d
00000010: f89c abbd 96a8 5f3d 4701 67bc 1fd4 0ebd
00000020: 3ede dc3c 1426 a93d 5761 db3d 6a76 053d

encoder_blocks.1.2.weight f4 [12, 12, 13]
0.0636081 -0.04723499 0.052766275 0.074119836 0.051171042 0.042079538 0.011674585 0.0040218052
-0.009426051 -0.030113485 -0.003042292 -0.008449289 0.06543145 -0.052183036 0.018850356 -0.0025776094
0.002152243 0.047747836 0.079834096 -0.059673265 0.08626373 -0.055800576 0.09356341 -0.0044359886
0.061081965 0.062327847 -0.047952756 -0.07431993 0.042757276 0.016516048 -0.008323206 -0.029189205
-0.073452696 -0.048102487 0.07513838 0.032719955 0.05668946 -0.034271013 0.041124325 0.016509825
-0.029569132 -0.0064993515 0.031187877 -0.021703813 0.060995724 0.008920754 -0.047085848 0.014532424
0.018454505 -0.064090416 -0.059847765 0.071780175 0.06596773 0.02206271 -0.05142507 -0.039249867
0.01991443 -0.007482053 0.0043830588 0.07210217 0.031807896 -0.013753514 -0.054549884 0.011723288
0.024198024 0.068791844 -0.03561032 -0.062448148 0.01844269 -0.05525591 0.058815263 -0.027985705
-0.070581265 -0.07426211 -0.0084181195 0.042691622 -0.0384839 -0.00053702405 -0.008697234 0.043184858
0.034423336 -0.028978854 0.013827984 0.032664724 -0.0051365206 -0.012121629 0.016736634 0.021688566
-0.052793402 0.043791045 -0.022611678 0.0793219 0.0030237006 0.044478916 0.027090129 0.07976728
0.003222739 0.016717732 -0.073562 0.028699877 0.014529834 -0.040282328 -0.0694939 0.08508245
-0.068930276 0.05358653 -0.008712816 -0.0084145665 -0.06726985 0.036292307 0.03851206 0.028254563
-0.021252701 0.031775087 -0.028677346 0.040395197 0.0017554518 0.06847607 -0.025303058 -0.0059058163
-0.06212698 0.046863653 0.08328828 0.06575283 -0.073321484 0.0633493 -0.00943528 -0.0023461028
0.038453437 0.046377055 -0.03603891 -0.021142138 0.05895269 -0.060531855 0.045782957 -0.03412367
-0.04816216 0.07776079 -0.04984244 -0.03293778 0.08467854 -0.046740577 0.066461824 -0.077786684
-0.019115226 -0.014566351 0.08383257 0.035721097 -0.029552333 0.07034654 0.02792742 0.0726807
0.025144419 0.06574338 0.08263441 -0.031006692 0.000750218 -0.0067802933 -0.06632075 -0.057238873
-0.0165748 -0.0861542 0.023299567 -0.053707488 -0.030327478 0.038251378 0.050108466 -0.020857146
-0.031221729 -0.07809739 -0.02939621 0.012896407 -0.009681806 0.06058529 0.08842106 0.009797842
0.035280693 0.074229494 0.0036314055 -0.08397823 0.060920455 -0.06531216 -0.047882896 0.014519105
0.06811979 0.028003551 -0.011658226 0.053748824 -0.08052981 0.08102008 -0.013751633 0.028121492
-0.013746492 0.081324525 0.006367961 -0.03314743 0.0046173576 -0.002673212 0.052009385 -0.032138504
-0.066753015 0.005914375 -0.06715593 -0.049512926 0.06794866 0.037546437 -0.055123672 0.018320655
0.049484704 -0.03449777 -0.0036908325 -0.062189132 -0.03811688 0.07443761 -0.07162465 0.07863815
-0.007546588 -0.025159284 0.022341749 0.03275281 -0.035326395 0.066512726 0.059421103 -0.0033117346
-0.025656506 -0.07392287 0.047939364 0.037105884 -0.06624343 0.07427135 0.05338198 0.042628575
-0.07334846 0.06902216 -0.004391908 0.0043695434 -0.04307019 -0.006924987 -0.027593896 0.011800724
0.06461797 -0.034357682 0.014698702 0.016458185 0.031240446 0.036574937 -0.088197514 0.015029388
-0.019721732 0.049027245 0.018860348 -0.060447257 0.03206596 0.06968684 -0.05205809 -0.06178413
00000000: f744 823d 7a79 41bd 7321 583d 24cc 973d
00000010: ba98 513d 985b 2c3d c246 3f3c 59c9 833b
00000020: b96f 1abc 8eb0 f6bc 3161 47bb e36e 0abc
00000030: ed00 863d e1bd 55bd 106c 9a3c 1ced 28bb
00000040: a50c 0d3b 3c93 433d 0f80 a33d f46b 74bd
00000050: 0aab b03d 258f 64bd 2c9e bf3d c55b 91bb
00000060: 1531 7a3d 7c4b 7f3d 1c6a 44bd 0c35 98bd
00000070: 4122 2f3d aa4c 873c 0e5e 08bc 331e efbc
00000080: 5e6e 96bd 1d07 45bd 27e2 993d 5c05 063d
00000090: 3533 683d c35f 0cbd fb71 283d 9d3f 873c
000000a0: f73a f2bc 83f8 d4bb b87d ff3c 32cc b1bc
000000b0: a7d6 793d 5b28 123c 17dd 40bd 6719 6e3c
000000c0: e72d 973c d641 83bd ee22 75bd 7c01 933d
000000d0: 171a 873d dbbc b43c 18a3 52bd 78c4 20bd
000000e0: 9623 a33c 022c f5bb c39f 8f3b 4daa 933d
000000f0: ff48 023d 6b56 61bc b36f 5fbd 0913 403c
00000100: ef3a c63c bde2 8c3d 20dc 11bd a1c9 7fbd
00000110: 2015 973c 0554 62bd 46e8 703d 4742 e5bc
00000120: e98c 90bd bc16 98bd 27ec 09bc 69dd 2e3d
00000130: 4ba1 1dbd 13c7 0cba d87e 0ebc 9be2 303d
00000140: 7cff 0c3d 1065 edbc c58e 623c 72cb 053d
00000150: 4250 a8bb cc99 46bc 441b 893c 38ac b13c
00000160: e53d 58bd 3d5e 333d 203c b9bc 8573 a23d
00000170: 4729 463b 862f 363d 1eec dd3c 075d a33d
00000180: 9734 533b a0f3 883c ada7 96bd 011c eb3c
00000190: 8a0e 6e3c 15ff 24bd d152 8ebd b53f ae3d
000001a0: 512b 8dbd 8d7d 5b3d 33c0 0ebc 40dd 09bc
000001b0: c6c4 89bd 3ea7 143d d2be 1d3d 1d76 e73c
000001c0: 251a aebc 9826 023d c1ec eabc 6f75 253d
000001d0: 3017 e63a 2f3d 8c3d 5c48 cfbc 9485 c1bb
000001e0: dc78 7ebd 1af4 3f3d 0c93 aa3d 6ba9 863d
000001f0: 9329 96bd 47bd 813d 6f96 1abc 13c1 19bb
00000200: 5a81 1d3d def5 3d3d 899d 13bd 4732 adbc
00000210: 6078 713d 40f0 77bd e986 3b3d 43c5 0bbd
00000220: af45 45bd 0d41 9f3d 9627 4cbd c4e9 06bd
00000230: f16b ad3d 0c73 3fbd 231d 883d a04e 9fbd
00000240: 8997 9cbc b4a7 6ebc 69b0 ab3d 4950 123d
00000250: bc17 f2bc d911 903d 0bc8 e43c 9ed9 943d
00000260: abfb cd3c 77a4 863d 3b3c a93d bf01 febc
00000270: 47aa 443a 392d debb 2cd3 87bd 4f73 6abd
00000280: e0c7 87bc 9d71 b0bd bcde be3c 62fc 5bbd
00000290: 5571 f8bc 7aad 1c3d 893e 4d3d 9bdc aabc
000002a0: b6c4 ffbc 86f1 9fbd 52d0 f0bc 744b 533c
000002b0: 70a0 1ebc 4828 783d 1a16 b53d 2187 203c
000002c0: 7d82 103d a205 983d e0fc 6d3b c7fc abbd
000002d0: ba87 793d 62c2 85bd db20 44bd 8ae1 6d3c
000002e0: 6382 8b3d b467 e53c 2502 3fbc ba27 5c3d
000002f0: d0ec a4bd dbed a53d 884e 61bc 0b5f e63c
00000300: f738 61bc 798d a63d 54aa d03b 99c5 07bd
00000310: 344d 973b 0e31 2fbb cb07 553d aaa3 03bd
00000320: ceb5 88bd 60cd c13b 0c89 89bd 11ce 4abd
00000330: ab28 8b3d 4bca 193d 5cc9 61bd 3315 963c
00000340: 79b0 4a3d 894d 0dbd e5e1 71bb 08ba 7ebd
00000350: 7220 1cbd bf72 983d f2af 92bd 0a0d a13d
00000360: 5e49 f7bb d81a cebc 0b06 b73c cf27 063d
00000370: 69b2 10bd d337 883d 8b63 733d b009 59bb
00000380: 982d d2bc e064 97bd 115c 443d 57fc 173d
00000390: a3aa 87bd 941b 983d 10a7 5a3d 4d9b 2e3d
000003a0: b837 96bd 7d5b 8d3d ffe9 8fbb 632e 8f3b
000003b0: 5e6a 30bd 00eb e2bb 980c e2bc d357 413c
000003c0: 6d56 843d a4ba 0cbd d3d2 703c 51d3 863c
000003d0: f7eb ff3c 9acf 153d e6a0 b4bd d23d 763c
000003e0: 788f a1bc cbd0 483d 0481 9a3c 8b97 77bd
000003f0: 9957 033d f9b7 8e3d dd3a 55bd 5b11 7dbd

encoder_blocks.1.2.bias f4 [12]
-0.009964122 0.028469667 0.099883564 0.040230963 0.024411485 -0.046545528 -0.05542348 -0.047365345
0.044154927 0.08110583 0.07349427 -0.0065245354
00000000: 8f40 23bc 3839 e93c c18f cc3d 39c9 243d
00000010: 98fa c73c 86a6 3ebd bb03 63bd 2a02 42bd
00000020: ccdb 343d d01a a63d 2a84 963d c5cb d5bb

encoder_blocks.2.0.weight f4 [12, 12, 13]
0.07344459 -0.0107949665 0.024176538 0.053895224 0.009277678 0.044679336 0.07814112 0.042064734
0.021332204 -0.07518281 0.04809257 -0.060398508 0.06669205 -0.0834044 0.08118639 -0.042051837
0.0062445602 0.02105393 -0.053760193 -0.021274181 0.044525426 -0.07464433 0.03814171 0.002900796
0.042618133 -0.053475857 0.03854889 -0.037273765 -0.08878684 -0.052192844 0.026755288 0.004975062
-0.070503205 -0.043418385 0.01597406 -0.06612479 -0.00046559863 -0.0055345823 0.06093828 0.031130781
-0.0849055 -0.011526621 0.0534512 0.02657678 0.012576467 -0.0015475758 -0.035215616 -0.06306537
0.07396831 0.015266077 0.004478498 0.048931975 0.042918473 -0.021627218 0.029251413 0.020160459
0.021196466 0.06844284 0.06558493 -0.08242866 0.0009021682 0.029206092 0.06860015 0.029926345
0.019165132 -0.023229452 0.023425022 0.015572628 -0.068712436 -0.07042737 -0.07085242 -0.027105635
0.069575034 0.035479873 -0.07368674 0.0018193098 -0.034555566 0.06360478 0.051453635 0.009724373
-0.012290054 0.010077333 0.0034418004 0.008931233 0.017074402 -0.028723825 -0.02665646 -0.055141177
-0.024952779 0.005315757 0.062216587 -0.028621418 -0.077902995 0.060227115 -0.007946417 -0.046144504
0.03264889 -0.01374131 -0.015253027 0.08817251 -0.051451195 0.027312955 0.04988141 -0.04149583
-0.024733309 -0.05073594 0.014186115 -0.052646883 0.065317854 0.07801208 -0.029337354 0.049602795
-0.065966256 -0.006393497 0.03634483 -0.06917563 -0.03951692 -0.040038764 0.007966207 0.0003328729
-0.066621445 0.0668901 -0.08017536 0.035342015 -0.02118795 -0.058255784 0.01061228 -0.039820157
-0.043121945 -0.0645145 -0.069515385 -0.06605798 -0.08034714 -0.01558156 0.020262614 0.025657658
0.07004414 0.0006614676 -0.0044879494 0.06681909 0.035598986 0.03152796 -0.052918375 0.014905237
-0.06996554 -0.057022355 0.066287756 -0.06335244 -0.050044768 0.0008866425 0.02509213 -0.00034835376
0.016079027 0.08415307 -0.055141512 0.05922345 0.057266835 -0.040930536 0.0072938334 0.051340997
-0.03387308 0.035539947 -0.01575089 -0.0082801785 0.01663252 0.00010810589 0.039833654 0.07028178
-0.0334322 0.08930197 0.041176014 -0.015838297 -0.049860667 -0.034669667 0.009349405 0.039748155
-0.021867473 -0.0020331477 0.055497676 0.041010827 -0.028910277 0.07941622 0.0009470588 0.02774874
-0.03537785 0.051588204 0.070406884 0.004572402 -0.014419049 0.024772502 -0.054813225 -0.022900693
0.028195376 0.002519401 0.068060696 0.073579885 0.065950595 0.06276236 -0.052418876 0.017250817
0.021831803 0.046566546 -0.022904309 0.032012124 -0.00088668114 0.06471207 -0.0072700735 -0.010179626
0.022157978 0.0059782616 0.03239408 0.073721476 -0.054212462 0.052889068 0.013727777 -0.023368742
-0.048215017 -0.072438076 -0.07337872 0.032253467 0.05883181 0.013829127 0.04276694 -0.003491679
-0.068600014 0.052485157 0.07436179 -0.060332708 -0.026092125 0.066765495 -0.029723754 -0.05743216
0.029859446 0.05726021 -0.06641023 0.030981885 0.028779132 -0.051516883 0.05783398 -0.067571685
-0.007542431 0.0007133308 0.051542584 0.034867566 -0.07566845 0.07059202 -0.049723282 -0.042548977
-0.0012593969 -0.043091618 0.042874888 0.04754995 -0.024826277 -0.008605922 0.01015445 -0.03448226
00000000: 1e6a 963d 5fdd 30bc e00d c63c 3dc1 5c3d
00000010: 6701 183c ae01 373d 7408 a03d 124c 2c3d
00000020: e0c0 ae3c 72f9 99bd b7fc 443d 6d64 77bd
00000030: d795 883d edcf aabd 0d45 a63d 8c3e 2cbd
00000040: 2b9f cc3b 4b79 ac3c a633 5cbd 3147 aebc
00000050: 4b60 363d 20df 98bd 7b3a 1c3d 481b 3e3b
00000060: 5a90 2e3d 8009 5bbd 71e5 1d3d 60ac 18bd
00000070: e0d5 b5bd 2ac8 55bd e82d db3c d805 a33b
00000080: fc63 90bd 7ad7 31bd 08dc 823c 6f6c 87bd
00000090: 971b f4b9 715b b5bb 6b9a 793d fb05 ff3c
000000a0: efe2 adbd 27da 3cbc a5ef 5a3d 8cb7 d93c
000000b0: 870d 4e3c 07d8 caba 403e 10bd 6b28 81bd
000000c0: b37c 973d 911e 7a3c 5dc0 923b e56c 483d
000000d0: 48cb 2f3d 902b b1bc a9a0 ef3c 8c27 a53c
000000e0: 36a4 ad3c c22b 8c3d 6451 863d 5bd0 a8bd
000000f0: 7c7f 6c3a 9d41 ef3c 3c7e 8c3d 1828 f53c
00000100: 3200 9d3c b14b bebc d5e5 bf3c 5624 7f3c
00000110: 1bb9 8cbd 3a3c 90bd 131b 91bd a30c debc
00000120: 5b7d 8e3d 5853 113d 13e9 96bd e875 ee3a
00000130: 238a 0dbd 3943 823d 0cc1 523d fa52 1f3c
00000140: 395c 49bc 661b 253c d48f 613b 4e54 123c
00000150: 9edf 8b3c 3a4e ebbc a65e dabc b7db 61bd
00000160: c569 ccbc cd2f ae3b d2d6 7e3d 7777 eabc
00000170: 9b8b 9fbd b5b0 763d b031 02bc 0502 3dbd
00000180: d8ba 053d 3b23 61bc d5e7 79bc ca93 b43d
00000190: 7dbe 52bd 6bbf df3c 7350 4c3d 88f7 29bd
000001a0: 829d cabc 7dd0 4fbd e16c 683c 42a4 57bd
000001b0: 5ec5 853d ccc4 9f3d e454 f0bc 4d2c 4b3d
000001c0: 5119 87bd 8a80 d1bb 51de 143d f4ab 8dbd
000001d0: 7edc 21bd b0ff 23bd b284 023c 7285 ae39
000001e0: d370 88bd adfd 883d fb32 a4bd cac2 103d
000001f0: 5a92 adbc 9e9d 6ebd 21df 2d3c 761a 23bd
00000200: a3a0 30bd 2e20 84bd 155e 8ebd 6849 87bd
00000210: 0b8d a4bd cd49 7fbc c8fd a53c 0230 d23c
00000220: 4d73 8f3d 5766 2d3a a60f 93bb 72d8 883d
00000230: 3ed0 113d 7623 013d f0c0 58bd 1835 743c
00000240: 184a 8fbd 4690 69bd e0c1 873d edbe 81bd
00000250: befb 4cbd 926d 683a 038e cd3c 40a3 b6b9
00000260: 2ab8 833c 7258 ac3d 11dc 61bd 4a94 723d
00000270: a190 6a3d c7a6 27bd 1c01 ef3b f04a 523d
00000280: 80be 0abd 5692 113d 0308 81bc 96a9 07bc
00000290: ec40 883c e8b6 e238 9d28 233d e5ef 8f3d
000002a0: 34f0 08bd f4e3 b63d 2ea8 283d 51bf 81bc
000002b0: b33a 4cbd c801 0ebd 3f2e 193c f6ce 223d
000002c0: 6a23 b3bc 8f3e 05bb 8851 633d f8fa 273d
000002d0: 3fd5 ecbc f9a4 a23d 0a44 783a 5351 e33c
000002e0: 5de8 10bd 274e 533d 7c31 903d 17d4 953b
000002f0: e03d 6cbc b4ef ca3c d583 60bd 3c9a bbbc
00000300: fdf9 e63c 891c 253b 6863 8b3d 0db1 963d
00000310: 1b11 873d 8d89 803d 2db5 56bd 9651 8d3c
00000320: 9cd8 b23c 90bc 3e3d d1a1 bbbc 251f 033d
00000330: 2a70 68ba c387 843d cc39 eebb 72c8 26bc
00000340: a684 b53c 4be5 c33b a8af 043d 49fb 963d
00000350: e30d 5ebd 35a2 583d 78ea 603c ce6f bfbc
00000360: 1c7d 45bd 6a5a 94bd 9547 96bd 361c 043d
00000370: a0f9 703d 9093 623c 632c 2f3d a7d4 64bb
00000380: 2a7e 8cbd adfa 563d ff4a 983d 6e1f 77bd
00000390: 27bf d5bc 59bc 883d 3b7f f3bc fc3d 6bbd
000003a0: cc9b f43c af89 6a3d 1602 88bd b9cd fd3c
000003b0: 37c2 eb3c 5e03 53bd 53e3 6c3d 0663 8abd
000003c0: 7f26 f7bb d2fe 3a3a 511e 533d 4bd1 0e3d
000003d0: 0ff8 9abd 8d92 903d a4aa 4bbd d647 2ebd
000003e0: 5912 a5ba d680 30bd 949d 2f3d bdc3 423d
000003f0: 7a60 cbbc daff 0cbc da5e 263c 453d 0dbd

encoder_blocks.2.0.bias f4 [12]
-0.020264812 0.078693315 0.009818009 0.12820113 -0.012365125 0.06103707 -0.10617246 0.06875512
0.025062343 -0.0843379 0.08642366 0.10019492
00000000: 6402 a6bc f629 a13d b7db 203c 2847 033e
00000010: 1897 4abc 0202 7a3d f270 d9bd 7ccf 8c3d
00000020: 8b4f cd3c 59b9 acbd e3fe b03d ff32 cd3d

encoder_blocks.2.2.weight f4 [12, 12, 13]
-0.021281356 0.082863845 0.042886883 0.0034979163 -0.059270203 0.000913852 -0.022809004 -0.053238824
-0.025952514 -0.030483792 0.010760285 -0.043715455 0.056050178 -0.017032828 0.017666677 0.059019983
0.03684182 0.03676189 -0.060893074 0.07878471 -0.021064142 -0.019180724 -0.063274115 0.044145744
0.062140863 -0.031153379 -0.02656429 0.062554374 -0.068718374 -0.021002276 0.015985882 0.045768738
-0.05050356 -0.043555953 0.083767846 -0.07588731 -0.053901754 0.049349193 -0.0032503381 0.023921918
-0.052432902 -0.03869501 -0.03367355 0.06335198 0.04708041 -0.016585896 0.0030905115 0.0070557008
0.024027234 -0.038609676 -0.054833215 0.0743972 0.0024548844 -0.07114717 0.031117 -0.055335753
-0.017837618 -0.014909558 -0.05506017 -0.0014883429 0.009671569 -0.0076407716 -0.0038396344 -0.0069837123
0.015582092 0.05104794 -0.05692318 0.022434214 0.021022433 0.009869153 0.0033580323 -0.05030046
0.045391962 0.05049884 0.051988617 -0.045719672 -0.044091985 -0.005545469 0.013466621 -0.05263766
-0.039929792 -0.005473975 0.037574824 0.030488139 0.03523055 0.012615081 -0.08478605 0.056559615
-0.060812008 -0.05150496 0.0041749175 0.016733779 0.033945028 0.026094152 0.067341134 -0.0195727
0.012100937 0.09635101 -0.02852293 0.078354195 0.011930766 0.09513463 0.09709157 -0.010525733
-0.0062869685 -0.07471095 0.06464881 0.07246974 0.009727047 -0.06620926 0.02802846 0.052927475
-0.020728767 -0.011442092 -0.05012293 -0.046053413 -0.013341395 -0.060302056 0.072062686 -0.043511756
0.023094079 0.07923214 0.03205934 -0.06389233 -0.017416505 -0.075392865 -0.066699736 -0.0032189882
0.020017218 0.053537115 -0.039589938 0.034342445 -0.0112697035 0.031310808 0.041330386 -0.065507635
-0.016658455 0.016556777 0.053223148 0.0024528173 0.059139814 -0.033588845 0.035278186 -0.047789834
-0.025286887 0.028939359 0.0052818856 -0.069889985 -0.0606365 0.08293926 0.04107086 -0.018831834
-0.061247524 0.017095443 -0.004572072 -0.039619848 0.06396182 -0.060507454 0.09060644 -0.05240043
0.040218476 0.07528942 -0.02133614 0.04345131 0.0054392056 0.047920052 -0.014434785 0.047504522
-0.019851977 -0.030750679 0.06288213 -0.009188718 0.06454798 0.0040330617 0.06366568 0.046571303
0.03087182 -0.02548368 -0.021713205 -0.053775113 0.050586548 0.01081758 0.008406078 -0.045108605
-0.008639687 0.008079119 -0.00017715666 0.016729815 0.045109812 0.02560943 -0.0372112 0.010878791
0.07797185 -0.05928215 -0.03136466 -0.037788 0.075165376 -0.07392908 0.073262796 -0.011745322
0.055012938 0.06859488 -0.02015812 0.05437985 0.03106028 0.036817133 -0.06484175 0.0038277728
-0.04296679 0.07094157 -0.03713818 -0.0007751882 -0.03364171 0.06985533 0.05398093 -0.05032216
0.059387013 0.03469395 3.3445656e-05 -0.039979752 0.003404826 0.059038647 0.0148219615 -0.003623566
0.01741318 0.07223346 0.024795981 0.054513544 0.023338405 -0.029406656 -0.0234789 -0.07831655
-0.027877271 0.013820913 0.022141516 -0.03996672 0.023112478 -0.04955177 0.06684611 -0.02120952
-0.022262761 -0.056780312 0.038950626 0.07992411 0.013984497 0.049327746 0.008023641 -0.0821707
-0.07378785 -0.016202476 0.047207665 -0.052007306 0.0033359032 0.0039192047 -0.026371166 -0.08609953
00000000: 3d56 aebc 85b4 a93d 28aa 2f3d 4c3d 653b
00000010: 50c5 72bd 928f 6f3a f3d9 babc f410 5abd
00000020: 5e9a d4bc 25b9 f9bc e84b 303c fa0e 33bd
00000030: df94 653d 6e88 8bbc b5b9 903c f0be 713d
00000040: 73e7 163d a393 163d 046b 79bd e159 a13d
00000050: b58e acbc e520 9dbc dc95 81bd 2bd2 343d
00000060: 6b87 7e3d 5f35 ffbc 5b9d d9bc 821c 803d
00000070: 38bc 8cbd f70c acbc d3f4 823c 0078 3b3d
00000080: d2dc 4ebd ba67 32bd 7a8e ab3d ce6a 9bbd
00000090: 16c8 5cbd 6122 4a3d a003 55bb e6f7 c33c
000000a0: e2c3 56bd a97e 1ebd 47ed 09bd afbe 813d
000000b0: 63d7 403d 25df 87bc 2e8a 4a3b 8233 e73b
000000c0: c3d4 c43c 2e25 1ebd cb98 60bd 8f5d 983d
000000d0: 20e2 203b 9cb5 91bd 14e9 fe3c bea7 62bd
000000e0: 3220 92bc 3847 74bc c686 61bd 8014 c3ba
000000f0: 8075 1e3c 705f fabb 60a2 7bbb a0d7 e4bb
00000100: 084c 7f3c a517 513d 4828 69bd f5c7 b73c
00000110: 3d37 ac3c 3ab2 213c 6f12 5c3b db07 4ebd
00000120: ecec 393d dfd7 4e3d 04f2 543d 8d44 3bbd
00000130: cc99 34bd c4b6 b5bb 1aa3 5c3c 969a 57bd
00000140: 6c8d 23bd 085f b3bb 0fe8 193d 43c2 f93c
00000150: e94d 103d 7caf 4e3c 4fa4 adbd 0eab 673d
00000160: 0316 79bd ddf6 52bd bfcd 883b 4715 893c
00000170: f109 0b3d 67c3 d53c 26ea 893d ed56 a0bc
00000180: 0243 463c ae53 c53d eba8 e9bc 2a78 a03d
00000190: 4279 433c f2d5 c23d f2d7 c63d 2074 2cbc
000001a0: ea02 cebb 0e02 99bd 9866 843d 046b 943d
000001b0: 315e 1f3c b898 87bd f19b e53c 7bca 583d
000001c0: 60cf a9bc 9d77 3bbc b44d 4dbd 81a2 3cbd
000001d0: de95 5abc 4aff 76bd 9a95 933d 6239 32bd
000001e0: cb2f bd3c 7644 a23d a850 033d fbd9 82bd
000001f0: 0fad 8ebc 9367 9abd df99 88bd a9f5 52bb
00000200: 26fb a33c bc49 5b3d 0f29 22bd aaaa 0c3d
00000210: 90a4 38bc c33f 003d 0d4a 293d de28 86bd
00000220: 5077 88bc 14a2 873c 8400 5a3d 72bf 203b
00000230: 973c 723d 7594 09bd dc7f 103d 46bf 43bd
00000240: 7226 cfbc 3c12 ed3c ab13 ad3b 7b22 8fbd
00000250: fb5d 78bd 0fdc a93d eb39 283d 3845 9abc
00000260: afde 7abd be0b 8c3c 52d1 95bb 6c48 22bd
00000270: 6afe 823d aad6 77bd df8f b93d d5a1 56bd
00000280: 21bc 243d 5731 9a3d 21c9 aebc 00fa 313d
00000290: 5d3b b23b d147 443d e07f 6cbc 1a94 423d
000002a0: 9da0 a2bc d9e8 fbbc 59c8 803d 478c 16bc
000002b0: bb31 843d c627 843b 2763 823d 8dc1 3e3d
000002c0: e6e6 fc3c 27c3 d0bc e4df b1bc 4b43 5cbd
000002d0: d733 4f3d 383c 313c a6b9 093c cdc3 38bd
000002e0: 798d 0dbc 485e 043c 21c3 39b9 f70c 893c
000002f0: 11c5 383d deca d13c c56a 18bd f53c 323c
00000300: b5af 9f3d d7d1 72bd 3b78 00bd 97c7 1abd
00000310: 4ef0 993d 2168 97bd ce0a 963d 736f 40bc
00000320: 3f55 613d 797b 8c3d a422 a5bc 68bd 5e3d
00000330: 2172 fe3c 90cd 163d c0cb 84bd 5fdb 7a3b
00000340: f2fd 2fbd d049 913d 341e 18bd 0036 4bba
00000350: e4cb 09bd 5010 8f3d 1c1b 5d3d 9c1e 4ebd
00000360: cc3f 733d 3e1b 0e3d 0048 0c38 cfc1 23bd
00000370: 8023 5f3b 82d2 713d d0d7 723c 5979 6dbb
00000380: 16a6 8e3c 23ef 933d f120 cb3c 9849 5f3d
00000390: 2f30 bf3c 3ae6 f0bc d256 c0bc 6d64 a0bd
000003a0: e05e e4bc 1c71 623c 2062 b53c 25b4 23bd
000003b0: 6156 bd3c ccf6 4abd 9de6 883d 96bf adbc
000003c0: 6560 b6bc 7992 68bd b18a 1f3d 40af a33d
000003d0: 3b1f 653c e40b 4a3d 9775 033c 1d49 a8bd
000003e0: 161e 97bd 0ebb 84bc d35c 413d 9d05 55bd
000003f0: 2b9f 5a3b ac6c 803b 5808 d8bc f354 b0bd

encoder_blocks.2.2.bias f4 [12]
0.07190298 0.059565805 0.0083035715 -0.0438242 -0.0059230207 0.056338653 0.12501591 -0.046813175
0.058475114 0.06275687 0.110190526 -0.040199276
00000000: df41 933d 46fb 733d b40b 083c 0181 33bd
00000010: e615 c2bb 5cc3 663d 2c04 003e 2cbf 3fbd
00000020: 9a83 6f3d ad86 803d 92ab e13d ffa7 24bd

encoder_blocks.3.0.weight f4 [12, 12, 13]
0.076271266 0.028283268 -0.009500944 -0.048701756 -0.015695196 0.04666409 -0.06086468 -0.040955838
-0.049082927 0.061547454 0.078670055 -0.044841014 -0.06567467 -0.055612635 0.06895405 0.028954096
0.04441921 0.021290436 -0.014970118 0.052282523 -0.07264763 -0.030677821 0.0011036728 -0.03679983
0.026452288 0.017902387 0.049365506 0.06700012 0.059488334 -0.011827002 0.012310355 -0.013170885
-0.042370863 0.008867322 -0.05644804 -0.014781628 0.003946001 0.016449997 0.016854258 0.045505002
-0.043933015 0.026117096 -0.012483989 0.055436365 0.05994373 -0.038101334 -0.009290442 0.031092057
0.075145386 -0.04035807 0.025201814 -0.02994733 -0.066507496 0.04199245 -0.060387444 0.039517518
0.06545972 0.037166864 -0.05650851 -0.067757614 -0.002939992 0.015128333 -0.031212792 0.01668411
-0.02100875 -0.070988886 -0.042272277 -0.023007972 0.062381264 -0.0652956 0.00012678342 0.08203664
0.007368945 0.012630234 0.005220846 -0.050906222 0.03763925 0.043588605 -0.045457773 0.0058869114
0.035477076 -0.048877634 -0.03207155 -0.037633415 -0.0056575616 0.06583374 -0.08616162 0.016832747
-0.0032806452 -0.02558695 0.0763748 0.0799173 0.052971475 -0.002226912 -0.06118559 -0.061651245
-0.0073929685 0.04933762 0.036999933 0.020405693 0.05848176 0.010983662 0.06005848 -0.06766721
-0.026686808 0.03181814 -0.010028936 -0.053152844 -0.028047247 -0.005091825 0.05144742 -0.07431283
0.014682428 -0.066732265 -0.042320985 0.06613464 -0.043205395 -0.07055711 -0.017909005 0.06848553
-0.0053822314 -0.00478965 -0.04879282 -0.07651235 0.0246224 0.0038179446 0.007324904 -0.065605305
0.04430107 -0.054853212 -0.002702419 -0.074228175 0.0061823176 0.045869175 0.009114256 -0.017060917
-0.06407985 0.037449244 -0.030659694 0.008885733 -0.07893083 0.07426109 -0.024468467 0.064286746
0.008209956 -0.030045655 0.032728042 0.08223223 -0.031579476 0.025522087 0.054366745 -0.015855012
0.012516798 0.029525112 0.05996781 -0.07685055 -0.010754096 -0.006016918 -0.032559793 0.100226216
0.09834196 -0.05988232 0.12076734 0.067851074 -0.051011976 0.10918437 0.02738014 0.071821
0.05701579 -0.02858635 -0.07522332 -0.07618494 -0.006900148 0.03228377 -0.06663377 0.003738202
0.05837078 0.06606401 -0.024783919 0.03342283 0.021809993 0.07854428 0.009199888 0.025179362
-0.06450515 0.07826746 -0.024599392 0.061900496 -0.012776826 -0.0444691 -0.041622113 0.07916039
-0.037931796 -0.058155134 -0.0038488621 -0.059273094 0.018633682 0.04746383 0.0051709185 0.01228857
0.021270046 0.059456278 -0.028480912 0.06323659 -0.030205365 -0.024631528 -0.016631527 0.06886115
-0.032248415 0.056161612 -0.07233009 0.011546453 -0.046972387 0.07478989 -0.072664425 0.03329694
0.04157408 0.030091222 -0.008749978 0.060697306 0.012387035 -0.016827535 -0.027015904 0.037639063
-0.058125824 -0.024354827 0.062003676 -0.055133887 0.054932646 -0.038587864 0.02758183 -0.013855953
-0.009623289 -0.017476525 0.052187588 0.10838191 0.004132328 0.0911896 0.101534195 0.08149625
-0.008062828 0.062404804 0.04746161 0.020249031 0.025966015 0.073686026 0.099854134 0.013991992
0.001622026 -0.0032786424 0.0056174523 -0.034414977 0.06258067 0.009161637 -0.0024931198 -0.076940306
00000000: 1c34 9c3d 50b2 e73c d9a9 1bbc 7e7b 47bd
00000010: 3693 80bc d822 3f3d 3e4d 79bd 4fc1 27bd
00000020: 2e0b 49bd 2f19 7c3d c41d a13d 36ab 37bd
00000030: 7180 86bd 13ca 63bd c837 8d3d 2431 ed3c
00000040: ebf0 353d 4869 ae3c 3a45 75bc 3326 563d
00000050: 48c8 94bd 0e50 fbbc 1da9 903a 6bbb 16bd
00000060: 78b2 d83c 07a8 923c 7c33 4a3d 5c37 893d
00000070: 0aaa 733d 0bc6 41bc 5fb1 493c b2ca 57bc
00000080: 128d 2dbd 3e48 113c 0f36 67bd a42e 72bc
00000090: 754d 813b 25c2 863c f111 8a3c 7463 3a3d
000000a0: 1bf3 33bd 85f3 d53c a589 4cbc 3e11 633d
000000b0: 8e87 753d 2510 1cbd f036 18bc c5b4 fe3c
000000c0: d3e5 993d 814e 25bd 0974 ce3c 1a54 f5bc
000000d0: 1535 88bd 4600 2c3d d358 77bd 1fdd 213d
000000e0: bf0f 863d 483c 183d 7875 67bd 81c4 8abd
000000f0: e1ac 40bb d4dc 773c f8b1 ffbc 1dad 883c
00000100: 8b1a acbc 9f62 91bd b225 2dbd 377b bcbc
00000110: 7f83 7f3d b3b9 85bd 2af1 0439 d302 a83d
00000120: 3177 f13b 0aef 4e3c a113 ab3b 0b83 50bd
00000130: 9d2b 1a3d f789 323d ee31 3abd fee6 c03b
00000140: 6950 113d ea33 48bd 755d 03bd 7f25 1abd
00000150: 1163 b9bb d7d3 863d 8175 b0bd d4e4 893c
00000160: 1800 57bb b99b d1bc 646a 9c3d aeab a33d
00000170: 9ef8 583d 62f1 11bb be9d 7abd 0486 7cbd
00000180: b740 f2bb 3f16 4a3d 3e8d 173d d729 a73c
00000190: 928a 6f3d d1f4 333c e1ff 753d 1b95 8abd
000001a0: 4b9e dabc bd53 023d 6850 24bc ccb6 59bd
000001b0: 57c3 e5bc 53d9 a6bb 88ba 523d 5331 98bd
000001c0: 918e 703c edaa 88bd c558 2dbd 9971 873d
000001d0: 24f8 30bd 3f80 90bd e8b5 92bc 2442 8c3d
000001e0: 6e5d b0bb 7ff2 9cbb fbda 47bd 82b2 9cbd
000001f0: eab4 c93c 7b36 7a3b c005 f03b 135c 86bd
00000200: 0a75 353d c3ad 60bd 111b 31bb f104 98bd
00000210: 0a95 ca3b 51e1 3b3d f653 153c 56c3 8bbc
00000220: 4c3c 83bd 6164 193d 0a2a fbbc 7795 113c
00000230: 7da6 a1bd 3316 983d 1872 c8bc c5a8 833d
00000240: 0d83 063c 4e22 f6bc d70d 063d 5f69 a83d
00000250: 7b59 01bd b213 d13c aaaf 5e3d 5fe2 81bc
00000260: 4213 4d3c a6de f13c cea0 753d d263 9dbd
00000270: f331 30bc 9129 c5bb 6b5d 05bd 6743 cd3d
00000280: 8267 c93d 2a47 75bd de54 f73d 81f5 8a3d
00000290: eff1 50bd 0e9c df3d 514c e03c e316 933d
000002a0: 6489 693d ec2d eabc af0e 9abd da06 9cbd
000002b0: a31a e2bb fd3b 043d 4977 88bd 9ffc 743b
000002c0: 3316 6f3d 914c 873d a507 cbbc 61e6 083d
000002d0: dfaa b23c d3db a03d 21bb 163c f344 ce3c
000002e0: 471b 84bd b14a a03d aa84 c9bc 608b 7d3d
000002f0: e455 51bc 3b25 36bd f37b 2abd d81e a23d
00000300: 5f5e 1bbd 1434 6ebd 313d 7cbb 58c8 72bd
00000310: aaa5 983c 6f69 423d cf70 a93b 0056 493c
00000320: 853e ae3c 6d88 733d cd50 e9bc 2f82 813d
00000330: 3e71 f7bc 0fc8 c9bc d73e 88bc 1307 8d3d
00000340: ea16 04bd b809 663d cc21 94bd 562d 3d3c
00000350: 1e66 40bd 712b 993d 16d1 94bd 5f62 083d
00000360: 9549 2a3d de81 f63c 115c 0fbc bd9d 783d
00000370: fef2 4a3c e6d9 89bc 7550 ddbc 6b2b 1a3d
00000380: 5815 6ebd c683 c7bc 91f7 7d3d 12d4 61bd
00000390: 0e01 613d 4f0e 1ebd 4af3 e13c 1404 63bc
000003a0: 00ab 1dbc ee2a 8fbc a7c2 553d 56f7 dd3d
000003b0: 7b68 873b 9dc1 ba3d 29f1 cf3d 82e7 a63d
000003c0: f419 04bc 2e9c 7f3d 1b67 423d 4ce1 a53c
000003d0: aeb6 d43c b3e8 963d 5380 cc3d ab3e 653c
000003e0: 299a d43a 7ede 56bb 9b12 b83b b8f6 0cbd
000003f0: 4b2a 803d b11a 163c 9c63 23bb e192 9dbd

encoder_blocks.3.0.bias f4 [12]
-0.04818513 0.07110768 0.0944373 -0.020748837 -0.03884546 0.09323709 -0.030125119 -0.050117727
0.0159598 -0.08250295 0.034872964 0.031630892
00000000: c55d 45bd e7a0 913d 5868 c13d 77f9 a9bc
00000010: 6b1c 1fbd 16f3 be3d f4c8 f6bc 3f48 4dbd
00000020: 20be 823c 4ff7 a8bd f4d6 0e3d 658f 013d

encoder_blocks.3.2.weight f4 [12, 12, 13]
0.006295778 -0.05655711 -0.012977847 0.05325655 -0.035915323 -0.064445354 0.033225123 -0.011657822
-0.051596284 -0.0025149176 -0.047356673 0.032827523 -0.007895848 0.02624078 -0.0034699154 -0.0108214505
-0.0312713 -0.04343424 0.009847389 -0.06540645 0.058550864 -0.03316699 -0.009428418 0.06599718
0.03381372 0.04707069 -0.0011951317 -0.040758 0.029774781 -0.064894944 0.025969254 -0.06735129
0.049717125 -0.054167468 -0.004062612 0.07875122 0.0034809867 -0.0011598578 -0.038450398 -0.050861273
0.06037121 -0.074352585 0.003530835 0.01935771 0.038959153 0.012357179 0.030968202 -0.03119502
-0.0324695 0.06810895 -0.068274125 0.0046374723 0.06398239 0.062100865 0.048530016 -0.0036087646
-0.0049620345 -0.047178738 0.006495838 0.044664435 0.06592466 -0.013042691 0.023249285 -0.025881782
-0.05075083 -0.03186663 -0.03277237 -0.07866664 0.071486615 -0.04202397 -0.026336411 0.04877436
0.07060988 0.05936203 0.07259623 0.015250408 0.059174176 -0.06393208 -0.020891137 -0.07256704
0.035161827 -0.06406031 -0.04035595 -0.057497352 -0.073277794 -0.0063134157 0.05356681 -0.077285156
-0.017140826 0.032859188 0.040274896 -0.0445342 0.014766343 -0.065600224 0.077941164 0.0361813
0.052737817 0.020392612 0.029262938 0.03883715 -0.019678261 -0.045712892 -0.03256037 0.008640803
0.0441051 -0.030345254 0.07107424 0.0655156 -0.026181271 0.072719075 0.005625871 -0.026643315
0.01903654 0.066869274 -0.022935053 0.05045876 -0.0020210599 0.005509945 0.00022145416 0.038814973
0.0704094 0.016475493 0.037178975 -0.058117136 0.05682921 -0.009578953 -0.0031872538 -0.061363515
0.06946994 -0.036238212 0.0757137 -0.018292917 -0.04190069 -0.060579866 -0.048805393 0.050269876
-0.054862134 -0.03050001 -0.014467943 -0.0043554427 -0.0019391715 0.010581189 -0.07966437 0.013289336
0.042348787 -0.02244745 -0.051360272 -0.009442286 -0.06344435 -0.034498405 -0.015448262 0.00016714496
-0.025588553 0.02899797 -0.017802559 -0.027200717 0.0080011925 -0.04888306 0.043914802 0.019429184
-0.019425273 0.076325156 0.07351072 -0.020620367 0.073239915 0.019415118 0.009864026 -0.03609672
0.052806016 -0.016603783 0.041220024 0.019947376 -0.034048695 0.042617306 -0.07905494 -0.033350606
-0.07621401 0.06889055 -0.036379535 0.0044530006 -0.044113137 -0.029417343 0.023052346 0.06746656
-0.049320154 -0.03785976 -0.029777462 0.014439791 -0.056694124 -0.022915935 0.0680615 0.053106483
0.006531262 0.05700725 0.02657835 -0.015404514 0.009179476 -0.08108015 0.001545272 -0.030477842
-0.049080323 0.03578143 0.076123096 -0.009905279 0.0050140545 0.0062895687 0.00955037 0.03857754
-0.040259108 -0.009880901 -0.05769324 0.0489591 0.050110552 -0.053230885 -0.056846075 0.0050109965
0.061841387 -0.01705507 -0.052528735 0.0030479038 -0.0336875 0.02023646 0.032256886 0.018032366
0.036929496 -0.034799043 0.045592822 -0.004774894 -0.009534449 -0.047457237 -0.017141478 -0.04898522
0.026773525 -0.035955086 -0.052359078 -0.0678828 -0.07164434 -0.028776068 0.022731561 -0.043397002
0.024412649 -0.046199366 0.0662696 -0.005690155 -0.050011646 0.06192025 -0.057766296 -0.04448008
0.011449084 -0.0043935925 0.07781303 -0.01137317 0.07152666 0.010295406 0.07300198 0.053188697
00000000: d04c ce3b 6ea8 67bd 09a1 54bc 8a23 5a3d
00000010: f21b 13bd edfb 83bd 1117 083d 7300 3fbc
00000020: a056 53bd 51d1 24bb 12f9 41bd 2776 063d
00000030: 965d 01bc e7f6 d63c 8567 63bb 744c 31bc
00000040: 5616 00bd 1ae8 31bd f156 213c d1f3 85bd
00000050: 08d3 6f3d 1cda 07bd a779 1abc 8829 873d
00000060: 4180 0a3d 32cd 403d f7a5 9cba dcf1 26bd
00000070: 3eea f33c a4e7 84bd 79bd d43c 79ef 89bd
00000080: 2fa4 4b3d b5de 5dbd a91f 85bb 5248 a13d
00000090: 4421 643b 5f06 98ba 2a7e 1dbd e953 50bd
000000a0: cd47 773d 2b46 98bd 9565 673b 0f94 9e3c
000000b0: a293 1f3d c475 4a3c 07b1 fd3c b38c ffbc
000000c0: bdfe 04bd b57c 8b3d 4ed3 8bbd f0f5 973b
000000d0: 3309 833d 7a5d 7e3d 69c7 463d 0681 6cbb
000000e0: 9098 a2bb 7e3e 41bd 0adb d43b 0ef2 363d
000000f0: 8203 873d 03b1 55bc 4975 be3c 0806 d4bc
00000100: 1ae0 4fbd 9586 02bd 523c 06bd fa1b a1bd
00000110: 9367 923d 5421 2cbd 75bf d7bc a0c7 473d
00000120: ea9b 903d 9a25 733d 55ad 943d d9dc 793c
00000130: 9f60 723d d3ee 82bd e423 abbc 079e 94bd
00000140: d905 103d 0d32 83bd 484c 25bd 5882 6bbd
00000150: ab12 96bd c5e0 cebb df68 5b3d ae47 9ebd
00000160: eb6a 8cbc 5b97 063d 4af7 243d 7e69 36bd
00000170: 88ee 713c 6959 86bd 9e9f 9f3d d832 143d
00000180: 9c03 583d 680e a73c d4b8 ef3c b413 1f3d
00000190: 4e34 a1bc 713d 3bbd 065e 05bd 2892 0d3c
000001a0: 8da7 343d 9c96 f8bc 5f8f 913d 0b2d 863d
000001b0: 1b7a d6bc bded 943d 3a59 b83b 1543 dabc
000001c0: 85f2 9b3c c2f2 883d 4be2 bbbc d8ad 4e3d
000001d0: c273 04bb c58c b43b 2636 6839 73fc 1e3d
000001e0: ce32 903d 9df7 863c fb48 183d 3c0c 6ebd
000001f0: bfc5 683d 0af1 1cbc 3fe1 50bb 4f58 7bbd
00000200: 4246 8e3d 856e 14bd c90f 9b3d 07db 95bc
00000210: 0fa0 2bbd 9822 78bd 2ae8 47bd c9e7 4d3d
00000220: 1eb7 60bd 28db f9bc f40a 6dbc 1ab8 8ebb
00000230: cc2b feba b95c 2d3c 1327 a3bd 84bb 593c
00000240: ec75 2d3d b7e3 b7bc 265f 52bd d1b3 1abc
00000250: 1def 81bd 334e 0dbd b51a 7dbc a243 2f39
00000260: 169f d1bc 278d ed3c acd6 91bc 0ad4 debc
00000270: 6f17 033c 9b39 48bd 02e0 333d f429 9f3c
00000280: c021 9fbc 5d50 9c3d ca8c 963d 0bec a8bc
00000290: cffe 953d 740c 9f3c b99c 213c 27da 13bd
000002a0: 1f4b 583d a804 88bc 54d6 283d ae68 a33c
000002b0: a576 0bbd 7c8f 2e3d 8ee7 a1bd a59a 08bd
000002c0: 1716 9cbd 7d16 8d3d b502 15bd 7aea 913b
000002d0: faaf 34bd a4fc f0bc 46d8 bc3c e82b 8a3d
000002e0: ee03 4abd d612 1bbd ddef f3bc e094 6c3c
000002f0: 1938 68bd 33ba bbbc d463 8b3d 2f86 593d
00000300: 3204 d63b 6f80 693d d7ba d93c 3763 7cbc
00000310: 8365 163c 5a0d a6bd b98a ca3a abac f9bc
00000320: 7308 49bd 8c8f 123d 6de6 9b3d c049 22bc
00000330: f04c a43b ba18 ce3b 2879 1c3c 7c03 1e3d
00000340: bce6 24bd 81e3 21bc bf4f 6cbd 5689 483d
00000350: b940 4d3d a108 5abd 6ed7 68bd 4933 a43b
00000360: 654d 7d3d 13b7 8bbc 5f28 57bd 57bf 473b
00000370: e7fb 09bd efc6 a53c cc1f 043d 9db8 933c
00000380: 6243 173d 7189 0ebd 8abf 3a3d b776 9cbb
00000390: 6136 1cbc 8562 42bd 496c 8cbc baa4 48bd
000003a0: 2754 db3c a445 13bd 7976 56bd 2306 8bbd
000003b0: 45ba 92bd cabb ebbc 8a37 ba3c 0ec1 31bd
000003c0: 09fd c73c 8c3b 3dbd 5bb8 873d 7b74 babb
000003d0: 03d9 4cbd 17a0 7d3d 5a9c 6cbd bf30 36bd
000003e0: f094 3b3c 20f8 8fbb 705c 9f3d 8856 3abc
000003f0: 927c 923d 10ae 283c 1082 953d 64dc 593d

encoder_blocks.3.2.bias f4 [12]
-0.07580531 -0.060270444 -0.07384056 -0.04332745 -0.018563615 0.030891374 0.0042925924 0.0054459646
0.007836969 0.07731965 0.045746688 0.0014084937
00000000: d03f 9bbd 24de 76bd b839 97bd 2078 31bd
00000010: b912 98bc e80f fd3c e0a8 8c3b 1074 b23b
00000020: a166 003c c459 9e3d e160 3b3d 359d b83a
