Python/save/localizer/trial_2/quake_localization_model_00050.pth (torch, 252994 bytes, 35 tensors)

encoder_blocks.0.weight f4 [12, 1, 13]
00000000: b3a1 3a3e a11b 4c3e fcd7 603e 1dcd ae3d
00000010: 4455 3c3e 910a d13d d93a ddbd 10c9 7dbd
00000020: 9fd4 55be a52e 4abe 97d6 46be 9b83 b33d
00000030: cb10 b1bd 1d08 59be e862 79be a2d5 83be
00000040: 029c f9bd fa02 ca3d a845 25be 6b0c 8c3e
00000050: 0bf6 44be b523 adbc 47ef 973d 75fe 303e
00000060: 3232 223e 9d07 36bd a250 8e3d 052b b8bd
00000070: 2880 113d 636e 863d cc4d 5fbe 19ee 3ebe
00000080: bad7 1d3e 4439 8ebd f68f cbbd d83a f3bd
00000090: b678 8bbb 317d e3bd be39 7bbe a196 a73d
000000a0: c783 e63c 1e55 54be 5614 a03d 6201 26be
000000b0: 7ef7 07be 0872 a53d 085d 1e3d 17dd 093d
000000c0: dc0d b6bd 4e4f 6b3b 7879 853e 1e08 7fbe
000000d0: 63a2 413d 0490 3d3d 47bc aebd a36d 09bc
000000e0: 95fb 10be ef9f f4bd a6a0 0bbe a2ef 353e
000000f0: 141a 18bd 1edb fb3d d3da 41bc 6a5b 0bbe
00000100: f400 2cbe 5d3a b5bd f7fb 713e a38a c63d
00000110: 5135 f4bc d520 68bd d293 9b3d 4114 623e
00000120: 5f20 70be b765 a03d 3954 193e a707 46be
00000130: 99b5 5e3e e8d2 303e 67e9 e2bd 9a0c b73c
00000140: d5ca 013e f566 d53d 568c 883d 38d2 fabc
00000150: 9a4f adbd 90a4 783e 9667 153e 0c5c 103e
00000160: 4fdf 87be 3ba4 f13d aeb7 1abe 2adc c33d
00000170: d6eb cabd ed1a 3fbd fcdc d33d 98ae 4cbe
00000180: afa3 893e 6f91 4e3e ee64 abbd a0ea 073e
00000190: 8709 28be 4f04 0d3c 47bd 603e 6430 6c3c
000001a0: e306 2abe cc60 9ebc 4b4b 28bd 4316 9bbd
000001b0: 3755 2d3e 2ba7 463e 781a 3f3e 451e 813e
000001c0: d06e 203e 9c5a 3f3e ec1a 663e 7616 05be
000001d0: 7b63 183e 4874 863e 3513 acbd a5a9 47be
000001e0: f10b 5cbe d83e c43a cf09 34be 635b 4bbe
000001f0: 5bd1 0a3e 93a8 503e bae5 3abe 3f8f 863e
00000200: 1bdb 5e3d 301c d53d 7a8b 8d3e de6a 5abe
00000210: 1794 883e 45e6 db3c 3274 05bd 682d 4f3e
00000220: cf2d fa3d 14b3 b13c 5296 1abd b424 54bd
00000230: ac7c d0bb 5db3 dbbd de61 3cbe 3553 9b3d
00000240: 92f1 143e 4e8d 53be ec40 67bd 56c4 66be
00000250: d3f9 8abe b4f5 b23d 246b 6fbe 3ecc ddbd
00000260: 182a 2cbe f08e 6a3e 5b29 3ebe 837e fcbd
0.18225746 0.19932415 0.21957392 0.08535216 0.18391901 0.102070935 -0.1080224 -0.061959326
-0.2088189 -0.19744356 -0.19417797 0.08765336 -0.08645781 -0.21194501 -0.24354136 -0.25748926
-0.12187959 0.09863849 -0.16139853 0.27353224 -0.19234483 -0.02113519 0.074186854 0.17284568
0.1583946 -0.044440854 0.06948973 -0.0899258 0.03552261 0.06564023 -0.21807021 -0.18645515
0.15414324 -0.06944516 -0.09939568 -0.11876458 -0.004256333 -0.11107863 -0.24533746 0.08183027
0.028139008 -0.20735595 0.07816379 -0.16211465 -0.13278005 0.0807839 0.03866294 0.033658113
-0.08889362 0.0035905424 0.26069236 -0.2490544 0.047274005 0.046279922 -0.08532005 -0.008387956
-0.14158471 -0.119445674 -0.13635501 0.17767194 -0.037134245 0.12297653 -0.011831957 -0.1360909
-0.16797239 -0.088490225 0.23631273 0.096944116 -0.02981058 -0.056671936 0.07596554 0.22078039
-0.23449849 0.078319006 0.14973535 -0.19338857 0.21748962 0.17267954 -0.11079674 0.022344876
0.1267503 0.10420028 0.06667392 -0.030617818 -0.084624484 0.24281526 0.14590296 0.14097613
-0.26537558 0.117989026 -0.1510913 0.09563477 -0.099082634 -0.046656538 0.10344884 -0.19988477
0.26882693 0.20172666 -0.0836886 0.13273096 -0.16409884 0.008606984 0.21947204 0.014415834
-0.1660419 -0.019333266 -0.04108743 -0.075726055 0.16927038 0.19399707 0.18662441 0.25218406
0.15667272 0.18686908 0.22471207 -0.1299685 0.14881699 0.2626059 -0.08402101 -0.19498308
-0.2148893 0.0014972342 -0.17581867 -0.1985908 0.13556425 0.20376806 -0.18251696 0.26281163
0.054408174 0.10405767 0.27645475 -0.21329829 0.26675484 0.0268432 -0.032581516 0.20232165
0.122157685 0.021691836 -0.037741013 -0.051792815 -0.0063625183 -0.1072757 -0.18396708 0.0758423
0.14545277 -0.20659372 -0.0564584 -0.22535834 -0.27143726 0.087382704 -0.23380715 -0.10829972
-0.16812932 0.22906089 -0.18570463 -0.12328818

encoder_blocks.0.bias f4 [12]
00000000: 891d 1dbe 10c5 2f3d c614 7f3e 32c8 f9bd
00000010: 017b 883e 7290 6ebe cf49 293d a9e9 c83d
00000020: a284 6c3d c96a a2bd a833 c43c 2129 d13d
-0.15343298 0.042912543 0.24910268 -0.12196387 0.26656345 -0.23297289 0.041330155 0.09810192
0.057743676 -0.07930524 0.023950413 0.10212923

encoder_blocks.1.0.weight f4 [12, 12, 13]
00000000: 548d 7fbc e7fd 543d c7de 853d 7546 cebc
00000010: c0b1 47bd 7f66 5f3d 1b41 2fbd e7b4 863c
00000020: 9630 39bd 8fa8 c3bc 064f 03bd 8e3a 583d
00000030: 66c6 1e3c 163a 6b3d 9393 44bd edef 9abc
00000040: bf62 4cbd 33f5 903c 6b3c 2d3c beff 56bd
00000050: 2bf3 b1bc c49b 90bd 55f1 b6bc b573 adbc
00000060: c607 40bd 9558 283d 27c4 25bb 992d 853d
00000070: 31a6 65bb e412 f23b c45d 69bd da6a 88bd
00000080: 837d 963d 733d 9ebd d198 743d 1f30 59bc
00000090: d578 573d 100a a33d a419 8f3d c119 a2bd
000000a0: 6c4c 183d a49c 88bd 4ecd 073d 0876 fc3c
000000b0: 3682 893d b733 6a3d 01ef 9d3c 0e89 6ebd
000000c0: 5b7e 2bba cbb9 9dbd 9a2c 8dbd 384e 743d
000000d0: a87f 0f3c 512a 3b3d 4445 543b 5f92 8fbd
000000e0: ffab 8c3d 99f0 3a3d a741 c9bc 156f 213c
000000f0: 2eeb 133c ad04 28bc a539 5cbd ecea b63c
00000100: 3747 9dbc cb7e 263d f98e 0abd 59e4 dd3c
00000110: d21b 173c ce20 36bd e3e8 75bd e8fb 4ebd
00000120: 5c6a 793d a383 92bd 0cf6 343d 45bc 963d
00000130: 0f67 f13c fb62 47bd 43b9 083d e163 a2bd
00000140: 3d45 063b c04d 4d3d 39b4 a13d 9301 4dbd
00000150: d603 7ebd 7e23 513c 23c1 3bbd 74e4 8c3c
00000160: f3be 793d c70a 8b3d 3146 a83c 3d75 31bd
00000170: c9ff cd39 2750 04bd 67f7 3bbd b63f 88bc
00000180: 6adf 13bd b3a3 60bd 1002 873d 64b7 4b3d
00000190: 7e39 8abd 7ed6 efbb e186 acbc 8664 163b
000001a0: 4963 893d ef70 c8bc 1658 e73b 8a84 9ebd
000001b0: c077 ee3c 9e3b 39bd 03ad b43c 2dd2 0abd
000001c0: 81ac 22bc 08f9 303d ca03 0d3d cd50 6f3d
000001d0: 051f 8f3d 0b3c 8dbc d2d0 04bd 03c1 afbc
000001e0: 0c2e 393c 1f0a 033d 1546 31bd bd77 9abd
000001f0: 20dc 91bd f3d8 24bc bdfc b7bc ff77 85bc
00000200: 408a 08bd c2fd 73bd d462 f1bc 2e39 a53b
00000210: 4d37 90bd 039d ad3c 1b55 16bd 1d7b 893d
00000220: f45c 87bc d1ee f13b 07f4 2bbd c69e f5bb
00000230: 970b 7dbd 1841 28bd a72c 9cbc 5fcd b3bc
00000240: a269 353d c1b6 a1bc c452 83bc ed3d 813d
00000250: 1dd9 85bd c6c0 853c fdd6 17bd ef48 e73c
00000260: 17f7 0a3d f929 32bd b5d7 303d d347 99bd
00000270: 24a1 01bd b032 293d 97c1 86bd 73f2 303d
00000280: 1b9f f63c a6a8 94bd 5983 7ebd 04e1 353d
00000290: feeb 903d 280f 903d 0a06 5dbd 8e5f 623d
000002a0: 2e8b 733d c4c5 97bd 363a 79bd e68a 273d
000002b0: 0449 8e3d a424 713d 419c 863d dc76 1d3d
000002c0: 2658 9c3d a53c b73c 17c8 15bc af18 f73c
000002d0: e093 5fbd c7be 843d 53f9 36b9 86a6 0d3c
000002e0: cd4f a33d 3e7f 953d ab95 113b cf2b 0cbd
000002f0: 1da7 49bd 27fe 45bd 3e96 383d 09fc edbc
00000300: e0b3 8abd c832 193d 55c0 a23d c5ff 1d3c
00000310: aabc 2d3c 8c79 833c 86b6 de3c 4635 883c
00000320: a610 0cbd 5235 83bd 21bb babc ee41 ac3c
00000330: 3cf0 d3bc f084 9c3d e95e abbc 983a 8e3d
00000340: f5ce 13bd f8f1 54bd 155f 14bd af04 7cbd
00000350: e6bb 503c 3591 09bc c986 503d 8358 90bd
00000360: eb07 6e3b 2edd ccbc 0134 3e3d 6ec4 00bc
00000370: f8a3 7c3c f251 8a3d c216 343a ed8d 8f3b
00000380: 15d2 4a3d 4718 cb3b 40d0 2c3c 993a c93b
00000390: 824c d83c f490 333d 44a8 bcbc 4153 1cbd
000003a0: 3b1b 08bd f019 333d d0a0 dd3c 7b77 d4bc
000003b0: 4ff5 8f3d cb40 87bd 58a2 65bd f5a1 9a3d
000003c0: f3b1 e03c 034e 593d c7eb 2bba 6cbe 88bd
000003d0: bc46 7bbc 9a44 a23c 797a 40bd 9b5c 9bbd
000003e0: 4fb3 01bd dc0d e2bc dc4c 593d 26c4 893d
000003f0: 0834 6bbd 3178 ba3b 9fd5 5fbc dda5 b4ba
-0.01559766 0.051999953 0.06536632 -0.02518008 -0.0487535 0.054541107 -0.0427867 0.016443683
-0.04521235 -0.023884086 -0.032057784 0.052790217 0.009690857 0.057428442 -0.0479923 -0.018913234
-0.04989886 0.017695045 0.010573487 -0.05248999 -0.021722397 -0.0706096 -0.022331873 -0.021173337
-0.046882413 0.041100103 -0.0025293918 0.06502838 -0.0035041685 0.007387506 -0.056974187 -0.06661005
0.07348158 -0.07726564 0.05971605 -0.013256102 0.05260547 0.07960904 0.069873124 -0.079150684
0.037182257 -0.06670502 0.03315478 0.030818 0.06714289 0.057178225 0.019279005 -0.058236174
-0.0006541961 -0.07701453 -0.06893273 0.059644908 0.008758463 0.045694653 0.0032389918 -0.0701034
0.06868743 0.045639608 -0.024567438 0.009853144 0.009028239 -0.010255021 -0.05376591 0.022328816
-0.019198997 0.040648263 -0.033827756 0.027086424 0.0092229415 -0.04446488 -0.06003655 -0.050533205
0.060892448 -0.07154014 0.04417996 0.07360128 0.029468087 -0.04867838 0.033379804 -0.07929207
0.0020488047 0.050122976 0.07895703 -0.05005033 -0.062015377 0.01276481 -0.045838486 0.017198779
0.06097312 0.06789165 0.020541282 -0.043324698 0.00039291222 -0.032303 -0.045890238 -0.016631942
-0.036101736 -0.054843616 0.0659219 0.04973544 -0.06749247 -0.0073192706 -0.021060409 0.00229481
0.0670839 -0.024467913 0.007060061 -0.077401236 0.029109836 -0.04522287 0.022055155 -0.033891845
-0.009928823 0.043206245 0.03442744 0.058426667 0.069883384 -0.017240545 -0.03242571 -0.02145434
0.011302482 0.031992074 -0.043279726 -0.075423695 -0.07122064 -0.01006149 -0.022459382 -0.01629257
-0.03333497 -0.059568174 -0.02946607 0.0050422167 -0.07041798 0.021193033 -0.036702257 0.06712935
-0.016523816 0.0073832055 -0.04198077 -0.007495734 -0.06177863 -0.041077703 -0.01906426 -0.021948515
0.044290192 -0.019740464 -0.016030677 0.063106395 -0.06535552 0.016327273 -0.037070263 0.02823302
0.03392705 -0.04349706 0.043174464 -0.074844025 -0.031647816 0.041308105 -0.06579893 0.043199968
0.030105164 -0.0725873 -0.06213698 0.044404045 0.07076262 0.07034141 -0.053960837 0.05526691
0.059458904 -0.07410768 -0.06084653 0.04090395 0.069475204 0.058872834 0.06572772 0.03844343
0.076340005 0.022367785 -0.009141943 0.030163137 -0.054584384 0.064817004 -0.00017449753 0.008645659
0.07974205 0.0729966 0.0022214453 -0.034221467 -0.049231637 -0.04833808 0.045065157 -0.029050844
-0.0677259 0.037401944 0.07946841 0.0096435 0.010604063 0.016049169 0.027186643 0.016626965
-0.034195565 -0.064066544 -0.022794308 0.021027531 -0.025871389 0.07642543 -0.02091928 0.069447696
-0.03608604 -0.051988572 -0.03622349 -0.061527904 0.012740111 -0.008396436 0.05090979 -0.07048132
0.0036320637 -0.02500781 0.046436314 -0.0078593325 0.015419953 0.06753911 0.0006869846 0.0043809325
0.049516756 0.0061979624 0.010547698 0.0061410186 0.02640367 0.04383941 -0.023029454 -0.038165335
-0.033229094 0.043725908 0.02705422 -0.025935879 0.07029211 -0.06604155 -0.056063026 0.07550422
0.027428603 0.053052913 -0.0006558266 -0.06676945 -0.015336689 0.019808102 -0.0469918 -0.075860225
-0.031665143 -0.0275945 0.053051814 0.067268655 -0.057422668 0.0056905975 -0.013661771 -0.0013782341

encoder_blocks.1.0.bias f4 [12]
00000000: 294b a63c 4a02 803b 67ba 80bd e20d 733d
00000010: abad a3bd b509 8b3c ca00 1dbd 38bb 75bc
00000020: f8a7 6e3d c3cf a03d c439 863d 3fb3 d93c
0.020299511 0.003906523 -0.062855534 0.05933941 -0.07992109 0.016972402 -0.03833083 -0.01499825
0.058265656 0.078521274 0.06553987 0.026574729

encoder_blocks.1.2.weight f4 [12, 12, 13]
00000000: 0eec 4a3d 264c 50bd 5c79 3f3d 12ff 9c3d
00000010: 97bb 483d 26b1 023d 96f6 cc3b 6772 dcba
00000020: 93f2 89bc b0c5 ffbc 96fb 64bb 31ad 40bc
00000030: 52a9 7a3d 817c 6dbd 0c8e 833c 3f0a 35bc
00000040: 1522 1a3a a405 3e3d a935 953d 56af 8cbd
00000050: 5a05 993d c7ca 66bd 1457 9d3d f149 a2bc
00000060: ef8d 603d 24b9 6c3d a3e7 53bd c39e 9cbd
00000070: db67 343d 0e35 363c bda9 4bbc 20a1 0cbd
00000080: a23b a3bd 8eb4 58bd 20b9 923d 61f8 de3c
00000090: 4c92 503d e9eb 11bd e979 113d 00ca f63b
000000a0: 2930 fdbc d775 e0bb 3c0d 033d 9b91 8dbc
000000b0: 56ac 4c3d 4bee 923b 804a 4abd 260a 8a3c
000000c0: c5b2 913c 9a15 82bd ec48 79bd a14c 923d
000000d0: f3f3 7e3d 0590 823c bb8c 60bd 7673 45bd
000000e0: 112a 773c 60d8 13bc 28b0 c83a 55ba 8f3d
000000f0: 6add ea3c 5aff b2bc 58fa 66bd 8b84 bdb8
00000100: 0d7d bd3c 3034 8b3d 7a38 22bd e9b5 87bd
00000110: 27f7 563c 7d77 7bbd 9f13 743d 9864 b1bc
00000120: dd14 99bd dfd7 92bd a328 31bc 479a 293d
00000130: 18c9 30bd 9d98 d9bb 9919 41bc 2ec6 1e3d
00000140: 2506 113d ea70 e8bc ace9 153c 12d8 003d
00000150: df5d e5bb 441b afbc 9926 af3c 9809 6b3c
00000160: 38a7 76bd 7f80 463d d123 edbc 3136 993d
00000170: b0c9 d3b9 d00e 193d 893c 903c 2d61 983d
00000180: e4db 87bb 355e 673c 35aa 9abd 5483 b13c
00000190: e5e1 223c bee9 44bd 5733 96bd eafb 943d
000001a0: 9108 98bd 9948 3e3d cc77 30bc 8687 37bc
000001b0: adbe 90bd c1f2 003d 250b 023d 9421 c93c
000001c0: 2286 cdbc 5064 be3c 418a fbbc a553 ed3c
000001d0: 2f7e c43a 9087 483d 3cb8 c8bc ea26 55bb
000001e0: 832c 83bd 0d43 403d f245 963d 2a82 773d
000001f0: df09 a1bd 4474 673d a3ca 78bc 8649 e4bb
00000200: 523a 223d 85d3 2b3d d9ee 27bd 4972 d0bc
00000210: 05a9 6b3d 53eb 6dbd 26a2 323d eae1 27bd
00000220: 652c 57bd a64c 9f3d 1293 53bd e45d 17bd
00000230: febe 9a3d 56e9 69bd f41d 953d 1693 96bd
00000240: 5255 acbc b861 bebc f639 a03d fc30 ed3c
00000250: 1985 04bd b7cf 8a3d ed47 9d3c e0d5 903d
00000260: bc29 be3c 51f5 743d a37d 993d 3922 0dbd
00000270: d6c9 733b c8d5 13bc 8933 7abd 4303 86bd
00000280: aa89 6abc 95bd a2bd 40af aa3c f777 4bbd
00000290: 08f2 7cbc 9dd3 133d 08be 423d e5da c4bc
000002a0: dfd7 03bd 85f2 9dbd f0cb d6bc c0c8 b93c
000002b0: e9b7 41bc 2a7e 763d ddf1 a53d 2c6a 603c
000002c0: f3df 1e3d f902 923d 60c9 363b dd47 a1bd
000002d0: 9a71 793d 60f8 87bd 4c9e 4bbd e198 6e3c
000002e0: a597 863d 24c9 fa3c 2ab4 2abc 21d2 743d
000002f0: 9280 a5bd e663 9e3d fc93 25bc 8102 033d
00000300: 7c01 54bc 5213 983d 3f0e 203b 84aa 06bd
00000310: 8ed3 923b 259c 73bb 126f 4f3d 4f12 08bd
00000320: 29c5 6abd 3c98 9c3b 1194 88bd 3e1e 3dbd
00000330: 12ed 903d 6576 103d d1d9 75bd a3a4 2c3c
00000340: e83c 533d 5ff2 edbc 795f 543a 0203 62bd
00000350: b83e 1fbd 9e87 973d c351 83bd 8b7b a33d
00000360: 3f6e 20bc 6f57 ecbc fea4 b43c 28de e53c
00000370: b5ff 11bd 87a1 8f3d 774a 753d 80dd a7ba
00000380: a350 9dbc 6a1b 96bd ed88 403d eeea 133d
00000390: 02bd 8abd 5ea1 933d 63f9 493d 90fc 2d3d
000003a0: 6ea9 96bd f9c9 893d 65d3 37bc f604 8b3b
000003b0: 813a 3dbd c527 14bc 6a73 adbc a711 093c
000003c0: b172 823d 74ec 62bd dd80 8e3c eaf7 7f3c
000003d0: 8955 dc3c 774e 143d 6087 99bd 3345 b03c
000003e0: e374 a0bc 3c75 523d 2f3b 9b3c 5c81 5fbd
000003f0: bf5e 1b3d c941 8f3d 06b6 6abd 0cab 68bd
0.049541526 -0.05085387 0.046746597 0.07665838 0.049007025 0.031907223 0.0062549813 -0.0016818763
-0.016839301 -0.031222194 -0.0034939996 -0.011760042 0.061196633 -0.057980064 0.016058944 -0.011049806
0.00058797124 0.046392098 0.072856255 -0.0686938 0.07471724 -0.056345727 0.076826245 -0.019810649
0.05482286 0.05779375 -0.051734578 -0.07647469 0.044044357 0.011121048 -0.0124306055 -0.03433335
-0.079703584 -0.052906565 0.07164216 0.027218046 0.05092077 -0.035625372 0.035516653 0.0075314045
-0.030906754 -0.006849985 0.031995043 -0.017281344 0.04996904 0.004483973 -0.049387455 0.016850542
0.01778544 -0.063517764 -0.06086056 0.07143522 0.062244367 0.015937814 -0.05482171 -0.048205815
0.015085713 -0.009023756 0.0015311288 0.07017962 0.028670032 -0.021850277 -0.05639109 -9.03691e-05
0.023130918 0.06797063 -0.03960464 -0.066264935 0.013120449 -0.06139325 0.059589025 -0.021654412
-0.074746825 -0.071700804 -0.010812911 0.041406896 -0.043160528 -0.0066405074 -0.011785888 0.038763218
0.03540625 -0.028374154 0.00914995 0.03145606 -0.0069997157 -0.021375306 0.02138071 0.014345549
-0.060218066 0.048462387 -0.028947743 0.07481039 -0.00040395325 0.037367642 0.01760699 0.0744041
-0.004146086 0.014121582 -0.07551996 0.021669067 0.009941553 -0.048074476 -0.07334011 0.07274611
-0.07423509 0.046455953 -0.010770749 -0.011201745 -0.070676185 0.03148151 0.03174891 0.024552144
-0.025088374 0.023241192 -0.030705573 0.028970549 0.0014991219 0.048957407 -0.024501912 -0.0032524415
-0.06404974 0.046938945 0.0733756 0.06042687 -0.07863211 0.056507364 -0.015185031 -0.0069667725
0.0396064 0.041949768 -0.040999267 -0.02544512 0.057534236 -0.05808575 0.043611668 -0.040986933
-0.052532572 0.077782914 -0.05165393 -0.036954775 0.0755596 -0.057107292 0.07281104 -0.07352273
-0.021036778 -0.023239955 0.07823555 0.028954022 -0.032353494 0.067779 0.019199336 0.070720434
0.02321326 0.059804264 0.074946664 -0.034456465 0.003719916 -0.009023137 -0.061084304 -0.06543591
-0.014315048 -0.07946316 0.020835519 -0.049674954 -0.015438564 0.036090482 0.04754451 -0.024030158
-0.032188293 -0.077122726 -0.026220292 0.022678733 -0.011823633 0.060178913 0.081027724 0.013697188
0.038787793 0.07129473 0.0027891025 -0.07875035 0.060899355 -0.06639171 -0.04971151 0.014562816
0.06571893 0.03061349 -0.010418931 0.059770707 -0.080811635 0.07733898 -0.010106083 0.03198481
-0.012939807 0.0742556 0.0024422554 -0.03287746 0.0044807857 -0.0037171927 0.050643034 -0.033220585
-0.057316933 0.00477889 -0.066688664 -0.04617142 0.070764676 0.03526916 -0.06002218 0.010537299
0.051571757 -0.029046236 0.0008101385 -0.05517865 -0.038878173 0.07398914 -0.06412079 0.07982548
-0.00979191 -0.028850285 0.02205133 0.028060034 -0.03564425 0.07013231 0.05988547 -0.0012807101
-0.01920349 -0.073294476 0.047005583 0.03611272 -0.06774332 0.07208513 0.0493101 0.04247719
-0.07356535 0.06727976 -0.011219834 0.0042425347 -0.04619837 -0.009042685 -0.021173198 0.008366025
0.06369532 -0.05540128 0.017395431 0.015623072 0.026896255 0.036207642 -0.07496524 0.021517372
-0.019586986 0.051381335 0.01894912 -0.054566726 0.037932154 0.069949694 -0.057302497 -0.056803748

encoder_blocks.1.2.bias f4 [12]
00000000: a868 eeb9 a28b 80bb e8a6 903d dcdb d43c
00000010: a27a a13c e900 0bbd 9f75 35bd 1c15 9cbd
00000020: 91d3 2b3d 1c19 3e3d 1f9f 743d 7726 91bc
-0.00045472872 -0.0039228955 0.07063085 0.025983743 0.019711796 -0.033936415 -0.044301625 -0.07621214
0.041949812 0.046410665 0.059722062 -0.017718537

encoder_blocks.2.0.weight f4 [12, 12, 13]
00000000: c7ae 9b3d 4757 5cbc 6410 e83c b64f 483d
00000010: 5911 0b3c 5b38 083d 6d87 9c3d 7dbc 0d3d
00000020: 5863 953c d2a5 a3bd 5fcf 313d 1684 94bd
00000030: c955 503d 5ac7 94bd 84bb 883d 83e8 14bd
00000040: 3087 fabb 86ce 643c 4769 91bd b696 92bc
00000050: f175 223d b1d2 a0bd ce9b e43c e646 00bb
00000060: 72c4 2d3d 4324 84bd 109b 473d 9b08 20bd
00000070: 1ae0 86bd 28a5 29bd 85af 123d 94b4 3739
00000080: 8dfc 71bd 965d 0abd 99d5 ae3c 343d 55bd
00000090: 5c57 1b3c 1b06 473b 8e1a 733d 434a 1a3d
000000a0: c3d6 a6bd 86d4 39bc 7590 713d 24f2 0e3d
000000b0: 808d 723c 9a46 d4ba d7c8 07bd 3bbd 72bd
000000c0: 54fe 9f3d 4d4e 123c 9a3a 923b 9636 3c3d
000000d0: 632a 2c3d a8b2 e6bc bedb 293d 517a 563c
000000e0: d081 cd3c 39b0 7d3d fd22 503d 8de9 94bd
000000f0: 6f4d 26bc f633 e13c 967b 6e3d 409e 9f3c
00000100: 4dac 92ba 171a d1bc e3ce b63c 92d9 6c3c
00000110: 6375 88bd ca4d 8dbd 8e94 99bd 50b8 eabc
00000120: a755 823d cf54 c63c f21b a0bd 254d 3fbb
00000130: 5ff6 2fbd aa3c 6f3d 035c 2f3d 811d b5bb
00000140: 6b96 1abc ac46 c239 d05a bcba f381 89bb
00000150: e2b7 a43c 4e0f 31bd bdad 10bd 6671 7ebd
00000160: ecb7 14bd 8b0e b63b dac5 3f3d 59b7 34bd
00000170: 84df 90bd 145a 5f3d aabc 04bc 08d1 4bbd
00000180: b0b7 b53c d197 4fbc 0ba1 e0bc 90d2 973d
00000190: c893 6fbd e71c 823c 7c87 3e3d 4576 2fbd
000001a0: 3913 81bc 0507 35bd 9d51 c23c c3a9 6abd
000001b0: 3bf5 903d efd6 9d3d 98d0 f7bc ebdb 5f3d
000001c0: e5a9 8cbd 156f 3bbc 2675 f03c 2f74 7abd
000001d0: 2d74 32bd 9ec3 0dbd b468 223c 2e8d 2bbc
000001e0: d0b9 7ebd 3210 943d 2719 97bd d6de 3b3d
000001f0: ad50 8ebc 9f2c 81bd 2104 8f3c 57bd 1dbd
00000200: 478b 0bbd faa9 48bd 8293 92bd 61e0 7dbd
00000210: a915 97bd ad4c f6bb 255c 903c 2dab d73c
00000220: 491e 8b3d c1c7 3a3b 1406 23ba bbb0 783d
00000230: c2b2 1a3d 440b d63c b5ad 6cbd 8de3 913b
00000240: f6e1 84bd 10b3 65bd 8440 903d c5c4 88bd
00000250: 2113 5cbd e908 923b f5a5 b33c dfa5 38bb
00000260: 0b9c 6d3c 55d0 973d cd3a 62bd dfba 6f3d
00000270: 7300 5c3d 7c3d 27bd cadf 943b 02e5 4e3d
00000280: 0e80 17bd f3cd 083d 5e31 89bc 6908 4ebc
00000290: de48 7a3c 2a5d 2eba 3e49 1e3d 4189 8a3d
000002a0: 2861 14bd e5d6 a03d aba0 323d b51f c3bc
000002b0: 3cb6 31bd 7fbc 2bbd 2eb2 783c 6bc4 163d
000002c0: 8570 bfbc dcd8 d8bb 7297 713d a59b 2c3d
000002d0: f87b fabc 5f05 963d c6ab 63bb 21be d33c
000002e0: b12a 46bd 2ae5 2c3d 9c87 843d 7b16 6cba
000002f0: c5f1 aabc f698 663c 9851 80bd a3f5 d4bc
00000300: d236 f63c 1a84 aabb f5dd 7a3d 0632 843d
00000310: fae2 763d 1ee4 6c3d 6f70 70bd fc95 593c
00000320: 5642 463c a6a0 2b3d 3740 e0bc cc56 d73c
00000330: 56d1 fabb 869c 793d 6bd0 52bc ee3e 82bc
00000340: 311a 973c 4f8c 833b 270f 013d 480e 9d3d
00000350: 083c 7cbd c08a 503d 5e92 443b d466 67bc
00000360: 6877 57bd 8d4a 97bd 33c7 9abd 0b44 e53c
00000370: 18d1 5a3d 80ab 703c 9185 2c3d dacb 83bb
00000380: 7d10 8ebd cde3 533d 9bc4 9a3d 0723 7ebd
00000390: f04a dfbc 9b92 833d 72f4 06bd 3fa9 6dbd
000003a0: 07e0 e23c 1877 5f3d 89d4 94bd 4d59 0c3d
000003b0: adf8 f83c 8879 3bbd 905a 613d b590 8abd
000003c0: f332 f8bb cca2 693b b13d 433d f45e 173d
000003d0: f339 9ebd 65df 853d d837 36bd 7452 1ebd
000003e0: 5419 53bb cb3d 3abd 10bb 273d edc4 363d
000003f0: b496 9ebc bfec 03bc 721a 7f3c 0648 1dbd
0.076016955 -0.013448543 0.028328128 0.048904143 0.008488023 0.03325687 0.07643018 0.034603585
0.018235847 -0.07990612 0.043410655 -0.07251756 0.05086306 -0.07264586 0.06676391 -0.036354553
-0.00764551 0.013965255 -0.07100158 -0.01789413 0.03966326 -0.07852686 0.027906325 -0.0019573509
0.042423673 -0.06452229 0.048731863 -0.039070707 -0.06585713 -0.04141727 0.03581192 0.0001751951
-0.05907874 -0.033780657 0.021342086 -0.05206032 0.009481277 0.003036863 0.059351496 0.037668478
-0.08146431 -0.011342173 0.058975656 0.034898892 0.014804244 -0.0016195357 -0.03315052 -0.059262495
0.07812181 0.008929801 0.0044625523 0.045950495 0.04203261 -0.028161362 0.041469328 0.013090686
0.025086313 0.061935637 0.050814617 -0.07271109 -0.010150298 0.027490597 0.05822333 0.01948464
-0.0011190266 -0.025525136 0.022315448 0.01445617 -0.06663015 -0.06899603 -0.07499038 -0.02865234
0.06363993 0.024210362 -0.0781783 -0.0029190269 -0.042959567 0.058407463 0.04281236 -0.005527199
-0.0094352765 0.00037055218 -0.0014370326 -0.0041963994 0.020107213 -0.043227486 -0.03532194 -0.062119864
-0.036308214 0.005555933 0.046819545 -0.044120166 -0.07073882 0.054529265 -0.008101622 -0.049759895
0.022182316 -0.012670473 -0.027420541 0.074132085 -0.058490545 0.015882922 0.046515927 -0.0428374
-0.015756236 -0.044196147 0.023720557 -0.057290804 0.07078024 0.07707011 -0.030250832 0.05465309
-0.06868342 -0.011440058 0.029352736 -0.061145958 -0.043567825 -0.034610383 0.0099126585 -0.010470672
-0.062188923 0.072296515 -0.07377844 0.04586681 -0.017372454 -0.06307339 0.017458024 -0.038510647
-0.034068372 -0.048990227 -0.07157041 -0.061981563 -0.07377178 -0.0075164647 0.017622063 0.02632674
0.06792886 0.002850041 -0.0006218862 0.06071542 0.037768133 0.026128419 -0.057782847 0.004452175
-0.06488411 -0.05607897 0.070435554 -0.06678156 -0.05372918 0.0044566286 0.02192972 -0.0028175039
0.014502536 0.07412783 -0.055231858 0.058527824 0.053711366 -0.04083012 0.0045432793 0.050511368
-0.036987357 0.033399533 -0.016747173 -0.012575247 0.015276162 -0.0006651456 0.038644068 0.0676446
-0.036225468 0.07853488 0.043610256 -0.02381883 -0.043386683 -0.04192781 0.0151792 0.036808413
-0.023369083 -0.0066176485 0.05898232 0.04214062 -0.030576691 0.07325243 -0.0034739836 0.025847496
-0.048380557 0.042210735 0.06471178 -0.00090060354 -0.020867238 0.014074555 -0.06265563 -0.025996035
0.030055437 -0.005203736 0.06124683 0.06454854 0.060275055 0.057834737 -0.058700975 0.013280388
0.012100777 0.041901253 -0.02737437 0.026286505 -0.0076543493 0.060940288 -0.0128670735 -0.015899148
0.018445106 0.004014529 0.03150859 0.076687396 -0.061580688 0.050913572 0.0029994468 -0.014123637
-0.05260411 -0.07387266 -0.075575255 0.027986547 0.053422064 0.014689326 0.042119566 -0.0040221037
-0.06936739 0.05173092 0.07557031 -0.062045123 -0.027257413 0.06424447 -0.032947965 -0.058022734
0.027694715 0.054556936 -0.072671 0.03426485 0.030392015 -0.045770198 0.055018008 -0.06765882
-0.007574433 0.0035650013 0.047666255 0.03695579 -0.07725897 0.0653675 -0.04448685 -0.038652852
-0.0032211142 -0.045469087 0.04094988 0.044621397 -0.01935897 -0.00805205 0.01557027 -0.038398765

encoder_blocks.2.0.bias f4 [12]
00000000: 44a1 e73a 4799 0f3d 6764 c53a a71c 9b3d
00000010: 1897 4abc 17e4 d43c 8ee9 84bd 3a94 e03c
00000020: 2348 253d ea3e 91bd 9937 3f3d 7c20 643d
0.0017671962 0.035058286 0.001505983 0.075738244 -0.012365125 0.025987668 -0.064898595 0.02741443
0.040351998 -0.07092078 0.04668388 0.055695042

encoder_blocks.2.2.weight f4 [12, 12, 13]
00000000: f7c2 a5bc c7b8 863d d577 5b3d c126 ad3b
00000010: 859b 42bd 0145 5d3c 2ca9 f2bc d4f7 59bd
00000020: 55f4 efbc ed87 5cbd 7a7b e23c 1d21 35bd
00000030: 5026 813d a62b 99bc cc83 df3b 9520 563d
00000040: 2383 013d 741a 133d 5818 81bd e81e 9c3d
00000050: 9c60 debc 1b4c f0bc 6d29 8bbd 1630 173d
00000060: 5b53 583d 88d5 18bd c25d f3bc 86e9 4f3d
00000070: c7ef 8bbd 617b eabc 31e3 603c f7fb 5c3d
00000080: 8d34 25bd e142 4abd 5b83 943d 43cf 7abd
00000090: 80f0 26bd c6bd ed3c d51a ceba d183 bf3c
000000a0: 6f7f 76bd ad6a 37bd 8444 1ebd 69d0 7b3d
000000b0: 511a 133d db26 b9bc 80a5 24bc 638c f2bb
000000c0: 33e9 5a3c 87fb 43bd 1f76 8abd f4f5 813d
000000d0: 20e2 203b 9cb5 91bd 14e9 fe3c bea7 62bd
000000e0: 3220 92bc 3847 74bc c686 61bd 8014 c3ba
000000f0: 8075 1e3c 705f fabb 60a2 7bbb a0d7 e4bb
00000100: 084c 7f3c 3f79 4b3d c783 71bd 4225 963c
00000110: 0653 8d3c ea07 ef3b 64b5 b73a 1179 63bd
00000120: 2244 2c3d 6980 4a3d 73e7 423d 14f4 52bd
00000130: 3133 4fbd d20a 7bbc 830b 613c db76 59bd
00000140: 8446 4cbd 3afc 673c b101 433d 1b93 f93c
00000150: 75ac 413d ac01 383c 1d52 87bd 2e67 8a3d
00000160: 5042 57bd 94a8 50bd bbcf dd3b a81f 81bc
00000170: 3f46 673b 5d02 13bd 0d97 383d e836 82bd
00000180: cdc6 293c 68cf 333d a94c 83bd d48c 313d
00000190: 47d7 34bd 9c14 313d e84a 5f3d 8100 01bd
000001a0: 7dec 82bc 4fa3 80bd 7412 8f3d 03fd 833d
000001b0: c04c e2bb 6e85 77bd 152a 9e3c 4cd4 8a3d
000001c0: 22bf 07bd d509 bfbc 7305 7ebd b989 3dbd
000001d0: eed7 89bc c30b 84bd 56ec 873d 7ea3 3dbd
000001e0: f50b a23c b20f 993d 6334 063d 1ea7 8ebd
000001f0: 6275 96bc d4ee 9fbd 0fc6 87bd 0fef 1bbb
00000200: b6fa a53c d2b5 4e3d b808 43bd a577 ca3c
00000210: ca95 97bc 8315 e13c e9d0 213d 2879 91bd
00000220: c85a cbbc 3fca 3d3c 5a47 3e3d c12d 74b9
00000230: 3626 593d 9d43 1ebd 47fd e23c ab6d 58bd
00000240: 3f9e e8bc 3bab 7d3c 77f0 d43b 746d 94bd
00000250: d928 69bd b8ad 9e3d ab95 0d3d 51ab e7bc
00000260: 7832 83bd 3eb5 e33b 4a68 e0bb d160 3cbd
00000270: 19dc 603d 7e51 44bd f79c 913d 7556 57bd
00000280: 2418 023d dd7c 813d f416 acbc 6ad4 4a3d
00000290: 4b2a 093c 4979 283d 2c16 2ebc 17e1 0d3d
000002a0: 19e9 9ebb 30a5 14bd 2f7f 783d 3635 30bc
000002b0: bded 683d 46a5 4cb9 014d 633d 19bc 233d
000002c0: a6cb 003d 06a5 03bd 00f6 92bc f90e 59bd
000002d0: f3b0 433d c5d1 483c b7fc 283c 0483 44bd
000002e0: bc5b 38bc a157 163c 81ca d7bb 1349 453c
000002f0: 922e 533d e28e 8f3c c354 e4bc 73e3 e73b
00000300: 2e76 913d cd17 61bd 1302 e2bc fc16 46bd
00000310: 3eac 923d 696f 89bd 623a 923d 1d1e 9cbc
00000320: 5d67 5e3d 4aa8 843d f770 bdbc b014 3d3d
00000330: d466 be3c 465f 113d 58d6 8dbd bc60 3b3b
00000340: f2fd 2fbd d049 913d 341e 18bd 0036 4bba
00000350: e4cb 09bd 5010 8f3d 1c1b 5d3d 9c1e 4ebd
00000360: cc3f 733d 3e1b 0e3d 0048 0c38 cfc1 23bd
00000370: 8023 5f3b da79 603d 3505 583c edb0 d6bb
00000380: 467f 4b3c dc62 8e3d c11d 973c d8ab 583d
00000390: be7c 913c 04b6 05bd 1294 d6bc 05fa 9ebd
000003a0: 1ecb f5bc 02b1 883c 0f38 513c 5c9c 2fbd
000003b0: 067d c13c 4015 48bd 0283 733d 6a54 a3bc
000003c0: fc19 cabc 22c2 8bbd a4fd d33c 7759 973d
000003d0: 3b8e fcba ffbf 2f3d d278 613c 22f6 97bd
000003e0: 7a98 a7bd 8767 27bc 7fc4 443c ef28 60bd
000003f0: ffff 93bc 37af 683d 8109 89bc 8911 a6bd
-0.020234568 0.06578212 0.053581078 0.005284161 -0.047511596 0.013505221 -0.029621683 -0.053214863
-0.029291311 -0.053840566 0.027646769 -0.044221032 0.06306136 -0.018697571 0.0068211313 0.052277166
0.031619202 0.0359139 -0.06303471 0.076230824 -0.027145676 -0.029333165 -0.06795011 0.036911093
0.05281387 -0.037313014 -0.029707793 0.050759815 -0.06832843 -0.028623285 0.013726042 0.05395123
-0.04033332 -0.049380187 0.072516166 -0.061232816 -0.040756702 0.029021155 -0.0015724549 0.023378285
-0.060180124 -0.04477947 -0.03863956 0.061478052 0.03591377 -0.022601536 -0.010049224 -0.0074019893
0.013361263 -0.047847297 -0.06760811 0.0634574 0.0024548844 -0.07114717 0.031117 -0.055335753
-0.017837618 -0.014909558 -0.05506017 -0.0014883429 0.009671569 -0.0076407716 -0.0038396344 -0.0069837123
0.015582092 0.049676176 -0.058963563 0.018328313 0.017251503 0.0072946446 0.0014015851 -0.05553538
0.042057164 0.049438868 0.04758401 -0.051502302 -0.05058593 -0.015322404 0.013735655 -0.053091865
-0.049871936 0.014159257 0.047609035 0.030465653 0.04728361 0.011230867 -0.06607459 0.06757961
-0.052553475 -0.05094202 0.006769148 -0.015762165 0.0035289673 -0.035890926 0.04506593 -0.06358129
0.010362339 0.04389897 -0.06411106 0.043347195 -0.044150617 0.043232545 0.054514796 -0.03149462
-0.015981907 -0.06281149 0.069859415 0.064447425 -0.006906122 -0.060429983 0.019307176 0.06778774
-0.033141263 -0.023320118 -0.062016916 -0.04627392 -0.016826596 -0.06447556 0.066368744 -0.046298496
0.019781092 0.07473697 0.032764804 -0.06965469 -0.01836652 -0.07809225 -0.066295736 -0.0023793613
0.02026115 0.050466366 -0.047615737 0.024715254 -0.018504042 0.027476078 0.039505873 -0.07103187
-0.024823561 0.011583864 0.046454765 -0.00023286698 0.053014956 -0.0386387 0.027708663 -0.052838963
-0.02839577 0.015482719 0.006498392 -0.07247439 -0.05692372 0.07747978 0.034566563 -0.028279932
-0.064061105 0.006949096 -0.0068483697 -0.04599077 0.0548974 -0.04792928 0.07110017 -0.052572686
0.031761304 0.06322644 -0.021007039 0.04951898 0.0083719 0.04113129 -0.010625403 0.03463849
-0.0048495647 -0.036290348 0.060668167 -0.010754874 0.05686735 -0.00019516525 0.05549336 0.039974306
0.031444214 -0.0321398 -0.017939568 -0.052992795 0.047776174 0.012257044 0.010314158 -0.04797651
-0.01125234 0.009176166 -0.0065854196 0.012041348 0.051558085 0.017524187 -0.027872449 0.0070766746
0.07102619 -0.05495434 -0.02758888 -0.048361763 0.07161759 -0.06710703 0.07140042 -0.019057328
0.054297794 0.06477411 -0.023125155 0.046162307 0.023242392 0.03549125 -0.069256485 0.0028591594
-0.04296679 0.07094157 -0.03713818 -0.0007751882 -0.03364171 0.06985533 0.05398093 -0.05032216
0.059387013 0.03469395 3.3445656e-05 -0.039979752 0.003404826 0.054803707 0.013184835 -0.006551853
0.012420481 0.0695245 0.018446805 0.052898258 0.017759677 -0.032644287 -0.026193652 -0.07762531
-0.03000408 0.016685966 0.012769713 -0.042873725 0.023619186 -0.04884839 0.05945111 -0.019937713
-0.024670593 -0.06824137 0.025877781 0.07390111 -0.0019268462 0.04290771 0.013761716 -0.07419993
-0.081833795 -0.010217554 0.012009739 -0.054726537 -0.018066404 0.056807723 -0.016728165 -0.08108813

encoder_blocks.2.2.bias f4 [12]
00000000: 4c4e 263d 6f4a 453d 92a7 e4bc fdee efbc
00000010: e497 1a3c 255c 193d 43bc 9a3d 8dda 3fbd
00000020: bb8f e93c 7cd2 c83c 11b5 a93d 8285 6bbd
0.040602013 0.04816669 -0.027911935 -0.029288763 0.009435628 0.03744139 0.07555439 -0.046839286
0.028510919 0.02451443 0.08286489 -0.05750037

encoder_blocks.3.0.weight f4 [12, 12, 13]
00000000: 7e72 933d a58f f23c d860 6fbc cd9b 5bbd
00000010: f095 1bbc 92b0 313d 5f30 87bd 6384 32bd
00000020: 6359 37bd 4896 6f3d ab53 9d3d d725 49bd
00000030: 9e10 81bd 8379 6abd 3761 8a3d f33a e73c
00000040: 9826 343d 278a aa3c f731 81bc 71fd 543d
00000050: 0750 94bd f703 fcbc 905e ac3a b0f7 16bd
00000060: 27ab da3c f932 953c 6b43 383d d3ff 823d
00000070: fced 6e3d 81ed 51bc 381f 483c d57b 65bc
00000080: 3d23 2cbd 1579 0b3c cfbd 60bd 0d08 5fbc
00000090: 44af 8b3b 65f5 7f3c 3c18 7f3c fc64 3d3d
000000a0: 293b 3ebd e24b cb3c 1263 3bbc 7695 723d
000000b0: 7881 6f3d 2ac7 1ebd 38d2 09bc de5d 053d
000000c0: a219 983d 4b3e 27bd 5018 de3c 24c1 fdbc
000000d0: 3387 8bbd 8cd4 253d 7854 7bbd d62e 1e3d
000000e0: 0cc7 843d 799f 1a3d 849a 68bd 955f 8abd
000000f0: 67be 4dbb a156 753c c31a 00bd 1f64 813c
00000100: 0c22 adbc 9bff 94bd 08af 37bd ce0e cbbc
00000110: 02b8 7e3d ba4e 86bd f4e9 a439 dcd9 a53d
00000120: 0a57 ef3b aedd 563c d300 953b 445e 52bd
00000130: 8770 1c3d 4742 313d d190 4dbd 9af5 c3bb
00000140: 8974 223d 87ae 2ebd b25c e4bc 6c6a 16bd
00000150: 12c2 11bc 565d 8c3d 2dc8 99bd 881b 9b3c
00000160: 4058 1cbb b91e d2bc f283 9a3d 0cf1 a03d
00000170: 5aae 583d 5367 69bb b2b1 7abd 9285 87bd
00000180: 8d64 27bc 74d8 483d 6c16 1d3d a596 a93c
00000190: d19f 6b3d c6fd 423c 3c00 723d a034 84bd
000001a0: f978 dfbc 19ea fe3c 8c99 2abc ccc2 5dbd
000001b0: 6df6 efbc 8332 b5bb 5f22 523d 96d2 99bd
000001c0: b368 703c e038 89bd c087 2fbd e124 873d
000001d0: 0899 32bd c492 92bd 93b9 a9bc c1bf 893d
000001e0: c72b cebb bec2 83bb 802c 4abd 495b 9ebd
000001f0: d323 c03c ff2a 863b bcbb 113c efeb 88bd
00000200: ddb9 353d ba4f 5cbd 4047 62bb 5f4f 98bd
00000210: 3c1d bd3b 3e3f 3b3d 3aef 0d3c c6c2 8cbc
00000220: 71c4 83bd 9832 1a3d 3e66 f8bc 2e8f 0d3c
00000230: dacf a0bd d9a5 973d 2943 c7bc 8ad5 813d
00000240: 4893 d63b b0f3 00bd a555 033d 92ed a63d
00000250: 56d3 04bd 19f9 c93c d8e9 5c3d ced6 82bc
00000260: 0471 4b3c 5d9d f23c 03d9 753d 388f 9dbd
00000270: 09d1 94bc 00c9 10bd ac0b 50bd 39a3 9b3d
00000280: 3acc 9a3d ca5b a1bd 1af9 933d 674b 783d
00000290: f72b 7abd 3476 a53d f87e c83b ee27 2a3d
000002a0: cbf9 123d 1e2c f7bc 2bff 9fbd e579 a1bd
000002b0: 4e8d ffbb 6420 023d 7aa6 8bbd f50e 783b
000002c0: f85a 6e3d c5b0 863d d06b c0bc 8de4 0c3d
000002d0: ca9b b63c 3b12 9e3d c87c fb3b 1b6f b33c
000002e0: 1ed9 88bd 664a 983d 4a54 c2bc c863 7c3d
000002f0: d222 0ebc fc5a 28bd 9bb3 23bd 05d2 a23d
00000300: 4f04 15bd e9b3 6bbd 949f b0bb fdcc 6bbd
00000310: 12ba b73c 647f 433d 3b7b ea3b b2e1 a13c
00000320: 1eb8 bd3c d433 873d 916f d9bc c786 803d
00000330: d2ab ddbc 934c 86bc 7b3a 33bc 7e7c 8b3d
00000340: 6d0a 01bd a85d 663d 1c07 90bd 767e 443c
00000350: eef4 3ebd 190d 9e3d 1f6d 91bd 786b 193d
00000360: f811 3a3d 8303 053d da24 b2bb 55a2 813d
00000370: 3989 673c f93f 89bc 16eb fdbc 0846 0c3d
00000380: cd76 6dbd 24f5 cdbc 7577 823d 9920 6abd
00000390: ed09 6c3d a58e 14bd 6aa9 d63c 9efc 57bc
000003a0: 9c90 bebb 19cd babc d18a 103c 90e2 5c3d
000003b0: 1a72 52bd a0dc 1e3d 0714 4e3d 42c0 0a3d
000003c0: 8be6 78bd 88fc 8f3c bad8 fcba 57f5 1ebd
000003d0: 3b4f 9abc 8527 7c3c 0c84 1f3d ed73 3b3c
000003e0: 79d3 923a 8174 0eba c5d9 873c 5784 ccbc
000003f0: 44a4 883d b828 393c ca9c 3eba e601 9ebd
0.07199572 0.02960951 -0.014610492 -0.05361538 -0.009496197 0.04338128 -0.06601023 -0.043583285
-0.04476298 0.05849293 0.07681974 -0.049108353 -0.063019976 -0.05724479 0.067568235 0.028226351
0.04398212 0.02081783 -0.015770895 0.051999513 -0.072418265 -0.03076361 0.001315074 -0.036857307
0.02669294 0.018212782 0.04498617 0.06396451 0.05833243 -0.012812973 0.012214474 -0.014006575
-0.042025793 0.008512755 -0.054868516 -0.013612759 0.0042628367 0.015622471 0.015569743 0.046238884
-0.04644314 0.024816457 -0.011437194 0.05922457 0.05847308 -0.038764156 -0.008411936 0.03256022
0.07426764 -0.04083089 0.027111202 -0.030975886 -0.068128966 0.040485904 -0.061359853 0.038618885
0.06483278 0.03774974 -0.056787983 -0.06756512 -0.0031394006 0.014974267 -0.031275522 0.015794812
-0.021134399 -0.072753154 -0.044844657 -0.024787333 0.062187202 -0.06557985 0.00031454826 0.08098194
0.007304077 0.013114376 0.0045472174 -0.05135943 0.038193252 0.043276098 -0.050186936 -0.0059802057
0.039661918 -0.04264691 -0.027876232 -0.036722586 -0.008896368 0.0685374 -0.075088836 0.018934026
-0.0023856312 -0.025649415 0.07544698 0.07858476 0.05290065 -0.0035614565 -0.06120462 -0.066172734
-0.010216844 0.04903455 0.03835146 0.020701716 0.05752546 0.011901325 0.059082255 -0.0645535
-0.027279364 0.031117486 -0.010412585 -0.05414085 -0.02929231 -0.005529703 0.05130231 -0.07510869
0.0146734 -0.06700301 -0.04285407 0.06598831 -0.043602973 -0.071568996 -0.020718371 0.06726027
-0.0062918398 -0.004021018 -0.049358845 -0.07732255 0.023454582 0.004094481 0.008894857 -0.06685626
0.044366706 -0.05378697 -0.0034527332 -0.07437014 0.0057713073 0.04571461 0.008662993 -0.017182719
-0.064339526 0.037645906 -0.03032219 0.008640094 -0.078521445 0.0740468 -0.024324017 0.063395575
0.006548319 -0.0314824 0.0320641 0.08150782 -0.03242811 0.024654912 0.05393395 -0.015971567
0.012417082 0.029616052 0.06002141 -0.076933324 -0.018166082 -0.03534794 -0.05079238 0.075994916
0.075584844 -0.078788355 0.07225247 0.060618784 -0.061077084 0.08079186 0.0061186515 0.041541986
0.035882752 -0.030172404 -0.07812341 -0.07884578 -0.0077988273 0.03176917 -0.06818862 0.0037850712
0.058192223 0.06576685 -0.023488909 0.03439765 0.022291083 0.07718321 0.007674787 0.021903565
-0.06682037 0.074360654 -0.023721833 0.061618596 -0.008675294 -0.041102394 -0.039966207 0.07950214
-0.036381062 -0.057544623 -0.005390117 -0.05756854 0.022427592 0.04772891 0.0071558035 0.01976094
0.023159083 0.06601682 -0.026542457 0.06275707 -0.02705947 -0.016393935 -0.010939236 0.068108544
-0.031504083 0.05624166 -0.07032606 0.011993041 -0.046620302 0.07717342 -0.07100891 0.037456006
0.045427293 0.032474052 -0.005436522 0.063297905 0.0141318375 -0.016754137 -0.030995887 0.034246475
-0.057974625 -0.025141306 0.06370441 -0.057159994 0.057626653 -0.03626885 0.02620383 -0.013182787
-0.0058155786 -0.022802876 0.008822159 0.053927004 -0.051378347 0.038784623 0.05031207 0.033874758
-0.060766738 0.017576471 -0.0019290664 -0.038808193 -0.018836608 0.015390282 0.03894429 0.011441213
0.001120194 -0.00054342306 0.016583333 -0.024965448 0.06671956 0.011301212 -0.0007271288 -0.07715206

encoder_blocks.3.0.bias f4 [12]
00000000: e9d4 37bd fa70 a33c 8be5 803d b7df a7bc
00000010: 891a 2bbd 0e7d 813d a88b 38bc 3f48 4dbd
00000020: 9f5a c8bc 2134 76bd 29a7 e83b 5f1b 16bc
-0.04488078 0.019951332 0.06293782 -0.020492418 -0.041773353 0.063226804 -0.011263765 -0.050117727
-0.024457274 -0.060108308 0.007100005 -0.009161799

encoder_blocks.3.2.weight f4 [12, 12, 13]
00000000: 015c d23b 1bed 65bd 3534 48bc 86ec 5d3d
00000010: d55e 11bd 43eb 82bd b7d5 093d f94d 39bc
00000020: 570f 53bd 1a13 2fbb b5ea 41bd 8a18 063d
00000030: 6e90 febb aa89 d93c 54f7 51bb 9fde 2cbc
00000040: c664 fdbc 87c7 30bd 5bfa 243c d74a 85bd
00000050: 5720 713d a7af 04bd 221d 13bc da3e 883d
00000060: 1253 0e3d fde5 433d b4ef 5cba f1e7 25bd
00000070: bc50 f53c ac6d 84bd 29d9 d63c 4c36 89bd
00000080: 5acc 4c3d 9223 5cbd 6793 63bb 4190 a23d
00000090: 9bd1 853b 16a7 10ba 5359 1bbd cb49 4ebd
000000a0: 7fc8 783d d267 97bd aa5d 833b c83e a13c
000000b0: 5db9 203d c682 4e3c 505d ff3c 6089 fdbc
000000c0: b98a 04bd 9ce5 8b3d 816b 8bbd d1a0 9d3b
000000d0: b7e5 843d 35d9 803d 93fb 483d b66e 05bb
000000e0: fe80 91bb 5976 3cbd bcbc e73b 6d30 383d
000000f0: a49b 883d 6c35 4bbc 12cf c43c 4898 d1bc
00000100: 8d53 4dbd e4aa 01bd c3f5 04bd 16a7 a0bd
00000110: 9d1e 933d 4930 2bbd a117 d5bc 8020 493d
00000120: 750d 913d 33a0 743d 8b30 953d 8a4d 7d3c
00000130: 8c64 733d 0682 82bd 50d0 a9bc 645f 94bd
00000140: aaac 103d f2de 82bd 1412 24bd bec8 6abd
00000150: efb8 95bd 051a c9bb 7b14 5c3d 2d03 9ebd
00000160: e777 8bbc d440 073d 7645 253d 7e69 36bd
00000170: 88ee 713c 6959 86bd 9e9f 9f3d d832 143d
00000180: 9c03 583d 680e a73c d4b8 ef3c b413 1f3d
00000190: 4e34 a1bc 713d 3bbd 065e 05bd 2892 0d3c
000001a0: 549b 353d 45e5 f6bc 2f06 923d bb91 863d
000001b0: 2bd3 d4bc 5b4c 953d 81ba be3b 1acd d8bc
000001c0: 0951 9d3c ed4a 893d 79a2 babc d550 4f3d
000001d0: 86a0 f7ba 4265 ce3b 1774 b03a 4a00 243d
000001e0: dd26 923d 17d1 8e3c f425 193d 1fef 6bbd
000001f0: d28e 6c3d 67e4 14bc a7c7 0bbb a146 78bd
00000200: f376 903d 9ce5 0ebd f8be 9b3d a236 93bc
00000210: 8233 2abd 97b3 76bd 98a7 46bd 1208 4f3d
00000220: b90f 5fbd d3d1 f7bc 7e3d 68bc 19a5 84bb
00000230: bc9f d4ba ded3 313c d4b7 a2bd 086f 693c
00000240: 826e 303d cfb0 b4bc bf92 4fbd 891e 08bc
00000250: 82a8 80bd a1bf 0abd adf3 69bc 278d 383a
00000260: af59 cbbc b6a1 f43c 2a9e 88bc 6276 d1bc
00000270: a2ac bc3b 11b6 48bd 9a8e 313d 9584 8a3c
00000280: dc23 a8bc afb7 9c3d 6f86 973d de39 b3bc
00000290: 017d 973d b7dc bf3c 7524 813c 4de8 26bd
000002a0: bc69 663d c20c 56bc 3a64 383d 04fb b73c
000002b0: 768f 04bd 4c0c 2f3d 3162 a0bd 33a8 02bd
000002c0: cc97 94bd c914 8b3d d800 28bd 4924 c33b
000002d0: 854e 2bbd 22f8 ecbc f8fd c93c c107 8b3d
000002e0: da6b 47bd bba3 19bd fac3 edbc d9f7 5c3c
000002f0: f329 6ebd 2374 c4bc a305 8e3d 60cb 5b3d
00000300: 193b ce3b f9f5 653d f74f d43c 0633 75bc
00000310: 0c1a 1e3c 24a6 a3bd ec0a 3e3b b638 f2bc
00000320: 6a3c 46bd f4dc 153d 6555 9e3d 214b 19bc
00000330: ebdc b03b 7bc5 d63b 0fa8 1c3c 68e5 1a3d
00000340: 375d 27bd b7d6 a1bb 38cf 66bd b941 4f3d
00000350: 654b 483d ec1c 58bd 3cf7 64bd 146e 003c
00000360: f4cf 843d 3d90 ffbc ad80 6bbd 3370 753b
00000370: 6b8e ffbc 8686 b93c 50b5 0b3d f463 a43c
00000380: 64ef 1d3d e0de 07bd a30b 403d 45ef 62bb
00000390: ba74 08bc 9108 3bbd ea00 84bc 8511 49bd
000003a0: 4cb7 dc3c 7fc4 0fbd eebb 56bd 66a2 8cbd
000003b0: de95 91bd 0914 e2bc fc23 bc3c ecf2 31bd
000003c0: 773e c93c cd56 3bbd f41e 883d 1c77 b9bb
000003d0: 2e82 4dbd e74f 7d3d c86b 6bbd bf30 36bd
000003e0: f094 3b3c 20f8 8fbb 705c 9f3d 8856 3abc
000003f0: 927c 923d 10ae 283c 1082 953d 64dc 593d
0.006419659 -0.056134325 -0.012219478 0.054180644 -0.03549083 -0.06392529 0.03365108 -0.011310094
-0.0515283 -0.0026714266 -0.047342975 0.032738246 -0.007768682 0.026554901 -0.0032038288 -0.010551124
-0.030931842 -0.043159034 0.010069455 -0.06508415 0.058868732 -0.032394078 -0.008979114 0.06652613
0.03474719 0.047826756 -0.00084280525 -0.0405044 0.029945724 -0.06466231 0.026226597 -0.066998094
0.049999572 -0.05374486 -0.003472531 0.079376705 0.004083825 -0.0005518062 -0.037926983 -0.050363343
0.060738083 -0.07392849 0.0040089684 0.019683257 0.039239276 0.012604421 0.031172425 -0.030949295
-0.03235886 0.06830904 -0.06807614 0.0048104306 0.06489127 0.06291429 0.049068045 -0.0020360178
-0.004440426 -0.046011303 0.0070720594 0.044968057 0.06670311 -0.0124028735 0.02402452 -0.025585309
-0.05012851 -0.031657115 -0.03246094 -0.07844369 0.071835734 -0.041794095 -0.026012244 0.04910326
0.07082645 0.05972309 0.072846495 0.015460381 0.05942206 -0.06372456 -0.020729214 -0.07244757
0.035320915 -0.0639018 -0.040056303 -0.05732035 -0.07310664 -0.006137135 0.05373047 -0.077154495
-0.017024947 0.03302081 0.040349446 -0.0445342 0.014766343 -0.065600224 0.077941164 0.0361813
0.052737817 0.020392612 0.029262938 0.03883715 -0.019678261 -0.045712892 -0.03256037 0.008640803
0.044337586 -0.030138621 0.07130086 0.06570765 -0.025979599 0.07289954 0.005820573 -0.026464988
0.01920368 0.06703744 -0.022782551 0.050614197 -0.0018892444 0.006298692 0.0013462332 0.04003934
0.07136319 0.017433686 0.03738971 -0.05760109 0.05775339 -0.0090876585 -0.002132872 -0.060614232
0.07053938 -0.03488694 0.07604784 -0.017970387 -0.041553028 -0.060229864 -0.048499674 0.050544806
-0.054458354 -0.03025142 -0.014174817 -0.0040480015 -0.0016221921 0.010853736 -0.07945219 0.014247663
0.04307414 -0.022056965 -0.050677057 -0.008308061 -0.0628214 -0.033874158 -0.014279288 0.00070400763
-0.024823038 0.029862266 -0.016676981 -0.025569145 0.005757884 -0.049001757 0.043348886 0.016908923
-0.020524912 0.07652222 0.07398688 -0.02187818 0.073968895 0.023420675 0.015764454 -0.040748883
0.05625318 -0.013064565 0.04501746 0.02245856 -0.032363378 0.042736337 -0.078312285 -0.03189869
-0.072555155 0.06791074 -0.04101643 0.0059552533 -0.04182293 -0.028926913 0.024657235 0.06788588
-0.04868684 -0.03750966 -0.029024113 0.013486826 -0.058145475 -0.02398116 0.06934669 0.05366075
0.006293666 0.05614278 0.025917036 -0.014965778 0.009649765 -0.07990673 0.002899821 -0.029568058
-0.04839746 0.03658767 0.077311315 -0.009356291 0.005397429 0.006554303 0.009561553 0.037816435
-0.04086038 -0.004938926 -0.056349963 0.050599787 0.048900027 -0.052761957 -0.055899844 0.007838745
0.064849764 -0.031196708 -0.05749576 0.003745091 -0.03119584 0.022647154 0.03410846 0.020067193
0.03855838 -0.033171535 0.046886098 -0.003462748 -0.008328611 -0.045662466 -0.016113717 -0.049088974
0.026942872 -0.035099503 -0.052425317 -0.068669125 -0.07108663 -0.027597444 0.022966377 -0.04344456
0.024565918 -0.045737077 0.06646529 -0.005659951 -0.050172977 0.06184378 -0.057475835 -0.04448008
0.011449084 -0.0043935925 0.07781303 -0.01137317 0.07152666 0.010295406 0.07300198 0.053188697

encoder_blocks.3.2.bias f4 [12]
00000000: 5cd3 9abd 0a01 40bd 48a8 93bd 1a6c 31bd
00000010: ed45 1bbd e845 b13c d1f3 a93b 1074 b23b
00000020: 8d1d 95bc 8fc8 693d df4c 913c edae 83bc
-0.07559845 -0.04687599 -0.072098315 -0.043315984 -0.037908483 0.02163978 0.005186536 0.0054459646
-0.018202567 0.057076033 0.01773685 -0.016074622
