Python/save/localizer/trial_2/quake_localization_model_00010.pth (torch, 252994 bytes, 35 tensors)

encoder_blocks.0.weight f4 [12, 1, 13]
00000000: bedd 393e c2b5 4d3e fccf 5e3e ca18 b03d
00000010: 4233 3c3e 650a d23d a967 dfbd 3de9 78bd
00000020: 0ec8 56be 91ec 49be 14c7 46be 63e2 b23d
00000030: 6e14 afbd 5a00 5abe 8e25 78be 886f 84be
00000040: 93bb f7bd 238f c93d 2e61 25be ab15 8c3e
00000050: c4da 44be d2f7 adbc fc7c 973d 24df 313e
00000060: 48ad 203e c333 31bd 5416 8d3d 66ae b6bd
00000070: 1fb5 0e3d 8e49 873d b783 5fbe 95fa 3ebe
00000080: 52ef 1e3e 45b2 92bd db6d c6bd 79ac f7bd
00000090: f150 71bb c507 e4bd a6fc 7abe c493 a63d
000000a0: a0fa e93c 8db0 54be 563d 9e3d 96f9 24be
000000b0: 296f 08be 68e3 a33d e1c0 243d bf29 033d
000000c0: 4659 b3bd 90a9 4c3b 3d69 853e 535f 7ebe
000000d0: 828d 413d 9137 3b3d fe50 afbd f484 fcbb
000000e0: 689e 11be f240 f4bd 1650 0bbe 5d08 363e
000000f0: 46a8 18bd e6a9 fb3d 0423 3ebc 662d 0bbe
00000100: dc64 2dbe ef65 b8bd 5b11 743e 1717 c33d
00000110: 4ff5 e8bc e204 6abd c1ce 9a3d cb13 633e
00000120: 8fff 71be 4c40 a43d 67ab 173e fed4 44be
00000130: ecf6 5d3e bff2 303e c96f e2bd 3b06 a63c
00000140: e1f6 033e 4d83 d33d 922c 893d bcbd ffbc
00000150: cb1e abbd da03 773e 248b 163e ef9e 0f3e
00000160: 2190 87be f748 f13d 0d11 1bbe a5c3 c63d
00000170: 6bfa cebd 5e15 36bd 5b79 d13d 2a30 4cbe
00000180: 925d 893e 80c0 4e3e 3209 a8bd 96b4 053e
00000190: bfc3 26be ffa5 053c a06b 613e 74f9 543c
000001a0: 97d8 28be e85f adbc fe25 22bd 4910 9ebd
000001b0: 9bde 2e3e 4b3e 453e ea18 403e 1f3c 813e
000001c0: a958 1f3e 9674 403e ffa4 643e c6ea 02be
000001d0: b8a5 153e 9a56 863e 5ffb aabd 296c 48be
000001e0: 8256 5cbe def1 2a3b 4005 35be c219 4bbe
000001f0: b4c2 0b3e 960f 4f3e fce5 38be 9396 853e
00000200: 3b45 643d c6c1 d33d 8a08 8d3e f795 59be
00000210: 2f4f 883e 4be3 e33c 331e 0bbd 0a2e 503e
00000220: 0005 f83d 2f8e bb3c ed18 1dbd 9da3 55bd
00000230: b2bc adbb 2e1f debd d6b3 3bbe 80bd 9e3d
00000240: 2509 133e 5411 52be d8c8 6cbd 786b 65be
00000250: a159 8bbe 8eaa b03d a422 6dbe aca1 e1bd
00000260: e38c 2abe f925 693e b306 3dbe 20fb fdbd
0.18150994 0.20088866 0.21759027 0.08598478 0.18378928 0.10255889 -0.109084435 -0.06076931
-0.20974752 -0.19719149 -0.1941188 0.08734586 -0.085488185 -0.21289197 -0.24233076 -0.25866342
-0.12096324 0.09841754 -0.16150352 0.2736028 -0.19224077 -0.021236334 0.07396886 0.17370278
0.15691102 -0.043262254 0.068890244 -0.089199826 0.0348407 0.06605826 -0.21827589 -0.18650277
0.15520981 -0.071629085 -0.09688922 -0.120934434 -0.0036821926 -0.111342944 -0.2451044 0.08133653
0.02856189 -0.20770474 0.07726543 -0.16110834 -0.13323654 0.08002359 0.040223006 0.032022234
-0.08757262 0.0031228997 0.26056853 -0.24841051 0.047254093 0.04570729 -0.0856037 -0.007706279
-0.14220583 -0.1192645 -0.13604769 0.17776628 -0.037269853 0.12288265 -0.011605028 -0.13591537
-0.16933006 -0.09003817 0.23834746 0.095258884 -0.028437285 -0.057133563 0.075589664 0.22175519
-0.23632644 0.08020076 0.14811479 -0.19221875 0.21676224 0.172801 -0.110564776 0.020266643
0.12887146 0.10327778 0.06697954 -0.031218402 -0.08355483 0.24122563 0.14701515 0.14025472
-0.2647715 0.11781495 -0.15143223 0.09705285 -0.10106357 -0.04445397 0.10228225 -0.19940248
0.268292 0.2019062 -0.08204879 0.1305717 -0.16285609 0.008157252 0.22013712 0.012998927
-0.16488872 -0.021163896 -0.039587013 -0.0771795 0.17077105 0.19262044 0.18759504 0.2524118
0.15561165 0.18794474 0.22328566 -0.12784871 0.14613998 0.26237947 -0.083487265 -0.1957251
-0.21517375 0.0026084105 -0.17677784 -0.19834045 0.13648492 0.2022079 -0.18056482 0.26091442
0.055730086 0.10339694 0.27545577 -0.21248613 0.26622912 0.027818343 -0.033964347 0.20330063
0.12110329 0.022894947 -0.03835385 -0.052157987 -0.0053020352 -0.10845791 -0.1833032 0.07750988
0.14358957 -0.20514423 -0.057808727 -0.22404277 -0.2721682 0.08626281 -0.23157746 -0.110171646
-0.16655307 0.22768392 -0.18459587 -0.12401414

encoder_blocks.0.bias f4 [12]
00000000: c6d4 19be bd5b 333d 40ff 7d3e 5df3 f5bd
00000010: 9bcf 873e fa3d 6ebe 92e6 243d 777c c63d
00000020: 4db4 683d 1e5f a6bd 929d da3c bf99 ce3d
-0.15022573 0.04378866 0.24804401 -0.120093085 0.26525578 -0.2326583 0.04025895 0.096917085
0.056812573 -0.08123611 0.026686464 0.100879185

encoder_blocks.1.0.weight f4 [12, 12, 13]
00000000: 4c0f 82bc 0d8f 533d 286d 863d e476 cdbc
00000010: 1ef8 4bbd 3639 5d3d f22d 2ebd 4ca2 753c
00000020: 5f4b 33bd 2b5d c3bc 138d 04bd da08 593d
00000030: 4de9 1c3c 4bf9 6f3d 1cbb 41bd 35ab a5bc
00000040: e2fe 4ebd 391f 903c 5f1d 453c d4f3 55bd
00000050: 455d a7bc 15f5 91bd 1ad4 b3bc e208 a9bc
00000060: ff44 43bd aa56 253d e7f0 ccba 3456 833d
00000070: f5fd 8cbb 5a3f 013c addf 68bd 0abb 86bd
00000080: bcbc 943d 5b18 9cbd 6c6a 713d 3ce5 4dbc
00000090: 20af 583d bdff a03d dfc8 8f3d 04b3 9fbd
000000a0: 1427 163d fa81 8bbd b7c1 073d a280 fb3c
000000b0: 16d8 8a3d 78bb 673d 732f 973c 5ce9 6dbd
000000c0: 7ad1 13ba b031 9cbd 807c 8fbd 12b5 733d
000000d0: 8985 0d3c c90d 3f3d 3803 813b 6aa0 8fbd
000000e0: fbcd 8c3d d1e2 3c3d 33b2 d2bc 693b 2c3c
000000f0: 1b8e 1c3c 3b5c 37bc fc81 56bd 3f6b be3c
00000100: 21f0 9fbc f384 2a3d 4311 08bd 445d d63c
00000110: 7fd6 093c 283c 35bd a4b9 77bd d7e2 4bbd
00000120: bed2 773d 49f4 94bd f0ed 393d 575e 963d
00000130: f674 ee3c d83c 49bd c61d 0b3d 77c3 9fbd
00000140: 28b0 223b fb3b 4b3d 703e a03d 1054 4ebd
00000150: e6e5 78bd 9606 363c cf87 38bd 708d 913c
00000160: fc24 7a3d 0246 8b3d 9c43 ab3c 8cad 2ebd
00000170: 8f34 80ba 38b0 06bd 92b0 36bd 6835 84bc
00000180: 111f 15bd ac4d 5ebd ab11 863d 2e58 4a3d
00000190: 739d 88bd 0fb3 ffbb f5a9 b2bc 60ea 543b
000001a0: 0896 873d 59a6 bdbc 7d3b 043c 42fb 9fbd
000001b0: 8cd6 ef3c 0c10 38bd e35e ae3c c803 08bd
000001c0: af6b 22bc 1cb7 2e3d 8992 0b3d 61b4 733d
000001d0: 3a0e 8e3d 7dc3 95bc 8789 08bd dd93 acbc
000001e0: afa5 463c fa38 033d 1076 30bd 6af1 9abd
000001f0: 1dd3 92bd eb55 0abc 51a8 c3bc b871 83bc
00000200: 6b8b 09bd 3dd6 70bd 8277 f3bc b3d9 5b3b
00000210: 72d8 8fbd 574b b53c 575d 1abd 2a38 883d
00000220: dd11 8dbc 04d1 033c f6ae 2bbd 6137 d4bb
00000230: 11e6 7ebd 0408 2bbd d504 95bc c7de afbc
00000240: acef 353d 023c a9bc 62d1 84bc 7a62 823d
00000250: c1f9 82bd b076 753c 104a 12bd b7ba e43c
00000260: b229 083d 3014 30bd 6b1c 2f3d 94b1 9abd
00000270: c11b 04bd bea8 293d 29c0 85bd f059 2e3d
00000280: 7bf2 f73c a26a 95bd fe6b 82bd 5f0d 403d
00000290: 4936 8d3d 94ee 933d 79ed 63bd ae9b 673d
000002a0: db14 703d 49c1 96bd 17f1 7abd fe72 233d
000002b0: 116f 8e3d f039 743d 52dd 843d a259 1e3d
000002c0: 10e4 9a3d 0245 c33c 8184 15bc de43 e53c
000002d0: 86cb 5ebd 38ae 843d ec07 8a38 56a2 073c
000002e0: c31a a33d e4dd 963d 4f45 1f3b 3d43 13bd
000002f0: 212c 43bd a847 49bd 09bf 3d3d 1dd1 f6bc
00000300: cb81 8cbd ca3f 233d 47d7 9e3d daec 1e3c
00000310: 3d9f 1e3c 7b26 833c d3a2 e23c beaa 8e3c
00000320: 4085 10bd 2948 83bd 5290 b0bc 1b59 a93c
00000330: f0e6 ccbc c0d2 963d aa8d 8cbc dd89 8b3d
00000340: f81b 12bd f017 50bd df1b 15bd 4cd8 7bbd
00000350: 0a4b 6c3c 5bf7 25bc d76e 563d 99dc 93bd
00000360: 6999 813b c297 c0bc 6bed 3d3d dd07 d3bb
00000370: b8b0 653c c59a 8b3d ffe8 15b9 6ef0 863b
00000380: 9fac 4c3d b596 bb3b 6fc2 3e3c f935 a23b
00000390: 2b65 da3c c2f4 373d 0ff0 c9bc 4260 1abd
000003a0: 06a5 13bd 1f1e 3f3d 5c8e de3c 90b3 d3bc
000003b0: 57d7 903d 5478 88bd bfab 64bd 2f32 9c3d
000003c0: ce1e ce3c 815a 623d d1df 19bb a067 83bd
000003d0: b38c 90bc a77d a53c a738 42bd 7d1e 9cbd
000003e0: 1fe2 06bd b2e6 dabc 8817 5c3d 2634 883d
000003f0: 4ec1 6bbd 880c ac3b 5f3e 49bc 5ff1 9cba
-0.015876435 0.051650096 0.06563789 -0.025081106 -0.04979717 0.05400964 -0.042524286 0.014992308
-0.04377305 -0.023848137 -0.0323611 0.052986957 0.009577108 0.058587354 -0.047297582 -0.02022324
-0.050536044 0.017593013 0.012030928 -0.052234486 -0.020430217 -0.07126824 -0.021951724 -0.020634118
-0.04767322 0.040365852 -0.0015635759 0.06412926 -0.004302735 0.007888639 -0.05685394 -0.065786436
0.07262561 -0.07621833 0.058939382 -0.012566861 0.052901387 0.07861278 0.07020735 -0.077978164
0.03665836 -0.068119004 0.033143725 0.030700985 0.06779496 0.05657527 0.018455243 -0.058083877
-0.00056388194 -0.07626665 -0.07006168 0.059498854 0.008637794 0.046644006 0.0039371513 -0.070130184
0.06875225 0.046114746 -0.025719738 0.010512211 0.009555365 -0.011191423 -0.052370057 0.023244498
-0.019523682 0.041630697 -0.033219587 0.02616752 0.008412956 -0.044246823 -0.060479775 -0.04977688
0.060503714 -0.07273156 0.04539293 0.07342213 0.029108506 -0.04913029 0.03396394 -0.07800954
0.0024824236 0.04961775 0.07824409 -0.050373137 -0.060766123 0.011109969 -0.045051392 0.017767638
0.061070427 0.06800462 0.020906262 -0.042645976 -0.0009781289 -0.0328829 -0.044601984 -0.016138747
-0.03640658 -0.054273292 0.06546339 0.0494005 -0.06670656 -0.007803328 -0.021809557 0.0032488331
0.06620413 -0.02315061 0.008070824 -0.078115955 0.029277109 -0.04493718 0.02128548 -0.03320673
-0.009913369 0.042655095 0.034075294 0.059498195 0.06936307 -0.018281693 -0.03333428 -0.0210666
0.012124463 0.03203676 -0.043081343 -0.07565577 -0.07169173 -0.008443336 -0.02388397 -0.016045436
-0.033580225 -0.058798064 -0.029720072 0.0033546507 -0.070237055 0.022130651 -0.037686672 0.066513374
-0.017220432 0.008045439 -0.041914903 -0.0064763282 -0.062231127 -0.04175569 -0.01819078 -0.021468533
0.044418022 -0.020658497 -0.016213123 0.06366439 -0.06395293 0.014981911 -0.035715163 0.027921064
0.03324289 -0.042988002 0.04275171 -0.075534016 -0.03225303 0.04142069 -0.06530792 0.04256624
0.03026699 -0.07295729 -0.06368254 0.04688775 0.0689512 0.072232395 -0.055646393 0.056544952
0.05861364 -0.07361085 -0.061265077 0.039904587 0.06954778 0.059625566 0.06487526 0.0386597
0.07563031 0.023836616 -0.00912583 0.027986463 -0.054393314 0.06478542 6.581828e-05 0.00827845
0.07964089 0.07366541 0.0024302786 -0.035952795 -0.047649506 -0.049140602 0.046324763 -0.03012901
-0.068606935 0.039855756 0.07755905 0.0097000245 0.00968152 0.01600956 0.027665531 0.0174154
-0.035283327 -0.06410248 -0.021553192 0.020672372 -0.025012463 0.07364416 -0.017157394 0.06813405
-0.035671204 -0.05080408 -0.036403533 -0.061485574 0.014422188 -0.010129775 0.0523518 -0.0721981
0.0039550555 -0.023509864 0.046368998 -0.0064401464 0.014019184 0.06816629 -0.00014296545 0.004118017
0.04996931 0.005724753 0.011643036 0.0049502817 0.026659569 0.044911154 -0.024650602 -0.037689455
-0.03604605 0.046659585 0.027167492 -0.025842458 0.07072323 -0.06663576 -0.055827852 0.07626759
0.025161173 0.055262093 -0.0023479352 -0.06416249 -0.017645216 0.020201517 -0.04741731 -0.07623003
-0.03293049 -0.026721332 0.05373338 0.066505715 -0.057557397 0.0052505173 -0.012282937 -0.001197379

encoder_blocks.1.0.bias f4 [12]
00000000: 8254 ab3c b45f a33b 54d4 80bd 99f7 7b3d
00000010: 133a 9ebd 84e4 843c f8e4 23bd 46dc 4bbc
00000020: 1cb5 683d 10a7 a13d 6bb2 873d e9bd e33c
0.02091432 0.004985774 -0.062904984 0.061515424 -0.077259205 0.016222246 -0.040013283 -0.012442654
0.056813344 0.07893193 0.066258274 0.027800517

encoder_blocks.1.2.weight f4 [12, 12, 13]
00000000: b859 473d 07c1 4bbd ff21 403d 2670 9d3d
00000010: 8761 4c3d b550 ff3c 11e5 fe3b 6754 dfba
00000020: 5788 8abc 2659 f5bc d345 4bbb 9f3d 29bc
00000030: 86fe 7b3d a1bd 6dbd 66d6 793c 044b 20bc
00000040: 996c 193b 4153 3f3d c984 943d 2c22 8abd
00000050: cbdc 993d cf35 61bd 2943 9a3d d9b4 a9bc
00000060: 3d79 633d 2482 6e3d 833b 50bd 0f76 9abd
00000070: ac9e 383d 57d7 383c f88b 50bc 67cc 05bd
00000080: db5b a2bd 3079 56bd 92d6 8f3d 1402 f13c
00000090: 9f28 533d 90ee 0ebd 1de6 0e3d e532 db3b
000000a0: fe56 efbc 33ca c1bb 30d2 053d 86a3 8ebc
000000b0: 0d63 513d 3836 bc3b 5808 4abd e687 8d3c
000000c0: 13c0 9c3c f763 81bd 1ca9 74bd 1169 933d
000000d0: 77bb 803d 5bc5 953c df44 5fbd 02cb 45bd
000000e0: 0b5a 843c 0c39 13bc 3ea9 c83a 771b 913d
000000f0: 37b8 eb3c 6e33 abbc 1495 69bd 6a45 303a
00000100: f875 be3c 85da 8b3d fe39 20bd e046 86bd
00000110: 6610 453c 6c4a 72bd ea8a 743d 1364 a9bc
00000120: d3de 97bd 8850 92bd 9624 23bc caa5 2a3d
00000130: 3711 37bd cc5c a6bb ee76 2dbc d407 243d
00000140: cff1 143d 9e84 ddbc 2c7b 273c aeb5 053d
00000150: 8e31 ccbb eb53 afbc 2939 b73c 65f1 763c
00000160: 06d6 6ebd 4aae 4b3d d093 e4bc aea9 9c3d
00000170: 138b 703a 3f49 1a3d 328a 9c3c 116f 9b3d
00000180: cb09 42bb 44d7 783c 1ae4 98bd d00a b33c
00000190: f05d 253c 8db6 41bd 219f 96bd 508b 953d
000001a0: f55b 98bd dc0f 413d ab0b 14bc c56b 2fbc
000001b0: d97a 8ebd 76b0 ff3c 3e2e 073d 874b d33c
000001c0: ba09 c8bc 7b61 b53c 4798 f0bc d597 f23c
000001d0: 089a 5c3b 0949 443d 0888 bcbc c09a 1ebb
000001e0: 519a 7fbd 63d3 453d 89a7 983d 1d7f 7c3d
000001f0: 8d09 a0bd b302 653d 9fd6 63bc f694 cdbb
00000200: 8cf9 283d 2edd 2d3d e88e 26bd 6371 c9bc
00000210: 4851 713d 5aa2 6bbd 1da8 323d 22b6 25bd
00000220: 3f3c 4fbd dd56 a13d a0b5 52bd 0cec 1bbd
00000230: b112 9d3d 89c3 63bd c3d1 973d 76de 94bd
00000240: fd41 b9bc b624 afbc c3f7 a13d d1a2 ec3c
00000250: 64d7 01bd 279b 8c3d 7e6a a03c 88e3 933d
00000260: 2f9c af3c 2b9d 793d 2198 993d 7416 09bd
00000270: b525 7b3b 49ca 11bc 6de8 77bd 3148 85bd
00000280: a31f 62bc 9748 a2bd 81ba ac3c fc05 4cbd
00000290: 3546 66bc f97f 123d 0034 3c3d 7a62 cebc
000002a0: be46 04bd 7b6b 9cbd 5def d6bc 3746 c53c
000002b0: f4f8 39bc 324f 773d fa0b a23d 2555 633c
000002c0: 813f 223d 4344 933d 9219 a03a 503d a1bd
000002d0: bd45 7d3d 149c 86bd 32e4 49bd 8cb0 783c
000002e0: 4c3c 883d 1123 fd3c d2dd 28bc 83b6 783d
000002f0: 7028 a4bd 8bbd 9f3d 2822 3dbc fed1 023d
00000300: 6bf1 46bc 076b 993d 171f 3539 aef1 01bd
00000310: 64db a13b 2754 2abb ee12 4a3d 45e6 06bd
00000320: b672 65bd 7e0c b73b c8e1 87bd 5926 3bbd
00000330: b929 913d 1c4a 113d 41dd 73bd 5499 2b3c
00000340: 5ffc 553d 0a5e eebc 4993 523a 32da 5dbd
00000350: a9bd 1abd 8f13 973d faa1 82bd 8516 a33d
00000360: 7d69 2abc f1ee f6bc 6c74 b43c 8579 d93c
00000370: 4d64 11bd e6d1 8f3d 8361 763d 6ffd 78ba
00000380: 0f36 96bc c28b 95bd 13c5 413d dca8 173d
00000390: 070a 8dbd 0019 943d 6b64 473d f4d7 2e3d
000003a0: 3980 9abd 4e6e 8a3d 39db 18bc c4a0 983b
000003b0: 1add 3dbd 6d03 20bc baf2 adbc cebf 0f3c
000003c0: 5609 843d 6d21 62bd 9194 8d3c c13d 883c
000003d0: d9a0 dd3c 4925 133d eb53 97bd ebae b83c
000003e0: e61a 99bc 7190 533d b3cf a53c c21e 5fbd
000003f0: 620f 1a3d 7e05 903d 2f36 70bd cbf6 75bd
0.048669547 -0.049744632 0.04690742 0.07687406 0.049897697 0.031166414 0.0077787717 -0.0017038704
-0.016910715 -0.029949736 -0.003101696 -0.010329633 0.06152203 -0.058042172 0.0152488705 -0.00978351
0.0023410677 0.046710256 0.07251889 -0.06744799 0.07512816 -0.054982956 0.07532341 -0.020716118
0.055535544 0.05822958 -0.050838005 -0.07542049 0.045073196 0.01128181 -0.012728684 -0.032665636
-0.07927676 -0.052361667 0.07023348 0.029419936 0.05155241 -0.03489548 0.034887422 0.0066894167
-0.029216286 -0.0059139966 0.032671154 -0.017411958 0.051119853 0.005743768 -0.049324363 0.017276715
0.019134557 -0.06317895 -0.059731588 0.07197774 0.06285756 0.018282583 -0.05450904 -0.048289306
0.016156217 -0.008985769 0.0015309227 0.07085317 0.028774364 -0.020898547 -0.057026938 0.00067242107
0.023249611 0.06828789 -0.039117806 -0.06556487 0.0120278355 -0.059153005 0.05970279 -0.020677602
-0.07415547 -0.07144266 -0.009957453 0.041662015 -0.04469415 -0.00507698 -0.010587437 0.040046528
0.03636342 -0.027040776 0.010222238 0.032643966 -0.0062314933 -0.02140232 0.022366123 0.015072201
-0.058309577 0.049726762 -0.027902514 0.07649551 0.0009175997 0.03766751 0.019108865 0.075895436
-0.0029607888 0.015188042 -0.07465382 0.021855742 0.010093197 -0.047293235 -0.0735457 0.073019624
-0.074394144 0.047134265 -0.009035985 -0.010706847 -0.06957025 0.031212073 0.033003084 0.02579285
-0.0244187 0.022141209 -0.029369486 0.029613415 0.0033661146 0.047921214 -0.023014084 -0.0024201125
-0.062403027 0.048297297 0.0745383 0.061644662 -0.07814322 0.055910777 -0.01390615 -0.006273861
0.04125361 0.04244726 -0.04066363 -0.0245902 0.058915406 -0.057527877 0.043617357 -0.0404569
-0.050594565 0.07877896 -0.051442742 -0.03806691 0.07669581 -0.0556064 0.07413056 -0.072689936
-0.022614473 -0.02137981 0.07908585 0.02888623 -0.031699553 0.068655305 0.01958203 0.072211325
0.021436779 0.060940903 0.074997194 -0.03346868 0.0038322036 -0.008898326 -0.060524393 -0.0650791
-0.013801488 -0.07924002 0.021085026 -0.049810395 -0.014054825 0.035766575 0.04594803 -0.025193442
-0.032294028 -0.07637688 -0.026237184 0.024081333 -0.011350859 0.06037826 0.079124406 0.0138752805
0.039611343 0.07190754 0.0012214652 -0.078730226 0.061834086 -0.06572738 -0.04928989 0.015178811
0.06652126 0.03090051 -0.010306792 0.06072093 -0.08015525 0.07799824 -0.011543788 0.031938545
-0.0121425195 0.07491117 0.00017273087 -0.031724624 0.0049394835 -0.00259901 0.04933446 -0.032934446
-0.0560176 0.005586206 -0.06634861 -0.045690868 0.07088036 0.035471067 -0.059537176 0.010473568
0.052242633 -0.029097576 0.00080328115 -0.054163165 -0.03777853 0.073767774 -0.06378551 0.0796328
-0.010401127 -0.030143233 0.02202817 0.026547203 -0.035496045 0.07022457 0.06015159 -0.0009498214
-0.018336324 -0.07302047 0.047307085 0.03702627 -0.06886678 0.07231331 0.04867975 0.042686418
-0.07543988 0.0675932 -0.0093296105 0.0046578366 -0.046353437 -0.009766442 -0.021233905 0.008773757
0.06447093 -0.05520766 0.017282756 0.016631009 0.027054237 0.03592423 -0.07389053 0.022544345
-0.018689584 0.051651422 0.02024064 -0.054472692 0.037612326 0.070322976 -0.058645424 -0.060049813

encoder_blocks.1.2.bias f4 [12]
00000000: 0e65 c33a 65d8 86bb 3c00 943d e9ba ce3c
00000010: 01a0 ac3c 0592 03bd 3661 35bd 4145 9bbd
00000020: 0cf5 2e3d 29bc 403d 5c14 733d b994 9dbc
0.0014907436 -0.0041151517 0.07226607 0.02523561 0.02107239 -0.032121677 -0.04428216 -0.075815685
0.042714164 0.047054444 0.059345588 -0.019235956

encoder_blocks.2.0.weight f4 [12, 12, 13]
00000000: 050b 9d3d ec46 4abc 6d48 f13c 50e0 4c3d
00000010: c192 253c b79b 0b3d ae59 9e3d 70a7 123d
00000020: 58da 9c3c 5a30 a2bd 420c 373d cbc1 92bd
00000030: 84d2 533d 3399 93bd 9efe 8b3d 2550 13bd
00000040: 2f8c dabb 55bb 743c da0b 90bd 9c31 8dbc
00000050: fd24 243d eb47 9ebd 1abd e73c e7cf e2ba
00000060: 0ba8 303d 7713 83bd 35c1 4e3d cf49 18bd
00000070: 9ab3 84bd 0679 24bd b773 183d 8584 b73a
00000080: 5e78 6cbd 9e70 04bd 7b01 b63c e48f 53bd
00000090: 3525 353c 703e 6c3b e9ba 753d 15f0 1e3d
000000a0: 4f70 a4bd b118 27bc 9585 763d 8a23 143d
000000b0: a65a 823c 8966 0e38 de90 01bd b412 6ebd
000000c0: 76c5 a13d d1c0 173c e678 b63b 18cd 3f3d
000000d0: 0506 2d3d 8d2d e1bc 21f5 283d 177b 6f3c
000000e0: e995 d63c 2e14 803d 28b5 523d 8910 94bd
000000f0: 863d 1cbc eb98 e93c ee3d 723d f6dd 9b3c
00000100: 3d86 e7ba d336 c9bc 0585 c13c 6472 7a3c
00000110: 3cf5 85bd 9c5e 8bbd d5e8 97bd d8e0 e3bc
00000120: 75e8 843d a33f ce3c 726d 9ebd 19e6 11bb
00000130: b63f 2dbd e576 703d e128 313d 8ed7 95bb
00000140: 8721 0cbc cf45 813a 2913 0dba cd73 56bb
00000150: e770 a93c e5c7 2ebd b161 0abd d9a4 79bd
00000160: 4e5e 11bd 7235 c43b 9889 453d 466a 32bd
00000170: f69f 8ebd c584 613d 6bc5 d0bb e32d 4cbd
00000180: 9e2b c03c ef3c 48bc 63d8 d4bc 95cf 963d
00000190: d2dd 6dbd 7695 873c aeb9 423d d6c3 30bd
000001a0: 5285 73bc 423b 30bd 88c5 c73c 9c05 66bd
000001b0: a22b 933d dfaa a03d a829 edbc c849 663d
000001c0: 4b83 8abd c73b 34bc 1f89 f73c ff76 75bd
000001d0: e0f3 31bd 73df 07bd 4872 293c 75b0 23bc
000001e0: a2cb 7dbd c9f2 943d e36b 95bd 197b 423d
000001f0: 14dc 81bc 2deb 7ebd 132f 983c 8db5 16bd
00000200: 747a 07bd e76a 46bd cffb 8fbd d8f4 78bd
00000210: 02a8 94bd 0199 d0bb 737c 993c c39b e13c
00000220: 7da9 8c3d 3ca2 813b 232a 643a 0a04 7d3d
00000230: f5e1 1d3d 5d4b dc3c 7362 69bd 72dc 9d3b
00000240: 0600 83bd e84e 60bd 5324 933d 6aa3 86bd
00000250: fa6b 56bd e4ee a63b 9444 b73c a382 20bb
00000260: b10d 803c 4314 993d 4075 5fbd c04c 733d
00000270: 02fa 583d fc86 29bd 7533 893b 9b0d 4a3d
00000280: 4edb 1cbd a509 033d 2192 8ebc 5f21 52bc
00000290: b486 7d3c df95 c0ba 50e4 1a3d 3c33 893d
000002a0: 01a1 17bd 75b9 9f3d 6187 313d b3ec c6bc
000002b0: a28e 37bd e084 30bd 75dd 753c be5c 163d
000002c0: 80ae d1bc f379 e5bb 7223 6c3d 3149 2f3d
000002d0: a3b5 fdbc 677f 943d f88d 8fbb e193 d33c
000002e0: 48f2 49bd ab86 2c3d ca5a 823d 86dd 0fbb
000002f0: 320d a8bc 70a4 673c 79cc 80bd 605b e3bc
00000300: b33a f23c e16e d3bb f696 783d b642 813d
00000310: f14f 703d 54b5 683d d854 73bd ad26 543c
00000320: 4c32 313c a658 253d d60e e7bc a402 d73c
00000330: 1d9c 08bc 68e8 753d cf4e 63bc e289 88bc
00000340: 1d91 9b3c f33d 5f3b f25c 003d 84e0 9b3d
00000350: 2c37 7abd 0218 503d d391 473b 14fc 4dbc
00000360: 9d71 59bd 74d8 9bbd 6d98 99bd 420a e23c
00000370: 0910 5a3d ea46 673c 5c00 293d 5b2d 90bb
00000380: 843b 90bd 5799 533d 55fc 993d a3fb 7fbd
00000390: 7321 e6bc 68c3 813d c3df 0bbd fcf2 6dbd
000003a0: 5166 dc3c 7268 5a3d 861e 97bd c443 0b3d
000003b0: 0929 f43c 5dac 3dbd 759f 5f3d 0a8d 8cbd
000003c0: 3931 c9bb 1ca0 063b c10f 3f3d ac84 183d
000003d0: 93f8 9fbd c987 853d 1339 36bd 35a6 1bbd
000003e0: 06ae 6dbb 69b6 3bbd f032 283d edd7 363d
000003f0: c11d a8bc 12cf 06bc 049a 713c 7a57 1cbd
0.076681174 -0.012346011 0.02945348 0.05001861 0.01010579 0.034084048 0.07731949 0.035804212
0.019147083 -0.079193786 0.044689424 -0.07165869 0.051714435 -0.07206955 0.06835674 -0.035965104
-0.006669543 0.014937242 -0.070335105 -0.01723557 0.040074337 -0.07728561 0.028288413 -0.0017304391
0.04312901 -0.06400197 0.050477225 -0.037179764 -0.06479569 -0.04015448 0.03721973 0.0014001286
-0.05773198 -0.032333963 0.022217503 -0.051650897 0.011056234 0.0036047958 0.059992705 0.03880318
-0.08029234 -0.010198758 0.060185988 0.036166705 0.015912365 3.395093e-05 -0.031632297 -0.058123305
0.07898991 0.00926228 0.0055686114 0.046826452 0.04224207 -0.02748754 0.0412494 0.014616749
0.02619453 0.06253849 0.051442295 -0.07229716 -0.009536153 0.0285153 0.059141092 0.019026738
-0.0017663907 -0.024562275 0.023622999 0.015286062 -0.06540915 -0.06805155 -0.07417456 -0.027817175
0.0648965 0.025176829 -0.07735719 -0.0022262393 -0.042297088 0.058707137 0.043251876 -0.0045728153
-0.008552915 0.0009862724 -0.0005381578 -0.0032722831 0.020683719 -0.042671103 -0.033784572 -0.060948227
-0.035490327 0.0059878165 0.048226923 -0.04355838 -0.06964104 0.05505826 -0.0063711903 -0.04984845
0.023458298 -0.012221559 -0.025982087 0.07363812 -0.058072872 0.01655076 0.04754036 -0.043155514
-0.014863329 -0.043025263 0.024386182 -0.056157693 0.07186057 0.07845091 -0.028950527 0.056222707
-0.067633234 -0.01100058 0.030216752 -0.059927937 -0.043445468 -0.033172082 0.010342188 -0.009990801
-0.061961778 0.0727287 -0.072959684 0.047480676 -0.015852012 -0.062236 0.018577134 -0.036794234
-0.033075765 -0.048441794 -0.070304506 -0.060780376 -0.072586074 -0.0063658957 0.0187361 0.027540093
0.06868265 0.0039561074 0.00087037886 0.06177143 0.038545568 0.026891405 -0.056978654 0.004817539
-0.06396489 -0.05476275 0.07184663 -0.065741375 -0.05234907 0.005094396 0.022371568 -0.0024491928
0.015631529 0.07474568 -0.054555178 0.059399366 0.0529728 -0.041388497 0.0041870424 0.04932938
-0.038295083 0.03199162 -0.017403664 -0.012825339 0.01547401 -0.0014693103 0.037815392 0.06699225
-0.03701878 0.07799045 0.043341998 -0.024282789 -0.04481376 -0.04309547 0.015006413 0.03670954
-0.025595903 -0.007003063 0.05765099 0.04279441 -0.0309704 0.072508626 -0.0043809377 0.02582735
-0.049303323 0.042120617 0.06364973 -0.0021952107 -0.020514105 0.014138326 -0.06289 -0.027753532
0.029569006 -0.006452427 0.060690843 0.06311552 0.058669988 0.056813553 -0.059407085 0.012948674
0.010815214 0.040367745 -0.028205317 0.026246376 -0.008338002 0.060036093 -0.01387377 -0.01666731
0.018990094 0.0034064024 0.03133864 0.07611182 -0.061087772 0.050804146 0.0030451908 -0.012572307
-0.053086866 -0.076096445 -0.07499776 0.027592782 0.05323795 0.014116028 0.04126011 -0.004399938
-0.07042602 0.05165991 0.07518832 -0.06249584 -0.028092122 0.06336099 -0.034148943 -0.058093056
0.026904257 0.053322263 -0.07378869 0.034000173 0.029804723 -0.046306957 0.05459543 -0.068628386
-0.006139901 0.002054221 0.046645883 0.0372359 -0.07811084 0.065200396 -0.044488024 -0.038000304
-0.0036267056 -0.045828257 0.041064203 0.044639517 -0.020522 -0.00822808 0.014746193 -0.03816936

encoder_blocks.2.0.bias f4 [12]
00000000: 1ae7 753b 0a98 003d 2374 663a 9c3b 983d
00000010: 1897 4abc 2c8f cb3c 948b 85bd 11a6 e43c
00000020: bbba 273d 9a80 96bd daf9 393d 49bf 553d
0.003752178 0.031394996 0.00087911094 0.074332446 -0.012365125 0.024848543 -0.06520763 0.027911218
0.040949564 -0.073487476 0.045404293 0.052184377

encoder_blocks.2.2.weight f4 [12, 12, 13]
00000000: 1e9e bcbc 8ed0 7e3d 290a 583d 6601 cb3b
00000010: c202 50bd 95f0 2e3c 34d5 eebc e776 61bd
00000020: 39bd fabc 0b8e 69bd f8f4 d73c 662f 41bd
00000030: 17c6 833d dcb0 a8bc 559f 503b cee6 463d
00000040: 9612 ed3c e176 093d 7d8e 86bd e279 973d
00000050: 6412 f1bc 27d0 04bd 881f 90bd 320d 123d
00000060: 6f5d 4c3d ea1f 26bd 18cf f1bc e7c6 493d
00000070: fc2f 91bd 65c1 febc af03 613c 7e5f 533d
00000080: 3ab6 32bd 90f0 46bd fa97 963d fcd0 82bd
00000090: 30af 25bd 3594 f93c 8d73 6fbb 7be6 a43c
000000a0: d446 83bd 174d 45bd 8da5 2fbd d47d 6f3d
000000b0: f63d 023d 5bbd d7bc 29b5 64bc ef79 35bc
000000c0: 27da 3d3c 4c62 52bd a899 8fbd 1c78 783d
000000d0: 20e2 203b 9cb5 91bd 14e9 fe3c bea7 62bd
000000e0: 3220 92bc 3847 74bc c686 61bd 8014 c3ba
000000f0: 8075 1e3c 705f fabb 60a2 7bbb a0d7 e4bb
00000100: 084c 7f3c a1db 3f3d 032c 7fbd 64ce 743c
00000110: e38d 713c fa3e 623b 8423 37ba 4ecb 70bd
00000120: b555 273d 0498 3e3d 185b 3d3d cb02 5abd
00000130: fd87 59bd bf34 94bc 3841 343c d44e 57bd
00000140: 9d12 55bd 17a0 813c 4260 483d c5c3 fe3c
00000150: e3e1 3f3d ec58 443c b523 8ebd 8a7c 853d
00000160: 692d 53bd 0680 4cbd 5a65 fb3b 00e3 79bc
00000170: 6089 893b 0c1a 10bd 9d08 3f3d 8361 82bd
00000180: eb22 483c c820 3e3d 666d 7fbd 852f 3a3d
00000190: ca94 2cbd 2a42 333d 6a9b 5a3d b351 00bd
000001a0: dd39 9fbc 50a5 81bd 57a0 873d 127b 7c3d
000001b0: 5fba 37bc 9dfa 82bd 90f1 863c 3c5b 853d
000001c0: c9b6 15bd bc38 d8bc 8ff4 84bd 3597 3fbd
000001d0: 58a4 a5bc 1fed 84bd b53d 863d 8d7e 3fbd
000001e0: 3f78 9a3c 236c 983d f6b5 043d ef6c 91bd
000001f0: 8f0d 9abc 69ca a1bd 620b 87bd 9c83 20bb
00000200: fd62 9f3c 8f6e 4c3d 974a 4fbd 4ff7 b23c
00000210: 2dea a6bc 75d0 c53c fcb4 163d 8c0a 99bd
00000220: 6901 e8bc d30f 1c3c 3a05 2e3d 65a8 0fbb
00000230: 642f 4a3d fb74 2dbd e405 cf3c d0c7 69bd
00000240: 3205 05bd 58d8 463c 3cf9 523b 80bc 99bd
00000250: 51e2 74bd 2222 983d 498f 023d 1240 01bd
00000260: deb9 8abd 6de4 8b3b b3a7 29bc bffb 45bd
00000270: ea87 5c3d 4a8e 48bd 291f 903d ed16 58bd
00000280: 2df1 fa3c bc75 7b3d f87d b4bc 3991 4a3d
00000290: 756e 183c b8f2 2b3d 5755 27bc b3ee 103d
000002a0: c48e bfbb 06a5 17bd 6f38 753d b339 3bbc
000002b0: d611 663d e532 3fba 065a 603d de0b 213d
000002c0: bcb0 fe3c 74f6 05bd 64c3 98bc e535 5cbd
000002d0: 0b96 413d e04f 3f3c 9f18 313c 992b 49bd
000002e0: b9d2 44bc 61f2 0f3c 83dd f9bb 9466 4c3c
000002f0: 07ff 513d e7bf 893c 5794 e3bc 3515 dc3b
00000300: 68d8 903d dcb9 63bd 3ff7 e9bc b8a8 42bd
00000310: 10cf 943d 12c1 87bd c34d 933d d940 a0bc
00000320: 3f68 603d 47fe 853d 9454 b7bc 4425 3f3d
00000330: 02e8 c63c 382a 153d 15f8 8dbd 472b 883b
00000340: f2fd 2fbd d049 913d 341e 18bd 0036 4bba
00000350: e4cb 09bd 5010 8f3d 1c1b 5d3d 9c1e 4ebd
00000360: cc3f 733d 3e1b 0e3d 0048 0c38 cfc1 23bd
00000370: 8023 5f3b 0280 5d3d 7260 4f3c 1667 e7bb
00000380: e31a 3c3c a214 8d3d db71 8d3c f7bb 563d
00000390: b557 853c c419 09bd 94b9 dfbc 797b a0bd
000003a0: 6658 fbbc acf7 823c 734c 4f3c 1bd0 30bd
000003b0: 3b50 bc3c 1168 4abd 54f8 6c3d e7e8 a9bc
000003c0: 8f6a cdbc 2bf9 8dbd 35e7 d13c 6aea 913d
000003d0: 5ecd 06bb ee5c 2d3d 29e8 483c a870 95bd
000003e0: 35ca a4bd 7293 50bc 67f7 163c ea99 6bbd
000003f0: 5091 a0bc 557c 703d c088 6fbc a908 a1bd
-0.023024615 0.062210612 0.052744064 0.006195235 -0.05078388 0.010677476 -0.029154398 -0.055045035
-0.030607807 -0.05702023 0.026361927 -0.047164343 0.06434267 -0.020592146 0.003183325 0.048559956
0.028939527 0.033560637 -0.06570146 0.07396294 -0.029427715 -0.032425072 -0.07037264 0.035657115
0.049893793 -0.04055778 -0.029517695 0.049261954 -0.070892304 -0.031098077 0.013733788 0.05160474
-0.043630816 -0.048569262 0.07353206 -0.06387517 -0.040450275 0.030466178 -0.003653738 0.020129433
-0.06409994 -0.04816922 -0.04288249 0.05846961 0.03179737 -0.026335409 -0.013959208 -0.0110764345
0.011587656 -0.051363274 -0.070117295 0.06066142 0.0024548844 -0.07114717 0.031117 -0.055335753
-0.017837618 -0.014909558 -0.05506017 -0.0014883429 0.009671569 -0.0076407716 -0.0038396344 -0.0069837123
0.015582092 0.046840314 -0.062297832 0.0149417855 0.014743301 0.00345224 -0.0006986188 -0.058787636
0.04085322 0.046531692 0.046229452 -0.05322532 -0.053108204 -0.018091558 0.0110018775 -0.05256541
-0.052019704 0.015823407 0.048919924 0.03109921 0.04684628 0.011984091 -0.06940404 0.065178946
-0.05155698 -0.04992678 0.007671994 -0.015251875 0.0041972846 -0.03518109 0.046639074 -0.06366255
0.012215356 0.04641798 -0.06236019 0.045455474 -0.042134084 0.04376427 0.05337087 -0.031327914
-0.019436771 -0.06330359 0.06622379 0.061640806 -0.011213868 -0.06395457 0.016472608 0.06511542
-0.03655127 -0.02639424 -0.06491958 -0.04677506 -0.020219967 -0.0649054 0.065547384 -0.046751548
0.018856166 0.074425004 0.032400094 -0.071008556 -0.018805293 -0.07899935 -0.06593968 -0.0024492508
0.019456381 0.049910124 -0.050608244 0.021846442 -0.020375336 0.024147252 0.036793694 -0.07472715
-0.028320985 0.009525257 0.042485453 -0.002192044 0.0493616 -0.04234789 0.025271364 -0.05707532
-0.032475658 0.012136541 0.0032192012 -0.07506657 -0.059786145 0.07428385 0.03187493 -0.031555243
-0.067737326 0.004269174 -0.010354924 -0.048335787 0.053840555 -0.048963822 0.07037193 -0.05275624
0.03063258 0.061391577 -0.022032723 0.0494549 0.009303679 0.04197952 -0.010213218 0.03538389
-0.0058458764 -0.037022613 0.059868272 -0.011427331 0.056169353 -0.00072936557 0.054773353 0.039317958
0.031090133 -0.03270574 -0.018647857 -0.053762335 0.047262233 0.0116767585 0.010809093 -0.049113844
-0.012013131 0.008785815 -0.007625283 0.012475628 0.051268604 0.016815139 -0.027780695 0.0067163953
0.07072526 -0.05559717 -0.028560279 -0.047524184 0.072660565 -0.06628622 0.07192566 -0.019562172
0.054786917 0.0654264 -0.022379197 0.0466664 0.024280552 0.036417216 -0.069320835 0.0041555497
-0.04296679 0.07094157 -0.03713818 -0.0007751882 -0.03364171 0.06985533 0.05398093 -0.05032216
0.059387013 0.03469395 3.3445656e-05 -0.039979752 0.003404826 0.054077156 0.012657272 -0.0070618493
0.01148102 0.06888701 0.017266205 0.05242535 0.016277174 -0.033471838 -0.02731017 -0.078360505
-0.0306818 0.01598724 0.012652504 -0.043167215 0.022987476 -0.04941565 0.05785401 -0.02074094
-0.025075225 -0.06932291 0.025622943 0.07124789 -0.0020569186 0.042324953 0.012262383 -0.07296878
-0.080463804 -0.012730466 0.009214259 -0.05751983 -0.01960054 0.058712322 -0.014620006 -0.0786298

encoder_blocks.2.2.bias f4 [12]
00000000: 7c11 163d d2e7 493d fb82 01bd c7fc e0bc
00000010: 1d63 403c 78b1 193d 30c1 953d 5d25 3fbd
00000020: 3799 d03c 7b4d ae3c 9c47 a33d 289f 77bd
0.03663777 0.049293347 -0.031619053 -0.027464284 0.01174238 0.037522763 0.07312238 -0.04666649
0.025463684 0.02127718 0.07972643 -0.060454518

encoder_blocks.3.0.weight f4 [12, 12, 13]
00000000: b2aa 923d 4ca4 f53c 333d 75bc 864b 5abd
00000010: a010 1ebc 7a9d 313d 5742 87bd 23a3 32bd
00000020: fed9 37bd e591 6f3d 40ec 9c3d bb5b 4abd
00000030: 8e2e 81bd 1fdb 6dbd 349f 883d 19d5 df3c
00000040: a2cc 2f3d 2546 a23c b4df 86bc 19da 513d
00000050: 3c43 96bd 035c 01bd a0db 393a d099 1abd
00000060: 3cfa d23c 5815 8f3c 5bf5 323d 3a85 803d
00000070: 8337 6c3d 50b9 68bc aad4 423c c9ea 6abc
00000080: 394d 30bd 1a23 f73b 34f5 5fbd b156 64bc
00000090: 8d87 683b df1f 823c 86e4 773c 41cf 3a3d
000000a0: f260 3ebd bd2d ca3c 57c7 4ebc 9310 733d
000000b0: 888f 6f3d 212d 21bd 60e9 0bbc 6486 053d
000000c0: 1fda 963d c98e 29bd 80c3 df3c 191b ffbc
000000d0: 754d 8dbd 48b6 213d 2e3c 7fbd dab2 1a3d
000000e0: d7e0 823d e7d2 163d 56bb 6bbd 43cc 8bbd
000000f0: cc6e 76bb 993d 683c 6b1a 02bd 6440 753c
00000100: 4af5 b3bc 5d2c 97bd c5b4 3abd 539c cfbc
00000110: f6da 7a3d 31e2 88bd c4b8 2eb9 fd6d a43d
00000120: db73 db3b a606 473c ed20 6a3b 3900 54bd
00000130: 7a75 1a3d c817 2e3d fbd6 4dbd 617b debb
00000140: 6ae6 203d db73 2fbd 6a98 e1bc f271 14bd
00000150: d9df 0ebc ab77 8c3d 2dc8 99bd 881b 9b3c
00000160: 4058 1cbb c392 d1bc 2b96 9a3d ef40 a03d
00000170: cbdd 583d 737f 72bb c947 7dbd 4ed5 87bd
00000180: 0e54 21bc 1d4e 463d 1904 193d e3cb a43c
00000190: 633e 6f3d 9b95 393c 839a 703d 1e56 84bd
000001a0: 3622 eabc 072e f63c 5a30 3abc f1ea 60bd
000001b0: fab9 f9bc 5494 d3bb 2139 4f3d a8a9 9cbd
000001c0: be16 623c a2c3 8abd a6a7 34bd 0e66 853d
000001d0: 786e 36bd a7d3 93bd b0a2 acbc 6834 8a3d
000001e0: b3c3 d8bb f4a9 acbb a7cb 4abd bedc 9dbd
000001f0: 420c bb3c 5c40 643b 3b35 083c 4914 89bd
00000200: 0415 353d 0765 5fbd 9ff0 90bb d5a4 9abd
00000210: a2e4 993b fe90 373d d560 fb3b 1932 93bc
00000220: 0ea9 85bd 0d3a 163d fc9b fdbc 240d fb3b
00000230: d3b4 a2bd a289 953d 8412 cfbc e04b 803d
00000240: 9f74 b33b 26b5 04bd a5e6 fd3c 2d8e a43d
00000250: 0b4c 09bd 1373 c13c 4fb5 583d dea8 8bbc
00000260: 0b25 3d3c 9119 eb3c 5418 723d 3066 9fbd
00000270: 1ef8 6ebc a289 19bd 34f6 57bd 39fa 973d
00000280: 3128 9f3d eaa9 a1bd 0b10 923d 425d 753d
00000290: a66c 79bd 7025 a33d 2d40 f23b d641 2d3d
000002a0: 77c4 143d 8d9e f2bc 95a9 9fbd 7fd3 a1bd
000002b0: a596 ffbb 27e7 013d 2ef4 8bbd 6395 753b
000002c0: b5b3 6b3d f3af 863d 0eeb bdbc 0ee7 0d3d
000002d0: fb06 ba3c 6bd7 9e3d cf53 063c 0550 b33c
000002e0: 3b13 88bd 4b43 963d 1d0d c0bc 8f8f 7f3d
000002f0: 1a24 10bc 1db6 2cbd 8f83 24bd b796 a23d
00000300: 35d0 17bd df9b 65bd 2ef7 9cbb e284 68bd
00000310: d85f b43c 64db 3f3d 6362 ec3b 9e4e 983c
00000320: cdee be3c bfbb 893d d4a9 dcbc a986 813d
00000330: a69b debc 0f32 86bc 23a7 1ebc 6686 8c3d
00000340: 8d3f 00bd e7db 663d ef37 8fbd c288 3d3c
00000350: e908 3fbd 0ad5 9c3d f2c4 92bd 6cde 183d
00000360: fe97 3b3d 99d1 033d 0cd6 9cbb 8612 823d
00000370: ce3f 763c 8945 7ebc 854e febc 3284 0c3d
00000380: ad5d 70bd 6659 d1bc 055e 823d 5dd3 6abd
00000390: 73c9 673d 055d 14bd 8017 ce3c f1ca 56bc
000003a0: 6f9c 9dbb 2243 b5bc b62d 303c b53d 613d
000003b0: 746b 52bd eabe 183d 679d 543d 653f 0e3d
000003c0: b25d 77bd 4dea 853c b5a1 15bb c10d 1bbd
000003d0: e272 8bbc 0af8 893c 38b9 273d 667e 533c
000003e0: 2f0b da3a 3dc2 d339 a3c9 983c 0739 cabc
000003f0: 7c6b 893d 6367 4c3c fe09 90ba 1010 9dbd
0.07161464 0.02998557 -0.014968204 -0.05329468 -0.009647518 0.043363072 -0.0660445 -0.04361261
-0.044885628 0.058488745 0.076622486 -0.049403887 -0.06307708 -0.0580703 0.066709906 0.027323293
0.042919762 0.019808838 -0.016464092 0.051233385 -0.07337043 -0.03158189 0.00070899166 -0.037744343
0.025754087 0.017466232 0.04369102 0.06275411 0.057670128 -0.014204338 0.011891523 -0.014338204
-0.043042395 0.007542026 -0.054677203 -0.0139366845 0.0035481185 0.015884338 0.015130168 0.04560781
-0.046479173 0.024680013 -0.0126207685 0.05934198 0.05848649 -0.03934968 -0.008539528 0.032598868
0.07365822 -0.041395936 0.027314901 -0.03114085 -0.068995394 0.039480478 -0.06231325 0.037768222
0.06390541 0.036822226 -0.057551704 -0.06826069 -0.0037602661 0.014174842 -0.031763475 0.014968965
-0.021967549 -0.073815085 -0.04558255 -0.025343096 0.061243974 -0.066837676 -0.00016662764 0.08028791
0.0066971607 0.012147581 0.0035725192 -0.051758025 0.03770969 0.04250315 -0.05025385 -0.0067896103
0.03928224 -0.042835098 -0.027538497 -0.03624148 -0.008720362 0.06858762 -0.075088836 0.018934026
-0.0023856312 -0.025582677 0.075481735 0.07824885 0.052945893 -0.0037002235 -0.061836038 -0.066324815
-0.0098467 0.04841434 0.037357423 0.020116752 0.058409106 0.011327173 0.058741104 -0.06461738
-0.028580766 0.030051244 -0.011364067 -0.054911558 -0.030484188 -0.006456891 0.05059159 -0.07649547
0.0137993675 -0.06775595 -0.044105195 0.06513606 -0.044538945 -0.07218104 -0.02107367 0.06748277
-0.006615126 -0.0052692834 -0.049510624 -0.07708119 0.022832993 0.00348284 0.008313472 -0.06693322
0.044209495 -0.054539707 -0.0044232155 -0.075509705 0.0046964446 0.04481601 0.0076714554 -0.017968224
-0.06526385 0.036676455 -0.030958168 0.0076614786 -0.07944646 0.07301642 -0.025277384 0.06264472
0.005476549 -0.03239932 0.030993769 0.080349304 -0.033519786 0.023614442 0.052907284 -0.017048296
0.011544476 0.028698714 0.059105232 -0.077831626 -0.014585523 -0.037484773 -0.052725032 0.07420773
0.07771338 -0.07893737 0.07131966 0.05990339 -0.06089463 0.07966125 0.0073929043 0.042299114
0.036320176 -0.029616619 -0.07796017 -0.07901668 -0.0077999406 0.031714585 -0.06833683 0.0037473075
0.05754443 0.065765284 -0.023183372 0.03464418 0.022708407 0.077559315 0.008198692 0.021888742
-0.06644293 0.07337054 -0.023443753 0.062392768 -0.00879767 -0.042165864 -0.040164527 0.07938903
-0.037063796 -0.056056853 -0.0047902083 -0.056767352 0.022018358 0.046840087 0.007213877 0.018592175
0.023307228 0.06725263 -0.02693645 0.063245125 -0.027173828 -0.016381292 -0.009683403 0.06861572
-0.031310607 0.05636206 -0.0699309 0.01156825 -0.046639357 0.076578215 -0.071664706 0.037321493
0.045799248 0.03218231 -0.0047862586 0.06351189 0.015029861 -0.015519508 -0.0310433 0.03430576
-0.058683086 -0.025555324 0.06365589 -0.057330478 0.0565886 -0.036221523 0.02515769 -0.013109908
-0.004809908 -0.022126738 0.010753086 0.05499049 -0.051372007 0.037291445 0.051907923 0.034728426
-0.06039209 0.016347075 -0.002283198 -0.037854914 -0.017022554 0.016841907 0.040948123 0.012908554
0.0016635413 0.00040389775 0.018650835 -0.024685396 0.06709954 0.012475821 -0.0010989306 -0.07669079

encoder_blocks.3.0.bias f4 [12]
00000000: 5aeb 38bd 7e82 9c3c 8c1f 723d 36dd bdbc
00000010: 9a31 23bd 74bd 773d de72 18bc 3f48 4dbd
00000020: 8769 d6bc 9fdf 73bd a2f0 953b 366f 58bc
-0.045146324 0.019105192 0.059112117 -0.02317677 -0.039842226 0.06048341 -0.00930473 -0.050117727
-0.026173366 -0.059539434 0.004575805 -0.0132101085

encoder_blocks.3.2.weight f4 [12, 12, 13]
00000000: 0094 e53b 548f 63bd 73b4 48bc dc2e 5e3d
00000010: 4a16 0ebd 6c01 82bd b530 0d3d 22ab 35bc
00000020: 883d 51bd 9821 1fbb 60e3 40bd a47f 063d
00000030: 7c74 f8bb 4a79 db3c 178f 3fbb 203e 26bc
00000040: 57db fcbc 0378 2fbd c83e 283c 1a22 85bd
00000050: ba25 723d 86ec 02bd c35b 10bc bf5a 893d
00000060: 8a15 103d e911 463d 01b7 d6b9 783a 25bd
00000070: 8f00 f73c 35ba 83bd 82a0 d83c 39d8 88bd
00000080: d21c 4e3d 6755 59bd 35de 45bb 6d3c a33d
00000090: 5d35 9c3b 8a1d 48b8 d230 1abd 3d1b 4bbd
000000a0: 701d 7d3d 1f6b 95bd 58a0 a03b 5b2e a83c
000000b0: c34a 243d bbfd 5b3c 5270 023d ed55 f6bc
000000c0: 9de9 01bd 9a47 8d3d 8700 8abd 3a35 b43b
000000d0: 7af2 863d 8ff0 813d 5d3a 4b3d b56b a0ba
000000e0: 9021 82bb 7c44 38bd 862d 003c c303 3a3d
000000f0: e739 8a3d 5254 3fbc 1607 ca3c edf0 cfbc
00000100: 1210 4cbd e003 fdbc f93b 02bd 1be3 9ebd
00000110: 8add 943d 5daf 27bd b514 cdbc a7a7 4c3d
00000120: efce 923d b66d 783d 2da8 963d e26b 853c
00000130: d6c1 763d 05e4 80bd 3894 a2bc 6da8 92bd
00000140: 1d23 143d 1f4c 81bd 4b2c 20bd 2050 67bd
00000150: 8847 94bd dda9 adbb 153a 5f3d ee84 9cbd
00000160: a63f 84bc e405 0a3d e5e6 273d 7e69 36bd
00000170: 88ee 713c 6959 86bd 9e9f 9f3d d832 143d
00000180: 9c03 583d 680e a73c d4b8 ef3c b413 1f3d
00000190: 4e34 a1bc 713d 3bbd 065e 05bd 2892 0d3c
000001a0: 15dd 383d f42a f0bc 91bd 933d 462a 883d
000001b0: 2192 cebc d6d8 963d 4b77 d73b 8849 d3bc
000001c0: c3ab a23c 97a9 8a3d c83c b5bc 230c 523d
000001d0: c71a a2ba 148b e03b 32e0 0f3b d7b3 273d
000001e0: dbc5 933d bbe5 903c dd54 1c3d f060 69bd
000001f0: ba0e 6f3d 8a54 0ebc b269 acba 6c03 77bd
00000200: ea93 913d 65da 0ebd 333b 9d3d c6c0 8dbc
00000210: 6a04 27bd 8cc5 73bd 58ae 43bd 1a66 523d
00000220: a5b6 5bbd 0d2f f2bc 8332 5bbc 502f 54bb
00000230: 1837 82ba 20b3 3d3c a869 a1bd fdc6 683c
00000240: 1539 303d 2225 b3bc 0ba7 4bbd 8f9c 0bbc
00000250: f42f 80bd ddd8 08bd 0c46 5abc 4ef1 a73a
00000260: e36e c5bc 0801 ec3c 54d4 8cbc 0292 cabc
00000270: 70bf ba3b 00b5 49bd 330f 323d b533 8a3c
00000280: 3320 aabc 5f61 9b3d 31f8 963d f4aa b3bc
00000290: 8395 973d 97b6 bf3c 2495 7f3c b198 26bd
000002a0: 21a0 673d 7546 52bc 1290 3c3d 8240 be3c
000002b0: f5fc 01bd d64c 313d f3b2 9fbd be46 02bd
000002c0: d28d 94bd 78b1 8a3d 36a4 29bd 4c2e b83b
000002d0: 720e 2cbd e5eb efbc 240d ce3c bef4 8b3d
000002e0: 640f 47bd 4dd1 17bd ae75 ecbc 5ba4 5e3c
000002f0: 55cc 6ebd ad29 c8bc 157f 8d3d 46b8 5b3d
00000300: 5379 be3b 4e07 653d 5b1e d43c 5887 7cbc
00000310: d64f 193c 5c7f a3bd 4906 2e3b 8691 f3bc
00000320: 9671 46bd 5bdd 153d 79f9 9e3d a0f4 15bc
00000330: dc9b ac3b 8438 d93b 4407 1e3c 3cc3 1a3d
00000340: d3c6 27bd 7ec3 a2bb 83bd 63bd c061 4d3d
00000350: 883c 473d 8cdd 57bd 26e3 64bd d17a f93b
00000360: 816d 853d 5abb febc f591 6dbd 4fb5 963b
00000370: 4b3d 01bd 19ba ba3c 1e40 0c3d 37c5 a63c
00000380: 52f3 1e3d b2ae 07bd bf30 413d efa7 59bb
00000390: 9e26 01bc 0f55 39bd d6a4 80bc 58db 48bd
000003a0: d8d4 dd3c d2d2 0ebd 54a7 57bd a1da 8cbd
000003b0: 832f 92bd 617f e2bc 0134 ba3c c945 32bd
000003c0: aec7 c93c a38c 3bbd 5622 883d c0ed bdbb
000003d0: 349d 4dbd 856a 7d3d 1bb1 6bbd bf30 36bd
000003e0: f094 3b3c 20f8 8fbb 705c 9f3d 8856 3abc
000003f0: 927c 923d 10ae 283c 1082 953d 64dc 593d
0.0070061684 -0.05555661 -0.012250054 0.054243907 -0.034689225 -0.063479275 0.03447028 -0.0110881645
-0.05108407 -0.0024281498 -0.04709184 0.03283657 -0.0075822454 0.026791234 -0.0029229575 -0.010146648
-0.030866308 -0.04283906 0.0102688745 -0.06500645 0.05911801 -0.031963848 -0.00881094 0.067067616
0.03517679 0.048356924 -0.0004095361 -0.040338963 0.030151634 -0.064320005 0.026443724 -0.06681866
0.050320454 -0.05305996 -0.003019226 0.0797051 0.0047671036 -4.7711226e-05 -0.037644215 -0.049586523
0.061795652 -0.07295822 0.004901927 0.020529917 0.04011036 0.013427193 0.0318454 -0.03007027
-0.03171693 0.068984225 -0.06738382 0.005499509 0.065892175 0.06344711 0.049616206 -0.001223913
-0.003971286 -0.044987187 0.007823354 0.045413744 0.06749325 -0.011677818 0.024661582 -0.025383437
-0.049820013 -0.030885637 -0.031795476 -0.07758161 0.07268818 -0.040938724 -0.025034288 0.049964573
0.07168376 0.060651504 0.07356296 0.016286794 0.06024345 -0.06293491 -0.019846067 -0.07161031
0.0361663 -0.06313347 -0.03910474 -0.056472898 -0.07240206 -0.0052997903 0.05449875 -0.07642542
-0.016143631 0.033697024 0.040991683 -0.0445342 0.014766343 -0.065600224 0.077941164 0.0361813
0.052737817 0.020392612 0.029262938 0.03883715 -0.019678261 -0.045712892 -0.03256037 0.008640803
0.045132715 -0.029317357 0.07213891 0.06648688 -0.025216164 0.07365577 0.0065755 -0.025791898
0.019857293 0.06770628 -0.02212371 0.051281106 -0.0012367599 0.006852517 0.00219537 0.040942993
0.07215472 0.017687669 0.03816687 -0.056977212 0.058363654 -0.008687148 -0.0013154058 -0.060305998
0.071082905 -0.034876246 0.07677307 -0.017303836 -0.040775694 -0.059514567 -0.04777369 0.051366903
-0.05364098 -0.029563451 -0.013378742 -0.0032376833 -0.0009934632 0.011578351 -0.078814805 0.014207599
0.043023188 -0.021868292 -0.04971985 -0.008521213 -0.06259146 -0.033409942 -0.013322365 0.0012813003
-0.024100726 0.028809085 -0.01719109 -0.024727825 0.0056990907 -0.04924488 0.043471526 0.016870359
-0.020767307 0.075869314 0.073715575 -0.021932103 0.07401564 0.023402495 0.015599523 -0.04067296
0.056549195 -0.012834181 0.046035834 0.02322412 -0.03173538 0.043286167 -0.07797804 -0.031805746
-0.072536126 0.06772131 -0.04141637 0.0056207534 -0.042005964 -0.029287288 0.02515275 0.0683379
-0.048598662 -0.03706484 -0.028864708 0.01358899 -0.058300335 -0.024433935 0.069090046 0.053642534
0.005812803 0.05591517 0.02589338 -0.015413128 0.009357413 -0.07983276 0.002655404 -0.029732477
-0.048448168 0.036588054 0.07762427 -0.009152561 0.0052676033 0.0066290516 0.009645287 0.037783846
-0.040961098 -0.004967152 -0.055600654 0.05014205 0.04864171 -0.052701518 -0.055880688 0.007613518
0.06515027 -0.031095196 -0.058000524 0.0045992504 -0.031552594 0.022793816 0.034240834 0.020357711
0.038806267 -0.033125587 0.04716563 -0.0033211668 -0.007882742 -0.045247134 -0.0157036 -0.049037308
0.02707903 -0.034869023 -0.05264981 -0.06877638 -0.071379684 -0.02764863 0.022729876 -0.043523584
0.024631348 -0.04578842 0.06647174 -0.0057961643 -0.05019875 0.061869163 -0.057541948 -0.04448008
0.011449084 -0.0043935925 0.07781303 -0.01137317 0.07152666 0.010295406 0.07300198 0.053188697

encoder_blocks.3.2.bias f4 [12]
00000000: 135b 99bd 172c 38bd ac64 8fbd a2e7 30bd
00000010: de59 29bd ed76 ab3c cbf7 b83b 1074 b23b
00000020: b196 b5bc 3ead 753d 8f2c 783c eb25 98bc
-0.07488074 -0.044963922 -0.070016235 -0.043189652 -0.04134547 0.020930732 0.0056447736 0.0054459646
-0.022166582 0.05997967 0.015147342 -0.018572768
