Python/quake_localization_model_00000.pth (torch, 271602 bytes, 15 tensors)

conv_blocks.0.0.weight f4 [64, 1, 3]
-0.15938859 0.42561084 -1.3629537 -1.0012078 1.4521168 -1.5016499 -0.57372993 0.6405808
-0.22918527 0.9988198 0.82139647 -0.078291856 0.17805505 0.25748324 -1.0073159 -0.078123346
-0.66449624 -0.8240257 0.55766684 0.9806754 0.73805743 -1.3126231 0.60952926 0.5908066
0.3321503 -1.0836073 1.0097615 0.3046415 -0.55827934 1.3807449 -0.6229378 -0.18450446
-0.56973994 0.84475285 -0.117743485 0.0009637576 1.4541398 0.6921342 -1.8358396 -0.20110834
-0.45584637 -0.019644136 -0.0102386605 -0.3945456 -1.143061 0.27106062 -1.0219141 -0.2501821
0.17078431 1.844739 -0.31874025 0.038917694 0.2779859 0.5645158 -0.45588169 0.4316694
0.6193806 1.05884 2.4547033 -1.1692448 -1.4216498 0.12904482 -0.1797559 -1.0234945
-0.5870757 0.5802146 -0.33279666 0.57765037 0.3531932 -0.46916193 0.09907705 -0.028571421
-0.30176526 -0.1719237 1.1547118 0.404295 -0.4042704 0.7535257 -0.04746977 0.044210274
1.014912 0.7570303 -0.85684925 -0.11926483 -0.4697423 0.09556844 1.295725 -0.09051823
1.517936 0.81187075 -1.0354378 0.25189635 1.0199351 0.8736271 0.12725772 -0.2817882
0.8805779 -0.5595035 -0.73072004 0.60926265 0.051651306 1.77549 0.85333866 0.20559753
1.1281112 1.461623 1.4426504 1.3664678 -0.36853093 -0.56993544 -0.06089185 -1.2777812
0.24518003 0.4284343 -0.45354503 -0.4836725 -0.019282127 0.10161479 0.25450844 -0.24715512
-0.38632727 0.578444 -0.47392133 -0.4011348 0.788211 0.80665374 0.38923773 -1.7464876
-0.6384475 1.1473331 0.1662966 -0.011331519 -0.040703803 0.9275537 0.54228747 0.85441077
0.5529853 1.8231028 0.35498294 -1.5235635 0.82600975 0.18572327 -0.27553114 -0.5130924
-0.8214764 -1.042426 0.3653697 -1.2320704 0.315543 -0.4194779 0.4134569 0.1220422
-0.08661971 0.92974776 0.8372517 -0.34159395 -1.9442332 -0.6674666 0.34780794 1.3735799
-0.93371046 0.6944757 -0.8306059 1.083015 -0.29232585 -0.17006497 0.1523916 -0.74504244
-0.88876355 0.47316572 -0.31448907 -0.72707844 -0.4206669 -0.43728632 1.0426356 -0.9444273
0.2415808 0.78608143 -1.6399935 -0.76587844 0.46965387 1.2312131 -1.4542203 0.45436177
1.5464876 0.5778299 1.0262728 0.20607862 -0.61393774 -0.9080996 -1.160602 0.08821973
00000000: c336 23be aae9 d93e 4475 aebf 9427 80bf
00000010: f7de b93f 1036 c0bf f7df 12bf 1afd 233f
00000020: 8baf 6abe a8b2 7f3f 0a47 523f 7b57 a0bd
00000030: 1054 363e d8d4 833e baef 80bf 22ff 9fbd
00000040: 6d1c 2abf 59f3 52bf 41c3 0e3f 8b0d 7b3f
00000050: 55f1 3c3f 0904 a8bf 1c0a 1c3f 1a3f 173f
00000060: 9b0f aa3e a5b3 8abf dd3f 813f f8f9 9b3e
00000070: 65eb 0ebf 40bc b03f da78 1fbf bdee 3cbe
00000080: 7ada 11bf b941 583f 7f23 f1bd ada4 7c3a
00000090: 4121 ba3f b52f 313f cbfc eabf 58ef 4dbe
000000a0: b264 e9be bdec a0bc 0ec0 27bc e201 cabe
000000b0: d34f 92bf 75c8 8a3e 15ce 82bf de17 80be
000000c0: 15e2 2e3e 6820 ec3f ec31 a3be 2968 1f3d
000000d0: 2b54 8e3e 1c84 103f 5369 e9be c603 dd3e
000000e0: ba8f 1e3f 1288 873f dc19 1d40 d0a9 95bf
000000f0: 9ff8 b5bf 5324 043e ee11 38be de01 83bf
00000100: 984a 16bf f288 143f 5364 aabe e5e0 133f
00000110: bdd5 b43e fe35 f0be e9e8 ca3d 9d0e eabc
00000120: fa80 9abe c40c 30be 99cd 933f c1ff ce3e
00000130: 88fc cebe 0fe7 403f a96f 42bd d515 353d
00000140: a3e8 813f bdcc 413f 795a 5bbf 1f41 f4bd
00000150: 1082 f0be 63b9 c33d 51da a53f 9f61 b9bd
00000160: ba4b c23f c3d6 4f3f 3a89 84bf 8ff8 803e
00000170: 3c8d 823f 07a6 5f3f d94f 023e 8b46 90be
00000180: 8e6d 613f 9f3b 0fbf 7810 3bbf a3f8 1b3f
00000190: 5290 533d 4243 e33f 6774 5a3f 2988 523e
000001a0: f365 903f 7616 bb3f c5a8 b83f 6be8 ae3f
000001b0: 16b0 bcbe 4ae7 11bf bc69 79bd 568e a3bf
000001c0: 7910 7b3e be5b db3e 0e37 e8be eca3 f7be
000001d0: 8df5 9dbc 6a1b d03d ee4e 823e 3b16 7dbe
000001e0: b0cc c5be e814 143f d1a5 f2be 8a61 cdbe
000001f0: 32c8 493f dc80 4e3f 2b4a c73e e88c dfbf
00000200: 4c71 23bf d0db 923f a849 2a3e d6a7 39bc
00000210: 08b9 26bd 2974 6d3f 5ad3 0a3f aaba 5a3f
00000220: 7290 0d3f 6f5b e93f 53c0 b53e 2104 c3bf
00000230: 6075 533f 3e2e 3e3e 6b12 8dbe 065a 03bf
00000240: 474c 52bf 376e 85bf bd11 bb3e 7cb4 9dbf
00000250: da8e a13e cfc5 d6be 9fb0 d33e 43f1 f93d
00000260: ad65 b1bd f303 6e3f 2156 563f 67e5 aebe
00000270: a2dc f8bf 17df 2abf e213 b23e 77d1 af3f
00000280: a607 6fbf 29c9 313f 97a2 54bf 3ca0 8a3f
00000290: bcab 95be 8325 2ebe 8b0c 1c3e 1abb 3ebf
000002a0: 0286 63bf c742 f23e b604 a1be d021 3abf
000002b0: a761 d7be fee3 dfbe 1575 853f fdc5 71bf
000002c0: f560 773e a23c 493f 4feb d1bf 9c10 44bf
000002d0: 7976 f03e 6498 9d3f e423 babf 1ba2 e83e
000002e0: 4ef3 c53f a9ec 133f e85c 833f 4606 533e
000002f0: 062b 1dbf 3779 68bf 9b8e 94bf 8cac b43d

conv_blocks.0.0.bias f4 [64]
-9.999685e-05 -9.999912e-05 9.9999044e-05 -9.9994846e-05 -9.999834e-05 9.9999204e-05 -9.999818e-05 9.999873e-05
-9.999868e-05 9.9999466e-05 -9.999909e-05 9.999845e-05 -9.9999364e-05 -9.999874e-05 9.999785e-05 9.9999575e-05
-9.9997436e-05 -9.999844e-05 9.9998164e-05 9.9993464e-05 9.999961e-05 9.999247e-05 -9.999632e-05 -9.9998695e-05
9.999882e-05 -9.9995996e-05 9.999819e-05 9.9996556e-05 9.999906e-05 -9.9998644e-05 -9.999934e-05 9.9996534e-05
9.9999495e-05 9.999735e-05 9.9999525e-05 9.9999226e-05 9.999939e-05 9.999789e-05 -9.99944e-05 -9.999792e-05
-9.9997844e-05 -9.999728e-05 -9.999885e-05 -9.999869e-05 9.9996585e-05 -9.999701e-05 -9.999797e-05 9.996264e-05
9.9998986e-05 9.999921e-05 9.999933e-05 -9.9987934e-05 -9.999919e-05 -9.999868e-05 9.999884e-05 9.999868e-05
9.999785e-05 9.999533e-05 9.999903e-05 9.9998884e-05 9.99984e-05 -9.999432e-05 9.999806e-05 -9.999877e-05
00000000: 66b5 d1b8 9eb6 d1b8 94b6 d138 53b4 d1b8
00000010: 33b6 d1b8 aab6 d138 1db6 d1b8 69b6 d138
00000020: 62b6 d1b8 ceb6 d138 9ab6 d1b8 42b6 d138
00000030: c0b6 d1b8 6ab6 d1b8 f0b5 d138 ddb6 d138
00000040: b7b5 d1b8 41b6 d1b8 1bb6 d138 95b3 d138
00000050: e2b6 d138 0cb3 d138 1eb5 d1b8 64b6 d1b8
00000060: 75b6 d138 f1b4 d1b8 1fb6 d138 3eb5 d138
00000070: 96b6 d138 5db6 d1b8 bdb6 d1b8 3bb5 d138
00000080: d2b6 d138 abb5 d138 d6b6 d138 adb6 d138
00000090: c4b6 d138 f5b5 d138 16b4 d1b8 f9b5 d1b8
000000a0: efb5 d1b8 a2b5 d1b8 79b6 d1b8 63b6 d1b8
000000b0: 42b5 d138 7cb5 d1b8 00b6 d1b8 09a3 d138
000000c0: 8cb6 d138 abb6 d138 bbb6 d138 9db0 d1b8
000000d0: a8b6 d1b8 62b6 d1b8 78b6 d138 62b6 d138
000000e0: f0b5 d138 96b4 d138 92b6 d138 7eb6 d138
000000f0: 3bb6 d138 0bb4 d1b8 0db6 d138 6eb6 d1b8

conv_blocks.0.2.weight f4 [64, 64, 3]
0.048432853 0.04387614 -0.11183944 0.068548545 0.00963108 0.06310978 -0.08877484 0.13066334
0.12888643 -0.12465716 0.07396202 -0.11949916 -0.06036946 0.12171749 -0.1048523 -0.060982186
-0.25926256 0.058748916 0.06845193 -0.13088717 -0.018538462 0.060032286 0.051449955 0.09766549
0.06611593 0.095967144 -0.05342814 -0.020407626 -0.08454671 -0.1379606 0.19102995 -0.045778207
0.043488357 -0.092154674 -0.13678353 -0.021335756 0.09747037 -0.08616631 -0.020412592 0.025172783
-0.036557402 0.009482052 -0.13922176 0.03741349 -0.041126374 -0.07465333 -0.06797114 0.022076828
-0.015332999 0.03850797 0.02077636 0.06136644 -0.06039707 -0.058884747 0.16155373 -0.0580603
0.07912315 0.107724816 -0.006905591 0.20715857 -0.029947037 -0.03765131 0.04142404 0.13901864
0.11984457 -0.09156403 0.029709995 0.08477748 0.028886132 -0.16004388 0.016962705 -0.03412311
0.14113116 0.042376615 -0.1318357 0.05331445 -0.08160523 0.17769422 0.004776324 0.0060737664
-0.14101627 0.11660054 0.15807958 -0.29172444 -0.3045397 -0.0932527 -0.12097797 -0.025672618
-0.08665823 -0.001849769 -0.05054112 -0.018889766 -0.0847247 -0.1314652 0.07000076 -0.104908906
0.10959608 0.12929544 0.11151543 0.107414804 -0.08049676 -0.024048777 0.1154535 0.054320652
-0.088415265 -0.09047521 -0.06773019 -0.038366333 0.03259386 0.15593314 -0.08659888 0.020329086
0.1713447 -0.13356858 0.08458054 -0.18513787 -0.08498514 -0.13757557 0.08009972 -0.08933603
0.09945471 -0.09174773 0.06945974 -0.22279301 0.0879598 0.07775948 0.057037983 0.03922276
0.14654663 -0.043070883 0.04244 0.186971 -0.19402575 -0.19124568 0.16212955 0.13897148
0.08120286 -0.15421848 -0.06701721 -0.09434924 -0.11491294 0.11843973 -0.08969902 -0.12720388
0.013731905 -0.020075321 0.06549161 -0.09827704 0.008526932 0.08247878 -0.19272067 -0.085874476
-0.21849386 -0.031082049 -0.119787276 -0.024441747 -0.034947377 0.06619566 -0.0072618173 -0.1280126
-0.14344923 -0.030274684 -0.027355172 0.00072935695 0.028460415 -0.07116991 0.07338675 -0.00063371676
-0.018767087 0.15106478 0.040620044 -0.057355784 -0.0150413085 -0.046530012 -0.05860241 0.028834876
-0.13573803 0.061148945 0.008703366 -0.09451729 0.01020615 -0.048270095 0.20966156 0.105369374
0.026272941 0.049192343 -0.022217855 0.06677197 0.039366942 0.13915285 0.007963308 0.033045094
-0.07772814 -0.08645203 -0.09890406 0.21201102 0.033470824 -0.056259166 -0.18150666 0.047997
-0.04730544 -0.07854928 0.016312214 -0.14225742 -0.14077884 0.00037219655 0.014113815 0.17592637
0.13429095 0.08399578 -0.09310738 0.113225006 -0.03679779 -0.12499203 0.048926614 -0.09886164
0.022315089 0.08437867 0.027585626 -0.023952547 0.026929585 0.007021018 0.013071605 0.06960547
-0.013003862 -0.023042975 -0.035320424 0.017057355 -0.1808843 0.13271692 -0.030342221 0.20383792
0.028927334 0.103616245 0.00506224 0.033561338 -0.13970518 0.021908564 -0.015475713 0.0010565008
0.13612837 -0.047031637 0.03547311 0.016473329 -0.011321086 0.01737495 0.06273552 -0.20820796
-0.08152661 0.1068569 0.04677429 -0.10726515 0.058028 -0.018241473 0.07502213 0.06568576
00000000: 8761 463d 78b7 333d 140c e5bd 2e63 8c3d
00000010: adcb 1d3c b33f 813d 95cf b5bd 9ccc 053e
00000020: cefa 033e 414c ffbd 6679 973d fabb f4bd
00000030: f845 77bd 0547 f93d cdbc d6bd 75c8 79bd
00000040: 10be 84be b4a2 703d 8730 8c3d 4907 06be
00000050: f9dd 97bc 6ae4 753d 30bd 523d d804 c83d
00000060: ca67 873d 6c8a c43d 77d7 5abd e52d a7bc
00000070: d326 adbd 8b45 0dbe 5b9d 433e ee81 3bbd
00000080: d920 323d 97bb bcbd fb10 0cbe 53c8 aebc
00000090: 8c9e c73d f677 b0bd 4f38 a7bc 2737 ce3c
000000a0: 37bd 15bd 9c5a 1b3c 2690 0ebe e33e 193d
000000b0: 2174 28bd d8e3 98bd 7434 8bbd 77da b43c
000000c0: 4237 7bbc 88ba 1d3d 2f33 aa3c 605b 7b3d
000000d0: eb62 77bd 2231 71bd 576e 253e a3d0 6dbd
000000e0: 510b a23d d49e dc3d 4c48 e2bb 6021 543e
000000f0: 7d53 f5bc 4338 1abd 41ac 293d e75a 0e3e
00000100: 1271 f53d ec85 bbbd 6062 f33c d19f ad3d
00000110: 9ca2 ec3c 8be2 23be 5ff5 8a3c adc4 0bbd
00000120: b084 103e 1a93 2d3d f0ff 06be 4160 5a3d
00000130: a520 a7bd 79f5 353e b682 9c3b 7206 c73b
00000140: 9266 10be 44cc ee3d 9ddf 213e e85c 95be
00000150: a1ec 9bbe 46fb bebd 4cc3 f7bd 624f d2bc
00000160: df79 b1bd f373 f2ba 3504 4fbd b6be 9abc
00000170: 2584 adbd d09e 06be 8f5c 8f3d 7bda d6bd
00000180: e973 e03d 0666 043e 3462 e43d 4bfc db3d
00000190: 7cdb a4bd f101 c5bc e272 ec3d 557f 5e3d
000001a0: 1013 b5bd 114b b9bd 20b6 8abd 0426 1dbd
000001b0: 2481 053d f0ac 1f3e c15a b1bd 2f89 a63c
000001c0: fc74 2f3e 34c6 08be 9038 ad3d c894 3dbe
000001d0: b00c aebd 9ce0 0cbe 520b a43d cff5 b6bd
000001e0: e9ae cb3d 3ce6 bbbd e840 8e3d da23 64be
000001f0: 4524 b43d 5d40 9f3d a9a0 693d 0ba8 203d
00000200: 5210 163e 186b 30bd 91d5 2d3d 5375 3f3e
00000210: b0ae 46be e8d5 43be 4a05 263e 8a4e 0e3e
00000220: af4d a63d 73eb 1dbe 5240 89bd 2d3a c1bd
00000230: 7a57 ebbd 8790 f23d 1fb4 b7bd bc41 02be
00000240: c9fb 603c 0075 a4bc 7720 863d 7945 c9bd
00000250: 8cb4 0b3c a2ea a83d 9158 45be f5de afbd
00000260: dbbc 5fbe c89f febc 0853 f5bd 0f3a c8bc
00000270: fb24 0fbd 9791 873d 8af4 edbb bc15 03be
00000280: 5be4 12be 9d02 f8bc f417 e0bc 5132 3f3a
00000290: d125 e93c 88c1 91bd cb4b 963d 0320 26ba
000002a0: 6fbd 99bc bab0 1a3e 3461 263d e6ed 6abd
000002b0: d26f 76bc 4196 3ebd 1509 70bd 1e37 ec3c
000002c0: e9fe 0abe 5177 7a3d 9098 0e3c 4892 c1bd
000002d0: b237 273c ddb6 45bd 85b1 563e e6cb d73d
000002e0: 5a3a d73c e97d 493d 3802 b6bc bebf 883d
000002f0: 3b3f 213d 167e 0e3e 8978 023c 4b5a 073d
00000300: ee2f 9fbd c30d b1bd 368e cabd 6b19 593e
00000310: b418 093d 0370 66bd e2dc 39be 8198 443d
00000320: 59c3 41bd 72de a0bd 31a1 853c eeab 11be
00000330: 5428 10be 6023 c339 a13d 673c 0b26 343e
00000340: 9183 093e fb05 ac3d 15af bebd 83e2 e73d
00000350: 48b9 16bd d2fb ffbd 4667 483d f977 cabd
00000360: 22ce b63c b9ce ac3d 40fb e13c 2238 c4bc
00000370: 6f9b dc3c 9110 e63b 492a 563c 508d 8e3d
00000380: 270e 55bc 9fc4 bcbc 26ac 10bd debb 8b3c
00000390: bc39 39be f2e6 073e 4090 f8bc e3ba 503e
000003a0: 04f9 ec3c c134 d43d 26e1 a53b 9d77 093d
000003b0: e00e 0fbe 9779 b33c d88d 7dbc 497a 8a3a
000003c0: 3c65 0b3e 3fa4 40bd 404c 113d 13f3 863c
000003d0: 147c 39bc e955 8e3c 7b7b 803d 7834 55be
000003e0: 6cf7 a6bd cad7 da3d 6696 3f3d d5ad dbbd
000003f0: c5ae 6d3d 246f 95bc 34a5 993d 4186 863d

conv_blocks.0.2.bias f4 [64]
-9.999804e-05 -9.999773e-05 -9.9998324e-05 9.9996745e-05 -9.999951e-05 9.999632e-05 9.99993e-05 -9.999923e-05
-9.9998164e-05 -9.9998775e-05 -9.999934e-05 -9.9993704e-05 9.999925e-05 -9.999928e-05 9.999943e-05 -9.999945e-05
-9.999878e-05 -9.9997575e-05 9.9999306e-05 -9.999978e-05 -9.999948e-05 9.9999656e-05 9.999746e-05 9.9999634e-05
-9.9999e-05 -9.999939e-05 9.9999466e-05 9.9999255e-05 9.999935e-05 9.999952e-05 9.999957e-05 -9.9999066e-05
-9.999764e-05 9.999948e-05 9.999862e-05 -9.9999066e-05 -9.999933e-05 9.999978e-05 9.999937e-05 9.9999575e-05
-9.9999204e-05 -9.999898e-05 9.9998906e-05 -9.997896e-05 -9.999842e-05 9.999847e-05 9.999902e-05 -9.999961e-05
-9.999952e-05 9.999896e-05 -9.9997524e-05 -9.999885e-05 -9.999413e-05 9.999939e-05 -9.999848e-05 9.999966e-05
9.379141e-05 -9.9994766e-05 -9.9999605e-05 9.9999015e-05 9.999902e-05 9.999916e-05 -9.999922e-05 -9.9998935e-05
00000000: 0ab6 d1b8 dfb5 d1b8 31b6 d1b8 58b5 d138
00000010: d4b6 d1b8 1eb5 d138 b7b6 d138 aeb6 d1b8
00000020: 1bb6 d1b8 6fb6 d1b8 bdb6 d1b8 b6b3 d1b8
00000030: b0b6 d138 b4b6 d1b8 c9b6 d138 ccb6 d1b8
00000040: 70b6 d1b8 cab5 d1b8 b8b6 d138 f9b6 d1b8
00000050: d0b6 d1b8 e8b6 d138 bab5 d138 e5b6 d138
00000060: 8eb6 d1b8 c4b6 d1b8 ceb6 d138 b1b6 d138
00000070: beb6 d138 d5b6 d138 dcb6 d138 97b6 d1b8
00000080: d3b5 d1b8 d0b6 d138 5ab6 d138 97b6 d1b8
00000090: bbb6 d1b8 f9b6 d138 c1b6 d138 ddb6 d138
000000a0: aab6 d1b8 8bb6 d1b8 81b6 d138 ccab d1b8
000000b0: 3eb6 d1b8 45b6 d138 91b6 d138 e2b6 d1b8
000000c0: d5b6 d1b8 88b6 d138 c3b5 d1b8 79b6 d1b8
000000d0: f1b3 d1b8 c4b6 d138 46b6 d1b8 e9b6 d138
000000e0: e1b1 c438 48b4 d1b8 e1b6 d1b8 90b6 d138
000000f0: 91b6 d138 a4b6 d138 acb6 d1b8 85b6 d1b8

conv_blocks.1.0.weight f4 [64, 64, 3]
0.1197067 0.0952224 -0.030686213 0.17578 0.0029344342 -0.0487749 -0.11451507 0.001102716
0.122123584 0.0011349892 0.096056715 0.08452184 -0.12334462 -0.040647533 0.075540714 0.0049936743
-0.04766012 -0.06680243 0.07217234 0.11083047 0.065946296 0.024323903 -0.07096798 0.14416546
-0.04199074 0.08701003 0.021305883 0.08720118 0.11478227 0.089154124 0.09586779 0.08946444
0.0009251394 -0.057960458 -0.04660389 -0.027340202 -0.039815407 0.02226597 -0.014138222 -0.07297408
0.23569739 -0.11738329 -0.05925322 -0.2012359 -0.05034859 -0.005032058 -0.022523778 0.10584477
-0.12990588 -0.104493245 0.22355434 -0.03190922 -0.1382208 0.123653114 0.059458975 -0.0755512
-0.1807297 -0.1460732 -0.026798835 -0.08755594 -0.02302545 0.106268935 -0.254823 -0.019537391
-0.12973888 0.22223291 0.2471376 0.08811732 0.15376455 0.1089389 -0.0591173 -0.071694456
-0.040080775 -0.08893811 0.040532734 0.16192928 -0.08712876 0.07868043 0.04994834 -0.021264572
0.023835314 0.020609863 -0.14696087 -0.1105807 -0.041477308 -0.14908008 -0.032939076 -0.03577768
-0.051555846 0.06593075 0.07387399 -0.06537163 0.13467927 0.15036625 0.07390416 0.13202126
-0.07611932 -0.0040058177 0.13643113 -0.002569413 0.022108037 0.13991997 -0.123030044 0.08394206
-0.07053641 -0.043191776 0.039713796 -0.0074772174 -0.1373585 0.06902773 0.0044800784 -0.024317991
-0.04082279 0.0128894625 0.046659037 0.026968777 0.07257943 -0.021826606 -0.08136503 0.2142267
0.14273019 0.059076026 -0.124278486 -0.11126849 -0.0173545 -0.19681418 0.092806034 -0.13977183
-0.104958445 -0.034718778 -0.061053522 0.22485936 -0.166716 0.08632992 0.18180004 -0.12713967
0.056691114 0.09910382 0.19383892 -0.15295544 -0.097089626 -0.009776159 0.050496552 -0.02750391
-0.040124405 -0.011061354 -0.0014483162 0.036809877 0.16329509 0.13433374 0.044804472 0.007989701
0.20605306 -0.07457208 -0.109984815 -0.116876684 0.117010355 -0.1737578 -0.10248614 0.18091917
0.14690441 -0.20309432 -0.18685701 0.06141357 0.01295972 -0.06824452 -0.016065022 -0.012917217
-0.10047331 0.06786466 0.1520255 0.009804614 0.13466096 -0.1820253 -0.310252 -0.01455732
-0.15827364 -0.042164125 0.15708444 0.13117559 0.03871109 0.17178275 -0.058111686 0.11207982
-0.06783395 -0.03736487 -0.08723557 0.034435857 0.037476014 0.037184104 -0.02805148 -0.014242585
-0.14714561 -0.07763942 0.13546973 -0.107844956 0.012542207 -0.024637304 0.1695877 -0.10651818
-0.1296771 -0.09170542 -0.023428658 0.057430293 0.018695096 -0.06769822 0.07339457 0.03954461
0.15916121 0.14535807 -0.13812816 -0.035634585 0.03572222 0.028936397 0.07166485 -0.09568076
0.08635431 0.035444204 -0.0034990706 0.1852697 0.09020362 -0.038157605 0.042589493 0.019593714
0.068847746 0.0721152 -0.26001424 0.03368223 -0.019430146 -0.21065058 -0.0066002836 -0.04500524
-0.060092818 0.109517135 -0.10528066 0.020991845 -0.040395737 -0.11256956 0.06017746 -0.040348466
-0.05317548 -0.0150648495 -0.17187165 0.08618623 -0.03511877 -0.014160133 0.13490875 -0.017495656
0.037217185 0.0039148373 0.093575224 0.07052231 -0.10516388 -0.03230126 0.039909553 -0.011187196
00000000: c928 f53d f603 c33d a761 fbbc acff 333e
00000010: a34f 403b 31c8 47bd e186 eabd 0289 903a
00000020: ee1b fa3d ebc3 943a 62b9 c43d c919 ad3d
00000030: 1b9c fcbd 077e 26bd 17b5 9a3d faa1 a33b
00000040: 4237 43bd b6cf 88bd 17cf 933d 16fb e23d
00000050: da0e 873d ec42 c73c a957 91bd 1ca0 133e
00000060: 7bfe 2bbd 5132 b23d ad89 ae3c 8896 b23d
00000070: f712 eb3d 7096 b63d 5556 c43d 2239 b73d
00000080: 0e85 723a f267 6dbd b8e3 3ebd 8ff8 dfbc
00000090: 7b15 23bd 2067 b63c 00a4 67bc 6f73 95bd
000000a0: a85a 713e a666 f0bd 81b3 72bd c910 4ebe
000000b0: 533a 4ebd f6e3 a4bb c983 b8bc 25c5 d83d
000000c0: 0c06 05be 8e00 d6bd 6eeb 643e 3eb3 02bd
000000d0: c189 0dbe d83d fd3d 418b 733d 96ba 9abd
000000e0: 3511 39be 3794 15be 3b89 dbbc 8750 b3bd
000000f0: de9f bcbc 87a3 d93d 2978 82be e10c a0bc
00000100: 45da 04be 0691 633e a411 7d3e da76 b43d
00000110: 7474 1d3e 5c1b df3d fb24 72bd 8bd4 92bd
00000120: bd2b 24bd 2f25 b6bd a705 263d cad0 253e
00000130: 9070 b2bd 3523 a13d a196 4c3d 0a33 aebc
00000140: 4742 c33c 04d6 a83c e97c 16be 2278 e2bd
00000150: 1ce4 29bd 73a8 18be 20eb 06bd 9e8b 12bd
00000160: 392c 53bd b306 873d 3f4b 973d 90e1 85bd
00000170: 5de9 093e 9cf9 193e 105b 973d 9530 073e
00000180: 72e4 9bbd 3c43 83bb 9ab4 0b3e 9963 28bb
00000190: ea1b b53c 2e47 0f3e 2df7 fbbd d1e9 ab3d
000001a0: 6575 90bd dce9 30bd efaa 223d 7203 f5bb
000001b0: b5a7 0cbe 695e 8d3d 9fcd 923b 8636 c7bc
000001c0: cc35 27bd 532e 533c 8c1d 3f3d a0ed dc3c
000001d0: 86a4 943d b6cd b2bc b5a2 a6bd 3e5e 5b3e
000001e0: dd27 123e b4f9 713d b885 febd bce0 e3bd
000001f0: 062b 8ebc a889 49be 1711 be3d 5920 0fbe
00000200: 74f4 d6bd 4735 0ebd 4213 7abd 8841 663e
00000210: 99b7 2abe becd b03d ca29 3a3e e730 02be
00000220: f134 683d f2f6 ca3d b67d 463e 5aa0 1cbe
00000230: edd6 c6bd 2f2c 20bc 79d5 4e3d e14f e1bc
00000240: 7d59 24bd ae3a 35bc 6dd5 bdba f4c5 163d
00000250: d436 273e c98e 093e e584 373d 3ce7 023c
00000260: 93ff 523e 3fb9 98bd b83f e1bd 0b5d efbd
00000270: 20a3 ef3d 91ed 31be 41e4 d1bd e042 393e
00000280: 1c6e 163e f5f7 4fbe 7257 3fbe cc8c 7b3d
00000290: 0155 543c c8c3 8bbd cb9a 83bc bca2 53bc
000002a0: f3c4 cdbd a0fc 8a3d 93ac 1b3e 88a3 203c
000002b0: 90e4 093e d764 3abe 5ad9 9ebe d381 6ebc
000002c0: 7c12 22be 4ab4 2cbd beda 203e e552 063e
000002d0: 858f 1e3d d1e7 2f3e 8506 6ebd 1b8a e53d
000002e0: 87ec 8abd e80b 19bd 90a8 b2bd 9d0c 0d3d
000002f0: 7380 193d 5c4e 183d 38cc e5bc bb59 69bc
00000300: 57ad 16be 6b01 9fbd 94b8 0a3e d1dd dcbd
00000310: d47d 4d3c 2cd4 c9bc 66a8 2d3e 3426 dabd
00000320: 13ca 04be 0dd0 bbbd 75ed bfbc 073c 6b3d
00000330: 7526 993c 5da5 8abd e44f 963d 87f9 213d
00000340: 28fb 223e bfd8 143e 7871 0dbe 92f5 11bd
00000350: 7651 123d 060c ed3c 05c5 923d 46f4 c3bd
00000360: 87da b03d f12d 113d aa50 65bb 57b7 3d3e
00000370: adbc b83d 264b 1cbd 5272 2e3d ff82 a03c
00000380: 0c00 8d3d 22b1 933d 9620 85be 61f6 093d
00000390: f82b 9fbc c9b4 57be 3147 d8bb 6a57 38bd
000003a0: e323 76bd 854a e03d 639d d7bd 17f7 ab3c
000003b0: 0076 25bd df8a e6bd a47c 763d 6f44 25bd
000003c0: 88ce 59bd 8fd2 76bc 1fff 2fbe 6882 b03d
000003d0: b3d8 0fbd e7ff 67bc 8525 0a3e 0d53 8fbc
000003e0: 0c71 183d 0948 803b 5ea4 bf3d 006e 903d
000003f0: 2960 d7bd 534e 04bd 3378 233d 804a 37bc

conv_blocks.1.0.bias f4 [64]
9.999878e-05 -9.979604e-05 9.999881e-05 -9.999924e-05 9.999962e-05 -9.9999e-05 -9.998146e-05 -9.999929e-05
9.999879e-05 9.999959e-05 -9.9997815e-05 -9.999963e-05 9.99987e-05 -9.99988e-05 -9.999819e-05 9.915592e-05
-9.999945e-05 9.9999554e-05 9.9998695e-05 9.999389e-05 -9.999596e-05 9.9998084e-05 -9.957185e-05 -9.9993034e-05
-9.9999575e-05 9.9998346e-05 9.999628e-05 9.9999386e-05 -9.999693e-05 -9.999847e-05 9.9996905e-05 8.785611e-05
-9.9991084e-05 -9.999937e-05 9.999409e-05 9.9995435e-05 -9.999941e-05 9.9999605e-05 -9.999886e-05 9.999886e-05
9.999084e-05 9.999918e-05 -9.999236e-05 9.999835e-05 -9.999826e-05 -9.999923e-05 -9.999915e-05 -9.999815e-05
-9.9999255e-05 -9.999675e-05 9.999844e-05 -9.999255e-05 -9.999673e-05 -9.999811e-05 -9.999774e-05 9.999523e-05
9.999954e-05 -9.999918e-05 -9.999933e-05 9.9999685e-05 9.9959965e-05 -9.999901e-05 -9.999958e-05 9.999582e-05
00000000: 70b6 d138 9749 d1b8 74b6 d138 afb6 d1b8
00000010: e3b6 d138 8eb6 d1b8 23ad d1b8 b6b6 d1b8
00000020: 71b6 d138 dfb6 d138 ebb5 d1b8 e4b6 d1b8
00000030: 65b6 d138 72b6 d1b8 1fb6 d1b8 eef1 cf38
00000040: ccb6 d1b8 dab6 d138 64b6 d138 d0b3 d138
00000050: ecb4 d1b8 10b6 d138 3bd1 d0b8 5ab3 d1b8
00000060: ddb6 d1b8 34b6 d138 18b5 d138 c3b6 d138
00000070: 71b5 d1b8 45b6 d1b8 6eb5 d138 643f b838
00000080: 4eb2 d1b8 c1b6 d1b8 ebb3 d138 a4b4 d138
00000090: c6b6 d1b8 e1b6 d138 7bb6 d1b8 7bb6 d138
000000a0: 2cb2 d138 a7b6 d138 fdb2 d1b8 35b6 d138
000000b0: 28b6 d1b8 aeb6 d1b8 a3b6 d1b8 19b6 d1b8
000000c0: b1b6 d1b8 59b5 d1b8 41b6 d138 17b3 d1b8
000000d0: 56b5 d1b8 14b6 d1b8 e1b5 d1b8 88b4 d138
000000e0: d8b6 d138 a7b6 d1b8 bbb6 d1b8 ecb6 d138
000000f0: 99a1 d138 8fb6 d1b8 deb6 d1b8 d9b4 d138

conv_blocks.1.2.weight f4 [64, 64, 3]
-0.038492817 0.10059223 -0.059544638 -0.046465155 0.10063149 -0.006844637 0.030595439 0.112533696
-0.04396389 -0.0024197937 0.20108508 0.06718543 -0.20733732 0.07956517 0.06299507 0.020542586
0.028881958 -0.036768183 -0.20235637 0.00655788 0.14115149 0.22573194 -0.17032364 -0.20115443
-0.22441714 0.07789868 -0.088581175 0.12692477 -0.097738266 -0.021803135 0.05593752 -0.045251448
-0.14526354 0.07795842 -0.024433134 0.0016390041 -0.0049452404 -0.025144946 0.038666237 0.1064255
-0.100085005 -0.060789745 0.02016718 -0.044020608 0.11969775 -0.016166082 -0.18907616 -0.046160597
-0.013260376 0.07002998 0.0012683694 -0.048676357 -0.073095605 0.15498763 0.036283907 0.124555625
0.021505361 0.07727153 -0.06806719 0.042418323 -0.008582199 -0.13241051 -0.04509594 0.09968151
0.04569449 0.11708988 0.08801122 0.08768368 -0.022158755 0.14999376 0.0122879725 -0.18403628
-0.14575185 -0.16394992 0.060196307 -0.16435124 0.0045783985 -0.032142136 0.047479693 0.13656147
-0.02602415 -0.0115904035 -0.10783006 0.056674678 -0.08337923 0.14331539 0.07911967 0.0950017
0.21045475 0.12676641 -0.07000426 0.035835814 0.002056285 0.043841306 0.057416536 0.198192
-0.04106216 0.15957662 0.04906162 0.010914839 0.030307768 0.03486906 -0.029809846 -0.19650987
0.0859501 -0.087662384 0.07245139 0.023912745 -0.0009914939 -0.08020515 0.05393272 -0.023532065
-0.012091304 0.14547847 -0.2284965 -0.05015766 -0.017438114 0.017324226 0.022128046 -0.031351026
0.069656424 -0.08782503 0.014144672 -0.05438351 0.013696911 -0.0035152365 0.035096623 0.053908575
-0.29494673 0.0021152953 0.08908371 0.0030640163 -0.27753443 0.2116027 0.04162708 0.07786169
-0.20780133 -0.052796945 0.037385393 -0.028422564 -0.015670793 0.11269514 0.1679407 0.036110792
-0.018137185 -0.16956465 -0.032656964 0.009392652 0.07755032 -0.13764279 0.18465969 -0.03011881
0.052383352 0.023882084 -0.03193584 0.08859602 0.19068103 -0.21008396 -0.010229194 0.031454753
-0.06264957 -0.16098021 0.07567782 0.11861862 0.1225885 -0.17729336 0.0019510065 0.12634017
-0.06584406 -0.20833385 0.043517236 -0.0921442 0.08968317 -0.16095543 -0.1425304 0.057249904
-0.044388667 -0.15319689 -0.017504383 0.14465177 0.031007893 -0.05546109 -0.120951965 0.26265
0.019205565 -0.026110804 -0.08005084 -0.0035527467 -0.041258935 -0.03484936 0.04727594 -0.14413129
-0.04186275 0.11783158 0.11031571 0.3133047 -0.08419845 0.042487796 0.09453911 -0.011063261
0.16855353 0.036019187 -0.1287685 0.017752614 -0.1563344 0.084479615 -0.050155338 0.055994738
0.04883505 0.018409118 0.09531152 -0.13126722 0.31660753 0.059908308 -0.20701313 0.06753216
-0.09632908 -0.020229748 -0.08944674 -0.06539485 -0.14118294 0.030845955 0.1089484 0.086362325
-0.10299942 -0.19816713 -0.059766244 0.08025102 -0.044512562 -0.017515179 -0.065904245 0.10740333
-0.051087067 0.01897667 0.076168776 0.0407151 0.06675096 0.097480774 0.05120299 0.091184564
0.14503029 -0.069057636 -0.030589618 -0.0067056916 0.06953969 0.116579354 -0.12104963 0.12613459
-0.05505574 -0.038966943 -0.011276822 0.002163043 -0.023257261 -0.17308621 0.006848088 -0.043714955
00000000: a5aa 1dbd 4d03 ce3d 14e5 73bd 3f52 3ebd
00000010: e217 ce3d fa48 e0bb 49a3 fa3c 1178 e63d
00000020: 7b13 34bd 6795 1ebb 3fe9 4d3e 8498 893d
00000030: 3c50 54be 10f3 a23d 8f03 813d ed48 a83c
00000040: db99 ec3c 3c9a 16bd 8236 4fbe 7ce3 d63b
00000050: 048a 103e 4626 673e 5269 2ebe 6dfb 4dbe
00000060: 9bcd 65be 5889 9f3d 0c6a b5bd 91f8 013e
00000070: 002b c8bd 7d9c b2bc be1e 653d 9559 39bd
00000080: f7bf 14be aaa8 9f3d ff27 c8bc dad3 d63a
00000090: af0b a2bb c6fc cdbc 7d60 1e3d 9df5 d93d
000000a0: 5ef9 ccbd abfe 78bd a435 a53c f44e 34bd
000000b0: 1824 f53d bb6e 84bc 2e9d 41be e512 3dbd
000000c0: 0c42 59bc e16b 8f3d 6a3f a63a dc60 47bd
000000d0: 26b3 95bd 14b5 1e3e 6f9e 143d 0517 ff3d
000000e0: 032c b03c 8940 9e3d d066 8bbd d6be 2d3d
000000f0: 5a9c 0cbc 9f96 07be 85b6 38bd d225 cc3d
00000100: 252a 3b3d d2cc ef3d 3a3f b43d 8093 b33d
00000110: 4786 b5bc f797 193e 7e53 493c 0274 3cbe
00000120: f93f 15be 7de2 27be 6790 763d b14b 28be
00000130: 6406 963b 79a7 03bd 117a 423d c5d6 0b3e
00000140: 9930 d5bc ade5 3dbc 02d6 dcbd b523 683d
00000150: bbc2 aabd 45c1 123e 7e09 a23d 4090 c23d
00000160: 7381 573e 0ecf 013e 655e 8fbd 93c8 123d
00000170: bdc2 063b f192 333d 9a2d 6b3d d8f2 4a3e
00000180: cc30 28bd 0e68 233e d6f4 483d 27d4 323c
00000190: ff47 f83c dcd2 0e3d c733 f4bc e239 49be
000001a0: 9b06 b03d 5688 b3bd 6561 943d a9e4 c33c
000001b0: 04f5 81ba 9942 a4bd 8ee8 5c3d 51c6 c0bc
000001c0: 9b1a 46bc 4ff8 143e fdfa 69be 1e72 4dbd
000001d0: 60da 8ebc 89eb 8d3c e045 b53c ef69 00bd
000001e0: 07a8 8e3d 9cdd b3bd 0ebf 673c 3ec1 5ebd
000001f0: 0269 603c e25f 66bb 7ac1 0f3d 3dcf 5c3d
00000200: 4203 97be c4a0 0a3b 8571 b63d aacd 483b
00000210: fe18 8ebe 61ae 583e 2881 2a3d f375 9f3d
00000220: dfc9 54be 9c41 58bd 6d21 193d 70d6 e8bc
00000230: 0960 80bc b6cc e63d a6f8 2b3e e9e8 133d
00000240: 6f94 94bc 5ba2 2dbe 4fc3 05bd a3e3 193c
00000250: b4d2 9e3d 3bf2 0cbe 6e17 3d3e b9bb f6bc
00000260: ed8f 563d 5ca4 c33c 28cf 02bd d571 b53d
00000270: e341 433e 4020 57be 5998 27bc b3d6 003d
00000280: 6b4e 80bd ffd7 24be f9fc 9a3d 52ee f23d
00000290: ae0f fb3d 648c 35be eab8 ff3a 515f 013e
000002a0: 40d9 86bd 7855 55be 213f 323d 19b6 bcbd
000002b0: cfab b73d 80d1 24be 7df3 11be e07e 6a3d
000002c0: e4d0 35bd a5df 1cbe 5a65 8fbc 981f 143e
000002d0: 4404 fe3c 2b2b 63bd aab5 f7bd 107a 863e
000002e0: fd54 9d3c 53e6 d5bc b2f1 a3bd 33d5 68bb
000002f0: 21ff 28bd 34be 0ebd 6ba4 413d 2797 13be
00000300: 4678 2bbd af51 f13d 34ed e13d 7969 a03e
00000310: 3d70 acbd af07 2e3d b99d c13d ae42 35bc
00000320: 4c99 2c3e db88 133d e4db 03be ee6d 913c
00000330: 2016 20be a603 ad3d af6f 4dbd bd5a 653d
00000340: 4307 483d b8ce 963c b032 c33d ea6a 06be
00000350: 621a a23e 6a62 753d 40fb 53be 4d4e 8a3d
00000360: 2e48 c5bd dbb8 a5bc da2f b7bd bced 85bd
00000370: 4392 10be a8b0 fc3c 5720 df3d bbde b03d
00000380: 5cf1 d2bd 53ec 4abe 73cd 74bd a65a a43d
00000390: ce52 36bd fe7b 8fbc cef8 86bd 47f6 db3d
000003a0: ac40 51bd f674 9b3c 60fe 9b3d e0c4 263d
000003b0: bab4 883d 00a4 c73d 3aba 513d f9be ba3d
000003c0: d282 143e 176e 8dbd 1497 fabc 6bbb dbbb
000003d0: d36a 8e3d 28c1 ee3d dee8 f7bd 6d29 013e
000003e0: 2182 61bd cd9b 1fbd 6bc2 38bc d7c1 0d3b
000003f0: 0386 bebc 833d 31be ed65 e03b 740e 33bd

conv_blocks.1.2.bias f4 [64]
-9.999757e-05 9.999808e-05 9.999611e-05 -9.999942e-05 -9.999135e-05 9.9998535e-05 9.9999226e-05 9.999891e-05
9.999912e-05 -9.999949e-05 -9.9999634e-05 9.999941e-05 9.999923e-05 9.999918e-05 -9.999938e-05 -9.9988734e-05
-9.999704e-05 9.999805e-05 -9.999817e-05 -9.999935e-05 9.999361e-05 -9.999956e-05 9.999373e-05 9.999936e-05
-9.99892e-05 -9.9989964e-05 9.9999204e-05 -9.999954e-05 -9.999927e-05 -9.999931e-05 9.999228e-05 -9.99977e-05
-9.999757e-05 -9.999723e-05 -9.9998775e-05 -9.9999335e-05 -9.9998884e-05 -9.999931e-05 -9.9998695e-05 9.9997174e-05
9.999801e-05 9.999888e-05 -9.999923e-05 9.999948e-05 9.99932e-05 9.999871e-05 9.999108e-05 -9.999835e-05
9.999896e-05 -9.999709e-05 9.999851e-05 -9.9998564e-05 9.9999175e-05 -9.999764e-05 9.9998666e-05 9.999907e-05
-9.999637e-05 9.999636e-05 9.99923e-05 -9.9999044e-05 -9.999904e-05 9.999643e-05 9.9996934e-05 -9.99904e-05
00000000: c9b5 d1b8 0fb6 d138 01b5 d138 c8b6 d1b8
00000010: 73b2 d1b8 4eb6 d138 adb6 d138 82b6 d138
00000020: 9eb6 d138 d1b6 d1b8 e5b6 d1b8 c6b6 d138
00000030: aeb6 d138 a7b6 d138 c2b6 d1b8 0bb1 d1b8
00000040: 81b5 d1b8 0bb6 d138 1cb6 d1b8 beb6 d1b8
00000050: a9b3 d138 dbb6 d1b8 bab3 d138 bfb6 d138
00000060: 4bb1 d1b8 b4b1 d1b8 aab6 d138 d8b6 d1b8
00000070: b3b6 d1b8 b9b6 d1b8 f2b2 d138 dbb5 d1b8
00000080: c9b5 d1b8 9bb5 d1b8 6fb6 d1b8 bcb6 d1b8
00000090: 7eb6 d1b8 b9b6 d1b8 64b6 d1b8 93b5 d138
000000a0: 06b6 d138 7db6 d138 aeb6 d1b8 d0b6 d138
000000b0: 71b3 d138 66b6 d138 4db2 d138 35b6 d1b8
000000c0: 88b6 d138 87b5 d1b8 4bb6 d138 52b6 d1b8
000000d0: a6b6 d138 d3b5 d1b8 60b6 d138 98b6 d138
000000e0: 24b5 d1b8 23b5 d138 f5b2 d138 94b6 d1b8
000000f0: 93b6 d1b8 2db5 d138 72b5 d138 f0b1 d1b8

conv_blocks.2.0.weight f4 [64, 64, 3]
0.1463562 -0.12877554 0.043694425 -0.2358231 0.011358803 -0.033410333 0.027928105 -0.0031640588
-0.254657 -0.040320233 0.012329008 -0.050502755 -0.030556498 -0.13754134 -0.06752304 0.18677835
-0.05997232 0.18058057 0.07567692 -0.07836758 0.050126985 -0.033432316 -0.18151928 0.03538489
-0.0010033196 0.085583895 0.11384557 0.08013445 -0.07484147 -0.12307493 -0.11824723 -0.13715903
0.097896785 0.058798797 0.09642695 -0.078592926 0.11868587 0.06469217 -0.08734768 0.0010774061
0.008472131 0.012256587 -0.1627687 0.21281984 0.22354181 -0.08564908 -0.050252866 -0.049789388
0.11373023 -0.049328066 -0.18427317 -0.033246644 0.19207081 -0.16734684 0.019924691 -0.023563873
0.01478099 -0.029488046 0.0085752895 0.014240444 -0.11042683 -0.07530712 -0.05754384 -0.05601091
0.2039416 0.011948743 -0.12595344 -0.13372062 -0.053480044 0.0869654 -0.15951999 -0.005946393
0.046024583 -0.13326809 -0.055980686 -0.11097175 0.035585776 -0.07222274 0.0556926 0.0043914835
0.036282875 -0.19966714 -0.047825415 -0.034701254 -0.08161353 -0.08966231 0.0652642 -0.12617072
-0.074873425 0.13432191 -0.025542155 0.075096644 0.106449835 0.21484749 0.06754993 0.14582513
-0.085893005 0.040933352 -0.09363977 -0.0711973 0.036189493 -0.043690022 -0.0333008 0.14956187
0.038213268 -0.03912865 -0.0853991 0.03170011 0.1451452 0.02711738 -0.08059528 -0.015280906
-0.02352299 0.01059087 0.011164936 -0.044334624 0.13371992 -0.06704494 0.084001444 -0.076041505
0.050917275 -0.16611035 0.14653952 0.18065716 -0.10688639 0.09548787 0.032757513 -0.09074666
0.11349396 -0.068445444 0.056587745 0.035682224 0.03775105 0.024050206 -0.2634698 0.11362725
-0.034282092 -0.14079009 -0.24040571 0.039348464 0.23078673 0.04171942 -0.07269943 0.032396022
0.07690745 -0.018133743 -0.0044490406 -0.04963365 0.042247046 0.09075163 0.11558298 0.04980129
0.0860614 0.057560053 0.048457395 -0.16612077 0.057464156 0.11574469 0.07391342 0.22257304
-0.05366851 0.031889915 0.10454787 0.07651609 0.041983563 -0.052169412 0.08235495 0.11381808
-0.005742453 -0.1185524 0.24784903 0.016177807 -0.043161586 0.02321978 0.01995167 0.073104054
0.06508615 -0.17989779 -0.12702315 -0.08075379 -0.15680385 -0.13009529 0.077099964 0.05737762
-0.04704854 -0.08509661 0.14537984 -0.0055947383 0.04359501 -0.03678271 0.03164844 -0.10438794
0.22122262 0.040065985 -0.19725546 0.035767525 0.04371998 0.10060449 0.12418669 0.2157676
-0.028469944 0.08066805 -0.096161775 -0.068161495 -0.0023028606 0.00587003 -0.0049167997 -0.088263
0.063982084 -0.12332013 -0.025564479 -0.104099885 -0.26733407 -0.18310112 -0.04283916 -0.0895022
0.11200527 0.024621908 0.023027591 -0.07425363 0.12505396 0.029953495 -0.035219535 -0.0633971
-0.17103066 -0.096189015 0.0002962917 -0.12763083 -0.09692013 -0.044307712 0.088259496 0.040927675
0.0002665186 0.090978846 -0.07909196 0.17941818 -0.022887273 -0.12506881 -0.07879797 0.15389171
0.115092345 0.044328235 -0.14043798 -0.16256125 0.17681555 -0.016567025 -0.03437543 0.24325787
-0.03207852 -0.025987323 -0.16030344 -0.0046029566 0.13730934 0.023815328 0.028898714 -0.03229508
00000000: 66de 153e bcdd 03be edf8 323d 9c7b 71be
00000010: 461a 3a3c 46d9 08bd 7bc9 e43c 195c 4fbb
00000020: 6762 82be d426 25bd 9cff 493c fadb 4ebd
00000030: 9f51 fabc a3d7 0cbe 8549 8abd d342 3f3e
00000040: 89a5 75bd 1dea 383e 80fc 9a3d 2f7f a0bd
00000050: f451 4d3d 53f0 08bd 31e0 39be bfef 103d
00000060: d281 83ba 9c46 af3d de27 e93d 881d a43d
00000070: 7c46 99bd b50e fcbd 9b2b f2bd 6b73 0cbe
00000080: 1c7e c83d 02d7 703d 7e7b c53d 54f5 a0bd
00000090: 9411 f33d 547d 843d 57e3 b2bd c037 8d3a
000000a0: b1ce 0a3c dacf 483c d7ac 26be 72ed 593e
000000b0: 25e8 643e c968 afbd f3d5 4dbd f5ef 4bbd
000000c0: 65eb e83d 3a0c 4abd 1bb2 3cbe a22d 08bd
000000d0: 36ae 443e f85c 2bbe 1b39 a33c 0609 c1bc
000000e0: f72b 723c ea90 f1bc 5f7f 0c3c c050 693c
000000f0: 7627 e2bd 9f3a 9abd 17b3 6bbd b26b 65bd
00000100: 11d6 503e a9c4 433c f0f9 00be 0fee 08be
00000110: e40d 5bbd ea1a b23d 3559 23be f6d9 c2bb
00000120: 4684 3c3d 6e77 08be 014c 65bd 2845 e3bd
00000130: 64c2 113d 84e9 93bd ec1d 643d 6fe6 8f3b
00000140: 5a9d 143d 8b75 4cbe 95e4 43bd e722 0ebd
00000150: ff24 a7bd e0a0 b7bd 3da9 853d e632 01be
00000160: 3d57 99bd af8b 093e c83d d1bc 45cc 993d
00000170: 5f02 da3d fb00 5c3e 9e57 8a3d 2f53 153e
00000180: ace8 afbd bba9 273d 35c6 bfbd e4cf 91bd
00000190: 6f3b 143d 4ff4 32bd 6b66 08bd bf26 193e
000001a0: 8485 1c3d 5d45 20bd b9e5 aebd f9d7 013d
000001b0: f1a0 143e 4525 de3c 230f a5bd c45c 7abc
000001c0: 49b3 c0bc 5485 2d3c 23ed 363c 3998 35bd
000001d0: e0ed 083e dc4e 89bd f308 ac3d a6bb 9bbd
000001e0: a28e 503d d518 2abe 750e 163e 31fe 383e
000001f0: 40e7 dabd 258f c33d be2c 063d 63d9 b9bd
00000200: 856f e83d 202d 8cbd 8dc8 673d 8627 123d
00000210: d8a0 1a3d f004 c53c 83e5 86be 67b5 e83d
00000220: 616b 0cbd 472b 10be ea2c 76be db2b 213d
00000230: 5b53 6c3e fce1 2a3d 70e3 94bd b1b1 043d
00000240: a781 9d3d 378d 94bc 42c9 91bb a74c 4bbd
00000250: 3d0b 2d3d fedb b93d c5b6 ec3d 70fc 4b3d
00000260: f640 b03d 17c4 6b3d 437b 463d 901b 2abe
00000270: 895f 6b3d 8d0b ed3d eb5f 973d 30ea 633e
00000280: 83d3 5bbd 009f 023d 321d d63d 78b4 9c3d
00000290: f5f6 2b3d 98af 55bd b6a9 a83d 7419 e93d
000002a0: 302b bcbb 9acb f2bd 23cc 7d3e 5287 843c
000002b0: 34ca 30bd 6837 be3c af71 a33c 94b7 953d
000002c0: e34b 853d 2037 38be 5b12 02be 3e62 a5bd
000002d0: 3091 20be b337 05be 96e6 9d3d cc04 6b3d
000002e0: f8b5 40bd 2247 aebd 74de 143e 1154 b7bb
000002f0: ae90 323d 78a9 16bd cba1 013d 58c9 d5bd
00000300: 2f88 623e 3b1c 243d 56fd 49be f880 123d
00000310: b913 333d ba09 ce3d 9755 fe3d 2ff2 5c3e
00000320: cd39 e9bc 4a35 a53d 77f0 c4bd 4198 8bbd
00000330: 97eb 16bb 6159 c03b 1b1d a1bb 3bc3 b4bd
00000340: 0a09 833d 448f fcbd 996c d1bc 5232 d5bd
00000350: 03e0 88be dc7e 3bbe 1d78 2fbd ee4c b7bd
00000360: 0563 e53d e2b3 c93c 5ca4 bc3c 4a12 98bd
00000370: 250e 003e 0861 f53c 5c42 10bd 57d6 81bd
00000380: a922 2fbe bffe c4bd 9957 9b39 a8b1 02be
00000390: 107e c6bd 017c 35bd 65c1 b43d c7a3 273d
000003a0: 85bb 8b39 1e53 ba3d f7fa a1bd 66b9 373e
000003b0: 177e bbbc 0a12 00be d560 a1bd ca95 1d3e
000003c0: 89b5 eb3d 8691 353d f9ce 0fbe 7576 26be
000003d0: 230f 353e 92b7 87bc 40cd 0cbd 9718 793e
000003e0: c464 03bd 5ee3 d4bc 9626 24be 66d4 96bb
000003f0: d29a 0c3e 5d18 c33c ffbc ec3c d947 04bd

conv_blocks.2.0.bias f4 [64]
9.9999044e-05 9.999759e-05 9.999839e-05 -9.999939e-05 9.999924e-05 9.9995355e-05 -9.999915e-05 -9.9987534e-05
9.999921e-05 9.999891e-05 9.999863e-05 -9.9996745e-05 -9.999752e-05 -9.999219e-05 -9.999226e-05 9.999906e-05
9.999637e-05 -9.998452e-05 9.998321e-05 2.3869631e-24 -1.994745e-05 9.999844e-05 -9.999907e-05 -9.999922e-05
9.999788e-05 -9.9997356e-05 -9.9998586e-05 -9.999727e-05 -9.999777e-05 -9.9996585e-05 9.999927e-05 9.998999e-05
9.999816e-05 9.999926e-05 9.999837e-05 9.9999066e-05 -9.9998026e-05 -9.999881e-05 9.99984e-05 9.999615e-05
9.9998906e-05 9.999834e-05 -9.999936e-05 9.999923e-05 9.99992e-05 9.9987155e-05 -9.9998746e-05 9.999132e-05
9.999846e-05 -9.9976176e-05 -9.999429e-05 9.998553e-05 -9.999905e-05 9.999252e-05 -9.999868e-05 -9.991086e-05
9.9999146e-05 9.988633e-05 9.9995515e-05 -9.875099e-05 0.0 -9.999599e-05 9.9922945e-05 9.9996454e-05
00000000: 94b6 d138 ccb5 d138 3ab6 d138 c4b6 d1b8
00000010: afb6 d138 99b4 d138 a3b6 d1b8 66b0 d1b8
00000020: abb6 d138 82b6 d138 5bb6 d138 58b5 d1b8
00000030: c2b5 d1b8 e6b2 d1b8 f0b2 d1b8 96b6 d138
00000040: 24b5 d138 c8ae d1b8 14ae d138 adae 3818
00000050: d354 a7b7 41b6 d138 98b6 d1b8 acb6 d1b8
00000060: f4b5 d138 acb5 d1b8 55b6 d1b8 a0b5 d1b8
00000070: e5b5 d1b8 42b5 d1b8 b3b6 d138 b8b1 d138
00000080: 1ab6 d138 b2b6 d138 37b6 d138 97b6 d138
00000090: 08b6 d1b8 74b6 d1b8 3bb6 d138 06b5 d138
000000a0: 81b6 d138 33b6 d138 bfb6 d1b8 aeb6 d138
000000b0: a9b6 d138 32b0 d138 6bb6 d1b8 6eb2 d138
000000c0: 44b6 d138 4daa d1b8 07b4 d1b8 53af d138
000000d0: 95b6 d1b8 13b3 d138 62b6 d1b8 3c87 d1b8
000000e0: a2b6 d138 117a d138 afb4 d138 8918 cfb8
000000f0: 0000 0000 f0b4 d1b8 b98d d138 30b5 d138

conv_blocks.2.2.weight f4 [64, 64, 3]
-0.14080198 -0.13464075 0.0075060823 0.0042194603 -0.15502486 -0.020939758 -0.12264133 0.009914793
0.02057265 -0.016378548 -0.06609031 -0.026073948 0.09409571 0.0037137992 0.018050358 -0.2014843
-0.047398843 -0.04976237 -0.12668338 0.025471883 -0.079101846 -0.093432575 -0.035293315 0.012126866
0.038517203 0.07637805 0.0033069672 0.07722259 -0.073801704 -0.094279215 0.010306971 0.04745209
-0.25318432 0.020162886 -0.05616956 0.08366013 0.019829862 -0.0068147513 -0.025264213 -0.039980557
0.07488957 -0.03920729 -0.0544314 0.09228997 0.045342937 0.062337294 -0.022050904 0.008632461
0.21447507 0.08635003 0.07669884 -0.013884818 0.04950939 0.084791444 0.0044770604 -0.08570828
0.045015816 0.1535306 0.10900323 -0.04578007 0.011498794 -0.074783996 -0.046114434 0.053226233
-0.12651704 -0.02218737 0.07572135 0.1216201 -0.0056823557 -0.043780603 0.07432621 -0.02143704
0.00056898047 0.031786222 -0.07151239 0.124825254 0.0010356721 0.17737727 0.04987199 0.1005621
-0.060598467 0.03506501 -0.09271189 -0.08091009 0.032836087 0.11023558 -0.13358246 0.10896385
-0.013695835 0.14675057 -0.21460229 -0.17193109 -0.04029041 0.21496913 0.03753678 -0.03724541
-0.16543521 -0.013173251 -0.01860278 0.13581684 -0.23784828 -0.029375415 0.20048952 0.070554584
0.15287171 -0.06971713 -0.13611393 -0.06660206 -0.031674933 0.12547241 0.00041225945 -0.016800834
0.060888816 -0.06271548 -0.2915771 0.19595729 0.17597339 -0.0761755 0.02455277 0.06240156
-0.024220303 0.05962282 0.20912108 0.110612325 -0.13857242 -0.11455698 0.1444714 0.07614609
0.080126256 -0.06429146 -0.14245695 -0.07166877 0.12974378 -0.026350422 -0.042467877 0.04123982
-0.10457198 -0.14472653 -0.019812338 -0.047389016 -0.0053740763 0.09268591 0.11694662 -0.18456653
0.12617044 -0.15083437 0.25003618 -0.0061484883 0.090443075 -0.10899895 -0.004827602 -0.049465783
-0.12287575 0.17175986 -0.07575185 0.10658685 -0.014543283 0.13504538 0.012705504 -0.026636362
-0.008797193 0.032468203 0.16835748 0.010778457 0.006419402 0.011184115 0.040098883 0.09339456
0.047231577 -0.08865057 -0.09308491 0.07298848 0.13373579 0.010749637 -0.21669318 0.009498015
0.02994153 0.037803736 -0.02280761 -0.013846355 0.037731044 0.07123294 -0.042956613 -0.08445707
-0.06851623 -0.04183561 0.10484003 -0.051285982 0.13432226 0.04085068 -0.035428178 0.13959783
0.21100648 0.0033967278 -0.2650807 -0.028110819 -0.121391974 -0.20566644 -0.010603692 -0.055678643
0.0006861642 -0.002671733 0.22666124 0.034828268 0.038813382 -0.19931118 -0.06942633 -0.16493165
-0.085895434 0.012068791 0.07474213 -0.06471227 0.2851334 -0.1795236 0.054472707 -0.20106865
-0.059285954 0.009175627 -0.0067589562 -0.2283591 0.0016591519 -0.020506302 0.06584317 0.17699587
-0.029234696 -0.040346112 0.024605948 0.019745536 0.048035096 0.062731296 -0.19979183 -0.04694293
-0.084695406 -0.03727695 0.053493094 -0.12748621 -0.036367167 -0.15759125 -0.1310659 0.07558309
0.056556188 -0.20445417 0.050288826 0.084555484 0.008500319 -0.050874725 0.1397628 -0.014140459
0.006304648 -0.008910519 -0.19687346 0.06722208 -0.0072156866 -0.013370168 0.051234335 -0.12322428
00000000: 652e 10be 44df 09be 95f5 f53b 6643 8a3b
00000010: d6be 1ebe db89 abbc 612b fbbd a871 223c
00000020: f987 a83c 4e2c 86bc 5b5a 87bd 0899 d5bc
00000030: 40b5 c03d 3663 733b 58de 933c e651 4ebe
00000040: 4a25 42bd a0d3 4bbd 4ab9 01be 69aa d03c
00000050: 2600 a2bd 9459 bfbd b98f 10bd c3af 463c
00000060: 37c4 1d3d 186c 9c3d b4b9 583b e126 9e3d
00000070: 5925 97bd 7615 c1bd 92de 283c 1f5d 423d
00000080: 60a1 81be a32c a53c 0d12 66bd 0156 ab3d
00000090: 3c72 a23c 474e dfbb e5f6 cebc a7c2 23bd
000000a0: b45f 993d d397 20bd 76f3 5ebd 8602 bd3d
000000b0: 84b9 393d 6455 7f3d 19a4 b4bc 2a6f 0d3c
000000c0: 5a9f 5b3e 49d8 b03d 4814 9d3d 267d 63bc
000000d0: 5cca 4a3d 23a7 ad3d 4eb4 923b d387 afbd
000000e0: 8162 383d 2037 1d3e 163d df3d e283 3bbd
000000f0: 7065 3c3c 5a28 99bd 7de2 3cbd c003 5a3d
00000100: af8d 01be 4ac2 b5bc cc13 9b3d f613 f93d
00000110: 0e33 babb 4a53 33bd 5738 983d bb9c afbc
00000120: a227 153a 4532 023d 1775 92bd 62a4 ff3d
00000130: 64bf 873a 63a2 353e 9246 4c3d 81f3 cd3d
00000140: 1936 78bd 54a0 0f3d bbdf bdbd 30b4 a5bd
00000150: 227f 063d 31c3 e13d d7c9 08be 7028 df3d
00000160: 7f64 60bc c845 163e b4c0 5bbe b40e 30be
00000170: 8f07 25bd de20 5c3e 2bc0 193d a58e 18bd
00000180: d967 29be 9fd4 57bc db64 98bc 9213 0b3e
00000190: 808e 73be b6a4 f0bc 204d 4d3e ec7e 903d
000001a0: 678a 1c3e dbc7 8ebd 7361 0bbe a966 88bd
000001b0: 93bd 01bd d77b 003e 8724 d839 e7a1 89bc
000001c0: 8d66 793d f970 80bd 9849 95be 07a9 483e
000001d0: 5e32 343e e701 9cbd e422 c93c c798 7f3d
000001e0: a869 c6bc 0f37 743d d623 563e b788 e23d
000001f0: eee5 0dbe da9c eabd 50f0 133e 7bf2 9b3d
00000200: 3c19 a43d 3eab 83bd 3ce0 11be 13c7 92bd
00000210: 8edb 043e d7dc d7bc ccf2 2dbd 16eb 283d
00000220: d629 d6bd 3133 14be 7c4d a2bc fc1a 42bd
00000230: 0519 b0bb 1cd2 bd3d b681 ef3d 02ff 3cbe
00000240: d332 013e 5374 1abe be04 803e 4279 c9bb
00000250: 383a b93d d73a dfbd dc30 9ebb a29c 4abd
00000260: 48a6 fbbd d1e1 2f3e c923 9bbd 354a da3d
00000270: f346 6ebc 5649 0a3e bf2a 503c 8034 dabc
00000280: 1a22 10bc 61fd 043d e765 2c3e 2098 303c
00000290: d959 d23b 943d 373c ba3e 243d a645 bf3d
000002a0: e675 413d 6e8e b5bd 4da3 bebd fc7a 953d
000002b0: 09f2 083e 3f1f 303c d1e4 5dbe 909d 1b3c
000002c0: f147 f53c 17d8 1a3d 06d7 babc d2db 62bc
000002d0: de8b 1a3d 93e2 913d 46f3 2fbd d4f7 acbd
000002e0: 3d52 8cbd d15b 2bbd 5fb6 d63d 4011 52bd
000002f0: c68b 093e 0b53 273d 231d 11bd bcf2 0e3e
00000300: 1512 583e a39b 5e3b a8b8 87be a948 e6bc
00000310: 5b9c f8bd 399a 52be 1cbb 2dbc 4a0f 64bd
00000320: b3df 333a 3e18 2fbb e219 683e 16a8 0e3d
00000330: c8fa 1e3d 3b18 4cbe 642f 8ebd d8e3 28be
00000340: f2e9 afbd 2ebc 453c 6712 993d de87 84bd
00000350: 01fd 913e 09d5 37be c61e 5f3d f1e4 4dbe
00000360: d4d5 72bd 5e55 163c 3c7a ddbb f8d6 69be
00000370: e677 d93a d5fc a7bc c9d8 863d 683e 353e
00000380: 9a7d efbc f741 25bd 6a92 c93c 64c1 a13c
00000390: 73c0 443d 4479 803d 3b96 4cbe 3b47 40bd
000003a0: c974 adbd b7af 18bd 931b 5b3d bf8b 02be
000003b0: bdf5 14bd 9a5f 21be 2436 06be 4fcb 9a3d
000003c0: 76a7 673d 6f5c 51be a8fb 4d3d 6d2b ad3d
000003d0: ec44 0b3c 0462 50bd fb1d 0f3e 62ad 67bc
000003e0: 3897 ce3b 6dfd 11bc 3299 49be bbab 893d
000003f0: 9171 ecbb 8d0e 5bbc 18db 513d 035d fcbd

conv_blocks.2.2.bias f4 [64]
-9.999773e-05 -9.999882e-05 -9.999942e-05 -9.9990204e-05 -9.999882e-05 -9.999873e-05 9.999945e-05 9.999826e-05
-9.9999015e-05 9.9895085e-05 9.999899e-05 -6.152307e-05 -9.997818e-05 9.99978e-05 -9.999835e-05 -9.9996934e-05
9.98999e-05 9.999693e-05 -9.999731e-05 -9.998372e-05 -9.999874e-05 9.999932e-05 -9.9999284e-05 -9.999845e-05
9.9998564e-05 -9.999874e-05 9.999922e-05 -9.999741e-05 9.928192e-05 -9.999924e-05 -9.996677e-05 -9.9999044e-05
-9.999916e-05 -9.998887e-05 -9.9997844e-05 9.999735e-05 9.999925e-05 -9.999463e-05 -9.9998884e-05 -9.999874e-05
-9.998903e-05 9.9998055e-05 9.9997575e-05 -9.999925e-05 -9.998522e-05 9.999021e-05 -9.992531e-05 -9.999428e-05
-9.999943e-05 9.999757e-05 -9.999527e-05 9.9998986e-05 9.999859e-05 9.999963e-05 9.999861e-05 -9.9999554e-05
9.999862e-05 -9.999733e-05 -9.9997014e-05 9.940059e-05 9.999145e-05 9.9999066e-05 -9.999924e-05 9.996877e-05
00000000: dfb5 d1b8 75b6 d1b8 c8b6 d1b8 d5b1 d1b8
00000010: 75b6 d1b8 69b6 d1b8 ccb6 d138 28b6 d138
00000020: 90b6 d1b8 c47e d138 8db6 d138 f205 81b8
00000030: 60ab d1b8 e9b5 d138 35b6 d1b8 72b5 d1b8
00000040: 5a81 d138 71b5 d138 a6b5 d1b8 5aae d1b8
00000050: 6ab6 d1b8 bab6 d138 b5b6 d1b8 42b6 d1b8
00000060: 52b6 d138 6ab6 d1b8 acb6 d138 b3b5 d1b8
00000070: 9335 d038 afb6 d1b8 40a5 d1b8 94b6 d1b8
00000080: a4b6 d1b8 1eb1 d1b8 efb5 d1b8 abb5 d138
00000090: b0b6 d138 35b4 d1b8 7eb6 d1b8 6ab6 d1b8
000000a0: 34b1 d1b8 0cb6 d138 cab5 d138 b0b6 d1b8
000000b0: 28af d1b8 d6b1 d138 fe8e d1b8 05b4 d1b8
000000c0: c9b6 d1b8 c9b5 d138 8db4 d1b8 8cb6 d138
000000d0: 56b6 d138 e4b6 d138 58b6 d138 dab6 d1b8
000000e0: 5ab6 d138 a8b5 d1b8 7db5 d1b8 4975 d038
000000f0: 80b2 d138 97b6 d138 afb6 d1b8 53a6 d138
